CS330/XCS330-PS3/src/submission/logs/maml/omniglot.way_5.support_1.query_15.inner_steps_1.inner_lr_0.4.learn_inner_lrs_True.outer_lr_0.001.batch_size_16/state2500.pt (torch, 360718 bytes, 30 tensors)

conv0 f4 [32, 1, 3, 3]
0	0x3ce37aef	0.02776858
1	0x397a2c9e	0.00023858479
2	0xbe71c11f	-0.23608826
3	0xbd82b7ea	-0.06382735
4	0xbe2b9bba	-0.16758624
5	0xbdece9e6	-0.1156805
6	0x3d2a3ba8	0.0415608
7	0x3e2f5697	0.17122875
8	0x3dfd2dc6	0.12362246
9	0x3dce9bad	0.100882865
10	0x3d13134c	0.035907075
11	0xbe53782b	-0.20651309
12	0xbc396837	-0.011316351
13	0x3b3fc093	0.002925907
14	0xbe6ef366	-0.23335037
15	0x3da07215	0.078342594
16	0xbcc752ab	-0.024331411
17	0xbe587f9a	-0.21142426
18	0xbe56185c	-0.2090773
19	0x3d0acffd	0.03388976
20	0x3d979444	0.07401326
21	0xbe509bca	-0.20371929
22	0xbba3e77a	-0.0050019594
23	0x3db3f4ba	0.08786912
24	0xbe40c212	-0.18824032
25	0xbd260f25	-0.040541787
26	0x3a6397c3	0.0008681977
27	0x3e02d183	0.12775235
28	0xbdf571cd	-0.119845964
29	0xbe6f0c21	-0.2334447
30	0x3ca217f6	0.019786816
31	0x3dbc0118	0.09179896
32	0x3be60648	0.0070197918
33	0xbe53bf93	-0.20678549
34	0x3d5ddc64	0.05416526
35	0x3e03e1e5	0.1287914
36	0x3d8cec0c	0.0688096
37	0x3da77a1a	0.08177586
38	0xbbcb389d	-0.006201817
39	0x3daa7695	0.08323399
40	0x3d7875e5	0.060659308
41	0xbdd43bf2	-0.10362996
42	0xbe84fdd6	-0.2597491
43	0xbe7ce3f3	-0.2469633
44	0xbe15bda6	-0.14623126
45	0x3be7daa8	0.0070756264
46	0xbe5d16ea	-0.21590772
47	0xbb94ce1e	-0.0045411726
48	0xbd2d2289	-0.042269263
49	0xbda216a3	-0.07914474
50	0x3e0a0072	0.13476732
51	0xbd9cf4f1	-0.07663906
52	0xbdba38e3	-0.090928815
53	0x3ce56c7a	0.028005827
54	0xbd8aa965	-0.06770591
55	0xbe021fd9	-0.12707461
56	0xbe0a1760	-0.1348548
57	0x3c9b2d2c	0.018942438
58	0xbe0c41c6	-0.13696966
59	0xbda62868	-0.08113176
60	0x3e4f67d5	0.20254453
61	0x3d2637c1	0.040580515
62	0xbe277d80	-0.16356468
63	0xbddbbef6	-0.10729782
64	0xbdc38f22	-0.09548785
65	0xbdbf357c	-0.09336373
66	0xbe067887	-0.13131915
67	0x3d45ee6a	0.048323072
68	0x3dd10454	0.10205904
69	0xbddfe868	-0.10933
70	0x3d1fe830	0.03903979
71	0x3db82028	0.08990508
72	0x3d610fa8	0.05494657
73	0x3da6bca6	0.081414506
74	0xbe93cc54	-0.28866827
75	0x3dffd0b2	0.12490977
76	0x3d1516d9	0.036398742
77	0xbe887719	-0.26653364
78	0x3b2d5be1	0.002645247
79	0xbb0976f3	-0.002097544
80	0xbe7b96dc	-0.24569267
81	0x3d858f62	0.06521489
82	0x3d302a7d	0.04300927
83	0x3bdd04dd	0.0067449645
84	0xbdd3510a	-0.10318191
85	0xbeadfbe1	-0.3398123
86	0xbd00183b	-0.031273108
87	0x3dd0393c	0.101671666
88	0xbce85fcf	-0.028365998
89	0x3d99ab8e	0.075034246
90	0xbcab4113	-0.020905053
91	0x3d2b769c	0.04186116
92	0x3c0bb28c	0.008526456
93	0x3dd8a460	0.10578227
94	0xbe4d4115	-0.20044358
95	0xbd42931f	-0.047503587
96	0xbd6fd136	-0.05854913
97	0xbe8e0122	-0.2773524
98	0x3e165492	0.14680699
99	0x3ca11c32	0.019666765
100	0x3dccf0db	0.10006877
101	0x3e53087d	0.20608707
102	0x3d924a8b	0.07143124
103	0x3d8bf511	0.06833852
104	0x3df7982f	0.120895736
105	0x3e0bf9eb	0.13669555
106	0x3d6b39ca	0.05742816
107	0x3e559a71	0.20859696
108	0x3e1b6116	0.15173754
109	0xbddcdd94	-0.1078445
110	0x3d4b1f19	0.049590204
111	0xbdc20a64	-0.09474638
112	0xbe490f51	-0.19634749
113	0x3d93a29a	0.07208748
114	0x3c3c701d	0.011501339
115	0xbc4395db	-0.011937584
116	0x3db3f5ee	0.08787142
117	0xbe5f4fbe	-0.21807763
118	0xbe8f5b35	-0.27999273
119	0xbe255602	-0.1614609
120	0xbd52ad75	-0.051434953
121	0x3b07b3bc	0.0020706495
122	0xbd4151c1	-0.047197107
123	0xbd58e0b6	-0.052948676
124	0x3df08755	0.117445625
125	0x3e2a116c	0.16608208
126	0x3d367d17	0.04455289
127	0x3d888ac5	0.06667093
128	0x3e588365	0.21143873
129	0xbe222132	-0.15832976
130	0xbcbb399a	-0.022854615
131	0xbe26630c	-0.16248721
132	0x3cd70350	0.026246697
133	0xbc2a2085	-0.01038373
134	0xbe12949f	-0.14314507
135	0xbd31f36d	-0.04344504
136	0xbd16535c	-0.03670059
137	0x3e4dd79b	0.20101778
138	0xbd4d0b8d	-0.050059844
139	0xbe63ee80	-0.2225895
140	0xbcfdf9c6	-0.03100289
141	0xbdedda0a	-0.11613853
142	0xbe0ee431	-0.13954236
143	0xbd2c7f6d	-0.04211371
144	0xbe3e05f7	-0.18556963
145	0x3cd1be14	0.025603332
146	0x3d99ee9a	0.07516213
147	0x3e06ffc1	0.131835
148	0x3da74a3f	0.08168458
149	0x3c395d7f	0.011313795
150	0xbd865b83	-0.06560423
151	0xbe2df119	-0.16986503
152	0xbe5e5dfa	-0.21715537
153	0x3e169138	0.14703834
154	0xbb00dea9	-0.0019663966
155	0xbe3269b5	-0.17423137
156	0xbd558eb2	-0.052138038
157	0xbd855110	-0.06509602
158	0xbd5c6ace	-0.053812794
159	0xbe0d9b99	-0.13828887
160	0xbd81ae42	-0.06332065
161	0x3da09216	0.07840364
162	0x3df45a3d	0.11931274
163	0xbe9be017	-0.30444404
164	0xbd74abe9	-0.05973426
165	0xbe3ec67a	-0.186304
166	0xbca84c09	-0.020544069
167	0x3ddf68da	0.10908671
168	0xbcaa0f5c	-0.020759277
169	0x3d9466e7	0.072461896
170	0xbad4bde1	-0.0016230905
171	0xbd180612	-0.037115164
172	0xbe8062ec	-0.2507547
173	0x3c620106	0.013794189
174	0x3e34785f	0.17624043
175	0x3cabc853	0.020969545
176	0xbe777d73	-0.24168949
177	0xbdb15d16	-0.08660333
178	0x3dedef4e	0.11617909
179	0xbcd7a4bd	-0.02632367
180	0xbd446e91	-0.047957007
181	0x3d895d75	0.06707279
182	0x3dc167a2	0.094435945
183	0xbe153ccc	-0.14573973
184	0x3c83720c	0.016045593
185	0x3e3e2490	0.18568635
186	0xbe409827	-0.18808042
187	0xbe22b586	-0.15889558
188	0x3bd5269b	0.0065048463
189	0x3d08cc58	0.033398002
190	0x3c29140d	0.010319722
191	0x3e041f89	0.12902655
192	0xbc53e8ad	-0.012933892
193	0x3d0aefd7	0.033920135
194	0x3d266b03	0.040629398
195	0xbe5a1d6e	-0.21300289
196	0xbe7ca48a	-0.24672142
197	0xbe62b309	-0.22138609
198	0xbe63fd9e	-0.22264716
199	0xbda2071e	-0.07911514
200	0x3e5af92b	0.21384113
201	0xbe064b26	-0.13114604
202	0x3ccae121	0.024765553
203	0x3d0a4e6f	0.033766206
204	0xbd94b7bd	-0.07261608
205	0x3e337884	0.17526442
206	0xbe0f1eab	-0.13976543
207	0xbd82096d	-0.06349454
208	0x3d79c576	0.06097933
209	0x3d896b03	0.06709864
210	0xbe298763	-0.16555552
211	0x3c1dc00b	0.009628306
212	0x3d6f15e6	0.058370493
213	0x3d2736e7	0.040823843
214	0xbe3c334a	-0.1837894
215	0xbe2af509	-0.16695036
216	0xbe7c4d5c	-0.24638885
217	0xbe728246	-0.23682508
218	0xbe6c23bf	-0.23060511
219	0x3d5736f0	0.052542627
220	0x3d2a0f06	0.041518234
221	0x3d10bf1d	0.03533851
222	0x3c8ce511	0.017199071
223	0x3db2a91d	0.08723662
224	0x3d0cd2e2	0.0343808
225	0xbc85d688	-0.016337648
226	0x3d889b25	0.066702165
227	0xbde0608f	-0.10955917
228	0xbcce2cbc	-0.025167815
229	0xbb821b7a	-0.0039705606
230	0xbe972acb	-0.29524836
231	0xbc3538ff	-0.011060952
232	0x3e171256	0.14753088
233	0xbe149876	-0.14511284
234	0xbe98263c	-0.2971667
235	0xbde2fbae	-0.1108316
236	0xbcdf4a70	-0.027257174
237	0x3be8a969	0.0071002734
238	0x3d5c3d67	0.053769495
239	0xbca8c0b2	-0.020599697
240	0x3e20714d	0.15668221
241	0xbcf85bfe	-0.030317303
242	0x3cfae398	0.030626103
243	0x3d865f6d	0.0656117
244	0xbc17d029	-0.009265938
245	0xbc3174fd	-0.010831115
246	0x3d470293	0.04858644
247	0x3dd1e056	0.10247867
248	0xbdf9709c	-0.12179682
249	0xbe35894d	-0.17728157
250	0x3d3b9f6a	0.045806326
251	0xbe4ac8a7	-0.19803105
252	0xbe815eb5	-0.25267568
253	0xbd5af79f	-0.053458806
254	0x3e0f5707	0.13998042
255	0xbb86bf98	-0.004112195

b0 f4 [32]
0	0xbcd9f0c5	-0.026604066
1	0x3d48a45e	0.048984878
2	0xbd1f53b1	-0.038898174
3	0x3dcacb8d	0.099021055
4	0x3d863af2	0.06554212
5	0x3cd23a42	0.025662545
6	0x3cd6cb1d	0.026219899
7	0xbd1348d2	-0.03595812
8	0x3d5e8e4e	0.05433493
9	0x3da0e3ff	0.07855987
10	0xbca45d1c	-0.02006393
11	0xbce8b3b4	-0.028406002
12	0x3d7dd39c	0.061969385
13	0x3cf5b72f	0.029994575
14	0x3bc9f4aa	0.0061631994
15	0x3d7d6a72	0.061869092
16	0x3c1af53d	0.009457883
17	0x3c1f228e	0.009712828
18	0x3c51f539	0.012814813
19	0xbde4a919	-0.11165065
20	0xbd47756b	-0.048695963
21	0xbdd83768	-0.10557443
22	0x3dde44c4	0.1085296
23	0xbdffe2d9	-0.1249444
24	0xbd2b0909	-0.041756663
25	0xbd643b07	-0.055720355
26	0xbb48a369	-0.0030614978
27	0xbc55b2c2	-0.013043107
28	0x3d232d06	0.03983786
29	0xbc9b84bf	-0.018984197
30	0x3b2223b8	0.0024740528
31	0xbcfa9ff8	-0.030593857

conv1 f4 [32, 32, 3, 3]
0	0xbd7ce494	-0.061741427
1	0x3d65f4a0	0.056141496
2	0xbc953ebf	-0.018218396
3	0x3d6b0479	0.057377312
4	0x3d2230c9	0.039597306
5	0x3e3177ab	0.17330806
6	0x3ae1db76	0.0017231542
7	0x3d930e8e	0.071805105
8	0x3e5e07fa	0.2168273
9	0x3db690f3	0.089143656
10	0xbd1423a9	-0.03616682
11	0x3e53fefb	0.20702736
12	0x3c845348	0.016152993
13	0xbd663e93	-0.05621202
14	0xbe080e9d	-0.13286825
15	0x3c649362	0.013951154
16	0xbe00b67f	-0.12569617
17	0xbe74cf80	-0.2390728
18	0x3e0f9f70	0.14025664
19	0x3daff49a	0.08591576
20	0xbdd7c628	-0.10535842
21	0x3d9160a7	0.07098513
22	0x3cfa3032	0.03054056
23	0xbd9830bf	-0.074311726
24	0xbd34b5a3	-0.044118535
25	0x3ca2308e	0.019798543
26	0x3d00f729	0.03148571
27	0xbd2522c0	-0.040316343
28	0xbc373ffe	-0.0111846905
29	0xbdadbe9b	-0.08483621
30	0xbd833bd5	-0.064078964
31	0xbc9a4877	-0.018833382
32	0x3cf3ce6e	0.02976152
33	0xbdf30429	-0.11866028
34	0xbd9cb0f2	-0.07650937
35	0xbd0a51c7	-0.033769395
36	0x3c08d88b	0.008352409
37	0x3a22ad0e	0.0006205597
38	0xbbcc4835	-0.0062341937
39	0x3de98491	0.11402238
40	0x3be179fc	0.0068809967
41	0x3e150a75	0.1455477
42	0x3e08dd52	0.13365677
43	0x3d4fa3f4	0.050693467
44	0x3e1473ee	0.14497349
45	0x3dff611c	0.12469694
46	0x3dfb97fd	0.12284849
47	0xbd03abfd	-0.032146443
48	0xbd70551e	-0.058674924
49	0x3cea489b	0.028599074
50	0xbd9648a7	-0.07338076
51	0x3e05bf3c	0.13061231
52	0x3c4f3980	0.012647986
53	0xbd7aec7f	-0.061260697
54	0x3e43f037	0.19134603
55	0x3e1239e1	0.14279892
56	0x3d9cbbc4	0.07653001
57	0x3cefb1b7	0.029259546
58	0xbd1f1ddf	-0.038846847
59	0xbdd3d5ed	-0.103435375
60	0xbe2961a0	-0.16541147
61	0xbccd90cd	-0.02509346
62	0x3d139393	0.03602941
63	0xbbc8e872	-0.0061312253
64	0x3d5c7792	0.05382497
65	0x3dd81eb7	0.105527334
66	0xbc94bfbf	-0.018157838
67	0x3db3b1ca	0.08774145
68	0x3d34041a	0.043949224
69	0xbd5cf4e6	-0.05394449
70	0xbd5be0dd	-0.053681243
71	0xbd7a4cd5	-0.06110843
72	0x3c89a86c	0.016803943
73	0xbd112692	-0.035437174
74	0x3dbf9414	0.093544155
75	0xbdf2aae2	-0.118489996
76	0xbdf9b368	-0.12192422
77	0x3d1e43f7	0.038639035
78	0xbe4955c9	-0.1966163
79	0xbd604f04	-0.054762855
80	0xbdef4f6f	-0.11685073
81	0xbdc98f33	-0.09841766
82	0xbd892301	-0.066961296
83	0x3d8d961c	0.06913397
84	0x3dae2259	0.08502645
85	0xbc7a28d6	-0.015268525
86	0x3d48defc	0.04904078
87	0x3db14279	0.08655257
88	0xbd0ee300	-0.034884453
89	0x3cbe9ab4	0.023267128
90	0x3e3eb430	0.18623424
91	0x3c759839	0.014989906
92	0x3d36a4e1	0.044590835
93	0xbb358f0a	-0.0027703666
94	0xbd0a0274	-0.033693746
95	0xbd9da532	-0.07697524
96	0x3ccca8a1	0.024982752
97	0xbcde8203	-0.027161604
98	0x3cac606a	0.021042068
99	0xbd8fd606	-0.070232436
100	0xbc3b97b3	-0.011449742
101	0xbd8a5e25	-0.06756238
102	0xbd2e7172	-0.04258866
103	0x3c1444e4	0.009049628
104	0x3db0f1ec	0.08639893
105	0x3deeab32	0.11653747
106	0x3c899712	0.016795669
107	0x3caf5d51	0.021406801
108	0xbd6d4266	-0.05792465
109	0x3e04d9a1	0.12973644
110	0xbba2d750	-0.004969515
111	0x3ca5bbb8	0.020231113
112	0xbc9bfb93	-0.019040858
113	0x3a3e7983	0.00072660315
114	0xbe3296fd	-0.1744041
115	0xbdf35329	-0.11881096
116	0x3d68eefc	0.05686854
117	0xbea2f9ca	-0.318312
118	0x3db20fc3	0.086944126
119	0x3e904a9d	0.28181925
120	0xbe3a7b4a	-0.18211094
121	0xbe205faa	-0.15661493
122	0x3ad637f8	0.0016343584
123	0xbe56f91b	-0.20993464
124	0xbe1ca99b	-0.15299074
125	0xbd518570	-0.051152647
126	0x3de183b1	0.11011446
127	0xbd94cbdb	-0.07265445
128	0x3bb6191e	0.0055571934
129	0xbc70db3d	-0.014700708
130	0xbba058a8	-0.004893381
131	0x3d6495f6	0.055807076
132	0xbac8a519	-0.0015307992
133	0x3d2d09e9	0.04224578
134	0xbdbb1e89	-0.091366835
135	0x3dc2f8a3	0.0952008
136	0x3e21bf7a	0.15795699
137	0x3d8cf9fa	0.06883617
138	0xbc78e827	-0.015192068
139	0xbd84ebdf	-0.06490301
140	0xbb30eae9	-0.0026995486
141	0x3c701c92	0.014655249
142	0xbd2797e6	-0.040916346
143	0x3bc2797f	0.0059348936
144	0x3d30247f	0.043003555
145	0xbd9e0b3c	-0.077169865
146	0x3dfc8b26	0.12331228
147	0xbc18fca9	-0.009337583
148	0xbcc41789	-0.023937004
149	0x3d427f2f	0.047484573
150	0x3c5f81c5	0.013641779
151	0xbdbdaaa5	-0.092610635
152	0xbd9c8257	-0.07642048
153	0xbd1bcf36	-0.03803941
154	0xbd04a5c1	-0.032384638
155	0xbb6ba633	-0.0035957217
156	0xbdae43df	-0.08509039
157	0x3d8e644b	0.06952723
158	0xbd7ef74b	-0.062247556
159	0x3c08b5b0	0.008344099
160	0x3e32564e	0.17415735
161	0x3db1823d	0.08667419
162	0x3d18e1c3	0.03732468
163	0x3d5807b8	0.052741736
164	0x3dbb7a49	0.091541834
165	0x3a3693ed	0.00069647917
166	0x3d6d159b	0.057881933
167	0xbc27157d	-0.010197994
168	0xbc6d7471	-0.014493094
169	0x3ddb91c5	0.10721163
170	0x3cb0d9b5	0.021588186
171	0x3d4aef02	0.04954434
172	0xbd619118	-0.055070013
173	0xbda508d9	-0.08058328
174	0xbc4852ce	-0.012226773
175	0xbd5a2ce5	-0.05326547
176	0xbd7cd185	-0.06172325
177	0x3d298ca4	0.04139389
178	0x3cc5687d	0.024097675
179	0xbb9ca094	-0.0047798846
180	0x3d83ff5d	0.06445191
181	0x3c859e88	0.016310945
182	0x3cf9fbe9	0.030515628
183	0xbd1fcd3b	-0.039014082
184	0xbd05c87d	-0.032661904
185	0x3cc055f7	0.023478491
186	0xbe6b4cf3	-0.22978573
187	0xbe5e825b	-0.21729414
188	0xbdcb6d96	-0.09933011
189	0x3e032188	0.1280576
190	0xbe12236c	-0.14271325
191	0xbc994d0f	-0.018713502
192	0x3d921573	0.07132997
193	0x3d029e6a	0.031889357
194	0xbd3e5e86	-0.046476863
195	0xbda1521b	-0.078769885
196	0xbc3cbbec	-0.011519413
197	0x3daee917	0.08540552
198	0xbdda0a1a	-0.10646458
199	0x3d0995b8	0.03359005
200	0x3de01c0c	0.109428495
201	0xbdae79e9	-0.08519346
202	0xbd86a5e3	-0.06574609
203	0xbd8c5ceb	-0.0685366
204	0xbd4d7cb9	-0.050167773
205	0xbc84fe64	-0.016234584
206	0x3b956673	0.004559332
207	0x3cf51179	0.029915558
208	0xbd8c30e7	-0.06845265
209	0xbe097715	-0.13424332
210	0xbd841db9	-0.06450982
211	0xbe4e2c90	-0.20134187
212	0xbe000990	-0.12503648
213	0x3c5a6848	0.013330527
214	0x3d3c6a4f	0.04599982
215	0x3d437bb8	0.04772541
216	0xbe2341d4	-0.1594308
217	0xbe004b46	-0.12528715
218	0x3d00a91d	0.03141128
219	0xbeb484c7	-0.3525755
220	0xbce99889	-0.028515117
221	0x3cc953c1	0.02457607
222	0xbdb4a1c9	-0.088199206
223	0xbd9914c9	-0.074746676
224	0x3d5e3524	0.054249898
225	0x3dd3b8d6	0.10337989
226	0x3c5d4d4a	0.013507197
227	0xbd6eeb0a	-0.05832962
228	0x3dcd6f0a	0.10030945
229	0x3deb22f4	0.11481276
230	0x3c638c75	0.013888468
231	0x3e05deb3	0.13073234
232	0xbd2dd04a	-0.042434968
233	0xbe01b051	-0.12664916
234	0xbdb958ff	-0.09050178
235	0xbdba3d28	-0.09093696
236	0x3bcd331c	0.006262196
237	0xbd2be2a3	-0.041964184
238	0x3c8eab93	0.017415797
239	0x3dab911d	0.083772875
240	0xbdcb503c	-0.09927413
241	0xba46d5b9	-0.0007584948
242	0xbd990992	-0.074725285
243	0x3c85792e	0.016293135
244	0x3d83c44a	0.064339235
245	0x3b85eb12	0.0040868605
246	0x3dbdb5b4	0.09263173
247	0xbbe4394c	-0.006964838
248	0x3caf52d1	0.021401795
249	0x3ddc6877	0.107621126
250	0xbddeae75	-0.10873119
251	0xbd8cc87e	-0.06874178
252	0x3e5b030f	0.21387886
253	0x3d4a0525	0.049321312
254	0x3d351d5d	0.044217456
255	0xbe33db4d	-0.17564125

b1 f4 [32]
0	0x3cbb672e	0.022876348
1	0xbc2a73b3	-0.010403561
2	0x3b4aeb7a	0.003096311
3	0xbcc2c34b	-0.023774764
4	0xbadc8de0	-0.001682695
5	0xbc54402d	-0.012954754
6	0x3cc98938	0.024601564
7	0x3b1b92dd	0.002373866
8	0x3d08d4cd	0.033406068
9	0xbc42e207	-0.011894709
10	0xbc37e7c7	-0.011224694
11	0xbc925853	-0.017864382
12	0x3bc27d0b	0.0059353164
13	0xbbea644d	-0.00715307
14	0x3bc4d9e5	0.0060074204
15	0xbc630093	-0.013855117
16	0x394db313	0.00019617034
17	0xbc0e97c9	-0.008703181
18	0xbc06ecb6	-0.008235147
19	0xbbbc49b4	-0.005746091
20	0x3c471197	0.01215019
21	0xb7ba0d7c	-2.2179207e-05
22	0x3d1e8306	0.038699172
23	0x3c878212	0.016541515
24	0x3cf2e992	0.02965239
25	0x3c9e7d4e	0.01934686
26	0x3c8be11f	0.01707512
27	0x3d318943	0.043343794
28	0x3c8cc881	0.017185451
29	0xbb894f15	-0.0041903355
30	0x3c101940	0.008795083
31	0x3bf31cbc	0.007419197

conv2 f4 [32, 32, 3, 3]
0	0x3d130532	0.035893627
1	0xbd879b7a	-0.06621452
2	0x3ca833c5	0.020532498
3	0xbd5cadfe	-0.05387687
4	0xbd2adcb7	-0.041714396
5	0x3bdb6b81	0.006696165
6	0x3d24e00e	0.040252738
7	0x3bcafd36	0.006194736
8	0x3d40db51	0.047084156
9	0xbc4367a1	-0.0119265625
10	0x3ce47bd2	0.027891073
11	0x3d04bc89	0.032406364
12	0x3e094b7f	0.13407706
13	0x3d9a8448	0.07544762
14	0x3c0523ca	0.008126209
15	0x3dee36c4	0.116315395
16	0x3a32d16c	0.00068213674
17	0x3d597d1c	0.05309783
18	0x3d846b1b	0.06465741
19	0xbdaf35ac	-0.08555159
20	0xbd2413ed	-0.040058065
21	0x3c8d84ad	0.017275179
22	0x3ce41dc4	0.027846225
23	0xbd9211cf	-0.07132303
24	0x3d911c0f	0.0708543
25	0x3c0480cd	0.008087349
26	0xbcab70da	-0.020927835
27	0xbd50e1db	-0.050996643
28	0xbdb70053	-0.08935609
29	0xbccfa832	-0.025348756
30	0xbe016e16	-0.1263965
31	0xbd9d578f	-0.07682716
32	0xbcf426ae	-0.0298036
33	0xbe2f627b	-0.17127411
34	0xbe0a4c40	-0.1350565
35	0xbe0f9089	-0.1401998
36	0xbd01932c	-0.031634495
37	0x3c6b7780	0.014371753
38	0xbb3f5e5b	-0.0029200527
39	0xbc90aac3	-0.01765955
40	0xbd0ac745	-0.033881444
41	0x3d30d6d4	0.043173626
42	0xbdb7646f	-0.08954703
43	0xbb0f64f5	-0.0021880243
44	0x3dda5ea8	0.106625855
45	0x3d8bfcac	0.06835303
46	0x3d80dd87	0.06292253
47	0x3e1e3587	0.15450107
48	0x3d897b63	0.06712987
49	0xbda9629f	-0.082707636
50	0x3dc73a60	0.09727931
51	0x3bd3a465	0.0064588063
52	0x3d50b78f	0.050956305
53	0x3d8cf1ce	0.06882058
54	0xbe016fd1	-0.12640311
55	0xbcae3519	-0.021265553
56	0xbbb3085f	-0.0054636444
57	0xbb8bea3f	-0.0042698677
58	0xbd0041c2	-0.03131271
59	0x3d5fffa1	0.054687146
60	0x3da74eeb	0.08169349
61	0x3c9aa9c6	0.018879782
62	0x3d0644aa	0.032780327
63	0x3c863eb3	0.01638732
64	0xbc3b7877	-0.011442295
65	0xbd07cb14	-0.033152655
66	0x3da109fc	0.078632325
67	0x3dd36aa0	0.103230715
68	0x3d2ea25f	0.042635318
69	0x3dcfbebd	0.10143802
70	0x3d578577	0.052617516
71	0xbd19bed0	-0.03753549
72	0xbce9acf7	-0.028524859
73	0xbc672ff2	-0.014110552
74	0x3d1424d8	0.03616795
75	0xbd29ab8a	-0.041423358
76	0xbd9972e2	-0.07492615
77	0xbd8f56f6	-0.06999008
78	0xbd8d7818	-0.06907672
79	0xbccad481	-0.024759533
80	0xbc2a8467	-0.010407544
81	0xbcf88627	-0.030337406
82	0xbd971aa4	-0.07378128
83	0xbd70e567	-0.058812525
84	0x3cf24f8e	0.02957895
85	0xbb372b7a	-0.0027949498
86	0xbcad03af	-0.02111992
87	0x3c26795a	0.010160768
88	0x3d0920df	0.033478614
89	0xbb6dccc4	-0.003628538
90	0xbc4b9626	-0.012425935
91	0x3d13d851	0.036094967
92	0x3bd23aae	0.0064156866
93	0x3d13da03	0.036096584
94	0x3cd436ea	0.025905091
95	0x3d359a91	0.04433686
96	0x3d9fad7c	0.077967614
97	0x3dec68a0	0.11543393
98	0xbd4cfac6	-0.050043844
99	0x3c3a74a1	0.011380346
100	0xbda427b7	-0.080153875
101	0x3c5ac04f	0.013351514
102	0xbd235fe9	-0.03988639
103	0xbc920e64	-0.017829128
104	0xbd3411d0	-0.0439623
105	0x3bd26ddc	0.0064217877
106	0xbb5830c0	-0.0032988042
107	0x3d4ffea3	0.05077995
108	0xbda9b4e5	-0.08286456
109	0xbdaf542e	-0.08560978
110	0xbda47e31	-0.080318816
111	0x3ad0ee11	0.001594009
112	0xbd2df1ee	-0.04246705
113	0xbd5cbed2	-0.053892918
114	0xbd7fe02c	-0.062469646
115	0x3c7f4bc1	0.015582026
116	0xbd68df66	-0.056853674
117	0xbdfb05db	-0.12256976
118	0xbdbc7dab	-0.09203657
119	0x3bfe7cd2	0.0077663446
120	0xbe4e0a39	-0.20121087
121	0xbda3aef4	-0.07992354
122	0xbc576635	-0.013146927
123	0xbe360212	-0.17774227
124	0xbe84fcb5	-0.2597405
125	0xbe530cd3	-0.20610361
126	0xbd495d7d	-0.049161423
127	0xbca5f223	-0.020257061
128	0xbcd70652	-0.026248131
129	0xbd705e18	-0.058683485
130	0x3c8232d3	0.015893376
131	0x3d1ee736	0.03879472
132	0x3c67f831	0.014158295
133	0xbd9a32f5	-0.075292505
134	0xbda38f3e	-0.07986306
135	0xbd567197	-0.05235442
136	0xbdd6657c	-0.10468575
137	0x3bfe0b6a	0.0077528255
138	0x3d80dec4	0.06292489
139	0x3d95e4ec	0.07319054
140	0x3ce83f3b	0.028350463
141	0x3d9555ce	0.072917566
142	0x3dcaae22	0.098964944
143	0x3d1f2a44	0.038858667
144	0xbd67e496	-0.05661448
145	0x3b9ee6a6	0.004849273
146	0xbcf9e0fb	-0.030502787
147	0xbdb2c7cf	-0.08729517
148	0xbdd8c582	-0.105845466
149	0xbd9262ba	-0.07147737
150	0xbdd532fa	-0.10410114
151	0xbdeafdb1	-0.11474169
152	0x3c56dfae	0.013114853
153	0xbd8df088	-0.06930643
154	0x3d38fb38	0.045161456
155	0x3d0b4287	0.033998992
156	0x3dd27011	0.10275281
157	0xbdab4b90	-0.08364022
158	0x3d831509	0.064004965
159	0x3d4bfda2	0.04980243
160	0xbc8be668	-0.01707764
161	0x3bd07340	0.006361395
162	0x3bebe239	0.0071985987
163	0xbd8b25cd	-0.06794319
164	0x3caeab94	0.02132205
165	0xbd5da8af	-0.054115947
166	0x3d352d7c	0.04423283
167	0xbd38bf77	-0.04510447
168	0xbd02ee2b	-0.031965416
169	0x3ceeb0c8	0.02913703
170	0xbdd99438	-0.106239736
171	0xbd6f3ea7	-0.05840936
172	0x3b872fc0	0.0041255653
173	0xbc9cb7cf	-0.019130616
174	0xbdad01a5	-0.08447579
175	0x3ce67278	0.028130755
176	0xbd920cab	-0.071313225
177	0x3d52ec87	0.0514951
178	0xbce5f03d	-0.028068656
179	0x3d1fe98d	0.03904109
180	0xbe54d76e	-0.20785305
181	0xbe06bc81	-0.13157846
182	0xbde98e8f	-0.11404144
183	0xbe0a1394	-0.13484031
184	0xbdd4408f	-0.10363876
185	0xbd180da5	-0.037122387
186	0xbdf68e3f	-0.1203885
187	0xbe59c380	-0.21265984
188	0xbd85a037	-0.06524699
189	0xbcd660ec	-0.026169263
190	0x3c6dcc34	0.014514018
191	0xbc4e73e7	-0.012600875
192	0x3c11a8dc	0.008890357
193	0x3d329827	0.043602135
194	0xbd0c3ce8	-0.034237772
195	0x3d9a776c	0.07542309
196	0xbc730728	-0.014833249
197	0x3e09763e	0.13424012
198	0x3d5308f3	0.051522207
199	0x3d81d0d6	0.063386604
200	0x3caebb30	0.021329492
201	0x3d8752cb	0.066075884
202	0x3c85f90b	0.016354105
203	0x3d95deba	0.07317872
204	0x3d441558	0.047871917
205	0x3dabf139	0.08395619
206	0x3c3c52e7	0.011494375
207	0x3c029c56	0.007971844
208	0x3d4ac103	0.049500477
209	0xbdd212f5	-0.10257522
210	0x3de2b08e	0.110688314
211	0xbd6172de	-0.055041187
212	0xbda59c97	-0.08086508
213	0x3e2a4660	0.16628408
214	0xbc852ad1	-0.016255768
215	0x3d293fc5	0.04132058
216	0x3da35c5a	0.07976599
217	0xbd40180d	-0.046897937
218	0xbc74770e	-0.014920963
219	0x3dad8756	0.08473079
220	0x3d0efb9a	0.034907915
221	0xbda7eced	-0.08199487
222	0x3c4cd2fd	0.012501475
223	0x396925b3	0.00022234656
224	0xbd8b3acd	-0.06798325
225	0x3dfd17a0	0.12358022
226	0x3d0199de	0.03164088
227	0xbcc7178d	-0.024303222
228	0x3df67c93	0.120354794
229	0xbd171f1d	-0.036894906
230	0x3c9a311f	0.01882225
231	0x3e0fdd7e	0.14049336
232	0xbc41dc7b	-0.011832352
233	0xbcd6af2f	-0.02620658
234	0x3cb28319	0.021791028
235	0xbc9d42b8	-0.019196853
236	0x3c592a29	0.013254681
237	0x3d283b6d	0.041072298
238	0x3d7a5e14	0.061124876
239	0x3dde15c1	0.10843993
240	0x3d93235b	0.07184478
241	0x3d511477	0.051044907
242	0x3d124332	0.035708614
243	0x3d7c5692	0.061605997
244	0x3dccab7a	0.09993644
245	0x3d9ac796	0.07557599
246	0x3c978122	0.018494193
247	0x3da62352	0.081122056
248	0x3ceae428	0.028673247
249	0x3b476167	0.0030423047
250	0x3dbc3e49	0.091915675
251	0x3d87959a	0.06620331
252	0xbcd93987	-0.026516689
253	0xbda4acc1	-0.08040763
254	0xbd946c0d	-0.072471716
255	0xbd03daaa	-0.032190956

b2 f4 [32]
0	0xbc2621e4	-0.010139916
1	0xbb69a2d0	-0.0035650022
2	0x3bd19802	0.0063962946
3	0x3c0971ff	0.008388995
4	0x3d9079c1	0.07054473
5	0x3ce722d3	0.028214848
6	0x3cb395e8	0.021922067
7	0x3c25c51d	0.010117796
8	0x3c91a532	0.017778967
9	0x3be9f397	0.007139634
10	0x3d6c5223	0.05769552
11	0xbcc3d541	-0.023905398
12	0xbc837e0c	-0.016051315
13	0x3ccfac59	0.025350736
14	0x3d156d7e	0.036481373
15	0xbc82e453	-0.015978014
16	0x3c44f7a5	0.012021934
17	0xbca6f2ff	-0.020379541
18	0x3ce284ea	0.027651269
19	0x3c132717	0.008981488
20	0xbcd588af	-0.026066152
21	0x3cf3e9a5	0.029774496
22	0x3ce082ac	0.02740606
23	0x3c853375	0.016259888
24	0xbc588ffb	-0.013217921
25	0x3d1d61f4	0.038423494
26	0x3d28ce13	0.041212153
27	0x3d28c38a	0.041202106
28	0xbc6d85d6	-0.014497241
29	0xbcb2eba3	-0.021840876
30	0xba6f464f	-0.0009127603
31	0x3cd06c4b	0.025442263

conv3 f4 [32, 32, 3, 3]
0	0x3cf227bb	0.02955996
1	0xbda73aa1	-0.081654795
2	0x3d4f04f4	0.050541833
3	0xbd8b3a9b	-0.067982875
4	0x3d1ae7c3	0.03781868
5	0xbd1ab167	-0.03776684
6	0x3d027088	0.0318456
7	0x3d145f3f	0.036223646
8	0xbd14066a	-0.03613893
9	0x3ba69e56	0.005084793
10	0x3c8cc40b	0.017183324
11	0xbc7fdf7c	-0.015617248
12	0x3cde5837	0.027141673
13	0x3ca0a932	0.019611929
14	0x3cda2d51	0.026632937
15	0x3d429f76	0.047515355
16	0x3db0e258	0.08636922
17	0x3cab21ea	0.020890195
18	0x3c6176df	0.013761251
19	0x3c962a6e	0.018330779
20	0x3dd4990c	0.10380754
21	0x3d2bbe32	0.04192943
22	0xbc8d6713	-0.017261064
23	0xbbf8cfb2	-0.0075931186
24	0x3ccfda71	0.025372716
25	0x3d81ad0f	0.063318364
26	0x3c303a0d	0.010756028
27	0xb820bba4	-3.8321727e-05
28	0xbd1f62a6	-0.038912438
29	0x3d9227ef	0.07136523
30	0xbdc38ea9	-0.09548695
31	0xbdda6ac0	-0.10664892
32	0x3c90dc3e	0.017683145
33	0xbde3b9e9	-0.11119444
34	0xbe0da36f	-0.13831876
35	0xbd8b50ee	-0.068025455
36	0xba59011c	-0.00082780584
37	0xbc13d3a1	-0.009022624
38	0x3bbe730c	0.0058120545
39	0xbd9faeb4	-0.07796994
40	0x3d1522b9	0.036410067
41	0xbd6e7a4a	-0.058222093
42	0xbd041bac	-0.032252952
43	0xbda64749	-0.08119065
44	0xbc8b322a	-0.016991694
45	0x3d18f562	0.03734339
46	0x3d3b618d	0.04574733
47	0x3dac594e	0.08415471
48	0x3c0ad5bf	0.008473813
49	0xbc12d2e6	-0.008961415
50	0x3d25cc22	0.04047788
51	0x3ce349c1	0.02774513
52	0x3dcd5e26	0.10027723
53	0x3dd11b15	0.102102436
54	0xbd61690d	-0.055031825
55	0x3af2fefe	0.0018539128
56	0xbc0f910c	-0.008762609
57	0x3d0ed354	0.034869507
58	0x3d43eb68	0.047831923
59	0x3cc5a817	0.024128003
60	0xbd505d37	-0.050870147
61	0xbc4554bb	-0.012044127
62	0x3c321912	0.010870235
63	0xbd4c8c34	-0.049938396
64	0x3d55ddac	0.052213356
65	0x3ce7f578	0.02831529
66	0x3d92ff91	0.07177652
67	0xbc35cbfd	-0.011095998
68	0x3d42554f	0.047444638
69	0xbd219e41	-0.039457563
70	0x3d0ff3dd	0.035144676
71	0xbc5ef604	-0.013608459
72	0xbe1b4192	-0.15161732
73	0x3c0708b9	0.008241826
74	0xbdcef8db	-0.10106059
75	0xbd5f0146	-0.054444574
76	0x3d82f3fd	0.06394193
77	0xbdaad7c5	-0.08341936
78	0xbe0be4bf	-0.13661478
79	0xbdad99a8	-0.08476573
80	0xbcd272b7	-0.025689466
81	0x3ca4757a	0.020075548
82	0xbd6f84e3	-0.05847634
83	0xbc56223d	-0.0130696865
84	0x3b7828ed	0.003786619
85	0x3ca57b3d	0.020200366
86	0xbc8d41ba	-0.017243255
87	0xbd870efa	-0.065946534
88	0xbd810cbc	-0.06301257
89	0xbbb68858	-0.0055704527
90	0xbd41e84b	-0.047340672
91	0xbda823d2	-0.08209957
92	0xbdba8c23	-0.0910876
93	0xbdbcf907	-0.09227186
94	0x3bdc2c24	0.006719129
95	0xbd71c3ea	-0.05902473
96	0xbe0bfef8	-0.13671482
97	0xbdcef878	-0.101059854
98	0xbd122f69	-0.035689745
99	0x3e2abde5	0.16674002
100	0xbd0c79d3	-0.034295868
101	0x3e70757e	0.2348232
102	0x3d7cb808	0.061698943
103	0xbd8160c2	-0.06317283
104	0x3dc7a0e7	0.097474866
105	0x3e4b9169	0.19879688
106	0xbca89c9a	-0.020582486
107	0x3e20333a	0.15644541
108	0xbd9f55c4	-0.0778003
109	0xbd3f3dd9	-0.046689842
110	0x3ca7600d	0.020431543
111	0xbc633259	-0.013866984
112	0x3dbd6327	0.092474274
113	0xbd0aa535	-0.03384896
114	0xbb9ab79d	-0.0047215954
115	0xbd8f3123	-0.06991794
116	0xbcff3d4a	-0.031157155
117	0x3b20cc2f	0.0024535765
118	0x3d5c33b4	0.053760245
119	0x3d7e3a99	0.0620676
120	0x3dac44b1	0.08411539
121	0xbc73aecf	-0.014873221
122	0x3d5938d1	0.0530327
123	0x3d15625a	0.03647075
124	0xbd2c9459	-0.042133663
125	0x3d70ccdb	0.058789115
126	0xbd9b074e	-0.07569753
127	0xbd876bd9	-0.06612367
128	0x3d2e4781	0.04254866
129	0xbd305f1b	-0.04305945
130	0x3c8e2e4c	0.01735606
131	0xbd9ce64e	-0.07661115
132	0xbdb50827	-0.088394456
133	0xbca57d6e	-0.020201411
134	0xbd3389d1	-0.043832604
135	0xbdcd14e6	-0.10013752
136	0x3d4434d6	0.04790195
137	0x3c540e14	0.01294281
138	0x3d86a131	0.065737136
139	0x3d85f01b	0.06539937
140	0xbd2cba92	-0.042170115
141	0xbd3d8123	-0.046265732
142	0x3d363242	0.044481523
143	0xbd8f5061	-0.06997753
144	0x3ea5ef32	0.32409054
145	0x3d32a5f2	0.04361529
146	0x3e85cb8c	0.26131856
147	0x3bd4a77c	0.0064896923
148	0xbd6f37b7	-0.058402743
149	0x3d2fb33e	0.042895548
150	0x3e811fb9	0.25219515
151	0x3df88cd6	0.12136237
152	0x3e50e99e	0.20401618
153	0x3c5d169b	0.013494159
154	0xbd714b69	-0.058909807
155	0xbbf71640	-0.007540494
156	0xbdc2aa28	-0.09505111
157	0x3da01f6e	0.07818495
158	0xbd17f772	-0.037101217
159	0xbdc8a983	-0.09797957
160	0x3c39e907	0.011347062
161	0xbd44f5a3	-0.04808582
162	0x3cd7b838	0.02633296
163	0x3c90f127	0.017693115
164	0x3d55a92f	0.0521633
165	0x3d5359fa	0.05159948
166	0x3bb6d441	0.005579502
167	0x3d8aef5c	0.067839354
168	0xbc651762	-0.013982626
169	0xbc8698d7	-0.016430302
170	0x3c84caf1	0.016210051
171	0x3dae4d99	0.08510894
172	0x3db5e364	0.08881262
173	0x3e049580	0.12947655
174	0x3d830faf	0.06399476
175	0xbd8e3fee	-0.06945787
176	0x3d8113dc	0.06302616
177	0x3e0af2e5	0.1356922
178	0x3d8d31cb	0.06894263
179	0x3e33e2f7	0.17567049
180	0xbd98755c	-0.074442595
181	0xbd005f72	-0.031341024
182	0x3ae1b9ed	0.0017221548
183	0xbb06ef01	-0.0020589235
184	0x3d0dd94a	0.03463105
185	0x3c13e4d9	0.0090267295
186	0xbdde50d4	-0.108552605
187	0x3d49994b	0.049218457
188	0xbdf3e545	-0.11908964
189	0xbd24f2b4	-0.040270522
190	0x3c271c0c	0.010199558
191	0xbdfb8f3c	-0.12283179
192	0xbdd01e11	-0.10161985
193	0xbd8890fb	-0.06668278
194	0xbb41d634	-0.0029577138
195	0xbdacccea	-0.08437522
196	0xbd8e6894	-0.069535404
197	0xbe0c19b1	-0.13681675
198	0x3e7c5b17	0.24644123
199	0x3dedadd8	0.11605424
200	0x3e1a42ec	0.15064591
201	0x3d884670	0.0665406
202	0x3d6a79c0	0.057245016
203	0x3e215c91	0.15757968
204	0x3e27dcfe	0.16392896
205	0x3da05968	0.07829553
206	0x3e6c153d	0.23054977
207	0xbcb9a073	-0.022659516
208	0x3c4ef67c	0.012632009
209	0x3dbd06ab	0.092297874
210	0x3d9eacab	0.077477776
211	0xbc5187d7	-0.012788734
212	0xbda21b65	-0.07915381
213	0xbcd5db96	-0.026105683
214	0x3c6e41f3	0.014542091
215	0x3dcd4602	0.100231186
216	0x3cd57c3c	0.026060216
217	0xbd7f9117	-0.062394228
218	0xbd6b8d29	-0.057507668
219	0x3d711b38	0.05886385
220	0xbd7600b7	-0.060059275
221	0xbd0a64ad	-0.03378742
222	0xbc870b06	-0.016484749
223	0x3d131112	0.03590495
224	0xbd478b6b	-0.048716944
225	0x3e0ea267	0.13929139
226	0x3dc52ce7	0.09627705
227	0x3e364a29	0.17801727
228	0x3d7ff1aa	0.06248633
229	0x3c5ebd7c	0.013594981
230	0x3ccc53d8	0.024942324
231	0x3e574471	0.21022202
232	0x3d852870	0.065018535
233	0x3d80f0c6	0.06295924
234	0xbd0b9f98	-0.034087747
235	0x3d0be5c5	0.034154672
236	0x3c1c5b2e	0.009543223
237	0xbc7ff193	-0.015621561
238	0xbca85421	-0.020547928
239	0xbc7d9aaa	-0.015478769
240	0x3bbb8f1d	0.0057238475
241	0xbda02102	-0.07818796
242	0xbc5291d2	-0.012852149
243	0x3b741a2c	0.0037247045
244	0xbb9e0826	-0.0048227487
245	0xbd648497	-0.05579051
246	0xbbb00502	-0.0053716907
247	0xbb345310	-0.002751533
248	0x3be1b1fe	0.0068876734
249	0xbd89f363	-0.067358755
250	0xbd08de3a	-0.033415057
251	0xbd3e236f	-0.04642051
252	0xbd992077	-0.07476895
253	0x3b1806dc	0.0023197448
254	0xbd8c4294	-0.06848636
255	0x3b369900	0.0027862191

b3 f4 [32]
0	0x3e074cb8	0.1321286
1	0x3e050010	0.12988305
2	0x3e0a63bc	0.13514608
3	0x3e189919	0.14902152
4	0x3e1639e8	0.14670527
5	0x3e13f256	0.14447913
6	0x3e2c39e5	0.1681896
7	0x3e2767a9	0.16348137
8	0x3e1c3f2d	0.15258475
9	0x3e0c7dda	0.13719884
10	0x3e390e48	0.18071854
11	0x3e1300e5	0.1435581
12	0x3e107291	0.14106204
13	0x3e23d94e	0.16000864
14	0x3e0d8d54	0.13823444
15	0x3e3fa705	0.18716057
16	0x3e0f8dde	0.14018962
17	0x3e430490	0.19044709
18	0x3defa5bc	0.11701533
19	0x3e05af43	0.13055138
20	0x3e449f9d	0.19201513
21	0x3e19e56c	0.15028924
22	0x3e1dd49d	0.15413137
23	0x3e38e144	0.18054682
24	0x3e06e9df	0.13175152
25	0x3e0da2f5	0.13831694
26	0x3e081c1f	0.13291977
27	0x3e1e64f8	0.15468204
28	0x3e241fb3	0.16027717
29	0x3e5dfaeb	0.21677749
30	0x3e1d8e75	0.15386374
31	0x3e3d7dd6	0.18505034

w4 f4 [5, 32]
0	0xbf644764	-0.89171433
1	0x3f7282bb	0.9473073
2	0xbfa25b7e	-1.2684171
3	0xbea6f372	-0.3260761
4	0xbf322233	-0.69583434
5	0xbe5913a4	-0.21198899
6	0x3f803976	1.0017536
7	0xbf4d6142	-0.8022653
8	0xbfbfe20f	-1.4990863
9	0xbfbfde92	-1.4989798
10	0xbb9d6302	-0.0048030624
11	0xbfa66e23	-1.3002361
12	0x3fc469d7	1.53448
13	0x3fb06b9b	1.3782839
14	0x3f504a9e	0.81363857
15	0x3f53190d	0.824601
16	0xbefe93bc	-0.49722087
17	0x3f8abef1	1.0839521
18	0xbfc0a577	-1.5050496
19	0x3e3552cd	0.17707367
20	0xbf9a183c	-1.2038646
21	0x3e856fd5	0.26061884
22	0x3fb4e354	1.4131875
23	0xbfa3bc2c	-1.27918
24	0xbfa745c7	-1.3068169
25	0xbf71c30c	-0.9443824
26	0xbf8f7c5b	-1.1209825
27	0xbfa1126b	-1.2583746
28	0x3fae33a4	1.360951
29	0xbf3f4f79	-0.7473064
30	0x3fb12de6	1.3842132
31	0x3fc7124f	1.5552462
32	0xbf9badb7	-1.2162389
33	0xbf93808a	-1.1523602
34	0xbf9bae7e	-1.2162626
35	0x3fbde019	1.4834014
36	0x3ec5c11b	0.3862389
37	0xbfa7fa24	-1.3123212
38	0xbfaf5efc	-1.3700862
39	0x3f21f3ab	0.6326243
40	0x3fa05784	1.2526708
41	0x3f0db1e6	0.55349576
42	0xbfb13180	-1.3843231
43	0xbf8c73bf	-1.0972823
44	0xbf9ed41f	-1.2408484
45	0x3db15432	0.08658637
46	0xbfbfeac8	-1.4993525
47	0x3fc7bc08	1.5604258
48	0x3fc0fd59	1.5077316
49	0xbf685935	-0.9076112
50	0x3f365461	0.712225
51	0x3fd33113	1.6499351
52	0xbec7ede6	-0.3904869
53	0x3f0e6c34	0.55633855
54	0xbf8ee0b8	-1.1162329
55	0xbfa1b7a6	-1.263417
56	0x3e91af4a	0.28454047
57	0x3fd49ea7	1.6610917
58	0xbf8c9689	-1.098344
59	0x3fc0ee90	1.5072803
60	0x3f628e56	0.8849844
61	0xbf5939cc	-0.84853816
62	0xbf9aa6c7	-1.2082146
63	0xbf8dc27d	-1.1074978
64	0x3efed3fd	0.4977111
65	0x3fa9670d	1.3234574
66	0xbf93a29e	-1.1534002
67	0xbfab3e37	-1.3378361
68	0xbf9c2d9e	-1.2201421
69	0x3f776561	0.96639067
70	0xbf97fcde	-1.1874044
71	0xbfb5cfb9	-1.4204017
72	0xbfb8afb2	-1.4428618
73	0x3f490813	0.78527945
74	0x3fdd6af6	1.7298267
75	0x3fe00976	1.7502887
76	0xbf480833	-0.7813751
77	0xbfa7d9d1	-1.3113347
78	0xbea83396	-0.32851857
79	0xbfa2979f	-1.2702521
80	0x3f2710a5	0.6525977
81	0xbf833c20	-1.0252724
82	0x3f61aa6f	0.88150686
83	0x3ede0082	0.43359762
84	0xbfac1d00	-1.344635
85	0x3fdc441a	1.7208283
86	0xbfb7339e	-1.4312627
87	0x3e6af3ca	0.2294456
88	0x3fe2b7a1	1.7712289
89	0x3e617a71	0.22019364
90	0xbf89a46d	-1.0753304
91	0xbf516d34	-0.81807256
92	0xbf8d85fe	-1.1056516
93	0x3fd4cc41	1.6624833
94	0x3f6d5238	0.9270358
95	0xbfa13d10	-1.259676
96	0x3fd248f3	1.6428512
97	0x3f7dce38	0.9914279
98	0x3f99a814	1.2004418
99	0x3f670191	0.90236765
100	0xbf50db42	-0.8158456
101	0xbf81d363	-1.0142635
102	0x3fcfd609	1.6237193
103	0x3fc9ff7d	1.5781094
104	0x3f0d876f	0.5528478
105	0xbfac70d0	-1.3471928
106	0xbf8a1767	-1.0788392
107	0x3f3989d0	0.7247591
108	0xbf69072e	-0.9102658
109	0xbf72ac62	-0.94794285
110	0xbf9b1ace	-1.2117555
111	0xbf828b2a	-1.019872
112	0xbf91295f	-1.134075
113	0xbf9bfaf7	-1.2185963
114	0x3fcd45f9	1.6036979
115	0xbf8d5ca6	-1.1043899
116	0xbe9650e6	-0.29358596
117	0xbf922091	-1.1416188
118	0x3f9addae	1.2098901
119	0xbf2a32de	-0.6648387
120	0x3f5b9556	0.85774744
121	0xbf07124f	-0.5276231
122	0x3fba36b2	1.4547942
123	0xbf721b85	-0.9457324
124	0xbfbb670f	-1.4640826
125	0xbfb45c84	-1.4090734
126	0xbf99e2fa	-1.2022393
127	0x3cb90f2b	0.02259024
128	0xbf2bb43f	-0.6707191
129	0xbfa0ab74	-1.2552323
130	0x3f52091c	0.8204515
131	0xbfa25845	-1.2683188
132	0x3fc5170b	1.5397657
133	0x3fbfa80f	1.4973162
134	0xbf252914	-0.64515805
135	0xbe905559	-0.28190115
136	0x3f8a932d	1.0826164
137	0x3f956e93	1.167437
138	0xbea95ef3	-0.33080253
139	0xbf030491	-0.5117884
140	0x3ecaceda	0.3961094
141	0xbf9757d0	-1.1823673
142	0x3fc0f0f8	1.5073538
143	0xbf80a7e3	-1.0051235
144	0xbf383ce1	-0.71967894
145	0x3fd4015d	1.6562916
146	0xbf6f2999	-0.9342285
147	0xbf9aa056	-1.2080181
148	0x3fd22a89	1.6419231
149	0xbf8e804d	-1.1132904
150	0xbf020f68	-0.5080476
151	0x3fcfd034	1.6235414
152	0xbeab45f6	-0.33451813
153	0xbf60c342	-0.8779794
154	0xbf3fb559	-0.7488609
155	0x3f6dd5e7	0.92904514
156	0xbf94487e	-1.1584623
157	0xbf88ade6	-1.067807
158	0xbf715b67	-0.94280094
159	0xbf7e00df	-0.9922008

b4 f4 [5]
0	0x3d6bba82	0.057550915
1	0x3e068e9b	0.13140337
2	0xbdc7b9f1	-0.097522624
3	0x3e41ba10	0.18918633
4	0xbe304c27	-0.1721655

exp_avg f4 [32, 1, 3, 3]
0	0xbc186100	-0.00930047
1	0xbbd57995	-0.006514738
2	0xbadabe86	-0.001668886
3	0xbc1a1de7	-0.009406543
4	0xbc34cf2a	-0.01103572
5	0xbb54eedc	-0.0032491004
6	0xbc68d403	-0.014210704
7	0xbc3e1c93	-0.011603492
8	0xbb98460c	-0.004647022
9	0xbc15252a	-0.009103099
10	0xbb051a86	-0.0020309999
11	0xbad034a5	-0.001588483
12	0xbc402505	-0.011727576
13	0xbb99e737	-0.0046967524
14	0xbb2c6223	-0.0026303611
15	0xbc275409	-0.010212907
16	0xbbb4e034	-0.005519891
17	0xbb1cda7d	-0.002393394
18	0xba6aaf04	-0.0008952471
19	0xbc014fad	-0.007892531
20	0x39342526	0.00017179977
21	0x3a0ab90b	0.0005291856
22	0xbc1126f1	-0.008859382
23	0xbb7c7e1c	-0.0038527315
24	0xba48cd65	-0.00076600007
25	0xbb9fbd5f	-0.0048748697
26	0xbc03cb21	-0.008044035
27	0x3ba6778e	0.00508017
28	0x3b1ebee2	0.0024222662
29	0x3a8b3947	0.0010621928
30	0x3c50d246	0.012745446
31	0x3bf515d4	0.0074794088
32	0x3b5244ab	0.0032084386
33	0x3b4cc966	0.0031247973
34	0x37408ddf	1.1477124e-05
35	0xbb7944f9	-0.0038035496
36	0x3ba68d0c	0.005082732
37	0xba50bd61	-0.000796279
38	0xbaf7f7b4	-0.0018918426
39	0xbae4280f	-0.0017406958
40	0xbb59e088	-0.0033245403
41	0xbb9be534	-0.0047575478
42	0x3a17ad23	0.0005785992
43	0xb8502b8f	-4.963163e-05
44	0x3b14d55e	0.0022710185
45	0x3aa7a958	0.0012791557
46	0x3acf4ccf	0.0015815737
47	0x3c015afa	0.007895226
48	0xbb9d790e	-0.0048056906
49	0xb77fd140	-1.5247904e-05
50	0x3aa75cf1	0.0012768788
51	0xba6f8011	-0.000913621
52	0x3b054b70	0.0020339154
53	0xb9e9a194	-0.00044561608
54	0xbbbb7d76	-0.005721743
55	0xbb381212	-0.0028086943
56	0xbb3b6ca5	-0.0028598693
57	0xbc128939	-0.008943849
58	0xbb2ddd2b	-0.0026529531
59	0xbb4bd1eb	-0.0031100463
60	0xbc4ab308	-0.012371786
61	0xbc06dac4	-0.008230869
62	0xbbec42fe	-0.0072101345
63	0x3af5a06e	0.0018739828
64	0xbb1aae17	-0.00236023
65	0xbbaba073	-0.005237633
66	0x3ae49f27	0.0017442451
67	0xbaa685ba	-0.0012704649
68	0xbb87f2d7	-0.004148822
69	0xbad2a4e9	-0.0016070876
70	0xbb0b9f78	-0.0021304768
71	0xbb142aa0	-0.0022608414
72	0x3b275109	0.0025530478
73	0x3a443026	0.00074839813
74	0x3ac2da26	0.0014866039
75	0x383ef899	4.5531055e-05
76	0xb9be00a1	-0.00036240093
77	0xba13a424	-0.0005632064
78	0xbbcd3147	-0.006261978
79	0xbab90781	-0.0014116616
80	0x38a6e113	7.95742e-05
81	0xbb527ae1	-0.0032116699
82	0xbb32aac0	-0.002726242
83	0xbadec6c0	-0.0016996488
84	0xbae98328	-0.0017815577
85	0xba382d2c	-0.0007025774
86	0x3af60afc	0.0018771584
87	0xbb41621d	-0.0029507943
88	0xb9d399bd	-0.000403596
89	0x3b21836b	0.0024644982
90	0x3c70e574	0.014703143
91	0x3c10357f	0.008801817
92	0x3bc03b62	0.005866454
93	0x3c0d63bd	0.0086297365
94	0x3b8fbd90	0.0043866113
95	0x3b9f2c0a	0.004857545
96	0x3bd4b0fd	0.006490825
97	0x3b4391af	0.0029841473
98	0x3c008bc1	0.00784582
99	0x3b9569f3	0.0045597493
100	0xbbcf044f	-0.0063176523
101	0xbbd981b6	-0.006637777
102	0x3c19d977	0.009390227
103	0x3a2da2fc	0.0006623713
104	0xbac86516	-0.0015288915
105	0x3c4010bd	0.011722741
106	0x3a1f9a49	0.0006088359
107	0xbad7437f	-0.0016423314
108	0x3c5e8095	0.013580461
109	0x3c0b97fd	0.008520124
110	0x3c066a08	0.008203991
111	0x3c392418	0.011300109
112	0x3bd8770d	0.006605989
113	0x3bd9c4ab	0.006645759
114	0x3c24aa1b	0.010050322
115	0x3b83ffc8	0.0040282942
116	0x3a0f42c9	0.0005464969
117	0xba489fc2	-0.00076532003
118	0x39af821b	0.00033475537
119	0xbbbc0347	-0.0057376954
120	0xbaa9726e	-0.001292778
121	0x3ab1d7a7	0.0013568298
122	0xbbaf0ac9	-0.005341862
123	0xbb1534c9	-0.0022767058
124	0xba04b10b	-0.0005061782
125	0xbc101042	-0.008792939
126	0xbb71bec6	-0.0036887391
127	0xb9f47301	-0.0004662499
128	0x3a3e5434	0.0007260472
129	0xbb54f9d0	-0.0032497533
130	0xbb03b931	-0.0020099396
131	0x3b0baed6	0.0021313927
132	0xba1096d8	-0.00055156415
133	0xbae45cc4	-0.0017422666
134	0x3b068956	0.0020528636
135	0xbb370f05	-0.0027932536
136	0xbb2ca1aa	-0.0026341476
137	0xbb637dda	-0.0034712465
138	0xbac1f546	-0.0014797829
139	0xba45ab03	-0.00075404363
140	0x3ae9d6f6	0.0017840553
141	0xbaa40f7c	-0.0012516822
142	0xba8d0a76	-0.0010760564
143	0x3afcc1d4	0.001928384
144	0x3bae8a9c	0.005326582
145	0x3c113ea9	0.008865037
146	0x3bff8c8f	0.0077987383
147	0x3c2e2fa4	0.010631476
148	0x3bd601e5	0.0065309876
149	0x3b23bb3f	0.0024983434
150	0x3c08d88a	0.008352408
151	0x3b884f2a	0.0041598277
152	0x3b3acbc7	0.0028502808
153	0xbba447d1	-0.005013444
154	0xbb8b9448	-0.00425962
155	0xbb477754	-0.0030436115
156	0xbb081959	-0.0020767062
157	0x3a0e3bad	0.00054257625
158	0x3b11f4ce	0.002227116
159	0x39dd041c	0.00042155467
160	0xbb4892e7	-0.0030605139
161	0x38d0d6b9	9.958208e-05
162	0x3bfebe3d	0.007774143
163	0x3ac9ca64	0.00153954
164	0x3b6b4898	0.0035901424
165	0x3bbb5ed3	0.005718091
166	0x3b890263	0.0041811927
167	0x3bbf950a	0.0058466243
168	0x3b97b476	0.004629667
169	0x3b8fc0d2	0.0043869996
170	0x3b5a7e9a	0.003333962
171	0xbaee8d10	-0.0018199999
172	0xbb37a511	-0.0028021971
173	0xbb137fbf	-0.0022506563
174	0xbb1f96e2	-0.0024351408
175	0xbbbd9b11	-0.0057863076
176	0xbb24580d	-0.0025076896
177	0x3b46439f	0.0030252708
178	0xbb9375ae	-0.0045001125
179	0x3a867ec0	0.0010261163
180	0x3b2a41e0	0.0025979206
181	0x3b5ad900	0.0033393502
182	0x3b9da0d1	0.0048104306
183	0x3af36767	0.0018570245
184	0x3b29976b	0.0025877606
185	0x3bc225da	0.0059249224
186	0x3b4952d0	0.0030719526
187	0x3bddd245	0.006769451
188	0x3b4f57de	0.0031638066
189	0x3bb733a6	0.005590874
190	0x3bb006c4	0.0053719003
191	0x3a832673	0.0010005966
192	0x3a00c7e6	0.00049125997
193	0xbaad76cd	-0.0013234258
194	0xbaf6f709	-0.0018841933
195	0x3b3b1f1a	0.0028552474
196	0x3a10074f	0.0005494253
197	0xbad0cf6e	-0.001593096
198	0xb8fc19ee	-0.00012021126
199	0xbb2705a9	-0.0025485551
200	0xbb84aa64	-0.0040486325
201	0x39818ca8	0.00024709594
202	0xbab81160	-0.0014043264
203	0xbb0e8054	-0.002174397
204	0x3b1c28c7	0.0023828016
205	0x3ba1f5cb	0.004942631
206	0xb97c2b4b	-0.0002404872
207	0xba329bf0	-0.00068133976
208	0x3ae30784	0.0017320965
209	0xbae39cce	-0.0017365457
210	0x3b440f96	0.0029916517
211	0x3b3db63d	0.0028947734
212	0x3bb0df08	0.005397681
213	0x3b5977f9	0.0033183082
214	0xb9bf8338	-0.00036528124
215	0x3a60eeae	0.0008580488
216	0xbaaacc8f	-0.0013030934
217	0xbb1b30fc	-0.002368032
218	0xbadb89d0	-0.0016749445
219	0xbbc22b84	-0.0059255976
220	0xbb569e5b	-0.0032748196
221	0x3b2fedfe	0.0026844735
222	0xbc72c0ad	-0.014816445
223	0xbc0dea69	-0.008661845
224	0xbb23410e	-0.0024910602
225	0xbc63da34	-0.013907004
226	0xbb05cea4	-0.0020417357
227	0xb9eff85d	-0.00045770677
228	0xbc5d24c4	-0.013497535
229	0xbbadb947	-0.005301628
230	0xba01f227	-0.0004957043
231	0xbc7c97d1	-0.015417055
232	0xbbd1dd7a	-0.006404576
233	0x399c4e09	0.0002981278
234	0xb9f7efbb	-0.00047290124
235	0xbb9e31c7	-0.0048277113
236	0xbc52e96c	-0.012873035
237	0xbbb52a7b	-0.0055287457
238	0xbb83f3f4	-0.004026884
239	0xbb9e3ad3	-0.0048287897
240	0xbb8dd5f9	-0.004328486
241	0x3bc0ce6c	0.0058839824
242	0xbaf684d2	-0.0018807894
243	0xbb9c05f3	-0.0047614514
244	0xbb560293	-0.0032655343
245	0xbc108dde	-0.008822886
246	0x3b25570e	0.002522889
247	0x3bbf068c	0.005829638
248	0x3afc01b3	0.0019226581
249	0xb9b74574	-0.00034956227
250	0x3b86f399	0.0041183946
251	0x3b446a19	0.0029970466
252	0x3a68798d	0.000886821
253	0xba1b3b55	-0.0005921622
254	0xbb819406	-0.0039544133
255	0x3b9af2b3	0.004728639

exp_avg_sq f4 [32, 1, 3, 3]
0	0x3a3adb8e	0.0007128053
1	0x3a08d489	0.00052196585
2	0x39b05601	0.00033633414
3	0x3a340db7	0.0006868499
4	0x3a3df81c	0.0007246749
5	0x3a18154b	0.0005801513
6	0x3aa19596	0.0012327905
7	0x3aa91ec7	0.0012902849
8	0x3a9a75f6	0.0011784423
9	0x3abc3101	0.0014357866
10	0x3a15fd18	0.0005721613
11	0x38eddd94	0.00011342313
12	0x3ab312d1	0.0013662224
13	0x39ef8b92	0.0004568962
14	0x38db5ea2	0.000104603605
15	0x3ab860c2	0.0014066922
16	0x3a024118	0.0004968806
17	0x38c43227	9.35535e-05
18	0x395676d3	0.00020452896
19	0x3a83d3e0	0.001005765
20	0x3b0ebdbe	0.0021780576
21	0x39467734	0.00018927158
22	0x3a610c25	0.00085848785
23	0x3b0db254	0.0021621184
24	0x39244c1f	0.00015668616
25	0x3a49f4c6	0.00077040156
26	0x3aef2b19	0.0018247097
27	0x3b08d090	0.0020876266
28	0x3ad79ef4	0.001645057
29	0x3a730f27	0.0009271972
30	0x3b0bdff1	0.0021343196
31	0x3b23c344	0.0024988214
32	0x3ae9e16e	0.0017843673
33	0x3a91820d	0.001110138
34	0x3af96f24	0.0019030315
35	0x3b0edb1f	0.0021798087
36	0x3b37e77f	0.0028061566
37	0x3b1b8be4	0.0023734504
38	0x3ad0a6de	0.0015918871
39	0x3acef39d	0.0015789155
40	0x3aa0d84c	0.0012271493
41	0x3a59fc48	0.0008315486
42	0x39a3aa2c	0.0003121657
43	0x398903cf	0.00026133514
44	0x3971471f	0.00023010046
45	0x3a45291d	0.000752108
46	0x399865ee	0.00029067643
47	0x3b171b16	0.0023056916
48	0x3a450677	0.0007515917
49	0x3a7bb04c	0.00096011604
50	0x3b603e89	0.0034216961
51	0x39b43a08	0.00034375512
52	0x3a3d42c8	0.0007219729
53	0x3b41bf03	0.0029563315
54	0x39fe7c56	0.00048539293
55	0x394e853f	0.00019695329
56	0x38faa40d	0.00011951486
57	0x3a3e69bc	0.00072636805
58	0x397a7c77	0.00023888225
59	0x39505984	0.00019869773
60	0x3aa11a90	0.0012291241
61	0x3a441005	0.0007479194
62	0x3a059c15	0.00050968054
63	0x3a474dfc	0.0007602868
64	0x3abab8b0	0.0014245715
65	0x3b0a856b	0.0021136652
66	0x3aad8101	0.0013237299
67	0x3b2e8870	0.0026631616
68	0x3b8f1295	0.004366229
69	0x3b0ca2aa	0.002145926
70	0x3b764af6	0.0037581301
71	0x3bb4af33	0.0055140494
72	0x3adbeb46	0.0016778491
73	0x3a65c88b	0.000876554
74	0x395e09a6	0.00021175164
75	0x3ac7030f	0.0015183407
76	0x3a338a3c	0.00068489066
77	0x391eb19f	0.00015134223
78	0x3ab60f13	0.001388999
79	0x3a37c921	0.00070108665
80	0x392b9c38	0.00016366027
81	0x3aa5dc1e	0.0012654101
82	0x3a6b5b31	0.0008978127
83	0x3aa34660	0.0012456886
84	0x3a8f5f91	0.0010938515
85	0x39a1ccb3	0.00030860826
86	0x3a5c4761	0.000840297
87	0x3ab73999	0.0013978957
88	0x3a7b2075	0.00095797266
89	0x3aaf718b	0.0013385279
90	0x3a93bd79	0.0011271677
91	0x3a4339dc	0.00074472814
92	0x3a73b6e2	0.0009296966
93	0x3a561923	0.0008167198
94	0x391929ab	0.0001460674
95	0x3a059f96	0.00050973275
96	0x3a1ecf0b	0.00060580735
97	0x38fd8bca	0.00012090018
98	0x3a2f72f0	0.0006692847
99	0x39d8b24d	0.00041331575
100	0x398168bf	0.0002468284
101	0x39678e99	0.00022082998
102	0x39e2470e	0.0004315902
103	0x391db5c9	0.00015040407
104	0x39151b40	0.00014219899
105	0x3a05f8db	0.000511063
106	0x39811451	0.00024619934
107	0x3962a27a	0.00021613567
108	0x3aebd191	0.0017991533
109	0x3a9d2c76	0.00119914
110	0x3ab56e15	0.0013842011
111	0x3acee8d0	0.0015785936
112	0x3a514d31	0.00079842197
113	0x3a981f6d	0.0011606045
114	0x3afddaaa	0.0019367535
115	0x3acafe52	0.001548717
116	0x3acb4e77	0.0015511055
117	0x39368c62	0.00017409169
118	0x39180c3f	0.00014500412
119	0x3985e4ba	0.0002553815
120	0x39f7df3c	0.00047277834
121	0x39ec51f4	0.00045074488
122	0x3a2b68fd	0.0006538777
123	0x3a91c960	0.0011122636
124	0x3acc2b5b	0.0015576886
125	0x3aec60fc	0.0018034275
126	0x3a8acfde	0.0010590514
127	0x3a9f1907	0.0012138196
128	0x3a9fd9cf	0.0012195649
129	0x3a24abe7	0.0006281719
130	0x3a77f716	0.0009459121
131	0x3a46be00	0.0007581413
132	0x3a654c5c	0.0008747035
133	0x3a559104	0.0008146914
134	0x39eeba44	0.00045533676
135	0x3a0bf5e9	0.00053390727
136	0x3a3f0dff	0.00072881574
137	0x3ac62fbb	0.0015120426
138	0x3934caea	0.00017241729
139	0x39128772	0.00013974102
140	0x3a3dfa44	0.00072470703
141	0x390e5142	0.00013572446
142	0x39177f5f	0.00014447932
143	0x3a0587a5	0.000509376
144	0x39a6aecf	0.0003179223
145	0x3a2811eb	0.00064113614
146	0x3a450750	0.0007516043
147	0x3a58ad30	0.0008265553
148	0x3a3dc739	0.00072394643
149	0x3a10ba9b	0.00055209704
150	0x39c962a6	0.00038411206
151	0x3965609f	0.00021875136
152	0x3932f5ec	0.00017067016
153	0x3b106b4c	0.002203661
154	0x3a70513b	0.0009167378
155	0x39864dba	0.00025616382
156	0x3a41299b	0.00073685654
157	0x3a376cdb	0.0006997117
158	0x3a27b197	0.00063970074
159	0x3932d765	0.00017055644
160	0x3a206c43	0.0006119648
161	0x3ae2620a	0.001727165
162	0x3a075aea	0.00051633886
163	0x3911e470	0.00013913377
164	0x3a187b26	0.00058166904
165	0x399e042a	0.0003013921
166	0x39e2056f	0.00043110127
167	0x3a797104	0.0009515437
168	0x3a689908	0.0008872901
169	0x3a9c3c4d	0.0011919827
170	0x3ab19006	0.0013546951
171	0x3a86d336	0.0010286334
172	0x399a1123	0.00029385937
173	0x39fb2f3c	0.00047909643
174	0x3ad493a9	0.0016218323
175	0x3a347647	0.000688408
176	0x39a91049	0.00032246325
177	0x3ae3b86c	0.0017373688
178	0x3ae06278	0.001711919
179	0x3a9550a7	0.0011391834
180	0x3acbc0c0	0.0015545115
181	0x3afaba2b	0.0019128969
182	0x3b09d8fc	0.0021033874
183	0x3ab5da27	0.0013874219
184	0x3ad6356e	0.0016342828
185	0x3afcd5b4	0.0019289763
186	0x3a4a1e07	0.0007710163
187	0x3a8621a1	0.0010233411
188	0x3ac0fcce	0.0014723779
189	0x3b599dab	0.003320555
190	0x3b5cef29	0.0033711886
191	0x3b7db164	0.003871047
192	0x3aebcde6	0.001799044
193	0x3aee65ca	0.0018188294
194	0x3b1c43ce	0.0023844126
195	0x39c2dc79	0.00037166828
196	0x39b816af	0.00035112115
197	0x3a29ca14	0.00064769504
198	0x3929c265	0.00016189514
199	0x39c9dd16	0.0003850243
200	0x3a0801fa	0.0005188283
201	0x3966d6cd	0.00022014529
202	0x3a067508	0.00051291334
203	0x3a136425	0.00056225277
204	0x39b8c060	0.00035238545
205	0x3a2426fe	0.0006261914
206	0x39e0ac30	0.000428529
207	0x3ab9a166	0.001416248
208	0x3b558128	0.0032578204
209	0x3ba889a9	0.0051433635
210	0x3a1383b6	0.00056272314
211	0x3aaf56bf	0.0013377293
212	0x3b19e2df	0.0023481173
213	0x3aa051f7	0.0012231459
214	0x3a00b383	0.0004909562
215	0x3a275445	0.00063831016
216	0x39c9a265	0.000384587
217	0x39c6ff6a	0.000379558
218	0x39b6dcfd	0.00034878394
219	0x3ae2b0b2	0.0017295091
220	0x3ad16d03	0.0015977923
221	0x3ada19eb	0.0016639804
222	0x3b51a36e	0.003198828
223	0x3b616edb	0.003439835
224	0x3b708d97	0.0036705488
225	0x3a7f0141	0.0009727665
226	0x3a3b581f	0.0007146615
227	0x38f058a6	0.00011460604
228	0x3a44c684	0.0007506388
229	0x3a408c79	0.0007345151
230	0x38bca699	8.99557e-05
231	0x3aa19f4a	0.0012330797
232	0x3aa5c806	0.0012648113
233	0x3a095d00	0.00052399933
234	0x399f6b0e	0.00030406605
235	0x3a03bdd7	0.0005025542
236	0x3a6a96c2	0.0008948856
237	0x3a7c6d98	0.0009629368
238	0x3a9aa180	0.0011797398
239	0x3ab6c480	0.001394406
240	0x3ada809a	0.0016670406
241	0x3ae0be3a	0.0017146536
242	0x3b0439d7	0.0020176077
243	0x3afcb879	0.0019281051
244	0x3ac67807	0.0015141972
245	0x3a7f00a8	0.0009727576
246	0x3abc03bd	0.0014344376
247	0x3ac1a761	0.0014774614
248	0x3a31b170	0.00067784544
249	0x3a01c3b3	0.0004950121
250	0x3a74903a	0.0009329353
251	0x39907e46	0.000275599
252	0x392425a4	0.00015654281
253	0x39dca162	0.0004208191
254	0x3a434430	0.00074488204
255	0x3a05876a	0.00050937256

exp_avg f4 [32]
0	0x321439e0	8.627893e-09
1	0xb20726d6	-7.8668645e-09
2	0xb23b0d81	-1.0887903e-08
3	0x30f61b9a	1.7906701e-09
4	0xb1d4d580	-6.194284e-09
5	0xb02231ca	-5.900601e-10
6	0x30d07019	1.5165852e-09
7	0xb26ef14d	-1.3908289e-08
8	0xb27e588d	-1.480488e-08
9	0x3143086d	2.8381024e-09
10	0x31e13d6b	6.5553443e-09
11	0xb28e9405	-1.6598287e-08
12	0x31f026ea	6.9893433e-09
13	0x322b67fc	9.977153e-09
14	0x319fb92b	4.64856e-09
15	0xb23b239c	-1.0892929e-08
16	0xb25b0c86	-1.2750325e-08
17	0x31b047cd	5.130437e-09
18	0x324c3a1b	1.18875745e-08
19	0x307cf25d	9.2021485e-10
20	0xb2acd980	-2.0122343e-08
21	0x31551d7a	3.1012335e-09
22	0xb1bf9249	-5.5754623e-09
23	0xb1b2a0f1	-5.1987787e-09
24	0xb2b5d831	-2.1169486e-08
25	0x31d1215d	6.0864935e-09
26	0x32abf4b8	2.0018305e-08
27	0x31a78e01	4.8764837e-09
28	0xb2776c91	-1.4401977e-08
29	0xb2f88bdc	-2.89346e-08
30	0xb18c1b1b	-4.077618e-09
31	0xb252fbde	-1.2280877e-08
