CS330/XCS330-PS3/src/submission/logs/maml/omniglot.way_5.support_1.query_15.inner_steps_1.inner_lr_0.4.learn_inner_lrs_True.outer_lr_0.001.batch_size_16/state10100.pt (torch, 360802 bytes, 30 tensors)

conv0 f4 [32, 1, 3, 3]
0.04185946 0.01722028 -0.30836922 -0.046570107 -0.26513803 -0.14034232 0.027168471 0.17281911
0.117821544 0.14785454 0.0318294 -0.27780044 -0.046387985 0.007835553 -0.29390618 0.074135
-0.04787049 -0.24118526 -0.25855234 0.05126978 0.10341172 -0.30635732 0.022236474 0.09351455
-0.26745686 -0.05427301 0.009278899 0.12245927 -0.10894779 -0.318731 0.057633933 0.09369242
0.014612183 -0.25636205 0.07646946 0.12533231 0.06599116 0.084136024 -0.006272833 0.075410284
0.09666281 -0.13577859 -0.29996875 -0.31491563 -0.26451263 -0.010752626 -0.2324147 -0.030527322
0.0004779596 -0.12411514 0.20663688 -0.11658531 -0.11534959 0.021477597 -0.0898151 -0.24681307
-0.18430807 0.0118244095 -0.092665285 -0.20489877 0.22195376 0.030936839 -0.16596453 -0.16671564
-0.12100594 -0.12723236 -0.20379928 0.035495754 0.12825947 -0.12388723 0.028376875 0.12964888
0.03245182 0.04754745 -0.30824792 0.13639933 0.09246695 -0.346769 0.021389503 -0.018325454
-0.33388644 0.033666704 0.070798755 -0.0017763015 -0.10011127 -0.4913852 -0.025142267 0.11915643
-0.05978355 0.07358812 -0.013813126 0.06096543 -0.0072656623 0.1295315 -0.28519467 -0.061926
-0.1006781 -0.3270552 0.18412901 0.023477651 0.1152605 0.20449126 0.038620498 0.13202605
0.20602454 0.1494002 0.12550554 0.24113166 0.17826104 -0.17280772 0.08149054 -0.072141685
-0.30897662 0.07354167 0.02169237 -0.0068764137 0.048430074 -0.24731445 -0.32261056 -0.24206966
-0.057599112 0.018596314 -0.04466543 -0.051785033 0.0905445 0.20868708 0.005074938 0.06928906
0.26119444 -0.08768757 -0.016303282 -0.28241995 0.018429141 0.0061300383 -0.15311061 -0.08970519
-0.09968369 0.18215685 -0.09710157 -0.27402085 -0.09192016 -0.27378693 -0.16229291 -0.08949779
-0.23935582 0.053479113 0.14053148 0.12037324 0.058232624 0.0071297092 -0.037061352 -0.26315194
-0.23330283 0.18388824 -0.008613002 -0.22096184 -0.031066086 -0.1107033 -0.089205235 -0.18253691
-0.091773026 0.07658502 0.0885964 -0.31383458 -0.08719294 -0.33183706 0.08371524 0.13390559
-0.06813799 0.08814583 -0.0195712 -0.1270081 -0.30364782 -0.012531027 0.19338964 0.03140521
-0.27632597 -0.07921534 0.12484376 -0.07015261 -0.06638599 0.089730434 0.095292784 -0.20627964
0.021106368 0.17944638 -0.19617623 -0.25555307 0.00075540825 0.033301644 0.01542561 0.14009295
-0.02788193 0.055029035 0.05665031 -0.2796422 -0.31257942 -0.30394417 -0.273671 -0.07876906
0.23025942 -0.15770973 0.068329535 0.021355802 -0.09162903 0.1653487 -0.21838897 -0.106650494
0.06277739 0.043508578 -0.21803035 0.04471431 0.09518892 0.01398623 -0.253506 -0.24851477
-0.30550086 -0.33232316 -0.30055055 0.02380705 0.11162299 0.002461507 0.023513643 0.11026183
0.023750301 -0.041147158 0.058535922 -0.11157792 -0.041530102 -0.00825887 -0.37544453 -0.03718277
0.18806845 -0.2183824 -0.45672357 -0.053060755 -0.019417588 -0.033454426 0.047514983 -0.048054192
0.17602964 -0.055223733 0.020279655 0.08379631 -0.03755384 -0.023841398 0.043689303 0.14857769
-0.15419349 -0.22431223 0.03769017 -0.27337942 -0.29918838 -0.08968087 0.14998415 -0.008511833
00000000: d374 2b3d 8b11 8d3c 92e2 9dbe 4cc0 3ebd
00000010: 2cc0 87be e6b5 0fbe 6a90 de3c 7ef7 303e
00000020: 6c4c f13d 2e67 173e 8c5f 023d dc3b 8ebe
00000030: 5401 3ebd b160 003c df7a 96be 17d4 973d
00000040: d913 44bd 45f9 76be f960 84be 4300 523d
00000050: 86c9 d33d deda 9cbe 4429 b63c 8e84 bf3d
00000060: 1bf0 88be 604d 5ebd 8606 183c edcb fa3d
00000070: 0520 dfbd b630 a3be 8f11 6c3d d0e1 bf3d
00000080: f067 6f3c e341 83be 059c 9c3d 1d57 003e
00000090: 6026 873d 824f ac3d 568c cdbb b570 9a3d
000000a0: 27f7 c53d 8b09 0bbe 8195 99be 9f3c a1be
000000b0: 336e 87be c82b 30bc 1efe 6dbe 6f14 fabc
000000c0: a796 fa39 1430 febd 9e98 533e 47c4 eebd
000000d0: 683c ecbd c9f1 af3c fbf0 b7bd 91bc 7cbe
000000e0: 41bb 3cbe 2bbb 413c 4cc7 bdbd fcd0 51be
000000f0: d947 633e 416f fd3c 9bf2 29be 81b7 2abe
00000100: f6d1 f7bd 3349 02be c2b0 50be ff63 113d
00000110: 7356 033e 97b8 fdbd 9f76 e83c adc2 043e
00000120: 33ec 043d 1dc1 423d acd2 9dbe 44ac 0b3e
00000130: 505f bd3d b58b b1be 0a39 af3c 431f 96bc
00000140: 2af3 aabe 19e6 093d f0fe 903d cad2 e8ba
00000150: 2307 cdbd d796 fbbe 28f7 cdbc 4908 f43d
00000160: 99df 74bd 5eb5 963d 7350 62bc e3b6 793d
00000170: cb14 eebb e8a3 043e 0905 92be 1ea6 7dbd
00000180: 5230 cebd c773 a7be 518c 3c3e 3454 c03c
00000190: b20d ec3d 2866 513e 8730 1e3d d631 073e
000001a0: 19f8 523e 5efc 183e 8684 003e 38eb 763e
000001b0: 108a 363e 82f4 30be 83e4 a63d 05bf 93bd
000001c0: 2f32 9ebe 049d 963d 32b4 b13c 8a53 e1bb
000001d0: 9d5e 463d 0040 7dbe 362d a5be 1ce1 77be
000001e0: 0ced 6bbd 4c57 983c 19f3 36bd 8b1c 54bd
000001f0: 656f b93d 11b2 553e aa4b a63b 6ce7 8d3d
00000200: 47bb 853e 8a95 b3bd 768e 85bc 5999 90be
00000210: b6f8 963c 7dde c83b 07c9 1cbe 5bb7 b7bd
00000220: f626 ccbd 5387 3a3e 30dd c6bd 764c 8cbe
00000230: a340 bcbd cd2d 8cbe 1d30 26be 9e4a b7bd
00000240: b119 75be ea0c 5b3d 7ce7 0f3e 3f86 f63d
00000250: 5585 6e3d 56a0 e93b a5cd 17bd dabb 86be
00000260: f0e6 6ebe 334d 3c3e 8c1d 0dbc d243 62be
00000270: 4e7e febc 69b8 e2bd 3cb1 b6bd f5ea 3abe
00000280: 7ff3 bbbd 9bd8 9c3d 0872 b53d edae a0be
00000290: 3692 b2bd 8ce6 a9be e572 ab3d 8c1e 093e
000002a0: ee8b 8bbd cd85 b43d c853 a0bc 690e 02be
000002b0: ba77 9bbe f04e 4dbc ef07 463e c0a2 003d
000002c0: 997a 8dbe a73b a2bd 16ae ff3d 2cac 8fbd
000002d0: 61f5 87bd 97c4 b73d dd28 c33d f83a 53be
000002e0: 43e7 ac3c cbc0 373e 6ce2 48be dad7 82be
000002f0: 9706 463a 4e67 083d b3bb 7c3c 8774 0f3e
00000300: a568 e4bc 2066 613d 280a 683d 432d 8fbe
00000310: 690a a0be 929e 9bbe 9b1e 8cbe ac51 a1bd
00000320: 20c9 6b3e a97e 21be 5bf0 8b3d 5df2 ae3c
00000330: 00a8 bbbd 2b51 293e 5ca1 5fbe 936b dabd
00000340: 6f91 803d 0d36 323d 5943 5fbe 5a26 373d
00000350: 69f2 c23d 8026 653c 8acb 81be a87a 7ebe
00000360: 9c6a 9cbe 4326 aabe c3e1 99be 0107 c33c
00000370: 989a e43d 3c51 213b af9f c03c f4d0 e13d
00000380: fe8f c23c ec89 28bd 5dc3 6f3d f782 e4bd
00000390: 781b 2abd 3650 07bc 443a c0be f64c 18bd
000003a0: 0495 403e a39f 5fbe acd7 e9be 3c56 59bd
000003b0: a211 9fbc 8207 09bd 129f 423d 79d4 44bd
000003c0: 1d41 343e 4832 62bd 8521 a63c 669d ab3d
000003d0: 0ed2 19bd 094f c3bc 8ef3 323d c024 183e
000003e0: e6e4 1dbe 1bb2 65be 0261 1a3d 63f8 8bbe
000003f0: 382f 99be 9baa b7bd 7295 193e 3775 0bbc

b0 f4 [32]
0.067345895 0.06293571 -0.13486089 0.16659722 0.062185016 -0.029215416 0.07301332 -0.025975637
0.090109795 0.16323866 -0.07526098 -0.069755584 0.14033896 0.11846588 0.08420459 0.12738304
0.0129493335 -0.0834295 -0.060786564 -0.4433075 -0.08998654 -0.22238627 0.089111686 -0.35710564
-0.20606862 -0.2628828 0.13571072 -0.071553625 0.00919219 -0.0069962023 0.09723974 -0.11908858
00000000: a5ec 893d 70e4 803d f918 0abe 7698 2a3e
00000010: b7b5 7e3d 2b55 efbc 0288 953d dcca d4bc
00000020: 7c8b b83d 0928 273e 6e22 9abd 04dc 8ebd
00000030: 04b5 0f3e 3d9e f23d 7573 ac3d b370 023e
00000040: 7129 543c 16dd aabd 55fb 78bd 33f9 e2be
00000050: dd4a b8bd 3ab9 63be 3080 b63d 8dd6 b6be
00000060: a703 53be 9398 86be c0f7 0a3e b58a 92bd
00000070: d79a 163c 6640 e5bb a125 c73d b7e4 f3bd

conv1 f4 [32, 32, 3, 3]
-0.06306493 0.08069866 -0.023503553 -0.04775461 -0.075116515 0.14033817 -0.12392477 0.028363118
0.24562442 0.11177509 0.0027833062 0.32234204 0.05019599 -0.093116656 -0.18986557 0.012830219
-0.0872978 -0.41067016 0.14679305 0.13614549 -0.143479 0.09136496 0.07645643 -0.09196123
-0.19352953 -0.0049234424 0.09317647 0.0470158 -0.000104406776 -0.09190117 -0.11937395 0.05743082
0.012692602 -0.15229166 -0.025567895 -0.0100860745 -0.0104824705 -0.012133632 -0.112007976 0.17133585
0.08948019 0.18781377 0.18285137 0.16053286 0.20179152 -0.055781506 0.021666449 -0.10525257
-0.051495668 0.012381178 -0.08802303 0.061903324 0.08591982 -0.14133653 0.1833648 0.019114789
-0.084342875 0.1030634 -0.1513662 -0.27260295 -0.09395388 0.017351015 -0.03787709 0.032210443
0.13588686 0.08536294 0.06347262 0.22390938 -0.026977785 0.068354905 0.04136066 -0.1046005
0.027331578 -0.01343746 0.15521882 -0.09907686 -0.14205307 0.024794087 -0.18457185 -0.10315132
-0.32530236 -0.15787682 -0.013062122 0.088948056 0.065746166 0.014432379 0.08136454 0.15012045
-0.041584346 0.054819863 0.18809274 0.019109285 0.01095526 0.052063026 -0.0052788774 -0.19110663
-0.014263193 0.082825735 -0.07342884 -0.091424264 -0.055286 -0.15223898 -0.008120552 0.0025815289
0.04184966 0.18185872 0.027788969 -0.028427606 0.00031766287 0.19525996 0.031925797 -0.027063714
-0.04659071 0.09230795 -0.17034985 -0.13816416 0.09503077 -0.37789696 0.16101544 0.41473368
-0.19876225 -0.19373268 0.006892959 -0.28604314 -0.15558705 -0.023983007 0.09286324 -0.025811039
0.01704929 -0.008639401 0.028388517 0.08851949 -0.023161912 0.062785774 -0.10643394 0.17153923
0.29746133 0.15026571 0.19168593 -0.029063473 0.0278451 0.28278732 0.16146266 0.038902283
0.072315596 -0.11513232 0.22900748 -0.01014185 -0.0161147 -0.04191432 -0.090709105 -0.11522875
-0.08362663 -0.037125114 -0.03787938 -0.024218386 -0.088161655 0.08817617 -0.10425353 -0.0021482764
0.21822602 0.055938534 0.011014778 -0.03844817 0.06653826 0.05910114 0.053406034 -0.14533915
-0.037682842 0.03942284 -0.034703787 0.056865163 -0.15719824 -0.14858094 -0.08577647 -0.16701686
-0.08298881 0.12526117 0.12573273 0.012440495 0.08645336 0.07083798 0.044152584 -0.029097397
0.018821979 0.07713536 -0.30214483 -0.31518278 -0.08190639 0.13769479 -0.16915394 -0.015212333
0.19128926 0.092027724 -0.056355495 -0.12532115 -0.022669423 0.1121486 -0.12899612 0.028549625
0.18560706 -0.095109396 -0.12606166 -0.022784442 -0.07655875 -0.06146263 0.071400575 0.023570439
-0.090529434 -0.20035581 -0.12666349 -0.27268243 -0.13547024 -0.01641182 0.094902724 0.09478031
-0.33627945 -0.20123298 0.133831 -0.45563272 -0.09456935 0.02437308 -0.19327016 -0.17235431
0.046219792 0.100748874 0.11017069 0.01730822 0.1854729 0.06704024 0.039314467 0.2040572
-0.067867376 -0.15492308 0.02351408 -0.019800195 0.037742566 0.03482363 0.087916486 0.18059205
0.006077365 0.054208383 -0.0068459515 -0.013064801 0.016965717 -0.027609117 0.017692076 0.018201962
0.04379657 0.09184426 -0.03301076 -0.08401573 0.23714864 0.12040928 0.06687069 -0.35655478
00000000: 3028 81bd 5745 a53d 868a c0bc 579a 43bd
00000010: b0d6 99bd cfb4 0f3e 45cc fdbd c559 e83c
00000020: f884 7b3e 57ea e43d 2168 363b 040a a53e
00000030: 4f9a 4d3d f2b3 bebd 1f6c 42be d735 523c
00000040: 30c9 b2bd 5c43 d2be eb50 163e b969 0b3e
00000050: 29ec 12be 8d1d bb3d 3095 9c3d 2b56 bcbd
00000060: 9b2c 46be d454 a1bb 4ed3 be3d a493 403d
00000070: f6f4 dab8 ae36 bcbd 547a f4bd 943c 6b3d
00000080: a2f4 4f3c 58f2 1bbe c373 d1bc 1040 25bc
00000090: abbe 2bbc 24cc 46bc 7064 e5bd aa72 2f3e
000000a0: 6441 b73d 4152 403e 643d 3b3e ba62 243e
000000b0: 70a2 4e3e 267b 64bd d67d b13c a98e d7bd
000000c0: 1fed 52bd 6dda 4a3c 6b45 b4bd 578e 7d3d
000000d0: bbf6 af3d 86ba 10be fbc3 3b3e 9e96 9c3c
000000e0: f5bb acbd e712 d33d beff 1abe 9d92 8bbe
000000f0: e46a c0bd b723 8e3c 0225 1bbd 19ef 033d
00000100: ed25 0b3e c4d2 ae3d effd 813d 8048 653e
00000110: 8400 ddbc a8fd 8b3d cc69 293d c938 d6bd
00000120: 79e6 df3c cb28 5cbc aff1 1e3e cfe8 cabd
00000130: 5c76 11be f81c cb3c 6700 3dbe 0041 d3bd
00000140: 088e a6be 76aa 21be 8302 56bc 662a b63d
00000150: eda5 863d c975 6c3c 74a2 a63d 2db9 193e
00000160: 5954 2abd cb8a 603d 629b 403e 138b 9c3c
00000170: b17d 333c 0a40 553d 6ffa acbb 75b1 43be
00000180: 2bb0 69bc 8aa0 a93d dc61 96bd a53c bbbd
00000190: 9373 62bd 89e4 1bbe 100c 05bc de2e 293b
000001a0: 8d6a 2b3d 2c39 3a3e b1a5 e33c 03e1 e8bc
000001b0: fd8b a639 3af2 473e a0c4 023d b9b4 ddbc
000001c0: e6d5 3ebd f30b bd3d 3170 2ebe e87a 0dbe
000001d0: 7e9f c23d b67b c1be 3be1 243e f957 d43e
000001e0: 5588 4bbe dc61 46be 55de e13b 3f74 92be
000001f0: 3652 1fbe 0378 c4bc 152f be3d ac71 d3bc
00000200: f4aa 8b3c 468c 0dbc 098f e83c b549 b53d
00000210: 0dbe bdbc d495 803d 0afa d9bd fba7 2f3e
00000220: da4c 983e 41df 193e 5149 443e 8516 eebc
00000230: 681b e43c 80c9 903e 7856 253e 0058 1f3d
00000240: 331a 943d 7eca ebbd f080 6a3e 012a 26bc
00000250: fa02 84bc 5aae 2bbd b2c5 b9bd 0dfd ebbd
00000260: 7044 abbd 8110 18bd 6927 1bbd a365 c6bc
00000270: 198e b4bd b595 b43d e082 d5bd 19ca 0cbb
00000280: a476 5f3e ce1f 653d 5477 343c d47b 1dbd
00000290: 3645 883d 0914 723d 49c0 5a3d c9d3 14be
000002a0: 5359 1abd d879 213d 8f25 0ebd 72eb 683d
000002b0: 93f8 20be 9a25 18be 93ab afbd 7806 2bbe
000002c0: 0af6 a9bd 7744 003e 15c0 003e 38d3 4b3c
000002d0: 760e b13d 8113 913d 57d9 343d aa5d eebc
000002e0: 8d30 9a3c 25f9 9d3d bab2 9abe a35f a1be
000002f0: 8abe a7bd ddff 0c3e b136 2dbe 263d 79bc
00000300: 55e1 433e 0879 bc3d 05d5 66bd 3054 00be
00000310: 3ab5 b9bc 2aae e53d 8f17 04be e7e0 e93c
00000320: c70f 3e3e b7c8 c2bd 4f16 01be 70a6 babc
00000330: d5ca 9cbd 3dc0 7bbd 773a 923d cb16 c13c
00000340: 7f67 b9bd 132a 4dbe 13b4 01be 089d 8bbe
00000350: b6b8 0abe 1572 86bc 5c5c c23d 2e1c c23d
00000360: d22c acbe 0510 4ebe fe0a 093e b148 e9be
00000370: 93ad c1bd 0eaa c73c 9de8 45be a67d 30be
00000380: f750 3d3d 6d55 ce3d 2ca1 e13d f8c9 8d3c
00000390: 9cec 3d3e 654c 893d 3508 213d 5ff4 503e
000003a0: 0dfe 8abd 28a4 1ebe 9aa0 c03c 0534 a2bc
000003b0: f397 1a3d 39a3 0e3d 8f0d b43d 1fed 383e
000003c0: a224 c73b 9c09 5e3d 0154 e0bb bf0d 56bc
000003d0: b0fb 8a3c 842c e2bc f9ee 903c 481c 953c
000003e0: 0864 333d d818 bc3d 4a36 07bd 7010 acbd
000003f0: 18d7 723e 2499 f63d 80f3 883d 598e b6be

b1 f4 [32]
0.041161522 0.013260184 -0.020810012 -0.06290354 -0.052488916 -0.0016583613 0.022598963 0.004224917
-0.008004219 -0.042076547 -0.0671781 -0.035526607 -0.005282037 0.0012610465 -0.027103318 -0.05081329
-0.024458682 -0.024408715 -0.03444424 -0.033355635 0.028938768 0.0233384 0.04931849 0.008263915
-0.0333936 0.047582086 -0.005540537 0.10544641 -0.0010834992 -0.0025281145 -0.015733995 0.012187729
00000000: fc98 283d 3e41 593c c279 aabc 92d3 80bd
00000010: 9efe 56bd 5f5d d9ba 7621 b93c 2c71 8a3b
00000020: 2124 03bc 7558 2cbd ac94 89bd 5984 11bd
00000030: f014 adbb b349 a53a c707 debc 9921 50bd
00000040: 935d c8bc c9f4 c7bc 6715 0dbd eb9f 08bd
00000050: ff10 ed3c 2c30 bf3c 2f02 4a3d 5f65 073c
00000060: bac7 08bd 6fe5 423d 658d b5bb 4af4 d73d
00000070: 3304 8eba b9ae 25bb 94e4 80bc 0aaf 473c

conv2 f4 [32, 32, 3, 3]
-0.012959085 -0.0419677 0.0018213878 -0.040092327 0.042117544 0.055512656 0.07105553 0.11644241
0.13777205 -0.015063403 0.02549378 0.033573337 0.12951483 0.07929576 0.040098324 0.10858989
0.012973318 0.059227977 0.10708494 -0.009183372 -0.02005333 0.093028 0.11083977 0.0062918714
0.10358751 0.09355457 0.08495432 -0.1153586 -0.09713082 -0.006282733 -0.19725557 -0.15169571
-0.028610894 -0.2685663 -0.23883449 -0.12480805 -0.102646805 0.017574761 0.018866397 -0.060598135
-0.037665628 0.087723695 -0.15139979 -0.078705624 0.09456743 -0.0343359 0.01647943 0.05256789
-0.061683074 -0.12752326 0.033370763 -0.15065612 -0.027669312 -0.01086872 -0.12115141 -0.025009077
-0.032303263 -0.027006581 -0.0054585934 0.040769182 0.06037885 0.026965009 -0.005996828 0.042500265
0.0028595035 -0.083083935 0.2150398 0.23155656 0.10972129 0.18359692 0.15155971 -0.009248779
-0.12793669 -0.04701734 0.0015520189 -0.08482592 -0.10842136 -0.06624711 -0.057768326 -0.060897
-0.0013731102 -0.111192405 -0.091468245 -0.13775596 -0.026571078 0.00039516966 -0.04856035 -0.030107163
0.039172407 -0.01890731 0.012328458 0.03533159 -0.05562657 0.12259376 0.1209617 0.1074586
0.12746139 0.16771942 0.008612387 -0.029782819 -0.122850895 -0.057144597 -0.012311346 -0.019392794
-0.049315732 0.0024643263 -0.049060717 0.013897467 -0.09131815 -0.09651111 -0.122531705 0.003717704
-0.051588207 -0.041651152 -0.05023606 -0.012188052 -0.05969289 -0.22628221 -0.19437417 -0.12370327
-0.35222378 -0.15798348 -0.12951711 -0.42700294 -0.4587456 -0.38310173 -0.07856122 -0.06663955
-0.15702339 -0.09601468 -0.021086184 -0.041787647 -0.08445748 -0.13711844 -0.2334577 -0.04640322
-0.079807565 -0.005607657 0.091110125 0.09204314 0.054080375 0.08251116 0.09915497 0.106329
-0.1385231 -0.090535074 -0.09439006 -0.20022157 -0.21413709 -0.15805966 -0.20239104 -0.22012179
-0.08817239 0.017457604 0.10180308 0.02230791 0.20153224 0.062178273 0.17590414 -0.0012711819
-0.054429714 -0.016068093 -0.006453587 -0.055100277 -0.0048525366 -0.040690947 0.07281416 -0.041096646
-0.1204866 -0.0050064707 -0.1434655 0.033094514 0.003919177 -0.016332773 -0.020979716 0.049374554
-0.054631002 0.043924257 -0.04760257 0.04005414 -0.26935527 -0.16468728 -0.24816015 -0.27233827
-0.18731657 -0.19928366 -0.24534455 -0.24199636 -0.15450595 -0.025919316 0.023827605 -0.002824817
-0.013400765 0.03567802 -0.042383388 0.026802957 -0.012892789 0.15201353 0.037829246 0.030229485
-0.07713764 0.10499336 0.068366945 0.0377396 0.08889765 0.10419669 -0.017025268 0.10595902
0.1412965 -0.04236095 0.20400672 0.1017123 0.006824174 0.19319907 0.08495891 0.10852674
0.0717963 -0.012986348 -0.05560063 0.04502948 0.06441919 -0.07701914 -0.0011382982 0.009696617
-0.067200206 0.0063130013 -0.030640991 -0.10918136 0.09606366 -0.05418295 0.010832677 0.13394016
-0.03890306 -0.073501885 0.014540846 0.074602336 0.02754768 0.13006625 0.23718442 0.22685269
0.15602787 0.19536436 0.18488094 0.08731024 0.1766011 0.119579524 0.14120056 0.23296358
0.14808153 0.11113673 0.2340162 0.22658288 -0.12815455 -0.093328506 -0.08298484 -0.11409174
00000000: 5852 54bc 53e6 2bbd a2bb ee3a da37 24bd
00000010: 7283 2c3d 3d61 633d 9085 913d 5c79 ee3d
00000020: 1e14 0d3e 7ecc 76bc 55d8 d03c 3284 093d
00000030: 899f 043e d165 a23d 243e 243d 6064 de3d
00000040: 0a8e 543c 0999 723d 594f db3d db75 16bc
00000050: e246 a4bc 7785 be3d f6ff e23d 0b2c ce3b
00000060: b025 d43d 8a99 bf3d 88fc ad3d 2141 ecbd
00000070: 86ec c6bd 62df cdbb 5dfd 49be 1f56 1bbe
00000080: 6561 eabc 8681 89be 0791 74be 5d9b ffbd
00000090: 7d38 d2bd f2f8 8f3c b48d 9a3c c035 78bd
000000a0: 4647 1abd 7ba8 b33d 8c08 1bbe 6a30 a1bd
000000b0: 92ac c13d cda3 0cbd dfff 863c 6e51 573d
000000c0: 64a7 7cbd 7595 02be c8af 083d 9945 1abe
000000d0: c1aa e2bc b712 32bc 3b1e f8bd d6df ccbc
000000e0: 6d50 04bd e83c ddbc 00de b2bb 96fd 263d
000000f0: d04f 773d b9e5 dc3c 0a81 c4bb c214 2e3d
00000100: 8266 3b3b e927 aabd 6533 5c3e 2a1d 6d3e
00000110: 8eb5 e03d d500 3c3e 7832 1b3e 3188 17bc
00000120: d601 03be 4195 40bd 1d6d cb3a 36b9 adbd
00000130: 050c debd 91ac 87bd 7b9e 6cbd 226f 79bd
00000140: eff9 b3ba d8b8 e3bd b453 bbbd e60f 0dbe
00000150: 97ab d9bc c62e cf39 38e7 46bd 4ca3 f6bc
00000160: 3f73 203d 81e3 9abc 4dfd 493c dbb7 103d
00000170: b0d8 63bd 7012 fb3d c5ba f73d 4113 dc3d
00000180: 3d85 023e a4be 2b3e f81a 0d3c 19fb f3bc
00000190: 4099 fbbd 7410 6abd 87b5 49bc a3dd 9ebc
000001a0: 4bff 49bd 8980 213b e4f3 48bd 34b2 633c
000001b0: 0305 bbbd 9ea7 c5bd e7f1 fabd b9a4 733b
000001c0: 284e 53bd 669a 2abd 54c4 4dbd 65b0 47bc
000001d0: 8880 74bd 86b6 67be 060a 47be 2458 fdbd
000001e0: ad56 b4be 6cc6 21be 22a0 04be 21a0 dabe
000001f0: b4e0 eabe e925 c4be b4e4 a0bd 517a 88bd
00000200: bdca 20be 58a3 c4bd efbc acbc 8629 2bbd
00000210: 0bf8 acbd c768 0cbe 890f 6fbe 4e11 3ebd
00000220: 2672 a3bd 70c0 b7bb f297 ba3d 1d81 bc3d
00000230: 6283 5d3d 9cfb a83d c311 cb3d 05c3 d93d
00000240: 00d9 0dbe 746a b9bd 934f c1bd e206 4dbe
00000250: c146 5bbe 64da 21be 993f 4fbe 9b67 61be
00000260: ba93 b4bd 4003 8f3c 227e d03d 14bf b63c
00000270: 785e 4e3e a5ae 7e3d 3720 343e c99d a6ba
00000280: b1f1 5ebd 3ca1 83bc 9d78 d3bb d4b0 61bd
00000290: 0702 9fbb 8dab 26bd 971f 953d f554 28bd
000002a0: aec1 f6bd 520d a4bb 9fe8 12be 1d8e 073d
000002b0: 716c 803b 4fcc 85bc a7dd abbc f93c 4a3d
000002c0: c2c4 5fbd ece9 333d eafa 42bd cf0f 243d
000002d0: efe8 89be c8a3 28be b21d 7ebe ec6f 8bbe
000002e0: eacf 3fbe 0411 4cbe 9a3b 7bbe e5cd 77be
000002f0: cf36 1ebe bf54 d4bc 1c32 c33c 9120 39bb
00000300: e28e 5bbc 1e23 123d 349a 2dbd e091 db3c
00000310: 473c 53bc 6fa9 1b3e d7f2 1a3d d3a3 f73c
00000320: 57fa 9dbd c206 d73d f803 8c3d d794 1a3d
00000330: f90f b63d 1365 d53d 9378 8bbc 0b01 d93d
00000340: 08b0 103e ad82 2dbd 23e7 503e 8a4e d03d
00000350: 529d df3b fad5 453e f0fe ad3d 4443 de3d
00000360: f009 933d b1c4 54bc 7cbd 63bd d570 383d
00000370: 35ee 833d 36bc 9dbd f332 95ba 8fde 1e3c
00000380: 43a0 89bd 4bdd ce3b d102 fbbc 7a9a dfbd
00000390: 06bd c43d f1ee 5dbd 8a7b 313c 9c27 093e
000003a0: d158 1fbd 2888 96bd bb3c 6e3c 1cc9 983d
000003b0: acab e13c 1630 053e 79e0 723e 124c 683e
000003c0: c5c5 1f3e 980d 483e 6e51 3d3e b6cf b23d
000003d0: ebd6 343e 1ce6 f43d e196 103e 018e 6e3e
000003e0: afa2 173e a79b e33d f1a1 6f3e 5805 683e
000003f0: f23a 03be 0423 bfbd f5f3 a9bd eea8 e9bd

b2 f4 [32]
-0.053214703 -0.03819904 0.045091864 0.039739348 0.14858778 0.07397514 0.07087771 -0.014604376
0.06845415 0.06312961 0.09928161 -0.051224343 0.054636654 0.09896699 0.099626325 -0.034278724
0.07883833 -0.055049583 0.08997123 0.05638035 -0.052316844 0.0994799 0.07802526 0.01676239
-0.08800879 0.10285113 0.12198049 0.018701449 0.06435725 -0.038242925 -0.015798144 0.09260342
00000000: a9f7 59bd 9976 1cbd 3fb2 383d bac5 223d
00000010: 6527 183e 4780 973d 5528 913d 3147 6fbc
00000020: b031 8c3d 194a 813d 2854 cb3d 9ed0 51bd
00000030: afca 5f3d 35af ca3d e308 cc3d d967 0cbd
00000040: fe75 a13d ac7b 61bd d642 b83d 15ef 663d
00000050: 304a 56bd 1ebc cb3d b5cb 9f3d 4851 893c
00000060: f43d b4bd 9da3 d23d e8d0 f93d c833 993c
00000070: bccd 833d 9da4 1cbd 1c6b 81bc dda6 bd3d

conv3 f4 [32, 32, 3, 3]
0.05717372 -0.05283066 0.11069206 -0.044481874 0.03767602 0.014814523 0.085691296 0.06555265
0.06068663 0.024281481 0.027210394 0.03686521 0.025048317 -0.009347656 0.050932672 0.08559013
0.090989664 0.0851997 -0.033961143 0.015682867 0.10692251 -0.014374577 -0.009962768 0.019363273
-0.07498898 0.015718706 -0.0071763317 -0.1145513 -0.08545828 0.07953787 -0.24771777 -0.21431985
-0.04779916 -0.31567368 -0.2810322 -0.17081712 0.0051951283 -0.0017248763 0.03250102 -0.0704971
0.045209743 -0.03671873 -0.02651889 -0.063721 0.0005746386 0.037369255 -0.0018970441 0.063671544
0.012565211 -0.06224572 0.0018546383 0.06551296 0.07404852 0.07452319 -0.08203302 0.0055561597
0.010669284 -0.004249279 0.0326172 0.021028781 -0.09702151 -0.03681595 -0.016215576 0.01942708
0.0613755 -0.013473925 0.13369527 0.058492206 0.06483521 0.03995054 0.08170402 0.0031870124
-0.13950787 0.021500288 -0.063363254 -0.03999937 0.08182704 -0.055829745 -0.12438089 -0.060868584
-0.015973724 0.0061102766 -0.060654767 0.027533567 -0.019018808 -0.0076933363 -0.013539008 -0.05501501
-0.06463058 0.0016576329 -0.11528679 -0.108685516 -0.106254034 -0.15023218 -0.008986403 -0.06832859
-0.19760652 -0.118196905 -0.059858814 0.26761925 -0.06513225 0.2694289 0.072704546 -0.19467977
0.045190416 0.34877688 -0.016567128 0.2526474 -0.10469474 -0.030922273 0.01718484 -0.033309363
0.11648058 -0.02058069 -0.06431068 -0.06868754 -0.044594236 0.044762574 0.055018567 0.09548454
0.10159197 -0.03201539 0.064790614 0.09509449 -0.017493706 0.09009867 -0.105930716 -0.08664682
0.038669612 -0.048335653 0.014561606 -0.07723425 -0.09285029 -0.01522546 -0.053132042 -0.099304296
0.026997145 0.029675186 0.045980975 0.02472675 -0.025871918 -0.048311323 0.02604216 -0.026428128
0.42703426 0.1009828 0.41679496 0.0010789274 -0.11798254 0.119219795 0.2948684 0.09866235
0.33754212 -0.024079995 -0.06320021 -0.020951213 -0.094982974 0.079442404 -0.026658796 -0.13950312
-0.021881055 -0.06810439 -0.0058462536 -0.02218994 0.010863936 0.030127043 -0.014471566 0.04073554
-0.019054728 -0.024409862 -0.013853052 0.15902236 0.09601819 0.2046313 0.093712665 -0.10622313
0.09105576 0.23801807 0.10800464 0.2597245 -0.11641617 -0.04879346 -0.020878585 -0.041017838
0.018120915 0.0025249773 -0.17517038 0.0053202473 -0.12249234 -0.10800691 -0.02872058 -0.12577651
-0.13130109 -0.06771147 -0.0054141106 -0.12934367 -0.0807513 -0.16110994 0.343574 0.15818605
0.25529972 0.12369814 0.040975668 0.20895259 0.29106575 0.12701438 0.3128104 -0.090946056
-0.059868637 0.0024909899 0.018617727 -0.06082337 -0.122435346 -0.095365636 -0.07124224 0.020413633
-0.1320034 -0.2426136 -0.29175872 -0.03964073 -0.1758742 -0.20032325 -0.0025862225 -0.019937487
-0.13505468 0.24360915 0.15329707 0.26923454 0.1428798 0.04563597 0.10246886 0.33917695
0.14568481 0.16520432 -0.051153988 0.0138748465 0.037902195 -0.036197025 -0.053247415 -0.018465137
0.015051438 -0.074698225 -0.0027728972 -0.05339007 -0.02657573 -0.067732766 -0.04341502 -0.021784086
0.00026565438 -0.10246674 -0.052447185 -0.044341482 -0.11519076 0.013435131 -0.04687367 -0.012507564
00000000: fe2e 6a3d f664 58bd 85b2 e23d a032 36bd
00000010: 2c52 1a3d 9db8 723c eb7e af3d 7840 863d
00000020: 8b92 783d f5e9 c63c 55e8 de3c f9ff 163d
00000030: 2132 cd3c e926 19bc c79e 503d e149 af3d
00000040: ca58 ba3d 2e7d ae3d d71a 0bbd 5b79 803c
00000050: 30fa da3d 5983 6bbc e13a 23bc ba9f 9e3c
00000060: d393 99bd 84c4 803c 6f27 ebbb df99 eabd
00000070: c004 afbd c0e4 a23d baa9 7dbe aa76 5bbe
00000080: 0dc9 43bd fb9f a1be 74e3 8fbe afea 2ebe
00000090: e53b aa3b 3f15 e2ba ca1f 053d c960 90bd
000000a0: da2d 393d 6166 16bd 253e d9bc 2880 82bd
000000b0: 58a3 163a 8110 193d 3da6 f8ba 3a66 823d
000000c0: 51de 4d3c 5ef5 7ebd 5617 f33a a92b 863d
000000d0: c0a6 973d 9d9f 983d ee00 a8bd 7210 b63b
000000e0: 38ce 2e3c 893d 8bbb 9d99 053d 8d44 ac3c
000000f0: 37b3 c6bd 52cc 16bd 87d6 84bc 8a25 9f3c
00000100: e064 7b3d bdc1 5cbc 6ae7 083e 8695 6f3d
00000110: 53c8 843d 2da3 233d 7054 a73d 32dd 503b
00000120: 27db 0ebe 5f21 b03c 98c4 81bd 61d6 23bd
00000130: ef94 a73d bbad 64bd 68bb febd 5651 79bd
00000140: 54db 82bc b738 c83b 2271 78bd 138e e13c
00000150: 55cd 9bbc 6218 fcbb b7d2 5dbc 6b57 61bd
00000160: 0a5d 84bd ee44 d93a 7b1b ecbd 8396 debd
00000170: b79b d9bd 77d6 19be b53b 13bc dcef 8bbd
00000180: 5d59 4abe 3811 f2bd 842e 75bd 6405 893e
00000190: 0f64 85bd 96f2 893e 1fe6 943d 225a 47be
000001a0: 9619 393d e292 b23e c9b7 87bc 005b 813e
000001b0: 326a d6bd b550 fdbc 39c7 8c3c 666f 08bd
000001c0: 5f8d ee3d d698 a8bc 51b5 83bd 0eac 8cbd
000001d0: 72a8 36bd f658 373d 265b 613d 668d c33d
000001e0: 730f d03d 9222 03bd f1b0 843d e6c0 c23d
000001f0: f64e 8fbc a785 b83d 34f2 d8bd e373 b1bd
00000200: 0764 1e3d 9bfb 45bd cd93 6e3c fe2c 9ebd
00000210: 4b28 bebd 3574 79bc fca0 59bd 0d60 cbbd
00000220: 1e29 dd3c 6019 f33c 8c56 3c3d c18f ca3c
00000230: 58f1 d3bc 18e2 45bd 5e56 d53c cd7f d8bc
00000240: 3ca4 da3e 12d0 ce3d 2666 d53e cc6a 8d3a
00000250: d4a0 f1bd 8229 f43d fef8 963e 7c0f ca3d
00000260: 52d2 ac3e 6943 c5bc 1d6f 81bd e1a1 abbc
00000270: 6f86 c2bd b3b2 a23d 8c63 dabc e8d9 0ebe
00000280: e63f b3bc 507a 8bbd ee91 bfbb adc7 b5bc
00000290: a6fe 313c fdcc f63c 261a 6dbc 4fda 263d
000002a0: a918 9cbc 31f7 c7bc e9f7 62bc c2d6 223e
000002b0: 2fa5 c43d de8a 513e 6dec bf3d 838b d9bd
000002c0: 717b ba3d 02bb 733e 8931 dd3d 9cfa 843e
000002d0: 9a6b eebd a7db 47bd 9109 abbc 5202 28bd
000002e0: 5072 943c 177a 253b dd5f 33be 7855 ae3b
000002f0: 44dd fabd ba32 ddbd 6c47 ebbc 8fcb 00be
00000300: cb73 06be 50ac 8abd da68 b1bb ab72 04be
00000310: f060 a5bd 01fa 24be eee8 af3e 86fb 213e
00000320: a5b6 823e 7355 fd3d 1ad6 273d abf7 553e
00000330: 9206 953e 0f10 023e af28 a03e ed41 babd
00000340: d138 75bd e03f 233b 3484 983c ed21 79bd
00000350: 62bf fabd 0f4f c3bd 74e7 91bd 7e3a a73c
00000360: e62b 07be b36f 78be 6661 95be 515e 22bd
00000370: 5e18 34be 8a21 4dbe 9d7d 29bb f153 a3bc
00000380: c64b 0abe ad74 793e e8f9 1c3e 1cd9 893e
00000390: 154f 123e c8ec 3a3d 32db d13d 9aa8 ad3e
000003a0: 662e 153e 522b 293e d886 51bd 5353 633c
000003b0: 553f 1b3d 5543 14bd f619 5abd 3344 97bc
000003c0: 4e9a 763c 62fb 98bd 7fb9 35bb 8caf 5abd
000003d0: 58b5 d9bc 7ab7 8abd f3d3 31bd 8a74 b2bc
000003e0: 8747 8b39 15da d1bd dcd2 56bd 6a9f 35bd
000003f0: 22e9 ebbd 061f 5c3c 9bfe 3fbd 87ec 4cbc

b3 f4 [32]
0.18560606 0.1643806 0.16259646 0.1876543 0.20182699 0.17525838 0.24620092 0.23538001
0.21835859 0.17083737 0.26461425 0.19597596 0.19931352 0.20950408 0.1892584 0.2745549
0.16840458 0.2670826 0.17250097 0.17873341 0.2453974 0.20561932 0.21111962 0.24954306
0.20430288 0.16296692 0.13392791 0.18392669 0.23460019 0.25812858 0.20887695 0.21962379
00000000: 840f 3e3e 6353 283e b07f 263e 7328 403e
00000010: bcab 4e3e ef76 333e 181c 7c3e 7507 713e
00000020: 6599 5f3e feef 2e3e 857b 873e ecad 483e
00000030: d818 4c3e 3d88 563e f4cc 413e 7692 8c3e
00000040: 4072 2c3e 0dbf 883e 18a4 303e e405 373e
00000050: 7549 7b3e df8d 523e be2f 583e 3788 7f3e
00000060: c634 513e cde0 263e 6624 093e 4757 3c3e
00000070: 083b 703e 6e29 843e d7e3 553e 0fe5 603e

w4 f4 [5, 32]
-1.4592601 1.3128154 -1.9376898 -0.6146611 -1.3535798 -0.6248568 0.87751716 -1.3222092
-2.3089676 -2.256495 -0.44344914 -2.0292 2.984777 2.7243297 0.7287186 0.6668737
-0.9832778 1.100919 -2.379766 -0.04275606 -1.9230107 -0.0052616843 2.576483 -2.078203
-2.23751 -1.6902745 -1.6261028 -1.8481097 2.7171497 -1.3535544 2.7044072 2.8999686
-1.8228155 -1.9489533 -2.080162 2.7041912 0.09548356 -2.2267272 -2.0583034 0.39568788
1.8704643 0.774683 -1.9570273 -1.8566533 -1.9056467 -0.35627306 -2.2207177 2.843488
2.7995417 -1.4387152 0.6073911 3.0214884 -0.86594605 0.32661206 -1.736546 -1.8858994
0.008278744 2.9804275 -1.5402014 2.8274696 0.94269776 -1.264236 -1.8746872 -1.7304842
0.08053297 2.168052 -1.7305053 -2.2166862 -2.0507288 1.2654793 -1.8813853 -2.1875815
-2.4201996 1.3582021 3.1257532 3.253603 -1.3777099 -1.8771771 -0.91191643 -2.102837
0.45081216 -1.8480841 0.9039469 0.09173634 -1.8790596 3.2089682 -2.3856354 -0.19071284
3.1733494 -0.31254464 -1.7207401 -1.5369222 -1.726954 2.982973 0.9888539 -1.7109263
2.9811056 1.3621622 2.3691819 1.008907 -1.1708326 -1.4786634 2.9824204 3.0064042
0.90981036 -2.375676 -1.8691425 0.4200532 -1.6575286 -1.6832055 -1.6956967 -1.5965044
-1.805647 -1.7706952 2.8758721 -1.8145891 -0.55348426 -2.1115692 1.537455 -0.8343835
0.6218227 -0.86367476 2.767425 -1.5499142 -2.287096 -1.9666803 -2.0505886 -0.5647694
-1.3420664 -2.2451363 1.118108 -2.018974 2.9014242 2.553863 -1.3214782 -0.9659752
1.5656984 1.8498892 -0.8417525 -0.9261493 0.12043251 -1.6763659 2.8366187 -1.5337515
-1.3569393 2.8567085 -1.7611531 -1.9827965 2.8765633 -1.8030354 -0.9099091 2.8331954
-0.8546603 -1.3562485 -1.4300119 0.77659595 -1.7676443 -1.589388 -1.5286397 -1.4827135
00000000: 09c9 babf 560a a83f 3806 f8bf 6e5a 1dbf
00000010: 1a42 adbf 9ef6 1fbf f7a4 603f 273e a9bf
00000020: 20c6 13c0 6a6a 10c0 c40b e3be 6ade 01c0
00000030: 9606 3f40 6b5b 2e40 4d8d 3a3f 3cb8 2a3f
00000040: 18b8 7bbf eaea 8c3f 164e 18c0 fa20 2fbd
00000050: 3725 f6bf 356a acbb 19e5 2440 4701 05c0
00000060: 5d33 0fc0 ea5a d8bf 2324 d0bf dc8e ecbf
00000070: c8e5 2d40 4541 adbf 0215 2d40 1699 3940
00000080: 0552 e9bf 4d77 f9bf 6021 05c0 7811 2d40
00000090: e28c c33d b382 0ec0 3ebb 03c0 9a97 ca3e
000000a0: 606b ef3f a051 463f df7f fabf d1a6 edbf
000000b0: 3bec f3bf 6c69 b6be 3d20 0ec0 b5fb 3540
000000c0: b12b 3340 d227 b8bf fc7d 1b3f 1160 4140
000000d0: a4ae 5dbf b239 a73e 2447 debf 2765 f1bf
000000e0: 92a3 073c 53bf 3e40 5225 c5bf 43f5 3440
000000f0: a454 713f 7cd2 a1bf c0f5 efbf 8280 ddbf
00000100: 78ee a43d 5dc1 0a40 3381 ddbf 30de 0dc0
00000110: 243f 03c0 3afb a13f 3cd1 f0bf 5601 0cc0
00000120: 8de4 1ac0 91d9 ad3f 570c 4840 083b 5040
00000130: cc58 b0bf 5747 f0bf 5b73 69bf e294 06c0
00000140: dad0 e63e 058e ecbf 1069 673f 43e0 bb3d
00000150: 0685 f0bf bc5f 4d40 40ae 18c0 3a4a 43be
00000160: 2818 4b40 da05 a0be 3641 dcbf deb9 c4bf
00000170: d40c ddbf 08e9 3e40 8725 7d3f a2ff dabf
00000180: 6fca 3e40 555b ae3f ada0 1740 dd23 813f
00000190: d8dd 95bf d844 bdbf fadf 3e40 ed68 4040
000001a0: 55e9 683f 130b 18c0 1040 efbf 3711 d73e
000001b0: e629 d4bf 4773 d7bf 970c d9bf 425a ccbf
000001c0: 711f e7bf 24a6 e2bf 4a0e 3840 7544 e8bf
000001d0: 25b1 0dbf f323 07c0 53cb c43f 289a 55bf
000001e0: c62f 1f3f ca19 5dbf 7e1d 3140 9763 c6bf
000001f0: c85f 12c0 2ebc fbbf d83c 03c0 ba94 10bf
00000200: d5c8 abbf 50b0 0fc0 2a1e 8f3f df36 01c0
00000210: efb0 3940 7e72 2340 3326 a9bf 274a 77bf
00000220: ce68 c83f 2bc9 ec3f 187d 57bf 1f18 6dbf
00000230: 52a5 f63d 2893 d6bf 298b 3540 f851 c4bf
00000240: 30b0 adbf 50d4 3640 776d e1bf 47cc fdbf
00000250: 9d19 3840 ddc9 e6bf ceef 68bf 1353 3540
00000260: 04cb 5abf 8d99 adbf a10a b7bf fece 463f
00000270: 2b42 e2bf 1171 cbbf 77aa c3bf 8ec9 bdbf

b4 f4 [5]
0.06076738 0.10590453 -0.06185339 0.18085778 -0.17666383
00000000: 37e7 783d 79e4 d83d fb59 7dbd c832 393e
00000010: 5de7 34be

exp_avg f4 [32, 1, 3, 3]
0.0015607859 0.0014421474 0.0013118668 -5.5376844e-05 0.0007629959 0.00058746286 -0.00021514174 0.00062752253
0.003728468 0.00048298496 -0.0021714068 -0.0003193989 -0.0019140497 -0.0024465753 -0.00014059727 -0.00440372
-0.00047511185 -0.00019499121 0.003400073 0.0044019907 0.00813025 0.0024098163 0.004455373 0.010904222
0.0015295474 0.006800875 0.011363366 -0.009819552 -0.009501326 -0.005517618 -0.0044823396 -0.00917558
-0.00713645 -0.0028046458 -0.007226971 -0.0050604776 0.0051406804 0.010092047 0.006000672 0.0055198297
0.0033533175 0.00013931337 0.0019594098 0.0034205443 0.0014623471 0.00033314354 0.0021575135 0.00026695774
0.004247107 0.0067759 0.006041682 -0.0017055568 0.0026138993 0.0032757965 -0.00025930273 -0.00013740391
0.00030650647 -0.0011632056 -0.0031139292 -0.0019038359 -0.0050887787 -0.006018302 -0.0033695146 0.002092098
-0.0013825311 -0.0019311397 0.0002708295 -0.0006010103 -0.0012123104 0.0028188722 0.004585115 0.0024019405
0.0022232102 0.00031638515 0.0013236643 0.0042364346 0.0011743092 0.00078391656 0.0033285487 0.0023706886
0.00059324293 0.0046627326 0.0014511725 0.0038876024 0.0026337223 0.00086001016 0.00071123353 0.0028738256
-0.0006340339 -0.0001415043 -0.008064529 -0.006494639 -0.009770882 -0.0034859278 -0.0006026671 -0.0040633096
-0.005576362 -0.00027000383 -0.0028091748 -0.00027177413 0.0029781417 0.0031942371 -0.0011860741 -8.322956e-05
0.0004315405 0.00063339784 -0.0031072905 -0.0031880394 -0.0066395835 -0.0071248636 -0.010650255 -0.003218837
-0.004098415 -0.0060434593 -0.009344556 -0.0067032087 -0.0065569957 0.00039691795 0.00023935817 0.0017934453
-0.0029594481 -0.0016351762 -0.00024771187 0.00185029 0.003560315 0.0010461513 -9.5077965e-05 -0.005181883
-0.0028437139 -0.001035242 -0.0050533866 -0.0026526244 -0.0054499665 -0.0053767283 -0.0017856446 0.0032862013
0.0020859293 0.004356389 -0.00027961092 -7.090169e-05 0.0015846201 -0.00013804655 1.5322088e-05 0.0033664221
0.0012161222 0.00086430804 -0.0005307314 -0.00594146 -0.0076631773 -0.0062509333 -0.0044275443 -0.0027979475
-0.0024399215 -0.004569192 0.0050539793 0.0020902022 -0.0052653835 0.0015542527 -2.4217534e-05 -0.007816935
0.0009767946 -0.00047851872 -0.00075780257 -0.0014442066 -0.0036011762 -0.00093615236 -0.002697619 -0.005770693
-0.0012395018 -0.0041004824 -0.0067424094 -0.006662146 0.00018435197 0.0003821214 -0.0043381513 0.00030330266
0.0008879283 -0.0031748754 0.0009058432 0.0016491852 0.00035189156 -0.0047763744 -0.0057016267 -0.0012319313
-0.0033861569 -0.001119178 -0.000502801 -0.0032408477 -0.0014633286 0.0013431367 0.00662692 0.009240211
-0.00047203014 0.002054102 0.004312353 0.002293976 0.0009633805 0.0038286825 -0.0015653368 -0.0007648012
-0.00067274336 0.0013903175 -0.00020229572 0.00055986055 -3.9126215e-05 -0.0021108151 -0.0008781913 0.005217779
0.004540259 0.007578977 -0.00029981858 -0.001181789 -0.00016140446 0.0023435897 -0.00066883303 0.0012232685
0.0007859936 0.0025833235 0.0009240468 0.0005505444 -0.001319648 -0.001691365 0.013598601 0.008411299
0.006294318 -0.00033562104 -0.006109984 -0.0009999833 -0.0044321297 -0.0051464643 -0.0012250432 -0.003941875
-0.003428896 0.00019688351 0.0022052478 0.0027740835 0.0035500552 0.0035037517 0.0031234862 0.002803782
0.008758622 0.007503747 0.006585896 0.0001040868 -0.0027952564 -0.0003654515 -0.002422413 -0.0044141556
-0.0006378555 -0.0024221253 -0.004952315 -0.0007711453 -0.00077031594 -0.0006981771 -0.0022700634 0.00097096653
00000000: 4993 cc3a 7006 bd3a f2f2 ab3a 6f44 68b8
00000010: ca03 483a f7ff 193a ac97 61b9 5380 243a
00000020: 5059 743b 2539 fd39 294e 0ebb ff74 a7b9
00000030: dae0 faba b956 20bb 4b6d 13b9 154d 90bb
00000040: 6f18 f9b9 8e76 4cb9 c2d3 5e3b 933e 903b
00000050: bd34 053c 02ee 1d3b 61fe 913b 9fa7 323c
00000060: 187b c83a e0d9 de3b 692d 3a3c 30e2 20bc
00000070: 73ab 1bbc 22cd b4bb 97e0 92bb 2c55 16bc
00000080: e2d8 e9bb 26ce 37bb 3ad0 ecbb 5dd2 a5bb
00000090: 2773 a83b 1d59 253c 49a1 c43b b0df b43b
000000a0: 55c3 5b3b a614 1239 7169 003b 362b 603b
000000b0: 3aac bf3a c5a9 ae39 1265 0d3b 76f6 8b39
000000c0: 512b 8b3b 5e08 de3b 4df9 c53b fd8c dfba
000000d0: f44d 2b3b bfae 563b 06f3 87b9 1514 10b9
000000e0: 9ab2 a039 b476 98ba 1013 4cbb 228a f9ba
000000f0: c5bf a6bb 2d35 c5bb 13d3 5cbb 941b 093b
00000100: 0c36 b5ba 4c1e fdba 1ffe 8d39 1e8d 1dba
00000110: 63e6 9eba d4bc 383b bb3e 963b e069 1d3b
00000120: 47b3 113b 7fe0 a539 ce7e ad3a cad1 8a3b
00000130: 47eb 993a c07f 4d3a c823 5a3b 8e5d 1b3b
00000140: dc83 1b3a d6c9 983b 4535 be3a 25c7 7e3b
00000150: 879a 2c3b 4e72 613a 1372 3a3a cb56 3c3b
00000160: 4b35 26ba c560 14b9 1621 04bc fbd0 d4bb
00000170: 0d16 20bc 2a74 64bb 4efc 1dba 8325 85bb
00000180: eab9 b6bb 4d8f 8db9 221a 38bb e87c 8eb9
00000190: ed2c 433b 6856 513b 0b76 9bba 888b aeb8
000001a0: 6340 e239 9c0a 263a afa3 4bbb 6dee 50bb
000001b0: dd90 d9bb b077 e9bb 687e 2ebc 20f3 52bb
000001c0: ff4b 86bb 3608 c6bb e919 19bc 97a6 dbbb
000001d0: 11dc d6bb 6d19 d039 38fc 7a39 0a12 eb3a
000001e0: 4df3 41bb 6953 d6ba 53df 81b9 6e85 f23a
000001f0: 2c54 693b 031f 893a 9864 c7b8 c9cc a9bb
00000200: 9a5d 3abb f5b0 87ba e196 a5bb a7d7 2dbb
00000210: a295 b2bb 442f b0bb 4a0c eaba 4f5d 573b
00000220: 16b4 083b 0ac0 8e3b be98 92b9 0eb1 94b8
00000230: 07b3 cf3a 97c0 10b9 ef87 8037 319f 5c3b
00000240: 4a66 9f3a bb92 623a c820 0bba 94b0 c2bb
00000250: 641b fbbb a1d4 ccbb ef14 91bb c55d 37bb
00000260: 17e7 1fbb 29b9 95bb da9b a53b c6fb 083b
00000270: 3d89 acbb 11b8 cb3a c226 cbb7 9a12 00bc
00000280: ca07 803a b2e1 fab9 45a7 46ba 884b bdba
00000290: b601 6cbb 1f68 75ba 89ca 30bb 1518 bdbb
000002a0: c776 a2ba 575d 86bb 6eef dcbb 224e dabb
000002b0: 9b4e 4139 7757 c839 0d27 8ebb 9804 9f39
000002c0: dcc3 683a 9211 50bb 1c76 6d3a 7929 d83a
000002d0: 167e b839 2283 9cbb b6d4 babb c178 a1ba
000002e0: 49ea 5dbb 62b1 92ba 67ce 03ba 6764 54bb
000002f0: 29cd bfba 300c b03a a226 d93b 4164 173c
00000300: d07a f7b9 1d9e 063b a44e 8d3b 8856 163b
00000310: 5f8b 7c3a a2ea 7a3b fd2b cdba f17c 48ba
00000320: 0b5b 30ba 503b b63a 581f 54b9 9bc3 123a
00000330: 741b 24b8 9a55 0abb 6c36 66ba e7f9 aa3b
00000340: 74c6 943b 1159 f83b f830 9db9 42e6 9aba
00000350: ae3e 29b9 e996 193b a054 2fba 1456 a03a
00000360: 230b 4e3a fa4c 293b bb3b 723a 6952 103a
00000370: 0af8 acba cbb0 ddba abcc 5e3c 8ccf 093c
00000380: 9140 ce3b 4bf6 afb9 4336 c8bb df11 83ba
00000390: 663b 91bb aca3 a8bb a191 a0ba d82a 81bb
000003a0: 54b7 60bb 8472 4e39 eb85 103b 66cd 353b
000003b0: 0ba8 683b 339f 653b 67b3 4c3b a8bf 373b
000003c0: 5380 0f3c fee1 f53b 80ce d73b 2d49 da38
000003d0: 9f30 37bb 129a bfb9 59c1 1ebb 9fa4 90bb
000003e0: c235 27ba 85bc 1ebb 0747 a2bb af26 4aba
000003f0: 07ef 49ba df05 37ba 58c5 14bb 7688 7e3a

exp_avg_sq f4 [32, 1, 3, 3]
0.0006051542 0.00017221301 0.00010648143 0.0006067493 0.0001435521 0.00015929794 0.0009268148 0.00055834063
0.00056926225 0.00062908675 0.00026570953 3.0400279e-05 0.0005982846 0.00021954902 3.3138662e-05 0.00062222854
0.00023853833 2.9761164e-05 0.00013329528 0.0007858035 0.0013028282 9.934582e-05 0.0006568852 0.0012739146
9.345537e-05 0.0006928518 0.00131044 0.0010430038 0.0007538393 0.00034156395 0.0009711838 0.0010490813
0.0007813809 0.0005122765 0.0009050772 0.000984761 0.0015411907 0.0013133186 0.0010056613 0.0008081833
0.00061446615 0.00048279084 0.000118507705 9.041733e-05 7.694259e-05 0.0005107454 8.933192e-05 0.0007053792
0.00052384275 0.00052594487 0.0014514958 0.00013839299 0.00031605156 0.0013377656 0.00031695096 4.3133092e-05
4.4937395e-05 0.00047381627 9.3298375e-05 6.074512e-05 0.0009227058 0.00046161673 0.0002724963 0.00016030755
0.00031927813 0.0007447889 0.0003292093 0.00062276755 0.001375197 0.0005775448 0.0010632395 0.0018920796
0.0011045007 0.0005945263 0.00013777724 0.0010194435 0.00046386232 7.685012e-05 0.0009496756 0.00042573045
7.186209e-05 0.00078416587 0.00044934938 0.00060442486 0.0005345987 5.886684e-05 0.00037548773 0.00082750554
0.00047036412 0.00067751197 0.0006577218 0.00031745026 0.00042361586 0.000445598 3.949725e-05 0.00023315684
0.00036899588 2.866136e-05 0.00029760372 0.00023795695 0.00016413438 0.00013453818 0.00022921665 6.374943e-05
6.392828e-05 0.00027452124 0.00011895629 0.00014607405 0.0007606599 0.0004099877 0.0006094298 0.00058173994
0.0001531991 0.0004210182 0.0011038276 0.00075876684 0.00089124 9.216317e-05 8.1728664e-05 0.00010479458
0.00029095326 0.00032014732 0.0004136268 0.0007269795 0.000949406 0.0010305196 0.0010148283 0.0011124267
0.0008520927 0.00048708048 0.0006997387 0.00041352166 0.000972869 0.0006617668 0.00026274857 0.00037552908
0.00046627456 0.0014962625 1.4897999e-05 5.134946e-06 0.00049548154 6.245064e-06 7.1485797e-06 0.0003432752
0.00013848864 0.00031878916 0.00038969508 0.00039213497 0.00036002864 0.0002956421 0.00020259125 7.141291e-05
6.243662e-05 0.0010929836 0.0003761383 0.000107505606 0.0004055829 0.00027182582 0.00019069597 0.00013229113
0.00019894195 0.0005669719 0.0003298863 8.6042935e-05 0.00041468246 8.119762e-05 0.0003165837 0.00082648033
0.0005470672 0.0009813486 0.0012766079 0.00057042524 4.0294268e-05 9.8698496e-05 0.00087695423 0.00021145152
5.6608522e-05 0.0009903895 0.00074157136 0.0003859102 0.00064246944 0.00093030336 0.0011055844 0.00047412066
0.00069449324 0.0010615422 0.0002138096 0.00036576873 0.0007907949 0.0017740914 0.0019052929 0.0019796262
0.0008879675 0.00097175426 0.0011237174 0.00015547965 0.0001631504 0.00016377309 6.4060754e-05 0.00021220658
0.0003209774 0.00011173416 0.0002855366 0.000321549 0.0001790526 0.0003301734 0.00021856063 0.00035670548
0.000834392 0.001273012 8.138304e-05 0.00026926963 0.0004905629 0.00032196532 4.999679e-05 5.067235e-05
0.00024302935 0.00017771161 0.00020696624 0.0013347649 0.0012180774 0.001304336 0.0026665344 0.0027372153
0.0028328123 0.0005696204 0.0005717279 7.304982e-05 0.0004376886 0.0005092283 3.2477794e-05 0.00059270224
0.00072237843 8.975477e-05 9.518836e-05 0.0002727067 0.00047310957 0.00055432617 0.000643885 0.00060424936
0.0013344963 0.0010696186 0.0011504082 0.0010774756 0.00078690157 0.0005046 0.0006848904 0.0007333119
0.00032987507 0.00021459936 0.00043347946 0.000104020495 4.9110567e-05 0.00017556509 0.00030382627 0.00024376196
00000000: 36a3 1e3a 1494 3439 c84e df38 420e 1f3a
00000010: 7986 1639 3709 2739 7df5 723a 9b5d 123a
00000020: 8b3a 153a 4ce9 243a ee4e 8b39 1a04 ff37
00000030: 33d6 1c3a be36 6639 5efe 0a38 0d1d 233a
00000040: 2520 7a39 9da7 f937 2ec5 0b39 61fe 4d3a
00000050: a9c3 aa3a e257 d038 d232 2c3a 7bf9 a63a
00000060: 78fd c338 7fa0 353a 12c3 ab3a 66b5 883a
00000070: 4d9d 453a f013 b339 0b97 7e3a 5481 893a
00000080: 96d5 4c3a 4b4a 063a b442 6d3a 1913 813a
00000090: c701 ca3a a923 ac3a 65d0 833a 43dc 533a
000000a0: 2014 213a 171f fd39 5787 f838 6f9e bd38
000000b0: 3d5c a138 8be3 053a b657 bb38 32e9 383a
000000c0: 7e52 093a 90df 093a 1e40 be3a 961d 1139
000000d0: b9b3 a539 f757 af3a 702c a639 cee9 3438
000000e0: 297b 3c38 8b6a f839 2fa9 c338 93c8 7e38
000000f0: bde1 713a 2605 f239 d6dd 8e39 3b18 2839
00000100: c964 a739 f03d 433a b999 ac39 3941 233a
00000110: f43f b43a 6066 173a 665c 8b3a a8ff f73a
00000120: e5c4 903a fcd9 1b3a 4c78 1039 d99e 853a
00000130: 8c32 f339 982a a138 a7f3 783a 9334 df39
00000140: aab4 9638 7b90 4d3a a796 eb39 4472 1e3a
00000150: 5024 0c3a cae7 7638 1cdd c439 f5ec 583a
00000160: 349b f639 0f9b 313a f66a 2c3a 746f a639
00000170: c218 de39 279f e939 d9a9 2538 907b 7439
00000180: ca75 c139 cd6d f037 b207 9c39 1584 7939
00000190: 7d1b 2c39 d112 0d39 e059 7039 37b1 8538
000001a0: 3c11 8638 9eed 8f39 2c78 f938 742b 1939
000001b0: 0667 473a 9ef3 d639 24c2 1f3a e87f 183a
000001c0: 12a4 2039 1bbc dc39 4fae 903a fbe7 463a
000001d0: 1ba2 693a ba47 c138 be65 ab38 29c5 db38
000001e0: 168b 9839 72d9 a739 0ddc d839 c592 3e3a
000001f0: 8fe1 783a 8012 873a fd03 853a d9ce 913a
00000200: f95e 5f3a d65e ff39 ab6e 373a f0cd d839
00000210: 2208 7f3a 6b7a 2d3a 84c1 8939 a9e2 c439
00000220: 5076 f439 3d1e c43a 6bf2 7937 da4c ac36
00000230: 34e3 013a b18c d136 d5dd ef36 9ef9 b339
00000240: 4337 1139 2823 a739 fd4f cc39 7797 cd39
00000250: 3ac2 bc39 6900 9b39 ad6e 5439 84c3 9538
00000260: 68f0 8238 7242 8f3a 6e34 c539 a274 e138
00000270: 6aa4 d439 d883 8e39 8ff5 4739 a1b7 0a39
00000280: 139b 5039 d7a0 143a 97f4 ac39 f371 b438
00000290: bd69 d939 a448 aa38 25fb a539 28a8 583a
000002a0: 0f69 0f3a 98a0 803a da53 a73a 9788 153a
000002b0: a401 2938 5afc ce38 67e3 653a 16b9 5d39
000002c0: f06e 6d38 f5cf 813a 0366 423a fe53 ca39
000002d0: 656b 283a 9adf 733a 42e9 903a 6693 f839
000002e0: a70e 363a 7223 8b3a 1432 6039 a6c4 bf39
000002f0: 594d 4f3a a188 e83a 05bb f93a 9ebc 013b
00000300: 7dc6 683a 53bd 7e3a b349 933a 4008 2339
00000310: 5a13 2b39 81ba 2b39 5b58 8638 c583 5e39
00000320: db48 a839 d252 ea38 13b4 9539 9495 a839
00000330: 11c0 3b39 201b ad39 6c2d 6539 3304 bb39
00000340: 19bb 5a3a 32db a63a 30ac aa38 c22c 8d39
00000350: 1e99 003a 74cd a839 a5b3 5138 0689 5438
00000360: b2d5 7e39 1958 3a39 1405 5939 47f3 ae3a
00000370: e5a7 9f3a 41f6 aa3a 06c1 2e3b da62 333b
00000380: b4a6 393b 9452 153a 03e0 153a 5332 9938
00000390: 9279 e539 bc7d 053a c438 0838 935f 1b3a
000003a0: ff5d 3d3a ba3a bc38 dd9f c738 13fa 8e39
000003b0: b10b f839 3350 113a 64ca 283a 7d66 1e3a
000003c0: 44ea ae3a 7232 8c3a 4bc9 963a 153a 8d3a
000003d0: 1248 4e3a 2247 043a 378a 333a bb3b 403a
000003e0: 15f3 ac39 1406 6139 a144 e339 9425 da38
000003f0: 12fc 4d38 e517 3839 df4a 9f39 5a9a 7f39

exp_avg f4 [32]
6.882381e-09 -7.1954838e-09 -1.3374829e-09 8.390291e-10 -1.1435496e-09 1.0874135e-08 8.904798e-10 -8.132142e-09
4.6267954e-09 -5.1541886e-09 5.571817e-09 -7.810064e-09 3.2880578e-09 1.0811943e-08 -4.04284e-09 -1.1447032e-08
-1.1490439e-08 3.3931595e-09 1.5750787e-10 1.542636e-08 3.6200667e-09 1.7947498e-08 -1.7489254e-09 -1.4912375e-09
-1.536334e-08 -2.6212106e-09 1.1276949e-08 -1.982317e-09 2.518091e-09 -4.855031e-09 -1.6933358e-08 2.3382334e-09
00000000: 107a ec31 253c f7b1 7fd2 b7b0 6da1 6630
00000010: 132b 9db0 f4d0 3a32 f2c5 7430 8ab5 0bb2
00000020: b9f9 9e31 b918 b1b1 3872 bf31 062d 06b2
00000030: 20f4 6131 6ebf 3932 32e9 8ab1 94a8 44b2
00000040: 7c67 45b2 182d 6931 862e 2d2f ed82 8432
00000050: e3c4 7831 f72a 9a32 d85e f0b0 41f4 ccb0
00000060: 58f8 83b2 d320 34b1 8cbc 4132 4a39 08b1
00000070: ba0a 2d31 4ed1 a6b1 d974 91b2 a3ae 2031

exp_avg_sq f4 [32]
9.460991e-16 9.600724e-16 2.0665482e-15 2.218326e-15 2.3694584e-15 2.9035874e-15 9.793734e-16 1.6578779e-15
1.7898969e-15 1.055727e-15 8.409245e-16 1.3291406e-15 1.4208589e-15 1.3319467e-15 2.727033e-15 3.3475636e-15
1.0769365e-15 1.8695834e-15 1.8427405e-15 1.7163183e-15 1.583528e-15 3.5476103e-15 6.5390393e-16 3.003424e-15
3.335025e-15 1.5637128e-15 1.8823662e-15 1.7312461e-15 1.1744926e-15 1.4071966e-15 6.1850503e-15 1.8015514e-15
00000000: e558 8826 6b5c 8a26 16e9 1427 e4d8 1f27
00000010: cbbc 2a27 bc39 5127 8024 8d26 e6ec ee26
00000020: c5f9 0027 7425 9826 4761 7226 a28c bf26
00000030: 71c4 cc26 29f4 bf26 e180 4427 a637 7127
00000040: f233 9b26 bab7 0627 90c8 0427 f858 f726
00000050: df35 e426 dca1 7f27 9879 3c26 656b 5827
00000060: 5a50 7027 d25a e126 87a3 0727 b57f f926
00000070: 2143 a926 64cc ca26 05d7 de27 c2d0 0127
