CS330/XCS330-PS3/src/submission/logs/maml/omniglot.way_5.support_1.query_15.inner_steps_1.inner_lr_0.4.learn_inner_lrs_True.outer_lr_0.001.batch_size_16/state3500.pt (torch, 360718 bytes, 30 tensors)

conv0 f4 [32, 1, 3, 3]
0	0x3cd96579	0.026537644
1	0xbaf18105	-0.0018425292
2	0xbe7c6f25	-0.24651773
3	0xbd5b62ac	-0.053560898
4	0xbe3fc61c	-0.18727916
5	0xbe00d1ec	-0.12580079
6	0x3d131816	0.035911642
7	0x3e2c6b8e	0.16837904
8	0x3df5b211	0.11996854
9	0x3de01069	0.1094063
10	0x3cf4200e	0.029800441
11	0xbe5a601f	-0.2132573
12	0xbc6b4249	-0.014359065
13	0xbb9fb7dd	-0.004874213
14	0xbe79c403	-0.24391179
15	0x3d9c2f00	0.07626152
16	0xbd0d1e78	-0.034452885
17	0xbe5b465d	-0.2141356
18	0xbe5c8161	-0.21533729
19	0x3d1ae809	0.037818942
20	0x3d9e11d9	0.07718248
21	0xbe61ebfd	-0.22062679
22	0x3aeac9d8	0.0017912937
23	0x3db2cfbf	0.08731031
24	0xbe496321	-0.19666721
25	0xbd318a34	-0.04334469
26	0x3c4f9b27	0.012671269
27	0x3df76f3b	0.120817624
28	0xbdf63557	-0.120218925
29	0xbe7fabe9	-0.24967922
30	0x3d0900b9	0.033447955
31	0x3db11c57	0.086479835
32	0x3bf77bce	0.0075526005
33	0xbe594787	-0.21218692
34	0x3d5feb7e	0.054667942
35	0x3e06873c	0.13137525
36	0x3d90a9f5	0.07063667
37	0x3da3cdaa	0.07998212
38	0x3bb2272b	0.005436798
39	0x3da30f38	0.07961887
40	0x3d7d28f8	0.06180665
41	0xbdc8572e	-0.09782253
42	0xbe8a1322	-0.26967722
43	0xbe841343	-0.25795946
44	0xbe2f2637	-0.17104422
45	0x3c00fc76	0.007872691
46	0xbe5f797b	-0.21823685
47	0xbb78d042	-0.0037965928
48	0xbd10fca2	-0.03539718
49	0xbda56a79	-0.08076949
50	0x3e192f1d	0.14959379
51	0xbda43855	-0.08018557
52	0xbdb86975	-0.09004489
53	0x3cd67e35	0.026183227
54	0xbd940c7b	-0.07228943
55	0xbe14e3ca	-0.1454002
56	0xbe08b15f	-0.13348912
57	0x3c8a7fee	0.016906705
58	0xbe120e59	-0.14263286
59	0xbddbee09	-0.10738761
60	0x3e567499	0.20942916
61	0x3d378854	0.044807747
62	0xbe16b6ba	-0.14718142
63	0xbdfd2f59	-0.123625465
64	0xbdd01b0f	-0.10161411
65	0xbdcd83eb	-0.10034927
66	0xbe0f199b	-0.13974611
67	0x3d30acd3	0.043133568
68	0x3ddb0285	0.1069384
69	0xbddb4682	-0.10706808
70	0x3d249931	0.040185157
71	0x3dbeb9ce	0.09312783
72	0x3d5fe78d	0.054664183
73	0x3d8af56d	0.067850925
74	0xbe95fe17	-0.29295418
75	0x3df69f08	0.120420516
76	0x3d2647af	0.040595707
77	0xbe904990	-0.28181124
78	0x3c32ea88	0.010920174
79	0xbb5057ad	-0.003179054
80	0xbe883c43	-0.26608476
81	0x3d73ccb1	0.05952138
82	0x3d26b50a	0.040699996
83	0x3bb1e027	0.0054283324
84	0xbdc29dcd	-0.09502754
85	0xbeba8c0c	-0.36434972
86	0xbd100605	-0.03516199
87	0x3dd6977b	0.10478111
88	0xbd06a794	-0.03287466
89	0x3d8fc6b3	0.07020321
90	0xbca3e4b9	-0.020006524
91	0x3d2c8fd8	0.042129368
92	0x3c2873e1	0.010281534
93	0x3de469e5	0.1115301
94	0xbe4ef2b3	-0.2020977
95	0xbd4ae3e9	-0.04953376
96	0xbd7d7555	-0.061879475
97	0xbe9727e2	-0.29522616
98	0x3e14fc7a	0.14549437
99	0x3c97d485	0.018533954
100	0x3dd78c25	0.10524777
101	0x3e4f848f	0.20265411
102	0x3d8d694a	0.06904848
103	0x3dc482af	0.095952384
104	0x3e09d4ac	0.13460034
105	0x3e0b708f	0.13617156
106	0x3da62b01	0.08113671
107	0x3e5329ea	0.20621458
108	0x3e1dfe10	0.15428948
109	0xbdf5f615	-0.12009827
110	0x3d6d03a9	0.05786482
111	0xbdbd9f8c	-0.09258947
112	0xbe53c804	-0.20681769
113	0x3d9bf840	0.07615709
114	0x3c13675f	0.008996814
115	0xbc249f97	-0.010047815
116	0x3da86f8c	0.08224401
117	0xbe6bffbb	-0.23046772
118	0xbe9663aa	-0.29372913
119	0xbe3596ea	-0.1773335
120	0xbd35a149	-0.044343267
121	0xbad023f1	-0.0015879852
122	0xbd217419	-0.03941736
123	0xbd56c8e9	-0.052437697
124	0x3dd2a1d0	0.102847695
125	0x3e2fe10c	0.17175692
126	0x3d07d286	0.033159755
127	0x3d8812cb	0.066442095
128	0x3e67b060	0.22625875
129	0xbe0c32c5	-0.13691242
130	0xbce065ff	-0.027392386
131	0xbe37018c	-0.17871684
132	0x3ccabfe7	0.02474971
133	0xbc081a05	-0.008306985
134	0xbe12dab2	-0.14341238
135	0xbd4668b3	-0.048439693
136	0xbd560d34	-0.052258685
137	0x3e479346	0.19489774
138	0xbd611513	-0.05495174
139	0xbe72d209	-0.23712935
140	0xbd1ae1d3	-0.03781302
141	0xbe23b7da	-0.15988103
142	0xbe07e0f0	-0.132694
143	0xbd3a3121	-0.04545701
144	0xbe414e73	-0.18877582
145	0x3d09e49a	0.033665277
146	0x3db93f5d	0.09045289
147	0x3dfd0d53	0.12356057
148	0x3da0e6d8	0.0785653
149	0x3c159280	0.009129167
150	0xbd54edb2	-0.051984496
151	0xbe416415	-0.18885835
152	0xbe6377a8	-0.22213614
153	0x3e17c454	0.14820987
154	0xb9e732df	-0.00044097655
155	0xbe430bfd	-0.19047542
156	0xbd41d6b1	-0.047323886
157	0xbd88d80c	-0.06681833
158	0xbd8b303f	-0.067963116
159	0xbe1360a2	-0.14392331
160	0xbd878a8c	-0.066182226
161	0x3da5ea43	0.081013225
162	0x3df06200	0.11737442
163	0xbe9b8e2c	-0.30381906
164	0xbd6ed6ea	-0.058310427
165	0xbe534fb3	-0.20635872
166	0x3c0d63cf	0.008629753
167	0x3df46c98	0.11934775
168	0xbcc5e5db	-0.024157455
169	0x3d8b0803	0.067886375
170	0xbc7b5894	-0.015340943
171	0xbd5df420	-0.054187894
172	0xbe847149	-0.2586768
173	0x3b63c708	0.0034756083
174	0x3e32671e	0.17422149
175	0x3cf217fd	0.029552454
176	0xbe7f435e	-0.24928042
177	0xbdaf1a95	-0.08549992
178	0x3df3b5d5	0.11899916
179	0xbcd7cabb	-0.026341787
180	0xbd4b599b	-0.049646
181	0x3d8283bc	0.063727826
182	0x3dba2483	0.09088995
183	0xbe17617f	-0.14783286
184	0x3c4c17f5	0.012456884
185	0x3e3dac2a	0.18522707
186	0xbe4265db	-0.18984167
187	0xbe3b011c	-0.18262142
188	0x3bb57f47	0.0055388543
189	0x3cf36d36	0.029715162
190	0x3c54c6fa	0.012986893
191	0x3dfdad9b	0.12386628
192	0xbc6390f0	-0.013889536
193	0x3d18f563	0.037343394
194	0x3d3246a0	0.043524384
195	0xbe6a049d	-0.22853322
196	0xbe7ead73	-0.24870853
197	0xbe793783	-0.24337582
198	0xbe653938	-0.22385108
199	0xbd9c1b5f	-0.07622408
200	0x3e6490e6	0.223209
201	0xbe06cb30	-0.13163447
202	0x3d1d1f7b	0.0383601
203	0x3ccfa8aa	0.02534898
204	0xbd8843f1	-0.06653584
205	0x3e37bae4	0.17942387
206	0xbe1743b5	-0.14771922
207	0xbd901ac9	-0.07036359
208	0x3d6b86fa	0.05750177
209	0x3d876ddf	0.06612753
210	0xbe315926	-0.17319164
211	0x3cae428d	0.021271968
212	0x3d7109ce	0.05884724
213	0x3d153c99	0.036434744
214	0xbe4b7e8a	-0.1987249
215	0xbe331070	-0.17486739
216	0xbe7e67ee	-0.24844334
217	0xbe83e6db	-0.25762066
218	0xbe7b17ac	-0.24520749
219	0x3d32af83	0.043624412
220	0x3d53ac10	0.051677763
221	0x3cb227ff	0.021747587
222	0x3ca6873c	0.020328157
223	0x3dba7728	0.091047585
224	0x3cf5ca11	0.03000358
225	0xbcb8db8d	-0.022565627
226	0x3d8f849e	0.070077166
227	0xbde43054	-0.1114203
228	0xbc564881	-0.01307881
229	0xbb6a97d0	-0.0035796054
230	0xbe9a67e8	-0.301574
231	0xbc86e174	-0.016464926
232	0x3e195615	0.14974244
233	0xbe27bb49	-0.16380037
234	0xbea3134d	-0.31850663
235	0xbdb7fb2d	-0.08983455
236	0xbcb61ddb	-0.022231033
237	0xba764b97	-0.0009395419
238	0x3d5e7d7f	0.0543189
239	0xbd031e92	-0.032011576
240	0x3e2543da	0.16139165
241	0xbd1325b2	-0.03592462
242	0x3d0314bc	0.032002196
243	0x3d89356e	0.06699644
244	0xbc6001e9	-0.01367233
245	0xbc8839a7	-0.016629053
246	0x3d5e2712	0.05423648
247	0x3ddf12c4	0.10892251
248	0xbe0562f8	-0.13026035
249	0xbe34cac2	-0.17655471
250	0x3d39a496	0.045322977
251	0xbe5651c0	-0.20929623
252	0xbe84a58e	-0.25907558
253	0xbd6c5855	-0.057701427
254	0x3e0e3593	0.13887624
255	0xbbe3d334	-0.0069526676

b0 f4 [32]
0	0xbbbddd17	-0.005794178
1	0x3d5ae684	0.053442493
2	0xbd5baa5f	-0.053629275
3	0x3ddb5db3	0.10711231
4	0x3d87f80c	0.06639108
5	0x3caee3a5	0.021348784
6	0x3cb7ef26	0.022452902
7	0xbd17bdfb	-0.037046414
8	0x3d25a039	0.040436003
9	0x3dcd7d97	0.1003372
10	0xbd3fc3af	-0.046817478
11	0xbd80e3b1	-0.06293429
12	0x3d970294	0.073735386
13	0x3d5d60ef	0.05404752
14	0x3caad0a5	0.020851443
15	0x3dcc33ba	0.099708036
16	0x3c9d78a6	0.019222569
17	0x3b1d2de7	0.0023983659
18	0xbc49b64d	-0.01231153
19	0xbe3b9e13	-0.1832202
20	0xbdc5cbb4	-0.09657994
21	0xbdb9505f	-0.09048533
22	0x3e035c20	0.12828112
23	0xbe194363	-0.14967112
24	0xbd884334	-0.06653443
25	0xbdbc5409	-0.09195716
26	0x3d0b939e	0.034076326
27	0xbc399dc0	-0.011329114
28	0x3d7ccec4	0.061720625
29	0xbc253024	-0.010082278
30	0xbbe75cf9	-0.0070606438
31	0xbd5e3529	-0.054249916

conv1 f4 [32, 32, 3, 3]
0	0xbd40e95d	-0.047097553
1	0x3d85307f	0.065033905
2	0xbce7558a	-0.02823903
3	0x3d262241	0.04056001
4	0x3c608413	0.013703364
5	0x3e2fb46b	0.17158668
6	0xbc366a52	-0.011133747
7	0x3d8136a3	0.06309249
8	0x3e6303e0	0.22169447
9	0x3da96cec	0.08272728
10	0xbd00f38f	-0.031482276
11	0x3e5f790c	0.2182352
12	0x3ccb0c93	0.02478627
13	0xbd84d29d	-0.06485484
14	0xbe1e2f5a	-0.1544775
15	0x3c99e159	0.018784212
16	0xbdea6c52	-0.11446442
17	0xbe879209	-0.26478603
18	0x3e255db1	0.16149022
19	0x3ddc1ae4	0.107473165
20	0xbde888dc	-0.11354229
21	0x3d9913c0	0.0747447
22	0x3cf92387	0.030412449
23	0xbdabd665	-0.08390502
24	0xbd9cccf0	-0.07656276
25	0x3c8a5dc5	0.016890416
26	0x3d58788a	0.05284933
27	0xbce302f2	-0.027711365
28	0xbc864dae	-0.016394462
29	0xbda26a36	-0.079304144
30	0xbd90a5bd	-0.07062862
31	0xbbcd9d1f	-0.006274834
32	0x3ca4aec4	0.020102866
33	0xbe00b300	-0.12568283
34	0xbda469fc	-0.080280274
35	0xbc8e7efd	-0.017394537
36	0x3ac14799	0.0014746069
37	0x3b9fd1e0	0.004877314
38	0xbcacca33	-0.02109251
39	0x3de8ef45	0.11373762
40	0x3c9e1918	0.019299075
41	0x3e1c437c	0.15260118
42	0x3e0d965e	0.13826892
43	0x3d641089	0.05567983
44	0x3e29bd56	0.16576132
45	0x3db2e620	0.08735299
46	0x3ddd121a	0.10794468
47	0xbd3813e3	-0.04494084
48	0xbd979dfa	-0.074031785
49	0x3c90b2c3	0.017663365
50	0xbd9a64a3	-0.07538726
51	0x3dfc26e1	0.12312103
52	0x3cbc60c4	0.02299536
53	0xbd60ea78	-0.054911107
54	0x3e3f11e7	0.18659173
55	0x3df8f556	0.12156169
56	0x3d343d5e	0.044003837
57	0x3d0e0043	0.03466822
58	0xbd8923a1	-0.06696249
59	0xbe15a040	-0.14611912
60	0xbe1aff66	-0.1513649
61	0xbc87e629	-0.016589241
62	0x3c8804de	0.016603883
63	0xbb1e97c5	-0.0024199348
64	0x3d966432	0.073433295
65	0x3dd718d1	0.1050278
66	0x3b2040b9	0.002445264
67	0x3dd40f0d	0.10354433
68	0x3cc94f5b	0.024573972
69	0xbd150299	-0.03637943
70	0xbd1b35a1	-0.03789294
71	0xbd4edd2b	-0.05050389
72	0x3c8339b4	0.016018726
73	0xbce5ae95	-0.028037349
74	0x3dc32710	0.09528935
75	0xbdebe2b5	-0.1151785
76	0xbe0383e1	-0.12843277
77	0x3d32d62a	0.043661274
78	0xbe458ef5	-0.19292815
79	0xbd5f5c39	-0.05453131
80	0xbe218a5e	-0.15775439
81	0xbde2775f	-0.110579245
82	0xbd3e3b14	-0.04644306
83	0x3dbc432b	0.09192499
84	0x3dac7b63	0.08421972
85	0xbb8f0224	-0.004364269
86	0x3d8bae0a	0.06820305
87	0x3dd59fc8	0.104308665
88	0xbcd590a0	-0.02606994
89	0x3d1a1a87	0.037622955
90	0x3e423e34	0.18969041
91	0x3c397ecb	0.011321734
92	0x3d5609a8	0.052255303
93	0xba7658cd	-0.00093973876
94	0xbd0c25bf	-0.034215685
95	0xbd929cf1	-0.071588404
96	0x3c43fb75	0.0119618075
97	0xbc178237	-0.009247354
98	0x3cfd71f8	0.030938134
99	0xbd930c85	-0.07180122
100	0xbca33be8	-0.019926026
101	0xbda5f104	-0.08102611
102	0xbd15da04	-0.03658487
103	0x3bda45a3	0.0066611334
104	0x3d9b7c43	0.075920604
105	0x3e074e00	0.13213348
106	0x3ca83ada	0.020535875
107	0x3c4148ce	0.011797143
108	0xbd3314e3	-0.04372109
109	0x3e131269	0.14362492
110	0x3c680037	0.0141602075
111	0x3c8d566e	0.017253127
112	0xbc84cf55	-0.016212145
113	0x3cbd9d32	0.023146246
114	0xbe3af29a	-0.18256608
115	0xbdf98d7c	-0.12185189
116	0x3d8bf71d	0.068342425
117	0xbeaf37b0	-0.34222174
118	0x3dc6fd9a	0.097163394
119	0x3e905666	0.28190917
120	0xbe337d75	-0.17528327
121	0xbe3584e0	-0.17726469
122	0xbad88b9d	-0.00165211
123	0xbe604471	-0.21901108
124	0xbe23390f	-0.15939735
125	0xbd095af3	-0.033534
126	0x3dcf7613	0.10129943
127	0xbd880444	-0.066414386
128	0x3ce29307	0.027657999
129	0xbc643e74	-0.013930906
130	0x39ce04da	0.00039294997
131	0x3d9329e4	0.071857244
132	0xbc556c01	-0.013026238
133	0x3d1f2af8	0.038859338
134	0xbd99b33d	-0.0750489
135	0x3deb389b	0.11485406
136	0x3e2f9b19	0.17149009
137	0x3db84d2b	0.089990936
138	0x3bf99f12	0.0076178396
139	0xbd7d16f6	-0.061789475
140	0xb9709682	-0.00022944252
141	0x3d2885e2	0.041143306
142	0x3b63a605	0.0034736407
143	0x3ca4aff2	0.020103429
144	0x3d4f6dde	0.050641887
145	0xbdc0ce9d	-0.09414408
146	0x3e0ce59f	0.13759468
147	0x3bc21ea8	0.0059240647
148	0xbca32b09	-0.019917982
149	0x3cf8b6ab	0.03036054
150	0xbc167b03	-0.009184602
151	0xbddc7c92	-0.107659474
152	0xbdb15a34	-0.08659783
153	0xbd21d9f5	-0.0395145
154	0xbd06eb40	-0.032939196
155	0xbc7f4ede	-0.015582768
156	0xbdb1b7c2	-0.08677627
157	0x3d8693ee	0.06571184
158	0xbd9c1acc	-0.076222986
159	0x3c1976b5	0.009366681
160	0x3e3cc020	0.18432665
161	0x3dbcb9e2	0.09215142
162	0x3d4f88b3	0.050667476
163	0x3d5c655b	0.053807598
164	0x3dc91c4a	0.09819849
165	0xba57f84c	-0.0008238598
166	0x3d65473d	0.05597614
167	0xbd392666	-0.045202635
168	0xbc4e2791	-0.012582676
169	0x3dcdc595	0.100474514
170	0x3d0db12f	0.034592804
171	0x3d5b61be	0.05356001
172	0xbda85a94	-0.082204014
173	0xbde600ce	-0.11230622
174	0xbcecfb75	-0.028928498
175	0xbd91cab7	-0.07118743
176	0xbd80a320	-0.062811136
177	0x3d99c09a	0.07507439
178	0x3d64e21b	0.055879693
179	0xbc8c1989	-0.01710202
180	0x3dad9716	0.08476083
181	0x3d13ab11	0.036051814
182	0x3d1217f4	0.035667375
183	0xbcedf254	-0.029046215
184	0xbc8274e1	-0.015924873
185	0x3d1cf1c4	0.038316503
186	0xbe7f2b8b	-0.24918954
187	0xbe720e86	-0.23638353
188	0xbdcb2621	-0.09919382
189	0x3e133c55	0.14378484
190	0xbe157294	-0.1459449
191	0xbc4a7774	-0.012357581
192	0x3dc30f3f	0.09524392
193	0x3d4ac1d9	0.049501274
194	0xbd2e06b9	-0.04248688
195	0xbdc49b67	-0.09599953
196	0xbcd0e968	-0.025501922
197	0x3dbe6aca	0.09297712
198	0xbdd66985	-0.10469345
199	0x3cdc557d	0.026896233
200	0x3e0417dc	0.12899727
201	0xbdcfa768	-0.10139352
202	0xbd8c6878	-0.06855863
203	0xbd4a8a80	-0.04944849
204	0xbd8c8ad3	-0.06862416
205	0xbcd8e2c3	-0.026475316
206	0x3cb068d6	0.021534365
207	0x3d02b4b2	0.031910606
208	0xbdc82c4b	-0.09774073
209	0xbe1ed0ee	-0.15509388
210	0xbdb083c4	-0.08618882
211	0xbe6ebaff	-0.23313521
212	0xbe006c0a	-0.12541214
213	0xbc3b9748	-0.0114496425
214	0x3d135877	0.03597304
215	0x3d3675f0	0.044546068
216	0xbe46988a	-0.19394127
217	0xbe1c9862	-0.15292504
218	0x3d06d776	0.032920323
219	0xbebbd132	-0.3668304
220	0xbd428356	-0.047488533
221	0x3c1afc8d	0.009459627
222	0xbdd12224	-0.1021159
223	0xbdc1eae0	-0.09468627
224	0x3d6f0f87	0.058364417
225	0x3dc0d809	0.094162054
226	0x3d4345ed	0.04767411
227	0xbd60c55a	-0.05487571
228	0x3de1a916	0.11018579
229	0x3de6ca74	0.112690836
230	0x3cee5ff3	0.029098487
231	0x3e13374c	0.14376563
232	0xbc721878	-0.014776342
233	0xbe105f5b	-0.14098875
234	0xbd9d3661	-0.076763876
235	0xbd8dffbd	-0.06933544
236	0x3c63cdc0	0.013904035
237	0xbcec2cb0	-0.028829902
238	0x3cfc8eb7	0.03082977
239	0x3dcf74a7	0.101296715
240	0xbd9341d5	-0.07190291
241	0x3c445862	0.011983963
242	0xbd886a16	-0.06660859
243	0xbc534a76	-0.012896171
244	0x3d81885e	0.06324838
245	0xbbdfa9b3	-0.0068256496
246	0x3d904b9a	0.0704567
247	0xbbef6f09	-0.0073069376
248	0x3ce6ced7	0.0281748
249	0x3dd99923	0.10624912
250	0xbdcfbe00	-0.101436615
251	0xbd97e5a1	-0.07416845
252	0x3e73a2b4	0.23792535
253	0x3d88313c	0.06650016
254	0x3d91bc4b	0.07115992
255	0xbe7171ba	-0.2357854

b1 f4 [32]
0	0x3cefa36d	0.029252732
1	0xbc22df3e	-0.00994092
2	0x3bde797c	0.0067893844
3	0xbd0147b1	-0.03156251
4	0xbc5d3e01	-0.013503552
5	0xbc74bfdc	-0.014938321
6	0x3ce7774b	0.028255126
7	0x3b9179d5	0.0044395723
8	0x3cea37a9	0.028590994
9	0xbc9b749d	-0.018976504
10	0xbc85d415	-0.01633648
11	0xbc9c6d39	-0.01909505
12	0x3baf9fa8	0.0053596087
13	0xbb0245ca	-0.0019878023
14	0xbb975b84	-0.004619064
15	0xbcdc6c91	-0.026907237
16	0x3b4feb75	0.0031726037
17	0xbc294c81	-0.010333181
18	0xbcae3696	-0.021266263
19	0xbc7d2763	-0.015451285
20	0x3c963c2a	0.018339235
21	0x3b42a8d5	0.0029702683
22	0x3d1b793a	0.037957408
23	0x3bab6ba0	0.0052313358
24	0x3cf6e623	0.030139035
25	0x3c98e0da	0.018661905
26	0x3c836edd	0.016044075
27	0x3d66479e	0.056220643
28	0x3c7261ac	0.014793795
29	0xbbb4ba45	-0.005515369
30	0x3c1e4f69	0.009662488
31	0x3c8b816e	0.01702949

conv2 f4 [32, 32, 3, 3]
0	0x3c78ffdb	0.015197719
1	0xbd80ed3f	-0.06295251
2	0x3aa7c6a9	0.0012800294
3	0xbd7e9ab6	-0.062159263
4	0xbcee4005	-0.029083261
5	0x3bbad780	0.005701959
6	0x3ce10f12	0.027473006
7	0x3caca781	0.021075966
8	0x3d7c642a	0.06161896
9	0xbc70c5cc	-0.014695596
10	0x3cba1f21	0.022719922
11	0x3c827925	0.015926907
12	0x3e09fdfa	0.1347579
13	0x3da984a3	0.082772516
14	0xbb5f20fa	-0.0034046755
15	0x3df787ad	0.12086425
16	0x3be7cd8f	0.007074065
17	0x3d4af184	0.049546733
18	0x3d9bfc6e	0.076165065
19	0xbd71221a	-0.058870412
20	0xbd256492	-0.040379114
21	0x3cd7aaff	0.026326654
22	0x3d79dac7	0.060999658
23	0xbd6a546a	-0.05720941
24	0x3da4b976	0.08043186
25	0x3d248d4b	0.04017381
26	0xbb94f9d7	-0.004546385
27	0xbdaad8fc	-0.08342168
28	0xbdf026a7	-0.11726122
29	0xbd5a4ff0	-0.05329889
30	0xbe1de7d3	-0.15420465
31	0xbdc54431	-0.09632147
32	0xbd2c7079	-0.04209945
33	0xbe4421e6	-0.19153556
34	0xbe0b9b53	-0.1363347
35	0xbdf1b99e	-0.11802982
36	0xbd5b84c5	-0.053593416
37	0xbc86ecda	-0.016470362
38	0xbceddbe0	-0.029035509
39	0xbcf29ccb	-0.02961578
40	0xbd53847a	-0.05164001
41	0x3d446e1d	0.047956575
42	0xbdb7b141	-0.089693554
43	0xbc7db87f	-0.015485882
44	0x3dd6e9c4	0.10493806
45	0x3d7174bf	0.05894923
46	0x3d8403bd	0.064460255
47	0x3e13fd17	0.14452015
48	0x3d2c5f0a	0.042082824
49	0xbdc0a5dc	-0.09406635
50	0x3d9cad0a	0.07650192
51	0xbc86ceaa	-0.016455967
52	0x3d2c8352	0.042117424
53	0x3d625547	0.055257108
54	0xbe022790	-0.12710404
55	0xbcd0ea93	-0.025502479
56	0xbc824270	-0.01590082
57	0xbc90c35c	-0.01767128
58	0xbd251bb3	-0.04030962
59	0x3d217177	0.03941485
60	0x3d8ba7d9	0.06819124
61	0x3be0d089	0.006860797
62	0x3c8a1a09	0.016858118
63	0x3d0352ed	0.032061506
64	0x3a02a5bb	0.0004983802
65	0xbd40525a	-0.046953537
66	0x3ddb8166	0.1071804
67	0x3df04514	0.117319256
68	0x3d2fd504	0.042927757
69	0x3dd508c9	0.10402066
70	0x3d718d35	0.058972556
71	0xbd14fceb	-0.036374014
72	0xbd5711fb	-0.052507382
73	0xbd2fbb38	-0.042903155
74	0x3c6bd5ba	0.014394218
75	0xbd72e69a	-0.05930195
76	0xbdbadb61	-0.091238745
77	0xbda39eb9	-0.07989258
78	0xbd8444d6	-0.06458442
79	0xbce039f1	-0.027371379
80	0xbbcdb18e	-0.0062772697
81	0xbd55a59d	-0.052159894
82	0xbdbbd826	-0.091720864
83	0xbd730363	-0.0593294
84	0x3cac4e08	0.021033302
85	0xbc3d636a	-0.011559347
86	0xbbf92bba	-0.0076040896
87	0x3c766f2c	0.015041154
88	0x3cf0b75d	0.02938431
89	0x3c5baf3e	0.01340848
90	0xbca195f1	-0.019724818
91	0x3c74a7f9	0.014932626
92	0xbc88eb3b	-0.01671373
93	0x3d4a7ffe	0.04943847
94	0x3d02293a	0.031777598
95	0x3d3a17a2	0.045432694
96	0x3dc615cf	0.096721284
97	0x3dfbb94d	0.12291203
98	0xbd317fe5	-0.04333486
99	0x3c4c6523	0.012475285
100	0xbd9195f6	-0.07108681
101	0x3cc09c09	0.023511903
102	0xbd042a11	-0.03226668
103	0xbbc81e76	-0.006107147
104	0xbcf3af92	-0.029746804
105	0xbb24f7c0	-0.0025172085
106	0xbb8cbf32	-0.004295253
107	0x3d65d7ee	0.05611413
108	0xbd8d305a	-0.06893988
109	0xbd809b07	-0.06279569
110	0xbdcdb7a9	-0.10044796
111	0xba963688	-0.0011460343
112	0xbcd40b60	-0.02588433
113	0xbda3200c	-0.07965097
114	0xbd6f4a10	-0.05842024
115	0x3d0c7420	0.034290433
116	0xbd5c3226	-0.053758763
117	0xbe19de57	-0.15026222
118	0xbdf6e10c	-0.12054643
119	0xbc649da4	-0.0139536
120	0xbe64ee4e	-0.22356531
121	0xbdb86be6	-0.09004955
122	0xbce3aef3	-0.027793383
123	0xbe6446d7	-0.22292648
124	0xbe94c884	-0.2905923
125	0xbe701135	-0.23444064
126	0xbd456a62	-0.048197158
127	0xbcecc180	-0.028900862
128	0xbd563287	-0.05229428
129	0xbd9b7548	-0.07590729
130	0xbc1b429c	-0.00947633
131	0x3c87858c	0.016543172
132	0xbc6a56b7	-0.014302901
133	0xbdbbef46	-0.09176497
134	0xbdbca407	-0.09210973
135	0xbd37a714	-0.044837072
136	0xbdbfbb73	-0.09361925
137	0x3b22c419	0.0024836122
138	0x3d950698	0.07276648
139	0x3dac41f3	0.08411016
140	0x3cdcf3ac	0.02697166
141	0x3d932245	0.07184271
142	0x3dc81de3	0.097713254
143	0x3d1896d8	0.03725323
144	0xbd6dd157	-0.05806097
145	0xb9157725	-0.00014254132
146	0xbd03cdb9	-0.032178614
147	0xbdd38563	-0.10328176
148	0xbdf04a53	-0.11732926
149	0xbd9be4e2	-0.07612015
150	0xbdf7eded	-0.121059276
151	0xbe02aaa1	-0.12760402
152	0xba17282e	-0.000576618
153	0xbd8a24a5	-0.06745271
154	0x3d8b9e15	0.06817261
155	0x3d0ef0ff	0.0348978
156	0x3de2ec54	0.11080232
157	0xbd5c1004	-0.05372621
158	0x3dab2b07	0.08357816
159	0x3d2e3e29	0.04253975
160	0xbc2cceb0	-0.010547325
161	0x3ba04116	0.0048905713
162	0xbbf32ac0	-0.0074208677
163	0xbd9c2412	-0.07624067
164	0x3bb87426	0.0056290803
165	0xbd615293	-0.05501039
166	0x3d0d5188	0.034501582
167	0xbd53a80c	-0.051673934
168	0xbce4e6df	-0.02794212
169	0x3cac30b6	0.021019321
170	0xbdfb469f	-0.12269329
171	0xbd1c5981	-0.038171295
172	0xbae26b67	-0.001727444
173	0xbd4fc637	-0.05072614
174	0xbd92784e	-0.071518525
175	0x3c81caf3	0.015843844
176	0xbdc26359	-0.09491605
177	0x3d34e0f1	0.044159833
178	0xbd17c683	-0.03705455
179	0x3cd80189	0.02636792
180	0xbe8672cb	-0.26259455
181	0xbe33b2bb	-0.17548649
182	0xbe0d7e71	-0.13817765
183	0xbe23f693	-0.1601203
184	0xbdf94e8a	-0.12173183
185	0xbd845c03	-0.06462862
186	0xbe0af646	-0.13570508
187	0xbe63107c	-0.22174257
188	0xbd955d0a	-0.072931364
189	0xbc4bfc1f	-0.012450247
190	0x3cf2ce76	0.029639464
191	0xbb79ea20	-0.0038133934
192	0x3c5eea9a	0.013605738
193	0x3d323379	0.04350612
194	0xbd3bdde8	-0.045865923
195	0x3d98ffca	0.07470663
196	0xbca033e1	-0.019555988
197	0x3deb7e95	0.11498753
198	0x3da53f95	0.08068768
199	0x3d87f56f	0.066386096
200	0xbcc5e6d3	-0.024157917
201	0x3dc06144	0.09393552
202	0x3d254af5	0.040354688
203	0x3d768122	0.060181744
204	0x3d9fed1c	0.07808897
205	0x3dd9270c	0.10603151
206	0x3ca6a075	0.020340184
207	0x3cdc0be2	0.026861135
208	0x3d844b4f	0.064596765
209	0xbdc982d8	-0.098394096
210	0x3e0d2fd2	0.13787773
211	0xbcbf6e9e	-0.023368176
212	0xbd872d3f	-0.06600427
213	0x3e2d3efe	0.16918561
214	0x3b68aaaa	0.0035502114
215	0x3d7ad90a	0.06124214
216	0x3db01148	0.08597046
217	0xbd4d11c7	-0.050065782
218	0xbca8953f	-0.020578979
219	0x3dd2c15e	0.10290788
220	0x3d69241f	0.056919213
221	0xbd7b7c4b	-0.061397832
222	0x3d1eb24e	0.038744263
223	0x3cad746c	0.021173678
224	0xbd4a002f	-0.04931658
225	0x3dd61629	0.104534455
226	0x3ccaf475	0.02477477
227	0xbd101b32	-0.035182185
228	0x3dd54963	0.10414388
229	0xbd40b7a0	-0.04705012
230	0x3b814a2f	0.003945611
231	0x3e1056de	0.14095637
232	0xbc746472	-0.014916526
233	0xbd13279a	-0.03592644
234	0x3c855426	0.016275477
235	0xbb6a3ff8	-0.0035743695
236	0x3c91deaf	0.01780638
237	0x3d86b8a4	0.06578186
238	0x3dc71ff6	0.09722893
239	0x3df7b926	0.12095861
240	0x3dd3b328	0.10336906
241	0x3dab5fb8	0.08367866
242	0x3d8501fd	0.0649452
243	0x3d27c731	0.040961448
244	0x3dbf7b35	0.09349672
245	0x3da9f5ce	0.08298837
246	0x3cebdb00	0.02879095
247	0x3db8fd31	0.090326674
248	0x3d415461	0.04719961
249	0x3c11965e	0.008885948
250	0x3dcdd977	0.10051244
251	0x3d9f02e5	0.07764224
252	0xbcab89f8	-0.020939812
253	0xbd3d6a21	-0.04624379
254	0xbd843f17	-0.06457346
255	0xbceef917	-0.02917151

b2 f4 [32]
0	0xbc7333ee	-0.014843924
1	0xbc2e1922	-0.010626109
2	0x3cd6f132	0.026238058
3	0x3c96ca7b	0.018407097
4	0x3dc9703c	0.0983586
5	0x3d346b74	0.044047788
6	0x3d04d721	0.032431725
7	0x3c085807	0.008321769
8	0x3ce92649	0.028460639
9	0x3cbbb44b	0.022913119
10	0x3d971c3f	0.073784344
11	0xbc98615d	-0.018601114
12	0x3c2656e7	0.010152555
13	0x3d237076	0.039902173
14	0x3d5277d4	0.05138381
15	0xbcf28687	-0.029605163
16	0x3cd833d6	0.026391905
17	0xbd07020a	-0.03296093
18	0x3d37e7e2	0.044898875
19	0x3c8eb8fb	0.01742219
20	0xbd2a1b5d	-0.041530002
21	0x3d457077	0.048202958
22	0x3d1af2f2	0.037829347
23	0x3c9bc413	0.019014394
24	0xbcd4ade7	-0.02596183
25	0x3d50b020	0.050949216
26	0x3d85c8ea	0.06532462
27	0x3cf988f6	0.030460816
28	0x3bc75c46	0.006083998
29	0xbcdc7f82	-0.02691627
30	0xbba7966c	-0.005114367
31	0x3d054a5e	0.032541625

conv3 f4 [32, 32, 3, 3]
0	0x3cefe591	0.02928427
1	0xbd9dad83	-0.0769911
2	0x3d58ef4d	0.05296259
3	0xbd8f746d	-0.07004628
4	0x3d0e4d66	0.03474178
5	0xbd1611d5	-0.0366381
6	0x3d2e307a	0.0425267
7	0x3d434dae	0.047681503
8	0xbc8a4465	-0.016878316
9	0x3c114c36	0.008868268
10	0x3ca339a5	0.019924948
11	0xbbabb1a9	-0.0052396846
12	0x3c9a3341	0.018823268
13	0x3ba503b9	0.005035844
14	0x3cbbc5e9	0.02292152
15	0x3d71ed21	0.059064034
16	0x3db90103	0.09033396
17	0x3d1785e0	0.036992908
18	0x3bf15628	0.007365007
19	0x3c954846	0.01822294
20	0x3dd3b9ef	0.103381984
21	0x3cf3a8c3	0.029743558
22	0xbc987a94	-0.018613137
23	0xbb3b89c2	-0.0028616046
24	0x3c343803	0.010999682
25	0x3d636577	0.055516686
26	0x3c414879	0.011797064
27	0xbc9f2204	-0.0194254
28	0xbd58a6eb	-0.05289356
29	0x3d85fb3d	0.065420605
30	0xbde55159	-0.111971565
31	0xbdf6974a	-0.12040575
32	0x3be78501	0.007065416
33	0xbe05db39	-0.13071908
34	0xbe15b96d	-0.14621516
35	0xbd9236fa	-0.07139392
36	0xbb2328de	-0.0024896185
37	0xbc4dde91	-0.012565271
38	0x3ab86b0c	0.0014069988
39	0xbda07559	-0.07834882
40	0x3d17b7b7	0.03704044
41	0xbd6f8b0d	-0.05848222
42	0xbd2a794c	-0.041619584
43	0xbdacb357	-0.08432644
44	0xbcb099a9	-0.021557646
45	0x3d3a0370	0.045413435
46	0x3d36897c	0.04456471
47	0x3daad4dc	0.08341381
48	0x3c8a7769	0.016902642
49	0xbc0c9a3f	-0.008581697
50	0x3d1d0062	0.038330443
51	0x3d15ebb4	0.036601737
52	0x3dca288d	0.09871016
53	0x3dc79f82	0.097472206
54	0xbd7404f4	-0.059575036
55	0xbaad58b8	-0.0013225293
56	0xbbe46a23	-0.0069706603
57	0x3cc727b6	0.024310928
58	0x3d167edf	0.036742087
59	0x3c99b7b7	0.01876436
60	0xbd59d4aa	-0.053181328
61	0xbc81432b	-0.015779098
62	0x3c19af51	0.009380178
63	0xbc7e5748	-0.015523739
64	0x3d7409dd	0.05957972
65	0x3cd064cd	0.02543869
66	0x3daa90cc	0.08328399
67	0x3bad6ca8	0.005292494
68	0x3d5da5b7	0.054113116
69	0xbcef3df0	-0.029204339
70	0x3d1f0d6d	0.038831163
71	0xbc064fdc	-0.008197751
72	0xbe24d168	-0.16095507
73	0x3ab6f22e	0.0013957673
74	0xbddabbde	-0.10680364
75	0xbd6d0703	-0.057868015
76	0x3d8a2c5d	0.06746743
77	0xbdad0210	-0.08447659
78	0xbe1923ab	-0.14955013
79	0xbdb24670	-0.08704841
80	0xbd18ff67	-0.037352946
81	0x3c8f6d67	0.017508222
82	0xbd66de18	-0.05636415
83	0xbb61db65	-0.0034463045
84	0x3b338d60	0.0027397498
85	0x3caf9697	0.021434112
86	0xbc718097	-0.014740131
87	0xbd812a67	-0.06306916
88	0xbd736cf9	-0.059430096
89	0xbba0a519	-0.0049024937
90	0xbd844ef2	-0.0646037
91	0xbdb601b3	-0.08887043
92	0xbdcdb603	-0.100444816
93	0xbdc8694a	-0.09785707
94	0x3c6bf590	0.014401808
95	0xbd67799c	-0.05651246
96	0xbe19743d	-0.14985748
97	0xbdc5b04a	-0.09652765
98	0xbd1f3bb4	-0.038875297
99	0x3e39a4b0	0.1812923
100	0xbd6aa0f0	-0.05728239
101	0x3e6495e9	0.22322811
102	0x3d6c45fa	0.057683922
103	0xbdd544f5	-0.10413543
104	0x3d8e9b5d	0.06963227
105	0x3e6ebeaa	0.2331492
106	0xbcb54cbd	-0.022131318
107	0x3e2fce70	0.17168593
108	0xbda0b8b3	-0.078477286
109	0xbd24ead5	-0.040263016
110	0x3c9a259c	0.018816762
111	0xbc8260ec	-0.015915357
112	0x3dcb00f2	0.0991229
113	0xbcec4bc9	-0.02884473
114	0xbc6ccf6a	-0.014453748
115	0xbd8639db	-0.06554004
116	0xbce40123	-0.027832573
117	0x3b47aa5c	0.0030466532
118	0x3d349968	0.044091612
119	0x3d77e5cd	0.06052189
120	0x3da50524	0.08057621
121	0xbcc172a0	-0.023614228
122	0x3d51cbff	0.051219936
123	0x3d1d2b47	0.03837135
124	0xbd333c6a	-0.043758787
125	0x3d731a22	0.059351094
126	0xbdb35abc	-0.087575406
127	0xbd960b74	-0.07326403
128	0x3d057a82	0.032587536
129	0xbd3ebdfe	-0.04656791
130	0x3ca44043	0.020050174
131	0xbda3c7b0	-0.07997072
132	0xbdcaa0ec	-0.09893975
133	0xbc9e4ce5	-0.019323776
134	0xbd51e006	-0.051239036
135	0xbdd9875e	-0.10621522
136	0x3d2b2958	0.041787475
137	0x3c1b9984	0.00949705
138	0x3d5a9407	0.053363826
139	0x3d5d7d8a	0.0540748
140	0xbd36a668	-0.04459229
141	0xbd623d1b	-0.055234056
142	0x3d1d14d2	0.038349934
143	0xbd86727b	-0.06564804
144	0x3eb09969	0.34492043
145	0x3d4a01d6	0.049318157
146	0x3e99a0a3	0.3000537
147	0xbc241f01	-0.0100171575
148	0xbdbcbf57	-0.09216183
149	0x3d57c274	0.05267568
150	0x3e82ad67	0.2552292
151	0x3dd4da57	0.103932075
152	0x3e744aa0	0.23856592
153	0x3bd4a80e	0.0064897602
154	0xbd64f01d	-0.055893052
155	0xbc34c44a	-0.011033127
156	0xbdb7432d	-0.0894836
157	0x3daf6a45	0.08565191
158	0xbcf5fea1	-0.030028643
159	0xbdd2d3d5	-0.1029431
160	0x3c4d0932	0.012514399
161	0xbd469a65	-0.048487086
162	0x3c9983d5	0.01873962
163	0x3c096e11	0.008388058
164	0x3d1551b8	0.036454886
165	0x3d4bdbe3	0.049770247
166	0x3be8a903	0.007100226
167	0x3d800616	0.06251161
168	0xbc815543	-0.015787726
169	0xbc663e4b	-0.014052938
170	0x3c43fb84	0.0119618215
171	0x3da5ec93	0.081017636
172	0x3d8f03e1	0.06983162
173	0x3e03a912	0.12857464
174	0x3d392381	0.045199875
175	0xbdcc0629	-0.099621125
176	0x3d4f3a6d	0.05059283
177	0x3e0af3e2	0.13569596
178	0x3d73c8c3	0.059517633
179	0x3e39ff77	0.18163858
180	0xbda111e2	-0.07864739
181	0xbcfdac91	-0.030966075
182	0xbbb45d55	-0.00550429
183	0xbb533f97	-0.0032233947
184	0x3d216937	0.03940698
185	0x3c1ce95d	0.0095771225
186	0xbdef6de7	-0.11690884
187	0x3d39cf8a	0.04536394
188	0xbdf7a537	-0.12092059
189	0xbd87fc05	-0.06639866
190	0xbbf33520	-0.0074221045
191	0xbe082afb	-0.13297646
192	0xbdea5a32	-0.11442985
193	0xbd8c1378	-0.06839651
194	0xbc050588	-0.0081189945
195	0xbddbcad5	-0.107320465
196	0xbda3f78e	-0.08006202
197	0xbe1c27e8	-0.15249598
198	0x3e83ee6d	0.25767842
199	0x3dea3422	0.11435725
200	0x3e2b02e5	0.16700323
201	0x3d8d0fa7	0.06887751
202	0x3d35026f	0.044191774
203	0x3e25733f	0.16157244
204	0x3e39cb72	0.18144014
205	0x3da08716	0.078382656
206	0x3e769c25	0.24083002
207	0xbcab07ac	-0.020877682
208	0x3c0a689d	0.008447793
209	0x3d9d36c6	0.07676463
210	0x3d9966e3	0.07490327
211	0xbc958c65	-0.018255422
212	0xbdb5309e	-0.088471636
213	0xbc8d1ab0	-0.01722464
214	0x3c32191f	0.010870247
215	0x3db75e59	0.08953542
216	0x3c18477a	0.009294385
217	0xbdc41ff8	-0.0957641
218	0xbdae9efa	-0.08526416
219	0x3d188025	0.037231583
220	0xbdbd703e	-0.09249924
221	0xbd79b722	-0.060965665
222	0xbc3bfd5b	-0.011473979
223	0x3c90fccf	0.017698674
224	0xbd63baf2	-0.055598207
225	0x3e1e4385	0.15455444
226	0x3dc9ae0c	0.0984765
227	0x3e403b32	0.18772581
228	0x3d98cb67	0.07460671
229	0x3c888645	0.016665587
230	0x3d1ac5dd	0.037786353
231	0x3e6a6d12	0.2289317
232	0x3d9e4e52	0.07729782
233	0x3da49bbd	0.08037517
234	0xbd23eda6	-0.04002156
235	0x3cc14e52	0.023596916
236	0x3c089cb1	0.008338139
237	0xbcb6a215	-0.022294084
238	0xbd04d186	-0.03242638
239	0xbcbdfc55	-0.02319161
240	0xbac38da8	-0.0014919536
241	0xbdb1b061	-0.0867622
242	0xbcb0d873	-0.021587586
243	0xbbbbf8aa	-0.00573643
244	0xbc22021b	-0.009888197
245	0xbd80fdc0	-0.06298399
246	0xbc5dc47c	-0.013535615
247	0xbc1a37c0	-0.009412706
248	0xba3f30c2	-0.0007293337
249	0xbd8ed515	-0.06974236
250	0xbd0fc0d9	-0.035096023
251	0xbd463cd4	-0.048397854
252	0xbdac8cd8	-0.08425301
253	0x3b963c90	0.0045848563
254	0xbd85fa80	-0.0654192
255	0xba16b26a	-0.00057486317

b3 f4 [32]
0	0x3e1e1a72	0.15439776
1	0x3e142761	0.14468147
2	0x3e23290a	0.15933624
3	0x3e30b259	0.17255534
4	0x3e2b3eb5	0.1672314
5	0x3e21cf97	0.15801845
6	0x3e47b05d	0.19500871
7	0x3e425110	0.18976235
8	0x3e2cc507	0.16872035
9	0x3e188959	0.14896144
10	0x3e53dcd2	0.20689705
11	0x3e2901da	0.16504613
12	0x3e267f77	0.16259561
13	0x3e3ab059	0.18231334
14	0x3e1a1722	0.15047887
15	0x3e68ca02	0.2273331
16	0x3e25965c	0.16170639
17	0x3e649e42	0.22325996
18	0x3e0f52c5	0.13996418
19	0x3e13f9b9	0.1445073
20	0x3e6d5688	0.2317754
21	0x3e3078d9	0.172336
22	0x3e389c7b	0.18028443
23	0x3e548d27	0.2075697
24	0x3e1eb401	0.15498354
25	0x3e22f3d7	0.1591333
26	0x3e1f81c8	0.15576851
27	0x3e326e7a	0.17424956
28	0x3e39b067	0.18133698
29	0x3e8050eb	0.25061736
30	0x3e382c6e	0.17985699
31	0x3e5c0f91	0.21490313

w4 f4 [5, 32]
0	0xbf86d569	-1.0533878
1	0x3f87d247	1.0611047
2	0xbfb8b631	-1.44306
3	0xbed01df5	-0.40647855
4	0xbf554585	-0.83309203
5	0xbe9d3fa2	-0.3071261
6	0x3f7df44a	0.9920088
7	0xbf73609a	-0.9506928
8	0xbfd8881c	-1.6916537
9	0xbfd915a7	-1.6959733
10	0xbdc43f85	-0.09582428
11	0xbfbd0c0f	-1.4769305
12	0x3fe9a1a2	1.8252451
13	0x3fd243eb	1.6426977
14	0x3f5c6df1	0.8610526
15	0x3f5c1d20	0.8598194
16	0xbf1e8076	-0.61914766
17	0x3f91cf0b	1.139131
18	0xbfdb13e1	-1.7115442
19	0x3e17cedc	0.14825004
20	0xbfb18f80	-1.3871918
21	0x3e5cc7dc	0.21560615
22	0x3fd269f9	1.643859
23	0xbfbc570d	-1.4714066
24	0xbfc0f329	-1.5074207
25	0xbf906ff2	-1.1284163
26	0xbfa05cc3	-1.2528309
27	0xbfb3be87	-1.4042519
28	0x3fce743b	1.6129221
29	0xbf63c8ec	-0.8897846
30	0x3fd17855	1.6364847
31	0x3fe985b3	1.8243927
32	0xbfb23573	-1.3922561
33	0xbfaedc6d	-1.3661019
34	0xbfb684f7	-1.4259328
35	0x3fdbb823	1.7165569
36	0x3eaa9998	0.33320308
37	0xbfc24223	-1.5176433
38	0xbfc5a7b1	-1.54418
39	0x3f1e8972	0.61928475
40	0x3fb482c7	1.410241
41	0x3f181514	0.5940716
42	0xbfc5b736	-1.5446537
43	0xbfa4fce7	-1.288968
44	0xbfb21136	-1.3911502
45	0x3c927477	0.0178778
46	0xbfd99196	-1.6997554
47	0x3fe64c86	1.7992103
48	0x3fe2eddd	1.772884
49	0xbf85ae6e	-1.0443857
50	0x3f376226	0.7163414
51	0x3ff60673	1.9220718
52	0xbf06c4b6	-0.5264391
53	0x3f038be6	0.51385343
54	0xbfa4a886	-1.2863929
55	0xbfb80eb0	-1.4379482
56	0x3e5f3097	0.2179588
57	0x3ff61f8e	1.922838
58	0xbf9f44b5	-1.2442843
59	0x3fe1e1ac	1.7646995
60	0x3f756f05	0.9587253
61	0xbf7c1e68	-0.98483896
62	0xbfaf9fdd	-1.3720661
63	0xbfa31ea0	-1.2743721
64	0x3ee86269	0.4538758
65	0x3fc259fc	1.5183711
66	0xbfa7f75f	-1.3122367
67	0xbfc57c91	-1.542864
68	0xbfb4dba9	-1.4129535
69	0x3f89aa03	1.0755008
70	0xbfadff18	-1.3593473
71	0xbfcc4635	-1.5958925
72	0xbfd39f20	-1.6532936
73	0x3f6ff1e8	0.93728495
74	0x4000421f	2.0040357
75	0x40027bd2	2.0388074
76	0xbf6bfc17	-0.92181534
77	0xbfb9fe08	-1.4530649
78	0xbee43ada	-0.4457615
79	0xbfbdcc47	-1.4827965
80	0x3f200376	0.6250528
81	0xbf9ea00f	-1.2392596
82	0x3f69195c	0.9105432
83	0x3eb70c98	0.35751796
84	0xbfbfbae6	-1.4978912
85	0x40014c88	2.020296
86	0xbfd0eabf	-1.6321639
87	0x3e1b71ed	0.15180178
88	0x40050cbc	2.0789022
89	0x3da4f72b	0.08054956
90	0xbf9a9f1b	-1.2079805
91	0xbf80f03d	-1.0073315
92	0xbfa25b5b	-1.268413
93	0x3ff68e6a	1.9262211
94	0x3f8082b5	1.0039889
95	0xbfb18da2	-1.3871348
96	0x3ff4b178	1.9116659
97	0x3f8cc7f0	1.0998516
98	0x3fb53c2c	1.4158988
99	0x3f7c6200	0.98587036
100	0xbf687fc0	-0.9081993
101	0xbf93761a	-1.1520417
102	0x3ff3a0c2	1.9033434
103	0x3feddaca	1.8582394
104	0x3f26ad19	0.65107876
105	0xbfc679d9	-1.5505935
106	0xbfa187de	-1.2619588
107	0x3f35bd82	0.7099229
108	0xbf8be53b	-1.092933
109	0xbf8eb2b9	-1.1148292
110	0xbfac4639	-1.345893
111	0xbf954df0	-1.166441
112	0xbfa414ff	-1.2818907
113	0xbfad8bac	-1.355825
114	0x3fef62ac	1.8701987
115	0xbfa37638	-1.2770452
116	0xbeb59ac3	-0.35469636
117	0xbfaf0117	-1.3672208
118	0x3fada83c	1.3566966
119	0xbf359e2f	-0.70944494
120	0x3f599f99	0.8500915
121	0xbf1c1d67	-0.60982364
122	0x3fda50ff	1.7055968
123	0xbf8aedfc	-1.0853877
124	0xbfd4178b	-1.6569685
125	0xbfc9010e	-1.5703447
126	0xbfb407cb	-1.4064878
127	0xbda12667	-0.07868653
128	0xbf50a6ba	-0.81504405
129	0xbfb8e146	-1.4443748
130	0x3f76378d	0.96178514
131	0xbfb6dc74	-1.4286027
132	0x3fe57c12	1.7928488
133	0x3fdb6293	1.7139457
134	0xbf4a8c21	-0.7912007
135	0xbed961e0	-0.42457485
136	0x3f99b170	1.2007275
137	0x3fabb6be	1.3415143
138	0xbedee649	-0.4353507
139	0xbf1be3e0	-0.60894585
140	0x3eaae7d6	0.33380002
141	0xbfa8d838	-1.3190985
142	0x3fe2c27c	1.7715602
143	0xbf910059	-1.1328231
144	0xbf605c1a	-0.87640536
145	0x3ff39ac5	1.9031607
146	0xbf8e78c2	-1.1130602
147	0xbfb11e4e	-1.3837373
148	0x3ff36979	1.9016563
149	0xbfa2d342	-1.2720721
150	0xbf1e4fd9	-0.6184059
151	0x3fef2294	1.8682427
152	0xbeefdf53	-0.4685007
153	0xbf80d86b	-1.0066046
154	0xbf6a00b5	-0.9140733
155	0x3f702064	0.93799424
156	0xbfa64d8b	-1.2992414
157	0xbf99028c	-1.1953902
158	0xbf8b4e3d	-1.0883251
159	0xbf90fb52	-1.1326697

b4 f4 [5]
0	0x3d8f003c	0.069824666
1	0x3decaf43	0.11556866
2	0xbdb03442	-0.086037174
3	0x3e41be0d	0.18920155
4	0xbe3687df	-0.17825268

exp_avg f4 [32, 1, 3, 3]
0	0x3c267969	0.010160782
1	0x3c4fb979	0.0126784975
2	0x3b7656dd	0.0037588396
3	0x3be996c8	0.00712857
4	0x3c60b1a3	0.013714227
5	0x3a7dfcdb	0.00096888625
6	0x3c43b1d2	0.011944251
7	0x3c7c99e2	0.015417548
8	0x3ba4b69d	0.005026652
9	0xbb19bf03	-0.00234598
10	0xbb927a28	-0.0044701286
11	0xba7bbde7	-0.0009603188
12	0xba847ca5	-0.0010107948
13	0xbb6aad38	-0.0035808813
14	0x3a1e55e7	0.0006040022
15	0x3b255b47	0.0025231407
16	0xbabe062d	-0.001449769
17	0x38dee517	0.00010628456
18	0x3b84a2fa	0.0040477486
19	0x3bf2cde3	0.0074097975
20	0x3c5299c7	0.012854046
21	0x3af8e9a6	0.0018990531
22	0x3c1a9a4f	0.009436204
23	0x3c759f25	0.014991556
24	0x3b8be9cc	0.004269814
25	0x3c8de5e3	0.017321533
26	0x3c586176	0.01320683
27	0x3b718cdc	0.003685764
28	0x3b0451cc	0.0020190356
29	0x3b576231	0.0032864923
30	0xbb5f964d	-0.0034116686
31	0xbb495a9f	-0.003072418
32	0x3b531535	0.0032208685
33	0x3b608564	0.0034259195
34	0x3bdcbefe	0.006736635
35	0x3c111952	0.0088561345
36	0x3bfd779f	0.007735207
37	0x3c08d40d	0.008351338
38	0x3c322e44	0.010875288
39	0x3c27e66b	0.010247807
40	0x3c3f47a9	0.0116748
41	0x3c551291	0.013004915
42	0x3a748aed	0.0009328563
43	0x3b0cddad	0.0021494434
44	0x3b9afe04	0.004729988
45	0x3a5be67f	0.00083885336
46	0xbb0dde17	-0.0021647268
47	0x3ac73908	0.0015199492
48	0xbab17107	-0.0013537713
49	0xbbcab92c	-0.006186625
50	0xbbb52e72	-0.0055292184
51	0x3b9b4977	0.0047389823
52	0xbaccfde7	-0.0015639634
53	0xbb3ab3b9	-0.002848847
54	0xbb93a21e	-0.00450541
55	0x3a8412a6	0.0010076358
56	0xbabbe8eb	-0.0014336383
57	0xbb779832	-0.0037779924
58	0xbac3f245	-0.0014949521
59	0xba942099	-0.0011301219
60	0xbbdc4d84	-0.006723108
61	0xbb85654f	-0.004070915
62	0xbbc72a12	-0.006078013
63	0xbb1dad17	-0.0024059468
64	0x3b21be22	0.0024679978
65	0x3ad8585c	0.0016505825
66	0xbc08c4ef	-0.008347734
67	0xbbc654a0	-0.0060525686
68	0xbc0a577e	-0.008443711
69	0x395c366c	0.00021001109
70	0x3b40cfa7	0.0029420645
71	0xba8b00bb	-0.0010605076
72	0xba469569	-0.00075753644
73	0xba926a67	-0.0011170626
74	0xba036cf5	-0.0005013489
75	0xbb893c4e	-0.004188097
76	0xbb7865a2	-0.0037902375
77	0xba22e870	-0.00062144455
78	0xbad0c89d	-0.0015928928
79	0xbb1b3a00	-0.0023685694
80	0xbadaf645	-0.0016705474
81	0xbbe057c2	-0.006846399
82	0xbb0b6b62	-0.0021273722
83	0xbaf1f3f6	-0.0018459547
84	0xbc018403	-0.007905009
85	0xbb0853ba	-0.0020801858
86	0xbb7886ca	-0.0037922137
87	0xbc1b9d49	-0.009497949
88	0xbba1e9c6	-0.004941198
89	0xbbacd6f1	-0.0052746464
90	0xbc2ee4ff	-0.010674714
91	0xbbe51ff2	-0.0069923336
92	0xbbb69641	-0.005572111
93	0xbb92be96	-0.004478286
94	0xbb21b3f2	-0.0024673906
95	0xbb02b5d8	-0.0019944813
96	0xba85cf6c	-0.0010208911
97	0xba9ee198	-0.0012121676
98	0xbb522882	-0.0032067602
99	0xb902e434	-0.00012482778
100	0xbaf5103c	-0.0018696855
101	0x388cff1b	6.723237e-05
102	0x3a32cca8	0.0006820657
103	0xbadace34	-0.0016693533
104	0x3a8c9467	0.001072538
105	0xbac8dad4	-0.0015324005
106	0xbb015ee0	-0.0019740388
107	0x3b17cfeb	0.00231647
108	0x39a53a22	0.00031514565
109	0x39b63ab8	0.00034757494
110	0xbacf87b5	-0.001583329
111	0x3ab3afca	0.0013709005
112	0x3a56f9d9	0.00082006824
113	0xba32d59a	-0.000682199
114	0x3b6ccff5	0.0036134694
115	0xbba32889	-0.0049791974
116	0x3b585513	0.0033009693
117	0xbadaef02	-0.001670331
118	0xba41428d	-0.00073722826
119	0x39adf114	0.0003317675
120	0xbbbc5365	-0.005747246
121	0xbc034e0d	-0.008014214
122	0xbc25f526	-0.010129249
123	0xbb85a8fd	-0.004078983
124	0xbbc42aad	-0.0059865327
125	0xbbaf0c62	-0.0053420523
126	0x3c4f3597	0.012647054
127	0x3bca688e	0.0061770147
128	0x3c53999f	0.012915044
129	0x3be41be8	0.0069613345
130	0x3bced813	0.006312379
131	0x3c2ac7f2	0.010423647
132	0x3c41ca4a	0.011828015
133	0x3bda211e	0.00665678
134	0x3c037c69	0.008025267
135	0x3b2d6304	0.0026456723
136	0x3b8cc28b	0.0042956523
137	0x3b7f2d08	0.0038936753
138	0x3a26d2a9	0.0006363788
139	0x3a365f1c	0.00069569214
140	0xb9016452	-0.00012339771
141	0x3a8eb9b9	0.001088909
142	0x3a14da75	0.00056783046
143	0xb9122f3f	-0.00013941246
144	0x39664e2f	0.00021963635
145	0xbad491da	-0.0016217784
146	0xbaa5b845	-0.0012643418
147	0xbb2f57d4	-0.002675523
148	0xba54f030	-0.0008122949
149	0x3b1361ae	0.0022488642
150	0xbb59fde6	-0.0033262908
151	0xba1a5739	-0.0005887631
152	0xba95fc00	-0.00114429
153	0x3bb5d986	0.0055496125
154	0x3bbc7ca2	0.005752162
155	0x3aa86dfb	0.001285016
156	0x3af7e3fa	0.0018912547
157	0x3b6a6ba9	0.0035769737
158	0x3ba322df	0.004978522
159	0x3acc9327	0.001560782
160	0x3b818994	0.003953168
161	0x3bd7db2e	0.0065874076
162	0x3ac223f0	0.0014811736
163	0x3a9abd30	0.001180565
164	0x3bb2f5b7	0.0054614204
165	0xb90faf34	-0.00013702811
166	0x3af8ea3e	0.0018990708
167	0x3b8378d2	0.0040122056
168	0xbb633a52	-0.0034672213
169	0xbb42df8c	-0.0029735295
170	0xbafa0ed1	-0.0019077902
171	0xba801d61	-0.0009774381
172	0x39c397d2	0.00037306413
173	0xba69debd	-0.0008921435
174	0xba6bebb6	-0.0008999662
175	0x3b08319d	0.0020781525
176	0x3a801db1	0.0009774474
177	0xbb62970e	-0.00345749
178	0xbad477e0	-0.0016210042
179	0xbbe2b034	-0.0069179777
180	0xbc30da1e	-0.010794191
181	0xbc7ed645	-0.0155540155
182	0xbc19d8a4	-0.00939003
183	0xbc3afa55	-0.011412223
184	0xbc622657	-0.013803086
185	0xbc83d5ca	-0.016093154
186	0xbbfbd6b2	-0.007685506
187	0xbbd87bf3	-0.006606573
188	0xbc572752	-0.013131933
189	0x3c643cb7	0.013930491
190	0x3c441e19	0.011970066
191	0x3c2c1d28	0.010504998
192	0x3c62363c	0.013806876
193	0x3c5599fc	0.013037201
194	0x3c474089	0.0121613825
195	0x3b478ced	0.0030448989
196	0x3b61ff85	0.0034484577
197	0x3baba2c7	0.0052379104
198	0x39e4ff3d	0.00043677716
199	0x3b9d238d	0.0047954977
200	0x39dd8d0c	0.00042257493
201	0xbae3da62	-0.0017383809
202	0x3a96e8fd	0.0011513528
203	0xba252321	-0.0006299485
204	0xbb99eb0b	-0.0046972088
205	0xbb57326c	-0.003283645
206	0xbb08b325	-0.0020858732
207	0x3bd03cdb	0.006354911
208	0x3bcbfc42	0.00622514
209	0x3bd6b964	0.006552862
210	0x3ac37a35	0.001491374
211	0x3bdf19a1	0.006808475
212	0x3b7557e7	0.0037436427
213	0x3b93b812	0.004508027
214	0x3b551493	0.0032513484
215	0x37f6d966	2.942672e-05
216	0xbbb90a4e	-0.0056469804
217	0xbb72bedc	-0.003704003
218	0xbb06e651	-0.0020584057
219	0xbc0ebac5	-0.0087115215
220	0xbbb40711	-0.0054940064
221	0xbb5d0647	-0.0033725665
222	0xbc90e3e1	-0.017686786
223	0xbc8a0244	-0.016846783
224	0xbc89668d	-0.016772533
225	0x3c003cdb	0.007827009
226	0x3baf55b0	0.005350791
227	0x3a41c287	0.00073913526
228	0x3c2379a5	0.009977733
229	0x3b96dff0	0.004604332
230	0x3aa76cdc	0.0012773531
231	0x3bd00011	0.006347664
232	0x3c039ca6	0.008032953
233	0x3b9a3e73	0.0047071516
234	0xbbbb66cd	-0.005719042
235	0xbc202a86	-0.009775763
236	0xbc2e5f04	-0.010642771
237	0xbc3b4c02	-0.011431696
238	0xbc7f8020	-0.015594512
239	0xbc4bd17e	-0.012440084
240	0xbc8c4939	-0.017124759
241	0xbcadaced	-0.021200622
242	0xbca7b5b5	-0.020472387
243	0xb90d957a	-0.00013502492
244	0x3b35cbc7	0.002773987
245	0x3b0c1c51	0.0021379183
246	0xbb0b4ecd	-0.0021256686
247	0xbafffaad	-0.0019529663
248	0xbae1230b	-0.0017176581
249	0x3ae4aa63	0.0017445799
250	0x3b36dc12	0.0027902168
251	0xbac5b4d8	-0.0015083803
252	0xbac14444	-0.0014745076
253	0xba9b8273	-0.0011864438
254	0xbb144ccc	-0.0022628782
255	0xbb2a1cf8	-0.0025957208

exp_avg_sq f4 [32, 1, 3, 3]
0	0x3a5b448b	0.0008364401
1	0x39ebb74a	0.00044959254
2	0x398cfd5a	0.00026891642
3	0x3a5180ca	0.00079919084
4	0x3a155ef1	0.00056980463
5	0x39ed8184	0.0004530066
6	0x3aab5dec	0.0013074256
7	0x3a8ffa65	0.0010984658
8	0x3a8839bc	0.0010393183
9	0x3aa686d7	0.001270498
10	0x3a0bd3c6	0.0005333986
11	0x38ca6b8d	9.6521435e-05
12	0x3a9dc766	0.0012037575
13	0x39ddfba6	0.00042339897
14	0x38af6bb0	8.3647086e-05
15	0x3aa796eb	0.0012786066
16	0x39fc1d42	0.00048086984
17	0x38a205fd	7.7258774e-05
18	0x39445c5b	0.00018726422
19	0x3a862d7f	0.0010236948
20	0x3b00cafa	0.0019652233
21	0x39244942	0.0001566755
22	0x3a689997	0.00088729843
23	0x3b0034a8	0.0019562636
24	0x39147096	0.00014156321
25	0x3a6b6380	0.0008979365
26	0x3af3c876	0.0018599171
27	0x3ae57f7d	0.0017509308
28	0x3ac4432c	0.0014973632
29	0x3a515f68	0.0007986934
30	0x3af4dcf9	0.0018681578
31	0x3b0f8523	0.0021899424
32	0x3ad20caf	0.0016025509
33	0x3a8022c5	0.0009775987
34	0x3ae4dbee	0.0017460564
35	0x3af705f6	0.0018846381
36	0x3b2e9b2b	0.002664278
37	0x3b121bc6	0.0022294386
38	0x3acf8bef	0.001583455
39	0x3ab7c93e	0.0014021767
40	0x3a92a8bc	0.0011189203
41	0x3a5425c2	0.00080927846
42	0x397f6dcd	0.00024359599
43	0x3976859b	0.0002351016
44	0x39518996	0.00019983048
45	0x3a34594b	0.0006879761
46	0x395ebb3d	0.00021241322
47	0x3aefb7d8	0.0018289043
48	0x3a2f8db0	0.00066968333
49	0x3a62dd9b	0.00086542376
50	0x3b38f83d	0.0028224133
51	0x399db56d	0.00030080546
52	0x3a2847bd	0.0006419381
53	0x3b218ca1	0.0024650472
54	0x39d69ce4	0.00040934153
55	0x391febf3	0.0001525132
56	0x38d3009a	0.00010061376
57	0x3a27fbca	0.0006408064
58	0x39453e89	0.0001881068
59	0x392f062c	0.000166916
60	0x3a9e27e8	0.0012066336
61	0x3a3d4513	0.00072200707
62	0x3a01094e	0.0004922346
63	0x3a13b8c2	0.0005635136
64	0x3a920931	0.0011141655
65	0x3aeb03dc	0.0017930227
66	0x3a844743	0.0010092038
67	0x3b05567d	0.002034574
68	0x3b64601c	0.0034847325
69	0x3ae6283a	0.0017559596
70	0x3b4113ae	0.0029461193
71	0x3b92ade4	0.004476296
72	0x3acb5f9f	0.0015516168
73	0x3a50d677	0.0007966528
74	0x393c7520	0.0001797271
75	0x3ab700c1	0.0013962017
76	0x3a24ad2f	0.000628191
77	0x39092d2f	0.0001308217
78	0x3ab11f80	0.0013513416
79	0x3a2f9224	0.0006697497
80	0x39166abf	0.00014344881
81	0x3a9c60b6	0.0011930678
82	0x3a490bf9	0.00076693256
83	0x3a89aa36	0.0010502997
84	0x3a7f279e	0.00097333814
85	0x396a8440	0.00022365246
86	0x3a347321	0.00068836106
87	0x3aab2b53	0.0013059176
88	0x3a5818d1	0.0008243444
89	0x3a9281f6	0.0011177647
90	0x3a83697e	0.0010025946
91	0x3a193df5	0.0005845719
92	0x3a475249	0.0007603509
93	0x3a3e7d1f	0.00072665693
94	0x38e99c66	0.00011139437
95	0x39e23a85	0.0004314968
96	0x3a10c976	0.0005523184
97	0x38ae4810	8.310389e-05
98	0x3a12a4ed	0.0005594034
99	0x39d2f678	0.00040237955
100	0x3975e35b	0.00023449717
101	0x395a79e0	0.00020835502
102	0x39c9fb86	0.00038525107
103	0x38fa8f48	0.00011947617
104	0x390d5e19	0.00013481862
105	0x39f348a9	0.00046402708
106	0x39651a23	0.00021848879
107	0x395ea458	0.00021232793
108	0x3ace692d	0.0015747898
109	0x3a8bb0b6	0.0010657522
110	0x3ab107b0	0.0013506319
111	0x3ab505bb	0.0013810912
112	0x3a24bb4c	0.0006284013
113	0x3a860ae6	0.0010226637
114	0x3af94e2e	0.0019020492
115	0x3ab4d9b4	0.0013797791
116	0x3ac1d0bd	0.001478694
117	0x392ec683	0.00016667884
118	0x391917c2	0.00014600068
119	0x39a4bb9b	0.00031420295
120	0x39fe1d32	0.00048468407
121	0x39fac6c6	0.00047831814
122	0x3a420574	0.0007401325
123	0x3a9b3588	0.0011841515
124	0x3ad40e07	0.0016178497
125	0x3aff0506	0.0019456453
126	0x3a843bd5	0.0010088632
127	0x3a92d141	0.0011201279
128	0x3a925888	0.00111653
129	0x3a14cb39	0.00056760345
130	0x3a65828c	0.000875511
131	0x3a370e5e	0.0006983037
132	0x3a6eba1f	0.00091067137
133	0x3a4cdddd	0.00078150426
134	0x39d01910	0.00039691525
135	0x3a0805e5	0.00051888666
136	0x3a311b13	0.00067560485
137	0x3acd7080	0.0015673786
138	0x390509a7	0.00012687464
139	0x38b95de3	8.838975e-05
140	0x3a3e26be	0.0007253698
141	0x38c3351b	9.308216e-05
142	0x38d52ecf	0.0001016535
143	0x3a0f5ab4	0.0005468533
144	0x396c6262	0.00022543364
145	0x39eea272	0.0004551593
146	0x3a0d970a	0.000540123
147	0x3a1c75ab	0.00059684616
148	0x3a0ce964	0.0005375354
149	0x39dae3af	0.00041749838
150	0x3990c8a0	0.00027615298
151	0x391293a8	0.00013978651
152	0x38ea9ca0	0.00011187163
153	0x3b0522d3	0.0020314946
154	0x3a56094f	0.0008164839
155	0x396c6f12	0.00022548091
156	0x3a3975d8	0.000707475
157	0x3a2b5161	0.0006535259
158	0x3a1460eb	0.0005660194
159	0x394789de	0.00019029478
160	0x3a0ea977	0.00054421223
161	0x3ad316e3	0.0016104843
162	0x3a0d2695	0.00053844723
163	0x391398be	0.00014075913
164	0x3a1e105e	0.00060296606
165	0x398125cb	0.00024632955
166	0x39e8d511	0.00044409235
167	0x3a83662e	0.0010024959
168	0x3a7e324b	0.0009696825
169	0x3aa6cb91	0.0012725462
170	0x3ac4c273	0.0015011564
171	0x3a7b40e2	0.00095845584
172	0x3948d5db	0.00019153154
173	0x399f4f33	0.0003038585
174	0x3ab75390	0.0013986696
175	0x3a042aad	0.00050417596
176	0x395319dc	0.00020132161
177	0x3abed6b5	0.0014559837
178	0x3aa8d5f7	0.0012881149
179	0x3a48fab3	0.00076667516
180	0x3aacee7f	0.0013193636
181	0x3adb2e69	0.0016722205
182	0x3ae84807	0.0017721661
183	0x3a94a6d7	0.0011341226
184	0x3ab522a1	0.0013819524
185	0x3adc8632	0.0016824661
186	0x3a18f8f8	0.0005835439
187	0x3a5668a2	0.00081790437
188	0x3aa9b8eb	0.0012948787
189	0x3b5833fb	0.0032989967
190	0x3b581cbf	0.0032976118
191	0x3b69d996	0.003568267
192	0x3ae20535	0.0017243983
193	0x3ae44f50	0.0017418656
194	0x3b0aaccf	0.002116013
195	0x39af6739	0.00033455508
196	0x39aebeb8	0.00033329963
197	0x39fbe0ef	0.0004804204
198	0x3937d27a	0.00017530649
199	0x39c97b28	0.00038429466
200	0x3a0b1a02	0.00053063047
201	0x397ea033	0.00024283006
202	0x3a08cf42	0.0005218872
203	0x3a138db0	0.0005628718
204	0x39c9e4df	0.0003850823
205	0x3a2e0520	0.0006638337
206	0x39ddcdd5	0.00042305762
207	0x3a95baeb	0.0011423504
208	0x3b2896a6	0.002572456
209	0x3b7eed10	0.0038898624
210	0x39e68fad	0.00043976065
211	0x3a9249c6	0.0011160902
212	0x3ae48090	0.0017433334
213	0x3a90bd46	0.0011042736
214	0x39c1bafd	0.00036951146
215	0x39d3df6e	0.00040411524
216	0x39c1acf6	0.00036940695
217	0x39b0e171	0.00033737303
218	0x39a7069f	0.00031857655
219	0x3ae54fdf	0.0017495117
220	0x3aced13c	0.001577891
221	0x3adaa5e3	0.0016681518
222	0x3b55b7c5	0.0032610756
223	0x3b644c24	0.0034835422
224	0x3b6e4720	0.0036358312
225	0x3a865514	0.0010248744
226	0x3a49d596	0.0007699368
227	0x38dbee1c	0.00010487085
228	0x3a55ecbf	0.0008160583
229	0x3a48aa5a	0.0007654779
230	0x38a7c75a	8.000313e-05
231	0x3aac6ddb	0.0013155298
232	0x3aa4af2a	0.001256441
233	0x39e04b06	0.00042780506
234	0x3989a3bf	0.00026252677
235	0x39e2208c	0.00043130328
236	0x3a6bc8c3	0.00089944544
237	0x3a6f0085	0.0009117204
238	0x3a8edf11	0.0010900219
239	0x3ab2384c	0.00135971
240	0x3add8e34	0.0016903342
241	0x3adb4a44	0.0016730507
242	0x3b03ea0f	0.0020128523
243	0x3adebc54	0.0016993382
244	0x3aae06af	0.0013277138
245	0x3a60fd08	0.00085826265
246	0x3aaa292e	0.0012982243
247	0x3ab11024	0.0013508839
248	0x3a20342d	0.00061112904
249	0x39e9b080	0.00044572726
250	0x3a5b19a5	0.00083580083
251	0x3977d2da	0.00023634304
252	0x38fcffd5	0.00012063949
253	0x39b1deec	0.0003392616
254	0x3a1f187c	0.0006069017
255	0x39e371d5	0.00043381625

exp_avg f4 [32]
0	0xb14cd9d3	-2.9809726e-09
1	0x30c197cc	1.4085741e-09
2	0x328c13e2	1.6307187e-08
3	0x32b9d684	2.1634385e-08
4	0xb1f0e99b	-7.011477e-09
5	0xb1e4a62b	-6.6545645e-09
6	0x311f02ca	2.313913e-09
7	0xb1f76de5	-7.2011397e-09
8	0x32b70100	2.1304459e-08
9	0xb1263f26	-2.4192075e-09
10	0x31631028	3.3042031e-09
11	0x31105802	2.1004785e-09
12	0xb2452bd1	-1.1476872e-08
13	0xb23f8e2d	-1.114999e-08
14	0x32b1a577	2.0680757e-08
15	0x32496efa	1.1724973e-08
16	0x310e6a39	2.07241e-09
17	0xb1e4a614	-6.6545542e-09
18	0x3115fb9a	2.1825373e-09
19	0x3209efcc	8.028973e-09
20	0x327a44c3	1.456755e-08
21	0x32a9810f	1.9732878e-08
22	0x31dea92b	6.4802825e-09
23	0xb1af5f28	-5.1039883e-09
24	0x32f983cc	2.904735e-08
25	0xb20f90a3	-8.356582e-09
26	0xb14386b4	-2.8452805e-09
27	0x3083170e	9.538057e-10
28	0x321fdf2f	9.305764e-09
29	0x328ed88f	1.6629455e-08
30	0xb3025c98	-3.0352197e-08
31	0x2f4d5f5c	1.867852e-10
