CS330/XCS330-PS3/src/submission/logs/maml/omniglot.way_5.support_1.query_15.inner_steps_1.inner_lr_0.4.learn_inner_lrs_True.outer_lr_0.001.batch_size_16/state7700.pt (torch, 360718 bytes, 30 tensors)

conv0 f4 [32, 1, 3, 3]
00000000: 4aca 1d3d d367 0e3c f11a 93be 95ca 3fbd
00000010: 9350 76be 649c 09be 60b8 b83c 92fb 263e
00000020: da24 ff3d 0e88 0e3e 1f29 003d e95c 82be
00000030: 24d9 07bd fff4 be3b 6b33 8dbe 59b1 923d
00000040: f59a 31bd 7e5e 62be 1e6a 77be 7556 623d
00000050: c065 c73d c008 8dbe 344e 6f3c c6c3 b63d
00000060: b1c1 78be 6dcd 4dbd bf9b 2b3c 4172 f73d
00000070: 7569 e4bd e89b 9cbe 7204 5e3d 3749 a13d
00000080: 3b6a 5f3b 5064 71be 3b52 863d 673c 043e
00000090: 9f01 903d 5bca b23d 1001 c4ba c2cc a03d
000000a0: 48eb a73d 027f febd cec6 90be 19c9 98be
000000b0: b8d4 6bbe 9baa 5cbc f592 70be f91d f6bc
000000c0: e639 25bc b47c e4bd 6d47 3b3e d8e7 eebd
000000d0: a6ae d2bd 22f9 b63c 14c3 a2bd f803 53be
000000e0: 3f6d 2dbe 703d 4b3c 5c33 01be 06a4 26be
000000f0: 6945 653e 2f40 123d e207 18be cfbf 1cbe
00000100: 7245 e1bd 0a1b f6bd 3d2b 39be 1669 053d
00000110: b352 013e 06a6 f2bd 6c8b 0b3d 7fe9 eb3d
00000120: 0171 4c3d a695 783d 2e82 95be ce22 023e
00000130: 199d 9c3d 96eb a4be 3bc9 ce3c 093f b1bc
00000140: cf99 a4be bbf4 113d 705f 583d c1ab fbba
00000150: 488d bebd 6b19 e8be 5cca aebc ff07 ed3d
00000160: 1b0b 30bd 10b3 8f3d 2026 6fbc 3b39 803d
00000170: 5aea 583b e84b fa3d 08eb 82be 66b6 8ebd
00000180: 17d8 c1bd 2ef4 9dbe 2b05 293e 865c b23c
00000190: 3d47 ed3d 0c3d 4f3e e125 423d e9df f73d
000001a0: ca20 383e cc3e 103e eaea ed3d 6b84 6d3e
000001b0: 95fa 283e ee1b 26be 95a3 823d a378 b0bd
000001c0: 5090 8bbe f5fb a03d 7683 763c 8398 7fbc
000001d0: 86e0 5e3d d64c 70be 271e a3be d9ff 5cbe
000001e0: f217 7abd b6a1 a63c 5bc7 25bd 68c3 60bd
000001f0: a8b0 a63d 762c 4d3e d1e7 1b3c df46 853d
00000200: 46e2 7b3e 0719 cbbd 530f adbc f9fa 82be
00000210: 8bbc 6f3c 1765 863a 4726 1fbe 5931 97bd
00000220: 2663 98bd 6991 443e d055 a2bd d3d0 87be
00000230: 547d 8abd cfb9 7bbe aeab 10be 511b 8ebd
00000240: 8775 61be f13f 303d 69cc 023e 9324 f33d
00000250: eb5a 743d 45ee 8e3b 1d2f 2cbd b65b 7dbe
00000260: 9b70 6bbe 10b3 2d3e 4334 55bc ad15 4fbe
00000270: 7686 2abd 36bb c5bd 04dc a8bd 8625 30be
00000280: 42bb cabd 4400 9d3d ada6 ce3d 272b a2be
00000290: 99b6 9ebd c9f2 93be 15f4 573d 20ae 043e
000002a0: 57cd 4ebd 159c a83d 5f02 16bc c5e2 dabd
000002b0: 3292 94be c1be 34bc 8f78 3d3e f0d5 c93c
000002c0: 0e36 8dbe d461 91bd fcf4 fb3d db9c 6fbd
000002d0: 1ffb 82bd a782 b23d 4872 bd3d daa1 39be
000002e0: e563 633c 8c09 3c3e 9550 3dbe 824f 70be
000002f0: 0d33 823b 13bf f43c ce75 353c f54a 053e
00000300: 10c8 9dbc 872d 453d 7d6c 5c3d 6084 87be
00000310: 2184 92be 2d1c 92be ca5e 8ebe cc7b a3bd
00000320: 4aad 663e abb0 21be 03c5 613d f4ec b93c
00000330: 30b0 afbd cebb 2b3e ad2a 34be 0790 ccbd
00000340: 5ae3 643d 2507 393d fe7b 4dbe 75a8 173d
00000350: 4173 903d ff0f 0d3d 0f6a 72be 0703 6dbe
00000360: 0873 93be a8cd 9abe 90da 91be fb3a d23c
00000370: 6062 ca3d dcab 8d3c aa13 623c 2f97 cd3d
00000380: abd9 e43c 7ef2 1cbd 066c 733d 8644 eabd
00000390: c992 2abd b308 03bc ab4c aebe 2e98 2dbd
000003a0: e4a9 373e 1328 47be 5f64 d4be e54e 6cbd
000003b0: a084 b8bc 4fd1 cbbc f9f3 2b3d fe9d 12bd
000003c0: 4ad8 2f3e 461a 4ebd c5b8 073d 9aa7 8f3d
000003d0: 41aa d8bc 7fa4 67bc ea7b 233d a5a9 103e
000003e0: cca7 15be d4af 56be 28d4 3a3d 04d1 7bbe
000003f0: 8a2a 96be 5296 b3bd cfb1 0e3e 4cce aabb
0.038522996 0.008691746 -0.28731492 -0.046824057 -0.24054174 -0.13438565 0.022548854 0.16306904
0.12458201 0.13919088 0.031289216 -0.2546151 -0.033166066 0.0058275457 -0.2757829 0.07162733
-0.04336067 -0.22106358 -0.24161574 0.055258233 0.09736204 -0.27545738 0.014606047 0.089240596
-0.24292637 -0.050244737 0.0104741445 0.12082339 -0.11152927 -0.30587697 0.054203458 0.07875293
0.0034090418 -0.23573422 0.06558653 0.12913667 0.07031559 0.087300025 -0.001495393 0.078515545
0.08199173 -0.124265686 -0.28276676 -0.29840925 -0.23030365 -0.01346841 -0.2349356 -0.030043589
-0.010084605 -0.11156598 0.18288966 -0.116653144 -0.10287218 0.022335593 -0.079473644 -0.20606983
-0.16936205 0.012404785 -0.12617248 -0.16273507 0.22389759 0.03570574 -0.14846757 -0.15307544
-0.10999574 -0.12016876 -0.180829 0.03257092 0.12629203 -0.11848073 0.03406851 0.11519145
0.049912456 0.06068959 -0.29200882 0.1270859 0.076471515 -0.32210988 0.025242439 -0.021636503
-0.32148597 0.035633784 0.05282539 -0.0019200967 -0.09304291 -0.45331892 -0.021336727 0.11573791
-0.04297934 0.07016575 -0.014596492 0.06260916 0.0033098669 0.12221509 -0.2556994 -0.069683835
-0.09465044 -0.30850357 0.16505878 0.021772634 0.11585853 0.20238131 0.047399405 0.12103254
0.17981258 0.14086455 0.11617072 0.23195045 0.1650184 -0.16221592 0.06378857 -0.0861676
-0.2725854 0.07860557 0.015045991 -0.0156003265 0.05441334 -0.2346681 -0.31858942 -0.21581973
-0.061057992 0.020340782 -0.040473323 -0.054873854 0.08139163 0.20036492 0.009515719 0.06507658
0.24598035 -0.09916883 -0.021125471 -0.25582102 0.0146323545 0.0010253516 -0.15541945 -0.07382459
-0.07440786 0.19196095 -0.07926524 -0.26526508 -0.06762186 -0.24582599 -0.1412799 -0.06938804
-0.2201749 0.04302973 0.12773289 0.1187221 0.05965702 0.0043619 -0.04203712 -0.24742016
-0.22992174 0.16962838 -0.013012948 -0.20223112 -0.04163214 -0.09654848 -0.0824509 -0.17201814
-0.09898998 0.07666066 0.10090385 -0.31673548 -0.077496715 -0.28896168 0.05272301 0.12957048
-0.050488796 0.08232895 -0.009155839 -0.10687784 -0.29017788 -0.011031807 0.1850302 0.024638146
-0.27580303 -0.07098737 0.123025864 -0.0584992 -0.06395554 0.08716326 0.09250313 -0.18128148
0.013878797 0.18363017 -0.18487771 -0.2346783 0.003973371 0.029876268 0.01107545 0.13016875
-0.019260436 0.04813912 0.0538144 -0.26468182 -0.2861643 -0.2853712 -0.27806693 -0.07982597
0.22527042 -0.1579005 0.055119526 0.022695996 -0.08578527 0.1677086 -0.17594405 -0.099884085
0.05588088 0.04517283 -0.2006683 0.037025888 0.07053233 0.034439083 -0.2367327 -0.23145686
-0.287987 -0.30235028 -0.28487062 0.02566289 0.09882045 0.017293863 0.013798634 0.100386016
0.027935823 -0.038317196 0.05942919 -0.11438851 -0.04164389 -0.0079976795 -0.34042868 -0.042381458
0.17935902 -0.19448881 -0.41482827 -0.057692427 -0.022524178 -0.02488008 0.041980717 -0.035795204
0.17172351 -0.050318025 0.033135194 0.07014389 -0.02644837 -0.01413834 0.039913096 0.14127214
-0.1461479 -0.2096551 0.045612484 -0.24591452 -0.2932933 -0.08768906 0.13935016 -0.005212581

b0 f4 [32]
00000000: fa49 973c 01d1 443d 6183 b4bd 2a8b 213e
00000010: 3a40 c13d 1c5b 383d 6635 123c b188 6abd
00000020: 8fa6 873d c633 e03d 91c0 8ebd 933d 81bd
00000030: 73a0 043e 4a60 a53d d724 fe3d 7ec9 043e
00000040: 0a65 0a3d 9dc2 23bd 7999 7fbd 893c babe
00000050: 2463 97bd c1ee 1abe bd83 ef3d 22d5 b1be
00000060: 94d4 5cbe d7b3 3bbe 6cac 273d 88a3 7cbd
00000070: 4c49 c93b cc55 4c3a 4dc8 9f3d 25ea f9bd
0.018467892 0.048050884 -0.08814121 0.15775743 0.09436078 0.045008764 0.008923864 -0.057259265
0.066235654 0.10947375 -0.06970323 -0.063105725 0.12951832 0.08075006 0.124093704 0.12967488
0.033787765 -0.03998052 -0.062402222 -0.3637431 -0.073919564 -0.1513014 0.11695049 -0.3473292
-0.21565467 -0.18330322 0.04093592 -0.061679393 0.006142771 0.0007794767 0.07801876 -0.12202863

conv1 f4 [32, 32, 3, 3]
00000000: a651 3dbd 2ca6 9b3d 7ff7 03bd bdf9 51bc
00000010: 862f 20bd 3247 243e b897 a4bd 8b03 1e3d
00000020: 17c9 793e 7c3b d03d be92 823c 8539 963e
00000030: a836 4c3d 33ac a6bd 225d 33be 27e5 823c
00000040: 04f9 d9bd a849 bbbe 46d6 2d3e 060d 0e3e
00000050: 2a01 19be 0902 ad3d 747f 543d 2616 d2bd
00000060: cb3e 06be 8657 763c 39c5 a13d 77b8 c33c
00000070: d325 2d3c 03c9 d3bd 1360 c1bd 7d11 213d
00000080: fdff fa3b b62e 21be 0d78 48bd 7ac4 21bc
00000090: 3de0 b9bb aa94 8e39 6edf aebd 4563 203e
000000a0: ad16 943d f55c 303e f23c 323e 6f97 013e
000000b0: 34e1 473e b28f 9fbb 7852 ff3c 5f5c bfbd
000000c0: f124 9cbd a536 1c3c 608d c1bd acb7 9b3d
000000d0: 402e 573d 7e2d bbbd 97be 3d3e 802d 363d
000000e0: ade3 48bd 3a49 a23d b7c4 02be 09a8 76be
000000f0: eed0 d2bd 71d5 df3a 1cb5 27bd 1d90 a43c
00000100: 74fa f23d 2a1e b23d 3441 8f3d 575d 423e
00000110: 50f6 3eba 51bd 4c3d ab3b 793c 351c a3bd
00000120: b628 bd3c b17a db38 d5ae 053e b0a2 e8bd
00000130: 7832 08be 9ed8 f73c 03ec 43be 5014 d1bd
00000140: 5564 8ebe c052 10be 5ae0 a7bc d7c4 c83d
00000150: 47bf 853d 06b2 1f3c 74ac c53d f28e 1a3e
00000160: c903 a4bc d73c 7e3d da77 2b3e d7fd 253c
00000170: d20a 853c 0e41 b43c 892d 35bd c912 25be
00000180: 403d 67bb d0fc 103d cebb 76bd b431 afbd
00000190: edf5 52bd e57a 09be 3674 82bc 3675 063b
000001a0: 67ad 493d ba9d 2d3e 559f e83c 1032 6dbc
000001b0: 9b02 82bb 109a 263e dc46 323d a48b e9bc
000001c0: 721d 41bd 7171 8e3d e904 3cbe bdbb 07be
000001d0: d1cc ab3d a1aa c1be a957 1c3e 21ca ba3e
000001e0: d0da 30be f42d 3abe 47b0 c23c 8c55 88be
000001f0: 27f9 21be 6f36 f1bb 8809 b53d 19eb 3ebd
00000200: bbdb 403d 9adc 16bc 8838 613a 4119 a93d
00000210: 6b25 a4bc 128f 783d 6d6f b8bd a7c2 193e
00000220: ae64 7f3e 0b5d 103e 4c80 d53d fc1e 63bd
00000230: 543b 913b 8fd7 3f3e b396 ed3d 09fd 943c
00000240: ee82 993d 7233 debd b54a 5c3e b6c6 8bbc
00000250: 26e2 a5bc 58df b2bb c2c1 3ebd c529 c4bd
00000260: 9203 99bd c451 98bc 936b caba e601 f9bc
00000270: 4ccd 94bd 219e be3d 5d4b adbd 6c8e 393c
00000280: f5a1 633e bf56 ae3d 3418 b53c 3e8c 0b3c
00000290: 2c67 a63d bd31 083d 2a93 863d 12ec f6bd
000002a0: e7d2 cabc 3b27 8f3d 0ad0 c8bc f61f 6b3d
000002b0: c123 0ebe b6f4 12be e257 92bd 860c 09be
000002c0: f839 a9bd b4e0 f23d fcc3 c13d aadb 98bb
000002d0: 7c96 a33d 13af 693d 99e3 1e3d f63e 43bd
000002e0: 093c 343c ff3c 7e3d bad6 96be 3542 94be
000002f0: 02bf b4bd 17bd 133e 0049 25be a747 9dbb
00000300: 021d 1f3e 4d82 a13d eff8 74bd c1fe 0cbe
00000310: d64e afbc aa27 dd3d 3b62 e3bd 6b08 d83c
00000320: 3adf 343e 8cb5 adbd 73cf f2bd cfbc 2fbd
00000330: fbb2 50bd bf56 fcbc cf4b 893d 60d1 05bb
00000340: 6d13 cbbd 5a56 40be edfe 0bbe 474b 89be
00000350: e850 0fbe 0de1 d9bc 71f2 a23d ed45 a73d
00000360: 8446 99be db03 4cbe 0878 c83d 6cd5 d8be
00000370: 61d3 9ebd 3d1c ac3c 0e04 2cbe 62b4 0fbe
00000380: 84c0 713d c4ba 983d c3ec cc3d 90e8 02bd
00000390: ea4f 1c3e e3c2 c13d 8d74 aa3c d94f 3b3e
000003a0: 206f 7bbd 9339 21be 921a 4abc c109 4abc
000003b0: 76f4 e43c c654 bb3c d534 aa3d 7c45 223e
000003c0: cd66 87bc cb15 2d3d 65b4 03bd 5e25 aabc
000003d0: 8cd3 f33c 0793 79bd 2458 cd3c a9bb 7d3b
000003e0: 90c5 e23c f360 c33d 11f3 51bd 53a8 a6bd
000003f0: 7d4c 833e bff9 f43d fb4d b83d 510b a3be
-0.046220444 0.07600054 -0.032218453 -0.01281589 -0.039107822 0.16042784 -0.080367506 0.038577598
0.24393116 0.10167596 0.015939113 0.2934076 0.04985681 -0.08138313 -0.17515996 0.015978409
-0.10643199 -0.36579633 0.1697627 0.13872156 -0.1494185 0.08447654 0.05187936 -0.10258131
-0.13109891 0.015035516 0.07898945 0.02389167 0.0105681 -0.10341074 -0.09442153 0.03932332
0.0076599107 -0.15740475 -0.048942614 -0.009873504 -0.0056724832 0.00027195114 -0.085387096 0.15662868
0.072308876 0.1722296 0.17406061 0.12655424 0.19519502 -0.0048694247 0.031167254 -0.0934379
-0.076242335 0.009534513 -0.09450793 0.07603392 0.05253434 -0.09139536 0.18529736 0.044476986
-0.049045254 0.07924123 -0.12770353 -0.24087538 -0.102937564 0.001707716 -0.040944204 0.02008825
0.118641764 0.086971596 0.069948584 0.18980919 -0.0007284628 0.049985234 0.01521198 -0.079643644
0.023090702 0.00010465587 0.13054974 -0.11359155 -0.13300502 0.030254658 -0.19133 -0.102089524
-0.27810922 -0.14094067 -0.020492721 0.09803169 0.06530624 0.009747034 0.096520334 0.15093592
-0.020021336 0.06206974 0.16744938 0.010131321 0.016240511 0.022003677 -0.04423288 -0.16120447
-0.003528431 0.03539735 -0.0602377 -0.08554402 -0.051504064 -0.13425787 -0.015924554 0.002051664
0.049237635 0.16954699 0.028396288 -0.014477268 -0.0039675958 0.16269708 0.043524608 -0.028508969
-0.047147222 0.06955231 -0.18361248 -0.1325521 0.08388675 -0.37825492 0.15267815 0.36482337
-0.1727097 -0.18181592 0.023765696 -0.26627767 -0.158177 -0.0073612253 0.088397086 -0.046610925
0.04708455 -0.009207869 0.00085914927 0.0825677 -0.020037374 0.060683317 -0.09005628 0.1501566
0.2494075 0.14097993 0.10424861 -0.05544947 0.0044321213 0.18734573 0.11601009 0.018187063
0.07495676 -0.10849656 0.21512873 -0.017062526 -0.020249438 -0.0054587536 -0.0465715 -0.095782794
-0.07471384 -0.018593676 -0.0015443437 -0.030396413 -0.0726572 0.093075044 -0.0846164 0.01132546
0.2222975 0.08512639 0.022106268 0.008517323 0.08125147 0.03325056 0.06571038 -0.120567456
-0.02475877 0.069899045 -0.024513263 0.057403527 -0.13880827 -0.14351162 -0.071456686 -0.13383684
-0.0826301 0.11859265 0.09461209 -0.004664858 0.07987687 0.05705173 0.038791273 -0.047667466
0.011000642 0.06206989 -0.29460698 -0.28956762 -0.08825494 0.14427601 -0.16141129 -0.0047998014
0.1553841 0.07886181 -0.059807714 -0.13769056 -0.021399897 0.10798581 -0.1110272 0.026371202
0.17663279 -0.08481893 -0.11855974 -0.04290467 -0.05095194 -0.030803083 0.067039125 -0.0020418987
-0.099158145 -0.1878294 -0.13671465 -0.26815245 -0.13995707 -0.02659657 0.07956398 0.08167634
-0.29936612 -0.19923346 0.09788519 -0.42350328 -0.07755161 0.021009559 -0.16798422 -0.14033654
0.059021488 0.07457498 0.10006096 -0.03196007 0.1526486 0.09461 0.020807529 0.18292178
-0.061385274 -0.15744619 -0.012335436 -0.012331427 0.0279486 0.022867572 0.08310858 0.15846819
-0.016528511 0.04225711 -0.03215446 -0.020769771 0.02976396 -0.06093123 0.025066443 0.003871659
0.027682096 0.09539976 -0.051257197 -0.08137574 0.25644293 0.11961698 0.089992486 -0.3184457

b1 f4 [32]
00000000: f5c5 1d3d 9b8b e63b 6acb a0bc 1b3e 45bd
00000010: 7fc6 46bd 0fa9 6fbc 214b ab3c 5569 613c
00000020: 7275 713c ce2f debc bd7c 47bd 7042 cfbc
00000030: 7908 ddbb d164 4c3b 4e71 04bd 13e7 28bd
00000040: 7517 a0bc c36c 86bc 00f2 3fbd 282d bcbc
00000050: 1c1e ad3c 1870 5f3c da4f 4f3d 22ac ad3c
00000060: cd6a d6bb ca75 1c3d 96a4 eb3a abf2 b33d
00000070: 3d57 223b bb0a 523b 79ab 4bbc b694 263b
0.038518865 0.0070356852 -0.019628245 -0.04815493 -0.048529144 -0.014627709 0.020909848 0.013758023
0.014737474 -0.027122404 -0.048702944 -0.025300235 -0.006745395 0.003118802 -0.03233462 -0.041235995
-0.019542435 -0.016409284 -0.04686165 -0.02297075 0.021132521 0.013637565 0.05061326 0.021200243
-0.0065434934 0.03819827 0.0017978128 0.087865196 0.0024771236 0.0032049853 -0.012431019 0.0025418228

conv2 f4 [32, 32, 3, 3]
00000000: 9260 353c 9561 c1bc cc28 e83c 636a 0abd
00000010: 8869 193d bbef 603d 9439 9a3d a894 d43d
00000020: a277 003e e822 02bc 8f63 4e3c f90c 183c
00000030: 08e1 0d3e 7229 a13d ed87 173c 25d9 013e
00000040: 696d 633c 6148 513d 8328 d63d 06a0 eabc
00000050: 21f9 53bd 639a 853d e4e5 c43d ee50 9cbc
00000060: 88b0 c73d d3c4 b03d eb7f 623d 1e91 cdbd
00000070: 68f5 c6bd 968a bbbc 2433 41be 5d91 1bbe
00000080: 2db0 4fbd 6d6c 8bbe 25bd 70be 26dc 11be
00000090: 41e3 cdbd 99d8 643c 5b64 e03c 0440 58bd
000000a0: ef82 15bd a7c8 b53d 92a4 0ebe f7a2 7bbd
000000b0: e7a9 be3d 9cc2 b3bb c861 1f3d e3da aa3d
000000c0: 0bf1 05bd 63c4 03be 012f 143d e91e c7bd
000000d0: 01b2 4739 05e9 283c 9f03 06be cd6a d1bc
000000e0: 9524 843c abb1 cdbc 7d9b 92bc f621 5a3d
000000f0: 58db 843d 1a82 103d f607 903c 95d2 2d3d
00000100: 238c f33b c8b5 16bd 7dcd 323e 5d9a 4b3e
00000110: 4f92 d63d 76f1 1e3e 050c 023e 1543 373b
00000120: dcf3 bfbd c9d1 04bd 14d7 4e3a 8ceb b8bd
00000130: 32d1 ddbd cce4 98bd 65e6 83bd 50da 7cbd
00000140: 9699 9dbb e333 05be fd04 eebd d622 07be
00000150: a022 efbc d4c6 06bc 0ad6 4abd 7acf ebbc
00000160: 008d 353d 3201 973b f479 bb3b 6a4c f43c
00000170: 7cd4 28bd c096 ec3d 85ae eb3d 8315 d53d
00000180: 9fe9 f83d 4e7e 333e 7371 b43c e27f a0bb
00000190: 2afe d1bd 50ca 0fbd 64e0 a3bc e7b9 1abc
000001a0: ce1e 12bd 8593 3f3c 92be 31bc 6607 0d3d
000001b0: e036 bbbd 4bc4 a8bd 2ed9 1dbe 3eb1 65bb
000001c0: 9fa5 3dbd 46d9 9dbd b6db 55bd 5b0a 68b9
000001d0: 2705 b1bd b4c7 4bbe 593d 2ebe 8657 bfbd
000001e0: 03d1 a1be 8369 1dbe 26cb d5bd 77c9 bebe
000001f0: 7363 d3be d06d aebe c4cd 99bd 2896 7fbd
00000200: c80b f5bd 9a8d b9bd 9d01 bebc dd50 98bc
00000210: f234 8dbd da86 11be dd63 34be 2f1b f6bc
00000220: cb90 b4bd 81cf 45bc b2eb d63d 4700 aa3d
00000230: 96e0 1f3d f1c0 c63d e5b4 bc3d 5772 923d
00000240: 814d efbd 34f9 45bd f5d7 6abd e83c 2dbe
00000250: cd17 2dbe 9e6c e5bd 00b3 31be 012c 35be
00000260: 450b 43bd 0a4d 48bc 0dc4 e13d 98e8 923c
00000270: 806e 1b3e 16a6 f43c ea21 093e 7dfe 383a
00000280: 277c 81bc 0c97 3ebb 8a53 debc 9315 b3bd
00000290: 5c4b d3bc ef1e 75bd 2ef6 2b3d a20c 60bd
000002a0: aea9 aabd bacc 853b 05ee 0bbe f45d 403c
000002b0: 605e 06bc 4bb5 15bd 138e 25bd 8c38 1b3d
000002c0: bd29 90bd d558 423d 6773 10bd 5fb8 1f3d
000002d0: d660 83be aab9 2fbe 1b79 51be a699 62be
000002e0: c47c 23be 78ff 0fbe b40e 47be 91bc 65be
000002f0: 9797 edbd df88 60bd 8b22 27bc 628b 44bd
00000300: a7e0 dabc 7655 413b 0dee 95bd 9060 1c3d
00000310: bd20 1fbd 55de 013e 50c4 283d 3e9f 913c
00000320: adac 93bd 0b76 a33d 5977 4c3d a648 383d
00000330: c98d ad3d b5ae d13d 1182 043c 2e5f a93d
00000340: 2758 e53d 9fc4 2dbd f5a9 353e 8707 803d
00000350: da6d e4bb 6232 473e 3769 a13d c6d4 ee3d
00000360: 23b3 c43d f1c3 e3bc f672 2dbd a218 9d3d
00000370: 2ac0 6f3d 687d 81bd cbc7 943c c810 523b
00000380: d748 88bd 1be2 083d 4654 12bd 863a e9bd
00000390: 363d ab3d 1c8d 7fbd 13a8 67bc fe18 f33d
000003a0: 2814 4bbd 4345 a5bd 360d 2e3b 711a 3d3d
000003b0: b564 393c 94a0 ec3d a372 4a3e f1b3 303e
000003c0: 0d22 1e3e 15c8 233e a18e 113e 27da ab3d
000003d0: 5bd6 153e 9516 cd3d e58b f43d 2971 4e3e
000003e0: e242 083e 05d4 bc3d e19c 523e 6bf2 493e
000003f0: 5b89 bcbd 7864 96bd e884 b0bd 5770 72bd
0.011070387 -0.023606101 0.028339766 -0.033792865 0.037454158 0.054916125 0.075305134 0.103799164
0.12545636 -0.007942893 0.012596979 0.009280437 0.13855374 0.07869233 0.009248716 0.1268049
0.013881066 0.051094417 0.10456946 -0.028640758 -0.05175126 0.065235876 0.09614161 -0.019081559
0.097504675 0.08631291 0.055297773 -0.100374445 -0.09714776 -0.022893231 -0.18867165 -0.1519217
-0.050705124 -0.2723116 -0.23509653 -0.14244136 -0.10053111 0.0139676565 0.027391603 -0.052795425
-0.03650182 0.08876162 -0.13929966 -0.061434712 0.0930975 -0.0054858457 0.03891161 0.083425306
-0.03270058 -0.12867884 0.03617764 -0.097226925 0.0001904443 0.010309462 -0.13087319 -0.025563622
0.016130725 -0.025109133 -0.017896408 0.053255044 0.06487149 0.035280325 0.017581921 0.042437155
0.007432477 -0.036794454 0.174612 0.19883104 0.10477125 0.15521798 0.12699898 0.0027963568
-0.09372684 -0.03242663 0.00078903255 -0.09029302 -0.108309165 -0.074655145 -0.06440429 -0.061731637
-0.0048095686 -0.13008074 -0.11622045 -0.13196883 -0.029191315 -0.008226115 -0.04952053 -0.028785456
0.04432392 0.004608297 0.005721325 0.029821593 -0.041218266 0.11552191 0.11507896 0.10404494
0.12153935 0.1752865 0.022026753 -0.0048980573 -0.10253556 -0.03510505 -0.020004459 -0.009443737
-0.03567391 0.011692886 -0.010848658 0.034430884 -0.09141326 -0.08240565 -0.15414879 -0.0035048272
-0.046300527 -0.07707457 -0.052211486 -0.00022129102 -0.08643561 -0.199004 -0.1701559 -0.09342866
-0.31604776 -0.15372281 -0.10439138 -0.3726308 -0.4128681 -0.34068155 -0.0750995 -0.06239906
-0.11965138 -0.090602115 -0.023194129 -0.018593246 -0.06894864 -0.14211598 -0.1761622 -0.030042259
-0.088166796 -0.012073399 0.10494174 0.08300834 0.03903254 0.097047694 0.092141904 0.07150715
-0.116847046 -0.04833336 -0.05733486 -0.16917765 -0.1690361 -0.11202358 -0.1735344 -0.17692567
-0.04761817 -0.012225399 0.11023722 0.017933175 0.15178871 0.029864352 0.13391843 0.00070569647
-0.01580627 -0.002908173 -0.027139444 -0.08744349 -0.02579277 -0.059843954 0.041982822 -0.054699548
-0.08333145 0.004083243 -0.13665016 0.01174115 -0.008201212 -0.036549848 -0.040418696 0.037895724
-0.07039211 0.047447998 -0.035266306 0.03899419 -0.25659817 -0.17160669 -0.20456354 -0.22128925
-0.15965563 -0.14062297 -0.19439203 -0.22435214 -0.11601179 -0.05481803 -0.010201107 -0.04798449
-0.02671845 0.0029500402 -0.07320795 0.038178027 -0.03884958 0.12682469 0.041202843 0.017776128
-0.0721067 0.07981499 0.049918506 0.044991158 0.08474309 0.10238401 0.008087651 0.08270107
0.11198454 -0.04242384 0.17740615 0.06251436 -0.006971103 0.19452813 0.07881396 0.11661677
0.0960448 -0.027803393 -0.042345963 0.07670714 0.05853287 -0.063227475 0.018161675 0.003205346
-0.06654518 0.033418756 -0.0357249 -0.113881156 0.083612844 -0.06239043 -0.014139193 0.11870001
-0.04957977 -0.08069851 0.0026558167 0.046167795 0.011315514 0.11554065 0.19770293 0.17256142
0.15442677 0.15994294 0.14214565 0.08391219 0.14632551 0.10014073 0.11940745 0.20160355
0.13306764 0.09220127 0.20567657 0.19721381 -0.09205886 -0.07343382 -0.086191 -0.059189167

b2 f4 [32]
00000000: 3600 3abd 9672 f7bc 4cc3 373d c969 0f3d
00000010: 049f f33d 6981 743d 0a9f 413d 2c15 e7bb
00000020: 1e67 5f3d 164f 483d ed02 bf3d b9e9 2cbd
00000030: 3851 543d ab99 b43d e593 b93d e31e 1ebd
00000040: 9454 843d bdb5 6fbd 0d91 9a3d 661b 433d
00000050: 391e 56bd 2612 9c3d 411d 8f3d 13f3 ae3c
00000060: 26bf 8cbd 92b5 af3d e41a d93d df13 813c
00000070: 82b1 7a3d f9f5 29bd 7109 6abc 844e a53d
-0.045410357 -0.030206006 0.044863984 0.035012994 0.11895564 0.059693728 0.047270812 -0.0070520844
0.0545417 0.048903547 0.0932673 -0.042215083 0.05183527 0.08818372 0.09061412 -0.038603675
0.064614445 -0.05852293 0.075471975 0.04763355 -0.052274916 0.07620649 0.069880016 0.021356141
-0.06872396 0.08579554 0.10600832 0.015756546 0.06120444 -0.041494343 -0.014284478 0.08071616

conv3 f4 [32, 32, 3, 3]
00000000: 1ff0 443d 18d6 52bd fb02 d93d 0882 68bd
00000010: ba5f 213d 00c9 093c 30ba 9b3d 41db 913d
00000020: 2425 693d 4ff0 353b 2110 a03c 2785 ca3c
00000030: 9610 dbb8 0844 8fbc eec7 1a3d d2ac 753d
00000040: 690f af3d 807f 993d 4e7f 8ebc 9976 ba3c
00000050: c7ef e33d 4343 14bb 6523 14bc 1836 933c
00000060: 73ca 4cbd effd f83c b060 453b f4cb a8bd
00000070: f8fa d4bd 3b87 883d 7005 4fbe 47f9 5abe
00000080: b402 2abd c5b7 79be a29b 82be f15f 0cbe
00000090: 220a fa3a 593c 02bc f400 973c f53f 9abd
000000a0: fa80 1f3d 41e3 46bd 7b5e 1abd b9c5 9dbd
000000b0: 2142 7cbc c33b 4c3d 0dac ac3c 2fae 953d
000000c0: fb55 ba3c b242 21bd d8f9 5e3c 55aa 813d
000000d0: aeee b23d 6f1e ab3d 3042 82bd fb87 ac3c
000000e0: 3dea c63c 0d69 583c 6b0d 463d 99cc 163d
000000f0: 20a3 97bd 65a3 75bc 28e2 d13b 1fa3 023a
00000100: cb23 4d3d 7ed9 82bc c209 de3d cc7e 1a3d
00000110: a5f7 4d3d 0ec1 8b3b 50d6 5b3d ad7d 83bc
00000120: 8cf9 11be af8b a63c 0924 98bd 0b90 26bd
00000130: 102f ae3d bd4f 72bd 9eb3 04be 611f 79bd
00000140: e59a 96bc 9b09 263c d836 6ebd 064a a53c
00000150: 666f 45bc d7cf a93a 9e1b 53bc a2d9 67bd
00000160: c2ed 7ebd 1b57 05b9 2bce c3bd 479d ccbd
00000170: 10a0 d1bd 6abb 06be b5b7 e839 1509 7dbd
00000180: 7a7b 3abe d56d e2bd abba 59bd a6d8 823e
00000190: 18c0 70bd ecee 8d3e 77b9 a73d 8655 28be
000001a0: 14bd 8e3d e8be ad3e bd73 51bb 2223 833e
000001b0: b5cc acbd fc30 8abc 7dea fa3c ceda 4dbc
000001c0: 0ee9 083e 646c 41bb b84f 0abd 6be1 31bd
000001d0: 5c81 8fbc a0bd 143d b6e6 593d 0b30 ba3d
000001e0: 70d3 c43d d84e f5bc e894 823d 5623 a13d
000001f0: 9cc1 d8bc d06f a63d 172f d0bd f3d8 a6bd
00000200: 014a 193d dbe7 54bd f059 5b3c 6d15 a6bd
00000210: 2dc4 d1bd 7576 b1bc 2484 74bd a28a ebbd
00000220: 1b42 ee3c 5408 bc3c e876 023d 7e09 e33c
00000230: e0ed 06bd 9538 83bd 5d77 de3c ca87 0ebd
00000240: 9b77 d33e 8325 bf3d c2e8 ca3e 0ce9 c6ba
00000250: 3743 e7bd 8569 d93d 5f34 943e df67 d53d
00000260: 42fa a43e efac 09bd e9d3 92bd fceb b1bc
00000270: 07ca d7bd aa53 943d 7772 edbc fd17 0dbe
00000280: 5319 9ebc e165 88bd fb19 1bbb 55ab 81bc
00000290: 21e1 833c 8fc0 ea3c 1d72 66bc 2602 2f3d
000002a0: b364 e2bc 389c e9bc 9c65 40bc b6bc 083e
000002b0: 4823 aa3d 1692 3a3e 86c7 8d3d 678a f0bd
000002c0: ff8e 943d ad11 4b3e 533e a63d 00ec 6b3e
000002d0: 4107 c0bd b117 13bd 7d4f 02bb 1bd6 46bc
000002e0: 1146 083d 3562 a63c c13c 07be d21a 003d
000002f0: 2bf2 d0bd cde8 a8bd d4af 58bc 6894 f1bd
00000300: c5be e7bd 85d4 6cbd eb44 363b b29a ebbd
00000310: cb74 95bd f2ef 1bbe aff6 a53e 17a1 183e
00000320: 55ab 6e3e 1842 e33d e9ac 2f3d 1657 483e
00000330: 11c2 863e 2221 e93d 51bb 943e 9e42 94bd
00000340: 3dd7 29bd d639 013d d5c2 e43c 5670 63bd
00000350: 48b1 dfbd e3ef 8ebd d203 3ebd 4ed3 3a3d
00000360: 20a4 c9bd e8c4 5bbe 8968 69be 1b77 16bd
00000370: eb46 38be 4fb9 2ebe 364d 7dbc 53c4 1fbd
00000380: 416c fabd c54a 613e fea1 0e3e 25f6 7d3e
00000390: 9b99 f93d c669 133d 9ef6 ad3d 324d 9c3e
000003a0: 7cf9 fc3d 4b49 0f3e 4e4e 24bd ea95 953c
000003b0: 5c3d f93c aab8 e1bc 9e0c 48bd 3042 b0bc
000003c0: 21eb 5f3c bb13 a3bd d9b4 1ebc abfc 6fbd
000003d0: db0a 1fbd d9ea 94bd 970f 52bd bc30 10bd
000003e0: 352d d3bb 6cce d8bd 5447 83bd e652 5bbd
000003f0: df5f c8bd 5dee c93c c4cf 14bd 6831 bc3a
0.04808056 -0.051473707 0.105962716 -0.056764632 0.039397933 0.008409739 0.07603872 0.071218975
0.056920186 0.0027761643 0.01953894 0.024721695 -0.00010445823 -0.017488495 0.037788324 0.059979267
0.08547861 0.07495022 -0.017394688 0.02276163 0.11129718 -0.00226231 -0.009041642 0.01797013
-0.049997758 0.030394522 0.0030117445 -0.08242026 -0.10399431 0.06666418 -0.20216918 -0.21384154
-0.041506484 -0.24386509 -0.25509363 -0.13708474 0.0019076506 -0.007948958 0.018433072 -0.0753173
0.03894136 -0.04855657 -0.03768776 -0.07703728 -0.015396626 0.04986168 0.021078134 0.073086135
0.022746077 -0.039370246 0.013609372 0.063313164 0.08736931 0.08355414 -0.063602805 0.021060934
0.024281615 0.01320864 0.04835264 0.036816213 -0.074041605 -0.01499257 0.0064051338 0.00049834134
0.050082963 -0.015972849 0.10841705 0.03771858 0.050285 0.0042649573 0.05367118 -0.016051138
-0.14255351 0.020330278 -0.07428748 -0.040664714 0.0850507 -0.059158076 -0.12959144 -0.06082094
-0.018384406 0.010134126 -0.05815777 0.020176899 -0.012050485 0.0012955618 -0.012885002 -0.056604035
-0.062238462 -0.00012716318 -0.09560808 -0.09990936 -0.102356076 -0.1315743 0.0004438736 -0.06177624
-0.18211165 -0.11056105 -0.053156536 0.25555915 -0.058776945 0.27721345 0.081896715 -0.16438875
0.069696575 0.33934712 -0.0031959855 0.25612742 -0.08437482 -0.01686906 0.03062939 -0.012564374
0.13370153 -0.0029514069 -0.033767432 -0.043427866 -0.017517738 0.036313653 0.05319854 0.09091195
0.09610641 -0.029944822 0.06376058 0.07868068 -0.026459508 0.08126795 -0.10165232 -0.081468485
0.03742409 -0.051978927 0.013388142 -0.081095554 -0.10242496 -0.02166293 -0.05969633 -0.115010515
0.029084256 0.02295319 0.03185168 0.027714487 -0.0329417 -0.064072765 0.027156526 -0.034797467
0.4130219 0.09333327 0.39630705 -0.0015175655 -0.11292117 0.106158294 0.28946206 0.104202025
0.32222182 -0.033612188 -0.07169325 -0.021718971 -0.105365805 0.0724252 -0.028985245 -0.13778682
-0.019299185 -0.06660057 -0.0023666609 -0.015828768 0.01609856 0.028656272 -0.014065293 0.04272666
-0.027635908 -0.028516874 -0.011742976 0.13353238 0.083075106 0.1821979 0.06922822 -0.11745148
0.07253837 0.19830962 0.08117356 0.23039246 -0.093763836 -0.035911266 -0.0019883804 -0.012136008
0.033269946 0.0203105 -0.1320677 0.031275578 -0.1020244 -0.08247528 -0.013225514 -0.11795884
-0.11315683 -0.057819862 0.0027812074 -0.11504115 -0.07297667 -0.1522825 0.32414767 0.14905201
0.23307545 0.11096591 0.04288951 0.1956447 0.26319936 0.11383273 0.2904916 -0.07239269
-0.041465033 0.031549297 0.027924934 -0.055527054 -0.109224856 -0.069793485 -0.046390362 0.045611672
-0.098457575 -0.21461833 -0.22793783 -0.03673468 -0.17995803 -0.17062877 -0.015460303 -0.03900559
-0.12227679 0.22001179 0.13928983 0.24800928 0.12187501 0.035989545 0.08494304 0.30527645
0.12352273 0.13992803 -0.04011374 0.018259961 0.030424766 -0.027553875 -0.048840158 -0.021515936
0.013666899 -0.07962748 -0.009686672 -0.058590572 -0.038828712 -0.07271356 -0.0512844 -0.035202727
-0.006444598 -0.10586247 -0.06410089 -0.053545855 -0.09783911 0.024649793 -0.036330953 0.0014357986

b3 f4 [32]
00000000: ce37 3c3e 05e1 233e 9901 2d3e 9763 423e
00000010: 14cc 473e 9b49 303e 17c9 733e af68 633e
00000020: 6e18 553e f138 2d3e 24a0 813e 4800 403e
00000030: b038 4b3e 290f 563e 946c 383e 6583 8c3e
00000040: fb8c 323e 74ab 873e a9d8 2f3e ac5e 323e
00000050: d896 803e 40e8 543e bceb 5b3e 136e 7a3e
00000060: b3e9 463e 02c3 343e e50e 113e 43fd 403e
00000070: 9d39 6a3e 479c 8c3e 7485 593e 060a 6e3e
0.18380663 0.16003807 0.1689514 0.18983303 0.19511443 0.17215578 0.23807178 0.22207902
0.208101 0.16916253 0.2531749 0.18750107 0.19845843 0.2090422 0.1801017 0.27443996
0.17436592 0.26497996 0.17172493 0.17418927 0.25115085 0.20791721 0.21476644 0.24456052
0.19425087 0.17652515 0.14165838 0.18846612 0.2287354 0.2746298 0.21242315 0.23246011

w4 f4 [5, 32]
00000000: c5f2 aebf 56af a33f 7099 e9bf b292 10bf
00000010: 01ca 9abf 43b9 04bf 3645 6b3f 59a4 9ebf
00000020: bfbe 09c0 b1bc 09c0 2018 adbe a58e f0bf
00000030: 29f0 2940 d11a 1a40 577e 4d3f 9299 3f3f
00000040: 2a51 63bf dcda 8d3f 6428 0ec0 e617 3c3c
00000050: 8f4d e9bf dfec 8e3d bdb2 1340 c4e1 f6bf
00000060: 7d36 03c0 7d8d c7bf c616 c7bf b1d6 debf
00000070: 78eb 1940 87c3 9dbf c796 1940 0a08 2640
00000080: 81cd debf 8144 e8bf cd65 f3bf dc53 1a40
00000090: 2401 3a3e 163c 02c0 0d06 f7bf 603e f63e
000000a0: 0e2b e23f 01c3 3f3f 1e70 ecbf 2547 d9bf
000000b0: 06d1 e3bf 5550 5dbe 089e 05c0 664e 2240
000000c0: aa53 2140 1fa7 aabf 28c6 293f ebb7 2d40
000000d0: 20f7 49bf a4f7 ca3e ba1f d1bf da6e e3bf
000000e0: 182b aa3d 2c83 2b40 f8cd bebf 6afb 2040
000000f0: de7f 783f 2671 98bf daec dfbf e13d cdbf
00000100: 8181 6e3e 0cb0 0040 0504 cebf 2f70 01c0
00000110: 8d30 efbf c6ff a23f d966 ddbf b0a4 01c0
00000120: ea94 0dc0 a46b a23f 24e0 3440 bea3 3a40
00000130: 5823 9ebf 053c ddbf 3a17 42bf 14c8 f6bf
00000140: 0c1f 073f 2399 d7bf 8d2e 6e3f 495c 373e
00000150: 77e5 e3bf 820a 3940 7b88 0ac0 794d b2bd
00000160: 3304 3940 8acd 58be 7206 c9bf 3711 b2bf
00000170: 69c8 cabf b248 2d40 70c2 863f 52b2 cebf
00000180: 67ec 2a40 f336 a43f 64e0 0440 c174 823f
00000190: cf23 92bf afbb b9bf 3b68 2b40 308a 2b40
000001a0: b312 523f fc59 0bc0 3829 e0bf 6992 f93e
000001b0: 28b9 c6bf fc2d cabf 532d d3bf 04c9 c2bf
000001c0: 3b9b dabf 1350 dbbf fd9c 2540 ba85 dabf
000001d0: 6a88 07bf 619e fbbf 3f48 c13f e0d7 52bf
000001e0: f32d 2a3f 7661 51bf eaba 1e40 50c2 b9bf
000001f0: b46f 0ac0 1abf f4bf ec42 f6bf 62c4 ebbe
00000200: 9075 99bf 17d9 02c0 0e34 8e3f b7b1 eebf
00000210: 3c84 2540 eb1a 1340 6106 98bf c005 53bf
00000220: cb1e be3f 3a30 dd3f e498 41bf 1779 5bbf
00000230: beec 4b3e 8ef7 cdbf 5540 2240 3c98 b9bf
00000240: b35d 9ebf a520 2840 f074 ccbf 69a7 e8bf
00000250: 6022 2940 6ec5 d6bf 42c4 54bf 0223 2540
00000260: 8ae7 44bf e661 a3bf 2a52 a7bf 501c 5a3f
00000270: 07d5 d1bf 27f3 c0bf 962a b5bf a584 b5bf
-1.3667837 1.2787883 -1.824995 -0.5647384 -1.2092897 -0.51845187 0.9190248 -1.2393905
-2.1522672 -2.1521418 -0.33807468 -1.8793532 2.6552832 2.4078867 0.80270904 0.74843705
-0.8879572 1.1082416 -2.2212152 0.011480307 -1.8226794 0.06978773 2.3077843 -1.9287648
-2.0502007 -1.5590054 -1.5553825 -1.7409269 2.4049969 -1.2325295 2.3998277 2.5942407
-1.7406465 -1.8145906 -1.9015442 2.4113684 0.18164498 -2.0349174 -1.9298722 0.48094463
1.7669389 0.7490693 -1.8471715 -1.6974837 -1.7798164 -0.21612675 -2.0877705 2.536035
2.5207314 -1.3332251 0.6631799 2.7143505 -0.7889271 0.3964206 -1.6337807 -1.7768204
0.08309001 2.679881 -1.4906607 2.515345 0.9707011 -1.190953 -1.7494156 -1.6034509
0.2329159 2.010745 -1.6094977 -2.0224721 -1.8686692 1.2734306 -1.7297012 -2.0256767
-2.212214 1.2689099 2.8261805 2.916244 -1.2354536 -1.7283942 -0.7581669 -1.9279809
0.5278175 -1.6843609 0.9303978 0.17906298 -1.7804402 2.8912663 -2.16458 -0.08706183
2.8908813 -0.21172157 -1.5705092 -1.3911504 -1.584241 2.707562 1.0528088 -1.6148169
2.6706789 1.2829269 2.0761957 1.019188 -1.1417178 -1.4510401 2.6782367 2.6803093
0.8205978 -2.1773672 -1.7512579 0.48744515 -1.5525255 -1.5795283 -1.6498207 -1.5217595
-1.7078623 -1.7133812 2.5877068 -1.707206 -0.52942526 -1.9657708 1.5100173 -0.8236065
0.6647636 -0.8178934 2.4801583 -1.4512424 -2.1630678 -1.912082 -1.9239173 -0.46048266
-1.1989002 -2.0445 1.1109636 -1.8647984 2.586196 2.298518 -1.1876947 -0.8243065
1.4853147 1.7280343 -0.7562392 -0.85731643 0.19914529 -1.6091173 2.5351765 -1.4499583
-1.2372345 2.6269925 -1.5973186 -1.817609 2.642723 -1.6779001 -0.83111966 2.5802617
-0.769158 -1.2764251 -1.307195 0.8519945 -1.6393136 -1.5074204 -1.4153621 -1.4181105

b4 f4 [5]
00000000: 77df 763d fdc6 ed3d 5cc5 7bbd f9e8 2e3e
00000010: 0bfd 32be
0.060271706 0.1161022 -0.061467513 0.1708106 -0.1747934

exp_avg f4 [32, 1, 3, 3]
00000000: 23a3 82bb 3cc8 8f39 447c 2d3b 410f d4ba
00000010: b556 963b b65d 0c3b 686f 7c3b 747b 113c
00000020: bde0 9c3b 83df 1ebb 5410 9c39 a527 7d38
00000030: dd3a bc3b 4def 0c3b ee99 3eb9 bfc1 d63b
00000040: 5494 093b ef44 7cb9 0f65 2abb 81a1 e6bb
00000050: 4947 89bb 997f 7fba aa6b 6dbb 49ea 39bb
00000060: 1cf4 88b9 31a2 ebb9 a040 c43a ce53 1f3c
00000070: 9f64 ca3b 64e1 633b 7db2 233c 4182 9b3b
00000080: 9fa6 083c baea c43b f452 1d3b 30c1 ca3b
00000090: 7b91 603b adea 523a c38b 6c3b ed78 4ebb
000000a0: 76b7 97bb 092d 003b a03f b3ba c684 ebb9
000000b0: c618 b839 3690 393a 437c f13a 34a6 203c
000000c0: efd2 a1ba 0fc0 2bba 2635 3e3b 34b0 393a
000000d0: 13ce b63a 2ccd 533c 2e2a 4c3b 3abc 0a3b
000000e0: 9510 523a fa8a 253b 0e3a 803a 2ecf 43b7
000000f0: cf66 6f3b 4454 e93a f19a 64b7 f4f7 873b
00000100: e27f 813b c230 5ebb e09e 6f3b 82bb 303b
00000110: 855f 7b3b fa42 1cba 5486 373a 487a a93b
00000120: 5fbe 31ba 8ea2 e83a 6436 143b 340c a93b
00000130: f36f a23b 3e54 bf3a 46c9 b93b 024f cd3b
00000140: e658 9a39 602b efb9 c484 033b fe85 d63a
00000150: 5425 80bb 1486 80ba c260 8dbb 097f b5bb
00000160: ffd8 69bb e145 07bc 69cf 69bb 12f2 0b3a
00000170: d1f5 b33a dfec 52bb e2f5 123a 2237 2a3a
00000180: 8897 ce38 d8da 99b7 fe9c 363b a8df a239
00000190: f1b3 edba 1758 843a 1633 4a3b acf1 373a
000001a0: b2b5 333a b9f7 b03a 1415 78ba df9e 02bb
000001b0: 4e11 a63b e5ff a63b efee e63a 0922 0d3b
000001c0: cc2d 8bb7 119d 74ba e45e a73a be7c bb3a
000001d0: b87d a53a 7f4c 243b d906 193b 8e88 783a
000001e0: 27af c63b 64bb ef3b 0341 f23b 10c8 a43b
000001f0: f691 093c 6b85 f63b 703c 82ba 8e69 ae3a
00000200: 05b0 933b b5be 1abb b491 3b3b f749 8b3b
00000210: 140b c8ba 66d8 9e3a 45ef 003b c610 593a
00000220: 47ed f3ba e79f 31bb e327 5ab9 60ca c6b7
00000230: b81d 08bb 4458 3437 6c26 1839 d948 74bb
00000240: 5280 073b 09cd 493b 0321 be3b ca7a 093c
00000250: 3a20 fb3b 113b 033c c9d0 a53b 1495 963b
00000260: 0a2d 333b 9e96 abbb 7c81 3cbb 35c1 86bb
00000270: 650c caba aff2 613a 168b e139 081c ecb9
00000280: 51e5 b7ba 0ee4 0fbb 60eb 943a eea9 003b
00000290: ec88 deba fec4 db39 ed15 253b 189f 67b9
000002a0: d304 ca3b 8766 0e3c f1b8 043c 57db 923b
000002b0: cc6d 84ba 6fa1 97ba c59d 033b 170a c7ba
000002c0: dc1f 73ba 2e56 e03b f340 65b8 1f25 40ba
000002d0: 5c55 5a3b 9a2d ae3b d76c e7b9 6b98 443b
000002e0: 4ceb 813b 3177 d2ba dc0d d9ba 01e2 8dba
000002f0: 5b09 adbb 4202 4d3b 1003 223b 6418 d6ba
00000300: 74af b83b 58d0 c63b 0387 933b 7d33 1339
00000310: d971 1a3a 928e 463a 6472 4e3b 89bb 043b
00000320: bf4b 973b 7a46 833b e280 443b 79c3 b23b
00000330: adc6 4c3b b0d8 bf3b 56bb 203b 4717 923b
00000340: 3f94 d13b 5fdc 8c3b 7606 4d3a 532f 1a3b
00000350: 5cd4 94ba bd29 423b 2a1c 91b8 cfe3 0c3a
00000360: c5a2 653a 10ff e43a 2cb4 c63a d833 c8b9
00000370: 6e24 c539 69b3 1e3b 8d1f c93a aacc 013c
00000380: 3806 103c cf0f f0ba effb 563b 7025 1c3a
00000390: e171 6e3a b4bb 1e3b f60b 2e3a ad61 25ba
000003a0: dfb4 d9ba 1672 a6ba 91e9 36bb 2515 80ba
000003b0: 2935 9bbb 55ae 95bb 6907 f2bb 5286 fabb
000003c0: 3c87 2dbc f222 44bc 1fa7 26bc 5803 f3b8
000003d0: 2e03 52ba 5152 83bb df85 38b8 1ee5 1bbb
000003e0: 6723 0aba 65b3 13bb 10e1 f2ba 25ee 7b3a
000003f0: 70b5 ee39 0be7 93b9 af4e 9f3b 70ff 7e3b
-0.0039867326 0.00027424272 0.0026471773 -0.0016178862 0.004587973 0.002141816 0.0038518552 0.008879531
0.004787533 -0.002424211 0.00029766804 6.0356822e-05 0.0057443217 0.002150494 -0.00018177155 0.006553858
0.0020992951 -0.00024058273 -0.0026000177 -0.0070382957 -0.004189406 -0.00097464916 -0.0036227503 -0.0028368405
-0.00026121817 -0.00044943535 0.0014972873 0.00972457 0.0061765458 0.0034771794 0.009991285 0.004745752
0.008340507 0.006009427 0.0024005743 0.0061875805 0.00342664 0.00080458337 0.0036094047 -0.0031505183
-0.0046300245 0.0019558093 -0.0013675578 -0.00044921617 0.00035113672 0.0007078679 0.0018423874 0.009805251
-0.0012346188 -0.0006551751 0.0029023378 0.0007083446 0.0013946913 0.012927335 0.003115307 0.002116932
0.0008013335 0.0025259838 0.0009782927 -1.16711435e-05 0.0036529785 0.0017801602 -1.3625934e-05 0.0041494314
0.0039520124 -0.0033903574 0.0036563203 0.0026967232 0.0038356495 -0.0005960908 0.00070009124 0.0051720478
-0.00067803817 0.001774864 0.0022615427 0.0051589254 0.004957193 0.001459725 0.0056697456 0.006265522
0.00029439403 -0.0004561795 0.0020068148 0.0016366837 -0.0039107 -0.0009805583 -0.004314513 -0.0055388254
-0.0035682318 -0.0082564065 -0.0035676605 0.00053385005 0.0013729875 -0.0032184643 0.00056060974 0.0006493201
9.85107e-05 -1.8340928e-05 0.002786457 0.00031065685 -0.0018135292 0.0010097054 0.0030853203 0.0007016908
0.0006855383 0.0013501561 -0.000946359 -0.001993112 0.005067981 0.005096423 0.0017618815 0.002153518
-1.6591417e-05 -0.0009331266 0.0012769368 0.0014304144 0.0012625968 0.002507001 0.0023350029 0.00094807975
0.0060633603 0.00731604 0.007393004 0.005028732 0.008396616 0.007523229 -0.0009936225 0.0013306604
0.004507067 -0.0023612205 0.0028620781 0.0042507607 -0.0015262091 0.0012118935 0.0019673866 0.00082803925
-0.0018610143 -0.0027103366 -0.00020804959 -2.3697678e-05 -0.0020769667 1.0749387e-05 0.00014510163 -0.0037274866
0.002067585 0.0030792376 0.005802275 0.008391092 0.007663754 0.008009688 0.0050602895 0.004595408
0.0027340078 -0.005236461 -0.0028763702 -0.0041123875 -0.0015415071 0.00086192315 0.0004301897 -0.00045034313
-0.0014030134 -0.0021956 0.0011361651 0.0019632536 -0.0016978062 0.00041917706 0.002519007 -0.00022089144
0.006165126 0.008691437 0.008100734 0.0044817138 -0.0010103523 -0.0011568497 0.0020083052 -0.0015185502
-0.0009274462 0.006846211 -5.4658343e-05 -0.000732975 0.0033315038 0.0053154947 -0.00044140845 0.0029998075
0.003964817 -0.001605725 -0.0016559917 -0.0010824801 -0.0052806563 0.0031281863 0.0024721064 -0.0016334173
0.00563615 0.006067317 0.0045021786 0.00014038193 0.00058915984 0.0007574345 0.0031501288 0.0020253381
0.004617184 0.004006204 0.0029984047 0.005455431 0.003124635 0.0058546886 0.0024525723 0.0044583413
0.006395846 0.004298731 0.0007821092 0.0023526743 -0.0011354792 0.0029626929 -6.919385e-05 0.00053745223
0.0008759911 0.0017471034 0.0015159897 -0.000381856 0.0003760191 0.0024215824 0.0015344486 0.007922331
0.008790545 -0.0018315258 0.0032803973 0.00059565064 0.0009095949 0.0024220766 0.00066393556 -0.00063088053
-0.001660969 -0.0012698795 -0.0027910213 -0.0009771927 -0.004736562 -0.004567901 -0.0073861373 -0.0076454068
-0.010591324 -0.011971222 -0.010171681 -0.00011587766 -0.0008011338 -0.0040076156 -4.3993696e-05 -0.0023787688
-0.00052695576 -0.0022537347 -0.0018530209 0.00096103764 0.0004553008 -0.00028210165 0.0048616747 0.0038909577

exp_avg_sq f4 [32, 1, 3, 3]
00000000: c1fb 3c3a 5d2e 7739 e62a 1a39 a73e 3c3a
00000010: 6a94 5939 7653 6339 d4a3 983a c212 363a
00000020: e3bb 343a 56a2 4a3a 2039 a339 b963 2338
00000030: d104 493a 4137 8b39 e638 2838 007b 573a
00000040: 45cd 9e39 7888 1538 dfa3 2a39 6651 6b3a
00000050: 67e1 d13a d662 0539 5cb3 4f3a 7d0b cf3a
00000060: e0a9 0139 3ba1 663a 0827 db3a 7aec 9c3a
00000070: 57dc 6d3a 3690 e239 8dd2 943a 93a8 a73a
00000080: ee18 803a 4da3 1f3a 323b 8c3a 2203 9d3a
00000090: c995 093b 693c ea3a 50ea b43a f056 863a
000000a0: 2dde 513a da66 2c3a 8ba5 1f39 6ffe 0639
000000b0: 8c07 f538 658d 083a 14db db38 83a0 673a
000000c0: 8f3a 133a ab65 253a 103a ea3a f82e 2e39
000000d0: e541 d939 6010 d23a 7077 b539 075b 9438
000000e0: 3339 7138 a293 083a b7af f138 c183 b438
000000f0: 41fe 843a e98b 073a f139 a539 dff8 8639
00000100: 9ac4 f339 109f 7f3a 362a fd39 1830 6f3a
00000110: 76a6 fd3a 6303 413a 475a ba3a e8e6 283b
00000120: c17c 9f3a 21b3 303a 10bb 3139 abd6 a03a
00000130: 5fea 093a e055 c938 7253 953a eb0b ff39
00000140: d624 c138 4d07 753a ada4 0d3a ce92 413a
00000150: e989 323a d27c bb38 0a26 ef39 352b 843a
00000160: 6c39 1b3a 882f 5f3a ab21 423a 82e8 c439
00000170: c5fc fc39 686b 073a 799c 6338 419c 8c39
00000180: d850 dc39 6ef7 2838 1537 c039 dba8 9639
00000190: 6a90 5a39 1852 4239 9ef7 9339 8088 b038
000001a0: 6468 b338 b433 bd39 db99 2439 54bc 3c39
000001b0: 3ed4 7f3a a0bb 193a 02d9 533a 6c18 433a
000001c0: 7409 6f39 fb0b 0d3a 6154 9a3a 3266 5a3a
000001d0: 42ed 7a3a 0740 d638 7cb3 c038 c3a6 f038
000001e0: b445 af39 1d0d b539 cbd0 ef39 cb74 613a
000001f0: ed27 8e3a 83c1 9b3a ded6 7a3a 2715 893a
00000200: 6ef8 833a 5af9 fa39 c100 523a e772 143a
00000210: 5ed8 773a 16a2 463a 1607 9939 7c64 093a
00000220: 941f 2f3a 0eef ee3a df01 4838 9977 7f37
00000230: 089d 253a bcde 9b37 0986 bc37 473b e139
00000240: 60b5 3439 5bd0 ce39 e9e2 ff39 6a8a ea39
00000250: f181 e039 c4ee b939 708e 7039 b6d4 b938
00000260: be92 9838 f150 b23a 15ab 043a 3ff4 1b39
00000270: 4122 0b3a ddde b439 706d 8939 eae3 4c39
00000280: a5c3 9339 dd59 663a 29f1 c839 8a27 c738
00000290: b840 ff39 2c18 e738 b889 bc39 bd9f 6e3a
000002a0: dff7 453a 262b 9f3a 8a92 cd3a d19d 3b3a
000002b0: ef49 8338 6da4 0639 4812 923a d669 8b39
000002c0: 0bda 9e38 2f30 a53a 24a1 733a a0b2 fc39
000002d0: d6b8 4b3a 5883 933a 3a51 ad3a 931e 2f3a
000002e0: 0f4a 783a ecb0 af3a 7ba3 9639 1366 f339
000002f0: 7b2c 813a a055 173b e66e 1f3b 250c 283b
00000300: a166 9a3a 262e a83a eac7 bd3a 2fcd 5239
00000310: 0821 6b39 2939 5a39 3ce7 bd38 095d 8539
00000320: 25db c639 5492 1939 84bb b639 45f3 d039
00000330: ad1c 6f39 4cd3 e139 3d0c a239 c8c9 fb39
00000340: 514c 9b3a cc7b f53a b31b 1a39 04f2 f139
00000350: 40ea 493a 7152 093a 5f68 de38 4785 cc38
00000360: 8055 9639 0004 7339 9cba 8239 9ef8 cc3a
00000370: 01ea b43a 365a bb3a 880a 493b eff5 4a3b
00000380: b671 543b 930a 3b3a 6248 3c3a 61c7 b038
00000390: 124a 163a 3dc4 2a3a 7739 4538 1074 4c3a
000003a0: c95c 6a3a a275 1d39 844e 0d39 3d36 a239
000003b0: d999 3a3a 12b9 363a 8db9 5b3a a600 743a
000003c0: 5623 c93a 3010 b03a 01a9 cd3a 37eb ac3a
000003d0: 4dfc 833a 0e5b 203a b9e2 703a bd59 7a3a
000003e0: 3aff db39 d1e5 9439 3bd6 093a 4c4b 0339
000003f0: d8d2 7c38 a8b5 4539 514f ae39 449f 9139
0.0007209145 0.00023573027 0.00014702565 0.0007180967 0.00020750021 0.00021679499 0.0011645504 0.0006945544
0.00068944524 0.00077298784 0.00031132344 3.8955102e-05 0.0007668259 0.00026553313 4.0107312e-05 0.00082199275
0.00030289046 3.5651465e-05 0.0001627351 0.0008976668 0.001601261 0.00012720688 0.000792315 0.001579627
0.00012365682 0.0008797829 0.0016720006 0.0011972331 0.0009073666 0.00043213525 0.0011354253 0.0012791328
0.0009773055 0.00060897024 0.0010698794 0.0011979083 0.002099382 0.0017870787 0.0013802741 0.0010249298
0.0008005824 0.00065766054 0.00015225091 0.0001287402 0.00011683916 0.00052090577 0.0001048354 0.0008835869
0.0005616331 0.00063094 0.0017870087 0.0001661143 0.0004143856 0.0016026609 0.00034611998 7.074145e-05
5.751215e-05 0.0005209987 0.00011524505 8.60761e-05 0.0010146574 0.00051706895 0.00031514422 0.00025743895
0.0004649505 0.000975118 0.0004828737 0.0009124293 0.0019351977 0.00073628704 0.0014217579 0.0025772396
0.0012167917 0.00067405595 0.00016949722 0.0012271007 0.0005261059 9.600422e-05 0.0011392666 0.0004864627
9.2098184e-05 0.0009347096 0.0005403262 0.00073842413 0.00068107113 8.9401045e-05 0.00045613974 0.0010083677
0.0005921337 0.00085138576 0.00074055296 0.00037557265 0.00048253514 0.0005165846 5.4266744e-05 0.000268193
0.00042021903 4.0284758e-05 0.00036662133 0.00028736037 0.00020843899 0.00018531864 0.00028222514 8.417759e-05
8.5548294e-05 0.0003608741 0.00015697574 0.00017999235 0.00097591046 0.0005864445 0.0008081348 0.0007442299
0.00022796338 0.00053805084 0.0011774414 0.00083312683 0.00095720973 0.00010216241 9.188705e-05 0.000114751536
0.00033430534 0.0003453278 0.00045741195 0.00086004724 0.0010845639 0.0011883233 0.0009568761 0.0010458574
0.0010068545 0.00047869497 0.00080109766 0.0005662874 0.00094545435 0.0007577253 0.00029187714 0.00052411086
0.0006680426 0.0018229203 4.768546e-05 1.522703e-05 0.000631765 1.8581159e-05 2.2473761e-05 0.0004295951
0.00017233705 0.0003944662 0.0004880645 0.00044735085 0.00042821423 0.00035463844 0.00022941246 8.861108e-05
7.275258e-05 0.0013604445 0.00050608936 0.0001487294 0.00053075334 0.00034498321 0.00026212214 0.0001953986
0.0002818379 0.00087871944 0.0003832665 9.496424e-05 0.0004868561 0.00011019441 0.00035960763 0.00091027824
0.0007551889 0.0012143597 0.0015683931 0.00071570004 6.260338e-05 0.00012840489 0.0011144364 0.00026591
7.574641e-05 0.0012602861 0.0009293726 0.00048198272 0.0007771378 0.0011254353 0.001322306 0.0006680276
0.0009471485 0.0013404167 0.00028732032 0.00046424623 0.0009855175 0.0023091808 0.0024327575 0.0025642004
0.0011779853 0.0012831136 0.0014479135 0.00020103597 0.00022423652 0.00020811394 9.055293e-05 0.00025437053
0.00037928778 0.00014645729 0.00034853455 0.00039854101 0.00022803499 0.00043072773 0.00030908166 0.0004802479
0.0011848306 0.0018728911 0.00014696903 0.00046147418 0.00077024475 0.000523842 0.000106052255 9.752303e-05
0.00028673932 0.00023175776 0.00024934567 0.0015638059 0.0013802649 0.0014293853 0.0030676443 0.0030969342
0.003241641 0.00071350596 0.0007182417 8.429471e-05 0.0005733083 0.0006514227 4.702198e-05 0.0007799277
0.00089402177 0.00015016508 0.00013476057 0.00030939459 0.0007118262 0.00069703266 0.0008381836 0.0009307958
0.0015345614 0.0013432559 0.0015690626 0.0013192658 0.0010069698 0.0006117084 0.0009189058 0.0009550115
0.00041961094 0.00028399986 0.0005258058 0.00012521184 6.0277845e-05 0.00018855056 0.00033246962 0.00027775217

exp_avg f4 [32]
00000000: c10d 2cb1 caa5 6631 0a7e 8cb0 384b 4f32
00000010: 4bb0 80b0 daec df32 840f 3e31 43d6 08b2
00000020: b138 4331 cc6f 7cb0 6d1b ec30 017d 2cb2
00000030: f051 3f32 a5b6 8031 86d0 1ab1 73d4 1a31
00000040: f4bb 1331 1458 d131 518e 9431 ad6a 4831
00000050: 738d 0731 bd16 b032 f669 4a32 a335 ff31
00000060: 07af a5b2 bcdd 70b1 92ee 6a32 dd1a 4eb1
00000070: 297f 6ab1 116f fe30 f282 83b2 ef9a 762f
-2.5037112e-09 3.3563645e-09 -1.0222163e-09 1.2066089e-08 -9.363331e-10 2.6068324e-08 2.7657459e-09 -7.964959e-09
2.840846e-09 -9.183594e-10 1.7179055e-09 -1.004014e-08 1.1136294e-08 3.7460546e-09 -2.2528481e-09 2.2530713e-09
2.1498154e-09 6.092714e-09 4.3235464e-09 2.9164469e-09 1.972549e-09 2.0499437e-08 1.178204e-08 7.4275746e-09
-1.9288121e-08 -3.5050638e-09 1.3674837e-08 -2.9992215e-09 -3.4123764e-09 1.8512499e-09 -1.5309954e-08 2.2428613e-10

exp_avg_sq f4 [32]
00000000: 3ae9 b026 0f1d a726 fd5c 2c27 e522 5927
00000010: 7483 4427 935f 6d27 f1f6 b726 db9b 1927
00000020: 502c ef26 be26 be26 429a 7f26 7a30 ef26
00000030: dbb7 fd26 9020 e926 fbe8 3d27 db9d 5827
00000040: 8b54 8926 3f10 3827 033c 1e27 15be 0427
00000050: 1fcb ff26 d0a6 a427 111b 4326 9d41 9127
00000060: 0ad9 8527 fe59 ff26 bc49 1e27 b9b3 0a27
00000070: a8b3 b826 f216 f726 55a6 ea27 c9ae 0b27
1.2275669e-15 1.1595829e-15 2.3920204e-15 3.0133716e-15 2.7271725e-15 3.2942168e-15 1.2765109e-15 2.1317505e-15
1.6595967e-15 1.31944e-15 8.8679956e-16 1.6597096e-15 1.7605236e-15 1.6176449e-15 2.6355318e-15 3.0061595e-15
9.5292e-16 2.5543937e-15 2.1959437e-15 1.8421724e-15 1.7749236e-15 4.5700002e-15 6.76909e-16 4.0316723e-15
3.715023e-15 1.7718572e-15 2.1966876e-15 1.9248775e-15 1.2816261e-15 1.7145287e-15 6.5128384e-15 1.9384876e-15
