CS330/XCS330-PS3/src/submission/logs/maml/omniglot.way_5.support_1.query_15.inner_steps_1.inner_lr_0.4.learn_inner_lrs_True.outer_lr_0.001.batch_size_16/state14600.pt (torch, 360802 bytes, 30 tensors)

conv0 f4 [32, 1, 3, 3]
00000000: 4eee 513d 4995 d83c a54b b1be ac45 42bd
00000010: 1fe4 a1be 8d05 16be 53c1 c73c 0665 373e
00000020: 6905 fe3d 4bd3 403e ea32 f43c 88f7 89be
00000030: ec63 85bd 9081 2c3b 88c5 9fbe c225 a13d
00000040: 7988 6cbd 4433 8abe 2985 9abe 1e5d 383d
00000050: 5f7e 013e 276f b2be fbd1 973c 7f10 bf3d
00000060: b046 99be 78b8 82bd d65e 843c ffb3 103e
00000070: 2657 eebd 1cb5 b5be 37c7 2e3d ea83 bf3d
00000080: 6093 853c d496 90be 5b00 913d f08f 093e
00000090: 1bad 8c3d 62f4 d23d a41a 883b aa79 a43d
000000a0: e0b5 fc3d 6725 1dbe fe82 9dbe 98f5 bdbe
000000b0: b8fd 94be e345 01bc be92 85be 58ec fbbc
000000c0: 9c55 b43b ddc7 18be 69b3 6e3e 7e9c 17be
000000d0: c5d7 0abe 9d57 133c 353b c0bd ed56 8fbe
000000e0: 4cf6 5abe d947 563c 2657 a3bd 66d5 7ebe
000000f0: 6a6b 6b3e ec26 063d 1eca 42be 021d 3ebe
00000100: 0249 f4bd ef55 f0bd 0ab4 88be 8859 b63c
00000110: 76de 003e 022f 23be 6e8d 143d 3ab0 163e
00000120: 5e13 183d a582 663d a683 a4be 1d94 233e
00000130: 9134 d43d 32d6 bdbe 0d67 e53c a713 a9bc
00000140: bf4e b9be 1cae e63c a8db b33d bc04 20bc
00000150: 8a36 cebd 5667 0ebf 9d69 45bc c37b 123e
00000160: ab05 aebd 61c9 aa3d dcaa b0bb 8756 803d
00000170: eeff faba d46a 163e f1b3 98be f152 b9bd
00000180: 9722 0cbe 0750 c1be 8c2d 423e 1deb 23bc
00000190: 743e fe3d 3833 4f3e 6e16 013d cd3f 1e3e
000001a0: d2a9 7c3e c464 2c3e 7039 0a3e 5bbd 853e
000001b0: 3efd 323e af7a 51be 8b55 d63d 6b60 8cbd
000001c0: ac3d c4be 032f bd3d 9ee8 723c 133d 823b
000001d0: f0c0 d03c 4c66 88be f5bd b8be 49e6 89be
000001e0: 855a 8bbd cb6e 6d3c ac50 29bd b9e7 2dbd
000001f0: 2f5a a63d 5b2a 6b3e bbdc 33bc 7835 893d
00000200: 91fc 8f3e 8fbb bdbd 381d 8cbc 9319 abbe
00000210: ff54 8d3c 9cae 993c 7c12 27be 7be7 e8bd
00000220: 3758 f5bd 62aa 3d3e 36e0 0dbe 698a 99be
00000230: a8c4 dcbd be2e 9fbe 6dbf 48be 571c dbbd
00000240: 3162 84be 2b3a 4b3d 699f 263e 810e 133e
00000250: 1d21 553d 9764 0e3c a121 14bd aea6 9bbe
00000260: a3d6 7cbe 16ea 483e 102a 3fbc 7c62 80be
00000270: 718d 23bd 469e febd 24b4 bdbd b87a 59be
00000280: dfd9 e9bd 24d1 b13d 1085 ab3d b42b b5be
00000290: b804 d2bd 0264 c0be 7f78 cd3d 8bdc 133e
000002a0: 0fb2 a3bd 00e5 ca3d 7685 02bd 0fa0 15be
000002b0: 6dcc aabe 372d 2ebc 3970 523e d5df 343d
000002c0: 5967 9fbe ffed b2bd 7091 083e 1060 9bbd
000002d0: 0f58 92bd 3b8d d33d 39a8 d73d ce88 6abe
000002e0: c322 073d 16ac 4a3e 62f7 3dbe 4b15 94be
000002f0: 5b8d 763c 4f39 183d 306b 623c 4dac 163e
00000300: 1f63 0ebd cbed 733d 7041 8b3d 193a 9bbe
00000310: 60a4 b6be 8f72 b4be 1ede a1be ccb4 abbd
00000320: 386f 813e b4d3 31be ec61 c03d 1c80 303d
00000330: 31df bcbd edb8 1f3e 65ca 6cbe abb1 0ebe
00000340: 8424 923d b6e0 e43c 9d64 80be a3fc 573d
00000350: 8f39 e63d 7720 183c 12cb 9dbe 5ffb 87be
00000360: 734b b8be 9c72 bfbe 7476 a8be 74c2 913b
00000370: c590 123e 5791 a5bb 9209 e53c 739b e63d
00000380: ab27 773c cd05 21bd 4353 333d ab19 c5bd
00000390: 3b53 6dbd adb7 d0bc ed5e cbbe 753f 68bd
000003a0: cbda 693e f969 7bbe f72e 05bf dfd7 34bd
000003b0: 26d2 b0bc 04f8 0cbd 2579 133d bbed 44bd
000003c0: c8f3 493e 2f93 7abd 410b 5c3c f152 c43d
000003d0: a0c4 fcbc 4c5b 08bd fabd 363d dd5f 333e
000003e0: 6dfa 35be 7b42 8abe 2d14 643d 65ca 91be
000003f0: 12dc a3be afde f0bd 24cc 303e b38c 7139
0.051252656 0.026438372 -0.34628025 -0.047429726 -0.31619355 -0.14650555 0.024384176 0.17909631
0.12403376 0.18830602 0.029809434 -0.26946664 -0.06513199 0.0026322342 -0.31205392 0.0786853
-0.057747338 -0.26992238 -0.30179718 0.04501068 0.12645863 -0.34850428 0.018532744 0.09329318
-0.29936743 -0.06382841 0.016158503 0.14131163 -0.11637716 -0.35489738 0.042670455 0.093513325
0.016305625 -0.28240073 0.07080146 0.13433814 0.06868955 0.103005186 0.0041535664 0.08031018
0.123393774 -0.15346299 -0.30764002 -0.37101436 -0.29099822 -0.007890197 -0.26088518 -0.030752346
0.0055033695 -0.14919992 0.23310627 -0.14805791 -0.13558872 0.008993057 -0.09386293 -0.27996007
-0.21383017 0.013078653 -0.079756066 -0.24886093 0.22990194 0.032751963 -0.19022414 -0.18565753
-0.11927988 -0.117351405 -0.2669986 0.022259489 0.12584862 -0.15935901 0.03626769 0.14715663
0.037127845 0.056276936 -0.3213169 0.1597447 0.10361589 -0.3707748 0.02800324 -0.020639254
-0.3619289 0.028159194 0.087821305 -0.009766754 -0.10068996 -0.5562643 -0.012049106 0.14305024
-0.08497175 0.08339191 -0.005391462 0.06266504 -0.0019149759 0.14689189 -0.29824784 -0.09049023
-0.1368507 -0.3775637 0.18962687 -0.010004786 0.12414256 0.20234382 0.03151553 0.15454026
0.24674156 0.16835314 0.13498473 0.2612103 0.17479417 -0.20456956 0.10465535 -0.06854328
-0.38328302 0.092374824 0.014825968 0.003974566 0.025482625 -0.26640546 -0.36082426 -0.26933506
-0.068043746 0.014491747 -0.0413367 -0.042457316 0.0812267 0.22965376 -0.010977919 0.066996515
0.2812238 -0.092642896 -0.017103776 -0.3341795 0.017252443 0.018760018 -0.16315645 -0.113722764
-0.11979716 0.18522027 -0.13855061 -0.2998841 -0.10779697 -0.3109035 -0.19604273 -0.10698765
-0.25856164 0.04961602 0.16271748 0.14361002 0.052033532 0.008690975 -0.036164884 -0.30400604
-0.24691252 0.19620547 -0.011667743 -0.25075138 -0.03992981 -0.12432532 -0.09262875 -0.2123822
-0.11418509 0.086824685 0.08374989 -0.35384905 -0.10254806 -0.375763 0.100327484 0.14439599
-0.07992946 0.099069595 -0.03186556 -0.14611839 -0.3335909 -0.010630897 0.20550622 0.044158775
-0.31133536 -0.087368004 0.1333673 -0.07586682 -0.07145702 0.10329672 0.10530133 -0.2290375
0.032992136 0.19792208 -0.185514 -0.28922495 0.01504835 0.03716403 0.013819501 0.14714165
-0.034762498 0.05955295 0.067995906 -0.30317762 -0.35672283 -0.3524365 -0.31614774 -0.08384094
0.25280166 -0.17365915 0.09393677 0.043090925 -0.09222258 0.15597887 -0.23124082 -0.13934962
0.07135871 0.027939182 -0.25076762 0.052731168 0.11241447 0.009285084 -0.30818993 -0.26558968
-0.35995063 -0.37392128 -0.32902873 0.0044482294 0.14313038 -0.0050527263 0.027958665 0.11260118
0.015085141 -0.039312173 0.043780576 -0.096240364 -0.057940703 -0.025478208 -0.3972086 -0.056701142
0.22837369 -0.24552144 -0.5202479 -0.044151183 -0.021584582 -0.034416214 0.036004204 -0.04807828
0.19721901 -0.06117552 0.0134304175 0.09586132 -0.030855477 -0.033290192 0.04461477 0.17517038
-0.17771311 -0.27003846 0.055683304 -0.28474727 -0.32003838 -0.117612235 0.17265373 0.00023035966

b0 f4 [32]
00000000: 914a 9d3d e533 8d3d 7169 14be 0226 4c3e
00000010: 74b2 b53d a3f8 7cbd be51 dd3d ec70 023d
00000020: 106b 553c a4ef 1c3e 1ac9 1fbe 4297 3d3c
00000030: da5f 7c3d 763c 2c3e bee9 143e 5655 103e
00000040: d38b bbbc 1fb4 7abe 6e8e c5bd 1df0 2abf
00000050: 648a c5bd 407a 9fbe 605a 2d3d 00c8 f6be
00000060: e41f 75be f373 87be e945 8c3d 2b60 063c
00000070: 915a 963d 6eb2 853c 84ba 153e f067 87bd
0.07680238 0.06894664 -0.14493348 0.19936374 0.08871928 -0.061760556 0.10806607 0.031845972
0.013026014 0.1532579 -0.15604058 0.011571707 0.06161485 0.16819939 0.1454229 0.14095053
-0.022893822 -0.24482773 -0.09646307 -0.66772634 -0.096455365 -0.31147957 0.042322516 -0.48199463
-0.23937947 -0.2645565 0.06849272 0.008201639 0.07341493 0.016320433 0.14621931 -0.066116214

conv1 f4 [32, 32, 3, 3]
00000000: a29f 5bbd af27 a63d 6187 3bbd 1ed6 a1bd
00000010: 8df7 dcbd 76d0 183e 93fe 22be 1936 c43c
00000020: 004a 8a3e 3549 033e c5c1 38bb f81c bb3e
00000030: 592f 893d 880e bdbd 50b0 6abe c47d b9b9
00000040: 9682 64bd 758f fbbe 7460 3a3e 80ca 193e
00000050: 6320 31be 4a71 f33d c1ef f43d b8c3 61bd
00000060: 7ddb 87be a886 ffbc 6746 d63d 95fe 503d
00000070: 8be2 87bc 4aa0 96bd 673d 18be 3268 ae3d
00000080: 168f 19bc f02f 15be f793 9a3c d919 13bc
00000090: 6bd3 46bc 2508 2bbd 7713 17be e4bf 4f3e
000000a0: ae02 dc3d e1c4 703e 98ac 333e 07ea 5f3e
000000b0: 52c5 633e bbb3 cebd ba4d c9bc 5fad eabd
000000c0: 4cf4 b1bc b461 0bbc bc75 a7bd 41d3 12bc
000000d0: 8936 d93d b1b5 3abe 9aa5 4c3e cf63 d8bc
000000e0: 6f3f f8bd 523d 1b3e 61ed 5abe 11f6 93be
000000f0: 4c9f b1bd 378f 023d ce85 a8bd 0de1 913d
00000100: d6ce 293e f28a ba3d beb7 243d fb83 813e
00000110: b68f 1ebd 9756 bb3d 2f1b a73d a9f5 0fbe
00000120: 0897 f53c f978 8e3b d724 2f3e b1fb adbd
00000130: abbe 02be 3eac b4bc 53ec 35be 1870 debd
00000140: 1714 c9be 6837 58be 614a d1bb b004 583d
00000150: 9463 b93d 6129 8d3c 4338 a43d 1491 2e3e
00000160: e950 2ebd 828f 8c3d 9620 603e baf7 ef3c
00000170: 31cb 91bc 1b4b 663d e68e 883d b1cb 5ebe
00000180: 5e55 653c c4b4 e23d f5df 89bd bc01 c4bd
00000190: a6a4 7abd 6679 2ebe c592 293c db01 603b
000001a0: 8928 2c3d fdd8 553e a7ed 103d 29d5 14bd
000001b0: 47c4 61bb 32f0 613e 5045 3b3d 572c 8ebc
000001c0: d9b8 43bd 77aa 223e c811 15be e4bd 14be
000001d0: ff99 0b3e 4e13 c2be c341 3c3e 9663 e73e
000001e0: 5107 5ebe ff5f 3fbe 7b16 0b3b 0f89 97be
000001f0: c1f6 05be 4e04 12bd 1a7d 003e a214 99bc
00000200: b6d9 453d 0934 843c b031 8e3d 4a96 bb3d
00000210: 4d32 2bbc a915 d73d 97c2 00be 4207 503e
00000220: 9e24 a03e 99f6 183e 3cf4 843e 37be 59bb
00000230: d99a f6bb 811e c93e 9bfc 643e 7909 7f3d
00000240: 233a 9c3d 11ec e1bd 3fe5 963e ff2f c9bb
00000250: c42c f63c 97dc 01bd 7a8e 04be 3826 05be
00000260: 64d6 71bd 8ea7 33bd bb82 4bbd d81d 26bc
00000270: f790 94bd e8e8 fa3d 8712 c5bd 8446 713c
00000280: 72bb 4f3e d2bc 2a3d dfc9 193b beeb 84bd
00000290: 0b6d 853d adbd b43d 72c5 053d 0ffe 3bbe
000002a0: 38f4 a3bd bb45 7c3d d42a 43bd 089a 7b3d
000002b0: 8e72 15be 6944 2bbe 034c d1bd 31ba 30be
000002c0: 828a 78bd d607 163e 1026 0a3e 73bf 163c
000002d0: c4de f43d e363 ab3d ef0e 363d 302b 0c3b
000002e0: 88a0 e83c dbf7 d23d 7cae 99be e754 b8be
000002f0: 4ff4 9cbd f351 0b3e 9517 44be 32dc 4cbd
00000300: 6bd1 573e 4d33 c73d a38d b2bd 6c1b f3bd
00000310: 8803 1fbc 6478 ed3d 2e21 d0bd 5544 a43c
00000320: 5ec4 793e 305d bfbd 4112 0dbe 0419 11bd
00000330: c1c1 87bd d341 c7bd cf38 c33d 1d42 6e3c
00000340: c9c3 a8bd bbef 84be edd5 27be 0382 9abe
00000350: 599a 43be fca6 abbd 662a fc3d 961f cd3d
00000360: 37e8 cebe 4dc1 58be deda 1e3e 94fa f9be
00000370: 6679 fdbd e738 4c3d 451e 69be 25cd 47be
00000380: 63f8 4c3d 88aa b73d dbd4 0b3e 8bce 3ebb
00000390: 7cf3 483e 518a 973c 9310 d6bc f1a3 893e
000003a0: de67 d1bd 73d8 29be 2c12 193d 21ba 3cbd
000003b0: 81d2 f53c d323 873d 6142 bd3d d7a7 713e
000003c0: c6cf 933c 2df3 ba3d f819 073d 0d23 f13b
000003d0: 9acf 3a3a ac27 34bd 6da0 783b 88e9 1d3d
000003e0: adce 433d 01e4 b33d 470d 1e3d faf9 c8bd
000003f0: 9c59 643e 8029 be3d 7d90 fe3d 910c c6be
-0.053619035 0.08113038 -0.045783404 -0.07902168 -0.10789404 0.14923272 -0.15917425 0.023951577
0.27009583 0.12820895 -0.0028191668 0.3654554 0.06698484 -0.09231287 -0.2291882 -0.00035379652
-0.0557886 -0.49132887 0.18200856 0.15018654 -0.17297511 0.118868425 0.11959792 -0.055118293
-0.26534644 -0.031192139 0.10462647 0.05102404 -0.016587516 -0.073547915 -0.14867173 0.085159674
-0.009372493 -0.14569068 0.018869383 -0.0089783305 -0.012135367 -0.041755814 -0.14753519 0.20288044
0.107426986 0.23512603 0.17546308 0.21866618 0.2224324 -0.100928746 -0.024573196 -0.11458849
-0.021722935 -0.008507181 -0.08176753 -0.0089615 0.10606105 -0.18233372 0.19985047 -0.02641478
-0.12121474 0.1516011 -0.21379615 -0.2889867 -0.086729616 0.03187486 -0.08228646 0.07123003
0.16582808 0.09108533 0.040214293 0.25296006 -0.038711272 0.09147375 0.08159482 -0.14058556
0.029979244 0.004347917 0.17103897 -0.08495272 -0.12768047 -0.022054788 -0.17765932 -0.10861224
-0.3927314 -0.21114886 -0.0063870405 0.052738845 0.09052196 0.017231645 0.080185436 0.1704753
-0.04255763 0.068633094 0.2188743 0.02929293 -0.017797085 0.05622397 0.06667881 -0.2175739
0.013997404 0.110696346 -0.067321695 -0.09570643 -0.061192177 -0.17038497 0.010349934 0.0034180793
0.042030845 0.20883556 0.035382893 -0.036336098 -0.0034449266 0.22064283 0.0457204 -0.017355127
-0.047783706 0.1588534 -0.14557564 -0.14525563 0.13632964 -0.37905353 0.18384461 0.45193166
-0.21682478 -0.18688963 0.0021223116 -0.29596755 -0.1308241 -0.035648637 0.12547722 -0.018686596
0.04830333 0.016138094 0.06943071 0.09159525 -0.010449004 0.10502178 -0.1257423 0.20315269
0.31277937 0.1493782 0.25967586 -0.003322495 -0.0075257835 0.39281085 0.22361986 0.062264893
0.07628276 -0.11031354 0.29471776 -0.006139755 0.030050643 -0.03170451 -0.12944975 -0.1300286
-0.05904235 -0.043860964 -0.04968522 -0.010138951 -0.07254212 0.122514546 -0.096226744 0.014726285
0.20286348 0.04168398 0.0023466272 -0.06490277 0.06514939 0.0882524 0.032659 -0.18358634
-0.080055654 0.061589938 -0.047648266 0.061426193 -0.1459448 -0.16725315 -0.10219576 -0.17258526
-0.060678966 0.14651427 0.13491082 0.0092009185 0.11956552 0.08368661 0.044447836 0.0021388046
0.02839686 0.10301181 -0.30015934 -0.36002275 -0.07663786 0.1360548 -0.19149621 -0.050014682
0.2107598 0.09726582 -0.08718421 -0.11870465 -0.009705432 0.11595228 -0.101625785 0.020052115
0.24391314 -0.09343946 -0.13776495 -0.035424247 -0.066287525 -0.09729352 0.0953232 0.01454213
-0.08240468 -0.2596415 -0.163902 -0.30177316 -0.19101848 -0.08381459 0.12312774 0.1001579
-0.4041154 -0.21167488 0.15513179 -0.48823988 -0.123766705 0.049858954 -0.22765453 -0.1951185
0.050041568 0.08968073 0.13655417 -0.0029114808 0.19624132 0.018498572 -0.02613095 0.2688289
-0.10224889 -0.16586475 0.037370846 -0.046075944 0.030007603 0.0659863 0.092411764 0.23599182
0.01804341 0.09128413 0.03298375 0.0073589147 0.0007126272 -0.043983147 0.0037937418 0.03855279
0.047804523 0.08783723 0.03858688 -0.09813304 0.22299808 0.09285259 0.12429903 -0.38681462

b1 f4 [32]
00000000: bf14 b93b 6559 b63b 8214 0cbd 0daf 94bd
00000010: ca89 5abd 9b0b 94bb 8b34 5e3c a13c 353c
00000020: d446 fdbc 6a79 3abd 14ea c5bd e41d 08bd
00000030: 0f21 54bc 88c9 443c 38f0 52bd 401f 56bd
00000040: 65a7 ecbc 8e48 1ebd 1827 7ebd 21ad 35bd
00000050: 433d 313d 8d0e 903c a821 543d 49b7 aabb
00000060: d83c 1dbd a041 753d 5bed 86bc 152a 143e
00000070: 3a9a 83bc b55c 133c c797 9bbc 27b3 593b
0.005648225 0.005564856 -0.034199245 -0.07259951 -0.053354062 -0.004517985 0.013562332 0.011061818
-0.030917563 -0.045525946 -0.096637875 -0.03323163 -0.012947335 0.012010939 -0.05149862 -0.052275896
-0.028888414 -0.038643412 -0.062049 -0.04435456 0.043271314 0.017585063 0.05178991 -0.0052098376
-0.038388103 0.059877038 -0.016470602 0.14469178 -0.016064752 0.008994271 -0.018993272 0.0033218355

conv2 f4 [32, 32, 3, 3]
00000000: 3d7e edbc a4a1 eebb e040 d13c bd26 2fbd
00000010: 9f02 a43d c1ec 913d 6026 bb3d 6e18 1e3e
00000020: 66ea 233e dfc3 84bc 5f0e 1b3d e1e8 563d
00000030: 9e3c 1c3e 7f02 9f3d 8dab 5e3d 585e d43d
00000040: f8e4 823c f8eb 383d a98b 0a3e 48b9 9e3b
00000050: b16f b9bb 2ba2 d13d 8f87 083e 00a1 1c3c
00000060: 9693 9a3d 5663 c93d 8479 ba3d 2da6 18be
00000070: 9669 d4bd 8012 293c 6baa 3ebe fc8a 1cbe
00000080: b5fe 23bd 3b54 98be 41c1 87be f381 32be
00000090: 3c21 12be 446f 3f3d 9d45 0d3c c3b0 14bd
000000a0: 218c 4ebc a04f d03d 4604 36be 6112 d0bd
000000b0: 31b8 593d 6e5f f5bd 8191 b3bc b1b8 bd3c
000000c0: dac5 aabd 0fab f7bd fae0 e83c 2043 5bbe
000000d0: 7b49 17bd 6ead 88bc 7c21 08be 9d76 fdbb
000000e0: 68b4 e8bc 816a bfbc 0261 a13c 406e 333d
000000f0: 6fb5 7e3d cc16 3c3d 03b5 01bd 4f6d a53d
00000100: a3f1 403d b3c5 08be 5c17 8e3e c73f 973e
00000110: b537 c13d 6e11 763e e3b9 623e 69bc 593a
00000120: ced9 b1bd 0c00 0ebd 6001 8d3c 0931 82bd
00000130: 5a72 d4bd 2dc5 17bd 0ce1 8dbd 0ac4 88bd
00000140: bb63 06bd b2a6 2ebe 6293 a0bd 89b9 2cbe
00000150: 2d81 f7bc fe24 433c c6a8 48bd 946c 0abd
00000160: e596 8a3d c33e 38bd dd59 9d3c 999b 973c
00000170: 15b0 f2bd 9a23 2a3e 2414 203e 0c13 a33d
00000180: 6b94 1e3e a9ca 643e 3ddb f03b 226b 75bd
00000190: 32c9 11be a82a aebd eb2e b7bb 5967 08bd
000001a0: 9bba 08bd 3dc0 283c db04 84bd 612a a7bb
000001b0: 2616 c6bd 453b ebbd 44d9 17be 6906 d8bb
000001c0: 5439 71bd f573 13bd eb47 35bd f3be 9fbc
000001d0: 2f8e 02bd 0fc1 8dbe 1c11 86be 0158 16be
000001e0: e29e c0be bce3 63be 9657 19be 13ff f3be
000001f0: b325 08bf 921c d6be 2d44 95bd 2184 52bd
00000200: 323e 21be 0c57 95bd db58 b23c 0cd8 1bbd
00000210: 8650 05be 6af4 19be 5770 99be 20cb 7dbd
00000220: eac4 b2bd 53db 37bc 9ba7 473d f87a 993d
00000230: bcb8 303d cd49 513d b6b0 bf3d e0ce e03d
00000240: bac2 21be ee95 a7bd 6922 c0bd 1ae4 80be
00000250: 1410 90be c91b 6bbe 30b2 4cbe 95c8 7fbe
00000260: fe9c 19be 5d31 3f3c ca97 d43d 6523 933b
00000270: 16ab 4d3e a3e6 e73d fef9 423e ef44 3abc
00000280: 43d9 4ebd a7ee 04bd 0a79 07bd 71af 2abd
00000290: c0fc 17bd 7910 b4bd 46fe ca3d 3068 bdbc
000002a0: d4fe 2ebe 6680 45bc 47ac 2cbe 780e 163d
000002b0: 63eb 5abc b116 c9bc b7bf e03a 522d 063d
000002c0: 1027 9abd 1c35 e33c be18 bbbd b87c 3ebb
000002d0: 459f 82be 32ea 0cbe b6e4 94be 7f3c 96be
000002e0: e7f7 38be 6b91 7fbe 782f 9bbe 967f 84be
000002f0: f289 65be 86c0 c2bc f32a 2a3b 0a7e 21bd
00000300: a5d5 05bc d015 043d c4e3 61bd bc38 403d
00000310: e9ac 363c e83b 3a3e c596 533b e854 683c
00000320: 8429 e8bd e45e f63d cd5d ab3d 5844 bd3c
00000330: 79b5 ac3d 0269 df3d a0e8 e1bc cd42 d03d
00000340: 9a9f 2d3e 95f9 e6bc 55eb 7e3e 4363 483e
00000350: 0918 953c 2dcf 473e 5f42 093e f432 e23d
00000360: f417 923d 95ce 6b3c b6c9 94bd 269a 413d
00000370: 0478 db3d 2e93 49bd 2a54 92bb a085 873c
00000380: 8d25 6abd 8ff3 c9bb 5a5d 40bd 0f92 e2bd
00000390: ac8d f33d 4148 96bd d248 36bc c28c f63d
000003a0: d9e0 74bd 3f5c ddbd 983b 543d cd83 da3d
000003b0: 800e a23a c0ac 243e 0f8c 6d3e 4084 573e
000003c0: c627 4b3e 242b 7b3e 7cfc 693e 0def d73d
000003d0: 5700 463e b532 ef3d db01 423e 72a9 8a3e
000003e0: b452 353e 2e1c 283e 7b70 9a3e 107e 903e
000003f0: 4313 30be 7833 ccbd ea0d e0bd c604 30be
-0.02899086 -0.0072824527 0.02554363 -0.042761553 0.080083124 0.07125235 0.09138179 0.15439007
0.16007385 -0.01620668 0.037855502 0.052468184 0.15257499 0.07764148 0.054362822 0.10369557
0.015978321 0.045146912 0.13529839 0.0048438646 -0.0056590666 0.10236009 0.13332961 0.00955987
0.07547681 0.098334 0.091052085 -0.14907141 -0.103717014 0.010319352 -0.18619697 -0.15287393
-0.04003783 -0.29751763 -0.2651463 -0.17432384 -0.1427049 0.04673697 0.008622554 -0.036301386
-0.0126066515 0.10171437 -0.17775068 -0.101597555 0.053154174 -0.119810924 -0.021919968 0.023159357
-0.083385184 -0.12093174 0.02842759 -0.21412325 -0.03693531 -0.01668426 -0.13294023 -0.007735087
-0.028406337 -0.023366215 0.019699577 0.043806314 0.062184747 0.04592018 -0.031666767 0.080774896
0.047105443 -0.13356666 0.27752197 0.29540846 0.094344534 0.24030086 0.22141223 0.00083059684
-0.08684121 -0.034668013 0.01721257 -0.06357009 -0.10373373 -0.037053276 -0.0692769 -0.066780165
-0.032809954 -0.17055777 -0.07840611 -0.16867651 -0.030212963 0.011910675 -0.04898908 -0.033794954
0.06767062 -0.04498173 0.01920789 0.018506812 -0.11849991 0.16615143 0.15632683 0.07962617
0.15486304 0.22342934 0.007350354 -0.059916623 -0.14236906 -0.0850423 -0.00559031 -0.033301685
-0.033381086 0.010299739 -0.064462386 -0.0051014875 -0.09672193 -0.11485914 -0.14828974 -0.006592561
-0.058892563 -0.035999257 -0.04425804 -0.019500231 -0.031873878 -0.27686355 -0.26184928 -0.14682008
-0.37621218 -0.22254843 -0.14974818 -0.47655544 -0.53182524 -0.41818672 -0.07288394 -0.05139554
-0.15746382 -0.072919935 0.021770885 -0.038047835 -0.13018999 -0.15034643 -0.2996852 -0.061961293
-0.087289646 -0.011221725 0.048743825 0.074941576 0.043144926 0.051095773 0.09359877 0.10976958
-0.15796939 -0.08182894 -0.09381563 -0.25174028 -0.28137267 -0.22959818 -0.19989848 -0.2497886
-0.15001294 0.011669484 0.10380514 0.0044903033 0.20084795 0.11323287 0.19040677 -0.011368974
-0.050500166 -0.03245416 -0.033074416 -0.04167122 -0.037106276 -0.087922044 0.0991178 -0.02312097
-0.17089397 -0.012054538 -0.16862594 0.036634892 -0.013361785 -0.024546953 0.0017146979 0.032758065
-0.07526982 0.027735285 -0.091355786 -0.0029066037 -0.25512138 -0.13761213 -0.29080743 -0.2934303
-0.18063317 -0.24957816 -0.30309653 -0.2587859 -0.22415903 -0.023773443 0.002596554 -0.03942684
-0.008168613 0.032247365 -0.055148855 0.046929106 0.011149623 0.18186915 0.003228591 0.0141803995
-0.113360435 0.12029818 0.083675005 0.023103878 0.08433051 0.109087005 -0.027576745 0.10168991
0.16955414 -0.028195182 0.2489446 0.19569115 0.018199937 0.19512625 0.13404225 0.11044875
0.07133475 0.014392515 -0.07265036 0.047266148 0.107162505 -0.049212627 -0.0044655995 0.01654321
-0.057164717 -0.0061630677 -0.046964027 -0.11063015 0.11892256 -0.07338 -0.01112576 0.12038566
-0.059784744 -0.1080861 0.051814646 0.1066967 0.001236394 0.16081524 0.2319796 0.21046543
0.19839391 0.24528176 0.22850221 0.10543642 0.19336067 0.116795935 0.1894602 0.27082402
0.1770733 0.16417 0.3016394 0.28221178 -0.17194848 -0.099707544 -0.10940154 -0.17189321

b2 f4 [32]
00000000: af8d 7fbd ae49 5bbd 6ccb 263d a535 253d
00000010: 84c4 243e f060 c73d 1b6b c73d 8121 9ebc
00000020: 0c6c a83d 2541 b53d 6e03 043e 4dc9 76bd
00000030: e336 653d 42dc 003e 7eb4 e13d 1560 2dbd
00000040: 1881 883d 2047 75bd 6de8 c73d 9c50 823d
00000050: a6e9 6bbd c49f f13d 5f02 b63d 066e 313b
00000060: ae0a fbbd c8e4 e43d a68a 0f3e 1dd4 2b3b
00000070: 61b6 993d 097f 19bd 09de 8fbc 3594 d93d
-0.06239098 -0.053537063 0.040721342 0.040334363 0.1609059 0.09735286 0.097372256 -0.019303085
0.08223733 0.08850316 0.12891933 -0.06025057 0.055960547 0.12584022 0.11020754 -0.04232796
0.06665248 -0.059882283 0.097611286 0.06363031 -0.05759587 0.11798051 0.08887171 0.0027073636
-0.12257896 0.11176449 0.14017734 0.0026218959 0.07505489 -0.037474666 -0.01756193 0.106239714

conv3 f4 [32, 32, 3, 3]
00000000: 3584 823d a844 46bd a60d 063e 8251 26bd
00000010: e507 0e3d 9585 f63c f887 e43d d9c1 a13d
00000020: e825 b13d 2ada 253d edcb 243d daaf 8c3d
00000030: b9d9 1d3d 5b9a faba 8ac9 9c3d a092 f13d
00000040: 75a4 e93d e796 fa3d ad59 6fbd c68c 483c
00000050: 5c6e dc3d f01b 23bd fe95 5ebc 1aed a73c
00000060: 7afd f7bd bead 25bc 242c ccbc d6a3 46be
00000070: 5c12 0abe 217d 3b3d c0f0 acbe eb3d 8fbe
00000080: 08df d6bd 5250 d8be 5d03 b9be 4c31 80be
00000090: e5af 63bc 7da4 85bc 7479 d73c a1b2 b0bd
000000a0: 9ef4 033d d4c7 32bd d3ea 1abd 1856 98bd
000000b0: 6f07 ccbb 667d 353d 72e2 bcbb 783a 863d
000000c0: b63e 293c 5fa2 97bd 46fa c3bb 9db6 883d
000000d0: 9105 6c3d 0e3c 7c3d 5c19 c2bd 4813 4b3c
000000e0: 3d09 c93c 27e8 b4bc 6784 fc3c c053 dd3c
000000f0: ba4e 06be 9616 5cbd c9d2 d0bc 4493 333d
00000100: c48f 9e3d cd26 ddbb 2d31 203e 1628 933d
00000110: 69df 963d af97 c33d f91e f13d 3856 0c3d
00000120: 32c6 16be c150 a73c d412 54bd 0e5c 45bd
00000130: 2b60 9b3d c7e4 57bd a0fa 00be 1616 83bd
00000140: 60f6 68bc 02ab 353b 9bee 63bd 686b 343d
00000150: a384 e3bc 42e0 4cbc 7069 05bc c123 61bd
00000160: b307 87bd 8200 eb3b 3438 04be adf4 c7bd
00000170: d50c b3bd a936 24be 4c27 d53a 51cf 59bd
00000180: 7e25 55be 99d4 e6bd 2231 53bd 6ace 883e
00000190: 0b6b adbd c1db 923e 88c8 383d 3bcb 81be
000001a0: 8c91 af3c 0d64 bd3e 4bea 17bd 1953 853e
000001b0: 8eb2 eabd fc6c cabc f802 e43c 616d 3dbd
000001c0: 54d5 f53d 16bf 5fbc 5aae c4bd 64b7 a2bd
000001d0: 98a7 48bd 1fdf 2b3d 9dff 423d 8fe5 c43d
000001e0: dd4c c33d af2b 31bd ff90 763d 190e be3d
000001f0: e2d7 d2bc 6c7b b23d 2ba0 cbbd a870 a5bd
00000200: 30fa 3f3d a2d0 19bd 3615 c63c 8e30 8dbd
00000210: d587 adbd 1c6f 0fbc 455f 46bd 226e afbd
00000220: 596f fc3c dc76 5b3d b92d 4f3d 0459 933c
00000230: 7170 20bc 142d adbc c7f2 1d3d fde8 803b
00000240: 0e48 ed3e 2ecb 023e 5cd1 ed3e 5a98 313c
00000250: 9ddc f9bd f27d 123e 7a71 9b3e 3b64 c03d
00000260: 9845 b93e 3faa 2ebd 7355 b0bd 45a4 1fbd
00000270: bd42 f4bd d043 173d d5fe 80bd bb66 31be
00000280: fb3f 94bd 7b6a e5bd 588e 91bc 42c8 18bd
00000290: fe4d 9fbb eef0 793c e0a7 ecbc 802c bb3c
000002a0: e9d2 33bd f969 4dbd 3dbb 28bd 9b21 3f3e
000002b0: 07fb dd3d 123f 783e ad77 de3d 30be d9bd
000002c0: 1bbc f43d b53d 8b3e ede5 023e 4603 9a3e
000002d0: 23fd febd 773f 74bd 3b77 f2bc a133 78bd
000002e0: ff7e 49bc fca8 d0bc 2980 45be 36fe d9bc
000002f0: c94b 16be e34d 01be 02ad a9bc 272e eebd
00000300: 4cc6 0dbe d3dd 4cbd 940a 463b c146 12be
00000310: 590e 97bd 854f 25be 29f0 c03e f7a2 333e
00000320: 8989 953e 2676 133e f341 243d 0989 6b3e
00000330: 6508 a73e 4f67 0e3e 54d2 ad3e c60b e6bd
00000340: 3ca7 9fbd 73fe 6dbc d232 883a 15d8 a1bd
00000350: 439f 0fbe 30b7 f1bd a77a d5bd 29bc 4ebc
00000360: b3cd 57be 89a4 a5be cea6 cbbe 8bf7 f7bd
00000370: 4d7a 7bbe 649f 94be 576b 58bd e299 92bd
00000380: 2409 54be d3ed 923e 3b58 3a3e 0218 9f3e
00000390: 9c30 363e 4f1b 823d 82d4 0c3e 17a7 c43e
000003a0: 65c7 303e 1106 523e 7d99 62bd 9bf2 b43c
000003b0: 0c3a 5f3d d627 20bd 2a2f 3abd 4e73 fdbb
000003c0: 1296 943c 0cb9 83bd d1da 1c3c 2dc1 bebd
000003d0: f10f 84bd 7405 c2bd 155c acbd f0f5 90bd
000003e0: 5056 2dbd cb41 05be f991 ccbd d2ad b0bd
000003f0: 69ae 06be 1ff7 7b3c 2580 11bd 7e3b d5bc
0.06372873 -0.04840532 0.13091144 -0.040605076 0.034675498 0.030092994 0.111587465 0.07898302
0.08649808 0.04049126 0.04023354 0.068694785 0.038537715 -0.0019119488 0.07655628 0.117955446
0.11408321 0.122358136 -0.05843513 0.012240594 0.10763237 -0.039821565 -0.013585566 0.020498801
-0.12108894 -0.010112224 -0.024923392 -0.19398436 -0.13483566 0.04577363 -0.33777428 -0.27976927
-0.104917586 -0.4224878 -0.36135378 -0.2503761 -0.013896917 -0.016313786 0.02630303 -0.08627821
0.032215707 -0.043647602 -0.037821602 -0.07438296 -0.006226472 0.044309042 -0.005764299 0.06554121
0.010329893 -0.07404017 -0.0059807627 0.06675456 0.057622496 0.06158071 -0.09477493 0.012394734
0.024540538 -0.022083355 0.030824853 0.027017474 -0.1311597 -0.053732477 -0.025491135 0.043841615
0.07742265 -0.00674901 0.15643759 0.0718538 0.07366831 0.09550416 0.11773486 0.034261912
-0.14724043 0.020424249 -0.05177577 -0.048183493 0.07586702 -0.052708413 -0.12595606 -0.06400697
-0.014218897 0.0027720337 -0.055647474 0.044047743 -0.027773207 -0.012504639 -0.008142814 -0.05496574
-0.065932654 0.0071716914 -0.12912065 -0.09763465 -0.08742682 -0.16036476 0.0016262322 -0.053176228
-0.20815083 -0.112710185 -0.05156053 0.2671998 -0.084676825 0.28683284 0.045113117 -0.25350365
0.021431707 0.36990395 -0.037088674 0.2603996 -0.11459838 -0.02471017 0.027833447 -0.04624689
0.1200358 -0.013656398 -0.096035674 -0.07945135 -0.048987955 0.04196083 0.047607053 0.09614097
0.09536145 -0.04325455 0.060196873 0.09280033 -0.025737707 0.08714947 -0.09942659 -0.08078128
0.046869457 -0.037552483 0.024180036 -0.06894027 -0.084731735 -0.008754518 -0.0484307 -0.08565928
0.030814813 0.05358015 0.050580714 0.017986782 -0.009792433 -0.021139659 0.03856161 0.0039340244
0.46344036 0.1277282 0.4644879 0.010839546 -0.12200282 0.14305857 0.30360013 0.093941174
0.36185908 -0.042642828 -0.08610048 -0.03897502 -0.11926792 0.036929905 -0.06298605 -0.17324345
-0.07238766 -0.1120195 -0.01776807 -0.037300356 -0.0048615923 0.015255196 -0.028888643 0.022848368
-0.04390231 -0.05014989 -0.04119419 0.18665163 0.10838895 0.2424281 0.1086267 -0.106319785
0.11949941 0.27195516 0.12783022 0.30080622 -0.12450626 -0.059630837 -0.02959787 -0.060596112
-0.012298345 -0.025471203 -0.1928717 -0.026610475 -0.14677347 -0.12627368 -0.02071238 -0.116298966
-0.13845176 -0.050016236 0.0030218707 -0.14284803 -0.073757835 -0.16143616 0.37683228 0.17542635
0.29206493 0.14400539 0.040101957 0.23001494 0.32623592 0.13906597 0.3394953 -0.11232714
-0.07795569 -0.014525997 0.0010391122 -0.079025425 -0.14025597 -0.11802518 -0.10423785 -0.012618103
-0.21074562 -0.32352093 -0.397757 -0.12107762 -0.24558373 -0.29027855 -0.052836742 -0.07158257
-0.20706612 0.2869707 0.1819772 0.31073004 0.1779198 0.06352865 0.1375294 0.3840873
0.17263563 0.20510127 -0.05532216 0.02208834 0.054498717 -0.03910049 -0.045455135 -0.0077346927
0.018137965 -0.06431779 0.009573654 -0.09314189 -0.06448353 -0.09473696 -0.08416001 -0.07078159
-0.042318642 -0.1301338 -0.099887796 -0.086269036 -0.1315247 0.0153787425 -0.0355226 -0.026029345

b3 f4 [32]
00000000: 1c13 263e 33ac 283e 8027 1f3e 1d46 393e
00000010: e80e 513e e50b 2e3e a300 803e 581a 783e
00000020: 582e 643e 9120 363e 47ef 7e3e 6f6b 4e3e
00000030: b8c3 4a3e 6d9b 473e e080 463e b52c 7f3e
00000040: c9dc 1e3e 191e 8b3e ac42 343e 93a1 373e
00000050: a354 6b3e 532c 4b3e 727d 583e 0c8d 763e
00000060: 6570 543e 1d2c 053e 9dc8 da3d 3c05 453e
00000070: ebd5 733e 7ea5 5d3e 38c8 473e 08c0 303e
0.16218227 0.16471939 0.15542412 0.18093152 0.20415843 0.16996725 0.25000486 0.242288
0.22283304 0.1778586 0.24895965 0.2015817 0.19801223 0.19492884 0.193851 0.24919398
0.1551391 0.271714 0.17603558 0.1793273 0.22981505 0.19841127 0.21141604 0.24077243
0.20746 0.13005109 0.10682795 0.19240278 0.23812072 0.21645162 0.19509971 0.17260754

w4 f4 [5, 32]
00000000: d489 cabf 8475 ad3f a5ea 06c0 99d9 30bf
00000010: b5eb c8bf 01e2 51bf 2dfc 493f 3e7c b6bf
00000020: 0ab2 1fc0 8613 15c0 b533 21bf 46a9 0ec0
00000030: 030e 5e40 09e0 4940 c1c3 163f f4af f53e
00000040: 1cf4 8dbf 1fde 863f 3023 25c0 c203 00be
00000050: 52a5 02c0 f5b6 cdbd d971 4040 04fe 0ec0
00000060: d3a7 1ec0 eead f4bf ae41 dcbf 34ab fdbf
00000070: abab 4b40 76fd c6bf 7e3c 4a40 bc92 5340
00000080: 4162 f9bf 3576 09c0 c8b4 15c0 607d 4640
00000090: 3dc1 16bd c199 1ec0 9b74 11c0 8807 6f3e
000000a0: 662a fd3f ec12 463f 7e57 04c0 3be2 06c0
000000b0: 3d3e 06c0 c50e 09bf 4604 19c0 6727 5340
000000c0: e008 4c40 f8b5 c4bf afaa fa3e b705 5c40
000000d0: ec8b 6abf 0401 293e f95e f2bf eb14 fcbf
000000e0: e127 21be 82e2 5a40 8c17 cabf d296 5040
000000f0: 9812 603f 89c2 aabf 75bc 03c0 db02 f1bf
00000100: 464a 1abe 0958 1b40 f856 eabf c9bc 1dc0
00000110: 05c2 11c0 5c22 9a3f ad9e 01c0 8696 17c0
00000120: 1ecd 2ac0 6ff0 c53f 33c4 6540 60ee 7040
00000130: 1176 c6bf d574 fbbf 80e4 8fbf 3325 0ec0
00000140: 1f26 b03e 003a 03c0 4f36 5d3f ba00 2dbd
00000150: 17e7 fdbf 2205 6d40 3330 28c0 08d6 9ebe
00000160: 72c2 6840 3ca2 babe 2a36 f6bf 9721 ddbf
00000170: 474e f4bf 9a3b 5a40 dfdf 663f c9ca e1bf
00000180: ce30 5d40 8cf2 b33f 14bd 3340 bdf2 783f
00000190: c069 9fbf bf0a c2bf 90d4 5c40 d38a 5f40
000001a0: 86e2 803f e890 30c0 635a 03c0 5931 863e
000001b0: b7a7 f0bf d1fe f7bf cd85 e4bf 1804 dfbf
000001c0: 1370 fbbf cfc5 f4bf 6254 5440 d5e1 fdbf
000001d0: f38c 2abf 416b 18c0 28a4 bb3f 964f 6ebf
000001e0: ba83 f53e 0c36 78bf 3abb 4b40 5567 dbbf
000001f0: 9afa 20c0 1099 04c0 7443 12c0 759f 4abf
00000200: b6d7 bdbf dc05 1dc0 faa7 8d3f 9a9f 0cc0
00000210: e61a 5940 191c 3f40 3878 bebf 035e 92bf
00000220: a12c da3f bbe7 0040 33ef 7dbf 97d8 7abf
00000230: 1b0c 8c3d 9261 ddbf 8cd4 5340 d98b d1bf
00000240: 1b62 c2bf 3bb4 4d40 6617 fbbf 926b 0ac0
00000250: 2254 4d40 7ca3 f5bf 2149 7ebf 24ce 4b40
00000260: 49e9 6cbf 2e71 bbbf 70f8 c7bf 76ea 2b3f
00000270: d13f f3bf 5103 dcbf 87f9 d1bf 4621 c5bf
-1.5823312 1.3551488 -2.1080716 -0.6908203 -1.5696932 -0.8198548 0.78900415 -1.4256666
-2.4952416 -2.3293166 -0.62969524 -2.2290816 3.4696052 3.154299 0.58892447 0.47985804
-1.1090121 1.0536536 -2.5802727 -0.12501433 -2.0413404 -0.10044662 3.0069487 -2.234254
-2.4789932 -1.9115579 -1.7207544 -1.9817872 3.1823528 -1.55461 3.1599422 3.305831
-1.948311 -2.1478398 -2.339159 3.1014023 -0.03680538 -2.4781344 -2.272742 0.23342717
1.9778564 0.7737262 -2.06784 -2.107558 -2.0975487 -0.5353816 -2.3908858 3.29928
3.1880417 -1.5368032 0.48958346 3.4378488 -0.91619754 0.16504294 -1.8935233 -1.9693884
-0.15737869 3.420075 -1.5788436 3.2592053 0.8752837 -1.3340617 -2.0583775 -1.8828996
-0.15067396 2.4272482 -1.8307791 -2.4646475 -2.277467 1.2041736 -2.0253098 -2.3685622
-2.6687694 1.5464 3.5901 3.7645493 -1.5504781 -1.9645029 -1.1241608 -2.2210205
0.34404084 -2.050415 0.86410993 -0.04223702 -1.9836148 3.7034383 -2.6279418 -0.31022668
3.636868 -0.364519 -1.923528 -1.7275876 -1.9086388 3.4098878 0.9018535 -1.764001
3.4561038 1.4058394 2.8084154 0.9724539 -1.2454147 -1.515953 3.4504738 3.4928482
1.006913 -2.7588444 -2.0523918 0.26209524 -1.8801183 -1.9374639 -1.7853333 -1.7423124
-1.9643577 -1.9122866 3.3176503 -1.9834543 -0.6662132 -2.3815463 1.4659472 -0.9309019
0.47952062 -0.9695747 3.1833024 -1.714091 -2.5152955 -2.0718422 -2.285367 -0.7914956
-1.4831455 -2.4534826 1.1066887 -2.1972413 3.3922668 2.98609 -1.4880438 -1.143494
1.704487 2.0141437 -0.99193114 -0.9798674 0.068382464 -1.7295401 3.3098478 -1.6370803
-1.518619 3.2141254 -1.9616516 -2.1628156 3.20826 -1.9190516 -0.99330336 3.1844568
-0.92543465 -1.4643915 -1.5622692 0.67154634 -1.900385 -1.7188512 -1.6404275 -1.5400779

b4 f4 [5]
00000000: b3a1 593d f913 b83d 06cd a5bc 6e7f 363e
00000010: 6aea 41be
0.053132724 0.089881845 -0.020239364 0.17822048 -0.18937078

exp_avg f4 [32, 1, 3, 3]
00000000: a61d bebb 99da beba 38ad 07bb 26a7 efbb
00000010: 3ed2 d2ba 9746 32bb cc18 a9bb 20e1 acbb
00000020: e6d1 c4bb 6dd7 b23b 0c17 3d3b 8799 2a3b
00000030: 293c 953b b7b7 0c3b 183e c739 a1f6 623b
00000040: 01aa 333b 0f81 193a 2807 f839 4eda 79ba
00000050: 654a d23a 6d1e 2238 e7da a5ba 9df8 efb9
00000060: 2b14 0739 354f adba d30c ecba da8c 05bc
00000070: 366d 9ebb 97db 7fbb 889f d9bb 5433 f8bb
00000080: 8553 a2bb 629a 2fbb 96a5 1bbb 9f58 88bb
00000090: 12ae a13a 0ca1 a3ba a792 dcb7 cb19 673a
000000a0: 9bae 4fbb c9e9 bfba 2f40 813a d276 90b9
000000b0: 440c 65ba c93e e03a 5876 ef39 5b0b ecba
000000c0: d505 323b aea1 6b3a c6df 613a 3924 50b9
000000d0: aa63 7e3a 9698 a9ba 3b85 bd3b 3be5 1b3a
000000e0: 684a 7e3a f38e df3b c3d2 ab3a 6521 cb3a
000000f0: f0d0 c03b 6f12 e53a 2a86 263a 0eb8 2bbb
00000100: 03bc 59bb 2008 dfbb b66a 82bb 0899 8abb
00000110: 5079 20bc f321 04ba 17aa 96bb c89e 21bc
00000120: 4d10 caba 4061 93b9 dd7e a63a e31a d1ba
00000130: 6c7f 0cbb 8ea3 4bba 2fe2 4ebb b2f3 4cbb
00000140: f714 d4ba 6d54 fb3a 1453 12b7 63ca b63a
00000150: 3c68 843b 7061 c43a bb66 5e3b 07a6 f33b
00000160: 30dd 753b 9e7f 963b 21cf 11bb 21a5 cdba
00000170: 3201 15bb 8ebd 3abb 08a5 95ba 4652 9fb8
00000180: b83c 05bb 9e08 c8ba 386e 81bb 0099 deb9
00000190: 5713 f0ba b6eb aabb d5cd 8c3b c67f 0f3b
000001a0: b7ad 96ba 2e2b 9b3b ba15 353b 9849 0cba
000001b0: 78d0 50ba 250f 903a 314c 373b 07b0 2b3b
000001c0: f236 0e3a d78e 3a3b 23b0 9c3b 8ecb 9938
000001d0: 30b4 333b 9f25 f1ba a24d 14ba 5d49 3bb8
000001e0: cf99 29ba f180 14bb b54e bdba d1ff 22bb
000001f0: 6426 d6bb fc99 e8ba 6d97 bc3a d7b2 a939
00000200: f73a 14bb 6f54 e539 139c 6b3a 6ba1 70b9
00000210: 12bd 723b 23dc 8a3b e270 0bbb d526 7dbb
00000220: 10ff 95bb 2951 f1bb 6a18 053a fe97 7939
00000230: a6a9 15bb d083 7a39 502e 8939 fbf6 58bb
00000240: f03f 143b 65c6 863b 8955 763b 97a7 5b3b
00000250: 226f 8b3b a079 843b 49ad 083b d0d4 ad3a
00000260: c9a3 0c3b 8b3c cd3a ab00 363a cbec 91b9
00000270: fddd 943a 9c07 1e3b c48e c53a c4ea bc39
00000280: 860d 753b dded dd3b 8a42 643b 7895 d93a
00000290: c1d9 843a b661 753a b8b6 433b 4682 063b
000002a0: 914c 12bb 00e3 aab9 c80d 1a3b 3e1d 943a
000002b0: d4e3 9739 9913 663a 76eb 783a 08e6 64b8
000002c0: 1358 1838 0fb4 11bb 7dbc d6ba bc1a 5cba
000002d0: 4dd9 ee3b 1902 173c 0f1e 273c c147 6c3b
000002e0: 8142 a83b 8fba 8a3b 8e91 4d3b 60b2 963b
000002f0: d2c5 383b a68e 67bb cdb5 6d3b a9bb 333b
00000300: 3a45 723b c9df bf3b 7911 2a3b 6fb7 4f3a
00000310: 7bc7 903a 82db c339 1ac3 b2ba 691e 58ba
00000320: c775 7f3a 855a e6ba 6f8a 38bb e07a 603b
00000330: c642 04bb 53da acb8 6db3 aa3b a81f 5abb
00000340: c6f6 2aba 3c1f 84ba 26ab 4d3a 8915 573b
00000350: 89c6 cb3a fe90 6dba b41e c43a 2fe9 ee39
00000360: 1be6 6cba 2a08 4dba 670e bbb8 14cd 753a
00000370: 75c2 39b9 42ee 413b c291 37bb 3bd4 a3bb
00000380: fa9c 11bb c079 74bb 71c7 50bb 74fb 00bb
00000390: 5364 e8ba 0fb1 cdba fd95 92b9 ee17 8cbb
000003a0: cfb8 51bb 2ac2 9138 d1f4 25ba f704 35bb
000003b0: 85e3 cabb 15f8 cb38 3ee1 67bb d538 a6bb
000003c0: cce7 5abb bb7b 973a b18e 7fbb 2a4d 9fbb
000003d0: 5cbf bab9 4794 dbba cd6f 17bb c04c 683b
000003e0: 4c6e 9f39 0e29 053b ee0f bd3b 05ec 93b9
000003f0: 02db 8cba fc2b c0ba ec3d 71ba e78d 82ba
-0.005801874 -0.0014560997 -0.0020702612 -0.007313627 -0.0016084386 -0.002720272 -0.0051604267 -0.0052758604
-0.006006467 0.0054578097 0.0028852848 0.002603145 0.004554291 0.0021471807 0.000380025 0.0034631866
0.0027414563 0.0005855718 0.00047307578 -0.0009531126 0.00160439 3.8652146e-05 -0.0012653739 -0.00045770864
0.00012882116 -0.0013222458 -0.0018009193 -0.008151257 -0.0048347963 -0.0039040798 -0.006641332 -0.007574478
-0.004953804 -0.00267949 -0.002374982 -0.004160955 0.0012335202 -0.0012483909 -2.6294334e-05 0.0008815794
-0.0031689766 -0.0014641817 0.0009861047 -0.00027554348 -0.00087374845 0.0017108555 0.00045673805 -0.0018008755
0.002716412 0.0008988631 0.00086164137 -0.0001984992 0.0009704182 -0.0012939151 0.0057837046 0.0005946939
0.00097004184 0.006822461 0.0013109077 0.0015497623 0.0058842823 0.0017476807 0.00063523895 -0.0026202234
-0.0033223636 -0.0068063885 -0.003980006 -0.0042296685 -0.009794548 -0.0005040459 -0.004597913 -0.009864517
-0.0015416235 -0.00028110482 0.0012702603 -0.0015953447 -0.0021438254 -0.0007768207 -0.0031567921 -0.0031273183
-0.0016180564 0.0019174941 -8.721621e-06 0.0013945814 0.004040746 0.0014982652 0.0033935744 0.0074355635
0.0037515871 0.00459285 -0.0022248703 -0.0015689471 -0.0022736308 -0.002849433 -0.0011416981 -7.5970354e-05
-0.002033038 -0.0015261357 -0.0039499067 -0.00042457134 -0.0018316311 -0.005216087 0.004296998 0.0021896227
-0.0011495863 0.004735372 0.0027631358 -0.00053515425 -0.00079656346 0.0010990842 0.0027968998 0.002619745
0.00054250576 0.0028466487 0.0047817393 7.3335235e-05 0.0027420633 -0.0018398053 -0.000565732 -4.46526e-05
-0.00064697576 -0.0022659863 -0.0014443012 -0.0024871717 -0.0065353382 -0.0017746086 0.001438839 0.00032367438
-0.0022618154 0.00043741192 0.00089877954 -0.00022948316 0.0037038964 0.004237668 -0.0021277 -0.0038627882
-0.004577525 -0.0073644114 0.00050771853 0.00023803112 -0.0022836714 0.00023890962 0.00026165182 -0.0033106196
0.0022621118 0.004113006 0.0037587604 0.003351664 0.0042551914 0.004042819 0.002085524 0.0013262276
0.0021459928 0.0015658302 0.00069428486 -0.0002783298 0.0011357662 0.0024113422 0.0015072455 0.00036033068
0.0037392094 0.0067727403 0.00348297 0.0016600331 0.0010135697 0.00093605684 0.0029863548 0.0020524426
-0.002232347 -0.00032594055 0.002350675 0.0011300219 0.0002897071 0.0008776724 0.00094955356 -5.457367e-05
3.632165e-05 -0.0022232567 -0.0016383078 -0.0008396318 0.007289088 0.009216809 0.010200038 0.003605351
0.005134881 0.0042336653 0.0031367275 0.0045989007 0.0028194082 -0.0035332828 0.0036271692 0.0027425087
0.0036967532 0.0058555347 0.0025950356 0.0007923757 0.0011045778 0.00037356844 -0.0013638467 -0.00082442776
0.0009745028 -0.0017574584 -0.0028158685 0.0034252927 -0.0020181402 -8.242265e-05 0.0052093775 -0.0033283029
-0.00065217575 -0.0010080109 0.00078456325 0.0032819232 0.0015546839 -0.0009062438 0.0014962764 0.00045568633
-0.0009036974 -0.0007821346 -8.9195375e-05 0.00093765673 -0.00017715416 0.0029591476 -0.0028010462 -0.004999665
-0.002221881 -0.0037304014 -0.0031857158 -0.0019681128 -0.0017730094 -0.0015693026 -0.0002795904 -0.0042753136
-0.0032001024 6.950305e-05 -0.0006330731 -0.0027621367 -0.006191673 9.726003e-05 -0.0035382058 -0.005072693
-0.0033402322 0.001155726 -0.0038994963 -0.0048614936 -0.00035619258 -0.0016752564 -0.002310741 0.0035446137
0.0003040902 0.002031866 0.005769721 -0.00028213873 -0.0010746422 -0.0014661546 -0.00092026475 -0.0009960503

exp_avg_sq f4 [32, 1, 3, 3]
00000000: d074 033a 5833 0139 da92 8838 db68 013a
00000010: c191 a438 ccdc dc38 e0ee 4a3a 0a11 bf39
00000020: 8a30 c539 2a4c f639 ae95 5b39 456e 0938
00000030: 0383 e539 cbb6 3139 a5ab c437 e071 013a
00000040: 3fe3 4239 d73e b237 406f d838 3795 293a
00000050: 7dde 863a a648 a638 ae17 173a 5cec 843a
00000060: 675a 9d38 93e3 1e3a 797a 843a 66cc 533a
00000070: 73c6 143a 65fe 7539 d8b4 333a e2ce 453a
00000080: b13e 063a 42f1 b739 86f2 293a 45f0 2b3a
00000090: 1d87 b93a 2309 9b3a 932f 6f3a e661 403a
000000a0: 06e8 123a 49c6 da39 2e5a e538 6e25 9638
000000b0: 337f 7e38 4ccc 053a ee77 a138 2181 1a3a
000000c0: 31b1 013a 7d73 f239 6657 a53a e497 f738
000000d0: 6f6a 7339 422a 8e3a 14d6 9b39 e9d8 0938
000000e0: 17ee 1838 c259 ed39 dca7 b138 ec29 4438
000000f0: f984 673a 3aeb d639 996d 6a39 c4dc bf38
00000100: dc0d 6039 1c1a 0a3a 0599 bc38 288b 9b39
00000110: 1fc3 573a de16 9e39 4c1d 293a 2f83 973a
00000120: d965 5e3a 5f59 f339 cf4f e738 1c47 5a3a
00000130: e1ca c139 7343 8138 a221 523a 39aa b339
00000140: 20ea 6738 3eaa 273a 9433 c539 acd8 fd39
00000150: 44b5 dc39 f0fa 2338 186a 9839 3f6a 253a
00000160: bd53 b839 015c 143a 22b8 043a ce39 6e39
00000170: 7c12 9e39 79d7 b939 dcba d937 c2cf 3939
00000180: 395b a039 341e a137 cfc1 6a39 b07c 5439
00000190: 7e9c 0639 e9d9 f338 b5c8 5039 d488 5638
000001a0: e660 5e38 7743 7339 1dac bd38 b308 cc38
000001b0: 0c1d 163a 5914 a339 cb7e 033a a153 d539
000001c0: 7b39 bb38 bd56 a139 97dc 473a 77cb 033a
000001d0: 5884 203a 60ed 9738 9624 8d38 ada9 a738
000001e0: 689a 6a39 b4a4 8b39 439c ad39 b7c9 293a
000001f0: ad55 573a 8301 5a3a b34c 6d3a 70ee 8e3a
00000200: 5fff 433a 86fc e539 487a 343a b80e aa39
00000210: a252 523a 343e 2b3a 9c93 6839 6591 8a39
00000220: c2ad bf39 5cde ae3a e874 be36 3e97 2f36
00000230: 8f5a d639 7543 2836 4cf6 2d36 f915 a639
00000240: e21f 1039 5f6c 9d39 5753 d139 429f b039
00000250: 194d a439 45c1 9b39 b245 5639 ecf2 7b38
00000260: d181 7a38 b1af 653a e3b1 9039 313a 6f38
00000270: 76dd bc39 c051 6439 0b2b 1a39 654c 1639
00000280: c5a1 1e39 ca33 e139 7b17 9439 8e0a 8638
00000290: 0955 dd39 403e 7e38 1776 8c39 56bc 523a
000002a0: a090 f239 9a60 693a 2f50 9e3a 853f e039
000002b0: c66b f737 aff9 b638 a1bf 3d3a 4e63 3739
000002c0: cc55 4538 5614 4f3a 7529 263a a80b ab39
000002d0: 0653 093a 12de 513a 3dc5 763a c181 cb39
000002e0: 8d46 183a 3313 683a 9f53 2f39 2066 9639
000002f0: c0a5 293a 34d1 a23a 80e2 a83a 5511 b63a
00000300: 11be 253a 5c23 2f3a 2cc5 433a a239 dd38
00000310: 6d27 dc38 a809 da38 210a 8038 0635 5539
00000320: 5ecb a639 8ebe f738 096e 9439 2cbf 8739
00000330: 07de 4739 b519 9439 5401 3839 70d2 9a39
00000340: 09fd 473a 3e5e 943a d69d 5338 e940 6f39
00000350: a648 fc39 edac 9639 0082 1a38 d53b 7638
00000360: bf51 1539 6819 f738 f396 3839 df94 7b3a
00000370: 73f9 713a dae1 853a 65e8 0c3b 3ed2 0e3b
00000380: 18a1 113b 666f f939 ea49 cb39 b5a0 3838
00000390: 6c22 b139 1ff5 ce39 a506 ba37 8008 d539
000003a0: 29fa 0c3a 1380 6038 b557 c438 59b2 9b39
000003b0: ff52 fb39 ce17 0e3a 7ba6 223a 7dc6 083a
000003c0: 75c5 c53a a2e2 863a 4624 823a 5b61 873a
000003d0: d1f4 393a 75c1 d339 e8c8 2a3a f8a1 353a
000003e0: 97c7 a139 8810 4239 cf44 cb39 b8a3 d338
000003f0: 1060 5838 9d84 2f39 1aac 9d39 4269 8139
0.000501466 0.00012321526 6.5123386e-05 0.0004936584 7.847278e-05 0.00010531544 0.00077412836 0.00036443054
0.00037610932 0.00046977523 0.00020941228 3.2766042e-05 0.00043775895 0.00016948131 2.3444949e-05 0.0004937928
0.00018585938 2.1248516e-05 0.000103204045 0.0006469073 0.0010289695 7.929029e-05 0.00057637214 0.0010141241
7.503182e-05 0.0006061133 0.00101073 0.0008079469 0.0005675323 0.0002345979 0.0006855256 0.00075457816
0.0005121036 0.0003508423 0.0006482977 0.0006558935 0.0014154647 0.0011828284 0.00091242156 0.0007338807
0.0005604032 0.00041727934 0.00010936368 7.159529e-05 6.0676783e-05 0.000510399 7.699417e-05 0.00058938755
0.0004947363 0.00046243882 0.0012614548 0.0001180617 0.00023213935 0.0010846334 0.00029723404 3.286536e-05
3.6461362e-05 0.00045271037 8.471284e-05 4.6769084e-05 0.0008831765 0.00040992518 0.00022356807 9.1487105e-05
0.00021367468 0.0005268173 8.993041e-05 0.00029667583 0.00082306744 0.00030153146 0.0006451204 0.0011559481
0.00084838044 0.00046415158 0.00011029804 0.0008326636 0.00036962985 6.163763e-05 0.0008015876 0.00034268366
5.5292738e-05 0.00063959125 0.00037613197 0.00048417354 0.00042096723 3.9095932e-05 0.00029070745 0.00063100824
0.00035157605 0.00056594616 0.00050628383 0.00022718983 0.0003014988 0.0003544649 2.5955429e-05 0.0001772037
0.00030585544 1.920676e-05 0.00022388178 0.00020264345 0.00012837534 0.00011627732 0.00019911195 5.1149007e-05
5.301917e-05 0.00023199419 9.044281e-05 9.7290984e-05 0.0005726374 0.00031104943 0.0005016147 0.00040688834
8.9275614e-05 0.00030772938 0.0007624118 0.0005027572 0.00061232364 7.2444556e-05 6.7302186e-05 7.994785e-05
0.000223735 0.0002663486 0.00033113555 0.0006476896 0.0008214366 0.00083162653 0.00090522616 0.00109048
0.0007476713 0.00043866428 0.00068846764 0.00032435893 0.00080231775 0.00065324013 0.00022180233 0.00026429739
0.0003655982 0.0013341415 5.676051e-06 2.6165067e-06 0.00040884732 2.5073216e-06 2.5922373e-06 0.00031678358
0.00013744787 0.00030026116 0.0003992568 0.00033687992 0.0003133796 0.000297079 0.00020434594 6.0069302e-05
5.9725546e-05 0.0008761837 0.00027598356 5.7036235e-05 0.00036023156 0.00021774229 0.00014702619 0.00014333574
0.00015128318 0.0004295393 0.00028246254 6.391584e-05 0.0004221576 6.0616294e-05 0.00026790865 0.00080389285
0.0004626559 0.00089026394 0.001207834 0.00042771935 2.949488e-05 8.7249435e-05 0.0007238333 0.00017489234
4.7048365e-05 0.00078994536 0.0006338575 0.00032624346 0.0005238507 0.00080058083 0.0009413546 0.0003881585
0.0005808853 0.00088529586 0.00016720452 0.0002868632 0.0006471537 0.0012421967 0.0012884885 0.0013890663
0.00063225726 0.0006680989 0.00074680406 0.00010548836 0.00010497761 0.00010396849 6.105402e-05 0.00020333016
0.00031813508 0.000118133714 0.00028310742 0.0002589164 0.0001906083 0.00028247913 0.00017548102 0.00029529957
0.0007628953 0.001131959 5.0453316e-05 0.00022816997 0.00048119313 0.0002873907 3.6837533e-05 5.8706693e-05
0.000142402 0.0001178261 0.0001760384 0.00095970737 0.0009230591 0.0010214404 0.0021500823 0.0021792795
0.0022221263 0.0004757598 0.00038774248 4.401869e-05 0.00033785717 0.0003947401 2.2176022e-05 0.0004063286
0.0005377853 5.352504e-05 9.362345e-05 0.00029696783 0.00047936288 0.00054204173 0.0006204617 0.00052175653
0.0015088754 0.001029093 0.0009929023 0.0010328697 0.00070936704 0.00040389193 0.0006514923 0.0006928737
0.0003085702 0.0001850744 0.00038770444 0.00010091759 5.158788e-05 0.00016738703 0.000300736 0.0002468322

exp_avg f4 [32]
00000000: fba7 0032 8ecf 84b1 e8ed d331 eb45 89b1
00000010: 8242 c332 34c8 0f2f 1a53 4332 4e53 6730
00000020: 83b6 c4b2 3c37 90b1 9724 4231 cbb8 a531
00000030: bd31 a131 0c30 47b2 3e69 b932 6d94 85b1
00000040: 61e6 7a31 60ed 4d32 d3d4 e731 29ef b4ae
00000050: 9cbe 7f30 cb47 e7b1 b5e0 1732 eb5e 5db2
00000060: 8277 b831 610b 4eb2 9bd3 6c32 5908 3eb2
00000070: 2885 fd2f 4d82 5631 08e9 6731 c3e4 fcb1
7.488775e-09 -3.865302e-09 6.167955e-09 -3.9951735e-09 2.2731232e-08 1.30769e-10 1.1369389e-08 8.4155694e-10
-2.29004e-08 -4.197231e-09 2.8251514e-09 4.8231406e-09 4.6913713e-09 -1.1594249e-08 2.1584693e-08 -3.8876835e-09
3.6510743e-09 1.1986543e-08 6.74718e-09 -8.227936e-11 9.303933e-10 -6.7311468e-09 8.840449e-09 -1.2885475e-08
5.3686913e-09 -1.1993365e-08 1.37851215e-08 -1.1061354e-08 4.6115045e-10 3.1215166e-09 3.3747387e-09 -7.3601725e-09

exp_avg_sq f4 [32]
00000000: 194f 6226 5dad 5626 1785 fa26 1ccf 0527
00000010: 3fb9 1027 1064 2c27 953d 8126 b011 b226
00000020: ca93 c026 e075 8226 fcfd 4126 c1ea 9d26
00000030: 3bcc 8e26 4d80 8326 8b0e 3827 da1f 6627
00000040: d0e7 7826 8749 ef26 7c84 fe26 4110 0127
00000050: dbcc ad26 f364 5027 7f4a 2b26 fa31 4d27
00000060: 0419 4527 fad5 b226 debf f826 bf9e 9a26
00000070: d30f 9f26 16e6 9226 d73b a827 d2fa c526
7.85167e-16 7.4481116e-16 1.7383309e-15 1.8569732e-15 2.0084437e-15 2.392404e-15 8.967865e-16 1.2356025e-15
1.3362735e-15 9.052512e-16 6.730454e-16 1.0957694e-15 9.908586e-16 9.124727e-16 2.5543013e-15 3.1936179e-15
8.635645e-16 1.6603886e-15 1.76607e-15 1.7911158e-15 1.2059813e-15 2.8920523e-15 5.9428504e-16 2.8476557e-15
2.7352803e-15 1.240923e-15 1.7260463e-15 1.0728925e-15 1.103713e-15 1.019315e-15 4.6694246e-15 1.3737606e-15
