CS330/XCS330-PS3/src/submission/logs/maml/omniglot.way_5.support_1.query_15.inner_steps_1.inner_lr_0.4.learn_inner_lrs_True.outer_lr_0.001.batch_size_16/state11900.pt (torch, 360802 bytes, 30 tensors)

conv0 f4 [32, 1, 3, 3]
0.048579678 0.031442247 -0.31760663 -0.044346146 -0.29051805 -0.13721131 0.031577025 0.17588314
0.12267233 0.16596584 0.026253354 -0.2795799 -0.046959516 0.004580142 -0.2983553 0.07399255
-0.05459396 -0.25183338 -0.2845582 0.051321585 0.11250571 -0.3251622 0.025333429 0.092253305
-0.27449125 -0.050398447 0.012637096 0.13117762 -0.11154012 -0.3317677 0.046213802 0.09123787
0.009987822 -0.2637973 0.07346838 0.1392771 0.06518461 0.09118907 -0.003025357 0.07330391
0.10510019 -0.14063239 -0.30082574 -0.3430854 -0.27318338 -0.008016901 -0.2421295 -0.036859743
0.009935256 -0.1294708 0.22012693 -0.12852463 -0.117256545 0.01492389 -0.09018124 -0.2619816
-0.20230362 0.0216902 -0.08690937 -0.22432783 0.22167124 0.033060238 -0.17658603 -0.18045387
-0.11897726 -0.13240522 -0.23019111 0.024563942 0.12154898 -0.12608024 0.03523868 0.13899896
0.044473086 0.05059766 -0.30872998 0.14419395 0.08678374 -0.35991344 0.023196934 -0.027230542
-0.34735036 0.029733604 0.0810551 -0.006902109 -0.09849124 -0.51617 -0.027963946 0.12936796
-0.075054385 0.07229253 -0.0062821624 0.058939215 -0.006510316 0.14112848 -0.28548947 -0.0768068
-0.11233538 -0.35196227 0.18291737 0.011586503 0.12312797 0.20106867 0.035054006 0.14548744
0.22670186 0.1583679 0.12796877 0.24461061 0.1700844 -0.1929311 0.08433094 -0.07881925
-0.340394 0.07764243 0.017404951 0.002461626 0.04941114 -0.25327432 -0.3368958 -0.25328743
-0.063874535 0.012825051 -0.045839187 -0.053231515 0.08697623 0.21538106 -0.005253365 0.067429006
0.2716775 -0.084617086 -0.011819122 -0.30260965 0.016696611 0.010971007 -0.15559526 -0.10455549
-0.11648492 0.18026236 -0.11362509 -0.29195276 -0.09126509 -0.2915136 -0.1933395 -0.08908506
-0.24438994 0.04183911 0.15106641 0.13212897 0.058253214 0.006196743 -0.037500314 -0.27524918
-0.24259329 0.18699107 -0.016650464 -0.21434034 -0.039831143 -0.11474444 -0.0876198 -0.2062102
-0.09971838 0.08776123 0.08244937 -0.33886796 -0.10130337 -0.34626433 0.08229534 0.13034499
-0.07182423 0.0981698 -0.02319951 -0.13201545 -0.32550493 -0.019793442 0.19588806 0.032619487
-0.27743322 -0.08194607 0.1349804 -0.07591254 -0.07010582 0.10388028 0.09788095 -0.20748831
0.030171512 0.18825394 -0.1892091 -0.26889983 0.01050659 0.031780377 0.015000171 0.14680772
-0.02850155 0.06062308 0.058473945 -0.2783621 -0.33644325 -0.32035828 -0.2972627 -0.07485528
0.23693654 -0.16497342 0.07907225 0.020788651 -0.08721426 0.16212763 -0.22660713 -0.13000186
0.060862545 0.03360364 -0.23296867 0.045942176 0.09408196 0.018445332 -0.28192812 -0.25074425
-0.33094823 -0.35009733 -0.3023954 0.0177748 0.12838636 0.0018548293 0.027011039 0.11022469
0.015828164 -0.033578735 0.052419886 -0.108204916 -0.048309132 -0.018162973 -0.38015896 -0.048518114
0.20347582 -0.23260139 -0.4720708 -0.04760991 -0.01867796 -0.03523403 0.03614871 -0.045090646
0.19138661 -0.054005045 0.023089463 0.08618723 -0.032608714 -0.02982604 0.046147477 0.15695092
-0.16165726 -0.24013433 0.048017457 -0.28206432 -0.31472105 -0.097270064 0.15943272 0.00930165
00000000: 7cfb 463d 96c9 003d 569d a2be 4ea4 35bd
00000010: c8be 94be 1f81 0cbe e956 013d b61a 343e
00000020: a13b fb3d f3f2 293e 4611 d73c 1925 8fbe
00000030: 9f58 40bd 0415 963b 07c2 98be 6889 973d
00000040: eb9d 5fbd 4ef0 80be 9db1 91be 9536 523d
00000050: 6569 e63d a97b a6be 0d88 cf3c 4def bc3d
00000060: 1e8a 8cbe 9a6e 4ebd d30b 4f3c 6d53 063e
00000070: 256f e4bd 75dd a9be af4a 3d3d ecda ba3d
00000080: f6a3 233c 7110 87be 9776 963d a89e 0e3e
00000090: 827f 853d 56c1 ba3d 1145 46bb 5c20 963d
000000a0: c53e d73d f001 10be d505 9abe e4a8 afbe
000000b0: b1de 8bbe 5259 03bc ccf0 77be 3efa 16bd
000000c0: 7cc7 223c fe93 04be f468 613e f69b 03be
000000d0: 3324 f0bd 5583 743c f1b0 b8bd 7422 86be
000000e0: ae28 4fbe a5af b13c 8afd b1bd 32b6 65be
000000f0: c9fd 623e 2c6a 073d f8d2 34be e6c8 38be
00000100: 5aaa f3bd 3c95 07be 38b7 6bbe 523a c93c
00000110: acee f83d 2e1b 01be 6f56 103d be55 0e3e
00000120: 6929 363d 7e3f 4f3d db11 9ebe 94a7 133e
00000130: acbb b13d 9346 b8be 7f07 be3c 9612 dfbc
00000140: e8d7 b1be e393 f33c 3700 a63d 162b e2bb
00000150: c6b5 c9bd b823 04bf a514 e5bc 0979 043e
00000160: 1db6 99bd 1b0e 943d 99da cdbb 3f6a 713d
00000170: 7d54 d5bb fc83 103e ad2b 92be e24c 9dbd
00000180: 1710 e6bd 6634 b4be b14e 3b3e 51d5 3d3c
00000190: 842a fc3d f2e4 4d3e ca94 0f3d a9fa 143e
000001a0: 8824 683e 322b 223e 3f0a 033e 347b 7a3e
000001b0: 9b2a 2e3e bb8f 45be b3b5 ac3d fd6b a1bd
000001c0: 1f48 aebe ff02 9f3d d494 8e3c 3b53 213b
000001d0: 5663 4a3d 2cad 81be 9b7d acbe e4ae 81be
000001e0: a7d0 82bd 2a20 523c dfc1 3bbd 4a09 5abd
000001f0: 9820 b23d da8c 5c3e 6b24 acbb 3818 8a3d
00000200: 5019 8b3e b94b adbd fea4 41bc a7ef 9abe
00000210: 55c7 883c bdbf 333c 5d54 1fbe 3021 d6bd
00000220: a58f eebd b296 383e 45b4 e8bd d57a 95be
00000230: 31e9 babd 4541 95be cafa 45be 3a72 b6bd
00000240: 5b41 7abe 7d5f 2b3d 27b1 1a3e d14c 073e
00000250: ec9a 6e3d 0c0e cb3b ee99 19bd 76ed 8cbe
00000260: 606a 78be 967a 3f3e 8e66 88bc 097c 5bbe
00000270: fb25 23bd 22ff eabd 0272 b3bd c428 53be
00000280: 2639 ccbd 29bc b33d 37db a83d 1a80 adbe
00000290: 2478 cfbd 8f49 b1be 768a a83d 2879 053e
000002a0: 9518 93bd 400d c93d e60c bebc 0f2f 07be
000002b0: 95a8 a6be db25 a2bc e196 483e 039c 053d
000002c0: ba0b 8ebe 57d3 a7bd 4d38 0a3e 0978 9bbd
000002d0: a493 8fbd 2fbf d43d cf75 c83d d177 54be
000002e0: 3f2a f73c a4c5 403e 08c0 41be 3dad 89be
000002f0: d523 2c3c 242c 023d 47c3 753c c354 163e
00000300: 157c e9bc e84f 783d 6082 6f3d 7a85 8ebe
00000310: 4a42 acbe 0006 a4be d132 98be ba4d 99bd
00000320: 7e9f 723e cbee 28be a2f0 a13d f64c aa3c
00000330: 649d b2bd c904 263e b30b 68be 351f 05be
00000340: 014b 793d f8a3 093d 578f 6ebe dd2d 3c3d
00000350: 0bae c03d aa1a 973c e258 90be 8d61 80be
00000360: 0c72 a9be f53f b3be 92d3 9abe 759c 913c
00000370: b777 033e be1d f33a 4146 dd3c 7bbd e13d
00000380: 11aa 813c db89 09bd 3cb6 563d 8a9a ddbd
00000390: ccdf 45bd 84ca 94bc 32a4 c2be eeba 46bd
000003a0: f75b 503e 0f2f 6ebe 44b3 f1be 9c02 43bd
000003b0: 8502 99bc 8f51 10bd ab10 143d f8b0 38bd
000003c0: dafa 433e 6534 5dbd 1d26 bd3c ee82 b03d
000003d0: b790 05bd bd55 f4bc 2305 3d3d beb7 203e
000003e0: 7b89 25be c6e5 75be f4ad 443d bc6a 90be
000003f0: 1e23 a1be 8735 c7bd 5542 233e f365 183c

b0 f4 [32]
0.074485704 0.007805367 -0.14847998 0.16716906 0.037618604 -0.059281833 0.12132844 -0.0030808607
0.01406912 0.15342806 -0.08877994 -0.0045938315 0.107343875 0.13705593 0.06359819 0.13832778
0.0059435675 -0.13811262 -0.10233436 -0.5610358 -0.10602688 -0.26770917 0.072531134 -0.3998333
-0.20869575 -0.26864135 0.13388014 -0.043543737 0.0556345 0.009130845 0.14022899 -0.08214179
00000000: f68b 983d 2ac4 ff3b 230b 18be 5e2e 2b3e
00000010: f715 1a3d 82d1 72bd 0c7b f83d 44e8 49bb
00000020: 2b82 663c 3f1c 1d3e 42d2 b5bd da87 96bb
00000030: 1bd7 db3d 6458 0c3e c53f 823d cca5 0d3e
00000040: 42c2 c23b 656d 0dbe ad94 d1bd 0ba0 0fbf
00000050: 9f24 d9bd 2d11 89be 348b 943d f3b6 ccbe
00000060: 57b4 55be 5c8b 89be e017 093e eb5a 32bd
00000070: 00e1 633d 8a99 153c 3098 0f3e f439 a8bd

conv1 f4 [32, 32, 3, 3]
-0.043227334 0.08693088 -0.029324584 -0.04751749 -0.09095288 0.14162949 -0.13402623 0.028586874
0.25982404 0.12116122 0.01633603 0.34478882 0.061519235 -0.09851298 -0.19244416 0.0012702179
-0.088366985 -0.4645841 0.18127385 0.15263782 -0.16292837 0.11837507 0.10202599 -0.08374939
-0.20118964 -0.015585158 0.10526328 0.044970803 -0.019182643 -0.07863471 -0.13925734 0.059209745
0.001158113 -0.1537702 -0.009143171 -0.018748078 -0.018847989 -0.02857898 -0.13112499 0.1617685
0.082500786 0.19332692 0.1716675 0.17433807 0.18952748 -0.083998136 -0.014239431 -0.12636144
-0.03684165 0.004180908 -0.08315112 0.032850087 0.08687959 -0.14739086 0.19284914 -0.0010894445
-0.09676833 0.13975799 -0.18887076 -0.28566167 -0.07484645 0.023505218 -0.05545694 0.04619638
0.14528023 0.07505435 0.052265517 0.24129477 -0.037370384 0.06649419 0.042653956 -0.11643524
0.029256 0.006706027 0.15402672 -0.09400281 -0.14077887 0.0077690952 -0.18362767 -0.11997112
-0.3639324 -0.17909336 -0.0148712685 0.0692012 0.082764246 0.012727735 0.081714444 0.15317555
-0.039218448 0.070616044 0.20234513 0.041135147 -0.005297738 0.048025858 0.03166174 -0.21618375
0.009074803 0.08225237 -0.0689567 -0.10013821 -0.062257536 -0.15988865 -0.0052252538 0.0010583975
0.043664 0.19236974 0.030113924 -0.027015004 0.023673268 0.19801652 0.043267995 -0.020587523
-0.043378532 0.1213912 -0.15930603 -0.13327612 0.10776462 -0.38594946 0.18223254 0.43618852
-0.20745766 -0.17988913 0.010039055 -0.2929015 -0.14700615 -0.026708456 0.11853255 -0.036214963
0.043530986 0.012294981 0.041163255 0.07822399 -0.022329506 0.0738507 -0.1077361 0.18885772
0.3055713 0.1540177 0.22367147 -0.013242466 0.011178521 0.32912815 0.19024813 0.047702953
0.09027658 -0.10244416 0.26669008 -0.006514099 0.041730583 -0.041893765 -0.121323444 -0.12298148
-0.059168287 -0.036292512 -0.041286036 -0.022723978 -0.091592126 0.10253199 -0.09897401 -0.0015160919
0.21878219 0.046949532 0.021466177 -0.039404508 0.050193354 0.07695698 0.06919932 -0.15732269
-0.063861996 0.046247363 -0.04149047 0.04698331 -0.18164001 -0.16116753 -0.106113896 -0.17715237
-0.07454434 0.13516879 0.14168514 -0.00393479 0.09096514 0.08782749 0.044715304 -0.025612315
0.019479332 0.09586116 -0.29010433 -0.33859485 -0.07284611 0.14268687 -0.17864038 -0.020790296
0.18872675 0.09805649 -0.069985904 -0.1305176 -0.021695202 0.10217062 -0.090769805 0.024361804
0.20638378 -0.068716764 -0.13872631 -0.038643666 -0.056705423 -0.06835591 0.078688435 0.02185812
-0.07053699 -0.22120954 -0.14688317 -0.2765804 -0.15787284 -0.037446667 0.11124666 0.094047725
-0.37548006 -0.19294842 0.1546815 -0.4750907 -0.08853716 0.052666944 -0.19644186 -0.17830059
0.056317672 0.088136226 0.127076 -0.0036961085 0.18557134 0.048207413 0.010890831 0.22658056
-0.09058248 -0.17515421 0.0187491 -0.016132062 0.02709615 0.045980904 0.09098872 0.2054406
0.028246274 0.08100231 0.019828651 -0.012805958 -0.0015104056 -0.04545064 -0.006893678 0.01046895
0.03770802 0.077188976 0.011139483 -0.10749115 0.23662704 0.08831873 0.07173019 -0.34934145
00000000: 250f 31bd d108 b23d 1c3a f0bc b3a1 42bd
00000010: 8145 babd 5207 113e 2c3e 09be 052f ea3c
00000020: a807 853e 6023 f83d 23d3 853c 2988 b03e
00000030: 98fb 7b3d 2cc1 c9bd 1510 45be 717d a63a
00000040: c0f9 b4bd f8dd edbe da9f 393e 174d 1c3e
00000050: b2d6 26be a16e f23d 01f3 d03d cd84 abbd
00000060: a804 4ebe e458 7fbc 4694 d73d 4e33 383d
00000070: eb24 9dbc 3c0b a1bd 7a99 0ebe eb85 723d
00000080: d3cb 973a ef75 1dbe 3dcd 15bc 9295 99bc
00000090: 1967 9abc 771e eabc a145 06be a4a6 253e
000000a0: 2cf6 a83d 7ef7 453e 9bc9 2f3e ae85 323e
000000b0: 7e13 423e 3707 acbd 814c 69bc e564 01be
000000c0: 45e7 16bd 0000 893b 224b aabd d08d 063d
000000d0: eded b13d a1ed 16be 3f7a 453e b1cb 8eba
000000e0: 792e c6bd b81c 0f3e 5667 41be 3f42 92be
000000f0: 1849 99bd 048e c03c d126 63bd 6a38 3d3d
00000100: 57c4 143e 18b6 993d 5e14 563d fa15 773e
00000110: b011 19bd 1b2e 883d eab5 2e3d 9975 eebd
00000120: 47aa ef3c 3bbe db3b 2eb9 1d3e 8c84 c0bd
00000130: 5628 10be e593 fe3b e408 3cbe 6bb3 f5bd
00000140: 5955 babe 4064 37be 9fa6 73bc 5cb9 8d3d
00000150: 4d80 a93d fd87 503c e759 a73d 0dda 1c3e
00000160: 86a3 20bd 259f 903d 9033 4f3e 547d 283d
00000170: a698 adbb c3b6 443d beaf 013d 465f 5dbe
00000180: 7cae 143c ee73 a83d 2c39 8dbd 4315 cdbd
00000190: c201 7fbd dab9 23be 9b38 abbb edb9 8a3a
000001a0: 06d9 323d 93fc 443e 7ab1 f63c 924e ddbc
000001b0: 71ee c13c d8c4 4a3e c839 313d 2aa7 a8bc
000001c0: b0ad 31bd f39b f83d 1f21 23be 8979 08be
000001d0: b2b3 dc3d 2b9b c5be 2b9b 3a3e 1a54 df3e
000001e0: c86f 54be db34 38be d97a 243c 2ff7 95be
000001f0: c888 16be b1cb dabc 32c1 f23d 2456 14bd
00000200: 8c4d 323d e370 493c cd9a 283d e633 a03d
00000210: 5eec b6bc 093f 973d bfa4 dcbd eb63 413e
00000220: d773 9c3e d1b6 1d3e 220a 653e eef6 58bc
00000230: 1e26 373c 7c83 a83e 68d0 423e 2c64 433d
00000240: ede2 b83d 3ece d1bd 9a8b 883e 3974 d5bb
00000250: b0ed 2a3d cc98 2bbd 6d78 f8bd b7dd fbbd
00000260: 725a 72bd 75a7 14bd 8c1b 29bd a327 babc
00000270: a794 bbbd 4bfc d13d e3b2 cabd 9ab7 c6ba
00000280: 7008 603e 274e 403d d6d9 af3c 9f66 21bd
00000290: 8c97 4d3d 9f9b 9d3d 60b8 8d3d 3319 21be
000002a0: 14ca 82bd e06d 3d3d e9f1 29bd 9271 403d
000002b0: d7ff 39be 1a09 25be 3e52 d9bd 6e67 35be
000002c0: b4aa 98bd b069 0a3e e915 113e 69ef 80bb
000002d0: ee4b ba3d e6de b33d 6527 373d ebd0 d1bc
000002e0: 1f93 9f3c db52 c43d 8e88 94be 4e5c adbe
000002f0: 5730 95bd 821c 123e 81ed 36be 6950 aabc
00000300: 9641 413e d7d1 c83d c554 8fbd 68a6 05be
00000310: 23ba b1bc d43e d13d 85e5 b9bd 6892 c73c
00000320: 4556 533e 60bb 8cbd 450e 0ebe d248 1ebd
00000330: f243 68bd 2ffe 8bbd 6727 a13d cd0f b33c
00000340: b375 90bd c184 62be 8b68 16be f29b 8dbe
00000350: 6ba9 21be ad61 19bd 4ad5 e33d 189c c03d
00000360: ec3e c0be 4594 45be d464 1e3e 173f f3be
00000370: f852 b5bd 4bb9 573d 0e28 49be 6e94 36be
00000380: 5cad 663d c480 b43d 3620 023e 693a 72bb
00000390: 6a06 3e3e 2375 453d 756f 323c bc04 683e
000003a0: 4f83 b9bd a05b 33be b697 993c 6327 84bc
000003b0: bff8 dd3c 7956 3c3d 4b58 ba3d 055f 523e
000003c0: bb64 e73c 8ae4 a53d b26f a23c 15d0 51bc
000003d0: cdf8 c5ba 732a 3abd 5de4 e1bb f585 2b3c
000003e0: ba73 1a3d 4115 9e3d 6182 363c 5224 dcbd
000003f0: 5c4e 723e 73e0 b43d 47e7 923d e2dc b2be

b1 f4 [32]
0.020851484 0.0044168215 -0.030791795 -0.079332866 -0.05494162 -0.0053235907 0.011464735 0.005099558
-0.026256636 -0.05052357 -0.07993824 -0.028239677 -0.006869023 0.0034238915 -0.029954277 -0.04806894
-0.027825931 -0.031729918 -0.054142773 -0.041347474 0.036143787 0.01640491 0.04961888 -0.0035424426
-0.030325443 0.052748937 -0.018015977 0.12056184 -0.009090905 0.005526551 -0.025098415 -0.005984162
00000000: bbd0 aa3c fcba 903b 133f fcbc 4579 a2bd
00000010: 770a 61bd 8471 aebb 95d6 3b3c 311a a73b
00000020: 2818 d7bc cef1 4ebd a9b6 a3bd e556 e7bc
00000030: 8b15 e1bb 5e63 603b ac62 f5bc f0e3 44bd
00000040: 35f3 e3bc 3bf7 01bd d0c4 5dbd f85b 29bd
00000050: 820b 143d 9763 863c 2b3d 4b3d 5328 68bb
00000060: 106d f8bc 450f 583d 3e96 93bc 20e9 f63d
00000070: 05f2 14bc 1218 b53b 319b cdbc ca16 c4bb

conv2 f4 [32, 32, 3, 3]
-0.00914155 -0.036572617 -0.0071017137 -0.031013856 0.055430654 0.05278702 0.09861166 0.13893434
0.15398788 -0.011925297 0.027172875 0.04718672 0.14148635 0.06680241 0.034387764 0.107233934
0.0025796783 0.037621263 0.11304187 -0.010947187 -0.009197681 0.10142119 0.12639442 0.022116836
0.087996356 0.10982835 0.1004471 -0.12329398 -0.09586454 -0.01541481 -0.19175413 -0.14402997
-0.04820649 -0.29491332 -0.2656946 -0.16775268 -0.087042645 0.024380183 0.001259373 -0.03580289
-0.007516102 0.09868322 -0.14327636 -0.08064985 0.066714145 -0.07142116 0.0022152015 0.02799863
-0.07989323 -0.13090515 0.013408082 -0.17671572 -0.030977383 -0.031803105 -0.09933575 0.004977546
-0.029699946 -0.0006353843 0.008288761 0.040128466 0.07568911 0.038213015 -0.0097801965 0.08280497
0.029101647 -0.119336314 0.23965769 0.25761694 0.10871335 0.18898144 0.1660528 0.008516162
-0.08791212 -0.008298181 0.025712365 -0.06952412 -0.10414293 -0.044210393 -0.058833238 -0.054545764
-0.020252807 -0.17651549 -0.09668158 -0.15555693 -0.057448935 -0.004221023 -0.05690755 -0.047790807
0.04915724 -0.029915966 0.02518999 0.035934523 -0.070474036 0.13662101 0.13705446 0.09890683
0.13970523 0.18276185 0.0035406463 -0.051593747 -0.12270353 -0.04474947 -0.011439918 -0.023767177
-0.034387715 0.007298046 -0.06400498 -0.008881449 -0.078934714 -0.09396687 -0.14407633 -0.002226265
-0.04191382 -0.046869002 -0.063073814 -0.026229845 -0.07319867 -0.23976378 -0.2125392 -0.15390608
-0.3554345 -0.17529272 -0.16398485 -0.44914946 -0.4886324 -0.4180878 -0.06257906 -0.063638814
-0.16716164 -0.080682 -0.005971739 -0.0471921 -0.10696092 -0.14845091 -0.26555648 -0.0562539
-0.08368385 -0.02119356 0.06960049 0.09920809 0.043374028 0.06721419 0.09641894 0.09856413
-0.12334856 -0.0423507 -0.09485347 -0.21423937 -0.21503644 -0.18634492 -0.18870546 -0.21360883
-0.12587406 0.004182048 0.093394704 0.007562751 0.21041779 0.099858835 0.19454907 0.0010791065
-0.041625366 -0.018527664 -0.042683493 -0.05227146 -0.03793052 -0.09661386 0.078091204 -0.06475565
-0.1579393 -0.021761501 -0.17964078 0.036499232 -0.0010476164 -0.0040176674 -0.0052848198 0.04670299
-0.05598423 0.036908526 -0.08488814 0.01843712 -0.26086387 -0.13783626 -0.24921605 -0.27460963
-0.17896274 -0.20415401 -0.2657332 -0.24315652 -0.18208377 -0.02311593 0.034568593 -0.0036577533
-0.014833916 0.037967872 -0.04570173 0.03146093 -0.011640795 0.15479042 0.019205654 0.013510049
-0.07439187 0.11970984 0.0682288 0.03295609 0.073768586 0.090800695 -0.02418999 0.11471233
0.15694807 -0.018923707 0.22165498 0.13269609 0.016843555 0.19831668 0.09807155 0.10583766
0.07597855 -0.011198367 -0.07233726 0.03337845 0.067720756 -0.062116135 -0.006762311 0.006611877
-0.059998423 0.023624362 -0.028210036 -0.108993694 0.12632531 -0.0651381 0.0135968 0.14705321
-0.043651853 -0.095915 0.029140646 0.09511946 0.01922498 0.14844573 0.24526262 0.24430321
0.18455891 0.23192789 0.22996445 0.0881821 0.18166173 0.106690004 0.15608583 0.25075197
0.15200305 0.14167288 0.26546103 0.2554759 -0.12141188 -0.096969105 -0.101173356 -0.10405564
00000000: 71c6 15bc 2bcd 15bd 7eb5 e8bb c510 febc
00000010: 410b 633d 3437 583d e9f4 c93d ce44 0e3e
00000020: 00af 1d3e 5262 43bc a699 de3c dd46 413d
00000030: cce1 103e b4cf 883d 2fda 0c3d 779d db3d
00000040: d20f 293b c118 1a3d 7f82 e73d d55b 33bc
00000050: dfb1 16bc eab5 cf3d 8a6d 013e 5e2e b53c
00000060: 6f37 b43d b0ed e03d 36b7 cd3d 8e81 fcbd
00000070: a154 c4bd 668e 7cbc 325b 44be 987c 13be
00000080: 2b74 45bd e1fe 96be 1f09 88be 5cc7 2bbe
00000090: 6a43 b2bd f3b8 c73c 8c11 a53a 0da6 12bd
000000a0: a249 f6bb 6e1a ca3d 0ab7 12be c02b a5bd
000000b0: 6da1 883d 4245 92bd ea2c 113b 625d e53c
000000c0: 109f a3bd 000c 06be 92ad 5b3c f7f4 34be
000000d0: 48c4 fdbc f943 02bd 8b70 cbbd af1a a33b
000000e0: 4d4d f3bc eb8f 26ba 95cd 073c bf5d 243d
000000f0: e402 9b3d 4085 1c3d 1e3d 20bc a795 a93d
00000100: 9466 ee3c 9966 f4bd d368 753e 5ee6 833e
00000110: 1ba5 de3d 5a84 413e bf09 2a3e 5f87 0b3c
00000120: 450b b4bd 18f5 07bc bda2 d23c a962 8ebd
00000130: e348 d5bd f515 35bd 1ffb 70bd 616b 5fbd
00000140: 37e9 a5bc 7ac0 34be fe00 c6bd 514a 1fbe
00000150: 934f 6bbd 8250 8abb e417 69bd 4bc0 43bd
00000160: 1a59 493d 5412 f5bc 3d5b ce3c 1430 133d
00000170: b154 90bd 61e6 0b3e 0158 0c3e aa8f ca3d
00000180: e30e 0f3e ec25 3b3e 300a 683b f753 53bd
00000190: fd4b fbbd 384b 37bd 7e6e 3bbc 62b3 c2bc
000001a0: 22da 0cbd 7224 ef3b 0b15 83bd 7f83 11bc
000001b0: 86a8 a1bd b471 c0bd bf88 13be 87e6 11bb
000001c0: d3ad 2bbd b6f9 3fbd d82c 81bd f9df d6bc
000001d0: 2fe9 95bd a384 75be e0a3 59be 8e99 1dbe
000001e0: 83fb b5be ef7f 33be a5eb 27be ebf6 e5be
000001f0: 072e fabe 9b0f d6be 7329 80bd 1155 82bd
00000200: 6c2c 2bbe 9b3c a5bd 94ae c3bb 814c 41bd
00000210: 540e dbbd 8403 18be 05f7 87be 7d6a 66bd
00000220: 7062 abbd 1e9e adbc b48a 8e3d 9c2d cb3d
00000230: f7a8 313d 98a7 893d 4b77 c53d fedb c93d
00000240: 2b9e fcbd ed77 2dbd 8942 c2bd 9161 5bbe
00000250: 8332 5cbe 34d1 3ebe 013c 41be 46bc 5abe
00000260: 21e5 00be 9009 893b b945 bf3d f4d0 f73b
00000270: c377 573e ca82 cc3d df37 473e ce70 8d3a
00000280: 5c7f 2abd 54c7 97bc e3d4 2ebd 991a 56bd
00000290: 085d 1bbd 7ddd c5bd 48ee 9f3d 9c9e 84bd
000002a0: d7ba 21be 2d45 b2bc c1f3 37be 3880 153d
000002b0: 2c50 89ba a3a6 83bb 482c adbb a24b 3f3d
000002c0: b84f 65bd 652d 173d d5d9 adbd 7109 973c
000002d0: f38f 85be f324 0dbe 7e32 7fbe a299 8cbe
000002e0: 0242 37be c00d 51be 2f0e 88be 06fe 78be
000002f0: 2b74 3abe 9e5d bdbc cc97 0d3d ebb6 6fbb
00000300: f409 73bc 3384 1b3d bd31 3bbd 2ddd 003d
00000310: 08b9 3ebc 6181 1e3e 2d55 9d3c 4159 5d3c
00000320: c45a 98bd 6f2a f53d 8bbb 8b3d f7fc 063d
00000330: fc13 973d b7f5 b93d 162a c6bc 4cee ea3d
00000340: ffb6 203e e405 9bbc 86f9 623e 7ce1 073e
00000350: 7ffb 893c 8713 4b3e bdd9 c83d 6ac1 d83d
00000360: a49a 9b3d 5b79 37bc 8f25 94bd d7b7 083d
00000370: 2eb1 8a3d 7d6d 7ebd 6096 ddbb 72a8 d83b
00000380: e8c0 75bd e187 c13c bc18 e7bc 1638 dfbd
00000390: 6c5b 013e 2067 85bd 1dc5 5e3c 1e95 163e
000003a0: 49cc 32bd 156f c4bd 5db8 ee3c fecd c23d
000003b0: b57d 9d3c 2802 183e 2026 7b3e 9f2a 7a3e
000003c0: 03fd 3c3e 817e 6d3e cd7b 6b3e d198 b43d
000003d0: 8805 3a3e 4a80 da3d f7d4 1f3e 9062 803e
000003e0: b0a6 1b3e b212 113e 82ea 873e bdcd 823e
000003f0: cba6 f8bd bd97 c6bd fa33 cfbd 201b d5bd

b2 f4 [32]
-0.05899699 -0.04205698 0.035663676 0.04031255 0.14780425 0.08128763 0.06528106 -0.016759006
0.07162268 0.075958885 0.11458486 -0.056842983 0.06023302 0.10970905 0.10784186 -0.03840445
0.060392614 -0.05442489 0.093019605 0.06325333 -0.058783833 0.108229905 0.08239202 0.014302463
-0.10553388 0.10465462 0.12850115 0.011762204 0.07725056 -0.034871783 -0.015382251 0.10379708
00000000: d4a6 71bd f143 2cbd 1314 123d c61e 253d
00000010: ff59 173e 217a a63d 14b2 853d 2f4a 89bc
00000020: e9ae 923d 5590 9b3d 78ab ea3d 30d4 68bd
00000030: e6b6 763d 23af e03d 31dc dc3d fc4d 1dbd
00000040: 3f5e 773d a2ec 5ebd 1081 be3d f68a 813d
00000050: 51c7 70bd a4a7 dd3d 26bd a83d e154 6a3c
00000060: 2622 d8bd 2955 d63d ce95 033e 42b6 403c
00000070: 8b35 9e3d b7d5 0ebd d605 7cbc 9093 d43d

conv3 f4 [32, 32, 3, 3]
0.068856604 -0.04650134 0.12719353 -0.031677954 0.042476308 0.031224303 0.10539109 0.07648568
0.08057669 0.03355662 0.030890573 0.052715883 0.03407285 -0.008549445 0.064150274 0.10502175
0.09912385 0.10426503 -0.044634007 0.012161571 0.10594706 -0.027228108 -0.014233514 0.01882142
-0.09490332 0.0036818953 -0.012746097 -0.17990713 -0.13852681 0.044187907 -0.31533197 -0.27895445
-0.099066995 -0.37899327 -0.33908892 -0.21908398 -0.0069557033 -0.0119670965 0.026274657 -0.08093683
0.035902936 -0.0431083 -0.03426292 -0.07136462 -0.005436873 0.03337994 -0.011157247 0.05581951
0.005723984 -0.07253231 -0.00846665 0.058425594 0.06011002 0.06034343 -0.07294228 0.01865297
0.024923585 -0.0016546197 0.039574724 0.030930312 -0.098736934 -0.03374421 -0.0109296655 0.025310695
0.063882746 -0.009896272 0.14500788 0.06771612 0.073651 0.06590411 0.09925518 0.016470836
-0.14349884 0.020578459 -0.05869617 -0.045357436 0.078591056 -0.05446172 -0.12649928 -0.06273638
-0.01556446 0.004416121 -0.057055265 0.03476141 -0.025513552 -0.009263067 -0.011283628 -0.05894427
-0.06499684 0.004480867 -0.12386726 -0.10673804 -0.1017403 -0.15868856 -0.007352751 -0.06487298
-0.20796683 -0.12049257 -0.06090648 0.25440907 -0.088994704 0.26580942 0.049744025 -0.23014309
0.026943512 0.34756947 -0.034251433 0.24857059 -0.106322706 -0.024890387 0.02528099 -0.039509833
0.120321915 -0.013853473 -0.07789436 -0.070390545 -0.041092 0.03884061 0.048170608 0.09203562
0.093552336 -0.04079915 0.058736257 0.08778022 -0.026608633 0.082542054 -0.108486354 -0.08825239
0.038571615 -0.050522007 0.013655009 -0.078570865 -0.09603997 -0.017188461 -0.055598367 -0.08861291
0.029730314 0.044387233 0.05441398 0.02279076 -0.013589818 -0.030283289 0.033124033 -0.007951966
0.4428128 0.11100495 0.43620718 0.0014989306 -0.12189783 0.12921934 0.29628614 0.0959168
0.35025787 -0.046610117 -0.07971447 -0.02341506 -0.1231678 0.054671556 -0.038049705 -0.17684229
-0.05608859 -0.08676031 -0.013686127 -0.028657354 0.0033075046 0.019311262 -0.02168465 0.031335436
-0.039027657 -0.041520458 -0.031673454 0.16350767 0.087637134 0.20825371 0.095179506 -0.11690926
0.09224649 0.24999055 0.10643347 0.2659247 -0.111460574 -0.049024504 -0.01751012 -0.040416308
0.012180418 -0.0007876366 -0.17862983 -0.0058094417 -0.12749702 -0.12284529 -0.031150652 -0.12576185
-0.14307638 -0.066777766 -0.0066119577 -0.14404154 -0.08419092 -0.16573687 0.3558805 0.16334927
0.26636794 0.13126495 0.039525833 0.21436824 0.30710346 0.1326126 0.32104358 -0.103413664
-0.07296569 -0.0016383233 0.0030089004 -0.07537506 -0.12954853 -0.123160936 -0.09964448 0.001348164
-0.16446947 -0.2682141 -0.3328595 -0.062435582 -0.19303884 -0.2331877 -0.010247781 -0.025469985
-0.155377 0.26067516 0.16357638 0.28324616 0.15644632 0.05174812 0.114474945 0.35630962
0.15408097 0.1772726 -0.051436156 0.01897568 0.045280986 -0.037594423 -0.049441025 -0.014085341
0.016309936 -0.06856172 0.004342462 -0.06664178 -0.04441145 -0.07809011 -0.053892765 -0.038295563
-0.01255841 -0.10954446 -0.07143369 -0.059205905 -0.11215502 0.02131068 -0.037683196 -0.011177693
00000000: b104 8d3d 3078 3ebd 053f 023e bec0 01bd
00000010: a3fb 2d3d 1cca ff3c 49d7 d73d 86a4 9c3d
00000020: 6405 a53d ab72 093d 3a0e fd3c 9cec 573d
00000030: f98f 0b3d f912 0cbc 3861 833d a515 d73d
00000040: 7201 cb3d e788 d53d 26d2 36bd 5341 473c
00000050: c6fa d83d 7b0d dfbc af33 69bc 612f 9a3c
00000060: ac5c c2bd f44b 713b 01d5 50bc 9339 38be
00000070: f9d9 0dbe 61fe 343d 3173 a1be 1ed3 8ebe
00000080: a3e3 cabd 680b c2be 109d adbe 8d57 60be
00000090: abec e3bb a411 44bc f33d d73c 35c2 a5bd
000000a0: f50e 133d 5492 30bd 4757 0cbd 9d27 92bd
000000b0: cc27 b2bb 67b9 083d e3cc 36bc 00a3 643d
000000c0: 4290 bb3b d28b 94bd b4b7 0abc ad4f 6f3d
000000d0: ed35 763d ac2a 773d c362 95bd 1dce 983c
000000e0: 8c2c cc3c d3df d8ba 1b19 223d 9161 fd3c
000000f0: 9736 cabd 5e37 0abd 5712 33bc 6058 cf3c
00000100: f5d4 823d f923 22bc f27c 143e c0ae 8a3d
00000110: 56d6 963d bcf8 863d 4d46 cb3d d9ed 863c
00000120: 5cf1 12be 2894 a83c 656b 70bd b8c8 39bd
00000130: 59f4 a03d 4113 5fbd 0789 01be ee7b 80bd
00000140: 1402 7fbc 1cb5 903b c8b2 69bd fb61 0e3d
00000150: cc01 d1bc 1ec4 17bc f7de 38bc 8c6f 71bd
00000160: 101d 85bd 3dd4 923b 1eae fdbd 7999 dabd
00000170: 385d d0bd 417f 22be 59ef f0bb 20dc 84bd
00000180: 42f5 54be cfc4 f6bd 1379 79bd e841 823e
00000190: db42 b6bd 2c18 883e 64c0 4b3d a1aa 6bbe
000001a0: a4b8 dc3c a0f4 b13e 3b4b 0cbd 4a89 7e3e
000001b0: b8bf d9bd ede6 cbbc 141a cf3c 10d5 21bd
000001c0: 566b f63d adf9 62bc 1487 9fbd eb28 90bd
000001d0: 1650 28bd 5517 1f3d 8b4e 453d 2c7d bc3d
000001e0: 5e98 bf3d 021d 27bd 6e95 703d 1ec6 b33d
000001f0: 59fa d9bc cf0b a93d 182e debd abbd b4bd
00000200: 45fd 1d3d 2af0 4ebd 42b9 5f3c c3e9 a0bd
00000210: 9bb0 c4bd d1ce 8cbc 1dbb 63bd af7a b5bd
00000220: fd8c f33c 63cf 353d 32e1 5e3d b0b3 ba3c
00000230: d4a7 5ebc a914 f8bc 11ad 073d f648 02bc
00000240: 5cb8 e23e 9056 e33d 8c56 df3e c477 c43a
00000250: 92a5 f9bd 1352 043e d1b2 973e 0770 c43d
00000260: 0055 b33e 40ea 3ebd 5741 a3bd f1d0 bfbc
00000270: 663f fcbd 48ef 5f3d 02da 1bbd 2516 35be
00000280: 26bd 65bd 64af b1bd c73b 60bc d4c2 eabc
00000290: b8c2 583b a732 9e3c 02a4 b1bc 9659 003d
000002a0: 77db 1fbd 5b11 2abd 06bc 01bd 8e6e 273e
000002b0: 197b b33d 7640 553e 79ed c23d 1f6e efbd
000002c0: baeb bc3d 86fd 7f3e cbf9 d93d 4827 883e
000002d0: 7145 e4bd ebcd 48bd 6271 8fbc 928b 25bd
000002e0: 6090 473c 6679 4eba bdea 36be 215d bebb
000002f0: 948e 02be 5096 fbbd a72f ffbc b7c7 00be
00000300: 9d82 12be c8c2 88bd 1fa9 d8bb a07f 13be
00000310: 4a6c acbd edb6 29be f835 b63e 0845 273e
00000320: 6161 883e 526a 063e d7e5 213d 5983 5b3e
00000330: aa3c 9d3e 99cb 073e d35f a43e 8bca d3bd
00000340: 096f 95bd 02bd d6ba f930 453b 3d5e 9abd
00000350: 5fa8 04be cd3b fcbd 6812 ccbd e1b4 b03a
00000360: af6a 28be 5c53 89be 8f6c aabe 74bc 7fbd
00000370: f9ab 45be c2c8 6ebe 4fe6 27bc 6ea6 d0bc
00000380: 261b 1fbe 3777 853e 9180 273e a405 913e
00000390: 7733 203e d6f5 533d d771 ea3d 376e b63e
000003a0: 67c7 1d3e f386 353e b8ae 52bd e372 9b3c
000003b0: 8e78 393d 9cfc 19bd ac82 4abd 34c6 66bc
000003c0: 6a9c 853c 166a 8cbd 364b 8e3b 7c7b 88bd
000003d0: c8e8 35bd b5ed 9fbd a9be 5cbd cfdb 1cbd
000003e0: cac1 4dbc d958 e0bd d44b 92bd e481 72bd
000003f0: 88b1 e5bd bc93 ae3c b259 1abd a422 37bc

b3 f4 [32]
0.17909934 0.16390534 0.15645278 0.18694933 0.20363294 0.17192058 0.24856319 0.24022058
0.22271839 0.17224954 0.26233825 0.20120004 0.2009246 0.20717679 0.19320579 0.26625735
0.16319272 0.2655316 0.17367658 0.17741074 0.23682602 0.20290507 0.21074656 0.24860746
0.212335 0.14715005 0.122650795 0.18794109 0.23725103 0.23835292 0.2030712 0.1925016
00000000: d165 373e cdd6 273e 2835 203e a56f 3f3e
00000010: 2785 503e f30b 303e 5987 7e3e 62fc 753e
00000020: 4a10 643e 2f62 303e 3351 863e 6207 4e3e
00000030: 2ebf 4d3e 2726 543e bdd7 453e e252 883e
00000040: fe1b 273e c2f3 873e 46d8 313e 29ab 353e
00000050: 8582 723e 59c6 4f3e f2cd 573e f492 7e3e
00000060: 596e 593e 81ae 163e 5730 fb3d a173 403e
00000070: eff1 723e ca12 743e e6f1 4f3e 241f 453e

w4 f4 [5, 32]
-1.5243071 1.327481 -2.0172062 -0.63571984 -1.4435927 -0.712486 0.8384535 -1.3647208
-2.3895423 -2.2999654 -0.5333706 -2.132653 3.1986651 2.924151 0.6666789 0.5919766
-1.0320206 1.0971543 -2.4671516 -0.0691303 -1.978468 -0.05983086 2.7593553 -2.1508627
-2.3567667 -1.7885792 -1.6697502 -1.8980947 2.9180694 -1.4457929 2.9020972 3.084598
-1.8666551 -2.026375 -2.1907353 2.870774 0.03163631 -2.3460426 -2.1466758 0.3257346
1.9199686 0.77676654 -2.006068 -1.9654605 -1.991837 -0.43433 -2.3036091 3.04237
2.9593492 -1.4840342 0.5611061 3.1980762 -0.8953122 0.26166242 -1.8042351 -1.9259133
-0.05987614 3.1697612 -1.544047 3.0100284 0.9188001 -1.2919877 -1.9574748 -1.7889602
-0.03387799 2.2830648 -1.7875124 -2.3337712 -2.1488585 1.2547804 -1.9541771 -2.2769744
-2.5370197 1.4453057 3.3338637 3.4877343 -1.4494684 -1.9207904 -0.99817246 -2.15157
0.41356903 -1.935463 0.8866679 0.03491199 -1.9173194 3.431939 -2.492206 -0.24342377
3.3762684 -0.33261245 -1.8244637 -1.6224508 -1.7995694 3.1785138 0.9615422 -1.728734
3.1898587 1.3835922 2.5627484 0.9900209 -1.2093526 -1.499273 3.1855776 3.2205818
0.9548759 -2.551328 -1.9446874 0.35336843 -1.7639276 -1.803743 -1.7377211 -1.6716468
-1.8785906 -1.8367884 3.066651 -1.898633 -0.6040107 -2.225899 1.5031654 -0.8785378
0.56474566 -0.9116412 2.9491212 -1.6309893 -2.3976314 -2.006165 -2.1661615 -0.6733479
-1.4032177 -2.35244 1.122049 -2.092022 3.1203043 2.7415233 -1.3930684 -1.0441309
1.6271571 1.9259107 -0.918925 -0.9595165 0.09771523 -1.7137147 3.047491 -1.5902503
-1.42827 3.001708 -1.8563898 -2.058347 3.0170405 -1.8685597 -0.94016755 2.9848745
-0.8914997 -1.4091709 -1.5000145 0.73989934 -1.8308586 -1.66544 -1.5771405 -1.5251254
00000000: 7f1c c3bf e6ea a93f e819 01c0 89be 22bf
00000010: a5c7 b8bf 7c65 36bf e3a4 563f 2caf aebf
00000020: 43ee 18c0 a232 13c0 fa8a 08bf 637d 08c0
00000030: eeb6 4c40 4a25 3b40 78ab 2a3f c78b 173f
00000040: 4019 84bf 8d6f 8c3f d0e5 1dc0 3094 8dbd
00000050: 703e fdbf 3411 75bd 4799 3040 bca7 09c0
00000060: 44d5 16c0 2af0 e4bf 60ba d5bf c4f4 f2bf
00000070: a6c1 3a40 be0f b9bf f6bb 3940 0e6a 4540
00000080: 8eee eebf 21b0 01c0 0235 0cc0 c3ba 3740
00000090: 1395 013d 9025 16c0 2363 09c0 afc6 a63e
000000a0: 88c1 f53f 2cda 463f 6b63 00c0 3694 fbbf
000000b0: 84f4 febf 8060 debe 556e 13c0 31b6 4240
000000c0: fa65 3d40 d5f4 bdbf a6a4 0f3f 48ad 4c40
000000d0: 2e33 65bf 9ef8 853e 2df1 e6bf 5484 f6bf
000000e0: af40 75bd 5edd 4a40 55a3 c5bf 4ea4 4040
000000f0: 7c36 6b3f da5f a5bf 898e fabf a6fc e4bf
00000100: a6c3 0abd bc1d 1240 35cd e4bf 825c 15c0
00000110: e686 09c0 a59c a03f 7a22 fabf f3b9 11c0
00000120: 885e 22c0 c7ff b83f 065e 5540 0a37 5f40
00000130: 2e88 b9bf 76dc f5bf 3b88 7fbf 53b3 09c0
00000140: 52bf d33e 40bd f7bf abfc 623f e0ff 0e3d
00000150: b96a f5bf e3a4 5b40 4e80 1fc0 1544 79be
00000160: c814 5840 2e4c aabe 0788 e9bf 78ac cfbf
00000170: 4a58 e6bf c56c 4b40 a127 763f 2847 ddbf
00000180: a526 4c40 8d19 b13f 1204 2440 0272 7d3f
00000190: 11cc 9abf 2de8 bfbf 81e0 4b40 031e 4e40
000001a0: bf72 743f f548 23c0 84eb f8bf b5ec b43e
000001b0: 61c8 e1bf 0de1 e6bf a56d debf 86f8 d5bf
000001c0: a875 f0bf e21b ebbf 0344 4440 6806 f3bf
000001d0: 72a0 1abf 2175 0ec0 b967 c03f dae7 60bf
000001e0: 2c93 103f 5161 69bf 67be 3c40 42c4 d0bf
000001f0: cb72 19c0 0265 00c0 64a2 0ac0 8760 2cbf
00000200: a39c b3bf 618e 16c0 4d9f 8f3f b0e3 05c0
00000210: 11b3 4740 1e75 2f40 1150 b2bf 15a6 85bf
00000220: af46 d03f 3e84 f63f ab3e 6bbf e0a2 75bf
00000230: ec1e c83d 015b dbbf 180a 4340 528d cbbf
00000240: 8dd1 b6bf fc1b 4040 2e9e edbf f5bb 03c0
00000250: 3117 4140 f72c efbf d2ae 70bf 2f08 3f40
00000260: 5339 64bf b65f b4bf 7a00 c0bf 0b6a 3d3f
00000270: 9359 eabf 232d d5bf bddf c9bf 4f37 c3bf

b4 f4 [5]
0.055374783 0.10456065 -0.038476776 0.17944126 -0.19127993
00000000: abd0 623d e523 d63d d399 1dbd 73bf 373e
00000010: e3de 43be

exp_avg f4 [32, 1, 3, 3]
-0.0027680479 -0.003285034 -0.0024341764 -0.003643839 -0.003573848 -0.0033215822 -0.005919249 -0.006875328
-0.0070240363 0.0031214997 0.0011316683 0.00019782067 0.0017012968 -8.885448e-05 0.0007023623 -0.0014740606
-1.7159262e-05 0.00046448663 -9.6015836e-05 -0.0057871277 -0.0057171714 -0.002317922 -0.007527741 -0.004880633
-0.0012730064 -0.009055458 -0.005541842 -0.005690842 -0.0054253917 -0.001992563 -0.007067331 -0.008631006
-0.008175675 -0.0056868102 -0.005772077 -0.0038891665 0.0034853413 0.002964644 -0.00028947345 0.0035170962
0.0011743521 -0.0027177227 0.0015162677 0.0016048398 0.0014057981 -0.0077167545 -0.0037309066 -0.008995941
-0.0070904423 -0.0058579133 -0.012802651 -0.00313828 -0.004257156 -0.014243517 0.00354478 0.0013335462
0.0022913695 0.006247318 0.0032105572 0.002212182 0.008734376 0.0047427653 0.0021633685 4.092853e-05
0.0017032841 0.0011253905 -0.0012399383 0.0004687192 0.0013893315 -0.004170873 -0.0033305124 -0.004188216
0.004407886 0.004785197 0.0008387831 0.004115663 0.0036625317 0.0011693224 0.0018730225 0.005062562
0.0018434608 0.00030319436 0.0022473247 0.0014772179 -0.0040612104 -2.432732e-05 -0.00058934855 -0.0056054923
-0.0036850232 -0.0029474609 -0.0011141625 0.002679553 0.006044161 -0.0063049495 0.00019173876 0.004582454
-0.0062445323 0.00037298395 0.0027812943 0.0002949319 -0.002868994 -0.00023891767 -0.0007162413 -0.004814947
0.0005994671 0.000854348 -0.0014348704 0.004082767 0.003148856 0.003133738 0.0061520007 0.00032970172
0.0023979314 0.0039407117 -0.0016826376 -0.0002482832 0.0005323812 -5.2166764e-05 -0.00034545374 -0.000761187
0.00013490405 0.0004849606 0.0017232843 -0.0011180579 -0.0008791535 -0.001258902 -0.00092371786 -0.006258233
-0.006772233 -0.004463702 -0.0072901174 -0.004109754 -0.0021947164 -0.004235018 -0.00294734 -0.00311353
-0.0034107969 -0.004777405 0.00036080732 0.00012873496 -0.0013078783 0.00026940487 0.00031023353 -0.0021407816
-0.001512481 -0.0020031852 -0.003242066 -0.0032652924 -0.001232635 -0.0036387693 -0.004937601 -0.0006031932
-0.0013116872 -0.0024525626 -0.0016087106 -0.00016186238 -0.0023642955 -0.0010173868 -0.00026636975 -0.00082317484
-0.0025314782 -0.003295777 -0.004632559 -0.0015024961 -0.00040937273 -0.0015176075 -0.0036859794 -0.0016556943
-0.0023082318 -0.0054116985 -0.005112886 0.0057534887 0.001446518 0.0010685464 0.008670061 0.0030285735
0.00086330716 0.012737026 0.0060981377 0.0026843208 -0.0040088254 -0.0040773605 -0.001840188 0.00033773624
0.0005564184 0.0020033915 0.00094679976 -0.00032235583 3.07758e-05 -0.014368964 -0.009910447 -0.010283815
-0.012870647 -0.014284712 -0.012991352 -0.003277862 -0.003257718 -0.0037704299 -0.0008974904 -0.0019869641
-0.0043494455 -0.0006139128 -0.0023458533 -0.003698152 -0.0012591011 -0.0004222339 -0.0030654317 -0.0005415021
0.00066989334 0.0014272272 4.6015586e-05 -0.00074921973 -0.0010359399 0.004434766 0.000862146 -0.00038296886
0.0007429164 0.0025732599 0.0021605466 0.003541633 0.0037925423 0.006425419 0.008952183 0.0075129564
0.0033427884 0.0045820824 -0.0028236706 -0.0012050675 0.00097527227 0.00014099736 -0.0003049823 -0.0001677127
-0.0021676112 -0.0021665932 0.0015610278 0.004096532 0.0016922036 0.0040355623 0.004059863 0.0012886693
0.005456733 0.002939919 0.0029355728 -0.0010686193 -6.6880355e-05 -0.002867063 9.262208e-05 -6.654612e-05
-0.0015656566 0.0020833518 -0.0002732971 -0.0007105504 -0.00076702127 -0.0008632649 0.001120038 -0.0023090348
00000000: 2368 35bb ba49 57bb b486 1fbb 79cd 6ebb
00000010: 3837 6abb e7ae 59bb 42f6 c1bb 6e4a e1bb
00000020: e329 e6bb 1392 4c3b 7d54 943a 156e 4f39
00000030: 0cfe de3a 6357 bab8 bc1e 383a 4435 c1ba
00000040: 3cf1 8fb7 5786 f339 1c5c c9b8 f2a1 bdbb
00000050: 1c57 bbbb 47e8 17bb 45ab f6bb b8ed 9fbb
00000060: 02db a6ba 585d 14bc 5798 b5bb 3e7a babb
00000070: 7cc7 b1bb a995 02bb 1295 e7bb 1069 0dbc
00000080: 44f3 05bc 6c58 babb b123 bdbb 63e1 7ebb
00000090: 536a 643b 794a 423b 78c4 97b9 157f 663b
000000a0: b8ec 993a d21b 32bb 80bd c63a 7d59 d23a
000000b0: c242 b83a d4dc fcbb 3a82 74bb b663 13bc
000000c0: f156 e8bb bdf3 bfbb 36c2 51bc 9aab 4dbb
000000d0: 9d7f 8bbb a45d 69bc 8a4f 683b 63ca ae3a
000000e0: cd2a 163b 4db6 cc3b 3668 523b 41fa 103b
000000f0: a11a 0f3c 3369 9b3b 4dc7 0d3b adaa 2b38
00000100: bb40 df3a d781 933a 6d85 a2ba 6dbe f539
00000110: 3b1a b63a d2ab 88bb ba44 5abb 4d3d 89bb
00000120: 0770 903b 24cd 9c3b c8e1 5b3a afdc 863b
00000130: 1607 703b f343 993a 3580 f53a d9e3 a53b
00000140: 48a0 f13a 0ff6 9e39 da47 133b 359f c13a
00000150: e713 85bb 8612 ccb7 837e 1aba 47ae b7bb
00000160: 6e80 71bb 302a 41bb 1709 92ba 719b 2f3b
00000170: 190e c63b c099 cebb 7b0d 4939 6928 963b
00000180: ef9e ccbb 0f8d c339 6046 363b 17a1 9a39
00000190: bb05 3cbb f985 7ab9 24c2 3bba b4c6 9dbb
000001a0: 8e25 1d3a 53f6 5f3a 4312 bcba bbc8 853b
000001b0: 0a5d 4e3b 665f 4d3b b996 c93b d1db ac39
000001c0: 9d26 1d3b 1621 813b f38b dcba 022c 82b9
000001d0: 7f8f 0b3a a3cd 5ab8 041e b5b9 658a 47ba
000001e0: 0875 0d39 4f42 fe39 d3df e13a cc8b 92ba
000001f0: fe76 66ba be01 a5ba a825 72ba dd11 cdbb
00000200: 9ce9 ddbb 3f44 92bb f0e1 eebb 1eab 86bb
00000210: 3bd5 0fbb e8c5 8abb 2928 41bb 5e0c 4cbb
00000220: ad87 5fbb c78b 9cbb bd2a bd39 07fd 0639
00000230: 1d6d abba e93e 8d39 d7a6 a239 5b4c 0cbb
00000240: 713e c6ba df47 03bb d778 54bb 84fe 55bb
00000250: 5e90 a1ba 6b78 6ebb 99cb a1bb 9c1f 1eba
00000260: ebec abba 2cbb 20bb 5fdb d2ba 9ab9 29b9
00000270: 4cf2 1abb d659 85ba 8ba7 8bb9 54ca 57ba
00000280: 28e7 25bb f6fd 57bb b9cc 97bb 67ef c4ba
00000290: 14a1 d6b9 75ea c6ba 7990 71bb e203 d9ba
000002a0: b445 17bb 9e54 b1bb ff89 a7bb c387 bc3b
000002b0: 1799 bd3a 780e 8c3a df0c 0e3c 087b 463b
000002c0: 904f 623a f6ae 503c e3d2 c73b 6eeb 2f3b
000002d0: 775c 83bb 619b 85bb 7732 f1ba 3112 b139
000002e0: 9bdc 113a 554b 033b a832 783a de01 a9b9
000002f0: 4315 0138 ce6b 6bbc 6d5f 22bc 727d 28bc
00000300: 68df 52bc 6d0a 6abc aed9 54bc 66d1 56bb
00000310: 707f 55bb 5119 77bb 9045 6bba ba37 02bb
00000320: cb85 8ebb feee 20ba e3bc 19bb b25c 72bb
00000330: 6c08 a5ba 465f ddb9 69e5 48bb 97f3 0dba
00000340: c89b 2f3a cc11 bb3a dc00 4138 4967 44ba
00000350: 60c8 87ba 8351 913b a301 623a 36c9 c8b9
00000360: 47c0 423a 23a4 283b f597 0d3b be1a 683b
00000370: 4d8c 783b 528c d23b 2dac 123c 3f2f f63b
00000380: af12 5b3b 4b25 963b 550d 39bb 5bf3 9dba
00000390: 6aa9 7f3a b1d8 1339 08e6 9fb9 09dc 2fb9
000003a0: 7b0e 0ebb 67fd 0dbb 679b cc3a 333c 863b
000003b0: eecc dd3a c03c 843b 9908 853b 91e8 a83a
000003c0: 65ce b23b a8ab 403b bd62 403b ea10 8cba
000003d0: 1e42 8cb8 56e5 3bbb 1a3e c238 ad8e 8bb8
000003e0: b836 cdba d888 083b 5149 8fb9 3b44 3aba
000003f0: ed11 49ba ba4c 62ba 3dce 923a 2d53 17bb

exp_avg_sq f4 [32, 1, 3, 3]
0.0005385354 0.00014223119 8.955199e-05 0.00053494447 0.000113865 0.00013251536 0.00089588953 0.00047745625
0.00049069436 0.0005541927 0.00022410108 2.5691135e-05 0.00052409514 0.00018886634 2.893696e-05 0.0005344039
0.00020034821 2.5274097e-05 0.000118386626 0.0006985612 0.0011404913 8.611946e-05 0.00063079223 0.0011234387
8.358045e-05 0.0006824982 0.0011436617 0.00092924736 0.0006289561 0.00028049023 0.00087576 0.00089816126
0.00065759727 0.0004471171 0.0007516957 0.0007741792 0.0013655232 0.0011817103 0.0009173049 0.0006989204
0.00054408406 0.0004347527 0.00010460145 7.752757e-05 6.35835e-05 0.00044250838 8.260021e-05 0.0006011088
0.00053790066 0.0005405378 0.0013717469 0.00013381682 0.00028876343 0.0012149462 0.00029880655 3.5401532e-05
3.755718e-05 0.000433516 8.520067e-05 5.035551e-05 0.0008744719 0.00045391987 0.00026907504 0.0001288542
0.00027390567 0.000660299 0.00018875595 0.00045709996 0.0011027606 0.0004464244 0.0008339826 0.001472385
0.000879119 0.0005031848 0.000114252936 0.0008438322 0.0003994261 6.371521e-05 0.0008012152 0.00037836016
5.9254213e-05 0.0006548424 0.0003737743 0.00048497788 0.0004437458 4.2478205e-05 0.0002871052 0.0006766076
0.00038661936 0.000550824 0.00055178016 0.00027154203 0.00036809433 0.00039106933 3.44745e-05 0.00020291902
0.00031691018 2.504e-05 0.0002657825 0.0002322891 0.00014740293 0.00012567508 0.00022167007 6.0077153e-05
5.508488e-05 0.00024547987 0.00010690783 0.00012132527 0.0006386188 0.0003549292 0.00054101774 0.0005090652
0.00011687926 0.00034351082 0.0009929109 0.00067497237 0.00075433357 8.043531e-05 7.190779e-05 8.451972e-05
0.00026850667 0.00028903817 0.00035944584 0.0006912596 0.0008982313 0.0009338982 0.0009666854 0.0011472247
0.0007882789 0.00048662955 0.0007504965 0.00036938905 0.0008803612 0.00068887963 0.0002489826 0.00030290373
0.00038718808 0.001278204 8.099237e-06 3.022751e-06 0.00040966386 3.5114626e-06 3.5752282e-06 0.00030998443
0.00014875096 0.0003270307 0.00039585054 0.0003757624 0.0003593907 0.00030593245 0.0001901988 7.076902e-05
6.0970826e-05 0.0008342529 0.0002935243 7.6953904e-05 0.00034708757 0.00022333756 0.0001478498 0.00013246796
0.00016865878 0.0004665532 0.00025118171 6.836391e-05 0.0003483953 6.397879e-05 0.00025784847 0.0007039082
0.00047921774 0.00084140763 0.001144906 0.0005134831 3.311193e-05 8.822056e-05 0.00078412093 0.00018645902
5.4326214e-05 0.0009343772 0.00068168575 0.00037284338 0.000524911 0.00074762345 0.0009236212 0.0003982225
0.0005567392 0.00087668665 0.00017605381 0.0002995028 0.00069480884 0.0014688337 0.0015692441 0.0016407574
0.0007503727 0.00081014505 0.0009282156 0.00013010536 0.00012635437 0.00013214473 6.1293795e-05 0.00020645781
0.00030115052 0.000114704926 0.0002762375 0.00028060356 0.00017104091 0.00028615518 0.00018668076 0.00032645214
0.00069281115 0.0010258926 5.97462e-05 0.00021409526 0.00041186198 0.0002874533 3.6006204e-05 4.7091497e-05
0.0001691243 0.0001350885 0.0001795894 0.001032781 0.0009836848 0.0011175672 0.0021576032 0.0021994654
0.0022708196 0.0004808105 0.0004358175 5.5915967e-05 0.00032597894 0.00040916813 2.5701567e-05 0.00047575313
0.0005908975 8.0432954e-05 8.664452e-05 0.00023919056 0.0004091804 0.0004993678 0.00055594795 0.0005100749
0.0012689434 0.0009929944 0.0009906183 0.0009717106 0.00073706167 0.0004388402 0.0006704545 0.0007312252
0.0003348419 0.00018797202 0.00040619748 9.9967576e-05 5.009786e-05 0.00015560017 0.00027956092 0.00024750468
00000000: 802c 0d3a e523 1539 dccd bb38 843b 0c3a
00000010: ceca ee38 d2f3 0a39 21da 6a3a 1853 fa39
00000020: f1a1 003a 3e47 113a adfc 6a39 4b83 d737
00000030: 6e63 093a 6c0a 4639 a6bd f237 3d17 0c3a
00000040: 9014 5239 b603 d437 5646 f838 a61f 373a
00000050: 8a7c 953a 089b b438 c05b 253a 5940 933a
00000060: ea47 af38 aee9 323a ebe6 953a bc98 733a
00000070: 88e0 243a c30e 9339 4293 653a 9572 6b3a
00000080: 9b62 2c3a 0b6b ea39 720d 453a 49f2 4a3a
00000090: 5bfb b23a 9ee3 9a3a 4a77 703a c137 373a
000000a0: dda0 0e3a 85ef e339 7a5d db38 4c96 a238
000000b0: 2258 8538 7800 e839 a639 ad38 bb93 1d3a
000000c0: e701 0d3a e1b2 0d3a 30cc b33a 2e51 0c39
000000d0: 2c65 9739 d43e 9f3a 23a9 9c39 1b7c 1438
000000e0: b786 1d38 8849 e339 c3ad b238 d134 5338
000000f0: d13c 653a 18fc ed39 a412 8d39 091d 0739
00000100: ff9a 8f39 ea17 2d3a caec 4539 eba6 ef39
00000110: 818a 903a 120e ea39 a09f 5a3a 0bfd c03a
00000120: ad74 663a 29e8 033a 149b ef38 9f34 5d3a
00000130: 106a d139 d89e 8538 a408 523a a45e c639
00000140: ba87 7838 bba9 2b3a 23f7 c339 a144 fe39
00000150: 8ea6 e839 a02a 3238 9c86 9639 5e5e 313a
00000160: 2cb3 ca39 2c65 103a 57a5 103a c15d 8e39
00000170: c9fc c039 7008 cd39 b698 1038 a9c6 5439
00000180: f726 a639 fe0c d237 b958 8b39 a192 7339
00000190: 2c90 1a39 a6c7 0339 1b70 6839 5afb 7b38
000001a0: f10a 6738 c0b3 8039 b433 e038 0270 fe38
000001b0: fb68 273a ca15 ba39 16d3 0d3a ca72 053a
000001c0: 131d f538 3e19 b439 9024 823a a1f0 303a
000001d0: 78be 453a 61af a838 33cd 9638 2e40 b138
000001e0: 5bc6 8c39 0c8a 9739 0174 bc39 a635 353a
000001f0: 4877 6b3a d9d0 743a 2969 7d3a 795e 963a
00000200: 80a4 4e3a 5022 ff39 f8bc 443a 8faa c139
00000210: 0ac8 663a ee95 343a e189 8239 0dcf 9e39
00000220: 81ff ca39 6989 a73a f5e1 0737 77da 4a36
00000230: 27c8 d639 78a6 6b36 f4ed 6f36 6885 a239
00000240: 08fa 1b39 5175 ab39 298a cf39 fa01 c539
00000250: 9a6c bc39 8f65 a039 1a70 4739 d469 9438
00000260: edba 7f38 c4b1 5a3a 2ae4 9939 5062 a138
00000270: 4ef9 b539 b82f 6a39 2108 1b39 19e7 0a39
00000280: ffd9 3039 b69b f439 0ab1 8339 985e 8f38
00000290: d3a8 b639 5a2c 8638 d62f 8739 7b86 383a
000002a0: 843f fb39 e991 5c3a ac10 963a 449b 063a
000002b0: aae1 0a38 0d03 b938 778d 4d3a 3684 4339
000002c0: 54dc 6338 fef0 743a 28b3 323a 317a c339
000002d0: 2e9a 093a 29fc 433a 2b1f 723a 85c8 d039
000002e0: 23f2 113a 72d1 653a 169b 3839 9606 9d39
000002f0: d523 363a e185 c03a 18af cd3a af0e d73a
00000300: a9b4 443a ea5f 543a 7f53 733a e46c 0839
00000310: fe7d 0439 5590 0a39 db8a 8038 997c 5839
00000320: bde3 9d39 bd8d f038 f8d3 9039 f91d 9339
00000330: 7259 3339 1907 9639 bcbf 4339 aa27 ab39
00000340: c59d 353a 3e77 863a fe97 7a38 c27e 6039
00000350: 2eef d739 54b5 9639 5e05 1738 1c84 4538
00000360: f556 3139 8ba6 0d39 2a50 3c39 615e 873a
00000370: fcee 803a 557b 923a 9366 0d3b e824 103b
00000380: 08d2 143b 4b15 fc39 6f7e e439 5087 6a38
00000390: 27e8 aa39 9e85 d639 b299 d737 816e f939
000003a0: 76e6 1a3a 1dae a838 ecb4 b538 3acf 7a39
000003b0: 4387 d639 01e8 023a 09bd 113a 8cb6 053a
000003c0: ad52 a63a 5d27 823a a2d7 813a 65ba 7e3a
000003d0: 5f37 413a 2214 e639 71c1 2f3a b1af 3f3a
000003e0: b88d af39 5b1a 4539 e7f6 d439 afa5 d138
000003f0: 2b20 5238 9a28 2339 0892 9239 84c3 8139

exp_avg f4 [32]
7.661021e-09 2.0312974e-08 1.3341283e-08 -4.421304e-10 -5.529749e-09 2.485979e-09 3.2535947e-09 -5.966997e-09
-4.135627e-09 5.409269e-09 5.0967484e-09 -3.8792445e-09 -1.0949539e-08 3.7468957e-09 5.2497455e-09 -1.2714677e-08
-9.25668e-09 -9.2042807e-10 -6.7615815e-09 -8.55755e-10 3.971266e-09 2.159825e-08 -2.042612e-09 -4.7780233e-09
7.8566514e-10 1.9979538e-09 6.607983e-09 -7.818316e-09 -6.5045422e-09 7.0398714e-09 -6.7952732e-09 -1.33910385e-08
00000000: 879d 0332 b47c ae32 9533 6532 5210 f3af
00000010: 3000 beb1 ced5 2a31 d895 5f31 4306 cdb1
00000020: 5c19 8eb1 6fdc b931 791f af31 324a 85b1
00000030: 951c 3cb2 0bbe 8031 4061 b431 be6f 5ab2
00000040: 4f07 1fb2 5e01 7db0 8053 e8b1 683a 6bb0
00000050: a073 8831 0e87 b932 035e 0cb1 f02b a4b1
00000060: 45f6 5730 604c 0931 6f0c e331 5151 06b2
00000070: 8f7e dfb1 5de3 f131 db7b e9b1 690e 66b2

exp_avg_sq f4 [32]
8.6327904e-16 8.928816e-16 1.7763529e-15 1.927652e-15 2.1333529e-15 2.6822128e-15 8.997976e-16 1.2798017e-15
1.389322e-15 9.207192e-16 7.5599173e-16 1.1932661e-15 1.4336463e-15 1.0916601e-15 2.4062412e-15 2.839935e-15
1.01678e-15 1.620497e-15 1.7067682e-15 1.6489148e-15 1.3916076e-15 2.9833676e-15 5.589077e-16 2.4904806e-15
2.7626956e-15 1.3613058e-15 1.874267e-15 1.2027739e-15 1.1774949e-15 1.1286935e-15 5.3531504e-15 1.4150633e-15
00000000: c0d2 7826 84ad 8026 dbff ff26 e7e6 0a27
00000010: 6ab9 1927 1846 4127 acac 8126 5970 b826
00000020: ef38 c826 8bb0 8426 58e6 5926 c0f7 ab26
00000030: 369c ce26 2653 9d26 5163 2d27 8ea3 4c27
00000040: 9088 9226 c989 e926 a2f8 f526 38a2 ed26
00000050: 428d c826 6bf9 5627 1c18 2126 4275 3327
00000060: bd12 4727 522f c426 200e 0727 8656 ad26
00000070: e5b1 a926 71a9 a226 19de c027 9fee cb26
