CS330/XCS330-PS3/src/submission/logs/maml/omniglot.way_5.support_1.query_15.inner_steps_5.inner_lr_0.04.learn_inner_lrs_False.outer_lr_0.001.batch_size_16/state9300.pt (torch, 353132 bytes, 30 tensors)

conv0 f4 [32, 1, 3, 3]
0	0xbe1c4785	-0.15261658
1	0xbdf69b42	-0.12041332
2	0x3bb598e2	0.0055419067
3	0xbd33635e	-0.043795936
4	0x3c1f9587	0.00974024
5	0xbe62b53d	-0.2213945
6	0x3e50b420	0.20381212
7	0x3e6053b6	0.21906933
8	0xbef2785a	-0.47357446
9	0xbe0e0f3f	-0.13873003
10	0xbd31f95f	-0.04345071
11	0xbd24e051	-0.040252987
12	0xbeef25e9	-0.4670861
13	0xbcdc7388	-0.026910558
14	0xbd11e509	-0.035618816
15	0x3eb30b6b	0.3496965
16	0xbc8393bd	-0.016061658
17	0xbcfcfd58	-0.030882522
18	0x3e3acd1d	0.18242307
19	0xbec11912	-0.3771444
20	0xbe3c6af9	-0.18400182
21	0xbeb78dec	-0.35850465
22	0xbd811621	-0.06303049
23	0x3dd1e34e	0.10248433
24	0xbe81355e	-0.25236028
25	0x3e869d5f	0.2629194
26	0xbba37630	-0.0049884543
27	0x3dce68f9	0.10078616
28	0x3cfe2417	0.031023068
29	0xbeb66ca9	-0.35629776
30	0x3decac03	0.11556246
31	0x3dc2df2d	0.09515224
32	0xbedfd5e8	-0.43717885
33	0xbedd84ac	-0.43265283
34	0xbed3af45	-0.41344658
35	0xbe6370b8	-0.22210968
36	0x3d64a91d	0.05582534
37	0xbd4aaacc	-0.04947929
38	0xbc00ea3b	-0.007868345
39	0xbd7e8e30	-0.06214732
40	0x3da4ff6e	0.08056532
41	0x3e6d941a	0.23201028
42	0xbeecade1	-0.4622641
43	0xbe64ad89	-0.22331823
44	0x3dd156eb	0.102216564
45	0xbf0666eb	-0.5250079
46	0x3da9078b	0.08253392
47	0x3e144f3c	0.1448335
48	0xbf16c76f	-0.5889806
49	0x3e106f27	0.14104901
50	0x3e41a97e	0.18912312
51	0xbf03d750	-0.51500416
52	0xbc81aed0	-0.015830427
53	0x3db8a87e	0.09016512
54	0xbea087e7	-0.31353685
55	0xbd2f5444	-0.04280497
56	0x3c252b45	0.010081117
57	0xbd7d734d	-0.061877538
58	0xbe6756ea	-0.22591749
59	0xbe3ab1a2	-0.18231824
60	0x3ea2bd22	0.31784922
61	0xbdec4a63	-0.11537626
62	0xbdab6c3a	-0.08370252
63	0x3d1de470	0.038547933
64	0x3eb6391f	0.35590455
65	0xbc1dee4c	-0.009639334
66	0x3d22ad40	0.039716005
67	0xbd9cfc72	-0.076653376
68	0xbeb02c60	-0.34408855
69	0xbbf9c8f9	-0.0076228348
70	0xbd0fed77	-0.035138573
71	0xbe7732fb	-0.24140541
72	0x3e9230a7	0.28552744
73	0x3cf656c7	0.030070676
74	0xbe7f0948	-0.24905884
75	0xbc84070e	-0.016116645
76	0xbe8b9d8e	-0.27268642
77	0xbd6efc6c	-0.058346197
78	0xbd5a77bb	-0.05333684
79	0xbd2b7a6e	-0.041864805
80	0xbe5d166b	-0.21590583
81	0x3d42e40a	0.047580756
82	0xbe176deb	-0.14788024
83	0xbed5109b	-0.4161423
84	0x3e6075ee	0.21919987
85	0x3da2fddb	0.07958575
86	0xbf0b9c94	-0.54535794
87	0x3e177cee	0.1479375
88	0xbe120ee0	-0.14263487
89	0xbeceb8eb	-0.40375456
90	0x3ed52a93	0.41634044
91	0xbd00c01a	-0.031433202
92	0x3d997d1e	0.07494567
93	0xbf100fe2	-0.56274235
94	0xbda9489b	-0.082658015
95	0xbc7f822f	-0.015595003
96	0x3e7dff68	0.24804461
97	0x3aaab0c7	0.0013022654
98	0xbb28b914	-0.002574508
99	0xbe729c1d	-0.23692365
100	0x3e24b35c	0.16084045
101	0x3de38b46	0.11110549
102	0xbeb631ab	-0.3558477
103	0x3d724d09	0.059155498
104	0x3e29062d	0.16506262
105	0xbe97bc4e	-0.29635853
106	0xbea3ada4	-0.31968415
107	0xbe673d0c	-0.22581881
108	0x3e154935	0.14578708
109	0xbd970316	-0.073736355
110	0xbf04e7ee	-0.51916397
111	0x3c64a5d2	0.01395555
112	0x3e429316	0.19001421
113	0xbda798a3	-0.0818341
114	0xbe9b51f9	-0.30335978
115	0xbcdb250b	-0.026751062
116	0x3e814346	0.25246638
117	0x3e89450b	0.26810488
118	0xbf0f56e9	-0.5599199
119	0x3ed8a08e	0.42309994
120	0x3d820cee	0.063501224
121	0x3c77c1c1	0.015121878
122	0x3cf43bcc	0.02981367
123	0xbdb5abd5	-0.08870665
124	0x3c8f78bc	0.017513625
125	0xbd5eb6c7	-0.05437353
126	0xbe164cbe	-0.14677712
127	0xbe846183	-0.25855646
128	0xbe7614cd	-0.24031372
129	0xbe42eb23	-0.1903501
130	0xbdca6dde	-0.09884237
131	0xbe07484e	-0.13211176
132	0xbda368bf	-0.07978963
133	0x3bfbec62	0.007688091
134	0x3eacf219	0.33778456
135	0xbcb58789	-0.022159355
136	0x3c5ad3da	0.013356173
137	0x3c20fc43	0.009825769
138	0x3d868f14	0.06570259
139	0xbdb39d4b	-0.08770236
140	0x3d7308f8	0.059334725
141	0x3ea2f77a	0.31829435
142	0xbf3ef3f2	-0.7459098
143	0x3e3b1825	0.18270929
144	0xbd539c03	-0.051662456
145	0x3d81d0d2	0.063386574
146	0x3d460311	0.048342768
147	0x3d1ae9de	0.03782069
148	0x3cb0c613	0.021578824
149	0x3d229441	0.039692167
150	0x3f326818	0.69690084
151	0x3d844a21	0.064594515
152	0xbe755a4b	-0.23960225
153	0x3c8b2d19	0.016989278
154	0xbe9a8547	-0.30179808
155	0x3e78bb96	0.24290308
156	0xbdfb257e	-0.122630104
157	0xbe021f3e	-0.1270723
158	0x3bcb2136	0.0061990274
159	0xbdc46a79	-0.095906205
160	0xbe226cf6	-0.15861878
161	0x3e769dbe	0.24083611
162	0x3cdc4b84	0.026891477
163	0x3dbf2125	0.09332494
164	0x3d9f8301	0.07788659
165	0xbe4ff5f9	-0.20308675
166	0xbecbf91f	-0.39838502
167	0xbec5d0ce	-0.38635868
168	0xbc1f1f23	-0.009712013
169	0x3df087cb	0.117446505
170	0x3e10590e	0.14096472
171	0x3debcaba	0.115132764
172	0x3e3df6f0	0.1855123
173	0x3e07031c	0.1318478
174	0x3c9c5dc8	0.019087687
175	0x3e1b0c3d	0.15141387
176	0x3b29ecb9	0.0025928451
177	0xbefd0ea4	-0.49425232
178	0xbf153056	-0.5827688
179	0xbef37d0f	-0.4755635
180	0xbf028023	-0.5097677
181	0xbf0c6e46	-0.54855764
182	0xbeeabf4b	-0.4584907
183	0x3d70a9a5	0.058755536
184	0x3de2a8fe	0.11067389
185	0xbd9c5754	-0.07633844
186	0x3e17d52f	0.14827417
187	0x3e1577f8	0.14596546
188	0x3d79b48c	0.0609632
189	0x3df6e687	0.12055688
190	0x3bc8d7bf	0.0061292346
191	0xbf07b3f8	-0.53008986
192	0xbceaa489	-0.02864291
193	0x3e1a0911	0.15042521
194	0xbf078ab5	-0.52946025
195	0x3e419f60	0.18908453
196	0x3ddfe9ae	0.10933243
197	0xbef0d9a1	-0.47041038
198	0xbea149e2	-0.3150168
199	0xbe9214db	-0.28531536
200	0xbe23ab01	-0.15983202
201	0xbe9bc085	-0.30420318
202	0xbe1ad97c	-0.15122026
203	0x3cf14d63	0.029455846
204	0xbeb63286	-0.3558542
205	0xbe128e29	-0.14312042
206	0x3dcfe8d6	0.10151832
207	0x3df5528b	0.119786344
208	0x3c859c1b	0.016309788
209	0x3eb19ed5	0.34691492
210	0xbd93eaf8	-0.07222551
211	0xbe505bd3	-0.20347528
212	0xbe655821	-0.223969
213	0xbdae220b	-0.08502587
214	0xbe817ff6	-0.2529294
215	0xbe6e4e6c	-0.23272103
216	0xbf28fcb5	-0.660106
217	0x3eb1de8b	0.347401
218	0x3daf8372	0.08569993
219	0xbd9aadb5	-0.07552663
220	0x3c7b146c	0.015324693
221	0x3c946d40	0.0181185
222	0x3b894f1f	0.00419034
223	0xbd323fb2	-0.043517776
224	0xbdbe4b49	-0.09291703
225	0x3e579a72	0.2105501
226	0xba9bb5d6	-0.0011879753
227	0xbd4bb8bd	-0.049736727
228	0x3e5f24a0	0.21791315
229	0x3d347254	0.044054344
230	0xbd8a0711	-0.06739629
231	0xbed61e2e	-0.418199
232	0xbeb4635e	-0.3523206
233	0xbe39bac7	-0.18137656
234	0xbec1d46b	-0.37857375
235	0xbeb5da08	-0.35517907
236	0xbe4da84d	-0.20083733
237	0xbe9d710d	-0.30750313
238	0x3e521e12	0.20519283
239	0x3e3b9376	0.1831797
240	0xbe9809ed	-0.29695073
241	0x3e45a3dd	0.1930079
242	0x3de4dcdf	0.1117494
243	0x3e2e789e	0.170382
244	0x3dfe3793	0.12412944
245	0xbe86ccc5	-0.26328102
246	0x3dd9f200	0.10641861
247	0x3d407480	0.046986103
248	0xbe99df7f	-0.30053326
249	0x3c34cd98	0.0110353455
250	0xbe8a10c8	-0.26965928
251	0xbd7c6b44	-0.061625734
252	0xbe8b6bf9	-0.27230814
253	0xbd02f9d2	-0.03197653
254	0x3e90ad90	0.28257418
255	0x3e2c24fe	0.16810986

b0 f4 [32]
0	0xbcdf29e9	-0.027241664
1	0xbda9e80c	-0.082962126
2	0xbe15bb33	-0.14622192
3	0x3daba936	0.08381884
4	0xbd385589	-0.045003448
5	0xbe20a5b9	-0.15688218
6	0xbe3450df	-0.17608975
7	0xbca2e5c0	-0.019884944
8	0x3d5781c2	0.05261398
9	0x3e3c0c74	0.18364125
10	0x3d1505a8	0.036382347
11	0x3de18f88	0.110137045
12	0x3cc1c75e	0.023654636
13	0x3bbaebb9	0.00570437
14	0x3ce249ab	0.027623018
15	0x3d412c56	0.047161423
16	0x3cfe4f53	0.031043684
17	0x3df4ec91	0.11959184
18	0x3e411c82	0.18858531
19	0x3d077dfe	0.03307914
20	0x3d7c89e6	0.061654948
21	0xbd502cbb	-0.05082391
22	0xbe1748ab	-0.14773814
23	0xbe01d4fc	-0.12678903
24	0xbd1aaa53	-0.03776009
25	0x3d130435	0.035892684
26	0xbdb1258c	-0.086497396
27	0xbb3dcdd4	-0.0028961794
28	0xbe9673ef	-0.29385325
29	0xbd69475c	-0.05695282
30	0x3c32b4bf	0.010907351
31	0x3cf9c774	0.030490614

conv1 f4 [32, 32, 3, 3]
0	0x3d213b34	0.0393631
1	0xbd8d6f8d	-0.06906042
2	0xbd9aadf6	-0.07552712
3	0x3dc9f82d	0.09861789
4	0x3d61eeb3	0.055159282
5	0xbe098b68	-0.13432086
6	0x3cbdb2c6	0.023156535
7	0x3dc19a91	0.09453309
8	0xbdf8d963	-0.12150838
9	0xbe1c5bb2	-0.15269354
10	0x3bf4f543	0.0074755265
11	0x3d82c00a	0.06384285
12	0xbe55cca7	-0.2087885
13	0x3e4a7067	0.1976944
14	0xbd2c0e39	-0.04200575
15	0xbb96f07c	-0.0046063047
16	0x3dcf4df2	0.10122289
17	0x3b8fd437	0.0043893117
18	0xbd3d2e1b	-0.046186548
19	0xbdd47824	-0.103744775
20	0x3dbe5e3a	0.09295316
21	0xbad9f947	-0.0016630077
22	0xbd5d50c6	-0.05403211
23	0x3d80eb31	0.06294859
24	0xbcf34eef	-0.029700724
25	0x3d6094d4	0.054829434
26	0x3e36c83a	0.17849818
27	0x3d196db7	0.037458148
28	0x3c2cd5bd	0.010549006
29	0x3d343696	0.04399737
30	0xbc1a270d	-0.0094087245
31	0xbd5bd19f	-0.053666707
32	0x3de75d7d	0.11297128
33	0x3d7422ce	0.059603505
34	0x3e1d7c3a	0.1537942
35	0x3e872065	0.26391903
36	0x3d477ad2	0.048701115
37	0x3cee291b	0.029072335
38	0xbd88aae6	-0.06673221
39	0xbca42f04	-0.02004195
40	0x3d4311a3	0.04762424
41	0xbd13e1ad	-0.036103893
42	0x3d17ac74	0.0370297
43	0xbdd568dd	-0.10420392
44	0xbe0c14d1	-0.13679816
45	0x3e8d6dd9	0.2762287
46	0x3dd219c3	0.1025882
47	0x3d629d2e	0.05532568
48	0x3e86d96a	0.2633775
49	0x3dd09e7e	0.1018648
50	0xbbc5433a	-0.006019977
51	0x3e433755	0.19064076
52	0xbe319d4d	-0.17345162
53	0xbd9d6cdf	-0.07686781
54	0x3de1759b	0.110087596
55	0xbb1ef41f	-0.0024254394
56	0x3d2569f0	0.040384233
57	0x3e86ed83	0.26353082
58	0x3dcede83	0.101010345
59	0xbd8df382	-0.06931211
60	0x3de203a7	0.11035853
61	0xbd4df513	-0.05028255
62	0xbe0f1068	-0.13971102
63	0x3dfa4b68	0.12221414
64	0x3cb44e77	0.022010071
65	0x3d9dd927	0.07707434
66	0x3cb7077e	0.02234244
67	0x3c3fbc05	0.011702542
68	0x3da3c24f	0.07996046
69	0xbe3cab2b	-0.1842467
70	0x3d6228d3	0.055214714
71	0x3e0848a8	0.13308966
72	0x3db19e42	0.086727634
73	0x3d82d8a2	0.06388976
74	0x3e29b75b	0.16573851
75	0xbc10ecc6	-0.008845514
76	0x3c9b79f3	0.018979048
77	0x3e0e4807	0.13894664
78	0xbcb363b1	-0.021898123
79	0xbda0b272	-0.07846536
80	0x3d545752	0.051841088
81	0x3e230027	0.15918027
82	0x3e12b9ef	0.1432874
83	0x3de19270	0.11014259
84	0x3df37e1e	0.11889289
85	0xbb1075eb	-0.002204294
86	0xbd4a7a2c	-0.04943292
87	0x3d2bd062	0.041946776
88	0xbdd8b9c4	-0.10582307
89	0xbddd1ccc	-0.10796508
90	0xbe10300c	-0.14080828
91	0xbc238b96	-0.00998201
92	0x3d8cd06c	0.06875691
93	0xbe6133b8	-0.21992385
94	0xbc5c2c44	-0.013438288
95	0x3d80c095	0.06286732
96	0xbd23d90e	-0.04000192
97	0xbdd4d8a0	-0.103928804
98	0xbd8ae202	-0.06781389
99	0x3d710846	0.05884578
100	0x3d27b8e0	0.040947795
101	0xbdd53b26	-0.10411672
102	0x3e031f43	0.12804894
103	0x3c957569	0.018244462
104	0xbe34fd25	-0.17674692
105	0x3e95a049	0.2922385
106	0xbd80f418	-0.06296557
107	0x3d1dcb44	0.038523927
108	0x3dd261f3	0.102725886
109	0x3d82f266	0.0639389
110	0xbc6949b4	-0.014238764
111	0x3d6af048	0.057358056
112	0xbcb5695b	-0.022144964
113	0xbbe32452	-0.00693182
114	0x3d0e3f2b	0.03472821
115	0x3ca80700	0.02051115
116	0xbddcf990	-0.10789788
117	0xbcffcf03	-0.03122664
118	0x3d63ad50	0.055585206
119	0xbcca4546	-0.024691235
120	0xbcc7eea8	-0.024405792
121	0xbaa2380c	-0.0012376322
122	0x3cfa5082	0.030555967
123	0xbdc05280	-0.093907356
124	0xbbb55dc9	-0.0055348617
125	0xbd4a140a	-0.049335517
126	0xbd383728	-0.044974476
127	0x3d1e4669	0.038641367
128	0xbdaa1729	-0.08305199
129	0x3c781658	0.015142046
130	0xbdb1b548	-0.08677155
131	0xbc40efdb	-0.011775936
132	0x3d5277b4	0.05138369
133	0x3e56adf7	0.209648
134	0x3e683a0e	0.22678396
135	0x3e00e96e	0.12589046
136	0x3ddec23b	0.1087689
137	0x3b9fd2a1	0.004877404
138	0x3c401892	0.011724608
139	0x3df148ff	0.11781501
140	0xbcd9ffb9	-0.026611196
141	0xbe15ca26	-0.14627895
142	0xbe8fd166	-0.28089446
143	0xbe3d4493	-0.1848319
144	0xbd47b231	-0.04875392
145	0xbd7814cc	-0.06056671
146	0xbdabd081	-0.08389378
147	0xbe01e847	-0.12686263
148	0xbe16d5c4	-0.14729983
149	0xbe402a92	-0.1876624
150	0xbdafc117	-0.08581751
151	0xbe3fa34d	-0.18714638
152	0xbe12d7c9	-0.14340128
153	0x3e0312d3	0.1280015
154	0x3e580d27	0.21098767
155	0x3b9f5967	0.0048629525
156	0xbd43b4d5	-0.047779877
157	0x3d5ef916	0.054436766
158	0x3e3375be	0.17525384
159	0xbd6ec24e	-0.058290772
160	0xbe05f28a	-0.13080803
161	0xbe287611	-0.16451289
162	0xbd1cc723	-0.03827585
163	0x3dd17b23	0.102285646
164	0x3c76716d	0.015041691
165	0xbb11da19	-0.002225524
166	0xbd409ecd	-0.047026444
167	0x3c25edd8	0.010127507
168	0x3dacecc3	0.08443596
169	0x3d870359	0.065924354
170	0x3c96de85	0.018416652
171	0xbd7d31ac	-0.06181495
172	0xbe04c5ae	-0.12966034
173	0xbd3feb91	-0.046855513
174	0xba0fff7f	-0.0005493089
175	0xbd30517a	-0.043046452
176	0x3dbc71df	0.09201407
177	0x3e1f560e	0.15560171
178	0x3e8c00c9	0.2734435
179	0x3ec85b7f	0.39132306
180	0xbe9fac57	-0.31186172
181	0x3d933e02	0.071895614
182	0x3db952ca	0.09048994
183	0xbcb18f59	-0.021674799
184	0x3e12b38b	0.14326303
185	0x3dde932b	0.10867914
186	0x3e23d105	0.15997703
187	0x3e143d86	0.14476594
188	0x3eb92091	0.3615766
189	0x3e6060ce	0.21911928
190	0x3dfef2ee	0.12448679
191	0x3e211b08	0.15732968
192	0x3e29fa3b	0.16599362
193	0x3c5bbd9d	0.013411907
194	0xbd1a8824	-0.03772749
195	0x3d2456b4	0.04012175
196	0xbddde317	-0.108343296
197	0xbdd9c293	-0.10632815
198	0xbd1c8cec	-0.03822033
199	0x3d483318	0.04887685
200	0x3cc7eb6a	0.024404246
201	0x3dbdc590	0.09266198
202	0xbd6bbb7c	-0.057551846
203	0xbb74254d	-0.0037253678
204	0xbe3ad637	-0.18245779
205	0xbdc2d021	-0.09512354
206	0xbdbbd913	-0.09172263
207	0xbd72db33	-0.059291076
208	0x3bdcc91c	0.0067378413
209	0xbd2f7644	-0.042837396
210	0xbd88b078	-0.06674284
211	0xbd0a0137	-0.033692565
212	0x3dc74251	0.09729446
213	0x3a91eab7	0.0011132573
214	0x3d0692c0	0.032854795
215	0x3b91e810	0.004452713
216	0x3c6af4ea	0.014340619
217	0x3d220cce	0.039562993
218	0x3da786bf	0.08179998
219	0x3c1e077e	0.009645341
220	0xbd181803	-0.037132274
221	0x3d3b2a44	0.045694605
222	0xbd991b23	-0.07475879
223	0x3cabcf29	0.020972805
224	0xbdf29142	-0.11844112
225	0xbd3ae6c3	-0.045630228
226	0xbcce99aa	-0.025219757
227	0x3c88c873	0.016697144
228	0xbe3857c8	-0.18002236
229	0xbcbc470c	-0.022983097
230	0x3da58902	0.08082773
231	0xbe17c448	-0.14820969
232	0x3d7afaff	0.061274525
233	0x3e616316	0.22010455
234	0xbdd16a44	-0.10225347
235	0xbd6dcbd3	-0.05805571
236	0x3d8147cb	0.063125215
237	0xbcec55d9	-0.02884953
238	0x3de88d15	0.11355034
239	0x3e1117ce	0.14169237
240	0xbd3fcc7c	-0.04682587
241	0xbdc7ddc0	-0.09759092
242	0x3db6332b	0.08896478
243	0xbc8e0a6f	-0.01733896
244	0x3d9865c3	0.074412845
245	0x3e0a6ed2	0.13518837
246	0xbe0594d1	-0.1304505
247	0xbc82f371	-0.015985223
248	0x3d9f605c	0.07782051
249	0xbe16205c	-0.14660782
250	0xbd0a4971	-0.033761445
251	0x3d47065a	0.04859004
252	0xbdcd6c7c	-0.100304574
253	0x3ba40b2e	0.0050062155
254	0x3dacde4a	0.08440836
255	0xbd18ca39	-0.03730223

b1 f4 [32]
0	0x3d166c82	0.036724575
1	0x3d6b7747	0.0574868
2	0x3d8f3a1c	0.06993505
3	0x3ddec2be	0.10876988
4	0xbe200139	-0.15625466
5	0xbd8ccd56	-0.06875102
6	0xbe901a11	-0.28144887
7	0x3e5fc76e	0.2185342
8	0xbd5abb8c	-0.053401515
9	0x3bd4ae0d	0.006490475
10	0x3d503078	0.050827473
11	0x3d31f9cd	0.04345112
12	0x3dfa3922	0.122179285
13	0x3e67d0b8	0.22638214
14	0x3decb346	0.11557631
15	0xbbc88b47	-0.006120119
16	0x3d3aa011	0.045562807
17	0xbeb6db35	-0.35714117
18	0xbe55da62	-0.20884088
19	0x3d68152e	0.056660824
20	0xbe2cee45	-0.16887768
21	0x3df6e9ac	0.12056288
22	0x3d7a40b1	0.06109685
23	0x3d953814	0.07286087
24	0x3d90e6d3	0.07075276
25	0x3d880bb7	0.066428594
26	0x3d92d3ef	0.071693294
27	0xbf014559	-0.5049644
28	0x3cc0356f	0.02346298
29	0x3e10e36f	0.14149259
30	0xbd3bd983	-0.045861732
31	0xbe13f624	-0.14449364

conv2 f4 [32, 32, 3, 3]
0	0x3d88f244	0.066868335
1	0x3db9abca	0.09065969
2	0x3d3e736f	0.046496805
3	0x3c42c983	0.011888864
4	0x3c123d9d	0.008925823
5	0xbbc08204	-0.005874874
6	0x3ccab0ad	0.024742449
7	0x3b43a0d0	0.002985049
8	0xbca3fdad	-0.020018423
9	0x3bbc25a8	0.0057417937
10	0xbb392320	-0.0028249696
11	0xbc93c383	-0.018037563
12	0x3cffa973	0.03120873
13	0xbd2ae3f3	-0.041721296
14	0x3ce5c1d6	0.02804653
15	0xbd84e7fa	-0.064895585
16	0x3c854878	0.016269907
17	0x3ca0242c	0.019548498
18	0xbcd30065	-0.025757024
19	0xbbb2d273	-0.0054572164
20	0x3be5aa59	0.0070088324
21	0x3bfa7625	0.0076434785
22	0xbda87526	-0.08225469
23	0xbc39fdca	-0.011352012
24	0xbc8d4742	-0.017245892
25	0x38ec2355	0.00011259938
26	0xbd16f9aa	-0.036859192
27	0xbd73a7e4	-0.059486285
28	0xbcfc613f	-0.03080809
29	0xbdafa095	-0.085755505
30	0xbcf8ec9b	-0.03038626
31	0x3d1be00f	0.038055476
32	0x3b9df8de	0.004820927
33	0xbda6fc3e	-0.0815358
34	0xbd801062	-0.06253125
35	0xbc21bcd0	-0.009871677
36	0x3ca61d7f	0.020277737
37	0x3c10ec46	0.0088453945
38	0x3d127575	0.035756547
39	0x3d190987	0.0373626
40	0x3ca90fcb	0.020637413
41	0x3d3897e8	0.045066744
42	0x3d4ccda9	0.05000082
43	0x3d22448f	0.039616164
44	0x3cdb94b6	0.02680431
45	0x3d2ae07b	0.041717988
46	0x3ce6d585	0.028177986
47	0x3d0f0d1e	0.03492462
48	0x3cd5e256	0.026108902
49	0xbd7d8b83	-0.061900627
50	0x3bfdef8e	0.0077495044
51	0x3d623edd	0.055235732
52	0xbc95834d	-0.018251086
53	0x3ca740be	0.020416614
54	0x3cc5ea3b	0.024159541
55	0x3cba0575	0.02270768
56	0x3d09f7a8	0.03368345
57	0x3d2a0240	0.041506052
58	0xbcbfc6fc	-0.023410313
59	0x3b1fbf1d	0.0024375387
60	0xbd1b83bd	-0.037967432
61	0xbc22e6eb	-0.00994275
62	0xbd23234b	-0.03982858
63	0xbdae24d6	-0.0850312
64	0xbd411bfa	-0.04714582
65	0xbd8fc284	-0.07019523
66	0xbdb6a8d3	-0.089189194
67	0xbd384a13	-0.044992518
68	0xbc63d350	-0.013905361
69	0xbc7c2bb3	-0.015391278
70	0x3cf2c1b0	0.029633373
71	0x3ca7d1a0	0.0204857
72	0x3cd1a703	0.025592333
73	0xbc2b9e7f	-0.0104748
74	0xbb385f39	-0.002813293
75	0xbcbcd6fb	-0.02305173
76	0xbcf843e5	-0.030305812
77	0xbd0d846f	-0.034550127
78	0xbd693cc7	-0.056942727
79	0xbd1ea179	-0.03872821
80	0xbd6fc7f2	-0.058540292
81	0x3be0688f	0.006848402
82	0x3d857539	0.06516499
83	0x3d77786d	0.06041758
84	0xbc6d57f7	-0.0144863045
85	0xbdb076ca	-0.08616407
86	0xbd393f4e	-0.045226388
87	0xbc8200a7	-0.015869452
88	0xbddb4837	-0.10707133
89	0x3b9beb9d	0.004758312
90	0x3d049a2d	0.032373596
91	0x3d01e13f	0.031708952
92	0x3d423d6b	0.047421854
93	0xbca692fe	-0.020333763
94	0xbd432d03	-0.04765035
95	0xbd5fd0a8	-0.05464235
96	0xbce65e7c	-0.028121226
97	0xbd110c16	-0.035411917
98	0xbc032269	-0.0080038095
99	0xb9859aa3	-0.0002548295
100	0x3cca5a33	0.024701213
101	0xbc350412	-0.011048334
102	0xbd3a31a3	-0.045457494
103	0xbd41827a	-0.047243573
104	0x3ccccc85	0.024999866
105	0x3bba2784	0.00568098
106	0xbcdfaffc	-0.027305596
107	0x3d8ac8a1	0.06776548
108	0xbd0df4a5	-0.03465714
109	0xbc6b4a69	-0.0143610025
110	0xbd945085	-0.072419204
111	0x3d883052	0.06649841
112	0xbd9704c3	-0.07373955
113	0x3c77d994	0.015127558
114	0x3cffce10	0.031226188
115	0xbccdcb5c	-0.025121383
116	0xbd7273e2	-0.059192546
117	0xbcec8074	-0.028869845
118	0xbb3dbb98	-0.0028950926
119	0xbcc8d35f	-0.024514852
120	0xbacb192c	-0.0015495173
121	0xbc5ae838	-0.013361029
122	0x3b64d006	0.003491403
123	0xbd263568	-0.040578276
124	0xbc589b8f	-0.013220682
125	0xbcc9a194	-0.02461318
126	0xbc5041af	-0.012710973
127	0xbd5f282a	-0.054481663
128	0x3b8a0c26	0.004212874
129	0xbcdea5f9	-0.027178751
130	0xbd39a1d2	-0.04532034
131	0xbcaeacb5	-0.021322588
132	0xbd0d6cc6	-0.034527563
133	0x3c05cfe3	0.00816724
134	0xbd8f8e31	-0.07009543
135	0xbc6a1da9	-0.014289298
136	0xbcadc3d9	-0.021211552
137	0x3d1ed6e5	0.03877916
138	0xbcdce609	-0.026965158
139	0xbd03caf5	-0.032175977
140	0xbcbc6b8a	-0.023000497
141	0x3d08dc4e	0.033413224
142	0xbca6b07d	-0.020347828
143	0xbcc66607	-0.024218572
144	0x3d3ad4e0	0.04561317
145	0xbccfb216	-0.025353473
146	0xbdb7115b	-0.08938857
147	0x3c0f867e	0.008760093
148	0xbcf16d12	-0.029470954
149	0xbda56616	-0.08076112
150	0x3d7c03cf	0.06152707
151	0x3c2198d6	0.009863099
152	0xbd80a9a2	-0.06282355
153	0x3c5adc1c	0.013358142
154	0xbd4e9083	-0.050430786
155	0x3931807a	0.00016927897
156	0x3c842eab	0.016135534
157	0xbb1a7731	-0.0023569579
158	0xbcbe5fac	-0.02323898
159	0xbc25a40e	-0.0101099145
160	0x3c8f4941	0.017490985
161	0x3bd44361	0.0064777588
162	0x3d4eda4b	0.05050115
163	0x3b96c928	0.0046016164
164	0x3d060d06	0.032727264
165	0x3d3ac459	0.045597408
166	0x3d3e0218	0.046388716
167	0x3ce6b6dc	0.028163366
168	0x3d129c07	0.03579333
169	0x3c9485db	0.018130234
170	0x3d40f851	0.047111813
171	0xbc9130c2	-0.017723445
172	0x3a63684a	0.0008674903
173	0xbdc29953	-0.095019005
174	0xbce49442	-0.027902726
175	0x3c31eca5	0.010859643
176	0xbd1876b7	-0.03722259
177	0xbca7f88a	-0.020504255
178	0xbd4dffaa	-0.05029265
179	0xbc99505f	-0.018715082
180	0x3d04e619	0.032446
181	0x3d041999	0.032250974
182	0x3d4fefaa	0.05076567
183	0x3d79eb58	0.061015457
184	0x3caa9c37	0.020826442
185	0x3c454a61	0.012041659
186	0x3c92f2e0	0.017938077
187	0x3da89c26	0.08232908
188	0x3d80774e	0.062727556
189	0xbd76244a	-0.0600932
190	0xbde774e3	-0.11301591
191	0xbcc73a81	-0.024319889
192	0xbcdd3953	-0.027004873
193	0xba512300	-0.00079779327
194	0xbd8d56cf	-0.06901323
195	0xbdcfaefe	-0.10140799
196	0xbd194bfe	-0.037425987
197	0xbca6770b	-0.020320436
198	0x3b6e680f	0.0036377942
199	0x3c7a0ab4	0.015261341
200	0xbc339558	-0.010960899
201	0xbb89ff70	-0.0042113587
202	0x3c0452f3	0.008076417
203	0xbbfd6e06	-0.007734063
204	0x3d212500	0.039341927
205	0x3bc66ad2	0.0060552144
206	0x3d066a03	0.032815944
207	0xbd732a89	-0.059366737
208	0xbbe3cdc5	-0.00695202
209	0xbd3293fe	-0.043598168
210	0x3ce6a3f1	0.028154345
211	0x3c981f94	0.018569745
212	0xbd81f699	-0.06345863
213	0x3c3ac1b2	0.01139872
214	0x39855731	0.000254327
215	0x3cb9a959	0.022663759
216	0x3cc935a8	0.024561718
217	0x3d03cec7	0.03217962
218	0x3d0cd50f	0.034382876
219	0xbcef6a91	-0.02922562
220	0x39a46e55	0.0003136272
221	0x3cd77c36	0.026304346
222	0x3d4b4f04	0.049635902
223	0x3c14addd	0.009074655
224	0xbb6676ea	-0.0035166093
225	0xbca7f121	-0.020500721
226	0xbcd3714e	-0.025810864
227	0xbdb03d72	-0.0860547
228	0xbcb15eb5	-0.021651605
229	0xbdcb81df	-0.0993688
230	0xbd21ad23	-0.039471757
231	0xbdba1f28	-0.09087974
232	0xbdae7c18	-0.08519763
233	0xbc836939	-0.016041385
234	0xbb2653a4	-0.0025379444
235	0xbbdc6e17	-0.006726991
236	0xbd6978fd	-0.05700015
237	0xbda34a42	-0.07973148
238	0xbd8bd79d	-0.06828234
239	0x3cf2b9b2	0.029629562
240	0x3c67293f	0.014108955
241	0xbcfdce35	-0.030982116
242	0xbc9c7497	-0.019098563
243	0x3cfa22fd	0.030534262
244	0x3c6ca5f6	0.014443865
245	0x3c23e40d	0.010003102
246	0x3d8b2bc7	0.06795459
247	0x3c9c4199	0.019074248
248	0x3bd88ffd	0.0066089616
249	0xbc0632fe	-0.008190868
250	0x3d554e2d	0.052076507
251	0x3ccc8596	0.024966042
252	0xbc268f70	-0.010166034
253	0x3c63cd37	0.0139039075
254	0x3d34d001	0.04414368
255	0xbcbaad12	-0.022787604

b2 f4 [32]
0	0x3cb398a3	0.021923369
1	0x3e8d5277	0.27601978
2	0x3d523501	0.05132008
3	0xbdd640d9	-0.104615875
4	0x3e827a2d	0.25483838
5	0x3c977ee7	0.018493129
6	0x3d1c16bb	0.038107615
7	0x3dcc90cb	0.099885546
8	0xbcb41e38	-0.021987066
9	0x3efa220f	0.4885411
10	0x3e9a1f64	0.30102074
11	0x3e14bbe4	0.145248
12	0x3e1f9ab1	0.15586354
13	0xbdd90ca8	-0.10598117
14	0x3ddd31ce	0.10800515
15	0xbd9be5ec	-0.076122135
16	0x3eab466b	0.33452162
17	0xbcb8e837	-0.022571666
18	0x3dc52f40	0.09628153
19	0x3e8f1678	0.2794683
20	0xbd06f269	-0.032946024
21	0x3e764c63	0.24052577
22	0xbe8c5338	-0.2740724
23	0xbcf9bea9	-0.030486422
24	0x3eb753df	0.35806176
25	0xbdbda23b	-0.09259459
26	0x3d88d9cb	0.06682166
27	0x3e12eb87	0.14347659
28	0x3ce5c77e	0.028049227
29	0x3e791f96	0.24328455
30	0x3c1cc6c6	0.009568876
31	0xbd019679	-0.031637643

conv3 f4 [32, 32, 3, 3]
0	0xbe0b0fb4	-0.13580209
1	0xbd410d3d	-0.047131766
2	0xbe46928c	-0.1939184
3	0xbd339e26	-0.043851994
4	0x3ccd7802	0.025081638
5	0xbd058b18	-0.032603353
6	0xbe38bc7f	-0.18040656
7	0xbd8beea1	-0.06832624
8	0xbe220e78	-0.15825832
9	0x3e7a62a9	0.24451698
10	0x3e610a36	0.21976551
11	0x3e85c9d6	0.2613055
12	0x3e0dce47	0.1384822
13	0xb878bf8a	-5.9306192e-05
14	0x3e10244a	0.14076343
15	0x3e8b290d	0.27179757
16	0x3e1ad756	0.15121207
17	0x3e5c869a	0.21535721
18	0x3d718b36	0.058970653
19	0x3c795d16	0.015219947
20	0xbc1c92cd	-0.009556484
21	0x3d3a6433	0.045505714
22	0xbc8a4e39	-0.016883003
23	0x392a3879	0.00016233501
24	0x3d3c4c9b	0.045971494
25	0x3cf7d8d6	0.030254763
26	0x3c56ae5b	0.013103093
27	0x3d7fa48f	0.062412795
28	0x3d8b0464	0.06787947
29	0x3cb49e53	0.022048151
30	0x3d4ae7d5	0.0495375
31	0x3da1b7b4	0.07896367
32	0x3d7ddb39	0.061976645
33	0x3d263c60	0.04058492
34	0x3d479493	0.048725676
35	0x3c32ba6e	0.010908706
36	0xbdebaba3	-0.115073465
37	0xbc6dd19a	-0.014515305
38	0xbdf5ebdf	-0.120078795
39	0xbd3dac00	-0.04630661
40	0x3be5a0ea	0.007007708
41	0xbdc8dd67	-0.09807854
42	0xbdf9ff20	-0.12206864
43	0xbdd93692	-0.106061116
44	0xbe0a1294	-0.1348365
45	0x3ea6ee7b	0.3260382
46	0x3e3a0157	0.18164574
47	0x3e93d81f	0.28875825
48	0x3e80941e	0.25113004
49	0x3dc3ecba	0.095666364
50	0x3e06f125	0.13177927
51	0x3e5ecb52	0.21757248
52	0x3e4dbb84	0.20091063
53	0x3ea31887	0.3185465
54	0xbd8086bf	-0.06275701
55	0xbda5a8b0	-0.08088815
56	0xbda8e1c7	-0.082461886
57	0xbda923e0	-0.08258796
58	0xbda0a30c	-0.07843599
59	0xbe387f72	-0.18017367
60	0xbd8e6f15	-0.06954781
61	0xbe1022bd	-0.14075752
62	0xbe30ae72	-0.17254046
63	0x3de7f9c2	0.113269344
64	0x3e035402	0.12825015
65	0x3e1654b3	0.14680748
66	0x3e304ee3	0.17217593
67	0x3d873c1e	0.06603263
68	0x3e5819e9	0.21103634
69	0x3e2c9e95	0.16857369
70	0x3dad6ca7	0.084679894
71	0x3e1a69a7	0.15079366
72	0xbdd2cd4d	-0.10293064
73	0xbd27d6ee	-0.040976457
74	0x3bc256e0	0.0059307665
75	0xbd792e5b	-0.060835224
76	0xbde3a1d9	-0.11114854
77	0xbd892704	-0.06696895
78	0xbdd64a42	-0.10463382
79	0xbc47b83d	-0.012189922
80	0xbc884dbf	-0.016638635
81	0x3e4bf4af	0.19917558
82	0x3ddff328	0.1093505
83	0x3e680f97	0.22662197
84	0x3e100401	0.14064027
85	0x3d2c0c6e	0.04200404
86	0x3dc3ed7c	0.09566781
87	0x3e322dfb	0.17400353
88	0x3dc58131	0.09643782
89	0x3e53936c	0.20661706
90	0xbd91391f	-0.07090973
91	0xbd9d25fd	-0.07673261
92	0xbdc938d1	-0.0982529
93	0xbda24963	-0.07924154
94	0x3c9c0797	0.019046588
95	0xbd9214f2	-0.07132901
96	0xbdd3c556	-0.10340373
97	0xbdc735e0	-0.09727073
98	0xbdfc32ea	-0.123143986
99	0x3a9f5ce7	0.0012158424
100	0x3d8b282c	0.067947716
101	0xbd1ac142	-0.03778196
102	0x3d073e3a	0.03301833
103	0xbd826aa4	-0.06367996
104	0xbd20d0a0	-0.03926146
105	0x3b918509	0.004440908
106	0xbcd1d7a7	-0.025615526
107	0xbd6e2e3c	-0.05814956
108	0xbc7a9583	-0.015294435
109	0xbd8dd979	-0.06926245
110	0x3c0f7eae	0.00875823
111	0xbcf312b3	-0.029672002
112	0x3a82f9ba	0.0009992637
113	0xbdafb3f6	-0.08579247
114	0xbd619ef2	-0.055083223
115	0xbdde5adf	-0.10857176
116	0xbd1ec59d	-0.038762677
117	0xbe1d46c6	-0.15359029
118	0xbc47ac08	-0.012187012
119	0xbdeffba5	-0.11717919
120	0xbda90058	-0.08252019
121	0xbc9689bf	-0.01837623
122	0xbdba8d18	-0.09108943
123	0xbe16d66b	-0.14730231
124	0xbde5307b	-0.111908875
125	0xbe0de042	-0.13855079
126	0x3e1a4aa5	0.15067537
127	0x3de2b68c	0.11069974
128	0x3e095417	0.13410984
129	0x3d9e892d	0.07741008
130	0x3cf7e491	0.030260356
131	0x3d19ce68	0.03755036
132	0x3dd7bdc6	0.10534243
133	0x3dcff523	0.10154178
134	0x3e07293f	0.13199328
135	0x3d39736b	0.045276087
136	0x3d17bb61	0.037043933
137	0x3dcd96a3	0.10038497
138	0xbd1529d1	-0.036416832
139	0xbbb6fd4c	-0.0055843946
140	0x3d1b6980	0.03794241
141	0x3d51c28e	0.051210932
142	0xbcf93212	-0.030419383
143	0xbd1c79e9	-0.0382022
144	0xbd1898f9	-0.03725526
145	0x3b75dbeb	0.0037515115
146	0xbd6700e1	-0.056397323
147	0x3c89e534	0.016832925
148	0x3d12b6d8	0.035818905
149	0xbccf3b0d	-0.025296712
150	0xbda22212	-0.07916655
151	0xbb447819	-0.002997881
152	0xbda761a0	-0.08172917
153	0x3dc88332	0.097906485
154	0x3d67402a	0.056457676
155	0xbd451ae9	-0.048121367
156	0xbc004419	-0.007828736
157	0x3d2126c8	0.039343625
158	0x3da0fffc	0.07861325
159	0x3dfac239	0.12244076
160	0x3c6f06d0	0.014589027
161	0xba72966f	-0.0009253984
162	0xbd7ea163	-0.06216563
163	0xbd42d388	-0.047565013
164	0xbd64acac	-0.055828735
165	0x3c87b103	0.016563898
166	0xbc3be751	-0.011468724
167	0xbcd162c2	-0.025559787
168	0xbdcc7cc1	-0.099847324
169	0xbcb4af1d	-0.022056157
170	0xbcb70c69	-0.022344785
171	0x3ce7dcef	0.028303592
172	0xbc882351	-0.016618403
173	0x3c4997c2	0.012304248
174	0x3c76c401	0.015061379
175	0x3ce78ed2	0.028266344
176	0xbcacebcc	-0.02110853
177	0xbd17b0b3	-0.037033748
178	0x3cdd1b8b	0.026990673
179	0xbd95d680	-0.07316303
180	0xbd9c28a0	-0.07624936
181	0xbc1eedf9	-0.009700292
182	0xbdbad3bd	-0.09122417
183	0xbd363cef	-0.044491705
184	0xbcf99f61	-0.030471506
185	0x3ba23d28	0.004951138
186	0xbd1fa791	-0.038978163
187	0xbc942df6	-0.018088322
188	0x3ad654ce	0.0016352178
189	0x3dc5f05c	0.096649855
190	0x3d710cc7	0.058850076
191	0x3d78c1aa	0.060731567
192	0x3d030bf1	0.03199381
193	0x3c2cc4b4	0.010544945
194	0x3d82067b	0.06348892
195	0x3d6bcef6	0.05757042
196	0x3d238ecd	0.039931107
197	0x3c94a6c0	0.018145919
198	0x3deec613	0.116588734
199	0x3d71a6d1	0.05899698
200	0x3d2b9485	0.041889686
201	0x3d80379d	0.062606074
202	0x3dac85d1	0.08423961
203	0x3d020f76	0.031753026
204	0x3d00ff70	0.031493604
205	0x3d4725fd	0.048620213
206	0xbc92bb8a	-0.017911691
207	0x3b19b5a8	0.0023454223
208	0xbc922ad5	-0.01784269
209	0x3cebfcb7	0.028807027
210	0x3d5dbf12	0.054137297
211	0x3d05fe1d	0.032713044
212	0xbca15373	-0.019693112
213	0xbd1dfb4f	-0.038569745
214	0xbb7d3b38	-0.0038640033
215	0x3c899189	0.01679303
216	0x3d231592	0.039815493
217	0xbcfbf21c	-0.030755095
218	0xbd3a8e4c	-0.04554586
219	0xbd052d62	-0.032513984
220	0x3d126aba	0.035746314
221	0xbcab5d71	-0.02091858
222	0xbc77d7a1	-0.0151270935
223	0xbd7266e4	-0.059180155
224	0xbc6f1d61	-0.014594407
225	0xbc16cfa7	-0.009204782
226	0xbd422bb9	-0.04740498
227	0xbd0971d2	-0.033555813
228	0x3d2879cd	0.041131783
229	0xbc1946be	-0.009355245
230	0x3d390e03	0.04517938
231	0x3cba17c4	0.02271641
232	0x3dfaf94c	0.12254581
233	0x3d059f8e	0.032622866
234	0xbbbf2507	-0.0058332714
235	0xbb8d3230	-0.0043089613
236	0xbd9b31b9	-0.07577843
237	0xbe13a8a1	-0.14419796
238	0xbdd6aaa9	-0.104817696
239	0xbd94af2d	-0.07259975
240	0x3c1a4f35	0.0094182985
241	0xbe10afe0	-0.14129591
242	0xbdafa762	-0.085768476
243	0xbc928627	-0.017886234
244	0xbd884f0c	-0.06655702
245	0xbdd77a14	-0.105213314
246	0xbdcde0a1	-0.1005261
247	0xbc058dcd	-0.008151484
248	0xbdb79187	-0.08963304
249	0xbdbc91ba	-0.09207483
250	0xbe0321fb	-0.12805931
251	0xbe529558	-0.20564783
252	0x3d325349	0.04353646
253	0x3d44d04e	0.048050217
254	0x3de55a3a	0.1119885
255	0x3dc0ee56	0.09420459

b3 f4 [32]
0	0xbf11ddc9	-0.5697904
1	0x3ca41be6	0.020032834
2	0x3f006c29	0.5016504
3	0x3f66c678	0.9014659
4	0x3ea79a33	0.32734832
5	0x3f6e4961	0.9308072
6	0x3f78de01	0.9721375
7	0x3db61cd1	0.08892215
8	0x3e85a85b	0.26105008
9	0xbf2adb9a	-0.66741335
10	0x3ed28909	0.41120175
11	0xbca5744f	-0.020197062
12	0xbf3cf785	-0.73815185
13	0xbe6a28b2	-0.22867087
14	0x3ed7dbdb	0.42159924
15	0x3d95503e	0.072906956
16	0x3f95d4b4	1.1705537
17	0xbea6a380	-0.32546616
18	0x3f6c1ff1	0.9223624
19	0x3eae7f85	0.34081665
20	0xbf64e8b2	-0.89417565
21	0x3e9a492f	0.3013396
22	0x3d6d99d2	0.058008023
23	0x3cfd2910	0.03090337
24	0xbef318c4	-0.47479832
25	0xbd885700	-0.06657219
26	0x3d16c38a	0.036807574
27	0xbf33eb3b	-0.7028081
28	0x3d2a6d6b	0.041608255
29	0x3f5d2c87	0.8639607
30	0x3ef5a44f	0.4797692
31	0xbf17f296	-0.5935453

w4 f4 [5, 32]
0	0xbf94d62e	-1.1627862
1	0xbff335de	-1.9000814
2	0x3ff73383	1.9312595
3	0x3eacdc8f	0.33762023
4	0xbd7bda9c	-0.06148778
5	0x3fc596c7	1.5436639
6	0x40091224	2.1417322
7	0xc01dfbf3	-2.4685028
8	0x3efba45f	0.49148843
9	0xbeaabe1a	-0.3334816
10	0x401c67c2	2.4438329
11	0xbff043e6	-1.8770721
12	0xbf9955e9	-1.1979343
13	0xbff1eef9	-1.8901054
14	0x3ffbf8d1	1.9685308
15	0xbfbabc7d	-1.4588772
16	0x4020b3af	2.510967
17	0xbfc6c587	-1.552903
18	0x3fa1df47	1.2646264
19	0x3facfb37	1.3514165
20	0xbf98cefa	-1.1938164
21	0xbf9426a6	-1.1574295
22	0xbfda9459	-1.7076522
23	0xbf933f69	-1.1503726
24	0xbf9dc61f	-1.2326087
25	0x3ebe8b3e	0.37215608
26	0xbf9675bb	-1.1754678
27	0xbf7b443a	-0.9815098
28	0xbfcc99fd	-1.5984493
29	0x3fe63025	1.7983443
30	0x3fb8e718	1.4445524
31	0xbfbf211f	-1.4931983
32	0xbfb0f3cb	-1.38244
33	0x400de82f	2.2172964
34	0xbfe6fee1	-1.8046533
35	0xbfa41e98	-1.2821836
36	0xc00696ac	-2.1029463
37	0xbf9d3ac4	-1.2283559
38	0x3ebe26bd	0.3713893
39	0x3f958271	1.1680433
40	0x3f541319	0.8284164
41	0xbfa783bd	-1.3087078
42	0xc00e7f22	-2.2265096
43	0xbfcc2ea2	-1.5951731
44	0xbf6d771d	-0.9275988
45	0xbf84491a	-1.0334809
46	0xbfd824e0	-1.6886253
47	0x400bd4f4	2.1848726
48	0x3c8bbef7	0.017058833
49	0x40106489	2.2561362
50	0x3fdb5208	1.7134409
51	0xc02a9615	-2.6654103
52	0xbfad610c	-1.3545241
53	0x40144492	2.3166852
54	0xbf98e162	-1.1943781
55	0x3e271f98	0.16320646
56	0x40100a97	2.2506464
57	0xbf1c33a4	-0.610163
58	0x3f7012b0	0.93778515
59	0xbe8d747e	-0.2762794
60	0xbfcca73f	-1.598854
61	0x3f97a5f2	1.1847517
62	0x3f38eb47	0.72234005
63	0x3edf7de8	0.43650746
64	0x40117ce4	2.2732477
65	0x3f53610b	0.8256995
66	0xbf1505ee	-0.58212173
67	0xbfb79420	-1.4342079
68	0x3f8b0c15	1.0863062
69	0xbfd539b9	-1.665824
70	0xbfa7edb5	-1.3119417
71	0xbfde053a	-1.7345345
72	0xbfebf124	-1.8432965
73	0x4034b029	2.823252
74	0xbf304e3b	-0.6886937
75	0xbdbfdc3e	-0.0936818
76	0x3f626458	0.8843436
77	0x3ff4729c	1.9097476
78	0x3feac615	1.83417
79	0xbfa064aa	-1.253072
80	0xbf95f608	-1.1715708
81	0xbf9d4371	-1.2286206
82	0x3f81c7f8	1.0139151
83	0xbf841c02	-1.0321047
84	0xbf94a1ff	-1.1611937
85	0xbf37be8c	-0.71775126
86	0x401e3c45	2.4724286
87	0x40241ca2	2.5642476
88	0xbfaefbee	-1.3670633
89	0xbf745037	-0.954349
90	0xbf89e97c	-1.0774379
91	0x40338a83	2.805329
92	0xbfc5e052	-1.5459082
93	0xbfc84f9f	-1.5649298
94	0xc0196701	-2.3969119
95	0xc0018369	-2.0236456
96	0x3fb37a2c	1.4021659
97	0xbf6f4bf8	-0.93475294
98	0x3fd23244	1.642159
99	0xbfcd8dd3	-1.6058906
100	0xbfde7bc9	-1.7381526
101	0xbfbd6a56	-1.4798076
102	0xbf61efb9	-0.8825641
103	0x3fbbb3c2	1.4664233
104	0x40132705	2.2992566
105	0xbf369adf	-0.71330065
106	0xbf7c4578	-0.985435
107	0x40110421	2.265877
108	0x40211624	2.5169764
109	0xbfe1830a	-1.7618115
110	0xbfac2eb4	-1.3451753
111	0xbfc7352d	-1.5563103
112	0xbfea85c7	-1.8322076
113	0x3f85f5f1	1.046568
114	0xc01528fb	-2.3306262
115	0x3f90a167	1.1299256
116	0x401966e2	2.3969045
117	0xbf8fb86d	-1.1228157
118	0xbf479fd7	-0.7797827
119	0xbfcb97ef	-1.5905741
120	0xbf83d352	-1.0298865
121	0x402d847e	2.7112117
122	0xbfc60cf8	-1.5472708
123	0xbead7638	-0.33879256
124	0x3fcb93f9	1.5904533
125	0xbfdb5e7a	-1.7138207
126	0x3f81fe83	1.0155796
127	0xbf887bc7	-1.0662774
128	0xbfb31da2	-1.3993418
129	0xbf5009cf	-0.81264967
130	0xbfe3600c	-1.7763686
131	0x40192906	2.3931289
132	0x4007790b	2.1167629
133	0x4004aeba	2.0731645
134	0xbfc389c6	-1.527642
135	0x3fa821fe	1.3135374
136	0xbfba3efa	-1.4550469
137	0xbfa776b4	-1.30831
138	0xbec886db	-0.39165387
139	0xbda7c8d9	-0.081926055
140	0xbfe6f649	-1.804391
141	0x3fbeb5c0	1.4899216
142	0xbfa15f48	-1.2607203
143	0xbee1f1b6	-0.44129723
144	0xbf33d62a	-0.70248663
145	0xbfadff8c	-1.3593612
146	0xbf517ad3	-0.8182804
147	0x3fbe0e31	1.4848081
148	0x3ea101c4	0.3144666
149	0xbf23c84d	-0.6397751
150	0x3f3e685b	0.74377984
151	0xbfde27b7	-1.735587
152	0xbfb366d6	-1.4015758
153	0xbfab9d30	-1.3407345
154	0x400b07f1	2.1723597
155	0xbfdad72a	-1.7096913
156	0x40088098	2.1328487
157	0xbf8125f3	-1.0089706
158	0xbf9ff3f2	-1.2496321
159	0x40119d4b	2.2752254

b4 f4 [5]
0	0x3e3fa453	0.18715028
1	0x3d3aa6b4	0.045569137
2	0xbdb73d61	-0.08947254
3	0xbd820f5c	-0.06350586
4	0xbe2b3261	-0.16718437

exp_avg f4 [32, 1, 3, 3]
0	0xbc355268	-0.01106701
1	0xbc32751c	-0.010892179
2	0xbb1cd9ea	-0.0023933598
3	0xbc374b1f	-0.011187344
4	0xbc21e826	-0.009882009
5	0xbb69f3d2	-0.0035698307
6	0xbc1c16b3	-0.009526896
7	0xbc00ddb1	-0.007865355
8	0xba6cb59f	-0.0009029749
9	0x3ac26bab	0.0014833113
10	0xba8a6655	-0.0010559062
11	0x3c4dbf49	0.012557813
12	0x3afa47d2	0.001909489
13	0xbac26d36	-0.0014833573
14	0x3b647456	0.003485938
15	0x399d8a40	0.00030048378
16	0x398ff5e1	0.0002745828
17	0x3be6fbd9	0.0070490655
18	0x3c1a4d5a	0.009417856
19	0x3b9d368e	0.004797763
20	0x3adea342	0.001698591
21	0x3be75e9e	0.00706084
22	0x3c211574	0.009831775
23	0x3aa2966b	0.0012404447
24	0x3b43a6aa	0.0029853978
25	0x3c5d5da9	0.0135111
26	0x3bc094fe	0.0058771363
27	0xbc029591	-0.00797023
28	0xbaf8b955	-0.0018976132
29	0xbab8c61f	-0.0014097131
30	0xbbd574cd	-0.006514168
31	0xbab0a728	-0.0013477551
32	0xba38eab5	-0.0007054017
33	0xba6f9c5a	-0.00091404247
34	0xbaf6b655	-0.001882265
35	0x35d17aae	1.5607418e-06
36	0xbbe2b184	-0.006918134
37	0xbc53d9d4	-0.012930352
38	0xbcc46a7d	-0.023976559
39	0xbba48b62	-0.0050214985
40	0xbba8e3f4	-0.0051541273
41	0xbc9dd0e3	-0.019264644
42	0xbb8a305a	-0.0042171897
43	0xbc29496c	-0.010332447
44	0xbccd7236	-0.025078874
45	0x3bba6958	0.0056888275
46	0x3c7a3c41	0.015273155
47	0x3c5495a4	0.01297513
48	0x3b8bcd37	0.004266407
49	0x3c4e79ae	0.012602253
50	0x3c2fede9	0.010737875
51	0x3b5ace14	0.0033386992
52	0x3c17cb39	0.009264761
53	0x3c2bb152	0.010479288
54	0x3b5b1590	0.00334296
55	0xb8b316a1	-8.5396e-05
56	0x3a670aa1	0.00088135345
57	0x3b62eee3	0.003462725
58	0x3ae6d1ec	0.0017610169
59	0x3ae5774e	0.0017506869
60	0x3c0a06ab	0.008424441
61	0x3bcf4425	0.006325262
62	0x3bc46c15	0.0059943297
63	0xbb891df3	-0.0041844784
64	0xbc68f606	-0.014218813
65	0xbc39c52a	-0.0113385115
66	0xbb70cb49	-0.003674226
67	0xbbdee3c6	-0.006802055
68	0xbb981ac6	-0.0046418635
69	0xbc196c32	-0.009364175
70	0xbc131c57	-0.008978925
71	0xbae592a2	-0.0017515013
72	0xbc0126d2	-0.007882791
73	0xbb40cace	-0.0029417756
74	0xbbc555a7	-0.0060221734
75	0x39822c56	0.00024828565
76	0xba8eb081	-0.0010886342
77	0xbb1c98b6	-0.0023894734
78	0xbb68b2b1	-0.00355069
79	0x39a9fc49	0.0003242216
80	0x3986e742	0.00025730772
81	0xbc3c6e66	-0.01150093
82	0xbb464f61	-0.0030259716
83	0xbb782fa3	-0.003787019
84	0xbc3b59b5	-0.011434962
85	0xba061338	-0.0005114558
86	0xbb383bf6	-0.0028111911
87	0xbc3f6a97	-0.011683128
88	0xbb431f91	-0.0029773454
89	0xbb0a4656	-0.0021099052
90	0xbcbbc932	-0.022923086
91	0xbb9b9ea7	-0.0047491374
92	0xbc97a62d	-0.018511856
93	0xbc975774	-0.018474318
94	0xbc1963a3	-0.009362134
95	0xbcb988da	-0.022648264
96	0xbc4d2a21	-0.012522251
97	0x3b519052	0.003197689
98	0xbc8b3f2c	-0.016997896
99	0x3ba8564f	0.005137242
100	0x3c3ece89	0.0116459215
101	0x3c1e73eb	0.009671192
102	0x3ab896da	0.0014083043
103	0x3bd01640	0.0063503087
104	0x3bd6dd75	0.0065571615
105	0x3af86788	0.0018951753
106	0x3b9164ac	0.00443705
107	0x3beea11c	0.0072823893
108	0x3ba0fd1e	0.0049129864
109	0xba93a8bd	-0.0011265498
110	0x3b504ea4	0.0031785155
111	0x3b1c1458	0.0023815837
112	0xba163a83	-0.0005730765
113	0x3bb7df55	0.00561134
114	0xbb3c381b	-0.0028719965
115	0xbbd3047a	-0.0064397426
116	0x3b63d442	0.0034763967
117	0xbbd9bc7e	-0.0066447845
118	0xbb970837	-0.0046091336
119	0xbba176f8	-0.0049275123
120	0xbc4b9ff1	-0.01242827
121	0xbc121b4d	-0.008917642
122	0xbc5b8675	-0.013398756
123	0xbc1470c3	-0.009060088
124	0xbbf0a4e8	-0.007343877
125	0xbca2bc31	-0.019865127
126	0xbb80aafe	-0.003926634
127	0xbb73b0fe	-0.0037184353
128	0x3abac84a	0.0014250365
129	0xbc1761eb	-0.009239654
130	0xbb968721	-0.0045937453
131	0x3ac92e57	0.0015348893
132	0xbc4b5b67	-0.012411929
133	0xbc20bad9	-0.009810173
134	0xbc0c87d5	-0.008577307
135	0x3b4081a6	0.0029374151
136	0x3aa36613	0.0012466334
137	0xba82cc3d	-0.0009979081
138	0x3be3ea59	0.0069554267
139	0xbb6d5246	-0.003621237
140	0xbbf9a548	-0.00761858
141	0x3bc63783	0.006049098
142	0x3b489815	0.0030608226
143	0x3b4aa11f	0.003091879
144	0xbbc7a7b0	-0.006092988
145	0xbbabef04	-0.0052469987
146	0xbbf66591	-0.007519432
147	0xbac56ae8	-0.0015061768
148	0x3b3fcab6	0.0029265112
149	0xbb179273	-0.0023128062
150	0x3bb05a41	0.005381853
151	0x3bd0faef	0.00637757
152	0x3bb441b3	0.005500996
153	0x3b4d73de	0.003134958
154	0x3ba4f755	0.005034367
155	0x3baa21f3	0.0051920353
156	0x3b00909e	0.0019617449
157	0x3b964b6d	0.004586628
158	0x3babbc06	0.00524092
159	0x3c1d1f50	0.009589985
160	0x3c5fa4bd	0.0136501165
161	0x3c66b3ba	0.014080936
162	0x3c2a5f1c	0.010398652
163	0x3c0b15aa	0.008489052
164	0x3bff0378	0.007782396
165	0x3b8f9de3	0.0043828352
166	0x3b1b2610	0.002367381
167	0x3b7aee9f	0.0038289202
168	0x3b9f1fba	0.004856077
169	0x3bb03f59	0.0053786454
170	0x3b547071	0.0032415653
171	0xbaa97207	-0.001292766
172	0x398672c5	0.00025643982
173	0xbbc356e5	-0.0059612864
174	0xbb83a537	-0.004017498
175	0xba3d87e5	-0.00072300277
176	0xbad2f126	-0.0016093596
177	0xbadec5ae	-0.0016996169
178	0x3a36b407	0.0006969575
179	0x39482311	0.0001908655
180	0x39820244	0.0002479722
181	0xba93ed12	-0.0011285862
182	0xba2117f2	-0.0006145231
183	0xbb2968aa	-0.0025849738
184	0xbab6b9e6	-0.00139409
185	0x390ee099	0.00013625844
186	0x3b635464	0.0034687752
187	0xbb359042	-0.0027704393
188	0x3aaee00e	0.001334192
189	0x3bd32c4f	0.006444491
190	0x3b80cc38	0.003930595
191	0x3b6c9fd1	0.0036106
192	0x3b75a342	0.0037481342
193	0x3b6e0e74	0.0036324533
194	0x3b506bdf	0.0031802577
195	0x3bb074ce	0.005385018
196	0x3b738407	0.0037157552
197	0x3b49ab83	0.0030772395
198	0x39a1279e	0.0003073783
199	0x3952b738	0.00020095415
200	0xbbde3767	-0.006781507
201	0x39edf74a	0.00045388407
202	0x3a40b2a2	0.0007350837
203	0xbbdcbc07	-0.006736282
204	0x38301f75	4.1990967e-05
205	0xb9b91da5	-0.00035308037
206	0xbc31a0b0	-0.010841534
207	0x39aa53e5	0.00032487433
208	0xbb917dda	-0.0044400515
209	0xbc3067d1	-0.010766939
210	0xba4c9db7	-0.0007805484
211	0xbb2625e1	-0.0025352167
212	0xbba876b1	-0.0051411022
213	0xbb701b6c	-0.0036637438
214	0xbb3ead7f	-0.002909511
215	0xbb9016c6	-0.004397246
216	0x3ba0b50d	0.0049043954
217	0x3c2489a7	0.0100425845
218	0x3c4854c1	0.012227238
219	0x3b56f873	0.0032801896
220	0x3c49fada	0.012327874
221	0x3c1a9799	0.009435558
222	0x3c120a44	0.00891358
223	0x3c28837a	0.010285253
224	0x3b66b810	0.0035204925
225	0xbccfca9c	-0.025365166
226	0xbc29259f	-0.010323911
227	0xbc1a4b2a	-0.009417335
228	0xbc88168f	-0.01661232
229	0x3987b2d0	0.00025882432
230	0xbace20e6	-0.0015726357
231	0xbcaafbee	-0.020872083
232	0xbb9c6466	-0.0047727106
233	0xbbccbd8d	-0.006248182
234	0x3a40c19c	0.0007353069
235	0x3b8717b5	0.004122699
236	0x3baa36f9	0.0051945415
237	0x3aff3cb3	0.0019473046
238	0x3b965c34	0.004588628
239	0x3bad2662	0.0052841166
240	0xba1d90c1	-0.0006010645
241	0x3bac34c2	0.0052553127
242	0x3bec7841	0.007216484
243	0xbc9161bd	-0.0177468
244	0xbbfda15e	-0.0077401837
245	0xbc211240	-0.009831011
246	0xbc43b8f8	-0.011945955
247	0xbb6c5a22	-0.0036064466
248	0xbb984567	-0.0046469453
249	0xbc8169b2	-0.01579747
250	0xbb8d5727	-0.004313368
251	0xbac6f4b5	-0.001517913
252	0xbc03b7bf	-0.008039414
253	0xbc3cff98	-0.011535548
254	0xbc66e089	-0.014091619
255	0xbc1c8dc6	-0.009555286

exp_avg_sq f4 [32, 1, 3, 3]
0	0x3ac7db93	0.0015247933
1	0x3a75f36f	0.0009382283
2	0x3b8dec03	0.0043311133
3	0x3b67ee1e	0.0035389732
4	0x3b1c0093	0.0023804053
5	0x3a6db4e5	0.0009067788
6	0x3bf39931	0.0074340333
7	0x3b7c5d1d	0.0038507648
8	0x3a444e27	0.0007488452
9	0x3ab85975	0.0014064746
10	0x3afb1cd8	0.0019158376
11	0x3b34141b	0.0027477804
12	0x3ab8ba23	0.0014093559
13	0x3bb6f240	0.0055830777
14	0x3bfce720	0.007717982
15	0x3bbba8f8	0.0057269298
16	0x3c03b1a8	0.008037962
17	0x3b99dbca	0.0046953904
18	0x3a192530	0.0005842028
19	0x3928e17f	0.00016105732
20	0x39b6f004	0.0003489257
21	0x3931e513	0.00016965372
22	0x39ae9567	0.0003329918
23	0x3a3ba7b9	0.00071584765
24	0x3b000c4b	0.0019538577
25	0x3b8508f8	0.004059907
26	0x3b01dd8c	0.001981589
27	0x3aa54a1f	0.0012610591
28	0x39abb6f8	0.00032751984
29	0x391d8fc1	0.00015026239
30	0x3c2ff196	0.010738751
31	0x3b07f5cc	0.0020745872
32	0x37da7139	2.6040349e-05
33	0x397e8473	0.00024272669
34	0x38ad789f	8.27175e-05
35	0x385daf72	5.2853902e-05
36	0x3abc81cd	0.0014381945
37	0x3ada6379	0.0016661725
38	0x3a3a3704	0.0007103535
39	0x396b0ffe	0.00022417304
40	0x39c42879	0.00037414188
41	0x3a8bcf16	0.0010666575
42	0x39304e12	0.00016813751
43	0x39e49f5c	0.0004360628
44	0x3b3ab81a	0.002849108
45	0x3a6e8d66	0.00091000495
46	0x3ba05443	0.0048928573
47	0x3c3912dc	0.011296
48	0x3a2f43a3	0.0006685799
49	0x3b8830e8	0.0041562207
50	0x3c272bda	0.010203326
51	0x3a741600	0.00093111396
52	0x3bc62c62	0.0060477713
53	0x3c2283c4	0.009919111
54	0x39c2f006	0.00037181395
55	0x3a92b5c4	0.0011193086
56	0x3b5e436f	0.0033914705
57	0x39a55e2c	0.00031541416
58	0x3acbe497	0.0015555796
59	0x3a2948a9	0.00064576656
60	0x3c0741be	0.00825542
61	0x3b8fe173	0.0043908893
62	0x3ac6abc0	0.0015157387
63	0x3ab803a8	0.0014039176
64	0x3b9bcd91	0.00475473
65	0x3acc7676	0.0015599269
66	0x3bacd8af	0.005274854
67	0x39e20f4a	0.0004311747
68	0x3a56321d	0.00081709196
69	0x3b6482f3	0.003486809
70	0x39e8e89d	0.000444238
71	0x3a11df45	0.0005564581
72	0x3a9e1dda	0.001206334
73	0x3b5592ce	0.0032588723
74	0x3940150d	0.00018318389
75	0x3b2b5d86	0.0026148274
76	0x39ab0546	0.0003261959
77	0x390868be	0.0001300899
78	0x3c5672c9	0.01308889
79	0x38a3f27c	7.817612e-05
80	0x38cfb63a	9.9044715e-05
81	0x3a4c643c	0.00077969185
82	0x395b59a5	0.00020918863
83	0x3823dba6	3.9066792e-05
84	0x3a16eb60	0.00057571195
85	0x3a04b67f	0.00050625944
86	0x38475fc3	4.7534482e-05
87	0x3b199e55	0.002344032
88	0x39643fa7	0.00021767487
89	0x3854de49	5.0751758e-05
90	0x3b5127f6	0.0031914688
91	0x3a03cd89	0.00050278805
92	0x3abfc1e1	0.0014629924
93	0x3a2719b5	0.0006374375
94	0x3a6ad8a2	0.00089586724
95	0x3c075d1f	0.008261948
96	0x3b034be6	0.0020034253
97	0x3b1b07ed	0.0023655847
98	0x3c8a4045	0.01687635
99	0x397d6b5e	0.00024167958
100	0x3a18f697	0.00058350846
101	0x3ac69190	0.0015149582
102	0x3920511b	0.00015289003
103	0x39b452ad	0.00034393874
104	0x3a7a0130	0.000953692
105	0x3827b922	3.998832e-05
106	0x39a4b623	0.0003141622
107	0x3a9ab754	0.0011803904
108	0x3a3f6ccd	0.00073022844
109	0x39c689c2	0.0003786814
110	0x390fc1ac	0.00013709691
111	0x3a7738ba	0.0009430755
112	0x3a214d80	0.0006153211
113	0x39f749c7	0.0004716648
114	0x399d6804	0.0003002287
115	0x3af2b255	0.0018516282
116	0x3af44a3c	0.0018637846
117	0x3abb496c	0.0014288849
118	0x3a070427	0.000515046
119	0x3a4f2048	0.00079012336
120	0x3c1f6e73	0.009730923
121	0x3cb8a397	0.022538943
122	0x3c48b4ab	0.012250106
123	0x3aa9d428	0.0012956904
124	0x3c974ec5	0.018470177
125	0x3bcbfe3a	0.0062253745
126	0x38ac68bd	8.221108e-05
127	0x39b6c49f	0.0003486024
128	0x3a17cae6	0.0005790427
129	0x3958f542	0.00020690731
130	0x396a0567	0.00022317992
131	0x3a672075	0.0008816787
132	0x3a3aaad9	0.0007120795
133	0x3a6bb694	0.0008991745
134	0x3b00953b	0.0019620198
135	0x3b9f583f	0.0048628147
136	0x3b362055	0.0027790267
137	0x3ad6b1d0	0.0016379897
138	0x3c863965	0.01638479
139	0x3bbd178f	0.0057706307
140	0x3c017df6	0.007903567
141	0x3a31b632	0.00067791634
142	0x3ab4d5e0	0.001379665
143	0x3a950d7e	0.0011371819
144	0x3a379339	0.0007002834
145	0x3a3a1057	0.0007097772
146	0x39df9330	0.00042643538
147	0x3b5fe779	0.0034165068
148	0x3bd6bd10	0.0065532997
149	0x39a27b4a	0.00030990905
150	0x39bb41f9	0.00035716573
151	0x3a4cc5e4	0.00078114704
152	0x396fceab	0.00022869806
153	0x3ae4f50b	0.0017468048
154	0x39d11e8f	0.00039886354
155	0x3b188364	0.0023271674
156	0x3966e67a	0.00022020368
157	0x39bd576c	0.00036114024
158	0x3a5b724e	0.000837122
159	0x3943b24c	0.0001866307
160	0x3a041d99	0.0005039811
161	0x3a2e925a	0.00066593813
162	0x3bbd2779	0.005772528
163	0x3b612f58	0.0034360494
164	0x3bd871c6	0.0066053597
165	0x3a2eec75	0.0006672808
166	0x39ad3442	0.00033036066
167	0x39a15a96	0.00030775805
168	0x3ae72c6d	0.0017637141
169	0x3a98fb7e	0.001167163
170	0x3a85ccb7	0.0010208105
171	0x3bf2a286	0.007404628
172	0x3b9c6b34	0.004773522
173	0x3b66dd73	0.003522721
174	0x3c082b58	0.008311115
175	0x3bb39c83	0.005481304
176	0x3bc4fa0a	0.0060112523
177	0x3a1a1ebb	0.0005879213
178	0x39e5bb4f	0.0004381784
179	0x3a3683fa	0.0006962415
180	0x3a2387b0	0.00062381756
181	0x3a4b2a5b	0.0007750147
182	0x3a214d1b	0.0006153152
183	0x3b3fc356	0.0029260716
184	0x3b00a4b4	0.001962942
185	0x3a454e92	0.00075266615
186	0x3c6eccb6	0.014575174
187	0x3bfbcd83	0.007684411
188	0x3bb623ba	0.005558458
189	0x3b83783a	0.004012135
190	0x3b18785c	0.00232651
191	0x39b7ea1c	0.00035078905
192	0x3b53e3e0	0.003233187
193	0x3b486822	0.0030579646
194	0x39d4c217	0.000405804
195	0x3b3ff4db	0.0029290232
196	0x3b3093c9	0.0026943556
197	0x39d2a87f	0.0004017986
198	0x3641f4e1	2.890178e-06
199	0x3705413e	7.942608e-06
200	0x3a5bbbec	0.00083821896
201	0x36f6147e	7.333757e-06
202	0x396a7050	0.00022357819
203	0x3b318b1a	0.0027090968
204	0x36e35674	6.7751917e-06
205	0x38874af9	6.4512664e-05
206	0x3b138db0	0.0022514872
207	0x3a823ca6	0.0009936288
208	0x3a947de4	0.0011329022
209	0x3b3cb2aa	0.0028793016
210	0x3a216b65	0.00061576656
211	0x3a141202	0.00056484353
212	0x3acf5a03	0.0015819672
213	0x39c36b6b	0.0003727333
214	0x39d196ff	0.00039976087
215	0x3a196e5d	0.0005852932
216	0x38c89327	9.5641524e-05
217	0x3a0ba17c	0.0005326492
218	0x39ef2876	0.00045615778
219	0x3b13e63f	0.0022567657
220	0x3ca31c10	0.019910842
221	0x3c92167e	0.01783299
222	0x3ce57f61	0.02801484
223	0x3cdf9d7f	0.02729678
224	0x3b37b962	0.002803408
225	0x3b0d45d9	0.0021556525
226	0x3a9e0d4f	0.001205841
227	0x3a08bd32	0.00052161806
228	0x3c9252e7	0.017861797
229	0x3b622ab0	0.0034510307
230	0x3a885855	0.0010402302
231	0x3ad41608	0.0016180882
232	0x3a911585	0.0011069035
233	0x3a3220ad	0.000679503
234	0x39416015	0.00018441708
235	0x397daafa	0.00024191654
236	0x39ecd36b	0.00045170946
237	0x3a4574b6	0.0007532345
238	0x3a9fbfc5	0.0012187889
239	0x3a9c8f5b	0.0011944579
240	0x3b1ca017	0.0023899132
241	0x3bb44003	0.005500795
242	0x3bf56660	0.0074890107
243	0x3cc6fc13	0.02429012
244	0x3c7c0568	0.015382148
245	0x3b72d47c	0.003705292
246	0x3cb0d9fa	0.021588314
247	0x3c2e26e5	0.01062939
248	0x3afc6c5f	0.0019258371
249	0x3bc85b00	0.0061143637
250	0x3b2ea64e	0.0026649418
251	0x3aed9d6d	0.0018128582
252	0x39dcff9b	0.0004215211
253	0x3a892076	0.0010461945
254	0x3a6ca43b	0.0009027158
255	0x3b6bdae9	0.0035988635

exp_avg f4 [32]
0	0xb36eb4d0	-5.557814e-08
1	0x31b7ecc7	5.3529194e-09
2	0x32b6b48a	2.1269688e-08
3	0x32868ac9	1.5662765e-08
4	0x32fac40b	2.919298e-08
5	0x338c5c67	6.536066e-08
6	0x3273fb4e	1.4201602e-08
7	0x339bac3e	7.2490806e-08
8	0x322a9d49	9.931065e-09
9	0xb32cc6ec	-4.022779e-08
10	0xb1ab5d70	-4.9873776e-09
11	0xb219ab1e	-8.94468e-09
12	0xafb5c5cd	-3.3064254e-10
13	0x321d178f	9.143959e-09
14	0xb313ae79	-3.4384787e-08
15	0x327cc1b7	1.4712376e-08
16	0x32bcb08c	2.1966365e-08
17	0x33451fd7	4.5896595e-08
18	0xb320800b	-3.7369357e-08
19	0x3390aac1	6.7365825e-08
20	0x32834c3a	1.5285071e-08
21	0x328af55f	1.6176896e-08
22	0xb31467a7	-3.4553207e-08
23	0x332afb92	3.981001e-08
24	0x323f8642	1.114819e-08
25	0x32b50d8a	2.107733e-08
26	0x32a7851d	1.9501892e-08
27	0xb29cdfb2	-1.8262515e-08
28	0x32c881bf	2.3342066e-08
29	0xb38ce900	-6.5616405e-08
30	0x32f37872	2.8343695e-08
31	0xb2493ef7	-1.1714056e-08
