CS330/XCS330-PS3/src/submission/logs/maml/omniglot.way_5.support_1.query_15.inner_steps_5.inner_lr_0.04.learn_inner_lrs_False.outer_lr_0.001.batch_size_16/state7300.pt (torch, 353132 bytes, 30 tensors)

conv0 f4 [32, 1, 3, 3]
000000 c5 f1 07 be e5 58 e8 bd 89 25 ac bc f0 20 28 bd
       -0.13275822 -0.1134508 -0.021013992 -0.041047037
000010 71 9a b5 3c 73 3c 53 be e3 15 43 3e 7b d6 46 3e
       0.02216837 -0.20628528 0.19051318 0.19417755
000020 c7 4f da be 04 d3 82 bd 63 e0 bf bc 62 ee 5b bc
       -0.4263899 -0.06387904 -0.023422426 -0.013423534
000030 d0 4c d0 be b1 c1 1c bb 54 61 6b bc df f7 ad 3e
       -0.40683603 -0.002391916 -0.014366467 0.33978173
000040 3e 31 aa 3a 1f 93 9c bc 9f 68 1f 3e 95 c9 9e be
       0.0012984646 -0.019113122 0.15567254 -0.3101317
000050 5b cf 19 be d5 92 9b be 44 9b 57 bd 9b 6d a5 3d
       -0.15020506 -0.3038546 -0.052638307 0.08077546
000060 fd 9f 63 be f7 b5 67 3e 17 6e a3 3b 0e 53 f3 3d
       -0.22229 0.22628008 0.004987489 0.11881076
000070 4b 10 81 3d ee 5e aa be 8e dc be 3d d2 62 86 3d
       0.06301936 -0.3327555 0.09319411 0.06561817
000080 77 40 ba be c7 2b c4 be d6 d0 b8 be 65 14 2f be
       -0.36377308 -0.3831465 -0.3609683 -0.17097624
000090 54 7a 60 3d 49 c9 66 bc 91 ed 02 3c 97 4b 9b bd
       0.05480416 -0.014086076 0.007991211 -0.07582777
0000a0 5e 90 d6 3d 71 d2 40 3e 08 a7 c6 be bc b5 33 be
       0.104767546 0.18830277 -0.3879931 -0.17549795
0000b0 dd 93 94 3d f1 36 03 bf fc 80 83 3d b3 8e f4 3d
       0.07254765 -0.5125571 0.06421086 0.1194128
0000c0 fe 6b 0d bf 3d a2 f2 3d 6f 6e 0e 3e d2 c0 ef be
       -0.5524291 0.11847351 0.13909315 -0.46826798
0000d0 90 c2 0a bd e9 46 63 3d 03 d9 88 be d4 46 29 bc
       -0.033876956 0.055487547 -0.26728067 -0.010331828
0000e0 1b 7e 90 3c 34 d9 c9 3c dc 60 67 be b3 37 21 be
       0.017638257 0.024639703 -0.22595543 -0.15743904
0000f0 10 d4 91 3e 06 47 f5 bd 2c 84 ac bd fb 18 fb 3c
       0.28482103 -0.11976437 -0.08423647 0.03065156
000100 15 5d 94 3e 07 bd 24 bd ef 64 37 3d d4 35 a3 bd
       0.28977266 -0.040219333 0.044773992 -0.07969251
000110 76 aa bd be ac 43 d6 b9 90 fa 30 bd 96 c0 3c be
       -0.37044114 -0.0004086768 -0.043207705 -0.1843284
000120 06 fd 5e 3e 00 cc 71 3c ef 45 95 be 34 8a 95 3c
       0.21776208 0.01475811 -0.29154918 0.018254377
000130 7e f1 86 be 5c 22 43 bc d9 a2 ed bc 25 ae 3a bd
       -0.2635612 -0.011910047 -0.029008316 -0.045576233
000140 b9 45 67 be 42 ed 91 3d 9a 2a d5 bd 04 b5 c6 be
       -0.22585191 0.071253315 -0.10408516 -0.3880998
000150 58 d9 54 3e 8d c8 83 3d 2b 96 dc be 23 96 14 3e
       0.20786035 0.064347364 -0.4308332 0.14510398
000160 5a 4b 06 be d6 ef ac be 60 14 b4 3e aa fd 7e bd
       -0.13114682 -0.3377673 0.35171795 -0.06225363
000170 ce 7a 60 3d 53 c7 fa be c3 48 38 bd 24 4e 3c 3c
       0.054804616 -0.48980197 -0.044991266 0.01149324
000180 6f 6e 88 3e bf c7 59 bb a7 97 3c 3c 6e 72 54 be
       0.26646754 -0.003323063 0.011510766 -0.20746776
000190 1e cd 26 3e fa c1 b7 3d e6 2d 8e be b0 32 da 3d
       0.16289183 0.08972545 -0.27769393 0.10654199
0001a0 a2 f0 1f 3e 54 2b 73 be aa 9c 98 be 33 07 5d be
       0.15619138 -0.23746997 -0.29807025 -0.21584778
0001b0 c6 6c 24 3e 32 01 3e bd 76 94 dd be 1f b6 03 3b
       0.16057119 -0.04638786 -0.4327733 0.0020097566
0001c0 56 94 30 3e 6c df 13 bd d5 86 83 be 74 ca 07 bd
       0.17244086 -0.036101744 -0.25688806 -0.03315206
0001d0 a7 a8 67 3e e2 8d 63 3e 50 8b f5 be e0 aa ba 3e
       0.2262293 0.22222093 -0.4795785 0.36458492
0001e0 57 da b0 3d 9c 61 90 3c 17 fa 1b 3d 75 40 c3 bd
       0.08635395 0.017624669 0.0380803 -0.095337786
0001f0 e0 00 33 3d 33 03 08 bd 01 1f cf bd d9 42 67 be
       0.043702006 -0.033206176 -0.101133354 -0.22584094
000200 5b 2b 72 be 18 0f df bd ef d2 8b bd fc 14 04 be
       -0.23649351 -0.10891551 -0.06827342 -0.1289863
000210 72 7e 9e bd be 8c 81 3c b8 eb 99 3e 03 89 ba bb
       -0.07738961 0.015814181 0.30062652 -0.0056926026
000220 f1 64 e4 3c 29 3f 0b 3d 84 36 95 3d 50 05 97 bd
       0.027880164 0.03399578 0.07285789 -0.0737406
000230 4c 60 7b 3d 83 28 96 3e 1e 1e 21 bf 0b e5 28 3e
       0.061371133 0.29327783 -0.6293658 0.16493623
000240 56 06 92 bd d1 42 8c 3d b5 68 0e 3d cb f1 45 3d
       -0.07130115 0.06848682 0.034767825 0.048326295
000250 4e 27 6e 3d 8f 67 e8 3c 30 d6 12 3f 7f 6a aa 3d
       0.058142953 0.028369693 0.57358074 0.08321094
000260 df 78 41 be 58 3a de bc 02 08 96 be 4f 12 5e 3e
       -0.18893765 -0.02712743 -0.29302984 0.21686672
000270 23 8b e9 bd c3 a8 1a be db 05 e6 bc d6 7c b1 bd
       -0.11403491 -0.1510344 -0.028078964 -0.08666389
000280 be 92 37 be 2a 4c 53 3e 9c 0a 2f bd 26 80 94 3d
       -0.17927071 0.20634523 -0.042734727 0.07251005
000290 e8 8f 6b 3c 69 f4 18 be 00 81 b0 be 1c a4 b4 be
       0.014377572 -0.14936985 -0.3447342 -0.35281456
0002a0 b8 5c be bb a8 aa ef 3d fb f4 21 3e ce 96 bc 3d
       -0.005809393 0.11702472 0.15816109 0.09208451
0002b0 26 9b 10 3e 13 c2 b7 3d 3d 91 96 3a df ad e8 3d
       0.14121684 0.089725636 0.0011487376 0.11361288
0002c0 04 b7 97 bc 4d ea f1 be b7 cc 06 bf 72 9b e3 be
       -0.018519886 -0.4724907 -0.5265612 -0.44454533
0002d0 fa 2a ec be 15 ec fb be 8e 8a cf be b3 df 81 3d
       -0.4612654 -0.49203554 -0.40535396 0.06341495
0002e0 26 e2 bf 3d 0c f9 58 bd aa 66 ec 3d 35 61 03 3e
       0.09369306 -0.052971885 0.11543019 0.1283005
0002f0 b9 05 6b 3d 95 ab d1 3d 6c f3 76 3c 4c 36 fb be
       0.057378504 0.10237805 0.015072685 -0.49064863
000300 1f 75 e6 bc 78 82 11 3e 75 f1 ee be 9d f5 35 3e
       -0.02813202 0.14209926 -0.46668592 0.17769475
000310 18 81 b2 3d f8 5f d9 be 4e 11 47 be 61 86 4d be
       0.08716029 -0.4245603 -0.19440195 -0.20070793
000320 09 f1 26 be 5a 05 85 be f1 c0 4e bd e6 1f 93 3d
       -0.16302885 -0.25980645 -0.050476972 0.071838185
000330 b9 63 82 be 4f 57 ea bd 4a 9e ea 3d da f7 17 3e
       -0.25466707 -0.11442434 0.114559725 0.14840642
000340 af 59 30 3d fa 2e a4 3e 17 b9 92 bd da cb 3d be
       0.04305428 0.3206709 -0.07164209 -0.18534794
000350 0c 2b 46 be ef 40 67 bd c9 36 38 be 2a 38 36 be
       -0.19352359 -0.05645841 -0.17989649 -0.17794862
000360 4b 75 09 bf 5c 5a a9 3e 94 64 8a 3d 76 2b 2a bd
       -0.536946 0.3307675 0.06757465 -0.041545354
000370 ae 95 07 3d 9e 2d 25 3d 47 6e c1 3c e7 1f 90 bc
       0.03310173 0.040326707 0.023612155 -0.017593337
000380 93 91 7b bd 63 fd 31 3e 10 a4 e4 3b f2 69 80 bd
       -0.061418127 0.17381816 0.0069775656 -0.062702075
000390 a7 30 32 3e 58 65 d6 3c 30 af 89 bd 9b 0f c6 be
       0.17401372 0.026171371 -0.067228675 -0.3868378
0003a0 44 25 b2 be de b9 23 be ec ae ab be 24 5e b8 be
       -0.34794056 -0.15988871 -0.33531892 -0.36009324
0003b0 c5 4f 48 be d8 83 8e be 2a 67 33 3e 4e 38 33 3e
       -0.1956168 -0.27834964 0.17519823 0.17501947
0003c0 06 ba 96 be 4a 93 20 3e f0 d4 b8 3d 0e d8 0b 3e
       -0.294388 0.15681186 0.090249896 0.13656637
0003d0 18 a2 97 3d 0c bb 89 be 05 86 71 3d 8e 9b cd 3b
       0.07403964 -0.26900518 0.0589657 0.006274647
0003e0 5c f0 82 be 4a 30 b0 bc bc 5d 70 be df 6b a2 bd
       -0.25574005 -0.021507401 -0.23473257 -0.07930731
0003f0 48 82 87 be 3d a9 21 3c fd 16 8a 3e ef fd 25 3e
       -0.26466584 0.00986701 0.26970664 0.16210149

b0 f4 [32]
000000 f6 53 72 bd fd f1 bc bd 20 4e c6 bd 33 c5 9d 3d
       -0.059162103 -0.09225843 -0.0968287 0.077036284
000010 88 fa 01 bd dd 91 2b be 60 24 cc bd 56 fa bf bc
       -0.031733066 -0.16754861 -0.099678755 -0.0234348
000020 2a ca 30 3c 8a 55 9c 3d 50 5b 1b 3d 8a b5 e0 3d
       0.010790387 0.07633503 0.03792888 0.10972126
000030 22 22 af b9 63 c1 93 bc 16 ca 7b 3d 7b 96 0b bd
       -0.00033404032 -0.01803655 0.06147202 -0.034079056
000040 7f fa 12 3d 01 57 04 3e 65 a2 13 3e 11 eb bd 3d
       0.035883423 0.12923814 0.14417417 0.09273351
000050 70 f3 fc 3c 93 10 a0 bc bf 72 c1 bd b9 e1 44 bd
       0.030877799 -0.019539153 -0.09445714 -0.04806683
000060 75 37 70 bd 2c 48 82 3c dc fc db bd 06 14 22 3c
       -0.058646638 0.015903555 -0.107415885 0.009892469
000070 e2 cf 0a be 79 a2 7a bd f9 5a 27 bd cf ea b4 bb
       -0.13555863 -0.061190102 -0.040858243 -0.0055211554

conv1 f4 [32, 32, 3, 3]
000000 45 9e a8 3c 0b 6a 8d bc 06 58 c4 bd be 3b 16 3b
       0.020583281 -0.01726248 -0.09587102 0.0022923793
000010 7c 00 82 3b 2f b8 a1 bd 73 1c f7 bc 43 e7 95 3d
       0.003967343 -0.07896458 -0.030164933 0.073195
000020 f8 e4 72 bd 52 cf 3f be 6a 39 3b 3d 40 50 e9 3c
       -0.059300393 -0.1873143 0.04570905 0.028480649
000030 fc 50 3a be f1 ca 87 3d 3b 2b a8 bc 22 16 50 bd
       -0.18194956 0.06630505 -0.020528426 -0.050802357
000040 0e 17 42 3c 8a 3b 16 bd 4b fd 6d bd 96 7b ee bd
       0.011846317 -0.036677875 -0.058102887 -0.11644666
000050 b2 b8 77 3d 78 b4 53 bd ca 18 e9 bc e0 68 68 3b
       0.060478874 -0.05168578 -0.028454203 0.00354629
000060 58 49 8f bd 1b 56 ec 3c 3a b7 6a 3d f6 01 89 bb
       -0.06996411 0.028849652 0.057303645 -0.004181142
000070 fa 29 59 bc 4c 0e a5 3c 63 76 f9 bc 32 e8 84 bc
       -0.013254637 0.020148419 -0.030451959 -0.016224
000080 85 9e dd 3d c9 64 e1 3c 6a 8f 07 3e 82 26 6f 3e
       0.10821251 0.027513878 0.13238302 0.23354533
000090 a6 a2 21 3d b6 22 8a 3b 81 e5 44 bd 31 e4 4d bd
       0.039461754 0.0042155636 -0.048070434 -0.05026645
0000a0 19 c7 42 3b 67 78 1f 3d 50 b3 14 3d e5 d0 c8 bd
       0.0029720722 0.038933184 0.03630382 -0.098054685
0000b0 75 4f a7 bd 51 bb 67 3e 87 d8 34 3d 33 d3 f7 bb
       -0.08169452 0.2263005 0.04415181 -0.0075630187
0000c0 db 1a 64 3e 01 55 6c 3d 88 75 85 bd 74 d3 1d 3e
       0.2227587 0.057698254 -0.06516558 0.15412694
0000d0 b2 23 0e be d7 08 df bd aa 7d 1c 3d 0c f8 8e 3d
       -0.13880804 -0.10890358 0.03820578 0.06980905
0000e0 73 a4 c7 3c a0 7d 19 3e e5 6b 3e 3d 0c da 6e bc
       0.024370408 0.14989328 0.046489615 -0.014578354
0000f0 4b 45 6f 3d 41 f0 02 bd 5a ef 9f bd 3d 8e c8 3d
       0.058415692 -0.031967405 -0.078093246 0.09792755
000100 1a 1b 34 3c 80 24 11 3d 40 a6 12 3d eb db a6 bc
       0.01099279 0.0354352 0.03580308 -0.020368537
000110 a2 8f fc 3c 09 a0 4e be 9a 1e 85 3d 00 b8 aa 3d
       0.030830208 -0.20178236 0.064999774 0.083358765
000120 ac e1 9b 3c c8 80 9a 3c 8a 3a 06 3e 94 b6 a9 bb
       0.019028507 0.018860236 0.13108268 -0.0051792357
000130 36 0d 4b 3d 94 5c cb 3d 69 d5 28 bd a0 dd 96 bd
       0.049573146 0.09929767 -0.04121915 -0.0736649
000140 71 af 28 3d 6f 03 b6 3d 27 5f 07 3e 20 56 9e 3d
       0.04118294 0.08887374 0.13219891 0.07731271
000150 f5 de 1b 3d d4 fc 50 3b cb 38 8c bd ea 1b 1d bd
       0.038054425 0.0031888979 -0.0684677 -0.0383567
000160 d6 79 0e be a4 2f 64 bd 33 7b 01 be b3 99 14 3d
       -0.13913664 -0.055709496 -0.12644653 0.03627939
000170 ec 85 ac 3d d3 a9 24 be 3c 4c 65 bb e1 6c 36 3d
       0.08423981 -0.16080408 -0.0034988066 0.04453743
000180 45 c8 5b bd b4 49 dd bd fe 15 b8 bd 87 e0 84 3d
       -0.05365779 -0.108050734 -0.0898857 0.06488138
000190 47 34 0b 3d 10 a8 a2 bd 69 d9 ce 3d 10 1b 35 3d
       0.033985402 -0.07942212 0.101000614 0.044215262
0001a0 0f 3e be bd 11 a8 48 3e 7c 61 39 bd ef f6 99 3d
       -0.092891805 0.19595362 -0.045258984 0.07517802
0001b0 6e c0 f2 3d 87 0d 78 3d dc 36 16 bd 6b f5 f5 3d
       0.11853109 0.060559776 -0.03667341 0.120097004
0001c0 32 20 38 3b 4a 19 e1 bc 58 c7 f9 b8 c0 79 91 3c
       0.0028095362 -0.02747788 -0.00011910376 0.01775825
0001d0 ba 7e 47 bd 0e 6f f6 3c 7a a2 08 3d 4b 92 e1 3c
       -0.04870484 0.030082252 0.033358075 0.027535578
0001e0 92 17 54 3d 17 3d 3a 3d 02 75 12 3c db d3 bb bd
       0.05178029 0.045468416 0.00893903 -0.091712676
0001f0 6b de 13 3d 0d 8d 55 3c 1f 8f 83 bd 84 2e 2a bd
       0.036100786 0.013034117 -0.064237826 -0.041548267
000200 bd 07 b0 bd 84 58 0b bd 82 91 21 bd a5 7c b5 bd
       -0.08595226 -0.034019962 -0.039445408 -0.08861665
000210 2d 2b 6a 3d d2 4c 16 3e 95 26 35 3e 3a ee c7 3d
       0.057170082 0.14677742 0.17690499 0.09762235
000220 23 46 fa 3d e7 6f 4a 3d 25 b5 42 3c 41 38 97 3d
       0.12220409 0.049423125 0.0118840085 0.073837765
000230 49 c4 9e bd f3 93 a0 bd 34 48 89 be fa fe 17 be
       -0.07752282 -0.07840719 -0.268129 -0.1484336
000240 cc 26 8d bc a9 01 b0 bc 74 a4 79 bd 1d c5 a3 bd
       -0.017230414 -0.021485167 -0.06094785 -0.07996581
000250 d6 c8 0f be 81 07 11 be a0 91 e0 bd ad bd 56 be
       -0.14041457 -0.14163019 -0.10965276 -0.20970793
000260 5b 70 10 be 6f bd dd 3d 94 f9 aa 3d 4a 23 5c 3d
       -0.1410536 0.10827147 0.083483845 0.05374459
000270 f2 13 bf bc a1 4b c4 bc b1 e6 f2 3d ff 24 09 bd
       -0.02332494 -0.023961844 0.11860407 -0.033482548
000280 07 7b 4c be be 9a 00 be 5f b9 1b bd 59 59 9d 3d
       -0.19968806 -0.1255903 -0.03801858 0.07683057
000290 2a d9 d1 3b c5 05 fe bc 76 37 78 3b 87 48 a5 bc
       0.006404062 -0.03100861 0.0037874854 -0.020176185
0002a0 da 06 a1 3d 92 15 7e 3d 06 8a b0 ba 50 f4 51 bd
       0.07862635 0.06203229 -0.0013468869 -0.051258385
0002b0 70 d0 df bd 6b 59 18 bd ac ab b1 3b 2a 08 0e bd
       -0.10928428 -0.03719465 0.005422076 -0.034675755
0002c0 6b 19 3d 3d 5a 4e e0 3d 12 f0 8e 3e 5e ec b3 3e
       0.04616682 0.109524444 0.27917534 0.3514127
0002d0 c6 d0 b4 be 7c 27 89 bc 1f 84 cb 3c db f8 b7 bd
       -0.35315531 -0.01674246 0.024843274 -0.08983012
0002e0 0f 0b 8d 3d 23 ce f8 3d 33 07 b7 3d cc df e1 3c
       0.06886875 0.121486925 0.0893692 0.027572535
0002f0 4e c6 7b 3e f8 d2 0b 3e a3 75 de 3d c5 e1 fb 3d
       0.24587366 0.13654697 0.10862281 0.122989215
000300 b0 39 e0 3d be 06 1a 3c e9 cb ea bc f7 22 91 bc
       0.10948503 0.0094010215 -0.028661685 -0.017716868
000310 f3 bc d8 bd f9 8e 9c bd dd f0 38 bd 8b f4 b2 3c
       -0.10582914 -0.07644457 -0.04515158 0.021845123
000320 70 cb 0d 3d a0 10 8e 3d 1e aa 45 bd 5a 28 13 3d
       0.03461784 0.06936765 -0.04825794 0.035927154
000330 ab 94 3a be 7e 5b 83 bd 7b 0e a8 bd c5 8e a1 bd
       -0.18220775 -0.06413935 -0.08205887 -0.07888559
000340 0b 42 1c bb bd 47 63 bc 68 c1 3c bd 08 93 5d bd
       -0.0023843076 -0.013872084 -0.046082884 -0.054095298
000350 2e 9d 62 3d 1f f8 88 bb d9 dc cc 3c cd 62 67 3d
       0.05532568 -0.004179969 0.025007652 0.05649071
000360 ec 53 a4 3b f3 ea 5c 3d 83 69 10 3d 53 ed 5e 3d
       0.005014887 0.053935003 0.035256874 0.05442555
000370 7a 28 26 bc 04 18 6d 3d 4f 9b 1d bd 7c 67 0b 3d
       -0.010141486 0.05788423 -0.038478192 0.034034237
000380 ad 51 81 bd 83 96 7b bd bf 79 b9 3c 1e b2 44 bc
       -0.063144065 -0.061422836 0.02264106 -0.012005357
000390 49 31 41 be 35 c2 03 bc dd 0c a7 3c d7 ee e3 bd
       -0.18866457 -0.008041908 0.020391876 -0.111295395
0003a0 82 ba 5e 3d 31 b5 67 3e 71 7b 02 be cf 25 c0 bd
       0.054377086 0.22627713 -0.12742402 -0.093822114
0003b0 9b e0 e9 3a 79 c4 2c bd 93 a4 f3 3c d9 5b 83 3d
       0.0017843427 -0.04217956 0.029741561 0.06414003
0003c0 90 0e 37 bd ec 3e 89 bd c5 7a 2a ba 6d 5c a2 bd
       -0.044691622 -0.067014545 -0.00065032794 -0.07927785
0003d0 d0 97 c4 3c e2 10 c0 3d 16 03 3c be 59 02 3a 3c
       0.023998171 0.0937822 -0.18360552 0.011353099
0003e0 86 a7 93 3d 85 f6 4c be fa 86 5c bd f5 c3 41 3d
       0.07209687 -0.20015915 -0.05383966 0.04730602
0003f0 96 83 ec bd 6a f6 24 bd 5e 9b f6 3c 12 52 9d bd
       -0.115485355 -0.04027406 0.030103382 -0.07681669

b1 f4 [32]
000000 7f 5e 3f 3d 05 f3 43 3d 92 74 e7 3d bb a1 76 3d
       0.046720978 0.047839183 0.11301531 0.060212832
000010 ad 2f 15 be 85 f3 8d bd 4f 61 02 be 17 b2 4c 3e
       -0.14568968 -0.06931213 -0.12732433 0.19989811
000020 02 9b dc bc a2 b7 6d 3c 62 2c f4 3d b9 d4 ef 3c
       -0.026929382 0.0145091135 0.11922528 0.029276239
000030 55 8c 60 3d 14 13 3f 3e 09 96 cc 3d 2b 34 60 39
       0.05482133 0.18659621 0.099895544 0.00021381739
000040 7a e9 76 3d c9 fb 89 be 75 64 b4 be 5a 8f 44 3d
       0.060281254 -0.2694991 -0.35232893 0.047988273
000050 da 72 34 be 16 65 a0 3d 21 81 49 3d b9 b9 2e 3d
       -0.17621937 0.078317806 0.049195413 0.042657588
000060 d8 7a 95 3d 73 08 47 3d b3 e4 a6 3d f0 93 f1 be
       0.07298821 0.048592042 0.0814909 -0.4718318
000070 03 dd ee 3c 1f 79 0f 3e 7b 62 bf bc 3e 44 ae bd
       0.029158121 0.14011048 -0.023362389 -0.0850911

conv2 f4 [32, 32, 3, 3]
000000 a6 29 80 3d a9 d4 a8 3d 81 1c b9 3c e1 59 fa 3b
       0.06257944 0.08243687 0.0225966 0.007640109
000010 f4 e3 eb bb 89 9f 08 bd 8f 37 73 3d fc e2 4c 3d
       -0.007198805 -0.03335527 0.059379157 0.050021157
000020 ba 05 83 3c 3b 7b 18 3d 7d 8c ae 3c be ee 85 bc
       0.015993942 0.037226897 0.021307224 -0.016349193
000030 65 1e 3c 3d a9 9e f5 bc b3 7b 3b 3c 7e c6 e7 bd
       0.045927424 -0.029982882 0.011443066 -0.11317156
000040 f1 dc c3 bc c4 70 23 bd 20 ad 8f 3c 2d 9f 4c 3d
       -0.023909064 -0.039902464 0.017538607 0.04995649
000050 b4 e1 f5 3c d5 71 3d 3d ff a2 25 bd 9a cf b3 3c
       0.03001485 0.046251137 -0.04043865 0.021949578
000060 8b c6 88 3c 2b f0 1b 3d bd a5 b1 bb d9 dd 45 bd
       0.016696235 0.03807084 -0.005421369 -0.048307274
000070 82 fb 1a bc d0 aa 51 bd cc 9e ca bc 30 1f 75 3d
       -0.009459378 -0.05118829 -0.024733923 0.059844196
000080 04 66 ad 3c fc 89 00 be 8b 7c b1 bd 00 78 09 bd
       0.021166809 -0.12552637 -0.08666333 -0.033561707
000090 42 4c 4a bc ae ea c0 bc 5d 55 ce bb 65 c6 a2 bb
       -0.012347283 -0.023549404 -0.006296797 -0.004967498
0000a0 64 a0 10 bc eb 23 28 3c 19 70 4a 3c 71 42 40 3c
       -0.008827303 0.01026247 0.012355828 0.011734591
0000b0 9c 99 dc bb d2 78 22 3c 53 5a ed 3c 55 44 dc 3c
       -0.006732179 0.009916501 0.028973734 0.026888052
0000c0 ba 49 a4 3c bd 11 fc bc 14 50 cf 3c 8f bb cd 3c
       0.020054687 -0.030770177 0.025306739 0.025113849
0000d0 13 33 cb 3b 4f 90 24 3c 22 9f 1d 3c 3b 33 1f bb
       0.006201157 0.0100441715 0.00962046 -0.002429201
0000e0 0e eb ff 3b 44 4e fe 3c 07 d3 81 bc b6 e0 12 3d
       0.007810003 0.03104318 -0.015847696 0.035858832
0000f0 3b c5 53 bd 86 4d 95 3c a6 cf 94 bb 60 21 78 bd
       -0.051701766 0.018225443 -0.004541355 -0.060578704
000100 35 3b b4 bc 16 68 5a bd 05 6a da bd 67 8c fd bc
       -0.022000888 -0.05332192 -0.10664753 -0.030950738
000110 9c 67 14 bd 0b f0 38 bd fd f5 6d 3c 87 7e 86 3b
       -0.036231622 -0.045150798 0.01452398 0.0041044387
000120 d4 2a 52 3d b9 bd aa bc bc 24 f2 bc 27 ac 08 3c
       0.051310375 -0.02084242 -0.029558532 0.008341826
000130 da b4 d6 bb f3 d0 78 bc 92 92 28 bd cc 17 97 bc
       -0.006552321 -0.015186536 -0.041155405 -0.018443964
000140 6c c2 40 bd 28 95 10 3d 91 3a 44 3d 4d 9a 68 3d
       -0.047060415 0.035298496 0.047907416 0.056787778
000150 fc 20 85 3c 8a a6 9b bd e5 ad ab bc b7 59 01 3c
       0.01625108 -0.07600124 -0.020956943 0.007894925
000160 54 42 b7 bd f6 c8 0a 3d 68 a0 05 3d 4d c6 17 3d
       -0.08948198 0.033883058 0.03262368 0.03705435
000170 85 2e 8c 3d d1 40 f7 39 80 55 a2 b9 21 e2 1e bc
       0.068448104 0.00047159803 -0.0003096275 -0.009697468
000180 a4 9e 46 3c a7 e4 73 bb 9b ad 11 3d 59 33 c0 3b
       0.012122784 -0.0037215145 0.035565954 0.005865496
000190 ea 93 a6 3c 0e 53 e4 bc f5 01 88 bc 08 a9 ba bc
       0.020334203 -0.027871635 -0.016602496 -0.022785679
0001a0 ca 93 88 3d 3d 15 4c 3d 48 ce 26 b9 a5 90 9b 3d
       0.066688135 0.049824942 -0.0001590784 0.07595948
0001b0 ff ae 6b 3b 43 b0 0a 3d 37 dc d7 bc 9a e9 49 3d
       0.003596246 0.033859503 -0.026350124 0.049295045
0001c0 b6 91 b6 bd c3 b7 2e 3c ae 6a 31 3b 0e 6c 4c bd
       -0.08914511 0.010663929 0.0027071643 -0.049907736
0001d0 49 6f 92 bd 0a 6f 2a bc 72 83 b8 bc e1 25 63 bd
       -0.07150132 -0.01040245 -0.022523616 -0.055456046
0001e0 0f 32 91 bc d8 3b 42 bd 37 dc 32 bd 86 e7 12 bd
       -0.017724065 -0.047420353 -0.043667044 -0.03586533
0001f0 a8 a6 92 bc 5e e0 16 bd c2 71 76 3c ec e4 a6 bc
       -0.017901734 -0.036835067 0.01504177 -0.02037283
000200 c6 59 01 3d 95 9d 45 bc c7 49 59 bc f8 df 01 3c
       0.031579755 -0.012061496 -0.013262219 0.0079269335
000210 f3 b8 5d bb 23 77 67 3d 94 32 02 bd 4f 64 2d 3d
       -0.0033832162 0.056510102 -0.031786516 0.04233199
000220 76 70 06 3d 44 ce 07 3d 7e e9 b7 3c 0b 69 4b 3c
       0.032822095 0.033155695 0.022450205 0.012415181
000230 0d 05 10 bc ab 0d 84 3d a6 78 4f 3c 44 a0 21 3b
       -0.008790267 0.064479195 0.012663042 0.0024662176
000240 a9 41 7a 3d da cf 70 bc a1 86 b5 bd 56 0f 1d 3d
       0.061097775 -0.014697993 -0.08863569 0.038344704
000250 05 54 7a bb 3d ee 62 bd e1 75 34 3d 87 dd dc 3c
       -0.0038197052 -0.055402983 0.04405773 0.026961101
000260 08 3f 1f bd cf 44 19 3d 0b c5 d0 bc 2f c1 27 3d
       -0.03887847 0.037419137 -0.025484582 0.04095572
000270 fb f2 f9 3c d1 0b 34 3b 81 23 aa bc cd c7 11 bd
       0.03051137 0.0027472863 -0.020768883 -0.035590935
000280 b4 77 49 bc 09 f3 fd bb 30 a0 86 3c 86 dd bb b9
       -0.012296606 -0.0077499193 0.016433805 -0.00035832467
000290 fa b1 dc ba 97 44 7d 3c 10 37 58 3d 4c aa c5 3b
       -0.0016837709 0.015458248 0.052786887 0.006032264
0002a0 df 8b 05 3c 6f 18 97 bb 57 97 bf 3c 7c dc 3d 3c
       0.008151024 -0.004611067 0.023387594 0.011588212
0002b0 d9 e1 da 3c 18 ea a7 bd b4 12 f5 bb ff 44 26 3d
       0.02671902 -0.08198947 -0.007479036 0.040593144
0002c0 40 e6 88 bc 91 3e 97 bc 65 4a 22 bd b9 f6 10 bb
       -0.016711354 -0.018462451 -0.03962173 -0.0022119714
0002d0 3e 5f d9 3b d4 5c 44 3b f1 0f dd 3b 9b a3 24 3d
       0.006633668 0.0029962556 0.006746285 0.04019509
0002e0 7c 3d 62 3c c7 30 7e bc 78 24 47 bc 33 54 a5 3d
       0.013808604 -0.015514559 -0.012154691 0.080727
0002f0 0f b1 1d 3d f3 98 aa bb 8b 3d be bd fd d3 89 bd
       0.038498934 -0.0052062212 -0.09289082 -0.06729887
000300 eb f6 c8 3c 91 09 bf 3c 22 52 86 bd a4 7f 62 bd
       0.024531802 0.023319991 -0.06558634 -0.05529751
000310 70 94 a6 ba db 63 7a 3c 06 05 f4 ba d4 9b a0 3c
       -0.0012709033 0.015282596 -0.001861722 0.019605555
000320 b6 d3 ef bc 49 f2 1e bb f2 31 06 3d 83 44 71 bc
       -0.029275756 -0.00242533 0.032762475 -0.014725807
000330 e8 cc 20 3d b4 06 4b ba 20 cd 92 3c 11 36 21 bd
       0.039257914 -0.00077448343 0.017920077 -0.039358202
000340 b7 53 19 3c e4 68 8c bd 56 ee 95 bb d6 8a 8a bc
       0.009358338 -0.06855944 -0.004575531 -0.016911905
000350 c2 68 12 be f7 87 dd bc 02 23 60 bd 7f c2 23 bd
       -0.14297774 -0.027042372 -0.054720886 -0.039980408
000360 78 ae d8 3c ca 3b 9e 3c f7 50 10 3c 83 58 df bc
       0.02645038 0.019315619 0.008808366 -0.027263885
000370 7d d1 5d bc b9 59 3c 3c 67 e1 68 3d e9 7d d9 3b
       -0.013538715 0.011496001 0.056855585 0.006637324
000380 dc d9 65 bc 36 5f 35 bd 85 92 09 bc 4e 6f b7 bd
       -0.0140289925 -0.044280253 -0.008396749 -0.089567766
000390 90 8d da bc 72 42 ca bd f8 f4 2f bd ac 59 98 bd
       -0.02667883 -0.09875955 -0.04295823 -0.074389786
0003a0 75 10 8e bd 78 3f 03 bc 8a 05 d9 3c 32 d3 0a 3d
       -0.06936733 -0.008010738 0.026491899 0.033892818
0003b0 7c 56 27 bd a4 08 92 bc d5 72 1a bd 0c b6 eb 3c
       -0.040853962 -0.017826386 -0.03770717 0.02877333
0003c0 de 3f f8 3c e3 69 64 3c 6c cc 82 3b 1d e3 12 3b
       0.030303892 0.013941261 0.003991654 0.0022413202
0003d0 26 40 5e bc fe 09 53 bb 8d f9 38 3d b5 ca 71 bb
       -0.013565099 -0.0032202 0.045159865 -0.0036894504
0003e0 aa 03 0e 3c 8e f1 e0 bc b3 77 0b 3d 62 dc 6f 3c
       0.008667866 -0.027458932 0.0340497 0.014639946
0003f0 2d 40 36 bd 38 d4 ca bc 2c ef 9a 3c da 63 47 bd
       -0.044494797 -0.024759397 0.018912874 -0.04867921

b2 f4 [32]
000000 c2 7b 29 3d ae c4 81 3e 66 1c 73 3d 13 07 7d bd
       0.04137779 0.25345367 0.059353255 -0.061774325
000010 21 d3 40 3e d7 1d 06 3d 28 b0 4b 3d 3e 6d a7 3d
       0.1883054 0.0327433 0.049728543 0.08175133
000020 94 70 38 bd c8 8f 93 3e f5 a0 86 3e 34 d0 f7 3d
       -0.045029238 0.28820634 0.26294675 0.121002585
000030 20 50 a8 3d 5a 1b ac bd 8c e3 0b 3e 44 c0 68 bd
       0.08218408 -0.084036544 0.13661021 -0.056823984
000040 95 26 65 3e 17 1d 93 3b a5 01 b6 3d 32 2d 8b 3e
       0.22377999 0.0044895518 0.088870324 0.2718292
000050 5e a2 83 bc 32 d1 53 3e d9 42 51 be 43 58 a7 bc
       -0.016068634 0.2068527 -0.20435657 -0.020427829
000060 53 af 94 3e 9d d0 2c bd 4f 14 a2 3d ab 43 78 3d
       0.29040012 -0.042191137 0.0791403 0.06061141
000070 ae 8a 8d 3c 87 82 7a 3e 28 93 62 3c db b9 99 bb
       0.017278042 0.24463855 0.01382903 -0.004691345

conv3 f4 [32, 32, 3, 3]
000000 07 46 05 be 0c 48 4d bd 33 2d 3a be fc 2a 35 bd
       -0.13014995 -0.050117537 -0.18181305 -0.044230446
000010 b1 85 3c 3c b2 61 fc bc 69 6f 27 be e0 52 86 bd
       0.011506484 -0.030808304 -0.16351093 -0.06558776
000020 54 c7 10 be d7 3e 48 3e d1 19 45 3e a6 dc 70 3e
       -0.14138538 0.19555221 0.1924813 0.2352167
000030 4e 25 00 3e 05 4d bd bb 7e 3c 07 3e af 3d 78 3e
       0.1251423 -0.0057770037 0.1320667 0.2424228
000040 b1 2e 0b 3e e6 00 44 3e 5a 76 20 3d 78 dc 06 3d
       0.1359203 0.19140968 0.03917537 0.0329251
000050 3c ad 60 3c 93 ee 61 3d 50 b9 d8 3c d5 36 19 3d
       0.013713177 0.055159163 0.026455551 0.037405808
000060 1f b8 10 3d 70 44 64 3d 43 6b 12 3d fa fa db 3c
       0.03533184 0.05572933 0.035746824 0.026853073
000070 c3 8f ec 3c 18 67 a9 bc c9 1c a0 3c 72 4f 30 3d
       0.028877145 -0.020679042 0.019544976 0.043044515
000080 03 fa ad 3c 7f 76 d8 3b 15 ad 80 3c 90 df 9d bc
       0.021237379 0.0066059227 0.015707532 -0.019271642
000090 bb e2 b9 bd 53 4d e7 3b fd 76 b1 bd a8 0e 9f bc
       -0.090764485 0.0070587783 -0.08665273 -0.019416168
0000a0 a6 1b c0 3c a7 75 9c bd 99 c0 95 bd fe 0e 9a bd
       0.023450684 -0.07639628 -0.07312126 -0.07522391
0000b0 8f ca c8 bd 30 cd 87 3e aa 50 0b 3e c7 ce 7f 3e
       -0.0980426 0.26523733 0.1360499 0.24981223
0000c0 59 8d 4d 3e a0 e5 62 3d 1e 55 ba 3d 05 48 27 3e
       0.20073451 0.05539477 0.09098266 0.16336067
0000d0 fb 89 1f 3e e7 8d 8b 3e 15 49 d4 bd be 5d ad bd
       0.15579979 0.272567 -0.10365502 -0.084651455
0000e0 0e 47 aa bd f8 4f c5 bd 25 c0 8c bd 2f ab 32 be
       -0.08314334 -0.096343935 -0.06872586 -0.17448114
0000f0 32 a1 d5 bd 10 56 0d be e5 20 34 be 4e 2d a2 3d
       -0.10431136 -0.13802361 -0.17590673 0.079187974
000100 ca aa cf 3d 0f 3d dd 3d af 9c 17 3e 4d 53 4b 3d
       0.10139997 0.10802662 0.14805864 0.04963999
000110 88 2e 37 3e 28 7f 0e 3e 4f 01 77 3d 1d 82 dc 3d
       0.17888844 0.13915694 0.060303982 0.10767005
000120 f8 07 3e bd ce 52 15 bc 48 ea 8b 3c e5 e2 19 bc
       -0.04639432 -0.00911398 0.017079487 -0.009392475
000130 81 8b a6 bd 44 35 75 bd 8d 24 05 bd de 57 4f 3d
       -0.08132077 -0.05986525 -0.03250556 0.050620906
000140 64 63 95 3c 35 05 56 3e 06 05 16 3e 04 7e 80 3e
       0.01823587 0.20900424 0.14650354 0.25096142
000150 b6 b6 45 3e d9 ae ff 3d e6 b5 19 3e 1d 27 55 3e
       0.1930798 0.124845214 0.15010795 0.20815702
000160 54 8d 14 3e fb 49 65 3e c8 6c a9 bd eb aa c3 bd
       0.14507037 0.22391503 -0.082727015 -0.095540844
000170 a9 48 d8 bd 85 d6 c6 bd eb 4c 08 bc 0c 10 b4 bd
       -0.10560734 -0.09708885 -0.00831912 -0.08792123
000180 db f6 e4 bd 95 49 e5 bd 18 45 fe bd a7 2b a6 3c
       -0.111798964 -0.11195675 -0.12415522 0.020284487
000190 d4 3a ee 3d 24 22 30 3c 2c 08 a4 3d b3 f7 04 bc
       0.11632314 0.010750327 0.08009371 -0.008115697
0001a0 38 0a 32 3c 41 66 84 3d 20 32 23 3d 4a 7d 23 3b
       0.010866694 0.06464816 0.039842725 0.0024946504
0001b0 eb bc cf 3c ed 5d 17 bd b0 e0 5f 3d fe 53 12 3c
       0.025358638 -0.03695481 0.054657638 0.008931158
0001c0 e9 e4 eb 3c 31 25 31 bd 25 94 86 3b b5 ba 80 bd
       0.028795676 -0.04324836 0.0041070157 -0.062856115
0001d0 e1 f3 cb 3c f8 39 13 be 1f d9 cf bb 39 2a f6 bd
       0.024896564 -0.14377582 -0.0063430215 -0.12019772
0001e0 9a 54 84 bd 33 03 ee bb d1 7d b3 bd dc 74 ff bd
       -0.06461449 -0.007263565 -0.08764232 -0.12473461
0001f0 0a 6a b8 bd aa aa f3 bd 93 9b f5 3d 73 6c e0 3d
       -0.090046 -0.11897786 0.11992564 0.10958185
000200 ed 19 fa 3d 0a 44 94 3d a8 76 6f 3d 5a 53 37 3d
       0.12211976 0.0723954 0.05846277 0.044757225
000210 92 87 ae 3d 74 d5 d7 3d 95 61 e5 3d a4 34 0d 3d
       0.08521952 0.1053876 0.11200253 0.03447403
000220 cd 75 53 3c 55 6d 8f 3d 07 94 39 bd 0f 11 03 bd
       0.012906504 0.07003275 -0.045307186 -0.03199869
000230 69 a5 28 3b af 9b 42 3d 3f 79 67 bd 87 b4 9b bd
       0.0025733358 0.047511753 -0.056512114 -0.07602792
000240 fd d0 73 bd c1 93 97 bc 47 51 95 bd 36 61 b9 bb
       -0.05952548 -0.018503072 -0.07290893 -0.0056573404
000250 4e e9 3c 3c 55 d3 34 bd 39 1a c5 bd a8 3d 88 bc
       0.011530234 -0.044146854 -0.09624142 -0.016630962
000260 fc fd ae bd 48 e1 b3 3c 85 4a e5 bc f5 00 09 be
       -0.085445374 0.021958008 -0.027989635 -0.13379271
000270 b0 c5 ab bd c9 27 35 bd 9e 5b 77 bb 35 1e 0c 3d
       -0.08387315 -0.044227395 -0.0037743817 0.034208495
000280 83 6e 9e bd 65 a1 c3 bd cc 84 9d bd 45 67 71 bd
       -0.07735922 -0.09552268 -0.076913446 -0.058936376
000290 9b f8 53 bd 89 93 1a 3c a3 28 b5 bc db d6 a4 bc
       -0.05175076 0.009434589 -0.022114104 -0.020121982
0002a0 13 bb dc bd 7f 83 c4 bc 20 b2 05 bc 0b a7 3f 3c
       -0.10777869 -0.023988483 -0.008160144 0.011697541
0002b0 42 61 16 bd 62 d4 6c bb 31 bc 2c 3b ed 1d 2a 3c
       -0.036713846 -0.0036137332 0.0026357288 0.010383111
0002c0 bf 68 16 bd a6 87 27 bd 2d bb c1 3c f4 b9 90 bd
       -0.036720987 -0.04090085 0.023648823 -0.07066718
0002d0 a2 c5 8b bd 04 5f 15 3b c1 85 c0 bd 47 c3 1e bd
       -0.06824805 0.002279223 -0.094005115 -0.03876045
0002e0 e4 48 ad bc d9 96 17 ba a2 66 4b bd a4 a7 a3 bc
       -0.021152921 -0.0005782671 -0.049658425 -0.019977398
0002f0 8e ff 3b bc 75 b2 27 3d 52 78 cf 3b 6c cc 2d 3c
       -0.011474503 0.040941674 0.006331482 0.01060782
000300 10 d6 b5 bc ab 2f 2a bd 0c 23 85 3c 8b 6a 3b 3c
       -0.0221968 -0.041549366 0.016252063 0.011438976
000310 74 ca 17 bb 59 3b 94 bc 6c f9 9d 3d 53 f4 ab 3c
       -0.0023161443 -0.018094705 0.07713589 0.020990526
000320 9c 9c 4f 3b 2b 02 f0 3c 81 4c 82 3d 9e 88 7c 3c
       0.003167904 0.029297909 0.06362248 0.015413431
000330 a5 55 42 bc 9e 55 4d 3c ed 4d 39 bd 04 1f 29 3c
       -0.01186124 0.01253262 -0.04524033 0.010322336
000340 f0 70 b3 bb d6 77 d1 3c 7a 4a a2 3d 8a 2c 83 3d
       -0.0054761097 0.025569838 0.079243615 0.064049795
000350 2a cd 2b 3a 9b 03 fb bc 2b a5 9a 3c 15 01 3f 3d
       0.0006553704 -0.030641368 0.018877586 0.04663189
000360 81 76 69 3d 12 ab 54 bc 90 cc bf bc 96 29 73 bc
       0.05699778 -0.0129802395 -0.023412973 -0.014841458
000370 78 53 68 3d 94 72 8f 3a 65 71 35 3c d8 05 16 bd
       0.056720227 0.0010944181 0.011074399 -0.036626667
000380 89 bb 70 3c 94 be 89 3d 4d bd 1d 3d 2d b1 81 3d
       0.014693149 0.06725803 0.03851061 0.06332622
000390 33 fc af 3d 1d 42 2c 3d 54 f6 c4 3d 5b 87 46 3d
       0.08593025 0.042055238 0.09617296 0.04846893
0003a0 a5 19 18 3e 2c 4b 44 3d b4 ab cc 3c f6 5f c9 3c
       0.14853533 0.047923252 0.024984218 0.02458189
0003b0 fa dc 3d bd 8a fc e7 bd e0 a5 a4 bd 2e 4c 35 bd
       -0.046353318 -0.11327465 -0.08039451 -0.044262104
0003c0 ee 66 52 3d d2 c0 d9 bd 78 92 3c bd 12 ab c3 bb
       0.051367693 -0.10632481 -0.04603812 -0.005971321
0003d0 f5 50 45 bd 7e 55 5f bd 9b a1 94 bd ee 3b 0f 3d
       -0.04817291 -0.05452489 -0.07257386 0.034969263
0003e0 31 cc 72 bc 3e bb 18 bd 80 82 45 bd 95 d2 d4 bd
       -0.014819191 -0.037287943 -0.048220158 -0.10391728
0003f0 8c c4 50 3c 8f 79 fb 3c 35 aa 9a 3d ce 8f 9e 3d
       0.012742173 0.030697612 0.07551996 0.07742272

b3 f4 [32]
000000 df e9 05 bf 03 23 0b bd 59 80 d2 3e d1 39 36 3f
       -0.52309984 -0.033968937 0.41113546 0.7118197
000010 41 40 96 3e 8a 3c 47 3f 33 19 5c 3f 98 0f 7c 3d
       0.29345897 0.7782675 0.8597595 0.06153831
000020 78 33 81 3e 58 6b 1e bf c0 c0 9c 3e f8 17 f3 bd
       0.2523458 -0.61882544 0.30615807 -0.11869806
000030 d5 78 1d bf e0 7a 82 be dc ab 9b 3e 69 e1 cf 3d
       -0.615125 -0.2548437 0.30404556 0.101504155
000040 69 7c 6c 3f df 1c 9c be 68 c9 55 3f 2c 10 9b 3e
       0.92377335 -0.30490777 0.83510447 0.30285776
000050 57 0b 3a bf c1 84 82 3e b7 6a 94 3d 3a c0 90 3c
       -0.72673553 0.25491908 0.07246917 0.017669786
000060 be c0 ae be 37 1e 1c bd 51 46 0f 3d 6d fc 20 bf
       -0.34131426 -0.038114753 0.03497917 -0.6288517
000070 e2 4e 17 3d 45 e0 40 3f 68 f1 dd 3e cb 8e 00 bf
       0.036940463 0.7534221 0.4334824 -0.50217885

w4 f4 [5, 32]
000000 a9 e1 87 bf bc 39 dd bf 5b b3 dd 3f 4e 56 d4 3e
       -1.0615741 -1.7283244 1.732036 0.41472095
000010 31 2e 39 bc 56 e4 ba 3f af 39 ee 3f 18 2c 08 c0
       -0.011302517 1.4600933 1.8611354 -2.1276913
000020 52 ac f8 3e 1c ed 8e be 66 ca 09 40 34 5f d2 bf
       0.4856897 -0.27915275 2.1529784 -1.6435304
000030 0b 25 8f bf 6d 4e dd bf 9f 5c df 3f 1d 3d b3 bf
       -1.118318 -1.7289559 1.7450141 -1.4003025
000040 60 10 0d 40 a4 7b bb bf 41 ff 96 3f cc 9c a2 3f
       2.2041245 -1.4647107 1.1796647 1.2704101
000050 fa 40 89 bf 44 ca 8b bf 17 41 ca bf c0 0f 88 bf
       -1.0722954 -1.0921102 -1.5801114 -1.0629807
000060 02 07 95 bf 09 d5 d5 3e 89 00 84 bf 52 a6 63 bf
       -1.1642764 0.41764095 -1.0312663 -0.8892566
000070 9c b8 ba bf 9a c6 c7 3f 48 16 a5 3f 73 a2 ad bf
       -1.4587588 1.5607483 1.2897425 -1.35652
000080 72 07 a1 bf 3b fa ef 3f 49 70 cd bf 26 06 96 bf
       -1.2580397 1.8748239 -1.6049892 -1.1720626
000090 f6 6c f9 bf 34 d5 97 bf 34 20 d6 3e 04 3a 8d 3f
       -1.9486377 -1.186194 0.41821444 1.103333
0000a0 a1 41 5a 3f 24 03 a3 bf 38 54 05 c0 83 21 bb bf
       0.8525639 -1.2735333 -2.0832653 -1.4619602
0000b0 32 d8 4c bf de cb 83 bf 68 1c c7 bf c0 20 ed 3f
       -0.8001739 -1.029659 -1.5555544 1.852562
0000c0 c7 c3 5f 3d 5b 0a ff 3f 0f c6 bb 3f 9e 60 12 c0
       0.054630067 1.9925035 1.4669818 -2.287147
0000d0 9a 18 a0 bf f2 01 00 40 97 01 8f bf 9e d3 0f 3e
       -1.2507508 2.0001187 -1.117236 0.1404557
0000e0 5b 5d f6 3f a3 7d fb be 4c 78 57 3f 14 8c 77 be
       1.924724 -0.4911929 0.84167933 -0.2417453
0000f0 11 44 b8 bf 1c 68 8a 3f 2d 0e 30 3f 7e a8 df 3e
       -1.4395772 1.0813022 0.6877163 0.43683237
000100 a2 f1 fb 3f 43 3a 66 3f 56 5c 02 bf 39 e0 b0 bf
       1.9683115 0.8993265 -0.50922143 -1.3818427
000110 31 d7 87 3f 65 6f b4 bf 6f bc 8c bf 05 eb d0 bf
       1.0612546 -1.4096495 -1.0995005 -1.6321722
000120 19 ea db bf c9 e8 1e 40 b7 96 e7 be e7 79 11 be
       -1.7180816 2.482958 -0.45232174 -0.14206658
000130 ec bd 6c 3f 6f dc e2 3f ad b1 e1 3f f4 15 90 bf
       0.924773 1.7723521 1.7632347 -1.12567
000140 92 e5 6b bf 32 9a 8f bf b8 be 78 3f e0 6b 75 bf
       -0.9214717 -1.1218932 0.97166014 -0.9586773
000150 08 a8 86 bf cc 5c 16 bf 69 a2 09 40 f7 85 10 40
       -1.0520029 -0.58735347 2.1505377 2.2581766
000160 46 d6 a0 bf 24 9e 66 bf f3 b9 5c bf b4 78 1b 40
       -1.2565391 -0.90085053 -0.86221236 2.4292421
000170 09 3d b0 bf be 50 a8 bf 13 55 04 c0 77 ba e2 bf
       -1.3768626 -1.314964 -2.0676925 -1.7713155
000180 4e b3 a5 3f b2 e4 5e bf 3b a1 c6 3f 74 2b b4 bf
       1.2945344 -0.8706771 1.5517954 -1.4075761
000190 53 12 c9 bf 3b db b0 bf ed a5 50 bf 1a 65 a7 3f
       -1.5708717 -1.3816904 -0.8150318 1.3077729
0001a0 e9 9a 04 40 76 8a 0e bf 4f 08 6a bf 58 96 00 40
       2.071955 -0.55680025 -0.9141893 2.0091763
0001b0 b8 96 0d 40 f6 e8 cf bf f3 9a a1 bf 48 72 b4 bf
       2.2123241 -1.6242969 -1.2625412 -1.4097376
0001c0 5a b8 dd bf 7e df 82 3f e6 dc 01 c0 7e 4e 83 3f
       -1.7321885 1.0224454 -2.0291076 1.0258329
0001d0 27 47 04 40 fd 36 7a bf 8c 89 30 bf 5d eb ba bf
       2.0668428 -0.97740155 -0.6895988 -1.4603077
0001e0 40 da 5d bf 07 a7 1a 40 e6 dc ac bf e4 0a 96 be
       -0.8666115 2.4164445 -1.3504913 -0.29305184
0001f0 38 7c b8 3f 18 f3 cc bf da 1e 76 3f 5b ce 77 bf
       1.4412909 -1.6011686 0.96140826 -0.9679925
000200 8a b6 99 bf f6 5e 26 bf 60 c3 c2 bf 93 0e 08 40
       -1.2008832 -0.6498865 -1.5215874 2.1258895
000210 0e a4 f3 3f a5 ef f4 3f b5 ca ac bf 84 24 9f 3f
       1.903444 1.9135634 -1.3499361 1.2433019
000220 de a1 a2 bf 80 42 94 bf 11 99 88 be cd b8 e2 3a
       -1.2705648 -1.1582794 -0.2667928 0.0017297507
000230 7b 51 c9 bf fb 53 af 3f dd 3d 8a bf 75 f8 a5 be
       -1.5727991 1.3697504 -1.0800129 -0.3241612
000240 4f ae 0b bf b3 60 92 bf 91 95 30 bf 3f 0a b3 3f
       -0.5456285 -1.143576 -0.6897822 1.3987502
000250 eb b3 c9 3e 9d 41 fa be cc 28 4c 3f 1c 80 c9 bf
       0.3939508 -0.48878184 0.7974975 -1.5742221
000260 22 a0 9a bf 1a 15 96 bf 81 f0 f4 3f 6b a4 be bf
       -1.2080119 -1.172519 1.9135896 -1.4893926
000270 6b f5 f9 3f b2 17 60 bf 06 80 8c bf a3 d4 ff 3f
       1.9528021 -0.87536156 -1.097657 1.9986767

b4 f4 [5]
000000 b9 93 4b 3e 6f 11 6b 3d 88 63 04 be eb 37 83 bc
       0.1988057 0.057389673 -0.12928593 -0.016017875
000010 fa 35 00 be
       -0.1252059

exp_avg f4 [32, 1, 3, 3]
000000 b4 b6 03 3c 59 b9 d6 3b 07 81 24 3b 51 8f f9 3b
       0.008039165 0.006552857 0.002510132 0.0076159616
000010 fd 27 0c 3c d7 2a a0 3b 8e bf 2c 39 26 80 bc 3b
       0.008554456 0.0048879194 0.00016474558 0.005752581
000020 44 b4 81 bb e8 0c 40 ba 99 b1 fa ba e8 8b 74 bb
       -0.003958257 -0.0007326142 -0.0019126415 -0.0037314836
000030 05 90 a1 ba b7 41 07 bc 4b 0c 80 bb 34 74 0e 3a
       -0.0012326246 -0.008255414 -0.0039077154 0.0005434186
000040 f1 4d 20 bc dd 6b 85 bb 79 1f 66 bb 7f 92 34 3b
       -0.009784208 -0.004071696 -0.0035113974 0.0027553139
000050 b2 78 77 3b 37 fc 70 bb f8 19 21 ba 9d 0a 65 3b
       0.003776115 -0.0036771426 -0.0006145532 0.0034948953
000060 d6 49 c0 3a d2 fe ee b9 5c e6 b9 ba e4 1a d9 3a
       0.0014670442 -0.00045584753 -0.0014183032 0.00165638
000070 24 92 65 3a fe b3 95 3a c3 f0 c5 3a c3 f7 2c 3a
       0.00087574334 0.001142144 0.001510166 0.00065981987
000080 a8 da dd 3a 3c 66 f6 b9 d0 82 ea b9 78 da 27 3b
       0.0016926127 -0.00046996947 -0.0004472942 0.0025612395
000090 e9 70 22 bc f1 65 3f bc 25 0d b5 bc 1e 79 4a bc
       -0.009914615 -0.01168202 -0.022100994 -0.012357978
0000a0 25 9e 13 bc e5 98 6a bc 24 c9 93 bb b0 78 98 bb
       -0.009009873 -0.014318679 -0.004510062 -0.004653059
0000b0 ec 00 6d bb 10 0e 3f 3b 8b 35 8f 3b 20 ac fe 3b
       -0.003616388 0.002915267 0.0043703965 0.0077719837
0000c0 7e 47 07 3b 1b e7 0b 3c 93 77 25 3c 49 b7 68 3b
       0.0020641978 0.008538987 0.0100993095 0.0035509637
0000d0 b8 1e 2b 3c f4 d8 62 3c f0 7b 9f 3b ce 95 cb 3a
       0.010444336 0.013845671 0.0048670694 0.0015532316
0000e0 21 b3 47 3b 13 fc df 3b 0b ae 34 3a 42 fe 49 3b
       0.003047176 0.0068354695 0.00068923895 0.0030821715
0000f0 70 be 71 3a ef d8 65 bb b7 e1 cd 38 ee 33 00 bb
       0.0009221798 -0.003507193 9.8172044e-05 -0.0019562203
000100 4a a2 0b 3b ea 45 cd 3b 68 25 35 bb 27 c4 7f ba
       0.0021306449 0.006264438 -0.0027640704 -0.0009756707
000110 59 6f e8 3a d3 7b 78 bb 3e f4 eb ba d8 da 4a 3a
       0.001773338 -0.0037915602 -0.0018001867 0.0007738299
000120 b9 89 8d 3a 87 d1 dc 3b 61 01 83 3b 56 c8 c9 bb
       0.0010798491 0.006738845 0.003997967 -0.006157915
000130 01 49 ba ba 9c e8 dc b9 3b 9b fe bb 32 25 ed ba
       -0.0014212431 -0.00042134977 -0.0077699698 -0.001809275
000140 9a 6c 53 3a 14 8e 02 3c 75 57 c0 3b 35 b1 5a 3a
       0.0008065194 0.007968444 0.0058698007 0.0008342446
000150 79 5c 07 3c 06 a7 99 3b 31 92 6d 3b 07 6b f5 3b
       0.008261793 0.0046891 0.0036250467 0.0074895653
000160 17 b6 2a 3b e9 1d 5b 3b de 43 b5 3b aa a4 95 39
       0.0026048475 0.0033434576 0.005531772 0.0002854218
000170 5a d1 76 bb 57 b1 a8 3b 56 36 70 3a 42 ee 5b b9
       -0.0037661404 0.0051480937 0.000916337 -0.00020974225
000180 a9 63 ea b9 31 d1 1c bc 89 55 44 bc 5b 01 87 bb
       -0.0004470621 -0.0095713595 -0.011983284 -0.0041200346
000190 e4 87 63 3a 88 c1 5e 3b e6 78 09 3b b9 69 ae 3b
       0.0008679612 0.0033989865 0.0020976602 0.0053226617
0001a0 85 e1 81 3b 0f 44 c1 b9 84 fb 84 3b 15 6d bc 3b
       0.0039636516 -0.00036862536 0.0040583033 0.0057503083
0001b0 92 63 62 3b 74 70 ac 3b 42 54 13 3c 54 0d 21 3b
       0.0034544212 0.005262429 0.008992257 0.0024574595
0001c0 75 52 0c 3c 95 25 37 3c bd 4a 1f 3c 68 41 72 3c
       0.008564581 0.011178394 0.009722409 0.014786102
0001d0 68 9e 89 3c d7 8b ce 3a ae 6d 9b 3b 4d 2a 63 b9
       0.016799167 0.0015758228 0.0047432994 -0.00021664165
0001e0 64 6d 2b 3b 78 25 cd 3a f2 8d f4 3a 40 04 a4 bb
       0.0026157731 0.0015651425 0.0018658026 -0.0050053895
0001f0 7c 39 37 bc 27 20 98 3a b8 a9 0a 3b 94 b6 1e 3b
       -0.011183139 0.0011606262 0.002115829 0.0024217712
000200 17 a6 97 3a c1 81 f4 38 b3 54 b1 ba 13 8e cf 38
       0.0011569884 0.00011658995 -0.0013529271 9.8969926e-05
000210 15 07 f6 3b ad cb 6a 3b 0a 99 15 3b ab 1a 9a 3b
       0.0075081685 0.0035826967 0.0022826814 0.004702886
000220 25 68 73 3b 7a 74 10 b9 3a 9b 80 bb 4a 5b a9 ba
       0.0037140932 -0.00013776301 -0.0039247544 -0.0012920883
000230 5e b6 ea ba 15 63 8f bb 21 a1 65 ba 37 c4 c1 b9
       -0.0017907133 -0.004375825 -0.0008759667 -0.0003695802
000240 3c e7 b1 3b 85 34 6c 3b 22 3b 06 bb a9 6f 3b bb
       0.0054291766 0.0036042046 -0.0020482023 -0.002860049
000250 d2 94 1a bb a5 00 a4 ba 6d 0e 74 ba ca 60 28 3b
       -0.002358724 -0.0012512399 -0.0009310011 0.0025692456
000260 f1 89 13 3c 18 ec ca ba a6 24 4e bb c2 77 e3 bb
       0.009005056 -0.0015481738 -0.003145495 -0.0069417665
000270 37 a8 c3 ba f3 0d 04 bb 33 30 48 bb f6 dd e5 39
       -0.0014927451 -0.0020149916 -0.0030546307 0.00043843657
000280 6d f6 34 ba b4 4d ec ba 68 d1 01 ba 15 41 12 3a
       -0.00069031754 -0.0018028528 -0.00049521634 0.0005579156
000290 60 82 84 3a 5f 99 ff b9 f9 1a f8 ba 6f 21 b2 ba
       0.0010109656 -0.0004875166 -0.0018928937 -0.0013590286
0002a0 2d d2 e1 bb e8 58 b9 bb d3 f5 a4 bb 11 5b 8a 39
       -0.00689151 -0.0056563504 -0.0050341873 0.0002638926
0002b0 6c e6 bf 38 2c 83 91 ba b9 11 4f 3b a4 47 67 3b
       9.150509e-05 -0.0011101714 0.0031596257 0.0035290504
0002c0 44 cd 9f 3a 61 2a b4 3a a9 ff 05 3b 5e 64 85 3a
       0.0012191911 0.001374554 0.0020446575 0.0010177006
0002d0 a3 a6 80 3b f5 a6 59 3a 31 b9 27 3b 48 09 5e 3b
       0.0039261146 0.00083027716 0.002559256 0.0033880044
0002e0 3e a8 f6 3a c1 f8 78 3b cc cf 26 3c 5b 68 18 3c
       0.0018818451 0.0037990066 0.010181379 0.009302224
0002f0 65 6e fa 3b 3a ee 63 3c 2f aa 5a 3c 15 d4 87 3b
       0.0076425546 0.013911778 0.013346239 0.004145155
000300 7e fa 4c 3c 12 31 53 3c 6a 76 8a 3b 8f 4d 0d 3c
       0.012510894 0.012890117 0.004225542 0.008624448
000310 7d 91 11 3c b9 32 81 3b 96 ee 28 ba d5 85 25 b9
       0.008884785 0.003942814 -0.00064442435 -0.00015785483
000320 3a f4 97 ba b9 6b 40 b9 ba 37 ce ba 77 fc 8e bb
       -0.0011593171 -0.00018350677 -0.001573316 -0.0043635922
000330 b8 1f 6f ba 3d 45 71 bb 61 43 12 bc cf 62 95 bb
       -0.0009121853 -0.003681495 -0.008927197 -0.004558898
000340 07 60 9b ba 63 8b 55 3a 75 f0 56 bb de d5 0d bb
       -0.001185418 0.00081460754 -0.0032797132 -0.0021642367
000350 2b 12 a7 39 d1 a7 1e 3b db 52 25 3b 82 8e 45 3b
       0.00031866258 0.0024208913 0.0025226388 0.0030144756
000360 fc a2 ce bb af d2 1c bc fa c3 4c bc 4d fe 06 bb
       -0.0063060503 -0.009571715 -0.012497896 -0.0020598352
000370 f9 c3 09 bc f2 72 42 bc 6f 38 a7 ba a7 b4 55 bb
       -0.00840854 -0.011868225 -0.0012757907 -0.0032608898
000380 68 e5 4f bc b1 89 0f 3c 61 b7 b8 3b 9f ae b1 3b
       -0.012688972 0.0087608555 0.005637095 0.005422428
000390 13 21 1b 3c 3d d3 1d 3b 7c 66 01 3b 20 e8 db 3b
       0.009468335 0.0024082207 0.0019744923 0.006711021
0003a0 13 b0 2a 3b b5 c2 10 3b c0 80 95 3a ac 91 16 bb
       0.002604489 0.002208871 0.0011406168 -0.002297501
0003b0 cb ec f5 3a d6 f0 93 3a 9f 43 b6 ba 54 d7 f0 38
       0.0018762586 0.0011286985 -0.0013905651 0.000114842
0003c0 96 5b de b9 64 fa 3b ba 3e 48 82 b9 e8 73 ec 3b
       -0.00042411376 -0.0007170795 -0.00024849357 0.0072159655
0003d0 dd f8 00 3c 3f 66 06 3b 3b 73 f9 3b 30 30 7c 3b
       0.007871834 0.002050772 0.0076126135 0.003848087
0003e0 99 30 fb 3a 5a c7 b1 3b 67 be 8e 3b 8e 77 55 3b
       0.0019164264 0.005425376 0.004356194 0.003257248
0003f0 f3 da 7c 3b d7 80 f0 3b 2f ad 33 3b e3 54 0c 3b
       0.0038582652 0.0073395777 0.0027416458 0.00214129
