CS330/XCS330-PS3/src/submission/logs/maml/omniglot.way_5.support_1.query_15.inner_steps_5.inner_lr_0.04.learn_inner_lrs_False.outer_lr_0.001.batch_size_16/state8200.pt (torch, 353132 bytes, 30 tensors)

conv0 f4 [32, 1, 3, 3]
000000 34 2f 17 be 3f b1 05 be 94 6b ef bb 6d 2f 52 bd
       -0.147641 -0.13055895 -0.0073065255 -0.05131476
000010 4d b8 93 3b 6c 29 5b be b0 08 43 3e f9 6a 46 3e
       0.0045080543 -0.2140252 0.19046283 0.19376744
000020 63 00 e9 be 08 28 bb bd b9 2c 0e bd 59 ce 92 bc
       -0.45508108 -0.09138495 -0.03471062 -0.01792066
000030 dd 58 d9 be 70 bf 07 bc ad 8e 49 bc 22 c8 b5 3e
       -0.4245061 -0.008285388 -0.012302083 0.35504252
000040 77 d0 03 3b d3 06 d7 bc d7 4d 26 3e bb c8 a9 be
       0.0020113268 -0.026248371 0.16240631 -0.33160958
000050 e2 df 20 be a4 3a ad be 8d c8 4b bd c3 82 ba 3d
       -0.15710405 -0.33833802 -0.049751807 0.09106972
000060 fa 94 6d be 90 b6 7d 3e 0e 36 4c 3b 9e 28 f6 3d
       -0.23201361 0.24776673 0.0031160149 0.12019466
000070 00 62 81 3d 41 19 ae be 5b 94 cc 3d 31 11 89 3d
       0.0631752 -0.34003642 0.09989234 0.06692732
000080 83 3d c7 be 8a 7c d5 be 28 e8 c9 be e2 fb 46 be
       -0.38914117 -0.41696578 -0.39434934 -0.19432023
000090 ac 52 3d 3d 57 76 b5 bc 24 43 48 3b 38 45 b8 bd
       0.04622142 -0.022151155 0.0030557597 -0.089975774
0000a0 46 90 c8 3d 76 57 58 3e 7e bb d6 be af 94 3e be
       0.09793143 0.21127114 -0.4193992 -0.18611406
0000b0 13 1f af 3d f4 23 07 bf 69 6b 90 3d b7 09 f6 3d
       0.08550849 -0.52789235 0.07051737 0.12013572
0000c0 b7 b5 11 bf d2 ca 00 3e 75 fc 1c 3e d4 bd 00 bf
       -0.569179 0.1257737 0.1533068 -0.50289655
0000d0 15 2d 13 bd 81 e4 77 3d 87 95 91 be da aa 0a bd
       -0.035931665 0.060520653 -0.28434393 -0.033854343
0000e0 54 ef 04 bc 9d 9e c6 3c f3 87 6b be 32 1f 2c be
       -0.008113701 0.024245555 -0.2300108 -0.16808775
0000f0 50 86 97 3e f4 bd 04 be 77 42 b3 bd 8d e9 00 3c
       0.2959466 -0.12963086 -0.087529115 0.007868183
000100 e5 02 96 3e 94 ab 82 bd 57 9a 58 3d 48 07 a3 bd
       0.29299083 -0.06380382 0.052881565 -0.07960373
000110 b5 0e c6 be 19 51 53 3b 97 65 5a bd a0 9e 68 be
       -0.38683096 0.0032244383 -0.05331954 -0.2271676
000120 7a 21 67 3e 38 36 08 bb 09 77 9a be d5 27 ef 3b
       0.22571364 -0.002078427 -0.30168942 0.0072984495
000130 4e 16 91 be 40 e4 37 bd 1f 28 1d bd 56 ec 6a bd
       -0.2833733 -0.04489541 -0.03836834 -0.057354294
000140 62 d7 6f be 41 92 94 3d 98 ab d1 bd b1 1a d2 be
       -0.23422006 0.07254458 -0.10237807 -0.4103599
000150 dd a1 4b 3e fa 27 88 3d 24 70 eb be 6c 12 1d 3e
       0.19885965 0.0664825 -0.45983994 0.15339059
000160 eb 65 0d be 1e ce bd be 30 37 b6 3e f1 f0 9a bd
       -0.1380841 -0.37071317 0.3558898 -0.07565487
000170 e0 6c 90 3d c7 bd 07 bf cc 2f 8c bd d7 30 96 3c
       0.07052016 -0.5302395 -0.06845054 0.018333836
000180 1e 5f 8a 3e 15 30 00 bc 85 43 a1 3b 6e e1 5f be
       0.27025694 -0.007823964 0.004921379 -0.21863338
000190 64 88 29 3e 66 d0 c0 3d 53 d3 93 be 71 44 d0 3d
       0.16555935 0.09414749 -0.28872165 0.10169304
0001a0 82 af 2e 3e 17 76 83 be 60 7c 9f be 91 04 5d be
       0.17059138 -0.25676033 -0.31149578 -0.21583773
0001b0 3d 07 27 3e c0 85 71 bd 34 18 f0 be a3 20 0e bc
       0.16311355 -0.058965445 -0.46893466 -0.008674773
0001c0 07 f1 2a 3e f4 b3 8d bd c4 a2 92 be 89 53 2c bd
       0.16693507 -0.06919089 -0.28639805 -0.042071853
0001d0 80 f2 67 3e e6 26 6b 3e f6 43 02 bf 2d 04 c3 3e
       0.226511 0.22964057 -0.5088495 0.38089123
0001e0 9a a6 aa 3d f7 70 b7 3c 2d 87 4e 3d 9c 28 df bd
       0.08332558 0.022392733 0.050421882 -0.108964175
0001f0 e3 7f ef 3c 83 75 5b bd 10 7f e9 bd 86 ab 7c be
       0.029235786 -0.053578865 -0.114011884 -0.24674806
000200 8f 05 7f be d7 b5 04 be 5a 9f ae bd 6a 50 0d be
       -0.24904464 -0.12959991 -0.08526488 -0.13800207
000210 25 b9 9d bd ca 4e b0 3b e3 49 9c 3e c2 52 58 bc
       -0.07701329 0.005380486 0.3052512 -0.013203325
000220 61 ac c2 3c c8 03 a8 3c bc 66 99 3d d8 60 b1 bd
       0.023763837 0.020509616 0.07490298 -0.086610496
000230 1a 7f 83 3d cf d5 a4 3e 75 6e 2b bf 81 fb 3b 3e
       0.06420727 0.32194373 -0.6696542 0.1835766
000240 c8 40 8a bd bd 63 79 3d 1f 6a 24 3d ff 0b 6d 3d
       -0.06750637 0.060886133 0.040140267 0.05787277
000250 9b 75 2d 3d 9b 6b fa 3c 4b ef 26 3f 53 58 ae 3d
       0.042348485 0.030568888 0.6520888 0.0851294
000260 fd 4b 3f be c0 45 91 bc 2b eb a1 be 9b 71 54 3e
       -0.18681331 -0.017733455 -0.3162473 0.20746462
000270 2c f2 08 be 03 5e 11 be d9 42 15 bd 87 68 c8 bd
       -0.13373631 -0.14196019 -0.036440704 -0.09785562
000280 cf 27 3c be 74 b6 59 3e 02 fd 09 bc fc 8d 93 3d
       -0.18374561 0.21261007 -0.008422138 0.07204816
000290 eb 2d 03 3d e9 1c 31 be b9 68 c0 be b7 75 bc be
       0.032026213 -0.17296185 -0.37579897 -0.3680856
0002a0 9d cd 27 bc ff 38 ee 3d f7 5d 24 3e 8c fc a7 3d
       -0.010241893 0.11631965 0.1605147 0.08202466
0002b0 d3 56 19 3e e8 50 c6 3d 40 e9 87 bb 0a d4 04 3e
       0.14974527 0.096834004 -0.0041476786 0.12971511
0002c0 2f fe bb bc a3 19 fe be ea 28 0f bf 45 f1 ef be
       -0.022948353 -0.49628934 -0.55921805 -0.46863762
0002d0 a1 20 fc be 24 5b 02 bf 28 62 d9 be 33 7f 73 3d
       -0.49243644 -0.5092032 -0.424577 0.05944748
0002e0 fd 1c d3 3d 66 04 53 bd 04 20 0a 3e f6 ca 0b 3e
       0.103082635 -0.051517867 0.13488775 0.13651642
0002f0 03 a0 92 3d fe 94 cf 3d f7 08 8b bb c9 09 04 bf
       0.07159426 0.1013584 -0.004243012 -0.5157743
000300 af 58 26 bd d0 bd 0b 3e a1 87 ff be 2f 4d 39 3e
       -0.04061192 0.13646626 -0.49908164 0.1809585
000310 fd 80 c8 3d c3 0d e7 be 97 f6 74 be e5 7c 65 be
       0.097902276 -0.45127687 -0.23922192 -0.22410925
000320 2c b9 38 be a9 43 8b be 80 2e b0 bd 61 63 5c 3d
       -0.18039387 -0.27200058 -0.08602619 0.053805713
000330 a2 b5 8b be da e1 05 be ea 12 ca 3d 59 b3 16 3e
       -0.27287012 -0.13074437 0.09866889 0.14716853
000340 9d 1f 55 3d ee f1 b0 3e 0a 07 7a bd 8c 8d 34 be
       0.052032102 0.34559578 -0.06104187 -0.17632121
000350 41 cd 48 be eb 84 88 bd d4 14 48 be e1 a6 45 be
       -0.19609548 -0.06665977 -0.19539195 -0.1930194
000360 00 12 1a bf f1 ac 9f 3e 7d 21 6b 3d 53 31 67 bd
       -0.60183716 0.3118663 0.057404984 -0.056443524
000370 c8 fe fd 3c 33 90 17 3d e8 e2 a3 3c 2e 11 8a bc
       0.031005278 0.037002753 0.020005658 -0.016853895
000380 8b d8 9c bd 9f 53 43 3e d4 7f e5 3a 4a 76 79 bd
       -0.0765849 0.19074868 0.0017509409 -0.060903825
000390 0a 16 4f 3e 89 4a 33 3d 99 6e 95 bd c5 e7 c7 be
       0.20223251 0.043772254 -0.072964855 -0.39044014
0003a0 9d 00 b0 be a7 a8 45 be 57 3c b5 be 28 bd c0 be
       -0.34375468 -0.19302617 -0.35397598 -0.37644315
0003b0 8b 72 51 be de e8 94 be ea 53 3b 3e e5 26 3f 3e
       -0.20453851 -0.29083914 0.1829373 0.18667181
0003c0 89 7a 94 be d4 36 2e 3e 58 5c c1 3d fe d7 03 3e
       -0.28999737 0.17013103 0.09441441 0.12875363
0003d0 57 5b 99 3d b9 a3 93 be 13 e9 84 3d a6 bd 3e 3c
       0.07488125 -0.28835848 0.06489768 0.011641895
0003e0 fa 59 9e be 1a a0 0c bd 9a 34 85 be 19 9c a0 bd
       -0.30928022 -0.034332372 -0.26016694 -0.07842273
0003f0 b2 00 95 be 98 d7 f8 bb ab 98 87 3e 42 1c 1e 3e
       -0.29102093 -0.00759406 0.26483664 0.15440467

b0 f4 [32]
000000 b2 3a 9a bd 8f f5 de bd 6b cc c5 bd 02 e0 92 3d
       -0.075307265 -0.1088668 -0.0965813 0.07171632
000010 24 ba cc bc 23 64 1d be 03 9e e5 bd 3a 8a af bb
       -0.024991103 -0.1537023 -0.11211779 -0.005357054
000020 47 08 12 3d f2 00 b9 3d 03 70 12 3d 6d f6 04 3e
       0.035652425 0.090333834 0.035751354 0.12984629
000030 48 ff 13 3d b4 59 b3 bc d9 bf 92 3d be 34 8d 3c
       0.036132127 -0.02189336 0.07165498 0.017237063
000040 47 aa b8 3c 78 32 00 3e 2d a4 24 3e 80 df cd 3d
       0.022542132 0.12519252 0.16078253 0.10052395
000050 c9 5e 41 3d 31 74 0f bd 37 66 0c be 77 4c 66 bd
       0.047209535 -0.035022918 -0.13710867 -0.056225266
000060 2c 76 73 bd 22 ec d3 3c 76 c0 f3 bd 14 98 9d 3c
       -0.05943887 0.025869433 -0.119019434 0.019237556
000070 c9 65 34 be 3a 18 1a bd cd bc ef bc cd e6 04 bc
       -0.17616953 -0.03762076 -0.029264832 -0.008111668

conv1 f4 [32, 32, 3, 3]
000000 07 c8 3d 3c ea 7a bc bc 35 94 b1 bd 4f 43 32 3d
       0.011583335 -0.023007829 -0.086708464 0.04352122
000010 1a 61 cf 3c c4 c6 cb bd 7e 24 b3 bc ef ef 94 3d
       0.025314856 -0.09950021 -0.021867987 0.07272326
000020 69 c4 d2 bd 1c 45 3b be 94 2d 7e 3d b8 36 5d 3d
       -0.102913685 -0.18288082 0.062055185 0.054007262
000030 f8 3b 33 be 43 f8 17 3e d1 35 82 bc ad c0 3c bd
       -0.17503345 0.14840798 -0.015894802 -0.046082187
000040 a7 23 df 3c 22 25 09 bd f6 7f 8c bd 68 80 05 be
       0.02723868 -0.03348268 -0.06860344 -0.13037264
000050 cf e9 33 3d a0 4e d6 bc 30 c5 43 bd 51 79 16 bd
       0.04392415 -0.026160538 -0.047795475 -0.03673679
000060 26 4b 8d bd 12 58 1b 3c 06 7a 72 3d 46 3e 96 39
       -0.06899099 0.009481447 0.059198402 0.00028656627
000070 a9 f2 3f bd 9d e6 cd bb 71 cc 2c bd 8a 12 7b bd
       -0.046862278 -0.0062835948 -0.042187158 -0.061296977
000080 d7 bb 8d 3d 55 de e5 3c e7 62 dc 3d fd 7b 58 3e
       0.06920593 0.028060118 0.107610516 0.21141048
000090 d3 89 57 3d fd 6a a3 3c e9 16 51 bd 8d b9 93 bc
       0.052621674 0.019948477 -0.05104724 -0.018032813
0000a0 11 0e cb 3c 08 8f 1b 3d 17 99 84 3d 3e b0 a4 bd
       0.02478698 0.037978202 0.06474512 -0.08041428
0000b0 51 89 ad bd 73 24 79 3e 11 8d 74 3d 5a 30 9e bc
       -0.08473457 0.2433031 0.059704844 -0.019310165
0000c0 b3 c4 6f 3e cc 96 7b 3d a9 34 61 bd 45 9e 31 3e
       0.23414879 0.061423108 -0.05498186 0.17345531
0000d0 f4 6a 16 be ce 2f f3 bd 7e 6b 85 3d 4e 82 77 3d
       -0.14689237 -0.118743524 0.06514643 0.060427003
0000e0 79 52 1f 3d a1 ae 3d 3e 29 35 99 3d dc 2b 8b bc
       0.03889701 0.18523647 0.074808426 -0.016988687
0000f0 1d 43 8b 3d 0d 35 46 bd 56 ec 16 be 32 1f d5 3d
       0.0679991 -0.048390437 -0.14738593 0.10406341
000100 34 15 fb 3b 9c 4f 03 3d c3 df 15 3d 73 67 d9 bc
       0.0076624397 0.032058343 0.03659035 -0.026538586
000110 f1 e4 1d 3d e8 49 5d be 27 20 6b 3d db ed bf 3d
       0.038548414 -0.21610224 0.05740371 0.09371539
000120 69 aa 75 3d 4f a0 c7 3c f5 c7 06 3e 90 5e 8c b9
       0.05997697 0.024368433 0.13162215 -0.00026773335
000130 c4 86 ba 3c e3 b3 b4 3d 29 c3 19 bd eb 28 dd bd
       0.02276934 0.08823373 -0.037539635 -0.1079882
000140 2a ca f2 3c 98 a3 fa 3d 4e e8 0b 3e eb 25 b2 3d
       0.029637415 0.12238234 0.13662836 0.086986385
000150 3d 82 92 3d 07 b6 12 3b 1a a1 96 bd 6c 58 a4 bb
       0.07153747 0.0022386329 -0.073549464 -0.0050154235
000160 6a a2 0f be ea de c8 bd 37 24 e5 bd 79 b1 17 3d
       -0.140268 -0.098081425 -0.11188548 0.037034485
000170 9e 8c a6 3d f5 5d 10 be a5 c2 d0 3c 7d 60 4e 3d
       0.08132289 -0.14098342 0.025483439 0.050384987
000180 aa 74 2e bd d4 bc d2 bd 24 3a 95 bd 91 c9 5d 3d
       -0.04259173 -0.10289922 -0.0728648 0.054147307
000190 1a d1 aa 3c 50 13 ca bd d4 17 e3 3d 92 c4 bb 3c
       0.02085166 -0.09866965 0.11088529 0.02292088
0001a0 cd 99 f4 bd e1 27 7a 3e 9f 55 0e bd 82 79 a9 3d
       -0.11943398 0.24429275 -0.034749623 0.08275129
0001b0 2b 55 09 3e 43 f6 81 3d 1c 7c df bc 36 71 f6 3d
       0.13411395 0.06345799 -0.02728086 0.12033312
0001c0 f5 e9 68 3c e3 20 89 bc ec 6c e3 3c 9b 09 0f 3d
       0.014215936 -0.016739314 0.027761899 0.03492127
0001d0 82 e2 4f bd f6 48 59 3d f3 4a 3c 3d c4 01 b0 3c
       -0.050753124 0.053048097 0.045969915 0.021485217
0001e0 69 5b 7a 3d 92 ca 16 3d 25 38 9e 3c cb 8e a2 bd
       0.06112233 0.03681428 0.019313881 -0.07937392
0001f0 61 ff 0c 3d 7f 3c 39 3c 17 40 7c bd cd d4 e1 bc
       0.034423236 0.011305927 -0.06158456 -0.027567292
000200 26 24 a2 bd da 2f 27 bd a3 8e 8e bd 19 ba 72 bd
       -0.07917051 -0.04081712 -0.069607995 -0.059259508
000210 4a eb 16 3d 54 7a ee 3d d3 c0 1d 3e 07 58 ff 3d
       0.036845483 0.11644426 0.15405588 0.12467962
000220 46 86 f9 3d f9 fd 66 3d 3a 3b fa 3c be 6b db 3d
       0.12183814 0.05639455 0.03054582 0.107139096
000230 fc 47 4d bd 80 49 c0 bd 5f 06 8f be 73 20 37 be
       -0.050117478 -0.09389019 -0.27934548 -0.17883472
000240 03 3c cc bc 47 1d df bc b2 06 75 bd 1a b7 ae bd
       -0.02493096 -0.02723564 -0.05982084 -0.085310176
000250 db e3 02 be b6 0a 0f be bf 80 f4 bd c3 c8 55 be
       -0.12782232 -0.1396893 -0.11938619 -0.20877366
000260 da dc 0b be 7d 90 f1 3d 46 56 f6 3d 29 56 21 3d
       -0.13658467 0.11795137 0.12028174 0.03938881
000270 04 02 ff bc 19 a4 04 bb 6e 2d 0f 3e 22 bd 3b bd
       -0.03112889 -0.0020239411 0.13982174 -0.045834668
000280 6c 71 3f be ca 1e 14 be f2 f0 3e bd fc 6a 9b 3d
       -0.18695611 -0.1446487 -0.046616502 0.07588765
000290 09 0d ac bb df ed 1b bd 9f 9c 0a bd b6 e9 95 bc
       -0.0052505773 -0.03806865 -0.03384077 -0.018299919
0002a0 3b f7 64 3d 29 d2 01 3d 0e 2e ab bc d5 79 6e bd
       0.05589984 0.031694565 -0.020895984 -0.058221657
0002b0 3d 9f 06 be 23 0f 6f bd e2 dd 59 bb e0 53 50 bd
       -0.13146682 -0.058364045 -0.0033243825 -0.05086124
0002c0 b5 68 6f 3d a2 d2 05 3e 34 30 97 3e ca 0e ca 3e
       0.058449466 0.13068631 0.29528964 0.39464408
0002d0 be 86 b3 be 69 ed 91 3c 84 e0 5e 3d bc 6b 97 bd
       -0.35063738 0.017813401 0.054413334 -0.073935956
0002e0 4c b1 c8 3d aa 0b 0d 3e 2c 0a d6 3d b6 9e 11 3d
       0.09799442 0.1377398 0.10451159 0.03555175
0002f0 67 04 84 3e 42 9a 2a 3e 70 c6 f8 3d 1e 09 12 3e
       0.2578461 0.16660407 0.12147224 0.1426129
000300 df 75 f7 3d f3 f1 3a 3c 64 ae 56 bd c0 2d 23 bc
       0.12083029 0.011410224 -0.052412406 -0.009959638
000310 d9 bf 0b be a2 17 f0 bd 47 14 83 bd 97 1a 13 bc
       -0.13647403 -0.117232576 -0.06400352 -0.0089785075
000320 5c 01 3c 3c 3a 79 67 3d 6d a7 9b bd ce d2 6b 3c
       0.0114749335 0.056512095 -0.07600293 0.0143935215
000330 d9 d4 4f be c8 47 ba bd 74 bd e3 bd 3d a4 99 bd
       -0.20296039 -0.090957224 -0.1112012 -0.07502029
000340 42 e8 e6 bb f3 0d 14 bd 64 4f 69 bd 16 5f 5c bd
       -0.0070467303 -0.036146116 -0.05696048 -0.05380162
000350 aa 61 8d 3d 50 50 0d bb b4 a6 c8 3c 6a 34 93 3d
       0.069033936 -0.0021562763 0.024493553 0.071877316
000360 cd a7 9c 3b b5 ed 61 3d 34 4f 4b 3d f4 a1 56 3d
       0.0047807456 0.055158336 0.04963608 0.052400544
000370 d6 f8 96 bc ae c0 3f 3d 23 f9 f4 bc f3 34 15 3d
       -0.018429201 0.046814613 -0.029903954 0.03642745
000380 d4 20 8b bd 50 44 2f bd 22 02 a7 3c be ee a2 bc
       -0.06793371 -0.042789757 0.02038676 -0.019889232
000390 45 61 3c be 31 b1 cc bb 6b 06 1c 3d b1 b5 02 be
       -0.1839648 -0.006246709 0.03809206 -0.12764622
0003a0 a8 a2 95 3d 7b b5 83 3e 71 21 0b be e4 d6 c4 bd
       0.07306415 0.25724396 -0.13586976 -0.096113
0003b0 d7 f6 78 bb e2 46 3b bd d4 7d 11 3d 7b 68 77 3d
       -0.0037988925 -0.045721896 0.03552039 0.060402375
0003c0 05 8f 7e bd c5 ad bd bd 79 13 c9 bb 01 7e 3b bd
       -0.062148113 -0.092616595 -0.0061363545 -0.045774464
0003d0 e7 4b 7b 3c c8 a6 bb 3d cd 9b 50 be 6f 6a ec bc
       0.015337921 0.091626704 -0.20371933 -0.028859345
0003e0 80 59 43 3d 6b a7 49 be 41 6a b1 bd c1 6e 99 3c
       0.047692776 -0.19692771 -0.086628444 0.01872957
0003f0 49 71 01 be 35 3d 2c bd 6d c7 0e 3d 04 6a a1 bd
       -0.12640871 -0.04205056 0.034858156 -0.07881549

b1 f4 [32]
000000 54 77 cd 3c 13 e9 3d 3d a7 f7 cb 3d f8 cb a0 3d
       0.025081314 0.046364855 0.09959345 0.07851404
000010 58 74 2c be 8e f5 bb bd bf dd 33 be a6 ff 6c 3e
       -0.16841257 -0.09177695 -0.17565058 0.23144397
000020 57 75 fe bc 0d 1b b9 3c 5c 1d ff 3d d7 ed f1 3c
       -0.031061811 0.022595907 0.12456772 0.029532356
000030 dc b2 a6 3d d8 32 46 3e 83 23 d7 3d f3 0c c9 3b
       0.081395835 0.19355333 0.1050482 0.006135577
000040 0a 00 87 3d f6 39 91 be 5c da 94 be 47 cc 53 3d
       0.06591804 -0.28364533 -0.29072845 0.051708486
000050 22 ec 3f be 4d 05 a4 3d 60 f7 92 3d 4a 53 45 3d
       -0.18742421 0.080088235 0.07176089 0.048175134
000060 33 33 80 3d c3 eb 78 3d 3d 7c a3 3d 7d 6b 00 bf
       0.062597655 0.060771715 0.07982681 -0.50164014
000070 a3 5c fb 3c 4b 62 0e 3e 4d 5b 2f bd c5 90 d2 bd
       0.030683821 0.13904683 -0.04281168 -0.10281519

conv2 f4 [32, 32, 3, 3]
000000 3a fe 22 3d 44 f1 8a 3d 21 ba fc 3c fc 1e 40 bc
       0.03979323 0.06784299 0.030850472 -0.011726137
000010 2b ce a4 bc ef bb f0 bc 12 5c 37 3d ad d6 0b 3d
       -0.02011784 -0.029386489 0.04476554 0.034140278
000020 2a dd 89 3c 21 9b 38 3d 8f 70 c8 3c b1 49 92 bb
       0.016829092 0.045069817 0.024467735 -0.004464351
000030 81 e5 68 3d 3d c6 d1 bc d6 b6 c9 3c 28 44 d0 bd
       0.056859497 -0.025607223 0.024623316 -0.1016925
000040 ae 96 9d bc 77 d7 0e bd 17 dc ad bc db d9 78 3b
       -0.019236889 -0.034873452 -0.021223111 0.003797165
000050 d8 09 44 bb ce f5 41 3c e5 9b a3 bd 44 b8 8d bb
       -0.0029913094 0.01183839 -0.07988719 -0.0043249447
000060 c2 e1 70 bc 50 1c e9 3b e6 f3 eb bc 5b 4a 25 bd
       -0.014702262 0.007113971 -0.028802823 -0.040354114
000070 af a0 24 bc 53 80 5d bd b6 a1 9c bc 82 e1 59 3d
       -0.010048076 -0.054077458 -0.019120079 0.053193577
000080 26 64 91 3c 0c cf ee bd 18 f6 bf bd 05 95 18 bd
       0.01774795 -0.11660585 -0.093731105 -0.03725149
000090 37 6d 7b 3b eb e1 33 bc 2f c3 e6 3b a1 5b 93 3c
       0.0038364658 -0.010979156 0.0070423107 0.017988028
0000a0 ee 75 4d 3c bb 78 f6 3c 37 34 df 3c d1 9e 0f 3d
       0.012540324 0.030086866 0.027246578 0.03506357
0000b0 5d 53 a6 3c 55 92 d8 3b 47 b7 9a 3c fa 47 93 3c
       0.020303423 0.006609241 0.018886222 0.017978657
0000c0 75 97 73 3c a4 c3 29 bd 2f 53 a8 3c 47 a8 fb 3c
       0.014867653 -0.041446343 0.020547478 0.03071989
0000d0 5f a9 e5 38 96 40 e6 3b 55 c4 58 39 17 b7 81 bc
       0.00010951119 0.007026742 0.00020672505 -0.015834374
0000e0 76 fc 9f ba be c5 ad 3c c1 d8 ab bc 4e 1f de 3c
       -0.0012205977 0.021212455 -0.02097738 0.027114537
0000f0 c6 84 5a bd 6c 65 15 3c 0e 4b 75 bc 41 87 68 bd
       -0.05334928 0.009118419 -0.014971508 -0.056769613
000100 78 4c e1 bc f6 74 81 bd 16 4e d8 bd 50 73 0f bd
       -0.027502283 -0.06321137 -0.10561769 -0.03502208
000110 7a 7a 45 bd a3 92 29 bd 03 5c 82 3b af ee fd bb
       -0.048212506 -0.04139961 0.003978254 -0.0077494006
000120 99 4c 32 3d 15 85 91 bc d7 ef 60 bc c6 25 b8 ba
       0.04353008 -0.017763654 -0.013729057 -0.0014049343
000130 f7 e9 26 bc 9c b1 45 bc cf f2 43 bd 88 11 a4 bc
       -0.0101876175 -0.012066271 -0.047838982 -0.02002789
000140 3e ed 27 bd de 5f 7c b8 e4 d0 c5 3c bc 6a de 3c
       -0.040997736 -6.0170765e-05 0.024147458 0.027150504
000150 43 c9 6d bc 12 f1 b1 bd 9d 60 1a bd 36 69 f2 bb
       -0.014513317 -0.08688559 -0.037689794 -0.007397796
000160 dd 04 bb bd 9e ff cd 3c 27 10 88 3c 8b 6c 8c 3c
       -0.09131787 0.025146302 0.016609265 0.017141601
000170 74 47 30 3d a6 df 4e bc b5 66 50 bc 98 db 07 bd
       0.043036893 -0.012626564 -0.0127198 -0.033168405
000180 89 84 6a 3a 10 6a 51 bc 26 1d 5c 3c 06 23 9f 3c
       0.0008946141 -0.012781635 0.013434684 0.01942588
000190 d4 7d 0e 3d d1 19 ab bc 0d 4e 5d bc 5d 1e 99 bc
       0.034787968 -0.020886334 -0.013507378 -0.018691236
0001a0 64 f2 84 3d 0d 2c 24 3d 67 01 3b 3b 8c 12 9b 3d
       0.06491545 0.040081073 0.0028534771 0.07571897
0001b0 b5 6f d5 bc 2f da 1a bc 0d a1 9a bd 64 a2 b9 3c
       -0.026054243 -0.009451433 -0.07550249 0.022660442
0001c0 19 9f f7 bd ab 7e 09 bd ee f2 12 ba 2c 10 80 bd
       -0.12090892 -0.033568066 -0.00056056574 -0.062530845
0001d0 b3 b8 ae bd a5 b5 dd bc 47 e3 8a bc cd bc 3a bd
       -0.08531322 -0.027064154 -0.016954077 -0.04559021
0001e0 f7 5a ad bc 9e 6e fb bc a4 07 ab bc 9f b5 24 bd
       -0.02116154 -0.030692395 -0.020877667 -0.04021227
0001f0 4b bd 81 bc 29 cf e0 bc 5d 3b ff ba d1 21 40 bd
       -0.015837332 -0.027442532 -0.0019472648 -0.04690725
000200 69 48 1d 3c 16 02 ac bc 7a 04 03 bd a4 05 d8 bb
       0.009599783 -0.020997088 -0.03198669 -0.0065924693
000210 10 14 3c bc ca 4e 23 3d e1 ee 2b bd 96 1b a7 3a
       -0.011479393 0.03987006 -0.04197586 0.001274931
000220 fa 0d a3 bb 4d d4 c5 3b ca 3c 45 bc a1 46 98 bc
       -0.0049760314 0.006037271 -0.012038419 -0.018588366
000230 9c 6d d6 bc 2a d5 2f 3d 11 61 0e bc 2d 3e da bb
       -0.026175313 0.0429279 -0.008690135 -0.006660244
000240 e0 f4 60 3d 2f 59 99 bc cf 84 b2 bd 3a 7d 84 3c
       0.05492103 -0.018719284 -0.087167375 0.016172994
000250 a2 3b cf bc 7a 9f 9a bd f8 4b f9 3c f9 f0 0f 3c
       -0.02529699 -0.07549949 0.030431733 0.00878548
000260 44 3f 66 bd 76 bd fb 3c 67 55 ef bc 49 1e f2 3c
       -0.05621268 0.03072999 -0.029215528 0.029555457
000270 d7 6c 12 3d 96 b5 47 3c 24 0e 73 bc ec 7b ce bc
       0.03574833 0.01218929 -0.014834914 -0.025205575
000280 d0 c6 8a ba 07 99 7a bb 5e 47 d1 3c a4 60 d2 3b
       -0.0010587815 -0.0038238184 0.025546726 0.006420212
000290 20 92 50 3c 1f 98 f9 3c 66 cc 83 3d 0b 4f c8 3c
       0.012730151 0.030468045 0.0643547 0.024451753
0002a0 b4 25 af 3c a3 d2 d7 3b cf e1 07 3d 87 b9 d3 bb
       0.021380283 0.006586389 0.033174332 -0.0064613256
0002b0 d7 f8 27 3c 82 ca ab bd 6f b4 86 bc c8 36 cf 3c
       0.010252199 -0.08388235 -0.01644346 0.025294676
0002c0 98 7f b1 bc f8 e6 38 bc ba a2 22 bd ff ac 00 b9
       -0.021667287 -0.011285536 -0.03970597 -0.00012271477
0002d0 27 43 f1 3b 35 7b 0a 3b 01 3f ab 3c 19 74 32 3d
       0.0073627415 0.0021130566 0.020904066 0.04356775
0002e0 90 f0 12 3c d7 87 02 bc f5 c8 ba 3b 60 fb a5 3d
       0.008968487 -0.007966957 0.0057002255 0.081045866
0002f0 57 4a 3c 3d db ff a3 bc 0a aa c1 bd 2f 1c 5d bd
       0.045969333 -0.020019462 -0.094562605 -0.053981956
000300 28 95 80 ba 82 99 3d 3c f1 a8 88 bd dc c7 a0 bd
       -0.0009810077 0.011572244 -0.06672848 -0.0785062
000310 1c 07 9f bc c3 4e 96 3b 05 1d 12 bc f3 98 84 3c
       -0.01941257 0.004587026 -0.008918052 0.016186213
000320 c0 93 b3 bc 7b b3 63 bc d3 06 e6 3c 0e 0a 07 bc
       -0.021921039 -0.013897772 0.028079426 -0.008242143
000330 9c d6 b8 3c 51 a1 59 bc 44 a0 2d 3c 60 08 cf bc
       0.022563271 -0.01328309 0.010597292 -0.025272548
000340 d5 5c c2 3c 72 e2 2f bd 75 3d 98 3c 53 ef db 3b
       0.023725906 -0.042940564 0.018583992 0.0067118793
000350 de 1e e0 bd 9a ac 41 bb 44 e1 1d bd 5f 91 b3 bc
       -0.109433874 -0.0029552341 -0.03854491 -0.021919904
000360 43 d6 70 bb 8f d5 8c bb 9b cd 5a bc 38 ba 67 bd
       -0.0036748804 -0.004297919 -0.013354684 -0.056574076
000370 c5 1c fe bc 73 2d 3f bb 30 4d 19 3d c4 40 16 bc
       -0.031019578 -0.0029171377 0.037427127 -0.009170715
000380 f9 e4 d5 bc 4f e7 0a bd 19 9d 85 bb c8 8f 90 bd
       -0.02611016 -0.033912 -0.0040775654 -0.07058674
000390 c6 11 9e bc ad 07 bd bd b8 59 02 bd d8 fe 99 bd
       -0.019295584 -0.0922998 -0.031823844 -0.07519311
0003a0 ed 12 8c bd db 9b 2e bb 00 17 9d 3c 47 7b f4 3c
       -0.06839547 -0.002664319 0.019176006 0.02984394
0003b0 8e 03 f0 bc 57 a0 96 bc f8 62 0b bd 53 df 53 3d
       -0.02929857 -0.018387003 -0.03402993 0.05172665
0003c0 3e b9 d9 3c 8f 9b 87 3c f1 80 8f 3c 4c d5 32 3b
       0.026577588 0.016553668 0.017517539 0.002728778
0003d0 86 b9 a3 bc 1c b2 a1 bc 08 79 26 3d dc a0 5b bc
       -0.019985925 -0.01973825 0.04064277 -0.013405051
0003e0 23 c2 f1 bb b4 a5 1f bd 55 c7 9d 3c d5 34 a4 3a
       -0.007377879 -0.038976386 0.019260088 0.0012527952
0003f0 c8 36 a5 bc d4 bd 3d bc c7 62 86 3c fa 82 06 bd
       -0.020167723 -0.011580903 0.016404523 -0.032839753

b2 f4 [32]
000000 76 39 5f 3d b1 34 89 3e 48 11 8b 3d 95 6d 9f bd
       0.05449816 0.26798013 0.067904055 -0.07784573
000010 54 de 6d 3e d1 63 44 3d a3 97 58 3d eb 67 aa 3d
       0.23229343 0.047946755 0.052878987 0.08320602
000020 33 62 3a bd b5 3a 8e 3e 67 cb 96 3e 3d 45 e8 3d
       -0.045503806 0.27779165 0.2945206 0.11341331
000030 47 f4 a5 3d e3 96 c2 bd 65 b4 01 3e b0 47 6a bd
       0.08103233 -0.095014356 0.12666471 -0.057197273
000040 75 c8 87 3e bf 68 32 3b ce a5 ba 3d 4e 60 91 3e
       0.26520124 0.0027223078 0.09113656 0.28393787
000050 e7 80 b6 bc 6f d2 7a 3e da 6e 28 be aa e0 a7 bc
       -0.022278262 0.24494337 -0.16448537 -0.02049287
000060 a9 cf 92 3e fb 7f 45 bd 77 29 70 3d 07 a4 56 3d
       0.28674057 -0.048217755 0.058633294 0.052402522
000070 6c e4 b7 3c 84 bd 70 3e d0 15 b4 3c a4 bb 5f bb
       0.022447787 0.23509794 0.021983057 -0.0034138942

conv3 f4 [32, 32, 3, 3]
000000 f3 23 e1 bd e9 44 cb bc fb dd 2c be d8 98 9f bc
       -0.10993185 -0.024813132 -0.16881554 -0.019482061
000010 da d6 2c 3d 52 ff 74 bc 8b 34 17 be 60 42 38 bd
       0.042197086 -0.014953451 -0.14766137 -0.044985175
000020 e1 88 09 be 5f ab 43 3e 84 d4 41 3e 51 7e 6a 3e
       -0.13431121 0.19108342 0.18928725 0.22899748
000030 27 42 fb 3d df e7 6b bb 8e 9b 05 3e 94 8c 77 3e
       0.12268477 -0.003599636 0.1304762 0.2417472
000040 d3 f2 0e 3e cb d0 43 3e f7 12 23 3d 1a b8 00 3d
       0.13959818 0.19122617 0.03981301 0.031425573
000050 ab 56 51 3c 8a 17 81 3d e0 04 0f 3d f5 4e 41 3d
       0.012777011 0.06303318 0.03491676 0.04719444
000060 dd 0b 19 3d 29 18 71 3d 21 8c 28 3d ca 7c 07 3d
       0.03736483 0.05886093 0.041149262 0.033077992
000070 e8 c8 1c 3d 4f ff c4 bb 9f f6 ca 3c 5d 2a 59 3d
       0.038277537 -0.0060118805 0.024775801 0.053018916
000080 80 33 11 3d 4d e6 58 3c 34 bc b6 3c c7 f4 62 bc
       0.035449505 0.013238502 0.02230654 -0.013852305
000090 3c 37 81 bd af 12 24 3d 22 64 81 bd c0 db 50 3c
       -0.06309363 0.04005688 -0.06317927 0.012747705
0000a0 24 17 83 3d de eb 38 bd 2a 6f 53 bd d3 20 35 bd
       0.06400898 -0.045146815 -0.051619686 -0.044220757
0000b0 e7 dc 9f bd 4d 1a 8c 3e 7e 9e 0e 3e 5f 00 81 3e
       -0.07805806 0.27363816 0.13927647 0.25195596
0000c0 68 55 54 3e d0 58 75 3d f1 5b c6 3d cf e0 34 3e
       0.20735705 0.05989915 0.09685505 0.17663883
0000d0 2a 4f 2b 3e b0 07 91 3e e6 df dd bd ec 5a b3 bd
       0.16729417 0.28326178 -0.10833721 -0.08757576
0000e0 b8 c1 b3 bd 3f f3 c6 bd 6f a7 80 bd 02 1e 2d be
       -0.08777183 -0.09714364 -0.062819354 -0.16905978
0000f0 75 a3 da bd 1c e9 09 be 59 af 31 be cf de a3 3d
       -0.10675708 -0.1346783 -0.17352046 0.08001482
000100 0a 36 d1 3d bb 39 e5 3d 5b ea 16 3e 6c f8 49 3d
       0.10215385 0.11192652 0.14737837 0.04930918
000110 84 23 3c 3e 2e 0b 14 3e ae 8b 8a 3d 04 d4 f9 3d
       0.18372923 0.1445739 0.06764923 0.12198642
000120 bb ef 5d bd 0b b9 fc bb 27 83 a1 3c 81 02 88 bc
       -0.054183703 -0.0077124885 0.019715859 -0.016602756
000130 d4 0c a7 bd cf 18 76 bd 89 c9 3b bd fe 07 1a 3d
       -0.08156744 -0.060082253 -0.045846496 0.03760528
000140 89 d7 0f 3c 6c 50 70 3e 5e 95 1f 3e ed 3c 87 3e
       0.008779415 0.23468179 0.15584323 0.2641367
000150 cc ba 48 3e e4 f2 d7 3d 17 31 10 3e 34 ca 65 3e
       0.19602507 0.105443746 0.14081226 0.22440416
000160 08 37 14 3e 8e 90 6f 3e 5b 49 c8 bd 75 26 da bd
       0.14474118 0.23394987 -0.097796164 -0.10651866
000170 0c 28 ff bd 59 07 db bd 20 c4 4d bc 2c 10 cb bd
       -0.1245881 -0.10694761 -0.012558967 -0.09915194
000180 a7 75 fd bd b8 f5 f6 bd 86 75 11 be 67 2f 8f 3c
       -0.12375956 -0.12058586 -0.14204988 0.017478658
000190 dc ee ee 3d 36 bc b5 3b 4e eb a6 3d 43 5e 34 bb
       0.116666526 0.005546118 0.081503496 -0.0027522005
0001a0 38 82 3b 3c 3e 22 81 3d 32 4f 32 3d 08 f9 6c 3b
       0.011444621 0.06305359 0.043532558 0.0036159176
0001b0 91 f9 81 3d 79 1d 4e 3b 67 9d b0 3d 72 10 4c 3d
       0.06346429 0.0031450673 0.08623772 0.04982037
0001c0 d0 63 92 3d 34 96 47 bc 8c e0 19 3d 94 e6 e6 bc
       0.07147944 -0.012181807 0.03756766 -0.02818612
0001d0 45 e1 36 3d 65 d4 26 be 73 56 a9 bc 11 37 06 be
       0.044648428 -0.1629196 -0.020671105 -0.13106944
0001e0 7f fd a9 bd 03 8f a6 bc da a1 c6 bd 77 96 06 be
       -0.08300304 -0.020331865 -0.096988395 -0.13143335
0001f0 40 35 b4 bd 16 2d e7 bd e7 e0 1a 3e c5 45 00 3e
       -0.08799219 -0.11287896 0.15124856 0.12526615
000200 5a 18 15 3e 3b 78 c0 3d 8c b1 76 3d 67 91 6b 3d
       0.1456007 0.09397932 0.060227916 0.057511713
000210 00 95 e9 3d d0 ee f2 3d 69 dc 0b 3e 82 c3 02 3d
       0.114053726 0.11861956 0.13658299 0.031924732
000220 25 6e 8c 3c 08 32 99 3d 1c 37 30 bd 95 95 b1 bc
       0.017142365 0.07480246 -0.043021306 -0.021677772
000230 8c 9f 4a 3c 52 13 66 3d cf dd 21 bd f6 62 74 bd
       0.0123671405 0.05617077 -0.039518174 -0.05966469
000240 ad 3a 5f bd d9 5b 27 bc 35 cc 89 bd e3 87 10 3b
       -0.054499317 -0.010214769 -0.067284025 0.002205365
000250 fd da c3 3c 14 b6 0c bd b7 d0 b4 bd 82 13 ef bb
       0.023908133 -0.03435333 -0.08828872 -0.0072960267
000260 d7 0a a9 bd 7e 39 98 3c 3d 9a 06 bd 94 c5 12 be
       -0.08254021 0.018582102 -0.032861937 -0.14333183
000270 69 26 a8 bd 4c 17 2f bd c1 dc ce bb 8f 20 1e 3d
       -0.08210451 -0.042746827 -0.006312937 0.03860527
000280 8d aa 8f bd d6 c4 bc bd f4 29 af bd 85 01 88 bd
       -0.07014952 -0.09217231 -0.08552924 -0.06640915
000290 2d 7d 71 bd 2c a3 50 3b 8e b7 b8 bc 64 8b ab bc
       -0.058957268 0.003183554 -0.022548463 -0.02094049
0002a0 78 88 dc bd 3e d1 91 bc 85 4c 06 bb a8 68 63 ba
       -0.10768217 -0.01779997 -0.0020492387 -0.0008674958
0002b0 bf 31 3d bd f7 0e 89 bc 9a 7f 36 bc f8 b4 23 3a
       -0.04619002 -0.016730769 -0.011138821 0.0006244923
0002c0 6d 2b 47 bd a4 da 68 bd 35 29 05 3c e2 3d bb bd
       -0.0486254 -0.056849137 0.0081275 -0.091426626
0002d0 03 9b c1 bd 2b ac 73 bc a7 b3 d9 bd b2 b7 82 bd
       -0.09453394 -0.014872591 -0.10629969 -0.06382693
0002e0 4a a2 10 bd b0 62 18 bc d0 6f 81 bd 50 77 d5 bc
       -0.03531102 -0.009300873 -0.06320155 -0.02605787
0002f0 60 78 52 bc de 02 3a 3d 60 bb 2c 3c 34 4b 65 3c
       -0.012846082 0.04541289 0.010542721 0.013994981
000300 bf 7d 88 bc 92 0a 12 bd ad 84 9f 3c 0e 55 61 3c
       -0.016661523 -0.035654612 0.019472444 0.013753189
000310 3f 28 36 ba ca d3 a6 bc 91 a3 c5 3d 4d e6 1b 3d
       -0.0006948746 -0.02036466 0.096503384 0.03806143
000320 b9 e9 ad 3c 9e da 38 3d 39 5b 90 3d 12 1c b4 3c
       0.021229612 0.045130365 0.07048649 0.021986041
000330 9d e0 d6 3b 46 7d b8 3c 33 32 1a bd 48 c0 9c 3c
       0.0065575377 0.022520673 -0.03764553 0.019134656
000340 90 ef c9 3b 44 73 49 3d 39 24 9f 3d f3 81 80 3d
       0.0061625913 0.04918219 0.07770581 0.06274786
000350 15 db 5d 3c c2 71 aa bc d3 74 c2 3c 79 da 85 3d
       0.013541003 -0.020806197 0.023737347 0.06535811
000360 f3 81 8e 3d b3 4d 16 bb 34 ff 89 bc d1 db 72 bb
       0.069583796 -0.0022934496 -0.016845323 -0.003705729
000370 4a bd 7f 3d e4 bb 2e 3b b2 df 92 3c d7 c0 03 bd
       0.06243638 0.0026662285 0.017928932 -0.03216633
000380 21 cf 2f 3c 82 c2 3d 3d cf 11 e2 3c 29 94 55 3d
       0.010730536 0.046328075 0.027596382 0.05214325
000390 32 8d 90 3d fc d0 14 3d 51 c1 b5 3d 04 03 18 3d
       0.07058181 0.036332116 0.08874763 0.03711225
0003a0 ad 5c 16 3e 15 68 3e 3d 67 a2 0f 3d 3a 03 13 3d
       0.1468379 0.04648598 0.03506699 0.03589175
0003b0 1c 9f 00 bd c5 2b d0 bd bb 8f 88 bd a4 d1 ef bc
       -0.03140174 -0.101645984 -0.066680394 -0.02927477
0003c0 76 13 78 3d 47 9f c5 bd f3 97 13 bd 2c eb 7e bc
       0.060565434 -0.0964952 -0.036033582 -0.015558999
0003d0 93 e7 68 bd 6f 83 7d bd 8b 89 9c bd 5e 97 11 3d
       -0.05686147 -0.061892923 -0.07643422 0.035544746
0003e0 bc b5 4c bc cc 8b 2f bd 99 58 41 bd e1 fa d0 bd
       -0.012494501 -0.04285793 -0.047203634 -0.10204101
0003f0 bf c5 d1 3b 60 ae d2 3c d1 a9 8b 3d c7 a4 9b 3d
       0.006401747 0.025717914 0.06819499 0.07599788

b3 f4 [32]
000000 5b 73 0b bf eb d8 af bc 80 81 f1 3e ca 2d 4e 3f
       -0.54472893 -0.02146574 0.47169113 0.8053862
000010 89 19 9e 3e 5a b6 53 3f b4 b8 64 3f 94 d6 a7 3d
       0.30878857 0.8270012 0.89344335 0.081952244
000020 31 49 90 3e 8c 4f 2f bf 0a 50 a7 3e 28 0a 81 bd
       0.2818084 -0.68480754 0.32678252 -0.06300765
000030 1c dd 2b bf f4 35 78 be 02 8f b5 3e d6 d0 bd 3d
       -0.6713426 -0.24239331 0.3546067 0.09268348
000040 05 c1 7f 3f f8 8f a0 be 2a e4 5c 3f 1a 97 a3 3e
       0.999039 -0.3135984 0.8628565 0.3195122
000050 4d b9 52 bf d4 20 9d 3e 43 8d ad 3d 09 0d 6e 3c
       -0.82313997 0.30689108 0.08474209 0.014529475
000060 6a 38 ce be ea 2e 6f bd 8d d2 3d 3d a5 87 23 bf
       -0.40277416 -0.05839435 0.046343375 -0.6387885
000070 3b 21 de 3c 7d 1d 4b 3f 74 de ea 3e 50 92 07 bf
       0.027115455 0.7934187 0.45872843 -0.5295763

w4 f4 [5, 32]
000000 46 16 8e bf de ed e8 bf 11 70 e8 3f ee af b3 3e
       -1.1100547 -1.8197591 1.81592 0.3509516
000010 94 88 75 bd e8 67 bd 3f 94 21 fe 3f ad 9c 11 c0
       -0.059944704 1.4797335 1.9853997 -2.2751877
000020 e6 49 f4 3e 3e 8c a2 be 13 01 12 40 19 af e0 bf
       0.4771263 -0.3174762 2.2813156 -1.7553436
000030 f2 b4 97 bf b6 95 e8 bf a0 4a ea 3f 26 1e ba bf
       -1.1852095 -1.8170688 1.8304024 -1.454045
000040 4e 50 15 40 97 50 c4 bf 4d eb 9b 3f 3c 8d a3 3f
       2.3330264 -1.5337094 1.2181183 1.2777476
000050 93 aa 93 bf d0 55 92 bf 8a b2 d3 bf 7d 0f 8f bf
       -1.153643 -1.1432438 -1.6538861 -1.1176602
000060 e6 b5 9c bf 18 de c1 3e ff 4f 8f bf d3 a2 6e bf
       -1.2243011 0.37864757 -1.1196288 -0.932172
000070 62 dd c5 bf 5d 52 d3 3f 0a e5 ac 3f 86 58 b8 bf
       -1.5458186 1.650951 1.3507397 -1.4402015
000080 33 f9 a5 bf d0 96 ff 3f 89 53 d5 bf 63 fe 9a bf
       -1.2966675 1.9967899 -1.6666118 -1.2108883
000090 dc 62 01 c0 c6 c5 9a bf 84 a9 cc 3e fb 02 96 3f
       -2.021659 -1.2091606 0.3997308 1.171966
0000a0 43 72 62 3f 05 df a6 bf db 66 0a c0 c2 e5 bf bf
       0.884556 -1.303681 -2.1625278 -1.4991992
0000b0 4d 4b 51 bf d8 b1 83 bf de 8e ce bf 6e 3a 00 40
       -0.81755525 -1.0288649 -1.613735 2.0035663
0000c0 a0 ca 8b 3c d2 51 09 40 41 a3 c4 3f 55 ef 1a c0
       0.017064393 2.145619 1.5362321 -2.4208577
0000d0 1c a6 a2 bf 0e 43 08 40 7f dd 92 bf a5 9c 18 3e
       -1.2706943 2.1290927 -1.1473845 0.14903505
0000e0 8a 64 06 40 b4 e8 03 bf 34 92 5e 3f 72 89 84 be
       2.0998864 -0.5152695 0.8694184 -0.25886112
0000f0 d3 51 bf bf 63 df 90 3f ac d1 3c 3f 61 0f e0 3e
       -1.4946846 1.1318172 0.73757434 0.43761733
000100 27 aa 09 40 59 7c 69 3f ba 9e 00 bf 00 6e b6 bf
       2.1510103 0.91205364 -0.502422 -1.4252319
000110 a9 31 8e 3f cc 49 c1 bf 0f f9 95 bf 81 4c d8 bf
       1.1108905 -1.5100646 -1.1716632 -1.6898347
000120 61 59 e9 bf 1d 5a 2b 40 a8 0b ff be 78 76 e9 bd
       -1.8230401 2.677375 -0.4981358 -0.11399549
000130 3c 3d 6f 3f 7f d5 f1 3f 8d 7b ec 3f 92 3b 99 bf
       0.9345281 1.8893279 1.8475205 -1.1971304
000140 f9 c8 7b bf c6 02 97 bf 19 3b 81 3f 2f 39 74 bf
       -0.98353535 -1.1797721 1.009616 -0.95399755
000150 4c 03 8b bf 81 b2 27 bf 55 62 17 40 92 0d 1d 40
       -1.0860381 -0.6550675 2.3653767 2.4539533
000160 63 4e aa bf cd 11 74 bf 87 32 6b bf 1e f6 28 40
       -1.3305172 -0.9533966 -0.91873974 2.6400218
000170 80 28 b8 bf 69 34 b4 bf 46 4c 0f c0 dc ad ee bf
       -1.438736 -1.4078494 -2.2390304 -1.8646808
000180 3c 98 a9 3f 7a 8b 6d bf 0a e3 cb 3f 54 65 c2 bf
       1.3249583 -0.9279095 1.5928662 -1.5187173
000190 28 a5 d5 bf 26 7e b8 bf 77 a6 5b bf d0 e6 ac 3f
       -1.6691027 -1.4413497 -0.8580088 1.3507938
0001a0 cd e3 0d 40 fe 18 24 bf 8c 2b 78 bf 5b 40 08 40
       2.2170289 -0.64100635 -0.9694145 2.128928
0001b0 0a 81 18 40 e6 36 dc bf cd c9 a9 bf 09 34 bf bf
       2.382876 -1.7204254 -1.326471 -1.4937755
0001c0 bb e5 e5 bf b4 96 82 3f f4 97 09 c0 fb 6c 88 3f
       -1.7960733 1.0202241 -2.1498995 1.0658258
0001d0 15 e9 0e 40 33 2e 84 bf 88 b7 43 bf c1 33 c9 bf
       2.2329762 -1.0326599 -0.7645192 -1.5718919
0001e0 c7 99 6d bf 44 6c 26 40 05 73 bb bf 5a f8 b3 be
       -0.9281277 2.600358 -1.4644476 -0.35150415
0001f0 f3 03 c0 3f d7 39 d7 bf a0 9d 7d 3f ef 5e 84 bf
       1.5001205 -1.6814526 0.9906864 -1.0341471
000200 8e 97 a6 bf 08 fd 37 bf 7e 81 d2 bf 69 a6 12 40
       -1.3015001 -0.7187047 -1.6445768 2.2914069
000210 02 98 01 40 63 32 00 40 ea c1 b7 bf 80 cc a3 3f
       2.0249028 2.0030754 -1.4356053 1.2796783
000220 e0 ba b0 bf 72 73 9b bf 3d 48 9e be a6 7e 0d bd
       -1.380703 -1.2144606 -0.30914488 -0.03454461
000230 fb 41 d9 bf fa c4 b7 3f 51 7a 95 bf 6f 8d bf be
       -1.6973261 1.4356987 -1.1677953 -0.37412593
000240 39 2f 1c bf 36 8d 9f bf 0f 25 40 bf 92 5c ba 3f
       -0.61009556 -1.2464969 -0.75056547 1.45595
000250 1a 9b b8 3e 78 06 0e bf 4b e5 44 3f 71 3e d1 bf
       0.36055833 -0.5547862 0.76912373 -1.6347181
000260 5c 1a a6 bf 8d 13 a2 bf 0d 96 03 40 f3 97 cd bf
       -1.2976794 -1.2662216 2.0560334 -1.6061996
000270 8b 86 03 40 82 3f 70 bf 3d ab 93 bf 96 02 09 40
       2.0550869 -0.93846905 -1.1536633 2.1407828

b4 f4 [5]
000000 9a 4e 38 3e 77 64 a6 3d 85 90 f3 bd ea c5 ac bc
       0.17998734 0.08124631 -0.11892799 -0.021090467
000010 b4 d5 f9 bd
       -0.12198964

exp_avg f4 [32, 1, 3, 3]
000000 e8 0b c9 3b 02 bd fc 3b 39 0d 86 3b 99 e3 d8 3b
       0.0061354525 0.007712961 0.0040909317 0.0066189286
000010 de fd db 3b 8c 6a fb 3a 13 46 f5 3b d9 6e dc 3b
       0.006713613 0.0019181534 0.00748516 0.0067270813
000020 93 28 58 3a d1 d1 8c b9 b0 67 96 ba df ec 31 ba
       0.0008245792 -0.00026859206 -0.0011474993 -0.00067873107
000030 bb 15 d7 3a 46 41 81 3b dc d1 af ba 69 75 c7 3a
       0.0016409674 0.003944549 -0.0013413983 0.0015217486
000040 1f 52 a8 3a 24 d4 b5 ba c5 53 17 3c 36 dc 95 3b
       0.0012841857 -0.0013872427 0.009236281 0.0045733703
000050 62 be be 3b ed 3e c9 3a 92 2c 84 3b d7 7e 05 3c
       0.0058210352 0.0015353836 0.0040336335 0.008147917
000060 cc 03 1e 3c ca 67 15 3c d4 40 1c 3c 12 54 ae 3b
       0.00964446 0.0091189835 0.009536941 0.0053200806
000070 98 26 93 38 59 75 f2 ba 7d 0c 2c 3b ee a6 11 3a
       7.016695e-05 -0.0018498107 0.002625256 0.00055561855
000080 d6 dd 9a 3a d1 c3 ff 3a 54 18 91 3a cb ca d8 3a
       0.001181538 0.0019513314 0.0011069872 0.0016539929
000090 d4 80 3a bb 36 94 39 3b af 82 f6 3b ae d5 41 ba
       -0.0028458135 0.00283171 0.007522903 -0.00073942065
0000a0 63 1b b1 3a 12 28 3b 3b 68 83 dc 3a b4 eb 07 3c
       0.001351219 0.002855782 0.001682383 0.008295942
0000b0 05 a9 2c 3c ac 32 88 3b b2 5c 3a 3c 25 ce 4b 3c
       0.010538344 0.004156431 0.011374639 0.012439285
0000c0 49 3c 78 3b eb f7 13 3c 05 4b 29 3c 89 23 99 3b
       0.003787773 0.009031276 0.010332827 0.0046734256
0000d0 f9 73 df 3b 10 d6 0b 3c 2d 2c cd 3b c2 7d a1 3a
       0.006819245 0.008534923 0.0062613697 0.0012320804
0000e0 ca 37 34 3b fa d3 a6 3b ef 88 4d 3a 21 5c bc 39
       0.0027499073 0.0050911875 0.0007840534 0.00035926796
0000f0 c2 f1 6e 3b f0 11 ec b9 b3 8f 80 bb 4e 96 f0 3b
       0.0036460017 -0.00045026792 -0.0039233803 0.0073421365
000100 c5 b4 b2 3b 35 af 18 3b 15 c0 5c 3b 14 7e bd 3b
       0.0054536783 0.002329779 0.0033683826 0.005782852
000110 8d 7c 13 3b 8a e3 01 3c 0d 97 c9 3b 8e c6 3d 3b
       0.0022504658 0.007927785 0.00615204 0.002895746
000120 18 43 e8 3a 53 af 3d 3b 91 4d 9e b8 23 64 f6 ba
       0.0017720191 0.0028943613 -7.548475e-05 -0.0018798154
000130 63 92 53 3a ad 70 b9 3a 0d 30 61 3b ab 89 f0 3a
       0.00080708246 0.001414796 0.0034360916 0.0018351575
000140 30 04 15 3a da 92 dc ba 2d af b0 b9 d1 77 6c 39
       0.0005684523 -0.0016828433 -0.00033699852 0.00022551349
000150 71 69 88 ba 09 6e a8 ba 97 ed b2 b9 64 57 53 3a
       -0.00104074 -0.0012850176 -0.00034127824 0.00080620334
000160 96 65 3c 39 07 71 9d b9 e0 cb c2 3b ff b7 05 3b
       0.00017966921 -0.00030029585 0.005944714 0.002040386
000170 38 84 3f bc 58 c0 5d 3a 96 a3 d3 3b b1 6b 95 ba
       -0.011689238 0.00084591424 0.00645871 -0.0011399892
000180 09 b2 15 bb 39 3f 26 3b 64 56 30 bb 3f 21 be ba
       -0.0022841713 0.0025367273 -0.0026906962 -0.0014505758
000190 e3 38 99 3b 25 a6 77 3b 59 bb d2 ba 56 b7 af 3b
       0.004675971 0.003778824 -0.0016077562 0.0053624315
0001a0 fe 6a c1 38 aa 85 b6 38 91 1f 14 3c ab 45 74 3b
       9.222886e-05 8.703333e-05 0.009040729 0.003727297
0001b0 ec 19 1b 3c e1 af 45 3c 0c 0c 10 3c d6 ce 2c 3a
       0.0094666295 0.012065859 0.008791935 0.00065921
0001c0 92 e3 6c 3b 14 a7 ff 3b 73 0b d9 3a 0f 01 25 3c
       0.0036146385 0.0078018997 0.0016559198 0.010071053
0001d0 ea 15 01 3c 99 6f 0c ba 7b 15 34 bb 25 9b a6 bb
       0.00787876 -0.00053572055 -0.0027478624 -0.0050844126
0001e0 b0 ae fd bb 61 7f dc bb ee 31 b6 bb ae e6 e4 bb
       -0.0077417716 -0.006729052 -0.0055601513 -0.006985507
0001f0 39 0d 78 bb 31 d0 7d bb 69 78 b6 3b d3 c5 8e 3b
       -0.0037849678 -0.0038728828 0.005568553 0.0043570786
000200 4b 55 5b 3b 02 27 a9 3b 2c e4 ed 3b 96 94 ef 3b
       0.0033467587 0.005162121 0.007259866 0.007311414
000210 64 19 2b 3c 68 58 8a 3c d2 d6 88 3c 85 83 52 3b
       0.010443065 0.016887859 0.016703997 0.0032121849
000220 84 4e 39 3c 07 a7 51 3c 15 31 5c 3c 01 8b 8b 3c
       0.0113102235 0.01279617 0.013439436 0.017034056
000230 be 98 3c 3c fe 08 01 3c 8e 2e ce 3b f0 88 b3 3b
       0.011511026 0.007875679 0.006292171 0.0054789707
000240 23 ba 04 bb ad ec 8f 3a a6 6b 1a 39 7d c9 76 3b
       -0.0020252548 0.0010980569 0.00014726687 0.0037656717
000250 be 29 38 3b 9d c2 1b 3b 93 d8 38 38 58 63 85 3b
       0.0028101052 0.0023767122 4.407072e-05 0.0040706806
000260 90 2e b1 3b 3e 64 6a 3b 51 f2 13 3b 0e 48 95 3b
       0.005407162 0.0035765315 0.0022574852 0.0045557087
000270 1e b2 0e 3b c8 b0 1b 3b 61 b3 2a b9 6a c5 c7 3a
       0.0021773647 0.0023756493 -0.00016279287 0.0015241329
000280 f7 05 0c 3a 55 60 fd 3a a6 de 45 bb 89 66 35 bb
       0.0005341465 0.0019331077 -0.0030192523 -0.0027679524
000290 4c b0 a8 bb b8 54 3a 3a 68 bb 37 bb 58 9f fc ba
       -0.0051479694 0.0007107961 -0.0028035287 -0.0019273562
0002a0 8c f0 0f bb 5f 88 a7 bb 88 88 e7 bb 20 8d 79 bc
       -0.0021963445 -0.0051126922 -0.0070658363 -0.015231401
0002b0 eb fe 73 bc 26 b8 9e bc f2 c1 37 bc b3 16 ea bb
       -0.01489232 -0.019374918 -0.011215674 -0.0071438192
0002c0 87 13 0b bc df a9 43 bb 58 a5 4a bb 51 8b 54 bb
       -0.008488542 -0.002985589 -0.0030921306 -0.0032431672
0002d0 3c 28 c8 ba ef 75 58 ba d1 ee 72 ba 12 be cc ba
       -0.001527078 -0.00082573196 -0.0009267154 -0.001562061
0002e0 ce 7d f1 37 55 d4 2c bb 1b 63 2f bc 23 ba e6 bb
       2.8788021e-05 -0.0026371677 -0.010704781 -0.007041232
0002f0 a3 ab 18 bc 9b 0d 6e b9 46 e8 7c 3b 8a d9 26 ba
       -0.009318265 -0.00022702517 0.0038590594 -0.00063648133
000300 17 e0 22 bb 51 9f 0b ba be f0 31 ba 7a 8e 01 38
       -0.0024852806 -0.0005326169 -0.00067878875 3.088869e-05
000310 14 4a a2 bb d7 e9 16 3a 04 e4 7d 39 b9 a6 46 3a
       -0.0049526785 0.0005756891 0.00024212903 0.0007577944
000320 36 4d e1 39 97 84 73 39 4f 9c dc 39 4d 7e 9b 3a
       0.0004297287 0.0002322368 0.0004207813 0.0011863202
000330 ac 1c 03 3a a0 ff fe 3a c7 55 e9 3b 27 c9 f7 ba
       0.0005001526 0.0019454844 0.007120821 -0.0018904553
000340 0f 9b b6 bb fe 8a bb bb 6f 20 1e 3b ba 38 5d bb
       -0.0055726836 -0.0057233563 0.0024128219 -0.0033755735
000350 66 4a e0 bb 2e 6a ca 3b ce ae d5 ba a9 3f cc ba
       -0.0068448065 0.0061772084 -0.0016302706 -0.0015582937
000360 83 6d 95 3b 2a 2a 3f 3b 20 86 07 3c ea 3c 14 3b
       0.004560174 0.002916942 0.008271724 0.0022619315
000370 3f c2 15 ba 15 69 92 3b 42 fc 87 ba 24 20 98 ba
       -0.0005712844 0.004468093 -0.0010374861 -0.0011606258
000380 a6 0b fe 39 98 01 8f b8 83 80 fb ba 11 82 21 bb
       0.00048455334 -6.819068e-05 -0.001918808 -0.0024644176
000390 13 8b bc bb 5d 7a 78 bb e6 35 e6 ba 0f 34 93 3a
       -0.0057538836 -0.003791473 -0.001756367 0.0011230725
0003a0 fb 55 46 ba ef 87 00 ba 70 a6 80 3a db 2a a4 3b
       -0.00075659127 -0.0004903068 0.0009815227 0.0050099916
0003b0 96 3b 03 3c 6c 29 15 3c 0f cf 40 3c ba 48 82 3c
       0.008009812 0.009104114 0.011768117 0.01590382
0003c0 93 d7 1b 3c 96 f3 3b 3c 04 58 76 3c 8f dc 7c 3c
       0.009511846 0.01147165 0.015035633 0.015433445
0003d0 68 dd 18 3c 94 eb e9 3a 43 c0 26 3c dd de f0 3b
       0.009330131 0.0017846697 0.010177675 0.007350786
0003e0 52 85 4f 3b 18 41 50 3c 47 f4 fd 3b c2 23 aa 3a
       0.0031665158 0.012710832 0.0077500674 0.0012980627
0003f0 a6 29 18 ba d6 4c b1 ba 86 5d 8f bb c0 59 34 3b
       -0.0005804546 -0.0013526927 -0.0043751625 0.0027519315
