CS330/XCS330-PS3/src/submission/logs/maml/omniglot.way_5.support_1.query_15.inner_steps_5.inner_lr_0.04.learn_inner_lrs_False.outer_lr_0.001.batch_size_16/state13500.pt (torch, 353186 bytes, 30 tensors)

conv0 f4 [32, 1, 3, 3]
-0.23137364 -0.14177677 -0.0414785 -0.078699104 -0.0046374397 -0.24598022 0.23377585 0.25497448
-0.56881773 -0.17975974 -0.049957354 -0.043827143 -0.5697363 -0.004975791 -0.029624535 0.433613
0.008839523 -0.04486551 0.23863429 -0.5329632 -0.2510252 -0.5221367 -0.014358358 0.12723982
-0.3493826 0.30162358 0.011173476 0.13640916 0.08469611 -0.48321217 0.10793329 0.11293654
-0.5083918 -0.509518 -0.49177915 -0.2996583 0.052792255 -0.043638974 -0.013592639 -0.1272897
0.08493432 0.33021972 -0.5986168 -0.32633784 0.08701959 -0.65801007 0.08317111 0.1406883
-0.7341501 0.15679967 0.20736994 -0.6380409 -0.03873487 0.07987486 -0.3898205 -0.09247846
0.0021755032 0.012430767 -0.24835387 -0.22046214 0.37654698 -0.1337213 -0.101398826 7.391435e-05
0.38562986 -0.044335015 0.08194318 -0.06823243 -0.44560707 0.00982618 -0.058933895 -0.40194649
0.31481585 -0.033844 -0.36015764 -0.011118683 -0.28539526 -0.12728429 -0.06677434 -0.07378036
-0.27963266 0.09941743 -0.14032058 -0.53938705 0.26873365 0.056033265 -0.64175534 0.20517658
-0.12579133 -0.5660653 0.4883329 -0.08035052 0.08785825 -0.71295786 -0.11745151 -0.019242551
0.2656875 -0.018974464 0.01665108 -0.2671051 0.19523197 0.14817557 -0.4278831 0.04374467
0.2006774 -0.31594738 -0.39945808 -0.30614817 0.1816968 -0.044570934 -0.64245254 -0.010994516
0.2167097 -0.07112561 -0.39110792 -0.012279114 0.35079744 0.26882863 -0.70953023 0.4733313
0.08636172 0.037048638 0.030727295 -0.12991995 0.033602953 -0.062240254 -0.19803345 -0.31073132
-0.3568955 -0.19918463 -0.123510316 -0.14168541 -0.09629872 -0.004017495 0.40158242 -0.030773748
-0.0022223457 0.006459394 0.071879484 -0.10191435 0.09733637 0.38428006 -0.9273159 0.21911043
-0.059649583 0.054756895 0.047238413 0.06518067 0.034208093 0.077978015 0.82485807 0.07266143
-0.26904356 -0.006033386 -0.4161955 0.20925206 -0.22588857 -0.17404482 -0.02996171 -0.18487021
-0.15096292 0.2695959 0.029780166 0.0736828 0.04822284 -0.32570782 -0.49639398 -0.49837324
-0.021748142 0.16071521 0.1452293 0.09322764 0.21958928 0.14232956 -0.01429926 0.16445659
-0.009706441 -0.62572473 -0.69559276 -0.6114213 -0.6184633 -0.6763263 -0.5431267 0.05042495
0.12632193 -0.08682274 0.18975668 0.1935748 0.074556164 0.16120297 -0.0010083043 -0.631531
-0.011918728 0.14869176 -0.6364436 0.212539 0.16068308 -0.61863893 -0.40456992 -0.33864352
-0.20437495 -0.2858704 -0.21359006 -0.059530295 -0.43716797 -0.30892178 0.046580434 0.1556723
0.03382738 0.4393968 -0.025784163 -0.21010526 -0.20392281 -0.116656795 -0.27427512 -0.2974462
-0.8351061 0.3824415 0.05070703 -0.08862029 0.011143742 0.0071796076 0.052496146 0.0013469157
-0.10082049 0.269249 -0.032196354 -0.042142186 0.23168923 0.009176433 -0.08787318 -0.44339126
-0.47970948 -0.3216931 -0.5783106 -0.45083937 -0.21164545 -0.35851046 0.23103 0.24092029
-0.3492334 0.18996188 0.09832448 0.16439134 0.109712355 -0.3161752 0.09800664 0.034398716
-0.38910735 -0.028349014 -0.37542257 -0.10428245 -0.38827738 -0.010068139 0.3245088 0.17293337
00000000: 36ed 6cbe ee2d 11be 5ce5 29bd ff2c a1bd
00000010: aaf5 97bb 3de2 7bbe f062 6f3e 048c 823e
00000020: 0a9e 11bf f012 38be 15a0 4cbd 1784 33bd
00000030: 3dda 11bf f60b a3bb 27af f2bc 8602 de3e
00000040: a6d3 103c e6c4 37bd 8c5c 743e 4770 08bf
00000050: 6086 80be c0aa 05bf 523f 6bbc 284b 023e
00000060: 47e2 b2be 686e 9a3e f510 373c d8ae 0b3e
00000070: 2775 ad3d 9667 f7be 210c dd3d 464b e73d
00000080: f725 02bf c66f 02bf 7aca fbbe d06c 99be
00000090: b13c 583d c8be 32bd a9b3 5ebc 3b58 02be
000000a0: 0bf2 ad3d 8f12 a93e f33e 19bf c115 a7be
000000b0: 5437 b23d 5973 28bf 9d55 aa3d 9810 103e
000000c0: 43f1 3bbf 1890 203e c958 543e a656 23bf
000000d0: 74a8 1ebd 6e95 a33d 8d96 c7be 5965 bdbd
000000e0: e392 0e3b 6aaa 4b3c 7a50 7ebe d4c0 61be
000000f0: c4ca c03e 3dee 08be 30aa cfbd 7702 9b38
00000100: 4771 c53e a298 35bd d3d1 a73d 72bd 8bbd
00000110: 9c26 e4be fcfd 203c ab64 71bd eecb cdbe
00000120: 8b2f a13e 02a0 0abd 9566 b8be 232b 36bc
00000130: 541f 92be d056 02be fcc0 88bd 281a 97bd
00000140: 032c 8fbe 5e9b cb3d 33b0 0fbe 4515 0abf
00000150: 7597 893e 2383 653d 144a 24bf cf19 523e
00000160: 71cf 00be a8e9 10bf c506 fa3e d08e a4bd
00000170: 07ef b33d 6884 36bf 6b8a f0bd 8ea2 9dbc
00000180: 3108 883e 5670 9bbc d967 883c 00c2 88be
00000190: e4ea 473e 56bb 173e 7e13 dbbe 9c2d 333d
000001a0: 607e 4d3e dbc3 a1be c585 ccbe 74bf 9cbe
000001b0: ba0e 3a3e 0390 36bd c577 24bf 5822 34bc
000001c0: 26e9 5d3e 4eaa 91bd 4c3f c8be 562e 49bc
000001d0: b99b b33e e8a3 893e c6a3 35bf 7b58 f23e
000001e0: 6ade b03d 50c0 173d cfb7 fb3c bc09 05be
000001f0: 40a3 093d a3ef 7ebd 48c9 4abe 2d18 9fbe
00000200: 02bb b6be 0ef7 4bbe faf2 fcbd fb15 11be
00000210: 4338 c5bd 31a5 83bb 369c cd3e 3a19 fcbc
00000220: c6a4 11bb 53a9 d33b 8d35 933d 79b8 d0bd
00000230: 4a58 c73d 5bc0 c43e 9364 6dbf 7c5e 603e
00000240: 1f53 74bd c448 603d 117d 413d 717d 853d
00000250: c91d 0c3d f0b2 9f3d e629 533f 84cf 943d
00000260: 14c0 89be b6b3 c5bb 9417 d5be 2c46 563e
00000270: 554f 67be ce38 32be 4372 f5bc 9e4e 3dbe
00000280: 0696 1abe 7908 8a3e 89f5 f33c 02e7 963d
00000290: 5085 453d 2dc3 a6be 5a27 febe c72a ffbe
000002a0: 2929 b2bc 8792 243e fdb6 143e 22ee be3d
000002b0: 03dc 603e d7be 113e 7247 6abc 4f67 283e
000002c0: c407 1fbc 7f2f 20bf 5e12 32bf 1b86 1cbf
000002d0: 9c53 1ebf b823 2dbf 5a0a 0bbf 648a 4e3d
000002e0: 895a 013e 1fd0 b1bd 934f 423e 7938 463e
000002f0: e7b0 983d 6412 253e 1429 84ba 04ac 21bf
00000300: c546 43bc a742 183e f8ed 22bf d3a3 593e
00000310: 1b8a 243e 1f5f 1ebf ca23 cfbe af62 adbe
00000320: ab47 51be 9b5d 92be 5ab7 5abe 0ad6 73bd
00000330: 7bd4 dfbe ff2a 9ebe 20cb 3e3d 8f68 1f3e
00000340: 948e 0a3d 9ef8 e03e 4f39 d3bc d525 57be
00000350: 24d1 50be c2e9 eebd ca6d 8cbe de4a 98be
00000360: 83c9 55bf 5fcf c33e 2db2 4f3d 8e7e b5bd
00000370: 3e94 363c ea42 eb3b 3306 573d fe8a b03a
00000380: f97a cebd 01db 893e 53e0 03bd 499d 2cbd
00000390: f13f 6d3e c058 163c dbf6 b3bd 2e04 e3be
000003a0: 7b9c f5be f5b4 a4be 2a0c 14bf 6bd4 e6be
000003b0: 96b9 58be af8e b7be 2193 6c3e cfb3 763e
000003c0: b8ce b2be 5e85 423e 585e c93d 3456 283e
000003d0: dfb0 e03d b7e1 a1be b5b7 c83d abe5 0c3d
000003e0: 1439 c7be 313c e8bc 6337 c0be 0a92 d5bd
000003f0: 4bcc c6be d6f4 24bc 0426 a63e 7215 313e

b0 f4 [32]
0.05434054 -0.10791205 -0.124251634 0.051163025 -0.010172385 -0.13704188 -0.15715885 -0.07512869
0.022010876 0.22825287 0.07727261 0.20828871 0.15743722 0.028778236 0.033908695 0.02075605
-0.04109578 0.17194282 0.29352015 0.013978798 0.08230299 -0.07706972 -0.24617226 -0.19369313
0.0038281933 0.049223166 -0.09336439 0.053831205 -0.59112626 -0.017751452 -0.043502785 0.0073881843
00000000: 3094 5e3d fe00 ddbd a477 febd 5290 513d
00000010: 13aa 26bc b554 0cbe 40ee 20be 12dd 99bd
00000020: 2750 b43c 1fbb 693e 1a41 9e3d a349 553e
00000030: 3937 213e 56c0 eb3c d8e3 0a3d 9708 aa3c
00000040: 0c54 28bd c711 303e 4648 963e 5407 653c
00000050: 788e a83d bbd6 9dbd 9514 7cbe 7e57 46be
00000060: 6de2 7a3b 3b9e 493d d435 bfbd 1c7e 5c3d
00000070: 0d54 17bf 7e6b 91bc fa2f 32bd 9518 f23b

conv1 f4 [32, 32, 3, 3]
0.06393325 -0.15151356 -0.14140624 0.10224323 0.05093665 -0.10870781 0.039987933 -0.044256967
-0.2142215 -0.18363287 0.020002944 -0.008063762 -0.23313256 0.23205037 0.013571342 0.010542207
0.08004846 0.03541773 -0.008554794 -0.10379822 0.03488344 0.031739097 -0.02079274 0.0398832
-0.06184582 0.12911075 0.1694749 -0.0054649636 -0.12256822 -0.018510105 -0.026265848 -0.03739236
0.10547771 0.017972233 0.19104587 0.2800616 -0.0027794694 0.035429943 -0.029754357 -0.056018494
0.081837736 0.023887424 0.04441109 -0.09478282 -0.18227546 0.28291076 0.08613519 0.09323574
0.3123278 0.12138251 0.055914845 0.20645572 -0.17051901 -0.11722962 0.14210767 -0.02750475
-0.040493347 0.36815277 0.14949973 -0.08947231 0.19135122 -0.13923624 -0.2057051 0.114327215
0.023225587 0.11846423 0.032975603 -0.013531845 0.0818803 -0.08919621 0.02749383 0.17303519
-0.0065185954 0.09724353 0.14744347 -0.19294527 0.036276486 0.1261606 -0.09438833 0.030945769
0.044417396 0.0029642365 0.13075939 0.027319089 0.1008464 0.02687312 -0.057202466 0.03302309
-0.111031525 -0.00070951664 -0.28084 -0.02664875 0.0074685677 -0.2553346 0.012761324 0.056454085
-0.03746347 -0.05164028 -0.0572725 0.039394215 -0.0024257542 -0.199872 0.14551884 -0.0029599853
-0.17926186 0.45462456 0.013043851 0.07982984 -0.015718646 0.03290457 -0.057368476 0.014568456
-0.030936677 -0.010586633 0.0222951 0.04651055 -0.18624632 -0.07082138 0.0468397 0.05058815
-0.05307028 -0.009862927 0.0049835388 -0.15457341 -0.009471747 0.0027431932 -0.018648613 0.07027463
-0.058324493 0.09198908 -0.04834337 -0.0017056308 0.054715466 0.27750662 0.20028676 0.05677337
0.12869592 0.02978194 0.1030423 0.16067725 -0.025695128 -0.055449616 -0.3089855 -0.18769573
-0.08103078 -0.07324172 -0.11185208 -0.10325527 -0.1846884 -0.17957205 0.035935797 -0.15875734
-0.09527555 0.14459069 0.19928716 0.08929059 0.033462826 0.0687745 0.20882049 -0.057241112
-0.10612088 -0.16701186 -0.058003206 0.037035637 -0.04822373 0.06982801 0.0069060544 -0.047336206
0.049495816 0.03657077 -0.006327977 -0.10170478 -0.18669556 -0.07508276 0.003935345 -0.072073795
0.10464781 0.2780715 0.3508878 0.5330681 -0.32215652 -0.013863882 -0.025674248 0.054044247
0.15839198 0.025994008 0.2508369 0.21492198 0.31610215 0.15164298 0.029003685 0.09057661
0.21054149 -0.015384971 -0.04444288 0.14370431 -0.015452367 -0.055849973 -0.057795588 -0.07343548
-0.08603749 0.04644691 -0.1927174 -0.08548287 -0.30938905 -0.2921358 -0.21926516 -0.09590055
-0.019627862 -0.03308562 -0.09708056 -0.060540404 0.069457404 -0.021869514 0.028279448 0.050018623
-0.013193155 0.065896615 0.048982274 -0.03501326 0.009180506 0.035113044 -0.051131576 0.028033147
-0.091702305 -0.22156106 -0.12544318 -0.02396285 -0.3986444 -0.027704397 0.07265054 -0.37561712
0.07826872 0.26766336 -0.05609395 -0.027055146 0.110690184 0.032049462 0.13300148 0.13622838
0.0044693183 -0.056655746 0.050309107 -0.12431857 -0.020885846 0.10779704 -0.074161686 0.008142709
0.056095302 -0.13015798 0.09679954 0.1072677 -0.0512072 -0.0071986606 0.07756244 0.010672386
00000000: 70ef 823d 5f26 1bbe cccc 10be e664 d13d
00000010: f3a2 503d 33a2 debd 63ca 233d cb46 35bd
00000020: e25c 5bbe 410a 3cbe 37dd a33c df1d 04bc
00000030: 4dba 6ebe 9d9e 6d3e 565a 5e3c 39b9 2c3c
00000040: 72f0 a33d 2f12 113d 6829 0cbc 2994 d4bd
00000050: f0e1 0e3d db00 023d 8955 aabc 915c 233d
00000060: 0b52 7dbd 9c35 043e d48a 2d3e 7013 b3bb
00000070: 0c05 fbbd 81a2 97bc 7a2b d7bc bb28 19bd
00000080: b304 d83d 813a 933c 87a1 433e 3c64 8f3e
00000090: c227 36bb fd1e 113d 69bf f3bc a673 65bd
000000a0: 8b9a a73d 8faf c33c 67e8 353d 7f1d c2bd
000000b0: 6ba6 3abe aed9 903e a667 b03d 61f2 be3d
000000c0: 6ee9 9f3e 6597 f83d f706 653d 2169 533e
000000d0: 899c 2ebe 1516 f0bd ac84 113e a451 e1bc
000000e0: 5adc 25bd 857e bc3e 7516 193e 423d b7bd
000000f0: 93f1 433e f293 0ebe 5ca4 52be 6324 ea3d
00000100: 9643 be3c 609d f23d 6d11 073d acb4 5dbc
00000110: dcb0 a73d 81ac b6bd be3a e13c 2330 313e
00000120: f199 d5bb 9e27 c73d 6cfb 163e 7293 45be
00000130: a796 143d 3f30 013e ab4e c1bd fb81 fd3c
00000140: 04ef 353d a343 423b cae5 053e 48cc df3c
00000150: 8f88 ce3d 0425 dc3c 224d 6abd 3843 073d
00000160: 7f64 e3bd dbfe 39ba 43ca 8fbe 7b4e dabc
00000170: e3ba f43b 37bb 82be df14 513c 663c 673d
00000180: 4c73 19bd c284 53bd 9296 6abd d45b 213d
00000190: 67f9 1ebb 3fab 4cbe e402 153e 50fc 41bb
000001a0: 6c90 37be 8dc4 e83e e0b5 553c d47d a33d
000001b0: 64c4 80bc f1c6 063d 35fb 6abd 89b0 6e3c
000001c0: ea6e fdbc 8f73 2dbc 37a4 b63c d981 3e3d
000001d0: 5bb7 3ebe cd0a 91bd fcda 3f3d 8535 4f3d
000001e0: 3960 59bd 1d98 21bc f44c a33b 7e48 1ebe
000001f0: 632f 1bbc 25c7 333b fac4 98bc 25ec 8f3d
00000200: aae5 6ebd c564 bc3d b303 46bd 798f dfba
00000210: 531d 603d 5915 8e3e f917 4d3e 318b 683d
00000220: ddc8 033e 41f9 f33c d707 d33d 9488 243e
00000230: 977e d2bc 231f 63bd 5933 9ebe 4f33 40be
00000240: 77f3 a5bd c1ff 95bd b412 e5bd 8077 d3bd
00000250: f51e 3dbe bce1 37be 6a31 133d 4991 22be
00000260: d41f c3bd 950f 143e ef11 4c3e fcdd b63d
00000270: 5110 093d a5d9 8c3d 0ad5 553e a875 6abd
00000280: e755 d9bd 2805 2bbe c594 6dbd aeb2 173d
00000290: 3f86 45bd fd01 8f3d 2f4c e23b 9ce3 41bd
000002a0: 20bc 4a3d 3bcb 153d eb5a cfbb 984a d0bd
000002b0: 1f2d 3fbe fdc4 99bd 11f4 803b 6d9b 93bd
000002c0: 9751 d63d 635f 8e3e 91a7 b33e 2777 083f
000002d0: b3f1 a4be 5625 63bc cd52 d2bc 805d 5d3d
000002e0: 8231 223e 63f1 d43c b26d 803e 8214 5c3e
000002f0: 24d8 a13e 4c48 1b3e 2399 ed3c 3b80 b93d
00000300: 3098 573e 3f11 7cbc bd09 36bd 3927 133e
00000310: ed2b 7dbc f1c2 64bd 11bb 6cbd 5765 96bd
00000320: 6c34 b0bd 1d3f 3e3d b657 45be a511 afbd
00000330: 3e68 9ebe d392 95be 0c87 60be 8267 c4bd
00000340: 9cca a0bc c984 07bd 2cd2 c6bd 37f9 77bd
00000350: af3f 8e3d b227 b3bc 4daa e73c 54e0 4c3d
00000360: 1a28 58bc cef4 863d a3a1 483d 106a 0fbd
00000370: d569 163c b2d2 0f3d 586f 51bd c5a5 e53c
00000380: 6bce bbbd e7e0 62be 2d74 00be bd4d c4bc
00000390: 1e1b ccbe 55f4 e2bc cec9 943d e350 c0be
000003a0: 5a4b a03d 2c0b 893e c5c2 65bd c1a2 ddbc
000003b0: 89b1 e23d 4c46 033d 8a31 083e 747f 0b3e
000003c0: 5c73 923b db0f 68bd ec10 4e3d bc9a febd
000003d0: cb18 abbc b2c4 dc3d 15e2 97bd ff68 053c
000003e0: 30c4 653d 2248 05be d63e c63d 2baf db3d
000003f0: a4be 51bd bee2 ebbb 0ed9 9e3d 3bdb 2e3c

b1 f4 [32]
0.042397786 0.12577505 0.0469709 0.13190784 -0.24384028 -0.07179224 -0.39357832 0.23041154
-0.046434518 0.046789225 -0.042940088 0.05136624 0.13437364 0.25511172 0.112617336 0.008092729
0.052417938 -0.35296097 -0.24991514 0.054278247 -0.1657553 0.07638519 -0.1440268 0.14225739
0.0863752 0.087730914 0.088109985 -0.6524467 0.02277471 0.16102217 -0.016021363 -0.24486499
00000000: 4da9 2d3d 2dcb 003e 8f64 403d d912 073e
00000010: 44b1 79be cf07 93bd 1983 c9be 01f1 6b3e
00000020: 1f32 3ebd 0fa6 3f3d f2e1 2fbd 6865 523d
00000030: 3e99 093e 019e 823e eba3 e63d 5e97 043c
00000040: 31b4 563d 4db7 b4be c1e9 7fbe de52 5e3d
00000050: c2bb 29be d76f 9c3d c37b 13be ecab 113e
00000060: 7be5 b03d 44ac b33d 0273 b43d bf06 27bf
00000070: 0792 ba3c ffe2 243e 3c3f 83bc e3bd 7abe

conv2 f4 [32, 32, 3, 3]
0.007977454 0.056932427 0.02148575 -0.013461048 -0.01118055 -0.023473578 0.03234942 -0.00014349078
-0.01498817 -0.028375534 0.017884787 -0.012418921 0.029801019 0.010353876 0.08860239 -0.10789541
0.02572994 0.042309333 -0.009989419 -0.004345196 -0.0025015129 0.05148416 -0.047589745 0.012902803
0.007085159 0.009465321 -0.033792343 -0.048269607 -0.029384628 -0.085907675 -0.015845845 0.035275776
0.0082515655 -0.079824716 -0.06304806 -0.0102551505 0.0043713986 -0.021552633 0.0029047043 0.020391481
-6.655767e-05 0.03200696 0.0423558 0.04782255 0.043221675 0.006816323 0.037248697 0.004795724
0.017911745 -0.028172886 -0.0134448875 0.03952279 -0.0019286189 -0.010634515 0.00042105658 0.018905407
0.03370304 0.02237188 -0.0077271843 0.027825033 -0.021567784 0.00961842 -0.0023012273 -0.046760533
-0.000909483 -0.01658024 -0.10197924 -0.06636905 -0.013276847 -0.06847692 -0.0064798305 -0.002850463
-0.0144979125 -0.013429115 0.029632518 0.0065847877 -0.0047297543 -0.007438501 -0.023642845 -0.014580432
-0.046297606 0.009925904 0.048447996 0.002934123 -0.0027691582 -0.07137587 -0.040978912 -0.025729472
-0.11782969 0.0023967267 0.014976479 0.012427134 0.06505166 0.0061070276 -0.025038233 -0.0035422028
0.006767435 -0.013942003 0.03351076 0.038795415 0.038047217 -0.036713965 0.0019133453 -0.018375842
0.02369273 0.023141813 -0.03389151 0.0045744064 -0.03276786 0.014602211 -0.016637664 0.031632956
-0.10514215 0.033232473 -0.05999578 -0.105449796 -0.09948072 -0.019997599 -0.0066157165 -0.00026897076
-0.051695436 -0.057036 -0.030682378 -0.09315016 -0.044297498 -0.03902923 0.018434683 -0.025842184
0.034872673 0.0047604432 -0.013473356 0.0116762435 -0.036030456 0.0051935627 -0.055876307 0.023444755
-0.0041952976 0.035204448 0.025389802 -0.023463197 -0.037804194 0.051494747 -0.025479395 -0.040958725
0.030855646 -0.008742529 -0.05990689 0.002860085 0.0005045064 -0.034664813 -0.003935133 0.022520822
-0.024900036 0.0017954105 -0.038190864 0.013985465 0.03662049 0.012921078 -0.012304745 -0.005121474
0.005634352 -0.0125721805 0.0076244855 -0.025388999 -0.0070455624 0.011042011 0.019910969 -0.0055365777
0.028344905 0.0028897384 0.017693877 0.053081185 0.036771502 -0.054282375 0.013878627 0.030700374
-0.004140014 0.02137233 -0.023048269 0.008890225 -0.015554462 0.016192967 0.041138373 0.008138044
-0.00722976 0.011506569 -0.049379665 0.03740284 0.070615314 0.024897015 -0.02651414 -0.011582845
0.009744787 0.017723035 -0.056389485 -0.079478085 -0.0253125 -0.024939213 -0.004218127 -0.0021867987
-0.005951352 -0.0140240975 0.01222275 0.026624823 0.04325651 0.01421511 0.038366977 -0.02526815
0.0004019563 -0.013920242 0.0352358 0.023876268 -0.048449367 0.003866112 -0.0015754828 0.027651817
0.01067848 0.02038685 0.029757462 -0.032480918 -0.009386809 0.04208842 0.018718505 -0.0058696438
0.0061285608 -0.05562664 -0.040421054 -0.043716215 -0.01507581 -0.0788409 0.014977145 -0.08554528
-0.07075937 0.01490131 0.020539114 0.025691282 -0.008663833 -0.031359408 -0.027959934 0.082677834
0.008624038 0.0027796314 0.07182654 0.013064288 -0.0060553537 -0.023813026 0.042071644 -0.017847346
-0.027153652 -0.009025691 0.04936374 0.03802802 -0.011602623 -0.0032638442 -0.0061028833 -0.015180851
00000000: deb3 023c fa31 693d e202 b03c ba8b 5cbc
00000010: a02e 37bc a94b c0bc d380 043d 0376 16b9
00000020: f190 75bc cf73 e8bc 1e83 923c bb78 4bbc
00000030: 4421 f43c 4ea3 293c 2b75 b53d 45f8 dcbd
00000040: 98c7 d23c 8d4c 2d3d a9aa 23bc 2562 8ebb
00000050: 6cf0 23bb 0ee1 523d 77ed 42bd 4766 533c
00000060: 9f2a e83b 6f14 1b3c d769 0abd 5ab6 45bd
00000070: 08b8 f0bc 5df0 afbd 25cf 81bc 557d 103d
00000080: 9331 073c 247b a3bd 571f 81bd 3805 28bc
00000090: f33d 8f3b 268f b0bc da5c 3e3b 090c a73c
000000a0: e194 8bb8 bb19 033d 467d 2d3d 94e1 433d
000000b0: 3609 313d 765b df3b 1792 183d 7325 9d3b
000000c0: a7bb 923c d3ca e6bc f247 5cbc a6e2 213d
000000d0: b6c9 fcba 643c 2ebc 42c1 dc39 83df 9a3c
000000e0: 330c 0a3d 3c45 b73c 5234 fdbb 53f1 e33c
000000f0: ecae b0bc 9496 1d3c 30d0 16bb f987 3fbd
00000100: 5f6a 6eba 49d3 87bc 7eda d0bd 7fec 87bd
00000110: 2287 59bc a13d 8cbd c254 d4bb d5ce 3abb
00000120: a788 6dbc ca05 5cbc e5bf f23c 34c5 d73b
00000130: 0efc 9abb abbe f3bb a4ae c1bc c4e2 6ebc
00000140: 8fa2 3dbd 42a0 223c 6871 463d 6a4a 403b
00000150: c47a 35bb 832d 92bd 81d9 27bd 9dc6 d2bc
00000160: b150 f1bd 6712 1d3b e85f 753c 2e9b 4b3c
00000170: ce39 853d 761d c83b fb1c cdbc 4d24 68bb
00000180: 5cc1 dd3b 006d 64bc 9442 093d f1e7 1e3d
00000190: 66d7 1b3d 6261 16bd 37c9 fa3a ef88 96bc
000001a0: 4217 c23c e693 bd3c d3d1 0abd e7e4 953b
000001b0: 9737 06bd 1d3e 6f3c b64b 88bc 8f91 013d
000001c0: c454 d7bd c61e 083d 23be 75bd 10f6 d7bd
000001d0: 8cbc cbbd 01d2 a3bc a7c8 d8bb a504 8db9
000001e0: 98be 53bd 959e 69bd 9c59 fbbc 83c5 bebd
000001f0: 4b71 35bd 1ddd 1fbd 5504 973c fdb2 d3bc
00000200: a6d6 0e3d 7efd 9b3b 5abf 5cbc b74d 3f3c
00000210: ac94 13bd c32e aa3b 8ede 64bd 370f c03c
00000220: b578 89bb 8a32 103d 46fe cf3c e435 c0bc
00000230: 92d8 1abd 28ec 523d 2aba d0bc 56c4 27bd
00000240: fbc4 fc3c d33c 0fbc ed60 75bd 4470 3b3b
00000250: da40 043a b1fc 0dbd 4af2 80bb 967d b83c
00000260: 29fb cbbc fb53 eb3a 066e 1cbd 4b23 653c
00000270: 5eff 153d eeb2 533c d799 49bc 0ad2 a7bb
00000280: 5fa0 b83b 8cfb 4dbc d2d6 f93b 97fc cfbc
00000290: 76de e6bb 8de9 343c 541c a33c 2e6c b5bb
000002a0: 9333 e83c c461 3d3b c0f2 903c a86b 593d
000002b0: b79d 163d 3257 5ebd 2e63 633c 5a7f fb3c
000002c0: f4a8 87bb 0615 af3c b9cf bcbc 4ea8 113c
000002d0: 24d8 7ebc 1da7 843c b680 283d 6e55 053c
000002e0: 9fe7 ecbb 0c86 3c3c 5542 4abd b833 193d
000002f0: c39e 903d d3f4 cb3c 2f34 d9bc f9c5 3dbc
00000300: 99a8 1f3c e62f 913c a9f8 66bd 68c5 a2bd
00000310: 295c cfbc 524d ccbc 3738 8abb 6550 0fbb
00000320: 8f03 c3bb 54c5 65bc ee41 483c 4d1c da3c
00000330: bd2d 313d 7ee6 683c b126 1d3d 27ff cebc
00000340: a9bd d239 ba11 64bc 6a53 103d 2a98 c33c
00000350: d872 46bd 995e 7d3b 6e80 ceba 1086 e23c
00000360: cbf4 2e3c 5302 a73c ecc5 f33c b60a 05bd
00000370: 21cb 19bc e864 2c3d 8d57 993c 2456 c0bb
00000380: 18d2 c83b c2d8 63bd 8c90 25bd c60f 33bd
00000390: 8800 77bc 5677 a1bd b362 753c 5d32 afbd
000003a0: 4aea 90bd a024 743c a541 a83c 8676 d23c
000003b0: c0f2 0dbc b972 00bd 3b0c e5bc ff52 a93d
000003c0: d64b 0d3c 7a2a 363b cb19 933d 980b 563c
000003d0: fd6b c6bb 8913 c3bc 5153 2c3d 9934 92bc
000003e0: 5671 debc 7ee0 13bc a231 4a3d 45c3 1b3d
000003f0: ee18 3ebc 38e6 55bb b2fa c7bb 1bb9 78bc

b2 f4 [32]
-0.1107774 0.36587897 0.14398 -0.11051804 0.41684654 0.1697195 0.061859697 0.36464715
-0.18589285 0.8443789 0.37390056 0.21391112 0.32838514 -0.10882185 0.123590805 -0.06818978
0.7151322 -0.079649076 0.078643024 0.34363547 -0.074880816 0.23596348 -0.31251752 -0.011991315
0.39810598 -0.1278108 0.06415621 0.1935716 0.037936896 0.13135076 -0.08822603 -0.1333166
00000000: 43df e2bd 7d54 bb3e 7e6f 133e 4857 e2bd
00000010: e96c d53e f3ca 2d3e 9860 7d3d 08b3 ba3e
00000020: b25a 3ebe 3729 583f e56f bf3e 840b 5b3e
00000030: 1922 a83e fddd debd 2d1d fd3d 15a7 8bbd
00000040: e712 373f 0e1f a3bd 980f a13d fdf0 af3e
00000050: 1d5b 99bd 69a0 713e 4c02 a0be 3877 44bc
00000060: 8cd4 cb3e d6e0 02be 5564 833d a237 463e
00000070: b863 1b3d d080 063e d9af b4bd 2684 08be

conv3 f4 [32, 32, 3, 3]
-0.13409732 -0.048255134 -0.15971021 -0.005775726 0.055568613 0.021979336 -0.15395129 -0.05177048
-0.11616333 0.085019775 0.045062028 0.082789846 0.022523602 -0.12482974 0.008856658 0.20891847
0.09461365 0.16664633 -0.030391729 -0.04591337 -0.05273704 -0.015911952 -0.040580787 -0.023843693
0.0276105 0.049499717 0.034363892 0.042103104 0.055911932 0.0015365344 0.01751824 0.053887937
0.03505943 0.015238397 0.032013606 -0.0046972837 -0.09856762 0.033132724 -0.07594153 0.00849195
0.08649617 -0.03548834 -0.105680965 -0.07075644 -0.13695532 0.3478085 0.19291498 0.31908834
0.28002003 0.110313684 0.17056307 0.28043962 0.24819379 0.38820764 -0.003021544 -0.033428703
-0.10764356 -0.002945803 0.014307381 -0.1407256 -0.0069043795 -0.046055667 -0.1404186 0.16190958
0.17722487 0.21643159 0.20151907 0.10137002 0.2640394 0.2117876 0.13162203 0.21717249
-0.06336081 -0.00058104366 0.034204826 -0.03970147 -0.08432337 -0.047936104 -0.085784025 0.013018322
-0.0014229766 0.14701302 0.08693949 0.23182674 0.07316129 0.015228057 0.10823859 0.15504375
0.12475348 0.25448173 -0.102662325 -0.07802918 -0.07757844 -0.081593595 0.042102765 -0.036751624
-0.10082491 -0.07926412 -0.10089391 0.004497088 0.03689515 -0.09705198 0.046255287 -0.063786335
-0.06250957 0.036389552 -0.0121921925 -0.07993008 -0.04186804 -0.09160389 -0.007184387 -0.050307572
-0.025333643 -0.110329494 -0.085606284 -0.14172916 -0.074698314 -0.09678914 0.04693619 -0.011852591
-0.04792961 0.020431155 0.0034108537 -0.118353754 -0.074027605 -0.03363609 0.1664698 0.11405074
0.17009363 0.10706864 0.042108264 0.08880066 0.17429723 0.15037641 0.20366839 0.16412182
0.13037877 0.14997229 0.062165566 0.08646596 0.091838874 0.16120584 0.082086086 0.044711955
-0.08636194 -0.036101006 -0.085807964 -0.016719487 0.017249461 -0.031927757 -0.103329316 -0.013817962
-0.08579892 0.14214298 0.10484532 -0.040500015 0.020316428 0.0579797 0.046499502 0.12926
0.007672277 -0.059745815 -0.04958832 -0.013094972 0.019310847 0.033642374 0.044623952 0.072037466
-0.075587764 0.039160293 0.06948287 -0.008254175 -0.036707032 0.004741167 -0.00550274 0.01655844
-0.025128309 -0.057120092 0.002737366 -0.09718853 -0.087211005 0.02219666 -0.11428977 -0.022880537
0.023893178 -0.011733316 0.01836372 0.062200118 0.029571613 0.101476975 0.06427488 0.083748035
0.060356017 0.03681971 0.10142374 0.111827955 0.08529796 0.0716332 0.11204264 0.038100027
0.07652903 0.07785198 0.07216363 0.07172109 0.07923912 0.058650807 0.03966272 0.0100434
-0.038176443 -0.0128822345 0.07242496 0.028411353 -0.034361884 -0.00879439 0.018941544 0.043808587
0.0047536967 -0.060666934 -0.06902848 -0.047377843 0.025401672 -0.022442905 -0.03331938 -0.070064574
-0.024567988 -0.013643515 0.005001765 0.020970121 0.04507809 0.04251607 0.10044988 0.045383587
0.15479337 0.06314839 -0.020248452 0.024319088 -0.027656345 -0.13763943 -0.05119506 -0.004745956
0.036824677 -0.060650516 -0.006265791 -0.07177383 -0.075453445 -0.15935692 -0.10663643 0.032313824
-0.07843661 -0.1256187 -0.10068545 -0.21061788 -0.052870534 -0.044056445 -0.006062268 0.014068547
00000000: cf50 09be 2da7 45bd 138b 23be 4d42 bdbb
00000010: ea9b 633d 020e b43c 68a5 1dbe 480d 54bd
00000020: 0ae7 edbd d91e ae3d f692 383d b98d a93d
00000030: 6b83 b83c bca6 ffbd 841b 113c b9ee 553e
00000040: cdc4 c13d 56a5 2a3e 13f8 f8bc a80f 3cbd
00000050: cb02 58bd c859 82bc 0a38 26bd d953 c3bc
00000060: 6a2f e23c 37c0 4a3d 27c1 0c3d 4e74 2c3d
00000070: e903 653d 8a65 c93a 6982 8f3c 99b9 5c3d
00000080: 7a9a 0f3d 78aa 793c b320 033d aceb 99bb
00000090: d2dd c9bd 2eb6 073d 3c87 9bbd d221 0b3c
000000a0: e724 b13d 395c 11bd 436f d8bd c1e8 90bd
000000b0: 043e 0cbe f513 b23e 818b 453e 8c5f a33e
000000c0: c95e 8f3e 24ec e13d 16a8 2e3e c895 8f3e
000000d0: 8326 7e3e 27c3 c63e 1905 46bb 89ec 08bd
000000e0: 3a74 dcbd 600e 41bb 8169 6a3c 5f1a 10be
000000f0: 223e e2bb dea4 3cbd e5c9 0fbe a0cb 253e
00000100: 707a 353e 3ea0 5d3e 045b 4e3e 169b cf3d
00000110: 2c30 873e d9de 583e edc7 063e 7762 5e3e
00000120: 50c3 81bd 2e51 18ba 5c1a 0c3d 029e 22bd
00000130: bbb1 acbd a658 44bd 89af afbd cd4a 553c
00000140: 2c83 baba 958a 163e 550d b23d fd63 6d3e
00000150: 96d5 953d 1a7f 793c 32ac dd3d cac3 1e3e
00000160: c17e ff3d 6e4b 823e a040 d2bd c3cd 9fbd
00000170: 72e1 9ebd 8b1a a7bd f373 2c3d df88 16bd
00000180: 4a7d cebd 3a55 a2bd 77a1 cebd 4f5c 933b
00000190: 5e1f 173d 30c3 c6bd 2f76 3d3d 69a2 82bd
000001a0: 0405 80bd 360d 153d c3c1 47bc 62b2 a3bd
000001b0: d27d 2bbd d29a bbbd 026b ebbb 500f 4ebd
000001c0: 8088 cfbc 6ef4 e1bd 5952 afbd 7321 11be
000001d0: 6efb 98bd 6239 c6bd 2a40 403d 5f31 42bc
000001e0: d751 44bd 3d5f a73c a188 5f3b 7463 f2bd
000001f0: c99b 97bd ffc5 09bd 0f77 2a3e 6f93 e93d
00000200: 062d 2e3e ce46 db3d b779 2c3d 1fdd b53d
00000210: f97a 323e 46fc 193e 728e 503e 8d0f 283e
00000220: 0382 053e 5692 193e 52a1 7e3d 1115 b13d
00000230: 0516 bc3d 2513 253e c01c a83d e223 373d
00000240: 87de b0bd a6de 13bd 16bc afbd 4ef7 88bc
00000250: be4e 8d3c aec6 02bd 529e d3bd bc64 62bc
00000260: 58b7 afbd ee8d 113e 25b9 d63d 58e3 25bd
00000270: a36e a63c 1f7c 6d3d 4376 3e3d bc5c 043e
00000280: b967 fb3b 07b8 74bd 1f1d 4bbd 4b8c 56bc
00000290: c831 9e3c 96cc 093d 9bc7 363d 6188 933d
000002a0: c2cd 9abd 8b66 203d 094d 8e3d 853c 07bc
000002b0: 1d5a 16bd cb5b 9b3b 5450 b4bb 91a5 873c
000002c0: e2d9 cdbc c2f6 69bd 6165 333b c80a c7bd
000002d0: af9b b2bd c5d5 b53c c110 eabd f76f bbbc
000002e0: a0bb c33c 183d 40bc 836f 963c 8dc5 7e3d
000002f0: 2b40 f23c 29d3 cf3d 8ca2 833d 1784 ab3d
00000300: df37 773d 44d0 163d 40b7 cf3d 0e06 e53d
00000310: b2b0 ae3d 6db4 923d 9d76 e53d c60e 1c3d
00000320: 41bb 9c3d dc70 9f3d 86ca 933d 82e2 923d
00000330: 1f48 a23d d43b 703d 6075 223d 138d 243c
00000340: e75e 1cbd 0210 53bc 8a53 943d edbe e83c
00000350: 0cbf 0cbd 5816 10bc 4c2b 9b3c a270 333d
00000360: e6c4 9b3b e47d 78bd ce5e 8dbd 450f 42bd
00000370: 2b17 d03c 2fda b7bc e779 08bd 047e 8fbd
00000380: ce42 c9bc 0d89 5fbc d9e5 a33b 88c9 ab3c
00000390: cea3 383d 5525 2e3d abb8 cd3d 24e4 393d
000003a0: 2782 1e3e f153 813d 15e0 a5bc d338 c73c
000003b0: 8f8f e2bc 5af1 0cbe e9b1 51bd f783 9bbb
000003c0: 79d5 163d ad6c 78bd 4451 cdbb 28fe 92bd
000003d0: 5687 9abd 762e 23be 3364 dabd 805b 043d
000003e0: 60a3 a0bd 30a2 00be 2c34 cebd 37ac 57be
000003f0: c68e 58bd 8874 34bd fda5 c6bb c37f 663c

b3 f4 [32]
-0.6901924 0.025247931 0.57455295 1.150001 0.391656 1.0488937 1.1333113 0.096420415
0.17090985 -0.8368439 0.49091867 -0.0001635189 -0.9100093 -0.20423603 0.49653804 0.124540724
1.4581604 -0.41705528 0.96309376 0.37847835 -0.9740408 0.3005681 0.0058191647 -0.090731464
-0.7504404 -0.15848851 0.040800564 -1.0619346 0.047823913 1.0248946 0.4950242 -0.67076266
00000000: 73b0 30bf c0d4 ce3c e715 133f 3c33 933f
00000010: 2387 c83e 2642 863f 5810 913f 1178 c53d
00000020: fe02 2f3e 673b 56bf b159 fb3e 4576 2bb9
00000030: 5ff6 68bf 4023 51be 3c3a fe3e 350f ff3d
00000040: 00a5 ba3f 4588 d5be 508d 763f eac7 c13e
00000050: bd5a 79bf 10e4 993e b1ae be3b 6bd1 b9bd
00000060: dd1c 40bf d04a 22be 7e1e 273d 79ed 87bf
00000070: 02e3 433d bf2f 833f d073 fd3e 1ab7 2bbf

w4 f4 [5, 32]
-1.3689772 -2.1976323 2.2334845 0.1674803 -0.0961371 1.8091234 2.5713181 -3.1999047
0.42281616 -0.37517038 2.97485 -2.2248995 -1.4493223 -2.2650256 2.308328 -1.6063101
3.019618 -1.6942998 1.4309113 1.5833068 -1.4494729 -1.2714982 -2.070492 -1.2587445
-1.3032476 0.2337073 -1.4734458 -1.114946 -1.9159143 2.236401 1.6392606 -1.7306418
-1.6107363 2.6693368 -2.2075028 -1.4284681 -2.5518868 -1.3917202 0.1889807 1.3142688
0.7893946 -1.546431 -2.741182 -1.7212424 -1.1915379 -1.1012925 -1.894931 3.035196
-0.16064817 2.8225079 1.9869341 -3.6065204 -1.4867644 3.1136289 -1.3417153 0.10356778
2.9880435 -0.780219 0.9544627 -0.33599934 -2.060994 1.1934633 0.78600985 0.33411464
2.7257206 0.75112545 -0.6490536 -1.5392135 1.1903282 -1.9971088 -1.4479194 -1.8793932
-2.0975819 3.222333 -0.8464913 -0.12254636 0.88923734 2.1991587 1.9555199 -1.6029696
-1.3346918 -1.4212457 1.0608857 -1.1113445 -1.3932767 -0.9367638 2.8696728 2.923614
-1.4848508 -1.1760101 -1.3386192 3.2834306 -1.6311371 -1.8022001 -2.6553705 -2.3295803
1.4575303 -1.1164834 1.6976558 -1.7433546 -2.094811 -1.5877349 -1.0186491 1.7103338
2.4946065 -0.8912598 -1.1467972 2.7966456 2.7601175 -2.041954 -1.4954509 -1.8771706
-2.0343847 1.0109894 -2.6909595 1.2117896 2.668352 -1.5039989 -0.9048897 -1.9026058
-1.2844582 3.139789 -1.9140583 -0.53209627 1.6633332 -1.8887397 1.0427326 -1.2066082
-1.5607682 -0.7726343 -1.9098277 3.1721346 2.5320866 2.3812103 -1.5759463 1.6052423
-1.4156184 -1.4688411 -0.47431517 -0.16590941 -1.9685026 1.7206923 -1.3838043 -0.51055413
-0.7817609 -1.5199356 -0.70344204 1.6440147 0.2356969 -0.74859786 0.6400047 -1.7181282
-1.5620697 -1.5429283 2.6589372 -1.8422099 2.4880886 -0.96000904 -1.0935342 2.7461894
00000000: a53a afbf 02a6 0cc0 69f1 0e40 f57f 2b3e
00000010: 87e3 c4bd 5b91 e73f 7a90 2440 3dcb 4cc0
00000020: 5c7b d83e 5516 c0be f163 3e40 c164 0ec0
00000030: 6583 b9bf 2ef6 10c0 a5bb 1340 929b cdbf
00000040: 6c41 4140 d1de d8bf 1a28 b73f cca9 ca3f
00000050: 5488 b9bf 74c0 a2bf f182 04c0 8a1e a1bf
00000060: d1d0 a6bf f750 6f3e df99 bcbf 8db6 8ebf
00000070: ae3c f5bf 3221 0f40 4bd3 d13f ac85 ddbf
00000080: 9b2c cebf 6ad6 2a40 ba47 0dc0 0bd8 b6bf
00000090: 1d52 23c0 e323 b2bf 2884 413e f639 a83f
000000a0: c415 4a3f 73f1 c5bf 876f 2fc0 ac51 dcbf
000000b0: 5084 98bf 27f7 8cbf 198d f2bf a740 4240
000000c0: f480 24be f8a3 3440 db53 fe3f 3bd1 66c0
000000d0: 4c4e bebf b245 4740 54bd abbf 581b d43d
000000e0: 1b3c 3f40 6fbc 47bf ab57 743f 1b08 acbe
000000f0: 53e7 03c0 68c3 983f f137 493f 1311 ab3e
00000100: 3572 2e40 c249 403f 6028 26bf f304 c5bf
00000110: ad5c 983f 43a1 ffbf 6c55 b9bf f58f f0bf
00000120: c83e 06c0 b43a 4e40 a7b3 58bf 96f9 fabd
00000130: 0fa5 633f 04bf 0c40 7a4e fa3f 1c2e cdbf
00000140: 2ed7 aabf 61eb b5bf 1acb 873f 8940 8ebf
00000150: e456 b2bf c1cf 6fbf b8a8 3740 7e1c 3b40
00000160: 970f bebf 8087 96bf e057 abbf ba23 5240
00000170: 1ac9 d0bf 7eae e6bf 97f1 29c0 d817 15c0
00000180: 5a90 ba3f eee8 8ebf c94c d93f 3e26 dfbf
00000190: 6211 06c0 e63a cbbf 1863 82bf 38ec da3f
000001a0: a2a7 1f40 9a29 64bf 40ca 92bf 3efc 3240
000001b0: c4a5 3040 60af 02c0 ef6a bfbf 2047 f0bf
000001c0: 5c33 02c0 1a68 813f ae38 2cc0 ec1b 9b3f
000001d0: 47c6 2a40 0983 c0bf daa6 67bf 9688 f3bf
000001e0: 2069 a4bf 4ef2 4840 ddff f4bf 7637 08bf
000001f0: 1ae8 d43f 39c2 f1bf 4378 853f 2372 9abf
00000200: 41c7 c7bf 5dcb 45bf 3c75 f4bf 4104 4b40
00000210: b50d 2240 c065 1840 9cb8 c9bf 9478 cd3f
00000220: fc32 b5bf fc02 bcbf 70d9 f2be 28e4 29be
00000230: e5f7 fbbf a53f dc3f 8020 b1bf adb3 02bf
00000240: 7b21 48bf 408d c2bf c714 34bf 136f d23f
00000250: 875a 713e 1ca4 3fbf 59d7 233f a0eb dbbf
00000260: e6f1 c7bf ad7e c5bf 072c 2a40 89cd ebbf
00000270: d83c 1f40 27c3 75bf eef8 8bbf 91c1 2f40

b4 f4 [5]
0.20100497 0.008355185 -0.10605249 -0.06219161 -0.15217507
00000000: 3fd4 4d3e 30e4 083c 0c32 d9bd a1bc 7ebd
00000010: c8d3 1bbe

exp_avg f4 [32, 1, 3, 3]
-0.0031694877 -3.2810033e-06 -0.0012130549 -0.002663126 -0.0022050934 -0.0027564617 -0.0041390704 -0.00062152167
0.0012934164 0.001205946 0.0006779402 0.0014220714 -0.00047293617 0.0014241178 0.0018749455 -0.0011197958
0.0016348618 0.0010159871 -0.0008948759 -0.0020393624 -0.0021696133 -0.0015451137 -0.004138379 -0.00603589
-0.0011693377 -0.0059189065 -0.003570982 0.009911225 0.0046269745 0.0009892981 0.0024404265 0.0011940745
0.0021328926 0.0005361944 0.00050983217 0.0005793321 -0.0057764663 -0.0013344517 -0.0002384818 -0.00077817054
0.00034498546 0.0006100892 2.1372474e-05 0.0019370303 0.0029331641 -0.00021105443 -0.00025500663 0.00017125113
0.00093792594 -1.3452157e-05 -0.0009589254 1.64677e-05 0.0010186723 0.0006709573 0.0042177713 0.0006210393
0.00045260257 0.0030049526 -0.00010277423 0.00012568203 0.0078067565 0.0056018806 0.0071136015 0.002535323
-0.0030212337 -0.00090613967 0.0007038073 -0.0032620677 -0.0007973937 0.0048281844 -0.0012971018 -0.0004164412
0.0028610658 0.0013537831 0.00064589124 0.001949714 0.0009423798 0.0004922362 0.0016561388 0.00049158256
0.00049822574 0.0026598775 0.0021270553 0.00043877936 0.0021136133 0.0018520713 0.0006107182 -0.0007818481
0.00035412 0.00010068646 -0.002378081 -0.0019917367 0.0032832387 -0.0013251705 -0.0017688839 0.004858337
-0.0020370292 -0.003374129 0.0033796756 0.0003452337 0.0037961109 0.007781889 0.0017189062 0.0056692357
0.0042398465 0.0010130539 0.003862103 0.0019023936 -0.00088083826 -0.0008112009 0.0019167294 0.0025608477
0.00092272536 0.0018121967 0.00060934835 0.0021432461 0.0036506555 0.0009696072 0.00014707865 -0.00095525733
-0.0020505358 -0.0037887932 -0.00598122 -0.00305054 -0.0015046847 -0.0016378952 0.0016303604 0.00089065277
5.0976476e-05 0.0029051844 0.0026724364 0.0029519424 0.0048537795 0.005298843 0.005290923 0.0023700437
6.7984496e-05 0.0035254122 0.003041768 0.0021447733 0.0053490647 0.0036051942 0.0032587764 0.0049096444
-0.0006090026 -0.0018248352 -0.0016906027 0.00017453847 -0.00074396975 -0.0025511915 -0.0007568305 0.0006564706
-0.0028771313 -0.0017706477 -0.0005193625 -0.001164607 -0.0013807905 -0.00043681674 -0.0019444975 -0.0017368741
-0.0021563615 -0.0046828864 0.0026962298 0.0026531783 0.0025003322 0.0013009025 0.00031514137 0.00016787485
0.0034972278 0.0015997499 0.0016312723 0.00026100056 0.00097040104 0.0021838506 0.00062522345 0.0006486779
0.0008853856 0.0012232835 0.0008151081 -0.0006389323 0.0016246868 0.0014280385 4.73117e-05 0.0031517013
0.001541093 0.004028486 0.0059598153 0.001776501 0.0042217663 0.0008033823 0.0028181348 0.0010382548
0.0018449613 0.0031984462 0.0006830979 0.0008067974 0.00095488026 0.00035242105 -3.9900013e-05 -1.9615869e-05
-0.00018351458 -0.00011458433 0.00023880658 0.00066775654 -5.5316414e-05 -2.402145e-05 -0.00078306824 -0.0035269102
0.0017456792 0.0022414725 -0.0009184022 0.0014975818 0.0020613498 -0.00065294985 0.000346251 0.00077595556
-0.0010351962 -0.0035988062 -0.0016802761 0.00021242863 -0.0037367884 -0.0044480674 0.0035435215 -0.0010718307
-0.0047293482 -0.0028436985 -0.0030712804 -0.004767868 -0.0044068717 -0.003037841 -0.0025258001 -0.0010819059
-6.917513e-05 -0.0014469248 -0.0011412477 -0.0024182063 -0.005846725 0.00010617926 -0.00243552 -0.0068716896
-0.0024029636 -0.005288154 -0.006691999 0.0066769547 0.0032697427 0.0024456524 0.00053570216 0.00025283283
0.00065582345 0.0007246847 0.0020199202 -0.0006375768 4.9768416e-05 -0.0015805349 -0.0041680126 -0.0023278252
00000000: 2eb7 4fbb 352f 5cb6 5eff 9eba d787 2ebb
00000010: 5483 10bb c1a5 34bb 0aa1 87bb 9ded 22ba
00000020: da87 a93a d510 9e3a ccb7 313a cc64 ba3a
00000030: 6bf4 f7b9 77a9 ba3a bbc0 f53a 1dc6 92ba
00000040: dc48 d63a df2a 853a 1b96 6aba d3a6 05bb
00000050: 1230 0ebb 6a85 caba 3d9b 87bb b7c8 c5bb
00000060: 7644 99ba 63f3 c1bb 2307 6abb b162 223c
00000070: e09d 973b 56ab 813a 90ef 1f3b 7e82 9c3a
00000080: 00c8 0b3b 668f 0c3a 42a6 053a 52de 173a
00000090: 8348 bdbb c5e8 aeba f910 7ab9 24fe 4bba
000000a0: 2adf b439 65ee 1f3a 0a49 b337 f4e3 fd3a
000000b0: 543a 403b 7e4e 5db9 69b2 85b9 e091 3339
000000c0: 25df 753a 93b0 61b7 6560 7bba 1e24 8a37
000000d0: f884 853a 2fe3 2f3a 3b35 8a3b 3ecd 223a
000000e0: 4a4b ed39 bdee 443b 7f88 d7b8 83c9 0339
000000f0: d2cf ff3b fb8f b73b 3719 e93b a927 263b
00000100: e4ff 45bb 018a 6dba b57f 383a 6ac8 55bb
00000110: 2f08 51ba bf35 9e3b 8403 aaba cb55 dab9
00000120: b880 3b3b 6c71 b13a 0751 293a 8c8d ff3a
00000130: 0a0a 773a 6a09 013a cc12 d93a 8cdd 003a
00000140: 5d9b 023a 5751 2e3b 1166 0b3b f80b e639
00000150: 8c84 0a3b 33c1 f23a 9b18 203a f0f4 4cba
00000160: 2fa9 b939 a227 d338 94d9 1bbb cc87 02bb
00000170: 9b2b 573b 58b1 adba e5d9 e7ba af32 9f3b
00000180: ae7f 05bb 7e20 5dbb 8c7d 5d3b 7c00 b539
00000190: 2cc8 783b 37ff fe3b ec4c e13a ffc4 b93b
000001a0: 69ee 8a3b 73c8 843a 561b 7d3b bd59 f93a
000001b0: 0ee8 66ba c5a6 54ba c43a fb3a e5d3 273b
000001c0: 0de3 713a 3b87 ed3a adbc 1f3a b475 0c3b
000001d0: d63f 6f3b 3d2d 7e3a 2039 1a39 3c6a 7aba
000001e0: 4862 06bb 674d 78bb 1cfe c3bb 92eb 47bb
000001f0: d738 c5ba a5ae d6ba d1b1 d53a b27a 693a
00000200: 93cf 5538 e864 3e3b 0b24 2f3b 6075 413b
00000210: 740c 9f3b eba1 ad3b 7b5f ad3b bc52 1b3b
00000220: e692 8e38 9a0a 673b 6658 473b 538f 0c3b
00000230: 3547 af3b 1f45 6c3b 3291 553b 15e1 a03b
00000240: 79a5 1fba 4f2f efba 3797 ddba 5004 3739
00000250: f706 43ba e431 27bb 0966 46ba ff16 2c3a
00000260: 418e 3cbb 1415 e8ba d425 08ba baa5 98ba
00000270: a4fb b4ba 8d04 e5b9 82de feba d3a7 e3ba
00000280: be51 0dbb e672 99bb 3bb3 303b f2e0 2d3b
00000290: 9ddc 233b 0b83 aa3a 8f39 a539 9007 3039
000002a0: bf31 653b b3ae d13a 6ad0 d53a e7d6 8839
000002b0: 8362 7e3a ef1e 0f3b 09e6 233a 090c 2a3a
000002c0: 3919 683a 9556 a03a fbac 553a 057e 27ba
000002d0: 71f3 d43a 052d bb3a 8d70 4638 c68c 4e3b
000002e0: 80fe c93a 6401 843b 8e4a c33b 7bd9 e83a
000002f0: be56 8a3b 139a 523a 75b0 383b 0d16 883a
00000300: a1d2 f13a 069d 513b ed11 333a 427f 533a
00000310: ee50 7a3a 27c5 b839 505a 27b8 c28c a4b7
00000320: d26d 40b9 fe4c f0b8 2768 7a39 620c 2f3a
00000330: 8c03 68b8 ac81 c9b7 d246 4dba bc23 67bb
00000340: 46cf e43a abe5 123b eec0 70ba 824a c43a
00000350: b617 073b b92a 2bba 0689 b539 7f69 4b3a
00000360: 6caf 87ba f3d9 6bbb b63c dcba 60bf 5e39
00000370: e8e4 74bb 18c1 91bb 6d3a 683b ac7c 8cba
00000380: a6f8 9abb 585d 3abb 8947 49bb c73b 9cbb
00000390: 8567 90bb 8416 47bb e587 25bb bdce 8dba
000003a0: 1d12 91b8 bda6 bdba eb95 95ba c57a 1ebb
000003b0: e295 bfbb 8eac de38 3f9d 1fbb e92b e1bb
000003c0: 0a7b 1dbb 4048 adbb 8e48 dbbb 5bca da3b
000003d0: 2e49 563b 3d47 203b 5d6e 0c3a a68e 8439
000003e0: 91eb 2b3a c4f8 3d3a a360 043b 0e23 27ba
000003f0: 6ebe 5038 f329 cfba d393 88bb 6d8e 18bb

exp_avg_sq f4 [32, 1, 3, 3]
0.00019297477 0.00020905933 0.00020756324 0.00046038907 0.0003086128 0.00010337893 0.0007466674 0.0004859034
0.00014985408 0.0001877294 0.00022383794 0.00025139246 0.00016910357 0.00031858656 0.0003534132 0.00074474845
0.00072697736 0.0005388042 0.0002104594 6.330077e-05 0.00018461543 7.0218375e-05 0.00017110178 0.00041188393
0.00029850102 0.0005719867 0.0007561611 0.00047268867 0.0002881065 2.2909911e-05 0.00038527534 0.0001898693
1.3687935e-05 1.8927381e-05 2.3035314e-05 9.326846e-06 0.00081695 0.0012271979 0.0011927602 0.00033205358
0.00044398566 0.0010289494 0.00016748534 0.0003538991 0.00078515714 7.5181844e-05 0.00037689687 0.00069515035
5.4906366e-05 0.0003764863 0.00066505565 6.6273155e-05 0.00038915087 0.0006338499 0.0001598582 8.0201615e-05
0.00016992637 0.00033084417 9.813077e-05 4.9613234e-05 0.00068454206 0.00033918407 0.00020456883 0.00046774032
0.00031389747 0.00013618142 0.00079167355 0.00023924709 5.9192866e-05 0.00042355942 0.000207828 5.5308188e-05
0.00047134812 0.00018826137 4.642119e-05 0.0002959237 3.9744875e-05 1.7848142e-05 0.0004352727 4.5917946e-05
1.8896906e-05 0.00037136572 0.00012446755 2.527873e-05 0.00030176088 0.00011663391 2.8351917e-05 0.000349591
0.0001454521 2.11711e-05 0.00051897287 0.0004281059 0.0008656871 0.00044993308 0.0003485828 0.00088765036
0.0005374643 0.00044963456 0.0012211514 0.00013714861 0.00022502599 0.0003613316 2.6754451e-05 0.000119248376
0.0003519357 1.8049634e-05 5.385e-05 0.0002259003 0.00025094821 0.00025502229 7.91068e-05 0.00026812917
0.00036541204 0.00029498152 0.00012156397 0.00036397186 0.00031433906 0.0006507148 0.0006599918 0.00048542384
0.0007810764 0.0010773304 0.0009290998 0.00031022643 0.00074117875 0.0004050139 3.8360864e-05 4.3852055e-05
9.9182915e-05 8.651113e-05 0.00010703942 0.00019450985 0.0005273901 0.0004484221 0.0007320269 0.00036028255
0.00039884265 0.0005832795 0.00056116417 0.000522263 0.0008592991 0.00030224427 0.00011407109 0.00030102802
0.00020655186 0.00033547168 0.0008569595 0.00013694949 0.0003149092 0.0005750435 4.080212e-05 0.00016918004
0.00018485913 7.9917765e-05 5.9012338e-05 0.0002550785 4.2720607e-05 5.1908246e-05 0.00027756335 9.151206e-05
0.00013308662 0.0003848821 0.00036850516 0.00033872147 0.00043195082 7.421977e-05 3.495295e-05 3.3013373e-05
0.00032909404 0.00027362668 0.00034733088 0.00054750225 0.00040098897 0.00041902956 0.00043402446 0.00045671157
0.00039472932 4.8081576e-05 3.801456e-05 4.8746017e-05 6.777905e-05 6.549283e-05 9.196685e-05 0.0005410705
0.0005673642 0.00042698218 0.00091720483 0.0008054398 0.00088520773 0.00053196616 0.00029597816 5.0178463e-05
0.0004774473 0.00028713886 5.614148e-05 0.0007012763 0.00032739367 5.79825e-05 1.0605489e-06 7.7686406e-07
0.00015303538 1.6146757e-06 4.4897524e-06 0.00019791588 8.253214e-07 5.4409793e-06 0.00034447215 0.0003417847
0.00022496047 0.00030392202 0.00026343088 0.0001261292 0.00013529787 0.00019580187 7.516173e-05 6.647747e-05
4.133948e-05 0.00017821754 0.00023208822 0.00017345266 0.0005770643 0.0005135611 0.00079947937 0.0007829843
0.00026293116 0.00055896677 0.00025949875 0.00020432062 0.0006298425 0.00021268599 0.0001511492 0.0002390768
5.3714135e-05 4.4852066e-05 2.2590524e-05 0.000110594265 0.0002644026 9.812664e-05 0.00021321268 0.0004375802
0.00027451245 0.00041412728 0.0007414045 0.0013572873 0.0007013114 0.00023119731 0.00082481763 0.00034751598
7.67927e-05 0.0004439021 0.00012446949 8.31765e-05 0.00025062673 0.00049512275 0.0007983367 0.0006424575
00000000: 4559 4a39 f036 5b39 55a5 5939 6060 f139
00000010: 4fcd a139 24cd d838 00bc 433a dac0 fe39
00000020: 2622 1d39 3ad9 4439 0ab6 6a39 53cd 8339
00000030: 6551 3139 f707 a739 514a b939 393b 433a
00000040: a092 3e3a 8a3e 0d3a c4ae 5c39 58c0 8438
00000050: 5495 4139 3442 9338 c969 3339 20f2 d739
00000060: 2180 9c39 61f1 153a 1d39 463a 33d3 f739
00000070: 000d 9739 a92e c037 c8fe c939 a717 4739
00000080: 3ca5 6537 3ec6 9e37 f63b c137 807a 1c37
00000090: 9628 563a eed9 a03a 6456 9c3a 7a17 ae39
000000a0: bfc6 e839 d0dd 863a 019f 2f39 888b b939
000000b0: 01d3 4d3a f2aa 9d38 3e9a c539 c03a 363a
000000c0: 434b 6638 2363 c539 2157 2e3a 21fc 8a38
000000d0: f206 cc39 f228 263a 9c9f 2739 ea31 a838
000000e0: 432e 3239 2775 ad39 8ecb cd38 ce17 5038
000000f0: d772 333a 84d4 b139 8781 5639 0b3b f539
00000100: 9b92 a439 eccb 0e39 5088 4f3a 67de 7a39
00000110: db45 7838 2f11 de39 67ec 5939 b7fa 6738
00000120: 461f f739 0768 4539 60b4 4238 3526 9b39
00000130: bcb3 2638 98b8 9537 5035 e439 0598 4038
00000140: cc84 9e37 ddb3 c239 8183 0239 a90d d437
00000150: a935 9e39 5b99 f438 47d5 ed37 4f49 b739
00000160: 8084 1839 9798 b137 ae0b 083a 6773 e039
00000170: 47ef 623a ffe4 eb39 fec1 b639 35b1 683a
00000180: 9ee4 0c3a eebc eb39 0b0f a03a 8dcf 0f39
00000190: f4f4 6b39 1b71 bd39 bf6e e037 fc14 fa38
000001a0: 0384 b839 4b69 9737 ffdc 6138 a6df 6c39
000001b0: b391 8339 83b4 8539 24e6 a538 b093 8c39
000001c0: c694 bf39 c0a7 9a39 29f0 fe38 7ad3 be39
000001d0: e0cd a439 bb94 2a3a 4d03 2d3a 7c80 fe39
000001e0: 26c1 4c3a 3635 8d3a d58e 733a e3a5 a239
000001f0: aa4b 423a 0c58 d439 aae5 2038 c9ed 3738
00000200: 6c00 d038 4f6d b538 5a7a e038 57f5 4b39
00000210: 8d40 0a3a 321a eb39 7ee5 3f3a 4ee4 bc39
00000220: c11b d139 3ae7 183a 171b 133a 7ae8 083a
00000230: 9642 613a 8a76 9e39 7339 ef38 4cd3 9d39
00000240: d895 5839 3fe2 af39 94a5 603a 199a 0f39
00000250: 661a a539 84be 163a f122 2b38 ec65 3139
00000260: bfd6 4139 8699 a738 0484 7738 0fbc 8539
00000270: e72e 3338 0eb8 5938 ec85 9139 2aea bf38
00000280: 2b8d 0b39 00ca c939 ed33 c139 6d96 b139
00000290: 7577 e239 70a6 9b38 729a 1238 d777 0a38
000002a0: 418a ac39 8d75 8f39 f619 b639 4186 0f3a
000002b0: d43b d239 32b1 db39 c78d e339 ca72 ef39
000002c0: acf3 ce39 33ab 4938 d371 1f38 a374 4c38
000002d0: 9a24 8e38 3259 8938 54de c038 a0d6 0d3a
000002e0: 2bbb 143a 94dc df39 9370 703a 2624 533a
000002f0: 490d 683a a573 0b3a 842d 9b39 b776 5238
00000300: e451 fa39 208b 9639 7579 6b38 dbd5 373a
00000310: 09a6 ab39 3c32 7338 2f58 8e35 b189 5035
00000320: 1f78 2039 d6b7 d835 aea6 9636 a487 4f39
00000330: a88b 5d35 a891 b636 459a b439 9131 b339
00000340: 5ee3 6b39 b957 9f39 181d 8a39 8d41 0439
00000350: bfde 0d39 2a50 4d39 26a0 9d38 d269 8b38
00000360: ee63 2d38 e8df 3a39 b55c 7339 d8e0 3539
00000370: 2146 173a 81a0 063a 2794 513a 3041 4d3a
00000380: 06da 8939 a087 123a 550d 8839 e63e 5639
00000390: 041c 253a 7604 5f39 ce7d 1e39 b1b0 7a39
000003a0: 1d4b 6138 8a1f 3c38 c880 bd37 d8ee e738
000003b0: 849f 8a39 57c9 cd38 d891 5f39 056b e539
000003c0: 70ec 8f39 391f d939 d05a 423a 01e7 b13a
000003d0: 36d8 373a 8e6d 7239 9338 583a ce32 b639
000003e0: c40b a138 88bb e839 0684 0239 0b6f ae38
000003f0: 8d66 8339 20cb 013a 7847 513a 986a 283a

exp_avg f4 [32]
-2.1747855e-09 -5.9824705e-09 -3.865544e-09 1.485828e-08 -3.400489e-11 -2.0890345e-09 5.910753e-10 9.340423e-10
4.1457877e-09 -9.171316e-09 -4.1647854e-09 8.8976486e-11 -9.185684e-09 -2.197669e-09 3.6324133e-09 3.6305378e-10
-4.3919917e-09 3.685822e-09 1.4357696e-09 -3.8846273e-09 -4.4767727e-09 -1.4189218e-09 4.2570245e-09 -5.459746e-09
-1.471096e-09 5.0321614e-09 3.8313415e-09 4.392154e-09 1.8145736e-10 -5.7352674e-09 -3.0442937e-09 7.518719e-10
00000000: 3b73 15b1 5e8e cdb1 afd1 84b1 6843 7f32
00000010: 1a8e 15ae af8e 0fb1 3a79 2230 b15f 8030
00000020: bc72 8e31 e08f 1db2 d719 8fb1 4fa9 c32e
00000030: 11cf 1db2 cd05 17b1 179e 7931 4797 c72f
00000040: 5ee8 96b1 ab49 7d31 a754 c530 8b79 85b1
00000050: 1cd2 99b1 df03 c3b0 2f45 9231 6f98 bbb1
00000060: 972f cab0 5ce7 ac31 d6a4 8331 cce9 9631
00000070: b583 472f f20f c5b1 c833 51b1 48ac 4e30

exp_avg_sq f4 [32]
7.093902e-16 1.0061128e-14 1.1194739e-15 3.0127772e-15 2.1197806e-15 1.8221544e-15 1.7757674e-15 1.0841894e-15
4.3579435e-14 1.2542619e-14 1.2122469e-15 3.6609113e-16 2.8411251e-15 1.003777e-15 2.7333914e-15 1.3060046e-15
1.6958071e-15 5.242763e-16 3.2559835e-14 2.5453308e-15 7.707241e-16 9.346316e-16 1.1088478e-15 7.200835e-16
2.9714435e-15 2.3779512e-15 9.262621e-16 6.3968707e-15 9.803492e-15 4.206953e-15 3.641647e-15 3.6215427e-15
00000000: c277 4c26 c33e 3528 4c55 a126 ee17 5927
00000010: 0dbf 1827 d14c 0327 41ea ff26 873f 9c26
00000020: ab43 4429 9ff2 6128 04b4 ae26 8409 d325
00000030: 82b9 4c27 d6a8 9026 2cf6 4427 1137 bc26
00000040: 3d64 f426 c31c 1726 efa2 1229 1169 3727
00000050: 6725 5e26 d2b1 8626 43cd 9f26 c98c 4f26
00000060: 751d 5627 7559 2b27 0a7d 8526 b878 e627
00000070: a19a 3028 4b92 9727 4434 8327 d67a 8227
