CS330/XCS330-PS3/src/submission/logs/maml/omniglot.way_5.support_1.query_15.inner_steps_5.inner_lr_0.04.learn_inner_lrs_False.outer_lr_0.001.batch_size_16/state12400.pt (torch, 353186 bytes, 30 tensors)

conv0 f4 [32, 1, 3, 3]
0	0xbe5d488e	-0.21609709
1	0xbe0b5e40	-0.13610172
2	0xbd56deb8	-0.052458495
3	0xbdba1312	-0.090856686
4	0x396280a1	0.00021600958
5	0xbe73a049	-0.23791613
6	0x3e5bb3e4	0.21455342
7	0x3e7ba9da	0.24576512
8	0xbf083347	-0.53203243
9	0xbe274c65	-0.16337736
10	0xbd27fa93	-0.04101045
11	0xbd0ebfe4	-0.03485097
12	0xbf0a6b26	-0.54069746
13	0xbba17c48	-0.0049281456
14	0xbce025c6	-0.027361762
15	0x3ed168ef	0.4090037
16	0x3a659ab9	0.0008758712
17	0xbd32a620	-0.04361546
18	0x3e681340	0.22663593
19	0xbefdefd2	-0.4959703
20	0xbe5fd60a	-0.21858993
21	0xbeefc228	-0.46827817
22	0xbc5ba7f1	-0.01340674
23	0x3e05ed5c	0.13078827
24	0xbeab1484	-0.3341409
25	0x3e95221e	0.29127592
26	0xbba4ddce	-0.005031324
27	0x3df5bba5	0.11998681
28	0x3db48066	0.088135526
29	0xbede2a64	-0.43391716
30	0x3dcc4111	0.09973348
31	0x3dec8ee4	0.11550692
32	0xbeea891f	-0.4580774
33	0xbf00689e	-0.50159633
34	0xbef2007f	-0.47266003
35	0xbeaf2244	-0.3420583
36	0x3d5e722a	0.054308094
37	0xbd316d6e	-0.04331725
38	0xbc54cfed	-0.0129890265
39	0xbdd35a34	-0.10319939
40	0x3dc01cc3	0.09380486
41	0x3ea02ccc	0.31284177
42	0xbf0cf6ca	-0.5506407
43	0xbe9fb75c	-0.3119458
44	0x3db082e6	0.08618717
45	0xbf20cf47	-0.6281628
46	0x3db097ab	0.08622678
47	0x3e0a4154	0.13501483
48	0xbf2e8a6d	-0.6817997
49	0x3e1760bd	0.14782996
50	0x3e433694	0.19063789
51	0xbf1692c4	-0.58817697
52	0xbd123684	-0.03569652
53	0x3daf7fe4	0.08569315
54	0xbebb1fe5	-0.3654777
55	0xbd977d9c	-0.07397005
56	0x3b591da7	0.0033129246
57	0x3c570216	0.013123056
58	0xbe76f768	-0.24117815
59	0xbe426b1c	-0.18986171
60	0x3eb5d82b	0.35516486
61	0xbe03c3f7	-0.12867723
62	0xbdd81a32	-0.10551871
63	0x3ad32be4	0.0016111103
64	0x3ebcbd3b	0.3686312
65	0xbd1f8028	-0.03894058
66	0x3d8d856a	0.06910212
67	0xbd7e815c	-0.062135085
68	0xbed23293	-0.4105421
69	0x3c2f1426	0.010685956
70	0xbd2e387c	-0.042534336
71	0xbeba1069	-0.36340645
72	0x3e9a8f3f	0.30187413
73	0xbc36bffb	-0.01115417
74	0xbeb3cd32	-0.3511749
75	0x3b0e7c5a	0.00217416
76	0xbe968b04	-0.29402936
77	0xbdd7d9fd	-0.10539625
78	0xbd2bbef5	-0.041930158
79	0xbd9fed65	-0.07808951
80	0xbe8ce803	-0.2752076
81	0x3db5ba86	0.08873467
82	0xbe0d16e2	-0.1377826
83	0xbf014a82	-0.50504315
84	0x3e80ac24	0.25131333
85	0x3d9e186d	0.077195026
86	0xbf1ba48e	-0.60797966
87	0x3e4ee11a	0.20203057
88	0xbddfaa11	-0.109211095
89	0xbf034bf8	-0.51287794
90	0x3eee95f6	0.46598786
91	0xbd905ba6	-0.070487306
92	0x3dade3eb	0.084907375
93	0xbf2daff2	-0.67846596
94	0xbda8a1cd	-0.08233986
95	0xbbee1818	-0.007266056
96	0x3e82bb2b	0.25533423
97	0xbc56909f	-0.013096004
98	0x3b86d2e2	0.0041144947
99	0xbe7ee998	-0.24893796
100	0x3e5676d2	0.20943764
101	0x3e2e9fe2	0.17053178
102	0xbecddc4a	-0.4020713
103	0x3d8f1bac	0.069877
104	0x3e472eb3	0.19451408
105	0xbea7c797	-0.32769462
106	0xbeb5227b	-0.3537787
107	0xbe900b55	-0.28133646
108	0x3e2f1515	0.17097886
109	0xbd2f775a	-0.042838432
110	0xbf18f9fd	-0.5975645
111	0xbb57090b	-0.0032811787
112	0x3e4a0015	0.19726594
113	0xbd9e4448	-0.07727867
114	0xbec789ee	-0.3897242
115	0xbc5a2b95	-0.013316055
116	0x3ea749a8	0.32673383
117	0x3e8f7967	0.2802231
118	0xbf280ac7	-0.65641445
119	0x3eee263c	0.46513546
120	0x3dcaec3c	0.099083394
121	0x3ce68071	0.028137418
122	0x3ccc7457	0.024957819
123	0xbe0218b9	-0.12704743
124	0x3d1a886d	0.037727762
125	0xbd5b9420	-0.05360806
126	0xbe3b86b1	-0.183131
127	0xbe96cf78	-0.2945516
128	0xbea8fa53	-0.33003482
129	0xbe41e9c2	-0.18936828
130	0xbdd86eb4	-0.1056799
131	0xbe1321af	-0.14368318
132	0xbdd2f912	-0.10301413
133	0x3b7d00aa	0.0038605132
134	0x3ec46735	0.3835999
135	0xbbff72e5	-0.007795679
136	0x3c32ddb1	0.010917113
137	0x3a92623e	0.0011168194
138	0x3dbbd4f8	0.0917148
139	0xbda17e18	-0.078853786
140	0x3dcdd0a8	0.10049564
141	0x3ed0599b	0.40693364
142	0xbf56b3d1	-0.8386813
143	0x3e67b37e	0.22627065
144	0xbd8c42a2	-0.06848647
145	0x3d8ceda1	0.068812616
146	0x3d0108dd	0.031502593
147	0x3d92912c	0.071565956
148	0x3d3637c5	0.04448678
149	0x3d6e79d3	0.05822165
150	0x3f46ab06	0.7760471
151	0x3d9ae30f	0.07562839
152	0xbe8253cf	-0.25454566
153	0x3bff0d9f	0.007783606
154	0xbebc93a6	-0.36831397
155	0x3e634973	0.22195987
156	0xbe5e071c	-0.216824
157	0xbe388b71	-0.18021943
158	0xbcad078d	-0.021121765
159	0xbe1a2f0b	-0.15057008
160	0xbe27141e	-0.16316268
161	0x3e833add	0.25630847
162	0x3cf9f9fd	0.030514712
163	0x3dad9e50	0.08477461
164	0x3d82e693	0.06391635
165	0xbe915dd6	-0.28391904
166	0xbeef67a9	-0.46758774
167	0xbeecdc12	-0.4626165
168	0xbb4ef797	-0.003158068
169	0x3e1b1dcc	0.15148085
170	0x3e1920dd	0.14953943
171	0x3dbb0095	0.091309704
172	0x3e4ee66c	0.20205086
173	0x3e0c3c37	0.13694845
174	0xbc19b3e0	-0.009381264
175	0x3e241b6d	0.16026087
176	0xbbebd8b9	-0.007197466
177	0xbf16ec56	-0.5895437
178	0xbf292eaa	-0.6608683
179	0xbf106b09	-0.5641332
180	0xbf19f4d4	-0.60139203
181	0xbf21d697	-0.63218063
182	0xbf002d57	-0.50069183
183	0x3d5003fe	0.050785057
184	0x3e051716	0.12997088
185	0xbd8bc719	-0.06825084
186	0x3e2a2c60	0.1661849
187	0x3e39d035	0.18145831
188	0x3db06aae	0.086140975
189	0x3e16b265	0.1471649
190	0xbc4b55ad	-0.012410563
191	0xbf151191	-0.5822993
192	0xbc8ed29f	-0.017434416
193	0x3e160afc	0.14652628
194	0xbf184e6e	-0.59494674
195	0x3e5d0810	0.21585107
196	0x3e15f5fd	0.14644618
197	0xbf10825e	-0.56448925
198	0xbecc2760	-0.3987379
199	0xbeb8103f	-0.35949895
200	0xbe27618c	-0.16345805
201	0xbea3db72	-0.3200336
202	0xbe4d7b5d	-0.2006659
203	0xbaecb270	-0.001805855
204	0xbeddac4e	-0.4329552
205	0xbe8f22fb	-0.27956375
206	0x3dc5a3bc	0.096503705
207	0x3e0a05c7	0.13478766
208	0x3d00672d	0.031348396
209	0x3ed8319f	0.42225358
210	0xbd1c0ce5	-0.038098235
211	0xbe4616e1	-0.19344665
212	0xbe54e58b	-0.20790689
213	0xbdf188bb	-0.117936574
214	0xbe7df098	-0.2479881
215	0xbe8a23b8	-0.26980376
216	0xbf4426d4	-0.76621747
217	0x3ec50ea2	0.38487726
218	0x3d898424	0.06714657
219	0xbd999034	-0.07498208
220	0x3c79ab2b	0.0152385635
221	0x3caa1758	0.020763084
222	0x3d23addf	0.03996074
223	0xbc80da66	-0.01572914
224	0xbdbfff57	-0.09374874
225	0x3e71ec18	0.23625219
226	0xbd0663cd	-0.03281002
227	0xbd3799b9	-0.044824336
228	0x3e6202fa	0.22071448
229	0x3c0f72ac	0.008755367
230	0xbda8bbbd	-0.08238933
231	0xbeddfc60	-0.4335661
232	0xbee96177	-0.45582172
233	0xbe92b42a	-0.2865308
234	0xbf050a6f	-0.51969045
235	0xbed6f9d6	-0.41987485
236	0xbe479c4a	-0.19493213
237	0xbeb34ded	-0.3502039
238	0x3e603193	0.21893911
239	0x3e71ca4e	0.2361233
240	0xbea5c36f	-0.32375666
241	0x3e48cbc8	0.19608986
242	0x3dea70cc	0.114472955
243	0x3e207897	0.15671001
244	0x3ddee9fc	0.10884473
245	0xbe9ab059	-0.30212668
246	0x3dbd54f8	0.09244722
247	0x3cf36964	0.02971334
248	0xbebc6ee1	-0.36803344
249	0xbc0a2971	-0.008432732
250	0xbea494de	-0.32144827
251	0xbde07c63	-0.10961225
252	0xbeb137c6	-0.34612864
253	0xbca994ba	-0.020700801
254	0x3ea391f9	0.31947306
255	0x3e33d433	0.17561416

b0 f4 [32]
0	0x3d3fab43	0.046794187
1	0xbd878b0b	-0.06618317
2	0xbe0b3ffc	-0.13598627
3	0x3d79da4f	0.06099921
4	0xbd03df4a	-0.032195367
5	0xbe0b4df1	-0.13603951
6	0xbdf3936b	-0.11893352
7	0xbd84aebe	-0.06478642
8	0xbbdf1914	-0.0068084095
9	0x3e7da033	0.24768142
10	0x3d3f8c34	0.046764567
11	0x3e278d98	0.16362607
12	0x3ddfe5d2	0.109325066
13	0x3c3a4339	0.011368566
14	0x3cf28bc2	0.029607657
15	0x3c871997	0.016491694
16	0xbc260ab1	-0.010134385
17	0x3e273dc5	0.16332157
18	0x3e8c1779	0.27361658
19	0x3ceeea0d	0.029164338
20	0x3db472c2	0.08810951
21	0xbd98632c	-0.074407905
22	0xbe627e1d	-0.22118421
23	0xbe1c9653	-0.15291719
24	0xbcf177ea	-0.029476125
25	0x3ca5e3ef	0.020250289
26	0xbda1cc85	-0.07900337
27	0x3da2de00	0.079524994
28	0xbf0ee6a3	-0.55820674
29	0xbd76a87e	-0.06021928
30	0xbcb73a68	-0.022366717
31	0x3d3214cc	0.043476865

conv1 f4 [32, 32, 3, 3]
0	0x3cdd1ee6	0.026992273
1	0xbe03a339	-0.12855233
2	0xbdda0d04	-0.10647014
3	0x3dd3dcc8	0.10344845
4	0x3d723612	0.059133597
5	0xbdd85eb8	-0.10564941
6	0x3cc3ea5c	0.023915462
7	0x3c6cb7ba	0.014448101
8	0xbe441a99	-0.19150771
9	0xbe4ccbda	-0.19999638
10	0xbc046a91	-0.008082048
11	0x3c884c24	0.01663787
12	0xbe80866c	-0.25102556
13	0x3e788742	0.24270347
14	0x3a7be46e	0.0009608929
15	0x3a9d34fc	0.001199394
16	0x3d7fae46	0.06242206
17	0x3d123bed	0.03570168
18	0xbd3fa6c8	-0.046789914
19	0xbdefb66b	-0.11704715
20	0x3d15dc36	0.036586963
21	0x3c660539	0.014039331
22	0xbd495757	-0.04915556
23	0x3d544fa2	0.051833756
24	0xbdb2351f	-0.08701538
25	0x3e0a1eee	0.13488361
26	0x3e3a155d	0.18172212
27	0xbcdc8a6a	-0.02692147
28	0xbe0300c4	-0.12793261
29	0xbca99a1b	-0.020703366
30	0xbd23d110	-0.0399943
31	0xbd80452b	-0.06263193
32	0x3daec546	0.08533721
33	0x3cab632d	0.020921314
34	0x3e3392a1	0.17536403
35	0x3e85ec3c	0.26156795
36	0x3c632aa5	0.013865148
37	0x3d0d8cf3	0.034558248
38	0xbc099db4	-0.008399416
39	0xbc9b15a2	-0.018931214
40	0x3daf7830	0.08567846
41	0x3d1dc7e5	0.038520712
42	0x3d75111f	0.05983078
43	0xbdb60834	-0.08888283
44	0xbe1c2782	-0.15249446
45	0x3e8e0554	0.2773844
46	0x3da64288	0.081181586
47	0x3dc0c1a3	0.09411933
48	0x3e9764d4	0.29569113
49	0x3dff4683	0.12464621
50	0x3d7fb6f0	0.062430322
51	0x3e4cb388	0.1999036
52	0xbe1eefb1	-0.15521123
53	0xbdb5dbaa	-0.08879788
54	0x3dcb9792	0.09941019
55	0xbd0487a6	-0.032355927
56	0xbc8a0f0e	-0.016852882
57	0x3ea1b246	0.31581324
58	0x3e219cb2	0.15782431
59	0xbdb4eeba	-0.08834596
60	0x3e2949ae	0.16532013
61	0xbe15becb	-0.14623563
62	0xbe4edb38	-0.20200813
63	0x3df3bc91	0.119012006
64	0x3c9bca68	0.019017413
65	0x3dc1ee6a	0.09469302
66	0x3d4067fc	0.046974167
67	0xbca36a70	-0.019948214
68	0x3d434e25	0.047681946
69	0xbded0c09	-0.11574561
70	0x3d02c2f3	0.0319242
71	0x3e11fa16	0.14255556
72	0x3ccb7e8d	0.024840618
73	0x3d640078	0.05566451
74	0x3e07fd85	0.13280304
75	0xbe197cab	-0.14988963
76	0x3c5c670a	0.013452301
77	0x3dd70501	0.10499001
78	0xbd9d85bf	-0.07691526
79	0xbd02720d	-0.03184705
80	0x3d07a160	0.033112884
81	0x3d06015b	0.032716136
82	0x3ddbac0c	0.10726175
83	0x3d0bba9a	0.034113504
84	0x3db5f81e	0.08885215
85	0x3c3b5ded	0.011435968
86	0xbd52be25	-0.051450867
87	0x3c9d7a0e	0.01922324
88	0xbdf1311e	-0.117769465
89	0xbc8079b6	-0.015683036
90	0xbe55dbea	-0.20884672
91	0xbc9b9cd0	-0.018995672
92	0x3d230d61	0.03980768
93	0xbe7293b9	-0.23689164
94	0x3cf11e29	0.029433327
95	0x3d860a15	0.06544892
96	0xbcccf5ff	-0.025019644
97	0xbd5c500f	-0.053787287
98	0xbd63ccf2	-0.055615373
99	0x3d3d1ebe	0.046171896
100	0xbafbbac6	-0.0019205443
101	0xbe28242d	-0.1642005
102	0x3e1981fb	0.1499099
103	0x3a950941	0.0011370556
104	0xbe39531c	-0.1809811
105	0x3ed9936e	0.42495292
106	0xbc9adf43	-0.018905288
107	0x3d2d06f0	0.042242944
108	0x3d0bda2f	0.034143623
109	0x3d2428e6	0.040078066
110	0xbd6a8053	-0.057251286
111	0x3d39172a	0.045188107
112	0xb947ea5f	-0.00019065429
113	0x38b2c74b	8.5248226e-05
114	0x3d26f019	0.04075632
115	0x3db3bba1	0.08776022
116	0xbe00368f	-0.12520812
117	0xbd18ce05	-0.03730585
118	0x3d47a456	0.048740707
119	0x3d7aa51d	0.06119262
120	0xbd17819d	-0.036988843
121	0xbb257ea1	-0.0025252479
122	0x3ca5b78f	0.02022913
123	0xbe056493	-0.13026647
124	0xbc3de82a	-0.011590997
125	0xbb972fbf	-0.004613846
126	0xbd1b1ba0	-0.037868142
127	0x3d10dad9	0.03536496
128	0xbdfa5b1d	-0.1222441
129	0x3d84b6ed	0.06480203
130	0xbd81eb7f	-0.063437454
131	0xbc953085	-0.018211612
132	0x3d5d1453	0.05397446
133	0x3e8c8edc	0.27452743
134	0x3e5fe92f	0.21866296
135	0x3db07150	0.08615363
136	0x3df6190e	0.120164976
137	0x3cf80e52	0.030280266
138	0x3dbb9cd8	0.09160775
139	0x3e1a8620	0.15090227
140	0xbc94a560	-0.018145263
141	0xbd6cd5a7	-0.057820942
142	0xbe9e3006	-0.30896014
143	0xbe209da5	-0.15685137
144	0xbd4458c8	-0.04793623
145	0xbd5e2230	-0.054231822
146	0xbdbf3cca	-0.093377665
147	0xbdd937bb	-0.10606333
148	0xbe284546	-0.16432676
149	0xbe2b5608	-0.16732037
150	0x3c66532c	0.014057916
151	0xbe330401	-0.17481996
152	0xbdc99002	-0.098419204
153	0x3e044ebd	0.12920661
154	0x3e3e5901	0.1858864
155	0x3d9c0564	0.07618216
156	0x3b6fcf00	0.0036591887
157	0x3d7da7fd	0.061927784
158	0x3e6e465c	0.23269027
159	0xbd54088c	-0.051765963
160	0xbdd8839e	-0.10571979
161	0xbe0381ae	-0.12842438
162	0xbd799b7a	-0.06093929
163	0x3d597c14	0.053096846
164	0xbd1a25ba	-0.037633635
165	0x3d5d84c7	0.054081704
166	0xbd0f8780	-0.035041332
167	0xbd3090d2	-0.04310686
168	0x3d76f363	0.060290705
169	0x3d0a88c2	0.03382183
170	0xbcbbded9	-0.02293341
171	0xbd88e858	-0.06684941
172	0xbe1b271a	-0.15151635
173	0xbd652f16	-0.055953108
174	0x3d31ee68	0.043440253
175	0xbd3748e7	-0.04474726
176	0x3db2b20e	0.087253675
177	0x3e9028e0	0.28156185
178	0x3eb111ab	0.34583792
179	0x3ef24b29	0.47322968
180	0xbeb3f5cc	-0.35148466
181	0xbc1ffa43	-0.009764257
182	0x3add968f	0.0016905832
183	0x3cc1aad6	0.023641031
184	0x3e2b9cda	0.16759053
185	0x3d53d7f6	0.05171963
186	0x3e6292cc	0.22126311
187	0x3e3fe747	0.18740569
188	0x3e9f8ad2	0.311606
189	0x3e21bc1d	0.15794416
190	0x3d009155	0.0313886
191	0x3dc81207	0.097690634
192	0x3e392c0d	0.1808321
193	0xbc049984	-0.008093242
194	0xbd3d75e5	-0.04625501
195	0x3dc0902c	0.094024986
196	0xbd5e84a2	-0.054325707
197	0xbdd05e96	-0.10174291
198	0xbd9a9688	-0.07548243
199	0xbdb64f9b	-0.08901902
200	0xbdd6ee44	-0.10494664
201	0x3d361496	0.044453226
202	0xbe4c403f	-0.19946383
203	0xbdceca8e	-0.10097228
204	0xbe907b23	-0.28218946
205	0xbe91ed30	-0.28501272
206	0xbe6236d1	-0.22091223
207	0xbd92982a	-0.07157929
208	0xbbb6ada5	-0.0055748993
209	0xbceb659b	-0.028734973
210	0xbd95a4c3	-0.073068164
211	0xbd535739	-0.051596854
212	0x3d83317f	0.06405925
213	0x3c2b356d	0.010449749
214	0x3cb94ec0	0.022620559
215	0x3c859d32	0.016310308
216	0xbb864fed	-0.0040988834
217	0x3d76f940	0.060296297
218	0x3d45bb0c	0.048274085
219	0xbca2929c	-0.0198453
220	0xbc29a356	-0.010353884
221	0x3d075132	0.03303642
222	0xbd63f912	-0.055657454
223	0x3c649946	0.013952559
224	0xbdd4b655	-0.103863396
225	0xbe0afec5	-0.1357375
226	0xbdb95890	-0.09050095
227	0xbc3f96dd	-0.011693683
228	0xbe999e24	-0.30003464
229	0xbb991f08	-0.0046728887
230	0x3d7e762f	0.062124427
231	0xbe8cba54	-0.27485907
232	0x3dc484cd	0.09595642
233	0x3e8b49d9	0.2720478
234	0xbdd7cae5	-0.10536746
235	0xbd82c719	-0.06385631
236	0x3d92c5e6	0.071666524
237	0x3beced33	0.007230425
238	0x3df374fd	0.11887548
239	0x3e04b378	0.12959087
240	0xbcfd700c	-0.030937217
241	0xbd7b1546	-0.061299585
242	0x3dae74b4	0.08518353
243	0xbdb67a3b	-0.08910032
244	0xbc0d05ee	-0.008607371
245	0x3dcf99e9	0.10136778
246	0xbd8eb8c5	-0.06968836
247	0xbc5d6a69	-0.01351414
248	0x3d57ca5c	0.05268322
249	0xbe057f00	-0.13036728
250	0x3d910ddc	0.070827216
251	0x3dcc2b81	0.09969235
252	0xbd5467cc	-0.0518568
253	0xbb920908	-0.004456643
254	0x3d99edf2	0.075160876
255	0xbb2a3501	-0.0025971534

b1 f4 [32]
0	0x3d64d7f1	0.05587
1	0x3ddc2be0	0.10750556
2	0x3d48ff2f	0.049071487
3	0x3dec110a	0.115266874
4	0xbe62a4cb	-0.22133176
5	0xbd7f794e	-0.062371545
6	0xbeb887f1	-0.36041215
7	0x3e630c0b	0.22172563
8	0xbd2cfdae	-0.042234115
9	0x3d06ce8b	0.03291182
10	0xbc9dbfaf	-0.01925644
11	0x3d4fab2a	0.050700344
12	0x3e05cbd5	0.13066037
13	0x3e70a391	0.23499896
14	0x3ded98fa	0.116014436
15	0x3b5d7819	0.0033793508
16	0x3d596af8	0.05308053
17	0xbead5b9a	-0.3385895
18	0xbe79531a	-0.24348107
19	0x3d787094	0.060654238
20	0xbe23d1d5	-0.15998013
21	0x3dab4788	0.08363253
22	0xbded68c5	-0.11592249
23	0x3e12c4f0	0.14332938
24	0x3d9cae50	0.07650435
25	0x3db9cc4c	0.0907217
26	0x3d95641d	0.07294486
27	0xbf263468	-0.64923716
28	0x3ca87cea	0.020567376
29	0x3e1f0c16	0.15531954
30	0xbc76e793	-0.01506986
31	0xbe559654	-0.20858127

conv2 f4 [32, 32, 3, 3]
0	0x3cba4ad5	0.02274076
1	0x3d801f92	0.062560216
2	0x3d0aa037	0.0338442
3	0xbcdff75b	-0.027339628
4	0xbd241a63	-0.040064227
5	0xbcd6c4f3	-0.02621696
6	0x3b85b29b	0.0040801293
7	0xbcd67b36	-0.026181798
8	0xbd1f8011	-0.038940493
9	0xbcc98acd	-0.024602318
10	0xbaae2210	-0.0013285298
11	0xbc48c5d8	-0.012254201
12	0x3cd5e036	0.026107889
13	0xbc407b27	-0.011748112
14	0x3d9ff793	0.07810893
15	0xbdd16ef1	-0.102262385
16	0x3b82ddf2	0.003993743
17	0x3ce4347e	0.027857061
18	0x3bd644a0	0.0065389425
19	0xbb0585aa	-0.002037386
20	0x3b11e3a0	0.002226092
21	0x3d334c11	0.043773714
22	0xbd821bf7	-0.0635299
23	0x3ba8d0e5	0.0051518553
24	0x3b6eb408	0.0036423225
25	0x3ab1aa31	0.0013554749
26	0xbd296b4c	-0.041362092
27	0xbd2d0ada	-0.042246677
28	0xbd07ef06	-0.033186935
29	0xbd967054	-0.07345644
30	0xbc236299	-0.009972238
31	0x3d08e5cf	0.033422288
32	0x3d10c2fa	0.035342194
33	0xbd668f57	-0.056289043
34	0xbd715e7f	-0.05892801
35	0x3bd307a1	0.0064401184
36	0x3c2f9d18	0.010718606
37	0xbc9e977a	-0.019359339
38	0xbc1c45a5	-0.009538089
39	0x3cd8383b	0.026394
40	0xbb9ab6dc	-0.0047215056
41	0x3bd3d1ef	0.006464235
42	0x3d0c76b9	0.03429291
43	0x3cc8e53e	0.024523374
44	0x3c91e8a4	0.017811127
45	0x3be8be85	0.00710279
46	0x3ca97650	0.020686299
47	0xbb07755e	-0.0020669322
48	0x3c0e708b	0.0086938245
49	0xbd28d90e	-0.041222624
50	0xbb22048a	-0.0024721944
51	0x3d1a576a	0.03768102
52	0xbc3a5d33	-0.0113747595
53	0x3b1372a7	0.0022498758
54	0xbaa7684c	-0.0012772172
55	0x3c449995	0.011999507
56	0x3d15d890	0.036583483
57	0x3cb7dd69	0.022444444
58	0xbbd74a33	-0.0065701245
59	0x3ce18a9f	0.02753192
60	0xbcd8716f	-0.026421277
61	0x3c0b3a63	0.008497807
62	0xbb7a2216	-0.003816729
63	0xbd2f50b4	-0.042801574
64	0xbc43b7fd	-0.011945722
65	0xbcfb4dfe	-0.030676838
66	0xbdd6d19e	-0.104892
67	0xbd9fbaa2	-0.07799269
68	0xbcd0129f	-0.025399504
69	0xbd644ce6	-0.0557374
70	0xbbe62b73	-0.0070242225
71	0xba05eb77	-0.00051086344
72	0x3beecc5d	0.0072875456
73	0xbc9c9be0	-0.019117296
74	0x3c0cfeaf	0.008605643
75	0x3c39bd32	0.011336612
76	0xbc4633ca	-0.012097308
77	0xbc9fb62f	-0.019496052
78	0xbd47f1d2	-0.048814602
79	0xbced6c6c	-0.028982364
80	0xbd51d140	-0.051224947
81	0x3bfc5eec	0.0077017453
82	0x3d8fdb3d	0.07024238
83	0x3cc5a4d4	0.024126448
84	0x3bbb1e52	0.0057104016
85	0xbd43804f	-0.047729786
86	0xbcfac6a7	-0.030612303
87	0xbbef5f50	-0.0073050633
88	0xbdc0830a	-0.09399994
89	0x3c53ce79	0.012927645
90	0x3cc6d536	0.024271589
91	0x3c51d928	0.012808122
92	0x3d61fc51	0.05517227
93	0x3c58a1ee	0.013222201
94	0xbc652d33	-0.013987827
95	0xbc24c227	-0.010056055
96	0x3c5aa8e0	0.013345927
97	0xbb90632f	-0.004406355
98	0x3d09f8f5	0.03368469
99	0x3ccf1e73	0.025283074
100	0x3c98892b	0.018620094
101	0xbd6e7804	-0.058219925
102	0xbc233518	-0.009961389
103	0xbd12b4fe	-0.03581714
104	0x3c8d78de	0.017269548
105	0x3c9affe0	0.018920839
106	0xbd06113c	-0.03273128
107	0x3cb043ec	0.021516763
108	0xbcf06712	-0.029346023
109	0xbbf32e54	-0.007421294
110	0xbd32b587	-0.04363015
111	0x3d2fca2b	0.04291741
112	0xbdcbc961	-0.09950519
113	0x3c9804aa	0.018556911
114	0xbca655c6	-0.020304572
115	0xbda34d30	-0.07973707
116	0xbdafbc60	-0.085808516
117	0xbccf73f1	-0.02532384
118	0xbc8c3dfc	-0.0171194
119	0xbbcee069	-0.006313373
120	0xbce06e24	-0.02739627
121	0xbd4dc100	-0.050232887
122	0xbca9942a	-0.020700533
123	0xbd85b16b	-0.065279804
124	0xbd136c9d	-0.035992254
125	0xbd216c84	-0.03941013
126	0x3cfecf7e	0.0311048
127	0xbce8d636	-0.028422456
128	0x3d29f0ad	0.041489292
129	0x3bc1cb9f	0.005914166
130	0xbc98f5c6	-0.018671881
131	0x3c609d03	0.0137093095
132	0xbc8db94a	-0.017300267
133	0x3c96beab	0.018401464
134	0xbd3ff6b6	-0.04686614
135	0x3d3cc678	0.046087712
136	0x3c18832e	0.009308619
137	0x3d844931	0.06459273
138	0x3cb40023	0.021972721
139	0xbcb67571	-0.022272797
140	0xbb96c64e	-0.0046012765
141	0x3d4d0fad	0.050063778
142	0xbcde0b46	-0.027104985
143	0xbcbf3f65	-0.023345659
144	0x3d55185b	0.05202518
145	0xbc457895	-0.012052675
146	0xbd3db8a5	-0.04631867
147	0x3d016808	0.031593353
148	0xbc0ac0d2	-0.0084688235
149	0xbcb3d757	-0.021953268
150	0x3c9db344	0.01925052
151	0x3c7ae535	0.015313436
152	0xbc59e504	-0.0132992305
153	0x3c5d89c9	0.01352162
154	0xbcf3f12b	-0.029778084
155	0x3c710308	0.014710195
156	0x3d1720e9	0.03689662
157	0x3c671aaf	0.014105483
158	0xbc2a3bbc	-0.010390218
159	0xbb70b8d0	-0.003673125
160	0x3c8a9dbf	0.016920922
161	0x3ad29452	0.0016065931
162	0x3c92417c	0.017853491
163	0xbcaa6252	-0.020798836
164	0x3cd878e7	0.026424838
165	0x3c70059e	0.014649777
166	0x3d0d2cb7	0.03446647
167	0x3cf45ce9	0.02982946
168	0x3cb85d92	0.022505555
169	0x3c197482	0.0093661565
170	0x3d461af5	0.048365552
171	0x3d326dcf	0.043561753
172	0x3c9aa215	0.018876115
173	0xbdbe9e64	-0.09307554
174	0xbb4babab	-0.0031077664
175	0x3c943fc6	0.018096816
176	0xbd0d2620	-0.034460187
177	0x3b516f24	0.0031957114
178	0xbd275a0c	-0.04085736
179	0xbc6a80cf	-0.014312937
180	0x3c617562	0.013760896
181	0x3c29812d	0.010345739
182	0x3d245449	0.040119443
183	0x3d19dcf4	0.037564233
184	0xbc49de17	-0.012321017
185	0x3c1f7ae0	0.0097338855
186	0xbc8d80bf	-0.017273305
187	0x3cfa71bf	0.030571816
188	0x3d7516ae	0.059836082
189	0x3bfbed0e	0.007688171
190	0xbd2d1471	-0.042255823
191	0x3b99aac7	0.0046895477
192	0x3b04d2f4	0.002026734
193	0x3caa4a6f	0.020787446
194	0xbcfd3a6d	-0.030911649
195	0xbda6c54a	-0.08143099
196	0xbcc86d23	-0.024466103
197	0xbbf6bf0f	-0.0075301
198	0xbb56b81a	-0.0032763542
199	0xbc4d638e	-0.012535943
200	0xbc0089e1	-0.007845373
201	0xba5b80c3	-0.0008373374
202	0x3c451105	0.012027984
203	0x3cd381a1	0.025818648
204	0x3d4a7afc	0.049433693
205	0x3c398957	0.011324248
206	0x3d444121	0.047913674
207	0xbd1154fb	-0.035481434
208	0x3adece7b	0.0016998792
209	0xbcf4d0e0	-0.029884756
210	0x3ced32c1	0.028954865
211	0x3c99dc6d	0.018781865
212	0xbd89fa76	-0.06737225
213	0x3bfd9f8b	0.0077399663
214	0xba3bd72b	-0.00071655464
215	0x3c853081	0.01625848
216	0x3cd70c9f	0.026251135
217	0x3cf64d81	0.030066254
218	0x3cf0ad41	0.029379489
219	0xbd0e55a3	-0.03474964
220	0xbc6980aa	-0.014251867
221	0x3c5f50d6	0.013630113
222	0x3ce84340	0.02835238
223	0xbc4511a1	-0.012028129
224	0xbbbbcfe1	-0.005731568
225	0xbc350de2	-0.011050673
226	0xbd3b2038	-0.045685023
227	0xbd8ee396	-0.06977002
228	0x3bb75210	0.0055944994
229	0xbdb84e31	-0.08999289
230	0xbc4dbd2d	-0.01255731
231	0xbda71b2f	-0.08159482
232	0xbdb57c04	-0.08861545
233	0xbc0eddd8	-0.008719884
234	0x3cc823f6	0.02443121
235	0x3beb118b	0.007173722
236	0xbd11e5af	-0.035619434
237	0xbca5b829	-0.020229416
238	0xbd1f1bc0	-0.038844824
239	0x3d899274	0.06717387
240	0x3cdba262	0.026810829
241	0x3b9301cd	0.0044862987
242	0x3d77feea	0.06054584
243	0xbc1216d5	-0.008916576
244	0xbcb48c7d	-0.022039646
245	0xbcc96379	-0.024583565
246	0x3d29a46a	0.041416563
247	0xbc5f5c5b	-0.013632859
248	0xbc58effb	-0.01324081
249	0xbcd0d806	-0.025493633
250	0x3cf64b7e	0.030065294
251	0x3cc7ea03	0.024403578
252	0xbc86e5df	-0.016467033
253	0xba9ac120	-0.0011806823
254	0x3c178fa8	0.009250559
255	0xbcb9cb58	-0.02267997

b2 f4 [32]
0	0xbcd37b1a	-0.025815535
1	0x3eb727c7	0.35772535
2	0x3dd11ef3	0.10210981
3	0xbdbd611e	-0.09247039
4	0x3ebf38bb	0.3734797
5	0x3deec0d8	0.11657876
6	0x3d59c6a9	0.053167973
7	0x3e8a3e09	0.27000454
8	0xbe23f042	-0.1600962
9	0x3f58ba27	0.84659046
10	0x3eb4f277	0.35341236
11	0x3e41e6cc	0.18935698
12	0x3e530f05	0.20611198
13	0xbde0b88a	-0.10972698
14	0x3de8ad56	0.11361186
15	0xbd866eae	-0.06564079
16	0x3f1abb7c	0.6044233
17	0xbd88043c	-0.06641433
18	0x3dd5745c	0.104225844
19	0x3ea49690	0.3214612
20	0xbd8bcb00	-0.068258286
21	0x3e80aa7f	0.25130078
22	0xbe8e46f8	-0.2778852
23	0xbcc0d00e	-0.023536708
24	0x3ec0bf61	0.3764601
25	0xbe007fb6	-0.12548718
26	0x3d816734	0.063185126
27	0x3e3dc44d	0.18531914
28	0x3d020fe7	0.031753447
29	0x3e24053a	0.16017619
30	0xbda6605b	-0.08123847
31	0xbe1f9ac5	-0.15586384

conv3 f4 [32, 32, 3, 3]
0	0xbe02336d	-0.1271493
1	0xbd0550ed	-0.03254788
2	0xbe1ebc16	-0.15501437
3	0xbc7ce9d5	-0.015436609
4	0x3d5aa3ca	0.053378858
5	0x3c5ff310	0.01366879
6	0xbe2d9aa7	-0.16953526
7	0xbd6c05a7	-0.057622578
8	0xbe04e19f	-0.12976693
9	0x3de8e19a	0.11371155
10	0x3dae7c83	0.085198425
11	0x3dff7275	0.12473003
12	0x3d3fde3c	0.0468428
13	0xbda4bb97	-0.080435924
14	0x3d61cf04	0.055129066
15	0x3e5328cd	0.20621033
16	0x3dc7a301	0.097478874
17	0x3e228865	0.15872343
18	0xbd2721c4	-0.040803686
19	0xbd95c3da	-0.07312746
20	0xbdb87cf1	-0.09008206
21	0xbc29336c	-0.010327201
22	0xbd65bc86	-0.056087993
23	0xbd235890	-0.03987938
24	0x3d003f65	0.031310458
25	0x3d036275	0.032076318
26	0x3c7d319a	0.01545372
27	0x3d2ca397	0.0421482
28	0x3d658561	0.056035403
29	0x3b8ba1ba	0.0042612227
30	0x3c988a4e	0.018620636
31	0x3d612bbf	0.05497336
32	0x3d0af4ee	0.03392499
33	0x3c69faae	0.014280958
34	0x3cff3058	0.031150982
35	0xbc31f191	-0.010860817
36	0xbdf2acd1	-0.11849368
37	0x3c8b2888	0.0169871
38	0xbda14b63	-0.07875707
39	0xbc52880c	-0.012849819
40	0x3d8e521a	0.069492534
41	0xbd0b75a9	-0.034047756
42	0xbdf74124	-0.120729715
43	0xbda6c5da	-0.08143206
44	0xbdf5eb68	-0.12007791
45	0x3ead5e84	0.33861172
46	0x3e38d34f	0.18049358
47	0x3e9917e0	0.29901028
48	0x3e8bfa69	0.27339485
49	0x3dd4a84c	0.103836626
50	0x3e1d1947	0.15341674
51	0x3e8c9501	0.2745743
52	0x3e79ce4a	0.243951
53	0x3ebdb4e0	0.3705206
54	0xbd335d3b	-0.043790083
55	0xbcdd2fd7	-0.02700035
56	0xbd98e3db	-0.07465335
57	0xbc4989b4	-0.012300897
58	0x3c689678	0.014196031
59	0xbe0097e7	-0.12557946
60	0xbc784ae5	-0.015154575
61	0xbd3c25f7	-0.045934644
62	0xbdf99a90	-0.121876836
63	0x3e288b75	0.16459449
64	0x3e1fe76d	0.15615626
65	0x3e3451b8	0.17609298
66	0x3e4a86e5	0.1977802
67	0x3d8c210b	0.0684224
68	0x3e5e5006	0.21710214
69	0x3e46f99b	0.19431154
70	0x3db682e2	0.08911683
71	0x3e28abcd	0.16471787
72	0xbdb659f3	-0.08903875
73	0xbc9e9be6	-0.019361448
74	0x3d090733	0.03345413
75	0xbd9b3d51	-0.075800546
76	0xbde2e35f	-0.11078524
77	0xbd44c321	-0.048037652
78	0xbdf5ca61	-0.12001491
79	0xbc164e6a	-0.009173969
80	0x3a8d8b88	0.001079903
81	0x3e19f3e6	0.15034446
82	0x3d914d35	0.07094804
83	0x3e66ea55	0.22550328
84	0x3dbb6aca	0.09151228
85	0x3c1a9f22	0.009437354
86	0x3dd9d3a4	0.1063607
87	0x3e38b794	0.1803878
88	0x3df6639b	0.12030717
89	0x3e838bce	0.256926
90	0xbdd17f20	-0.10229325
91	0xbda9685f	-0.0827186
92	0xbdb8d7ba	-0.090255216
93	0xbdc60ad2	-0.096700326
94	0x3cc13a4d	0.02358737
95	0xbd6a8195	-0.057252485
96	0xbdedbf91	-0.11608804
97	0xbdc42ff9	-0.095794626
98	0xbdf54d26	-0.119776055
99	0x3cb798d7	0.022411747
100	0x3d47e876	0.048805676
101	0xbdbac774	-0.09120074
102	0x3d488cf0	0.048962533
103	0xbd9d5cb7	-0.076836996
104	0xbdb5dcc3	-0.088799976
105	0x3cac0a1b	0.021000912
106	0xbcf85891	-0.03031567
107	0xbdcc1fdd	-0.09967015
108	0xbd0afb2e	-0.03393095
109	0xbda19810	-0.07890332
110	0x3a898c5e	0.0010494103
111	0xbd0c9ea1	-0.034330968
112	0x3a6d566b	0.000905371
113	0xbdb16945	-0.08662657
114	0xbd6fc885	-0.05854084
115	0xbde16111	-0.11004842
116	0xbd3c89fd	-0.046030033
117	0xbe109248	-0.14118302
118	0x3b25e205	0.002531172
119	0xbd5b67fc	-0.053565964
120	0xbda9fb63	-0.08299901
121	0xbc54a888	-0.012979634
122	0xbce23c20	-0.02761656
123	0xbe0810b3	-0.1328762
124	0xbdae70ca	-0.085176066
125	0xbd53f7da	-0.05175004
126	0x3e27b615	0.16378053
127	0x3dedeb7a	0.11617179
128	0x3e22ef32	0.15911558
129	0x3dcdf9d6	0.10057418
130	0x3d37a2f9	0.044833157
131	0x3d9494ae	0.07254921
132	0x3e13e375	0.14442237
133	0x3e09c0ba	0.13452426
134	0x3e3d040a	0.18458572
135	0x3de96bdd	0.113975264
136	0x3dc03150	0.093844056
137	0x3e0d7663	0.13814692
138	0x3d2f342a	0.042774357
139	0x3d872411	0.06598676
140	0x3dc57614	0.09641662
141	0x3e06aca5	0.13151796
142	0x3d490fa3	0.049087178
143	0x3cf1044a	0.02942099
144	0xbd4bb639	-0.049734328
145	0xbc42e276	-0.011894813
146	0xbd97c995	-0.074114956
147	0x3c26bc3e	0.010176716
148	0x3ce3110f	0.027718095
149	0xbd0e200e	-0.03469854
150	0xbd9d57f8	-0.07682794
151	0xbb37494e	-0.0027967277
152	0xbdaed142	-0.085360065
153	0x3df87304	0.121313125
154	0x3da1ffd6	0.07910125
155	0xbd593da2	-0.053037293
156	0xbc530bd1	-0.012881235
157	0x3cecc1c5	0.02890099
158	0x3d073bd5	0.033016045
159	0x3dda2f76	0.10653584
160	0xbc143e7c	-0.009048101
161	0xbd790a0b	-0.060800593
162	0xbd0f736b	-0.03502218
163	0xbcb819f8	-0.02247332
164	0xbbf9d5a6	-0.007624346
165	0x3cfae112	0.0306249
166	0x3c21a6dd	0.009866443
167	0x3cff1cc9	0.031141656
168	0xbdaac276	-0.08337872
169	0x3ba2d76c	0.004969528
170	0x3d15f84b	0.036613744
171	0xbc1fec77	-0.009760967
172	0xbd4cee95	-0.050032217
173	0xbc582273	-0.013191807
174	0xbc2b0a1f	-0.010439425
175	0x3bb8412b	0.005623003
176	0xbd1674f3	-0.036732625
177	0xbd750bc9	-0.059825692
178	0x38529e13	5.021512e-05
179	0xbdc89558	-0.0979411
180	0xbde7226b	-0.112858616
181	0xbbd9b927	-0.0066443863
182	0xbde1aa4c	-0.1101881
183	0xbd345f28	-0.04403606
184	0x3b6337d2	0.0034670723
185	0x3c5db294	0.013531346
186	0x3bb4aa95	0.005513499
187	0x3d735c73	0.05941434
188	0x3d4e17da	0.050315715
189	0x3da83133	0.08212509
190	0x3d1dfc9d	0.03857099
191	0x3d542a29	0.05179802
192	0x3cf28e82	0.029608969
193	0x3b7278f0	0.0036998354
194	0x3d896d47	0.06710296
195	0x3da40121	0.08008028
196	0x3d5da7c0	0.054115057
197	0x3d16b608	0.036794692
198	0x3d80657b	0.06269356
199	0xbb00bc0c	-0.0019643335
200	0x3d14d027	0.036331322
201	0x3cfe0571	0.031008454
202	0x3d18a844	0.037269846
203	0x3d089b9b	0.033351522
204	0x3cec003b	0.028808704
205	0x3cafadfc	0.021445267
206	0xbb200811	-0.002441887
207	0x3be27371	0.0069107343
208	0xbd082efc	-0.033247933
209	0x3c594178	0.013260238
210	0x3d88e9ea	0.066852406
211	0x3cee7ae9	0.029111343
212	0xbc572551	-0.0131314555
213	0xbc9992ae	-0.0187467
214	0x3c300ed5	0.010745724
215	0x3d594ba0	0.053050637
216	0x3cf91ba7	0.030408693
217	0xbd2057dd	-0.039146293
218	0xbd4a1779	-0.04933879
219	0xbd23d37f	-0.03999662
220	0x3ceca4fc	0.028887264
221	0xbcb982be	-0.02264535
222	0xbd089bf2	-0.033351846
223	0xbd8ec05a	-0.06970282
224	0xbcd34b98	-0.025792882
225	0xbd447b1e	-0.047968976
226	0xbcf826a7	-0.030291868
227	0x3a581d39	0.00082441006
228	0x3c96916a	0.018379886
229	0x3c4344c4	0.0119182505
230	0x3db0b119	0.08627529
231	0x3ce6c324	0.028169222
232	0x3e1dd015	0.15411408
233	0x3d9755c2	0.07389404
234	0x3ac36a0e	0.0014908926
235	0x3c88abca	0.016683478
236	0xbd64611a	-0.055756666
237	0xbe072ec8	-0.1320144
238	0xbda5cba6	-0.080954835
239	0xbd59a541	-0.053136114
240	0x3cb05bfd	0.021528238
241	0xbde299d1	-0.110644944
242	0xbd73ad16	-0.05949124
243	0xbd8c4ff3	-0.068511866
244	0xbd9f8289	-0.077885695
245	0xbe10e0cf	-0.14148258
246	0xbde52ffe	-0.111907944
247	0x3ccc8330	0.024964899
248	0xbd9b1861	-0.07573009
249	0xbe0ea7a4	-0.13931137
250	0xbdf8135c	-0.121130675
251	0xbe5e8996	-0.21732172
252	0xbd831626	-0.06400709
253	0xbd385f40	-0.045012712
254	0xbba461f7	-0.005016561
255	0x3bf991cf	0.0076162587

b3 f4 [32]
0	0xbf2ca6eb	-0.67442197
1	0x3d488426	0.04895415
2	0x3f1050c9	0.5637327
3	0x3f8e990d	1.1140457
4	0x3ebe3f81	0.37157825
5	0x3f83cb44	1.0296407
6	0x3f8c9ed0	1.0985966
7	0x3dc28ba8	0.094992936
8	0x3e3c02b7	0.1836041
9	0xbf477f17	-0.779283
10	0x3f092fca	0.53588545
11	0x3ac421a0	0.0014963634
12	0xbf608572	-0.8770362
13	0xbe52b172	-0.20575503
14	0x3eeff042	0.4686299
15	0x3e0317e2	0.1280208
16	0x3fb52018	1.4150419
17	0xbec31c1b	-0.3810738
18	0x3f7599bf	0.9593772
19	0x3ebe81a7	0.37208292
20	0xbf72dd14	-0.9486859
21	0x3ea7e7d9	0.32794073
22	0x3b56f564	0.0032800073
23	0xbd420456	-0.047367416
24	0xbf23eb99	-0.6403137
25	0xbe116d47	-0.14201842
26	0x3cc2acad	0.023763979
27	0xbf80254c	-1.0011382
28	0x3d1a01a2	0.037599213
29	0x3f7c56b2	0.98569787
30	0x3efcb471	0.49356416
31	0xbf2d9160	-0.6779995

w4 f4 [5, 32]
0	0xbfa949a5	-1.32256
1	0xc00b5092	-2.1767926
2	0x400c1a5f	2.1891096
3	0x3e37e57b	0.17958634
4	0xbdd8b82a	-0.105820015
5	0x3fe2c7ea	1.7717259
6	0x401f9ada	2.4938264
7	0xc0446a3e	-3.0689845
8	0x3edd2318	0.43190837
9	0xbebf6fc6	-0.37389964
10	0x40377674	2.8666048
11	0xc00bec87	-2.1863115
12	0xbfb288a6	-1.3947952
13	0xc00d4de4	-2.207879
14	0x400f7718	2.241644
15	0xbfc8bbe2	-1.5682337
16	0x403bffd6	2.93749
17	0xbfd62402	-1.6729739
18	0x3fb3bc2d	1.4041802
19	0x3fc57fe4	1.5429654
20	0xbfb4b6fe	-1.4118345
21	0xbfa0dae3	-1.2566799
22	0xc002eea6	-2.045816
23	0xbfa000cc	-1.2500243
24	0xbfa65282	-1.2993929
25	0x3e917f56	0.28417462
26	0xbfb3fde6	-1.4061859
27	0xbf8c058f	-1.0939196
28	0xbfe9adeb	-1.82562
29	0x400a8775	2.1645176
30	0x3fd00937	1.6252812
31	0xbfd9292e	-1.6965692
32	0xbfc9d6c1	-1.5768663
33	0x4023d4c8	2.5598621
34	0xc0090deb	-2.1414745
35	0xbfb1db9e	-1.3895147
36	0xc01cbd5d	-2.4490578
37	0xbfb13705	-1.3844916
38	0x3e32eed2	0.17473915
39	0x3fa2a17a	1.2705529
40	0x3f4f75a2	0.8103887
41	0xbfc204dc	-1.5157733
42	0xc02c9125	-2.696359
43	0xbfd89b67	-1.6922425
44	0xbf8ec014	-1.1152368
45	0xbf8e0490	-1.1095142
46	0xbfef3bb7	-1.8690099
47	0x4034b1b5	2.8233464
48	0xbe2648e1	-0.16238739
49	0x402ab8d9	2.6675322
50	0x3ff26a52	1.8938696
51	0xc05aaace	-3.416675
52	0xbfb893c0	-1.442009
53	0x403b7745	2.9291546
54	0xbfa815b1	-1.313162
55	0x3e0f6e61	0.1400695
56	0x4032bad5	2.7926533
57	0xbf386997	-0.7203612
58	0x3f6a7a0d	0.91592485
59	0xbeb0768c	-0.34465444
60	0xbffb7f87	-1.9648293
61	0x3f905c48	1.1278162
62	0x3f3c2a59	0.7350212
63	0x3eaffafe	0.3437118
64	0x40279788	2.6186237
65	0x3f4d11f8	0.80105543
66	0xbf253d60	-0.64546776
67	0xbfc0a25a	-1.5049546
68	0x3f9539f8	1.1658316
69	0xbff0f1c0	-1.8823776
70	0xbfb69086	-1.4262855
71	0xbfec0bfc	-1.8441157
72	0xc0002227	-2.0020845
73	0x40476ce5	3.1160214
74	0xbf58cc60	-0.8468685
75	0xbdd605da	-0.10450335
76	0x3f648bba	0.89275706
77	0x4007752d	2.1165268
78	0x3ff1a89e	1.8879583
79	0xbfc597d9	-1.5436965
80	0xbfa93ef9	-1.3222343
81	0xbfb12c61	-1.3841668
82	0x3f86426a	1.0489018
83	0xbf9138a9	-1.1345416
84	0xbfacc0ee	-1.3496377
85	0xbf63af5b	-0.88939446
86	0x4030fb42	2.7653356
87	0x403639d6	2.84728
88	0xbfb97aec	-1.4490638
89	0xbf91d7e8	-1.1394014
90	0xbfa361a0	-1.2764168
91	0x4049c1dd	3.1524575
92	0xbfccea1a	-1.6008942
93	0xbfe17b35	-1.7615725
94	0xc0232e68	-2.5497074
95	0xc010e0a1	-2.2637103
96	0x3fbb1823	1.4616741
97	0xbf8a6491	-1.081194
98	0x3fd90b8d	1.695665
99	0xbfd80268	-1.6875734
100	0xbfff7bb5	-1.9959627
101	0xbfc6ba1b	-1.5525545
102	0xbf73ffd6	-0.9531225
103	0x3fd2597f	1.6433562
104	0x401b9132	2.430737
105	0xbf537a4e	-0.826085
106	0xbf8bf5e7	-1.0934418
107	0x402d8b22	2.711617
108	0x402a2fed	2.6591752
109	0xbffa2ab1	-1.9544278
110	0xbfb81c4a	-1.4383633
111	0xbfe43add	-1.7830464
112	0xbffc7e6d	-1.9726082
113	0x3f847480	1.0348053
114	0xc024cba8	-2.5749302
115	0x3f99247a	1.1964257
116	0x40256a18	2.5846004
117	0xbfb4616b	-1.409223
118	0xbf5be5a7	-0.85897297
119	0xbfe903bd	-1.8204266
120	0xbf9a42e5	-1.2051665
121	0x4040ea16	3.0142875
122	0xbfea00aa	-1.8281453
123	0xbeec1643	-0.46110734
124	0x3fd073cb	1.6285337
125	0xbfe95c14	-1.8231225
126	0x3f841a0d	1.032045
127	0xbf93ecd9	-1.1556655
128	0xbfc520dc	-1.5400653
129	0xbf490bcd	-0.7853363
130	0xbff07426	-1.8785446
131	0x40414776	3.0199866
132	0x401c6269	2.4435065
133	0x4012c28f	2.293125
134	0xbfc71b69	-1.555524
135	0x3fc6b157	1.552287
136	0xbfb636de	-1.4235494
137	0xbfb849fc	-1.4397578
138	0xbee52068	-0.44751287
139	0xbe30e2dc	-0.1727404
140	0xbff5e92e	-1.9211786
141	0x3fd66a29	1.6751148
142	0xbfa9a9d6	-1.3254955
143	0xbef8a47c	-0.48562992
144	0xbf42ca62	-0.7609006
145	0xbfbd0030	-1.4765682
146	0xbf3d41a8	-0.7392831
147	0x3fcfcaa4	1.6233716
148	0x3e814f63	0.2525588
149	0xbf38a269	-0.7212282
150	0x3f2dc6ee	0.6788167
151	0xbfe178d7	-1.7615002
152	0xbfc16ff1	-1.5112287
153	0xbfbfda20	-1.4988441
154	0x40227b55	2.5387776
155	0xbfe6a15a	-1.801799
156	0x4018ec79	2.3894331
157	0xbf70122d	-0.93777734
158	0xbf919717	-1.1374234
159	0x40281ac8	2.6266346

b4 f4 [5]
0	0x3e441337	0.19147955
1	0x3b741865	0.0037245986
2	0xbdc05877	-0.09391873
3	0xbd4eb001	-0.05046082
4	0xbe1727f6	-0.14761338

exp_avg f4 [32, 1, 3, 3]
0	0x39f97ab8	0.00047584414
1	0x39ccc823	0.00039059026
2	0xb9df1a04	-0.00042553258
3	0xba0f1464	-0.00054580555
4	0x39c1257a	0.0003683975
5	0xbaa6405c	-0.0012683976
6	0x39746834	0.00023308472
7	0xba80a027	-0.0009813354
8	0xb8e19ce5	-0.0001075806
9	0x3ad8a82b	0.001652961
10	0x3aafac1b	0.0013402732
11	0x3b5a1670	0.0033277534
12	0x3ae7037d	0.0017624941
13	0x3a76bdcc	0.0009412437
14	0x3aa27b97	0.0012396452
15	0x3b3fd693	0.0029272183
16	0xba3093fc	-0.00067359186
17	0xba80b53c	-0.0009819637
18	0xbadcc7e4	-0.001684424
19	0xb9a7ab62	-0.00031980412
20	0xba2bdd08	-0.00065560685
21	0xbaa18032	-0.001232153
22	0xbb19e61b	-0.00234831
23	0xbb01f024	-0.0019826973
24	0x396c8adc	0.00022558443
25	0xbac33c2c	-0.0014895252
26	0x39db63d7	0.00041845322
27	0x3ab2eb2f	0.0013650412
28	0x3b16722b	0.0022956233
29	0x3a834df5	0.001001774
30	0x3997a811	0.00028926184
31	0x3a9230a1	0.0011153409
32	0x3abd1a34	0.0014427365
33	0xb9b62a11	-0.00034745087
34	0xb9f91d05	-0.00047514602
35	0x3823592a	3.894527e-05
36	0xbb1103c3	-0.0022127486
37	0x3a23434d	0.0006227985
38	0x3aeaa3af	0.0017901565
39	0xb7886ec7	-1.6264048e-05
40	0x3aedd8c0	0.0018146262
41	0x3b91ee97	0.004453491
42	0x3af801af	0.00189214
43	0x3b23bd58	0.0024984684
44	0x3bb65685	0.005564513
45	0x3a9bc5c3	0.0011884499
46	0xb78e234a	-1.6944152e-05
47	0x3b857b6a	0.00407355
48	0x3aa539ba	0.0012605705
49	0x392174c4	0.00015397655
50	0x3b610191	0.003433321
51	0x3a4b5d5f	0.0007757749
52	0x3ada878d	0.0016672477
53	0x3b9670e8	0.004591096
54	0xbb058187	-0.0020371394
55	0xbb1c9979	-0.0023895188
56	0xbaec0b07	-0.0018008657
57	0xbbc08e46	-0.0058763353
58	0xbb274121	-0.0025520998
59	0xbb101d21	-0.0021990018
60	0xbc2fa22e	-0.010719819
61	0xbbffcb36	-0.007806207
62	0xbbcb8117	-0.006210457
63	0x3a56e945	0.0008198212
64	0xba82d6a9	-0.0009982187
65	0xba14e984	-0.00056805485
66	0x392d909b	0.00016552435
67	0xba398c05	-0.00070780545
68	0xba0bef0a	-0.0005338049
69	0x3b077fba	0.0020675496
70	0x3acfbb2d	0.0015848629
71	0x38b8dbb3	8.814726e-05
72	0x3af33a45	0.0018556794
73	0x3abbc4af	0.0014325584
74	0x3a92a792	0.0011188856
75	0x3b322563	0.0027182929
76	0xb63b98ef	-2.795419e-06
77	0xb9e856ab	-0.0004431506
78	0x3b92cfed	0.004480353
79	0xb907f9fd	-0.00012967731
80	0xb8a8ba43	-8.045558e-05
81	0x3ac40063	0.0014953729
82	0x3ab23713	0.0013596736
83	0xb9d396ea	-0.00040357496
84	0xb9f22dfb	-0.00046192095
85	0x38ded637	0.000106256855
86	0xb9af045c	-0.0003338185
87	0xbab06009	-0.0013456355
88	0xb953f7e6	-0.00020214877
89	0x3a148976	0.0005666235
90	0x3bc968fd	0.006146549
91	0x3b94d0ea	0.004541506
92	0x3aabf131	0.0013118145
93	0x3bc77488	0.0060868897
94	0x3b6b03b4	0.0035860362
95	0x3992fa9f	0.00028034017
96	0x3bc774ad	0.006086907
97	0x3af10dbb	0.0018390933
98	0xba4cca6f	-0.00078121474
99	0x3a9f3c92	0.0012148789
100	0x3ada1393	0.0016637914
101	0x3b490744	0.0030674497
102	0x3850dc49	4.979622e-05
103	0xbaa17369	-0.001231772
104	0x3b07a544	0.0020697871
105	0xb99bfd26	-0.00029752514
106	0x3a501888	0.0007938226
107	0x3b52963c	0.0032133004
108	0xbb04bbab	-0.002025346
109	0xb963e615	-0.00021734119
110	0xba971270	-0.001152588
111	0x3ac7a13b	0.0015230546
112	0x3b18b058	0.0023298468
113	0xb424622a	-1.5309402e-07
114	0xb9e21619	-0.00043122543
115	0xba7a2cb2	-0.0009543403
116	0xbb7a7cf1	-0.0038221444
117	0x3b5c86cc	0.003364968
118	0x3b205952	0.0024467302
119	0xbab4509b	-0.0013756932
120	0x3c021bb5	0.007941176
121	0x3bb4aa14	0.005513439
122	0xbad381d0	-0.001613671
123	0x3abfd337	0.001463509
124	0x3b2e7d38	0.002662493
125	0xb9a23529	-0.00030938655
126	0x3a907e78	0.0011024019
127	0x3a9969de	0.0011704525
128	0x3a481b18	0.0007633432
129	0x39972c9f	0.0002883421
130	0x39bfec1f	0.00036606283
131	0x38c8f678	9.5826515e-05
132	0x3a87bf67	0.0010356725
133	0x3b200b69	0.0024420863
134	0x3b22fb1f	0.0024868918
135	0x3ba04288	0.0048907436
136	0x3b69a656	0.0035652122
137	0x3a7b13aa	0.00095778203
138	0xb8eb3bf9	-0.00011216844
139	0x3a1c09e7	0.00059524033
140	0xb7665150	-1.3728e-05
141	0x3ae9286a	0.0017788534
142	0x3b1847f3	0.0023236244
143	0x3b6aa738	0.0035805237
144	0xba99c0e1	-0.0011730456
145	0x3b0574a6	0.0020363717
146	0x3b2b588f	0.0026145314
147	0xba80b1b1	-0.0009818581
148	0x395bba75	0.00020954928
149	0x3b043d12	0.0020178002
150	0x38fbdd0d	0.000120097866
151	0x3b134c05	0.002247573
152	0x3b46d26c	0.0030337824
153	0x3a40ede7	0.0007359669
154	0x3ac5d423	0.0015093129
155	0x3b40348c	0.0029328195
156	0x3aba8dd3	0.0014232941
157	0x3a630a14	0.00086608646
158	0x3b742b65	0.003725731
159	0x3aeb86e0	0.0017969273
160	0x3ae327b6	0.001733056
161	0x3b64f22f	0.0034934392
162	0xba8c1be0	-0.001068946
163	0x39ab25d0	0.00032643834
164	0x3a2c0b12	0.0006562929
165	0x39872ece	0.0002578408
166	0xb9cd8b2a	-0.00039204332
167	0xb93a9a32	-0.00017795785
168	0xbacbc355	-0.0015545884
169	0xbb1fa0f1	-0.0024357403
170	0xbaad3d66	-0.0013217151
171	0xbb12535d	-0.002232752
172	0xbb5c7142	-0.0033636843
173	0xbb405d74	-0.0029352577
174	0x3afb4244	0.0019169529
175	0xba0dba2a	-0.0005406464
176	0xba742658	-0.0009313575
177	0x3813caaa	3.5236277e-05
178	0xba63ba89	-0.00086871587
179	0xb9af07a5	-0.00033384297
180	0xb9c93be7	-0.00038382338
181	0xba4c1d00	-0.0007786304
182	0x3ad6476d	0.0016348191
183	0xbb7c56f6	-0.0038503981
184	0xba67fa24	-0.00088492245
185	0x3b97bfa7	0.004631001
186	0xbb5728f8	-0.0032830816
187	0xb8c2ffc9	-9.2982846e-05
188	0x3b7859b8	0.0037895273
189	0x3b6548fa	0.0034986124
190	0x3b136279	0.0022489114
191	0x3aa93b57	0.0012911361
192	0x3b0d9ee0	0.002160959
193	0x384f36d2	4.94037e-05
194	0x3a4cb8bf	0.0007809512
195	0x3b4378a7	0.0029826553
196	0xba86e7eb	-0.0010292506
197	0x3a28c40c	0.00064379047
198	0x388ed394	6.810497e-05
199	0x370d7ff3	8.434045e-06
200	0x38f50511	0.00011683454
201	0x38bb1aa5	8.921818e-05
202	0x38e330e1	0.00010833308
203	0xb9cf1c8f	-0.00039503395
204	0xb787f50b	-1.6207361e-05
205	0xb9a05414	-0.0003058022
206	0xbac32db3	-0.0014890939
207	0x3abf1022	0.0014576952
208	0xbb237dbf	-0.0024946777
209	0xbb1c444f	-0.0023844426
210	0x3b6e3e5c	0.0036353087
211	0xbac45733	-0.0014979601
212	0xbb10db59	-0.0022103398
213	0x3b86c1d7	0.004112463
214	0xbab55a77	-0.0013836165
215	0xb9c4e541	-0.0003755484
216	0xb7f6d3da	-2.9424136e-05
217	0xba1158e3	-0.0005544556
218	0xbb023754	-0.0019869404
219	0xbae89b12	-0.001774641
220	0xbafd0167	-0.0019302786
221	0xba7072ed	-0.0009172399
222	0xbb5e8716	-0.003395503
223	0x39ec098d	0.00045020544
224	0x3a73c1bb	0.00092985824
225	0xbb121006	-0.0022287383
226	0xbb1e2a40	-0.002413407
227	0xbac27bc9	-0.0014837916
228	0xbb3f4540	-0.0029185563
229	0xba2af253	-0.00065210945
230	0x3684e6e4	3.9607858e-06
231	0xbb275b70	-0.0025536679
232	0xb9a57088	-0.00031555095
233	0x3a5cdcd8	0.0008425242
234	0xb9b0a50c	-0.00033692305
235	0x3a82639a	0.0009947896
236	0xba4bc84b	-0.00077736814
237	0xba75758b	-0.00093635236
238	0xba02d6b1	-0.0004991098
239	0xbb352c60	-0.0027644858
240	0xbb862db8	-0.0040948056
241	0xbb8209b3	-0.0039684414
242	0xbb5a6f5b	-0.0033330533
243	0x3b551e00	0.0032519102
244	0x3b3361de	0.0027371566
245	0x3ad89021	0.0016522446
246	0x3a6119ff	0.00085869426
247	0x3a329990	0.0006813044
248	0x38f8d61b	0.00011865442
249	0x3af9b751	0.0019051825
250	0x3a84bf67	0.0010127843
251	0xb9d0959a	-0.00039784313
252	0x3abf359e	0.0014588123
253	0x3b0c90be	0.0021448578
254	0x3900aa38	0.00012270443
255	0x38a64778	7.928809e-05

exp_avg_sq f4 [32, 1, 3, 3]
0	0x3980c0a4	0.0002455759
1	0x3960b79f	0.00021430709
2	0x39abc61d	0.00032763268
3	0x39e38388	0.00043394812
4	0x39beee74	0.00036417285
5	0x38e3efc7	0.000108688655
6	0x3a554d0b	0.00081367855
7	0x3a0accf3	0.0005294822
8	0x39069877	0.00012836033
9	0x391784de	0.00014449979
10	0x394394eb	0.00018652125
11	0x398d54ff	0.00026956943
12	0x390d9297	0.00013501417
13	0x39d341b7	0.00040294018
14	0x3a054689	0.0005084058
15	0x3a1b8c20	0.0005933661
16	0x3a40c30c	0.0007353283
17	0x3a089a3c	0.0005210971
18	0x3939492c	0.00017670234
19	0x384ad3be	4.8357753e-05
20	0x3913b149	0.00014085056
21	0x3887dc12	6.478293e-05
22	0x391fc306	0.00015236074
23	0x39a3c5ce	0.0003123716
24	0x39aeed80	0.00033364818
25	0x3a28bdd1	0.0006436976
26	0x3a37e719	0.0007015332
27	0x39fe668e	0.00048523064
28	0x394cf861	0.00019547484
29	0x3800858d	3.0641957e-05
30	0x3a2fa510	0.00067003164
31	0x3937d1e4	0.0001753043
32	0x37574f8f	1.2833522e-05
33	0x37d3af19	2.5234696e-05
34	0x37810345	1.537952e-05
35	0x3712189d	8.708009e-06
36	0x39969f96	0.0002872913
37	0x39a252d8	0.0003096077
38	0x399d3db4	0.00029991346
39	0x38f45d8b	0.000116522504
40	0x39433bc1	0.00018618909
41	0x39a56fcb	0.00031554545
42	0x384d0763	4.8882688e-05
43	0x390aa370	0.00013221591
44	0x39c84c47	0.00038203804
45	0x38c55c50	9.4108866e-05
46	0x3a00555e	0.0004895533
47	0x3a79a289	0.0009522816
48	0x388ec1a5	6.807157e-05
49	0x39dafb84	0.00041767594
50	0x3a68f7b9	0.0008887011
51	0x38b404f8	8.583994e-05
52	0x3a0286c4	0.0004979188
53	0x3a5fbbd8	0.0008534766
54	0x390ac093	0.00013232445
55	0x38d5aac3	0.00010188438
56	0x39677f07	0.00022077198
57	0x395fc438	0.00021340034
58	0x38fe4631	0.00012124738
59	0x386f4a21	5.705108e-05
60	0x3a520691	0.0008011843
61	0x39d817b4	0.0004121639
62	0x39705b29	0.00022922143
63	0x399002c8	0.00027467893
64	0x39c97ad3	0.0003842922
65	0x394ca685	0.0001951699
66	0x39ef41e0	0.00045634713
67	0x391438d3	0.00014135549
68	0x389b5a48	7.407792e-05
69	0x39d2a246	0.00040175224
70	0x3917afdd	0.00014465996
71	0x38810519	6.152149e-05
72	0x39bc038b	0.00035860794
73	0x3992a723	0.00027971817
74	0x38b2ce7a	8.526161e-05
75	0x39a74990	0.0003190753
76	0x3835490e	4.32218e-05
77	0x37a2abe2	1.9391944e-05
78	0x3a4ee278	0.0007892023
79	0x381a6945	3.68145e-05
80	0x3798ac8d	1.8200162e-05
81	0x39865ae4	0.0002562619
82	0x38d1a717	9.9970195e-05
83	0x379e0509	1.8837412e-05
84	0x3984e5d5	0.0002534824
85	0x38df2466	0.000106402484
86	0x37aa8888	2.0329157e-05
87	0x39bcab51	0.00035985795
88	0x38e537f0	0.0001092999
89	0x379a3dd0	1.8387014e-05
90	0x39b490bd	0.00034440114
91	0x39323dfe	0.00016998497
92	0x39e0130c	0.000427388
93	0x39601ac2	0.00021372273
94	0x392b4411	0.00016333188
95	0x3a43a805	0.00074636965
96	0x39ba8e81	0.00035582858
97	0x39a8330b	0.00032081487
98	0x3a9aef6d	0.0011820622
99	0x39016f3f	0.00012343841
100	0x39818d32	0.00024709996
101	0x39e8a9c7	0.00044376982
102	0x3823b843	3.9033835e-05
103	0x39109a90	0.00013790489
104	0x39aa94d9	0.00032535827
105	0x37989c39	1.8192559e-05
106	0x38b8668e	8.792906e-05
107	0x3986fe16	0.0002574778
108	0x3982e88a	0.00024968787
109	0x3976e736	0.00023546521
110	0x38a3c43f	7.808999e-05
111	0x398d8096	0.0002698942
112	0x39baa65f	0.0003560064
113	0x39799950	0.00023803604
114	0x39000ae2	0.00012211085
115	0x39ae12b2	0.00033201795
116	0x39b5716c	0.00034607516
117	0x39bc9b30	0.00035973778
118	0x39a28050	0.00030994648
119	0x39863aaa	0.0002560218
120	0x3a404bfb	0.0007335541
121	0x3aad24a0	0.0013209768
122	0x3a57f507	0.0008238111
123	0x398a6fcb	0.00026404703
124	0x3a8d4476	0.0010777849
125	0x39ffe184	0.00048805412
126	0x3818884e	3.6366568e-05
127	0x383fb699	4.5708006e-05
128	0x38f2f07f	0.00011584255
129	0x388d22e6	6.729904e-05
130	0x3890129f	6.8699235e-05
131	0x39588899	0.00020650252
132	0x39798cbf	0.00023798922
133	0x39a71ffe	0.00031876558
134	0x3a11b6ec	0.00055585685
135	0x39fe1c63	0.00048467805
136	0x39df3edc	0.00042580708
137	0x39c62e6b	0.00037800087
138	0x3a832a88	0.0010007182
139	0x3a05990a	0.0005096352
140	0x3a27ee79	0.00064060796
141	0x3939ee19	0.00017731673
142	0x3910bffe	0.00013804433
143	0x396c5ef7	0.00022542091
144	0x3914369b	0.00014134722
145	0x39577dc9	0.00020550856
146	0x393ca07b	0.00017988861
147	0x39753362	0.00023384162
148	0x39e6805a	0.00043964648
149	0x393320aa	0.00017082939
150	0x3805b3e8	3.187722e-05
151	0x3906cd4a	0.00012855712
152	0x3908705a	0.00013011825
153	0x390679e8	0.0001282465
154	0x386808a3	5.5321154e-05
155	0x3987f463	0.0002593129
156	0x383305eb	4.2682437e-05
157	0x386c4e61	5.633978e-05
158	0x395ee49a	0.0002125673
159	0x3896fc3f	7.199542e-05
160	0x38fa39a8	0.00011931668
161	0x39869565	0.0002566978
162	0x39d5dcd3	0.00040791053
163	0x3993eebf	0.00028215905
164	0x39e4d62d	0.00043647122
165	0x388ef4f5	6.8167144e-05
166	0x382f2b03	4.176331e-05
167	0x381dd692	3.763155e-05
168	0x39a8693f	0.00032121871
169	0x3987877d	0.00025850153
170	0x3984cbb2	0.00025328767
171	0x3a25d98d	0.0006326668
172	0x3a06420b	0.00051215355
173	0x39f8e129	0.00047470003
174	0x3a104516	0.00055034587
175	0x39e07429	0.00042811155
176	0x39f50b52	0.00046738476
177	0x3876e946	5.8868223e-05
178	0x3849380a	4.7974325e-05
179	0x388bc897	6.665399e-05
180	0x3883c465	6.283148e-05
181	0x388faa85	6.850533e-05
182	0x389599c1	7.1335126e-05
183	0x39ae6c72	0.00033268664
184	0x398f9576	0.00027386443
185	0x39854fac	0.00025427097
186	0x3a914114	0.0011082017
187	0x3a4cca13	0.0007812094
188	0x3a345486	0.000687905
189	0x39f8fd84	0.0004749113
190	0x399ee0d5	0.0003030362
191	0x3848d363	4.7880585e-05
192	0x39f2f45d	0.00046339902
193	0x39bb6a57	0.0003574665
194	0x385c3b89	5.2507534e-05
195	0x3a023f54	0.0004968543
196	0x39c15820	0.00036877487
197	0x3867e2ec	5.528603e-05
198	0x352d0f39	6.4469674e-07
199	0x3556c3df	8.000624e-07
200	0x3950611d	0.00019872603
201	0x35967aa8	1.1211569e-06
202	0x373a71ed	1.1112989e-05
203	0x399739a4	0.0002884391
204	0x3544e443	7.3347854e-07
205	0x3749dfd9	1.2032652e-05
206	0x39acbb8b	0.00032946127
207	0x39b504b3	0.0003452651
208	0x3982d6bf	0.0002495553
209	0x39b21423	0.0003396581
210	0x398122ff	0.00024630871
211	0x38e95361	0.00011125836
212	0x39392cdd	0.00017659688
213	0x3931d9a9	0.0001696112
214	0x387d8e84	6.045263e-05
215	0x38abe01d	8.19566e-05
216	0x3810c915	3.4519548e-05
217	0x39103565	0.00013752801
218	0x39702903	0.00022903462
219	0x394b66df	0.00019397911
220	0x3a8d8ea6	0.0010799959
221	0x3a85e43a	0.0010215112
222	0x3aba2657	0.00142021
223	0x3ab2d49b	0.0013643684
224	0x398dc3be	0.00027039455
225	0x3a0cd132	0.00053717487
226	0x39950d49	0.00028429393
227	0x395aa51d	0.0002085161
228	0x3a92cc5d	0.0011199821
229	0x399c2e6e	0.00029789231
230	0x392d6080	0.00016534515
231	0x39765a08	0.00023493927
232	0x38af6d7a	8.365042e-05
233	0x38850ec1	6.344682e-05
234	0x37ec3fe8	2.8163151e-05
235	0x38f51394	0.00011686157
236	0x397acdd5	0.00023918536
237	0x390467ae	0.00012627125
238	0x398aa582	0.00026444724
239	0x39dc9cdb	0.00042078536
240	0x39944b55	0.00028284887
241	0x3a169d84	0.00057455176
242	0x3a5be498	0.000838825
243	0x3abef6d3	0.0014569409
244	0x3a695e68	0.0008902312
245	0x398e5687	0.00027148818
246	0x3a9deae4	0.0012048152
247	0x3a12285b	0.00055754714
248	0x38e8eb80	0.00011106487
249	0x3a007435	0.00049001287
250	0x393b0aff	0.00017837806
251	0x38dae2e0	0.00010437309
252	0x3919fa05	0.00014684357
253	0x399eea76	0.00030310795
254	0x399c00e7	0.0002975531
255	0x39c47e0e	0.0003747795

exp_avg f4 [32]
0	0xb023a21f	-5.952944e-10
1	0x322e229d	1.0136003e-08
2	0xb1b1bf73	-5.1731432e-09
3	0xb1a0d52d	-4.680848e-09
4	0x30e8cd8e	1.6938644e-09
5	0xaf952e3f	-2.7135802e-10
6	0x314935ac	2.9279859e-09
7	0x319aeedd	4.5091455e-09
8	0xb10c893f	-2.0450697e-09
9	0xb14d100e	-2.9840552e-09
10	0xb0b4524f	-1.3120117e-09
11	0x30ad69e7	1.2617506e-09
12	0xb153363f	-3.0735376e-09
13	0xb21131b5	-8.451413e-09
14	0xb1d8da52	-6.3112475e-09
15	0x301fdb98	5.8155925e-10
16	0xb0f028cd	-1.7473895e-09
17	0x31a450c9	4.7822124e-09
18	0xb215d17e	-8.7205745e-09
19	0x310e2de9	2.0689817e-09
20	0x2fc1b3fb	3.523438e-10
21	0xb11f7894	-2.3206086e-09
22	0xb0477036	-7.255524e-10
23	0xb10dad8d	-2.0616853e-09
24	0x318a916d	4.0328616e-09
25	0xb1d085d2	-6.0688103e-09
26	0x300cde30	5.124745e-10
27	0xb0a65c9e	-1.2104413e-09
28	0xb009d1fd	-5.013872e-10
29	0xb1392a03	-2.6944924e-09
30	0xb190a187	-4.209315e-09
31	0x3101d383	1.8892201e-09
