CS330/XCS330-PS3/src/submission/logs/maml/omniglot.way_5.support_1.query_15.inner_steps_5.inner_lr_0.04.learn_inner_lrs_False.outer_lr_0.001.batch_size_16/state3300.pt (torch, 353132 bytes, 30 tensors)

conv0 f4 [32, 1, 3, 3]
00000000: 1b28 04be f35f b4bd 600f 00bc 444f 4ebd
00000010: 0b63 423d 5894 0ebe 16cf 0b3e 7965 253e
00000020: 2f7d abbe f1cb 07bc 6094 12bd a1a2 9fbc
00000030: 2f49 98be 0564 9dbc f47b bfbb 5cb6 983e
00000040: 455d e0bc a3c1 b13c 5867 b93d d977 35be
00000050: 8599 00be bb59 1bbe e2d8 afbd f72d 9d3d
00000060: 1506 2fbe 8691 0d3e ac2e e43c f5b8 f63d
00000070: 7c79 183d 98a5 87be ff0e 7b3d ac9a 293d
00000080: 8fe3 83be 1e77 93be b120 96be 7288 b1bd
00000090: b8ab ab3c 597c 013d ee1d 7d3c dd86 c1bd
000000a0: abad d83d 4846 ef3d b7cb 85be 56e2 90bd
000000b0: e6ab 443d 66dc c0be b940 f43c c8a5 cb3d
000000c0: 3259 d7be 6e17 f63d ae94 e03d edbd b4be
000000d0: 4a94 85bd cad7 3d3d 1bcf 30be 61df bb3d
000000e0: e2b8 413d 3b4c 4c3d 2517 48be 12c3 a1bd
000000f0: 6d5c 733e f5a1 1abe e068 96bd f2b8 7c3d
00000100: 22cc 613e 238a 88bc a2ee 9c3c a79b 66bd
00000110: 4329 a3be 5974 1dbc eed9 22bc 67a3 d8bd
00000120: 15a6 373e eea6 583c 0f94 75be 3fa9 073d
00000130: 20b1 42be 68d2 a73b 96d6 7bbd 65c6 76bd
00000140: d151 26be 1f7a 903d 2d7b d1bd 00b9 9abe
00000150: 5c03 5d3e 0a78 373d d27f a8be 41e7 763d
00000160: 0338 13be 0961 66be 31c0 8e3e 1aea 79bd
00000170: dddc 243d 1652 bfbe d72a 12bd cb14 6b3c
00000180: 65ef 783e 2b81 94bb 1420 ac3c 383a 2cbe
00000190: 1122 f33d 682a a83d f636 49be f62a e03d
000001a0: e786 073e 9ec2 35be a540 6bbe 14ec 3dbe
000001b0: ed6e 0a3e 138b 2cbd 969d a0be 6cc2 21bb
000001c0: 019c 2a3e 80b8 1fbd 6281 42be 5b22 30bd
000001d0: 1c91 2a3e 56f2 5e3e 726b b0be d723 913e
000001e0: a091 9b3d 60b7 a33a 5ebc fe3c ced2 38bd
000001f0: be5f f43c 14ac efb8 07f5 32bd 1656 1fbe
00000200: 9009 40be f223 b0bd 037e d2bd ef51 e7bd
00000210: cb44 ebbc d6be db3c 71bd 863e 7df2 ee3c
00000220: 4df9 d8bb eec8 d93c 9074 a13d 5818 9cbd
00000230: 42d4 a03d 8147 673e 6ab2 f0be 1aa2 e53d
00000240: 1593 50bd 7bc3 2f3d c6bd 443d bc77 1c3d
00000250: 6745 3c3d 1310 453c 850a c73e 3af1 4d3d
00000260: 1bf1 21be 9e21 19bc 64db 8ebe 1eca 3e3e
00000270: ccb0 83bc b6c4 0dbe 2c8c 6cba 8754 acbc
00000280: 64a3 16be 84ab 423e 43cd 36bd 86a4 f33d
00000290: b45a 263d 60a3 febd 45f9 70be 0a8d 91be
000002a0: d9f6 d33c af5a 1c3e 7a3e 143e c3d3 cc3d
000002b0: 82ee dc3d d599 253d 0f86 0e3d df3d a93d
000002c0: 258b 69bc ce9f b9be a60b cdbe 0d72 abbe
000002d0: aafb a8be 97d3 b2be 68a9 92be aeea 863d
000002e0: c7eb 983d 94bf cbbc e910 9d3d 7a96 df3d
000002f0: a081 9e3c 4fff a73d 9d20 ef3c 06fb bcbe
00000300: 3df5 1ebd 37b1 103e 113a bcbe c975 0e3e
00000310: 9722 5b3d 052d a4be e506 85bd e15b 21be
00000320: 1d5e d2bd 3114 48be 5ff3 afbd b120 1d3e
00000330: 3df9 68be 4584 2abd 15b1 e03d 4615 0f3e
00000340: 5be9 b73d 7e7d 893e 833b b8bd d834 33be
00000350: 30a2 10be 29d1 6cbd e259 d3bd f511 05be
00000360: 18dd bfbe 4489 753e 9ab8 a93d 1810 61bc
00000370: 82e4 0d3d b9da 343c 8219 b23a c344 76bc
00000380: f17d 11bd bde2 113e 7354 61bb 9f0a 2bbd
00000390: 9141 003e 3e78 513b a543 6bbd 23f0 98be
000003a0: 87c3 7dbe 208c e8bd be33 55be a90c 6cbe
000003b0: 9957 2dbe 94d1 84be 02d6 103e df05 213e
000003c0: a7f0 7ebe bc69 033e 868c c63d 266f 0c3e
000003d0: 3da0 0b3d fa91 3ebe c496 733d 6c1f 38bd
000003e0: 0967 3bbe 93ec 8b3b df9e 07be a1f0 dabd
000003f0: b15f 3dbe 2eb0 e33c 89be 6f3e bc56 133e
-0.12905924 -0.08807363 -0.007816166 -0.050368562 0.047457736 -0.13923776 0.13653216 0.1615199
-0.33493945 -0.0082883695 -0.035786033 -0.019486727 -0.29743335 -0.019212732 -0.005843634 0.2982663
-0.027388224 0.021698778 0.090529144 -0.177215 -0.12558563 -0.15170948 -0.08586289 0.07674783
-0.17092164 0.13825044 0.027854286 0.120469965 0.03722523 -0.26493526 0.0612936 0.041407272
-0.2575955 -0.28801817 -0.29321817 -0.08668603 0.020955905 0.031612728 0.01544903 -0.09449551
0.105799995 0.11683327 -0.26131985 -0.0707442 0.048015498 -0.3766815 0.029816018 0.0994373
-0.42060238 0.120161876 0.109658584 -0.35301152 -0.065224245 0.04634837 -0.17266504 0.091734655
0.04729546 0.049877387 -0.19540079 -0.07898535 0.23765726 -0.15100844 -0.07344222 0.061699815
0.22050527 -0.016667431 0.019156758 -0.056300785 -0.31867418 -0.009610259 -0.009939654 -0.105780415
0.17934449 0.013223393 -0.23982261 0.03312039 -0.1901288 0.005121518 -0.061483942 -0.060247798
-0.16242148 0.07054543 -0.10228572 -0.3021927 0.21583313 0.044792213 -0.3291002 0.060279135
-0.14376836 -0.22497953 0.27881005 -0.061014272 0.040249694 -0.37367314 -0.035685387 0.014348219
0.24310072 -0.0045319996 0.02101139 -0.16819084 0.11871732 0.08211213 -0.19649872 0.10945694
0.13235055 -0.17750022 -0.22973879 -0.18547088 0.13518877 -0.04212482 -0.3137023 -0.0024682535
0.16661073 -0.038994312 -0.18994668 -0.043001514 0.16656917 0.21772131 -0.34456974 0.28347656
0.07596135 0.0012490563 0.03109568 -0.045122914 0.02983081 -0.0001142846 -0.043690708 -0.15560183
-0.18753648 -0.08600606 -0.10277941 -0.112949245 -0.028719326 0.026824396 0.26316407 0.029168362
-0.006621516 0.026585069 0.07883561 -0.07621831 0.07852985 0.2258587 -0.4701112 0.11212559
-0.05092152 0.042911034 0.048032545 0.038200125 0.045964625 0.012027758 0.38875213 0.05027888
-0.1581463 -0.009346394 -0.27901757 0.18631789 -0.016075514 -0.1384457 -0.0009023573 -0.0210364
-0.14710766 0.1901074 -0.044629347 0.11896615 0.040613845 -0.12433505 -0.23532589 -0.28427917
0.025874542 0.15268968 0.14476958 0.10001328 0.10787679 0.04042991 0.034795817 0.08263754
-0.014254366 -0.36254734 -0.4004795 -0.3348545 -0.33004504 -0.34927055 -0.28644872 0.0658773
0.07466846 -0.024871625 0.07669241 0.10917373 0.01934892 0.08202993 0.029190356 -0.36910266
-0.038808096 0.14130102 -0.3676305 0.13912119 0.053499784 -0.32065597 -0.06495456 -0.15757705
-0.10271857 -0.19538952 -0.08591341 0.15344502 -0.22751327 -0.04163005 0.10971276 0.13972959
0.08980056 0.26853555 -0.08995726 -0.17500627 -0.1412437 -0.05781666 -0.10319878 -0.12995131
-0.3747337 0.23978144 0.08287163 -0.013736747 0.03464175 0.011038476 0.0013587924 -0.0150310425
-0.035520498 0.1424665 -0.003438261 -0.041758176 0.12525012 0.003196254 -0.057437558 -0.2987071
-0.24781619 -0.11354852 -0.2082052 -0.23051704 -0.16927947 -0.25941145 0.14144138 0.15724896
-0.24896489 0.12833303 0.096947715 0.13714275 0.034088362 -0.18610373 0.059469953 -0.04495184
-0.18301024 0.004270145 -0.13244198 -0.106904276 -0.18493535 0.02779397 0.23412527 0.14388555

b0 f4 [32]
00000000: d73c 91bd 82db 95bd 26bb aabd 9bf6 a43d
00000010: 6b22 40bd 0c18 14be 17fa 52bb e5bb 46bc
00000020: 90b4 5a3c 6dba ae3d e19c 7b3d a744 1b3d
00000030: ffb2 d5bc 9479 1cbc 85df e23c 8d54 5ebc
00000040: ed1c 023d b096 903d 8e57 873d b6d9 0d3d
00000050: 06f8 ad3c 22a2 1dbd f9f5 87bc 7359 37bd
00000060: 9d4c 2bbd 5d2b 44bb 3499 8ebc b06a 1dbc
00000070: 74d3 5dbd c776 f9bc 90a7 62bc 333a 993d
-0.070916824 -0.073172584 -0.08336477 0.08054849 -0.046907824 -0.14462298 -0.0032192522 -0.0121297585
0.0133487135 0.08531652 0.06142891 0.03790727 -0.026086329 -0.009550471 0.027694473 -0.013569963
0.031765867 0.07059991 0.066084966 0.034631453 0.02123643 -0.0384847 -0.016596781 -0.04476304
-0.04182111 -0.0029933073 -0.017407037 -0.009607956 -0.054156736 -0.030452145 -0.013833895 0.07481804

conv1 f4 [32, 32, 3, 3]
00000000: 753d 5b3c fca9 61bd 68da ecbd aabf b1bc
00000010: 02e3 82ba 20a1 10bd 9244 163c 4632 523d
00000020: 5e16 e3bb 0a8b aebd 0028 6abc e24e 42bc
00000030: f9ce 8abd 23ac 4b3c babc 96bd dfaf 7dbd
00000040: 0188 9abd 9e68 0dbe 8a97 b13d 2b3c ffbb
00000050: 5ba6 da3c e9b3 d0bc 1e16 993b 732e a73b
00000060: 49ed 90bd cd81 3dbc 6ec5 6dbc 04a4 c13c
00000070: 2637 193d 7057 5d3a be46 63bb 1620 723c
00000080: 24e4 023e 5b23 eb3c 48bd 023e 51a4 4c3e
00000090: 9e44 6e39 56fe 1bbc 6c07 8dbd 7f58 e3bd
000000a0: d97d 1cbc 3334 80bc 4f89 50bd 4321 09be
000000b0: 4832 cebd 395c 463e 2c48 da3c 9475 46bb
000000c0: c737 4d3e 2811 cf3d dbfd d5bd 44f1 203e
000000d0: 838a 93bd dc0d 5cbd a5dc eebc 7be6 953c
000000e0: db3e afbc 6894 b33c f9c7 82bc 10c3 12bc
000000f0: 83ca 9b3b 44cb 29bd 18b0 a7bd 15f8 953d
00000100: 4a50 c7bc 7100 343d 67fe ef3c b4f4 65bd
00000110: b06c 6c3d d6d2 33be ccf1 ad3d 2dd0 c73d
00000120: b4dc ff3b 9565 f6bc 91aa 7c3d 23d7 acba
00000130: cc1e 343d 4095 9f3d 4777 49bc 3702 71bd
00000140: a6c1 a43d 7ca2 b83d 72ee c63d 8efd 213d
00000150: ad58 2d3d b9e8 70bc 601c 42bd bf67 173c
00000160: c9c4 ccbd ad5a 443c 418f 93bd 0d3e b63c
00000170: f27c b93d 283f d6bd fa8d c2bc 9d34 883c
00000180: cbb7 d9bc b09c c5bd 57f4 c7bd 89d4 873d
00000190: 81bb 803d 903c 00bd cded b13d e297 053e
000001a0: 7ee4 93bd f4e6 103e 5f40 0bbd 5aaa 263d
000001b0: 1f33 943d ef2a 5c3b 67e7 e8bd 3013 a53d
000001c0: a4d1 57bd 082e 2bbd 769d 13bd 1e5e 13bd
000001d0: d28a 803b 2396 80bc 7f0b 063d 15b3 613d
000001e0: 913a fc3c 450c a43d 127f efbb 021d afbd
000001f0: a528 7f3d be21 5c3c 6f9d 58bd f885 debd
00000200: 1579 5dbe deb6 ac3b 9d6d 95bd 9add 5bbe
00000210: 9875 613a ad70 0e3d 890a 793c 36b7 053d
00000220: 4f49 c03d 21d9 b93c b31f 50bc dee3 303d
00000230: b482 ebbd 877b 0abd f7d4 4dbe ca00 94bd
00000240: 9d10 153d b83a 383c 1e96 bf3a 05ff d8bc
00000250: cffe e8bd fb1f a7bd 0407 9ebd e988 2abe
00000260: 9539 f7bd 77e6 8a3d aed0 f23c 819e 333d
00000270: 0988 96bd c17b 33bd 3019 823d 4296 e8bc
00000280: 7bc6 1cbe a2c6 ccbd ae50 21bc 8094 883d
00000290: cca3 ab39 0575 27bd 6ec4 0cbb 74a0 96bd
000002a0: da0a 413d 2cf3 fd3c 5f67 c8bd 6c6b 23bc
000002b0: d8e6 92bd f007 393c 4ac7 fa3c 73b0 b5bc
000002c0: 9680 c03c 1635 133d e5c0 2e3e 3b23 353e
000002d0: 82df 74be 8e1a a1bd df6f eabc 0265 72ba
000002e0: 4eb0 7bbc 51a3 ee3c b084 173d 879c 67bd
000002f0: 1b9d 913d 914d 003e 0ecd 503d b7dc ea3d
00000300: 3c34 d43d 391e 113d 04de 0a3d 4db4 483a
00000310: ebd2 fcbc d20e ef3c 0740 edbb eaac 883d
00000320: 5dd5 693c 2edc 513d 9749 3cbd c932 09bb
00000330: 4e44 28be 6744 3cbd efd2 febd 57ea 2bbd
00000340: 07f1 283c 4990 933d fc5c 2a3c c5fc 86bd
00000350: 8c54 373d e34c 2d3d 77ac de3c 117b f73b
00000360: 77d2 cc3c 776f 993d 02a4 5e3d ce6d 563d
00000370: a7fa 5e3c c190 c43d 0086 cdbc 7104 1e3d
00000380: b254 96bb 1a44 e0bc b0d9 7c3c 14ea 00bd
00000390: 1761 03be bf6c 32bd 950b 95bc 5c05 59bd
000003a0: 35fb 03bd 5e79 f23d 8ca7 0abc 1c5f 2ebd
000003b0: 92e3 71bd 2d41 303c 8c40 0ebd bd38 f1bb
000003c0: caef 9fbc 13d0 8ebd cd93 15bd 4749 b6bd
000003d0: cd21 a8bc 5a6a de3c 166a 15be c7d8 203d
000003e0: 5028 9f3d c18d 43be 56af 43bc 91db 6a3d
000003f0: d697 24bd 3ab7 bcbc 674a 7b3d 4df8 85bd
0.013381352 -0.05509375 -0.11565095 -0.021697838 -0.0009985866 -0.03530991 0.009171622 0.051317476
-0.0069301566 -0.08522613 -0.014291763 -0.011859627 -0.06777758 0.012431177 -0.073602155 -0.061935302
-0.07545472 -0.1380944 0.08671482 -0.007789155 0.026690653 -0.025476413 0.004671826 0.0051019727
-0.070765086 -0.011566591 -0.014512403 0.023637779 0.03740611 0.000844351 -0.0034679617 0.014778158
0.12782341 0.028703382 0.12767518 0.19984557 0.0002272301 -0.009521088 -0.06886181 -0.11100864
-0.009551489 -0.01564989 -0.050912198 -0.13391595 -0.10068184 0.19371118 0.026645742 -0.0030282484
0.20040809 0.10110694 -0.1044881 0.15717036 -0.072041534 -0.053724155 -0.029157946 0.018298378
-0.021392277 0.021921352 -0.015964495 -0.008957639 0.004754366 -0.041453615 -0.08187884 0.073227085
-0.024330277 0.043945733 0.029296113 -0.05614157 0.05772084 -0.17560896 0.08493385 0.09756503
0.0078082923 -0.030077735 0.061686102 -0.0013186674 0.043974683 0.07792139 -0.012296504 -0.058840003
0.08044748 0.090153664 0.097134486 0.03954845 0.042320896 -0.014703923 -0.04739034 0.009241044
-0.09998471 0.011984509 -0.07205058 0.022246385 0.090570346 -0.10461265 -0.02374934 0.01662665
-0.026576897 -0.096490264 -0.09763401 0.06632335 0.062857635 -0.031307757 0.08687935 0.1304622
-0.07221316 0.14150602 -0.033996936 0.040689804 0.07236313 0.0033594926 -0.113722615 0.080603
-0.052690163 -0.041791946 -0.03603884 -0.03597843 0.0039227987 -0.01569659 0.032725807 0.055102427
0.030789645 0.08010153 -0.007308849 -0.08550455 0.06229462 0.013435779 -0.052884515 -0.10865396
-0.2162822 0.005270823 -0.07296298 -0.21471253 0.00086005917 0.034775425 0.015200266 0.032645427
0.093889825 0.022686543 -0.01270287 0.04318606 -0.11499539 -0.03380921 -0.20100771 -0.07226713
0.036392797 0.011244468 0.0014616882 -0.02648879 -0.11376726 -0.08160397 -0.07716182 -0.1665379
-0.1207153 0.06782239 0.029640522 0.043852333 -0.073501654 -0.043819193 0.063524604 -0.028391961
-0.1531009 -0.09998824 -0.009845896 0.06668949 0.000327377 -0.040883083 -0.0021479386 -0.07354823
0.04712949 0.030999742 -0.097853415 -0.009974342 -0.07172936 0.011293396 0.030612607 -0.022178864
0.023498815 0.0359393 0.17065771 0.1768922 -0.23913386 -0.07866393 -0.028617797 -0.0009246619
-0.0153618585 0.02913061 0.036991775 -0.05654576 0.071100436 0.12529589 0.050976805 0.11467879
0.103615254 0.035429213 0.033903137 0.00076562614 -0.030862292 0.029181872 -0.0072402987 0.06673606
0.014272061 0.05123537 -0.04596862 -0.0020934811 -0.16432306 -0.04596367 -0.12442576 -0.04197153
0.010311372 0.072052546 0.010398146 -0.06591181 0.044758365 0.042309653 0.027181847 0.0075525125
0.025002701 0.07491963 0.05435563 0.05235081 0.013609565 0.09597922 -0.02508831 0.038578454
-0.004587733 -0.027376223 0.01543276 -0.031473234 -0.12830006 -0.04356074 -0.018194 -0.052983627
-0.03222199 0.11839555 -0.008462798 -0.042571172 -0.05905492 0.010757727 -0.034729525 -0.0073615
-0.01952352 -0.06973281 -0.036517907 -0.08900695 -0.02052393 0.027150322 -0.1459125 0.039269235
0.07771361 -0.19097044 -0.011943659 0.0573383 -0.040183865 -0.023036588 0.061350252 -0.065415

b1 f4 [32]
00000000: 6c13 523d 37f4 d53c 529b 833d a1bf 66bd
00000010: 96db a6bd 663f 243d c9ae 2abd 8c4a b03d
00000020: b14b d73b f7f2 a0bd 8048 b83d 3d16 123d
00000030: 1793 b9bc 2c12 e33d 940e 743c 389a ba3c
00000040: 1849 e33b 3cc5 30be a700 0abf 011b f53b
00000050: 01d8 f1bd dc89 383d 2e48 13bc 639a 9f3c
00000060: 1f0c 503d eb0f 1bbc aea7 a13d 044c 5bbe
00000070: 2ef0 b93c a15b cb3d acc2 c63c 26d7 3d3c
0.051288053 0.026117427 0.064261094 -0.056335095 -0.081473514 0.040099524 -0.041670594 0.08607969
0.0065703024 -0.07858842 0.08998203 0.03566574 -0.022653146 0.110874504 0.014896054 0.022778615
0.0069362037 -0.17262739 -0.53907245 0.0074800258 -0.118087776 0.045053348 -0.008989377 0.019482797
0.05079281 -0.009464244 0.078933105 -0.21415716 0.022697534 0.09929586 0.024262749 0.01158694

conv2 f4 [32, 32, 3, 3]
00000000: ca70 9f3d 1175 0e3e c4be 923d 1c6e 243c
00000010: b143 403d 3211 b93c 71fa 763d 9caa ee3d
00000020: 8246 e43d f4f6 8b3d 5609 893d bd91 833d
00000030: 9e20 9e3d dda3 943b eff0 d83d a95f 99bd
00000040: 2c59 833c ead4 4a3d 4461 31bd 36cf 763c
00000050: 2870 873c a356 9b3c 15a3 37bd 163c 9a3d
00000060: 5346 a4bb 3c5b 4d3d b9b0 943d e819 23bd
00000070: 68e8 f53c 18f8 293c 9565 933a a62a f43d
00000080: d9d2 cd3d 967c b1bd a2ee b3bc 758e 593d
00000090: f3b7 d5bc c15f 0abd f53e 7b3c 6b8c 2fbd
000000a0: e764 09bd cb35 df3c bc70 b5bc cb37 13bd
000000b0: f06e 39bc 29fc e4bc bad5 c5bc 0ecd 8cbd
000000c0: 085f b83b b5c3 67bd 5313 87bc 2e6a 2cbb
000000d0: 2bd2 19bc 6a06 c6bc ba5c 083c 013b 42bd
000000e0: 7c23 bdbc 6d61 fa3c fc7b 6bbd 89ce 873c
000000f0: f562 82bd 0667 1e3c 1500 8dbc 8700 f7bc
00000100: 4942 033d e902 003d 17f0 89bd 3019 dd3c
00000110: 0d01 933d 2558 0d3d 25e7 d83d 7a09 f13d
00000120: 7780 583c 4472 96bd 5fec 55bd 3425 08bd
00000130: ced9 c2bc 095e b4bb d8c7 abbc 0013 243b
00000140: d780 9fbc b05f 3e3d 047a 9f3d 80a8 8a3d
00000150: c50c 9f3d cc84 5abd 4cd6 64ba b595 b43d
00000160: 89ad 84bd 6454 9c3d 358f 0a3d 67a5 ec3c
00000170: dd1d c93c 9a29 3a3c 2377 7dbb 6c65 82bd
00000180: 380d 8bbb 5ce8 04bd 580f 8cbc bd75 e9bc
00000190: 916f c9bc 155c e4bd e409 afbc 5eea b5bc
000001a0: 75f2 fe3c 2ad0 7e3d 2a0a e8bb fb68 273d
000001b0: da89 6f3d eb67 bd3d 0041 113d abf1 073e
000001c0: 39b8 343c b87f e73d 35d5 a43d cb20 2a3d
000001d0: 8fd9 c23c da84 a33b db29 ae3b 9a07 7fbd
000001e0: 808c 383d 2dcb de3c 0957 debc 2b37 9f3c
000001f0: 455d 533d 53b9 1bbd 0192 87ba 2910 90ba
00000200: 4af6 86bc 8d73 38bb d308 703c 3d32 57bd
00000210: ee11 3d3c bfae 833d 0319 d2bd 749a 7f3c
00000220: ba37 de3c 2adc cf3c a356 bfbc fd2e cb3c
00000230: dddc c5bb d93b 5c3d c3a0 f73c 3c97 973a
00000240: 3a27 ad3d bf8a b93b 4677 4abd f7e4 a93d
00000250: 05dc 643d 0a1b 003c 444e c73d 0f20 f03d
00000260: a026 543d b6f1 383d d52c 96bd 2acf 5e3d
00000270: de87 b33c d88d 1dbd 5a02 4d3b 6b76 a2bd
00000280: 1b09 90bd 3b98 1dbb ca61 c4bc 07c9 3fbd
00000290: 1019 00bd 3004 1ebd 0609 863c b8fd c5bc
000002a0: e062 47bd 198a 23bd 031d 033c 49ff fcb9
000002b0: 47c8 2f3d 4602 abbd 5429 263d 3f1a 003e
000002c0: 6f6c 5e3d 707a 6b3d ba37 4b3d 4fc0 ae3d
000002d0: cde4 70bc 325b cebc 97d7 093c e901 0f3d
000002e0: 07ed 65bc a55b d0bc f236 30bd a23e 7c3d
000002f0: ab25 043d 96c1 953b 0b10 63bd f229 013d
00000300: fb1d 233d 8224 af3d 832c a93c 7807 2fbd
00000310: df43 4f3d 58bd d83d 59c7 dabd 5130 82bd
00000320: 77f8 9bbd 4574 a5bd b2dd 34bc 9feb f5bb
00000330: 6bb4 99bd 1e57 7fbd 4e76 ab3c 2fd8 3abd
00000340: 3b37 0c3d 22e2 ddbb 321c b0bb af31 f1bb
00000350: afbf b6bd b275 a43b 72ab debc 06cd 5f3c
00000360: acb6 2b3d 44d9 c43c ee58 57bb 6475 523c
00000370: edfe c93b e751 e83c c4ba c03d 9c99 ab3c
00000380: a9d3 90bc 7c34 5fbd e78f c03c ace9 f8bc
00000390: 529d acbc 98ec 95bd a83b b93c 1f1f 92bc
000003a0: b275 663c c3ad cd3d c391 bb3c 224c 103d
000003b0: 2ab9 b5ba 8ef9 ebbc d57a 7bbd 4fd2 753d
000003c0: 09a4 443c bcf9 6cbc 61e6 213c 23b1 dfbc
000003d0: 3356 b1bc 2d48 04bb 5ab8 5c3d e1ae 42bc
000003e0: 0f29 54bc 1d3b 05bd 0924 98bb ba7b 32bd
000003f0: 260f c7bb 196c ce3c d52b 0f3d 5f7f 293c
0.07785185 0.13911845 0.07165292 0.010036018 0.046939556 0.022591207 0.060297433 0.11653635
0.11146261 0.06834212 0.06691234 0.06424282 0.07721065 0.0045361356 0.105928294 -0.07488949
0.016033731 0.049519457 -0.04330565 0.015064051 0.016532972 0.01896221 -0.04483326 0.07530992
-0.005013266 0.050135836 0.0726027 -0.039819628 0.030018046 0.010374092 0.0011245484 0.11922197
0.100499816 -0.08666341 -0.021964375 0.053114373 -0.02608869 -0.033782724 0.015334834 -0.042858522
-0.033543494 0.02724733 -0.022148483 -0.03594188 -0.0113179535 -0.02795227 -0.024149764 -0.068750486
0.005626563 -0.056583125 -0.016488707 -0.0026308405 -0.009388487 -0.02417298 0.008322889 -0.04741955
-0.02308821 0.030564034 -0.057491288 0.016577976 -0.06366531 0.009668117 -0.017211953 -0.030151619
0.032045636 0.031252775 -0.06735247 0.02698955 0.07177935 0.03450789 0.10590962 0.11769386
0.013214222 -0.07346013 -0.052227374 -0.033238605 -0.023785498 -0.005504374 -0.020969316 0.002503574
-0.019470615 0.046477973 0.077869445 0.0677042 0.077661075 -0.0533493 -0.00087294425 0.08817617
-0.06478412 0.07633284 0.03382798 0.028887464 0.024550373 0.011362458 -0.0038675747 -0.06367001
-0.004243519 -0.032448158 -0.01709716 -0.028498525 -0.024589332 -0.11150376 -0.02136702 -0.022206482
0.031121472 0.06221024 -0.00708129 0.0408716 0.058481075 0.092483364 0.03546238 0.13275783
0.01103025 0.11303657 0.080484785 0.04153518 0.02378538 0.0049902024 0.005315048 -0.06226311
0.045055866 0.027196491 -0.027141111 0.019435486 0.05160262 -0.038018536 -0.0010343195 -0.0010991144
-0.016474862 -0.0028145046 0.014650541 -0.052538145 0.011539919 0.064298145 -0.10258677 0.015600789
0.027126182 0.025373537 -0.023356741 0.02480268 -0.006038292 0.053768013 0.030228024 0.0011565457
0.084547475 0.005662292 -0.049430154 0.08295625 0.05587389 0.007818947 0.09731725 0.11724865
0.05179465 0.04515239 -0.0733277 0.054396786 0.021915372 -0.03846535 0.003128192 -0.07932743
-0.07032987 -0.0024047035 -0.02397241 -0.046822574 -0.0312739 -0.038578212 0.016361725 -0.024168834
-0.04867828 -0.039926622 0.008002522 -0.00048255388 0.04291561 -0.08350043 0.040566757 0.12510012
0.05430263 0.057489812 0.049613692 0.08532774 -0.014702988 -0.02518997 0.008413217 0.03491393
-0.0140335625 -0.025434325 -0.04302115 0.06158317 0.032262485 0.0045701964 -0.05543522 0.031534143
0.039823513 0.08551885 0.020651108 -0.042731732 0.050601836 0.105829895 -0.10682554 -0.06356872
-0.0761575 -0.08078817 -0.011039184 -0.007504895 -0.07505115 -0.06233894 0.020930436 -0.045616325
0.03423236 -0.006771342 -0.005374455 -0.007360659 -0.089232795 0.005018913 -0.02718136 0.013659721
0.041922256 0.024029382 -0.0032859403 0.012845371 0.0061644227 0.028359367 0.09410623 0.02094727
-0.017679052 -0.054493412 0.023506118 -0.030384861 -0.02107111 -0.07320517 0.022611454 -0.017837105
0.014066147 0.10042908 0.022896653 0.035228856 -0.0013864387 -0.02880552 -0.06139644 0.06001502
0.012002 -0.014463838 0.009881587 -0.027306145 -0.021647548 -0.0020184622 0.05388675 -0.011882515
-0.012949242 -0.032527078 -0.0046429676 -0.043575026 -0.006074804 0.02519803 0.03495391 0.010345309

b2 f4 [32]
00000000: 79a2 be3b c318 8d3e 59be 36bb 65ee 7ebd
00000010: 7714 703d 8f9c fd3d d133 683d bef6 68bc
00000020: 9a06 26bd feea b43c 199b 223e 5562 8a3d
00000030: 1dd3 123d d329 75bd 2530 6d3d bb8b ffbc
00000040: 80dd 0e3e c2a9 c9bb 8a38 f03d 8312 503e
00000050: 0142 023c 5ecc ef3d e41e 79bd 65e9 2abb
00000060: cb0a f13d 27f1 3fbc 313a e3bc 4d1b f63c
00000070: 2624 663b 8b5d 6e3e 4c13 95bc 131c 203d
0.005817708 0.27557954 -0.0027884452 -0.06223907 0.058613267 0.12383377 0.05669004 -0.014218984
-0.04053364 0.02208471 0.15879478 0.067570366 0.035845865 -0.05985434 0.057907242 -0.031194558
0.13951683 -0.00615427 0.11729534 0.20319562 0.007950307 0.11708902 -0.060820475 -0.0026079055
0.11769637 -0.01171521 -0.027737709 0.030042315 0.003511676 0.23277871 -0.018197678 0.039089274

conv3 f4 [32, 32, 3, 3]
00000000: be47 b1bd 300a 02bd fab9 09be fd41 d4bc
00000010: 2588 213b 935b 33bb 8383 ecbd 6549 11bd
00000020: b413 91bd 1579 6b3e 6991 723e c9a2 933e
00000030: b7bf 2d3e 8d34 423d 17a8 473e cfdd 933e
00000040: 1049 453e 559f 843e 3edd 473c 051e 933c
00000050: 0e94 b33b b0b5 373d baec bf3c 97be 183d
00000060: c845 f83c 9c44 643d 9a3e 1b3d 4d4e 50ba
00000070: f88e 2dbc 5ba1 2ebd bfee 34bc da53 e53b
00000080: 7499 9f3b 20bb 94bc 5f4a 47bc 6eb8 e2bc
00000090: 9b80 f4bd 08a5 5fbd a0fd e0bd f096 99bd
000000a0: 24f0 97bd 653e 08be b195 a5bd 63ec f1bd
000000b0: 5c00 cbbd 3968 383e 0021 863d a437 253e
000000c0: ac01 1a3e dfc3 c03c 39a7 043d e7f5 983d
000000d0: 14bc bd3d fb4f 483e 54cf 57bd 4421 cabc
000000e0: 6637 ebbc d1be 24bd 9490 d0bb bcff f6bd
000000f0: 5dab 3abd 29ba 96bd f3cf e9bd 8005 a03d
00000100: af36 d33d 8ea0 c53d e62d 2b3e 942a 903d
00000110: ea5c 383e 6d58 1b3e ca63 8e3d 58b8 bc3d
00000120: 01aa 9ebc 98ff 353c 0921 2d3d 78e0 a03c
00000130: 0243 7fbd 399e 1fbd 324c 5b3c 6000 b63d
00000140: bcaa 583d 7935 6d3d 0f17 373d 8039 103e
00000150: a534 b13d d780 b53d 12e7 ad3d 7fdc 803d
00000160: 87a3 863d 53d1 eb3d cb8b 19bd e544 53bd
00000170: d26a 2abd 056a 5cbd 2cd2 0d3d 1461 f1bc
00000180: 9bf3 63bd e45a 63bd d27b 5ebd df6d 703b
00000190: 04d5 dd3d f6e3 903c 2bcb 9d3d 0f0b fbbb
000001a0: 5281 c93c 72eb 813d f8ec 2a3d 5347 903c
000001b0: 959d 143d 0bf0 f6bc 16a0 cc3d 73f5 2d3c
000001c0: 867c 153d 7750 efbb 2886 2b3d b4b7 cabc
000001d0: fe6e c13d c175 d8bd 7014 903c d987 b4bd
000001e0: 3a6c 1bbd 0f99 babb 7a64 b2bd 46e6 b5bd
000001f0: 5121 9dbd 72d1 dcbd 87f0 323d 47ef 923d
00000200: 6c29 833d 203b c73c 306a 5e3d b0c5 673c
00000210: 90f6 c23c 31b6 a73d 9e6c 733d 0910 823d
00000220: e062 103d b07f cb3d af07 90bc 8c0c 55bc
00000230: b6a1 c83c 933a a53d 1c10 09bd 8bd4 50bd
00000240: da55 87bd 4b8b 01bd 18fb 9fbd 12c2 23bc
00000250: dc16 a13a 59c8 40bd ad0f c3bd d0f7 79bc
00000260: 1ca0 98bd 2457 e235 3f44 1ebd 9894 11be
00000270: 9ecc c8bd 816b 49bd 5920 09bc 1926 0d3d
00000280: 3fea 91bd 79ff b6bd befa 57bd 9b77 4cbd
00000290: 846b f1bc 9765 f73c a1d1 dabc 86e9 34bc
000002a0: 773b acbd 912d a6bc a755 2e3c 7984 a43b
000002b0: bf25 25bd c265 9d3c c2ca cb3b 0af5 e93c
000002c0: 680f 10bb 64c1 f1bc be2f 603d 4964 f1bc
000002d0: 3e8e edbd 3af3 4ebd bd9f 0cbe dd9b a5bd
000002e0: 86d4 98bd 2b77 49bd 8723 8abd 9729 64bd
000002f0: d604 34bd e66a a53d d378 443d 5df5 713d
00000300: 3831 b83c 1c23 0e3c b619 933d 65de 683d
00000310: 2c5c 433d 6893 0b3d d573 cd3b 9252 87bd
00000320: 5d28 8cbd 198a 1bbd 6d88 0fbc 7546 40bd
00000330: bb77 aabd 84fa 8fbd d2a6 f4bd dd74 24bd
00000340: 4e05 64bd 7e5e e8bc 0f4d 583d 4573 ec3c
00000350: 282b 54bd a52c 76bd cd67 7dbc a8da a6ba
00000360: 3be0 f83b 25f1 9fbd 5d38 a1bd d459 84bd
00000370: d21b 8cbb 31f1 5dbd bdc3 ebbc ba66 c7bd
00000380: 8f90 26bd 3161 5e3d 2fa8 a43c cc1e 6f3d
00000390: 8b97 773d db0e 3a3c c54e 9c3d a4e5 073d
000003a0: 6777 033e e64e 1c3d afbb 613c fa1d 4e3c
000003b0: b645 8ebd eb9c 03be 2d26 c4bd a860 7ebd
000003c0: f68d 2b3d 73c3 f4bd 1545 79bd c86e 27bd
000003d0: 3233 9dbd 9727 aabd 68ce c9bd 418f 893c
000003e0: fea6 14bd f1c1 48bd f731 6abd ab00 eebd
000003f0: 3b90 2bbc b595 583c 6148 6c3d 55f7 4b3d
-0.08656262 -0.031747997 -0.1344985 -0.025910372 0.00246478 -0.0027367815 -0.11548521 -0.035470385
-0.07083836 0.22995408 0.23688282 0.28835133 0.16967665 0.047413398 0.19497715 0.28880164
0.19266152 0.2590281 0.012198744 0.01795865 0.005480296 0.044851005 0.02342831 0.037291136
0.030306712 0.055729493 0.0379015 -0.0007946238 -0.010593168 -0.04263435 -0.01104325 0.0069985213
0.004870588 -0.018155634 -0.012163728 -0.027675834 -0.11938592 -0.054600745 -0.10985875 -0.07499492
-0.0741885 -0.13305052 -0.08085192 -0.11812665 -0.09912178 0.18008508 0.06549263 0.16134506
0.150397 0.023530899 0.03238604 0.07468777 0.09264389 0.1956176 -0.052687958 -0.024674065
-0.02871294 -0.04022104 -0.0063648913 -0.12060496 -0.04557358 -0.07359726 -0.11416616 0.07813549
0.103131644 0.09649764 0.16716728 0.07039371 0.18004194 0.1517045 0.06952627 0.09214848
-0.019368174 0.011108302 0.042267833 0.019638285 -0.062319763 -0.038969252 0.013384866 0.0888679
0.0528972 0.057912324 0.044699725 0.14084435 0.08652619 0.08862465 0.08491339 0.06292056
0.06574159 0.11514535 -0.037486833 -0.051579375 -0.041605778 -0.053812046 0.034624264 -0.029465236
-0.055652242 -0.055506602 -0.054317303 0.0036686582 0.10831645 0.017686825 0.07704767 -0.0076612304
0.024597798 0.06343736 0.041729897 0.017612135 0.036283094 -0.030143758 0.099914715 0.010617602
0.036495708 -0.0073032933 0.04187599 -0.0247458 0.09444998 -0.10569335 0.01758787 -0.088149734
-0.03794501 -0.0056945155 -0.08710571 -0.08881812 -0.0767237 -0.10782136 0.043686416 0.07174545
0.06404385 0.024320185 0.054300487 0.0141462535 0.02379921 0.08189047 0.059429757 0.06350715
0.035250545 0.09936464 -0.017581789 -0.01300348 0.024491172 0.08067813 -0.03346263 -0.050983947
-0.06608172 -0.03162698 -0.07811564 -0.009995 0.0012290138 -0.047066066 -0.09524474 -0.015256837
-0.074524134 1.6863673e-06 -0.038639303 -0.1421684 -0.09804653 -0.04917479 -0.008369529 0.03446016
-0.07124757 -0.08935446 -0.05272936 -0.049918752 -0.029470213 0.030199809 -0.026711287 -0.011042004
-0.084097795 -0.0202854 0.010640538 0.005020675 -0.0403192 0.019213561 0.006219239 0.028559227
-0.002198184 -0.029511161 0.05473303 -0.029466765 -0.11599396 -0.050524928 -0.1373281 -0.08086369
-0.07462411 -0.049185913 -0.067450576 -0.055703726 -0.043949924 0.0807703 0.04796679 0.059071887
0.022484407 0.008675363 0.07182638 0.056852717 0.047695324 0.034076124 0.006269912 -0.06607546
-0.06843636 -0.037973497 -0.008760554 -0.046942193 -0.08323618 -0.07030204 -0.11945881 -0.040150512
-0.05566912 -0.02836537 0.052807864 0.028863559 -0.05179897 -0.06010117 -0.015466643 -0.001272996
0.0075950897 -0.078096665 -0.078720786 -0.06462446 -0.0042757774 -0.054185096 -0.028779859 -0.097363904
-0.040665206 0.054291908 0.020099727 0.05837898 0.060447257 0.011356081 0.076322116 0.033177987
0.12838517 0.03816118 0.013777657 0.012580389 -0.0694689 -0.12852828 -0.09577594 -0.062103897
0.04188343 -0.119513415 -0.060856897 -0.040877134 -0.0767578 -0.083083324 -0.09853822 0.016791942
-0.03629207 -0.049013082 -0.057176556 -0.11621221 -0.010471399 0.013219287 0.057686213 0.04979642

b3 f4 [32]
00000000: 4660 99be 3fae 98bd 46b7 8e3e ba91 b33e
00000010: 5150 193e b940 fa3e 1e43 113f 4e48 d6bd
00000020: afa5 0a3e ec45 31be 7f47 e53e 6a1d 09be
00000030: 4693 b3be e373 2dbe ce17 8d3e 7471 873c
00000040: 5e0a 0f3f a3b3 b4be af90 043f 6f85 603e
00000050: a73a 7ebe d3d4 9b3c 1d5f db3c 245f 243e
00000060: 2b27 28be c2de 233d c0a2 84bd a8d3 f8be
00000070: f8ed b93c a535 d73e a1c2 9b3e 49d9 3ebe
-0.29956263 -0.0745511 0.27874202 0.35072118 0.14972045 0.48877504 0.5674304 -0.1046301
0.13539766 -0.1731183 0.4478111 -0.13390127 -0.35073298 -0.16938739 0.27557224 0.01653359
0.55875194 -0.35293302 0.5178327 0.21925901 -0.24827062 0.019022381 0.026778752 0.16051918
-0.16421191 0.04000736 -0.064763546 -0.4859898 0.02269648 0.42033115 0.30421928 -0.18637575

w4 f4 [5, 32]
00000000: 8f00 50bf edb0 b1bf 1a7b b33f be31 ec3e
00000010: d140 2e3d a62b a33f 6890 b63f abed cfbf
00000020: f785 023f cb5a 68be 9ab1 cd3f 5acd a7bf
00000030: ca11 60bf 998d b9bf 7151 b23f a059 93bf
00000040: a56f d53f a638 94bf d211 823f 3e0c 8a3f
00000050: 6614 49bf b9ca 56bf a635 acbf 80c5 65bf
00000060: 6dee 77bf 5e20 f53e fa8d 53bf f4c7 42bf
00000070: dc50 97bf b029 9c3f e15a 853f b276 94bf
00000080: 8039 8bbf 2264 b73f a99a 87bf a9e3 54bf
00000090: 38e0 bcbf 9c90 52bf 1cb0 e03e 4c06 713f
000000a0: 278b 353f 3878 72bf fdc7 b8bf 5d74 a2bf
000000b0: 7ea9 1cbf aa2f 4ebf 20e8 88bf 48c9 a93f
000000c0: fcb9 3e3e 0332 b93f feb3 953f 64da c1bf
000000d0: 3d14 8dbf b497 c13f c7a2 67bf 9bce ce3d
000000e0: 69b7 a43f 093e 8dbe 967e 4d3f 471f 02be
000000f0: 61b6 65bf 91e3 423f d262 103f 99c9 fa3e
00000100: d92d b73f 9ea3 4b3f d5f1 bbbe a8e9 74bf
00000110: a246 723f fa37 6dbf 55cd 45bf 64e9 99bf
00000120: 43a9 9abf 25e1 d13f a9e1 28be 848f 00be
00000130: a2eb 4f3f 40f8 a23f 0142 a93f 3c9f 67bf
00000140: 2b3c 00bf 7693 5dbf 7b75 2f3f d46c 16bf
00000150: fda9 54bf d522 d4be 54bd c13f 3694 b23f
00000160: c6d0 7bbf 9eb5 20bf 4085 10bf 10a0 d43f
00000170: ba7f 81bf d3cc 56bf 4f76 a2bf c88e 9ebf
00000180: 7821 7a3f cebf 15bf 3748 a33f aaa9 94bf
00000190: d814 9dbf 361f 87bf eae3 1dbf 4e50 6b3f
000001a0: 888e bb3f 57a7 abbe a8a9 33bf efa2 c73f
000001b0: fa02 c53f f177 a3bf aa45 74bf 7014 90bf
000001c0: 9680 a8bf 680b 613f df77 c1bf ba5d 463f
000001d0: afff b43f 100c 3ebf 4eb6 e8be d0b9 8bbf
000001e0: 5103 2ebf d1e0 d03f a966 78bf 65df 01be
000001f0: dea8 8a3f 5340 9fbf 76ba 3a3f e661 3cbf
00000200: 843f 71bf c396 e5be 4784 9bbf 8f16 c93f
00000210: 41ba bb3f 9858 bc3f a756 88bf 0a98 7d3f
00000220: 9988 73bf 55ca 5ebf 3445 2cbe 14cd 6e3d
00000230: b0d6 9ebf 1d4f 853f a8cc 4abf 9f4f 67be
00000240: 2c55 c2be e704 5fbf dfc9 f4be fe65 953f
00000250: f561 c43e 103a 99be baee 3f3f b06c 98bf
00000260: e41c 69bf 45bf 69bf 9a12 b43f c8c2 97bf
00000270: b1ae bb3f 4ab6 35bf b084 61bf 6a0b bd3f
-0.8125085 -1.3882118 1.4021943 0.461317 0.042542282 1.2747695 1.4262819 -1.6244406
0.50985664 -0.22690885 1.6069825 -1.3109543 -0.87527144 -1.4496337 1.3931104 -1.1511726
1.6674696 -1.1579788 1.0161688 1.0784986 -0.7854675 -0.8390308 -1.3453872 -0.89754486
-0.96848184 0.47876257 -0.82638514 -0.76086354 -1.1821551 1.2200222 1.0418359 -1.1598723
-1.0876923 1.4327433 -1.0594074 -0.8315988 -1.4755926 -0.82251906 0.4388436 0.94150233
0.70915455 -0.9471469 -1.4436032 -1.2691761 -0.61196125 -0.8054148 -1.0695839 1.3264551
0.18625635 1.4468387 1.1695554 -1.5144773 -1.1021801 1.5124421 -0.90482754 0.100980006
1.2868472 -0.27586392 0.8027128 -0.12707244 -0.89731413 0.7612849 0.5640079 0.48981932
1.4310867 0.79546535 -0.3670794 -0.9566903 0.9463903 -0.9266354 -0.77266437 -1.202435
-1.2082905 1.6396834 -0.16492333 -0.12554747 0.8121892 1.273201 1.3223268 -0.9047735
-0.5009181 -0.8655313 0.68538636 -0.5875981 -0.8307188 -0.41432825 1.5135903 1.395148
-0.9836544 -0.62777126 -0.56453323 1.6611347 -1.0117104 -0.83906287 -1.2692355 -1.2387323
0.9770732 -0.58495796 1.2756413 -1.1614277 -1.2271986 -1.05564 -0.61675894 0.9191941
1.4652872 -0.33526108 -0.7018075 1.5596598 1.5391533 -1.2770978 -0.954188 -1.1256237
-1.3164241 0.8790803 -1.5114707 0.77486765 1.4140528 -0.74237156 -0.45451587 -1.091608
-0.6797381 1.6318609 -0.97031647 -0.12682875 1.0832784 -1.2441505 0.72940767 -0.7358688
-0.9423754 -0.44841585 -1.2149743 1.5710009 1.4666215 1.4714537 -1.0651444 0.9906012
-0.95130306 -0.87027484 -0.16823274 0.058301046 -1.2409267 1.0414768 -0.7921853 -0.22588967
-0.37955606 -0.87116855 -0.47810265 1.167175 0.38355985 -0.2992711 0.7497364 -1.1908169
-0.9105971 -0.9130748 1.4068177 -1.1856318 1.4662687 -0.70981276 -0.8809309 1.4769108

b4 f4 [5]
00000000: 1e47 333e a3b3 f13d f02f fabd 4626 98bc
00000010: acb1 18be
0.17507598 0.11801841 -0.122161746 -0.018572938 -0.14911526

exp_avg f4 [32, 1, 3, 3]
00000000: c8ec 15bb cace a13b 5410 703b 0190 04bb
00000010: fe4c ba3b f37d 413b b3af 7eba 410c 063b
00000020: 8afd 203a dfd0 bbba 8d21 a9ba 1412 f73a
00000030: 097a 8bbb 5be5 a5bb f4c7 643a 791b dcbb
00000040: 9e72 9e3a 51db e13b ca72 b8ba fe38 c539
00000050: 740d 12bb 9972 8f3a c894 c83a 2b76 85bb
00000060: 310f 0abc fa74 e2bb f312 54bc 413d 57bc
00000070: 0581 14bc e9b3 32bb 164e f4bb 36fb 6cbb
00000080: 7398 bcba 993e 48bb 60cc aeba d793 a0ba
00000090: 109a 983b 92a4 c23b 7d17 ee3b b3b8 373b
000000a0: 32f6 523b 686f a73b 6c6f 933b e70b 393a
000000b0: d70c 993b d425 583b 6b04 673b 19aa 9c3b
000000c0: f402 a43a a913 b93b e335 fc3b 44e4 283b
000000d0: 4dfb 883b b67e ce3b 8a28 42bb 22d7 b8ba
000000e0: 25c8 7bbb c371 edba 3d6a e6ba 37a2 80bb
000000f0: 6386 66bb a55a 8aba ff3c 763a 7d77 853b
00000100: f72f 63b9 ba30 c539 f67d dc3b f997 213b
00000110: 4032 573a 9273 b13b 441b 153b f55e 63b9
00000120: 4caf 44ba 6194 8ebb 30d5 1cba a59c a53b
00000130: 8faf a739 4ddb bbba d93c 6c3b b9ec 933a
00000140: 3220 2eba 71aa 58b9 46af 00ba 9b10 6e39
00000150: c8cc 1e3b 52e8 0b3b b7a4 4a3a af85 d33a
00000160: 0c12 763b b9cd a63a 7bac 96ba ebbb 4fba
00000170: d3da a2ba 0662 1ebb e4bb 83bb b720 613b
00000180: 839c 9abb 3352 81bb 5094 9f3b 6cd6 63bb
00000190: a20b 39bc 0512 4bbc e102 68bb 2d21 eebb
000001a0: 8921 22bc e134 14bb a3ee 89bb 41dc 0ebc
000001b0: fc9f a73b 86c3 fe3b f777 923b af4b 2d3b
000001c0: 522a ad3b d467 c73b ae00 b13b 9993 9d3b
000001d0: 621b cb3b cad1 9c39 5d83 083b 115c 7c39
000001e0: 533c 58bb 0d06 19ba 3f8d 5d3b 97d5 34ba
000001f0: ddaa d43b e0dc ff3b 1e96 56bb b51a 86bb
00000200: 7b87 93bb 7f54 13bb 8d14 80bb e79f f7bb
00000210: 66ff a53a baa6 99bb a98f 32bc b00b c2bb
00000220: b24b 69b9 5bb6 2e3a 7eaf 4fbb 73bc a7ba
00000230: 2563 0bbb 8d8a bbbb ba02 81bb 202f c5bb
00000240: e2f0 5c3b e1fe 9f3a 38ac 903a de3f 873b
00000250: 11a3 9e39 6782 8336 1db3 ceba ecbe 43bb
00000260: daf0 5ebb ebc7 8bba 39b6 ac3b a43f 9a3b
00000270: 92d1 6d3a 6343 1c3b e501 d63b 5b65 f9b9
00000280: 10e3 a1b9 6b02 5e3b e11b 96bb 7d7e 6bbb
00000290: ea53 80bb 5507 65bb 9c88 99ba b2af 85bb
000002a0: 39ee 34ba 9584 36bb 8ce8 ecbb 3af8 11bc
000002b0: 47ef 0dbc 9de6 b4bb 76fb c6bb aec8 bfbb
000002c0: 423d 83bb ab02 f1ba 17f2 2dbb 5853 48bb
000002d0: 8c79 b83a 67a5 303a 5c28 9eba 64ab b13a
000002e0: 501f 2136 bcb8 2cbb 739f 793a eb90 ac3a
000002f0: b6ce 73b9 5f20 faba 6b24 86bb ffe2 f2b9
00000300: 289c 863a 5549 13bb ab34 4fba 0a32 5b39
00000310: 5e79 5ebb 28e4 e339 fae1 463a 5d7e 603b
00000320: dfd4 8c3b 5aa1 8fb9 9d13 e73a 4aee 9c3b
00000330: 1fac 1dba ab06 eaba a253 603a e849 d6bb
00000340: d1fb 1abc 755e 6cbc 6b4e d8bb effd 09bc
00000350: 3b01 1bbc bff8 3bbb d017 81bb 0bad ffbb
00000360: 8045 ba3a 551c ed39 d229 703b 8b76 90bb
00000370: cb8d b63a d4d2 973b 9e0c 4d3a 5a49 2b3b
00000380: 7a18 4b3b 7514 cd39 d113 5a3b 401e 7a3b
00000390: 4127 c3b9 e3ae 9bb9 0e2e 223b 5ea0 81b9
000003a0: e805 d2b9 d5fd 113b fc22 afba 6887 6aba
000003b0: 7d41 9bbb 3500 92bb 515d a8bb 8918 33bc
000003c0: e66b b3bb c1b8 b3bb cc8e 4abc d0f3 1bba
000003d0: fc37 09bb c578 c9ba ec9e 8a3a 942d 8c3a
000003e0: 7be1 d1b8 b510 48ba e12f 323b 6607 09ba
000003f0: 35f9 c0ba 627e 1b3a 0f11 41bb 5894 1abb
-0.0022876728 0.0049379813 0.0036630826 -0.0020227435 0.0056854477 0.0029524534 -0.0009715512 0.0020454081
0.0006141296 -0.0014329216 -0.0012903676 0.0018849992 -0.004256491 -0.0050627417 0.0008727305 -0.006717142
0.0012088602 0.0068925996 -0.0014072296 0.0003761723 -0.002228585 0.0010944187 0.0015303129 -0.0040729246
-0.0084264735 -0.0069109173 -0.012943971 -0.013137163 -0.009063964 -0.002726788 -0.0074555976 -0.0036160476
-0.0014388695 -0.003055489 -0.0013336055 -0.0012251091 0.0046570376 0.0059400285 0.0072659836 0.0028033673
0.00321902 0.005109716 0.0044993665 0.00070589635 0.00467072 0.0032981532 0.0035250436 0.0047810194
0.0012513087 0.0056480956 0.0076968535 0.0025770823 0.004180348 0.006301726 -0.0029626214 -0.00141022
-0.0038418856 -0.0018115569 -0.0017579269 -0.0039255875 -0.0035175316 -0.0010555579 0.00093932444 0.004073082
-0.00021666275 0.00037611072 0.006728883 0.0024657233 0.0008209087 0.0054153884 0.0022751847 -0.00021683781
-0.0007502928 -0.0043511842 -0.0005982695 0.005054074 0.00031983524 -0.0014332324 0.003604701 0.0011285759
-0.0006642371 -0.0002066286 -0.000490893 0.00022703635 0.0024230946 0.002134819 0.0007730233 0.0016137863
0.0037547378 0.0012726105 -0.0011495495 -0.00079244253 -0.0012424834 -0.0024167313 -0.004020201 0.0034351775
-0.0047183647 -0.0039465665 0.004869975 -0.0034765257 -0.011294277 -0.012394433 -0.0035402107 -0.0072671385
-0.009895691 -0.0022614526 -0.004209356 -0.008719505 0.005115507 0.007774773 0.0044698673 0.0026442816
0.005284586 0.0060853753 0.0054016924 0.004808855 0.0061983326 0.00029910944 0.0020830252 0.0002406689
-0.003299494 -0.00058373885 0.0033806113 -0.00068982824 0.006490095 0.007808313 -0.0032743285 -0.004092539
-0.0045022345 -0.0022480784 -0.0039087 -0.0075569036 0.0012664616 -0.004689065 -0.010898509 -0.0059218034
-0.0002224881 0.00066647463 -0.0031690295 -0.0012797251 -0.0021268812 -0.0057233036 -0.0039370926 -0.0060175806
0.0033712913 0.0012206697 0.0011037653 0.0041274866 0.00030257602 3.919285e-06 -0.0015769933 -0.0029868437
-0.003401807 -0.0010664439 0.005270746 0.0047072936 0.0009072061 0.0023843877 0.0065309876 -0.00047568497
-0.00030877488 0.0033875953 -0.00458096 -0.0035933547 -0.0039162533 -0.0034946997 -0.0011713686 -0.0040797824
-0.0006901953 -0.002785002 -0.00722987 -0.0089092795 -0.008663005 -0.0055206553 -0.006072457 -0.0058527803
-0.0040051052 -0.0018387636 -0.0026542002 -0.0030567255 0.001407431 0.0006738514 -0.0012066471 0.0013555107
2.4009096e-06 -0.0026355227 0.0009522356 0.0013165748 -0.00023251292 -0.0019083134 -0.004093697 -0.00046326962
0.0010269927 -0.002247413 -0.00079042715 0.00020904109 -0.0033946852 0.00043466804 0.0007586774 0.0034255006
0.004297837 -0.00027395302 0.0017629747 0.0047891485 -0.0006014723 -0.001785477 0.0008557384 -0.006539572
-0.009459452 -0.014426817 -0.006601145 -0.008422359 -0.009460743 -0.00286822 -0.0039396062 -0.0078026108
0.0014211386 0.00045225272 0.003664602 -0.0044086627 0.0013927756 0.004633287 0.00078220095 0.002613625
0.003098993 0.0003911589 0.0033275972 0.0038165003 -0.00037222545 -0.00029694205 0.002474669 -0.0002472428
-0.00040058722 0.002227654 -0.0013361867 -0.00089465687 -0.0047380314 -0.004455591 -0.0051380773 -0.010931143
-0.005475509 -0.005484671 -0.012363147 -0.00059491117 -0.002093791 -0.0015371075 0.0010575927 0.0010694736
-0.000100078956 -0.0007631884 0.0027189183 -0.00052272377 -0.0014722707 0.0005931613 -0.002945963 -0.0023586955

exp_avg_sq f4 [32, 1, 3, 3]
00000000: 800a 583a 1027 603a b9c8 353a 294a b13a
00000010: be41 b83a 361f 093a f523 513b c327 2d3b
00000020: 5f15 ac3a 2895 9b3a b443 403a 146a e93a
00000030: b383 653a 1c62 453a 44bb e83a e7c7 893a
00000040: 3f0b 6a3a 5143 113b 69ee 683a 0050 d739
00000050: a16a 9b3a 866a 093a a300 793a f087 503b
00000060: 9265 8a3a f029 303b 570f cc3b a21e 173b
00000070: 9ec1 7e3a dd5d 8839 3605 873a ba99 e239
00000080: 68a6 f338 862c 7139 0c6e ab38 c8d7 9c38
00000090: 8f0a 6c3b 6354 873b 0290 d73b 1ce1 373b
000000a0: a096 4e3b a26f 9b3b a780 2c3b c238 3b3b
000000b0: 7e55 863b b00c ac39 450c 073b 79a2 3a3b
000000c0: e7c0 9839 ebc4 de3a b34d 4d3b 0539 8739
000000d0: 5547 ce3a 641c 683b 7d67 733a 9743 ec3a
000000e0: 53d0 003b 99b8 a23a 657f 673a 2bf3 453a
000000f0: bc1f 123b 3112 b43a 47bd 7e3a ed7d fd3a
00000100: 2d37 a13a 09c9 b73a 0549 cb3a af6b 4f3a
00000110: 286f be39 4cb6 a53a c734 4d3a dd76 de39
00000120: c4c8 903a 2113 183a e97a b939 40f1 853a
00000130: aac8 a539 4803 6139 0ffb 533a ea2c 8939
00000140: 7c33 3c39 20cb c33a d739 f239 1e86 3239
00000150: 0a8a ee3a 2616 013a 3a9f 4339 1214 e33a
00000160: 7d98 0c3a 9596 5239 2149 363a 8704 1a3a
00000170: 1f9d a43a ed2f 4f3a 4039 1c3a eeab b13a
00000180: c411 3e3a 9870 603a a546 f13a c0c9 aa3a
00000190: fce9 133b 782c 6c3b a115 583a 4724 b63a
000001a0: 155e 173b efcd fa39 d393 4e3a 4878 db3a
000001b0: 0150 923a 3290 803a 389a e139 cd11 733a
000001c0: 82ed b93a 4c04 6f3a e9ae 203a 995e aa3a
000001d0: 67a2 a03a e796 973a 0742 9e3a 1872 373a
000001e0: c1d2 af3a d790 a03a d234 763a f9ae 663a
000001f0: e619 e13a e445 993a fb7c a23a 78e8 8a3a
00000200: a118 903a 559a ab3a 592f e23a 09cc 103b
00000210: 393a 4e3b ac21 973b 76fd d53b 978a fc3a
00000220: ede2 013b 70f7 e63a e625 8b3a 5bc4 953a
00000230: 8682 b13a fe50 313a a7eb 0f3a 8d94 8f3a
00000240: 7148 2c3a 409f 513a 7385 8c3a ce0b bf39
00000250: 060e 193a fd47 473a 5599 a338 22d0 de39
00000260: 5ee4 173a 6c47 2a3a dfb2 263a eeed 853a
00000270: 0d77 113a ab1f 253a da86 813a 9515 583a
00000280: b8ad 823a f99d b03a c082 0f3a 7ebc 773a
00000290: 82d0 353a a438 c039 1d98 303a e39c c239
000002a0: 05a2 173a e87a 453a 0c74 263a 980b f13a
000002b0: 5a84 fa3a 9d8d 263b 8320 853a 84ef 963a
000002c0: 6288 c93a 1ea2 7a39 2d6c 6739 e3ed 4e39
000002d0: 6c92 cf39 540c ac39 3ff9 de39 6151 b23a
000002e0: 3da7 c23a 9e37 f13a b4cd 4c3b acc7 4e3b
000002f0: 31d6 533b 4c89 043b 3351 9c3a 090d 7939
00000300: 073f f33a ddf6 8e3a 1a7d 7839 82cc 073b
00000310: bcf1 a43a 511c aa39 0a92 7539 13c0 b739
00000320: ad8d 503a d0cb 1939 9949 d739 1810 ce3a
00000330: 6893 f138 70de d339 bfef e83a cbe3 b43a
00000340: a318 6f3a aff9 a83a 5d88 5f3a 1ba4 103a
00000350: 0b9a 863a 5969 1d3a d48b c139 3d1e 543a
00000360: 545a 903a de75 8e3a 4607 183b ff23 d33a
00000370: 92c0 fe3a 3602 243b 4c81 a83a 6d2f 973a
00000380: fa5a 073b 014f 513b f732 033b 7ded a93a
00000390: 7e18 173b dde3 e53a c6a1 cc3a ceea 203a
000003a0: 7733 cf39 7207 1c3a 6d7b 023a b980 903a
000003b0: f994 d13a f8b6 253a 19c1 f73a 0030 363b
000003c0: d9b6 e23a ffde 843b 8c44 a13b 057e 003b
000003d0: c6df 6c3a dcf2 f839 6601 c93a ce4f 0b3a
000003e0: ed92 9739 78b9 b83a 33ea 083a 8965 7039
000003f0: 0b12 923a 34e9 b53a d11d a03a 5cd0 bf3a
0.0008241311 0.00085507426 0.0006934512 0.001352613 0.0014057679 0.0005230786 0.0031912301 0.0026421405
0.0013128928 0.0011870014 0.00073343073 0.0017808103 0.00087552815 0.0007529573 0.0017756005 0.0010511846
0.00089280674 0.0022165368 0.00088856235 0.000410676 0.0011857339 0.00052420085 0.0009498691 0.0031819306
0.0010558835 0.0026880465 0.0062274146 0.002305903 0.0009718182 0.00026009875 0.0010301236 0.00043220614
0.000116181385 0.00023000137 8.174413e-05 7.478852e-05 0.0036017036 0.0041299327 0.0065784464 0.002805776
0.0031522885 0.0047435323 0.00263218 0.0028567766 0.004099547 0.0003281585 0.0020606678 0.002847819
0.00029135423 0.0016995942 0.003132683 0.0002579169 0.0015737811 0.0035417313 0.00092851353 0.0018025514
0.001965542 0.0012414634 0.0008830934 0.00075511885 0.0022296747 0.0013738332 0.00097175356 0.0019339897
0.0012299769 0.0014021705 0.0015509432 0.00079124694 0.00036322442 0.001264283 0.0007827994 0.000424317
0.0011046161 0.000580119 0.00035377525 0.0010218993 0.0003162076 0.00021458894 0.0008086422 0.0002616414
0.00017948257 0.0014937855 0.0004620093 0.00017025365 0.0018199098 0.000492426 0.00018655966 0.0017324707
0.00053632987 0.00020083257 0.0006953646 0.00058753084 0.0012559033 0.0007903565 0.00059594586 0.0013555267
0.0007250572 0.00085616997 0.0018407895 0.0013030097 0.0022569885 0.0036037248 0.0008242969 0.001389631
0.0023096849 0.00047837148 0.0007880304 0.0016744221 0.0011162759 0.0009808599 0.00043030246 0.0009272367
0.0014185163 0.0009117767 0.0006129579 0.0012998163 0.0012255431 0.0011565358 0.0012074121 0.0006997897
0.001341425 0.0012250197 0.0009392026 0.00087998767 0.0017173856 0.0011693803 0.0012396866 0.0010597846
0.0010993668 0.0013092259 0.0017256542 0.002209427 0.003146781 0.0046121683 0.006530459 0.0019267377
0.0019819096 0.001762135 0.0010616153 0.0011426316 0.0013542927 0.0006764083 0.0005490132 0.0010954306
0.0006572074 0.00079964474 0.0010720923 0.00036439154 0.00058385765 0.00076019746 7.801006e-05 0.0004249821
0.0005794222 0.0006495628 0.00063590513 0.0010218003 0.0005549051 0.00062989694 0.0009882108 0.0008242962
0.0009969985 0.0013474814 0.00054745004 0.000945039 0.0006935672 0.00036663294 0.0006736534 0.00037119453
0.00057843357 0.0007533268 0.000634969 0.0018390296 0.001911293 0.0025413998 0.0010156784 0.0011515473
0.0015375728 0.00023902251 0.00022070175 0.0001973431 0.0003959121 0.00032815582 0.00042528842 0.0013604575
0.0014850866 0.0018403416 0.0031250538 0.003155212 0.0032323713 0.0020223437 0.0011926055 0.00023751346
0.0018558212 0.0010907311 0.00023697727 0.0020721261 0.001258425 0.00032446024 0.00023419425 0.00035047586
0.00079556816 0.00014667143 0.0004106283 0.0015721349 0.00011519232 0.00040410785 0.0017771645 0.0013800798
0.00091207976 0.0012891794 0.00085270946 0.00055176177 0.0010269297 0.0006004773 0.0003691601 0.0008091664
0.0011013248 0.0010868867 0.0023197695 0.001610875 0.0019436053 0.0025025732 0.0012855916 0.001153452
0.0020653591 0.003193796 0.002001939 0.0012964454 0.002305537 0.0017539222 0.0015612177 0.0006138504
0.0003952046 0.0005952037 0.00049774983 0.001102469 0.0015989832 0.0006321515 0.0018902152 0.0027799606
0.0017296924 0.0040549035 0.0049215015 0.0019606363 0.00090360304 0.0004748319 0.00153355 0.0005314321
0.00028910433 0.001409336 0.00052228867 0.00022926008 0.0011144293 0.0013878704 0.0012215917 0.001463424

exp_avg f4 [32]
00000000: 38fe 4531 9862 0432 9c62 9fb2 bdcc 81b2
00000010: f4c0 32b2 a890 08b2 3f97 4731 d440 99b2
00000020: 1287 4bb1 6a9e 86b1 7913 5732 e5d7 7bb1
00000030: c8d1 0231 f7b9 5232 8cbc 7ab0 c753 fdb1
00000040: 7198 4ab2 309c 0ab2 c8b8 c4b1 81e8 d6b0
00000050: 5b28 a5b2 848a 9530 bd87 91b1 a68c 2430
00000060: 560c 45b2 179e aeb1 74bb 0cb2 f411 96b1
00000070: a52b db32 3ba5 5bb1 95ec 5532 3a54 5630
2.881178e-09 7.705829e-09 -1.8554879e-08 -1.511068e-08 -1.0404836e-08 -7.949133e-09 2.9044285e-09 -1.7841025e-08
-2.9617166e-09 -3.917923e-09 1.2519075e-08 -3.664803e-09 1.9036737e-09 1.2265892e-08 -9.121741e-10 -7.3727935e-09
-1.1792609e-08 -8.06817e-09 -5.725358e-09 -1.5636631e-09 -1.922688e-08 1.0880545e-09 -4.235487e-09 5.9862726e-10
-1.1469714e-08 -5.0820392e-09 -8.191694e-09 -4.3676156e-09 2.5514803e-08 -3.1962617e-09 1.2452024e-08 7.797244e-10

exp_avg_sq f4 [32]
00000000: d1bf 5e28 5606 1228 c7e5 8829 ea7f c628
00000010: 4121 972a c1b1 0228 a397 5a28 570c 7c28
00000020: ebbf 5e28 d33f fc27 6a28 9927 a8c6 5128
00000030: 7483 2728 1919 6627 cb80 072a 558b 9827
00000040: 2beb 3427 400e aa28 51c5 e827 02a6 8428
00000050: 5255 2728 bad6 1928 c191 7528 1a91 2228
00000060: 69dd 4128 4646 9b28 5e4b 4828 142b 8728
00000070: 020c b728 27dc 7428 e073 1c29 4f32 9527
1.2365069e-14 8.106002e-15 6.079473e-14 2.203789e-14 2.6846063e-13 7.254994e-15 1.2134312e-14 1.3991486e-14
1.2365091e-14 7.001325e-15 4.2509848e-15 1.1644907e-14 9.298867e-15 3.1932517e-15 1.2035093e-13 4.233954e-15
2.5107503e-15 1.8879971e-14 6.4606866e-15 1.4726938e-14 9.288863e-15 8.5397675e-15 1.3631837e-14 9.02427e-15
1.0761663e-14 1.7238933e-14 1.1118573e-14 1.5006693e-14 2.0322289e-14 1.3592459e-14 3.4739464e-14 4.1410352e-15
