CS330/XCS330-PS3/src/submission/logs/maml/omniglot.way_5.support_1.query_15.inner_steps_5.inner_lr_0.04.learn_inner_lrs_False.outer_lr_0.001.batch_size_16/state7000.pt (torch, 353132 bytes, 30 tensors)

conv0 f4 [32, 1, 3, 3]
0	0xbe02e864	-0.12783962
1	0xbddb4341	-0.10706187
2	0xbcd5f16a	-0.026116092
3	0xbd326bb7	-0.043559756
4	0x3cc414be	0.023935672
5	0xbe52711d	-0.20550962
6	0x3e3e4844	0.18582255
7	0x3e3f5655	0.18685277
8	0xbed8a197	-0.42310783
9	0xbd713643	-0.05888964
10	0xbc9c9b1d	-0.019116933
11	0xbc78e6b6	-0.0151917245
12	0xbecceb86	-0.4002344
13	0xba0b0782	-0.0005303548
14	0xbc8911c4	-0.016732104
15	0x3eaa5cc6	0.33273906
16	0xbbe84d2a	-0.007089277
17	0xbc8a89c7	-0.0169114
18	0x3e237484	0.15962416
19	0xbe944ba5	-0.28963962
20	0xbe112e7c	-0.14177889
21	0xbe985e83	-0.29759607
22	0xbd479e2f	-0.04873484
23	0x3db9fca1	0.09081388
24	0xbe561b45	-0.2090884
25	0x3e62f3cf	0.22163318
26	0x3c7cb19c	0.015423205
27	0x3deae485	0.11469368
28	0x3d6ac7e5	0.05731954
29	0xbea27ec3	-0.31737337
30	0x3dafb7ea	0.08580001
31	0x3d8b9f5e	0.06817506
32	0xbeb392ee	-0.35073036
33	0xbec2f54d	-0.38077775
34	0xbeb5002d	-0.35351697
35	0xbe1a84a4	-0.15089661
36	0x3d3a08b7	0.045418467
37	0xbc945f63	-0.01811189
38	0x3b7b5e37	0.0038355717
39	0xbda77dd0	-0.08178294
40	0x3dc65531	0.09684218
41	0x3e330831	0.17483594
42	0xbec2b6cf	-0.38030097
43	0xbe2fe281	-0.17176248
44	0x3d86af18	0.06576365
45	0xbefe0bd4	-0.496184
46	0x3d851aad	0.064992286
47	0x3df384d2	0.11890568
48	0xbf0a36d0	-0.5398989
49	0x3dfd8475	0.1237878
50	0x3e0c87c6	0.13723668
51	0xbee5b0de	-0.448615
52	0xbce53afd	-0.02798223
53	0x3d72b589	0.059255157
54	0xbe809121	-0.25110725
55	0x3a5f139c	0.0008509697
56	0x3cd66661	0.026171865
57	0x3d147dbe	0.03625273
58	0xbe650016	-0.22363314
59	0xbe1145c8	-0.14186776
60	0x3e8ece9e	0.2789201
61	0xbdfe01af	-0.12402665
62	0xbdb2012c	-0.0869163
63	0x3d10f7f4	0.035392717
64	0x3e929226	0.28627127
65	0xbd151926	-0.036400937
66	0x3d3c46d7	0.045965996
67	0xbd928ca4	-0.07155731
68	0xbebc7219	-0.368058
69	0x3bb9b407	0.005667213
70	0xbd0bd9c5	-0.034143228
71	0xbe2f0251	-0.17090727
72	0x3e5c8841	0.21536352
73	0x3c9b9287	0.018990768
74	0xbe931ecd	-0.28734437
75	0x3c93ee68	0.018058017
76	0xbe8156c7	-0.25261518
77	0xbc067d44	-0.008208577
78	0xbd04f467	-0.032459643
79	0xbd3e2810	-0.046424925
80	0xbe612531	-0.21986844
81	0x3d94110e	0.072298154
82	0xbdd7bff9	-0.10534663
83	0xbec460bd	-0.38355055
84	0x3e51a74d	0.20473976
85	0x3d4bd824	0.049766675
86	0xbed78e14	-0.42100585
87	0x3e0cfdc9	0.13768686
88	0xbe0bc61f	-0.13649796
89	0xbea851c6	-0.32874888
90	0x3eabfe78	0.33592582
91	0xbd8cb745	-0.068708934
92	0x3d48e69d	0.049048055
93	0xbef5579e	-0.4791841
94	0xbd3f8405	-0.046756763
95	0x3c052eb2	0.008128809
96	0x3e893f36	0.2680604
97	0xbc423be3	-0.011855098
98	0x3c0356a3	0.008016261
99	0xbe54d994	-0.20786124
100	0x3e28dc01	0.16490175
101	0x3dacf4d7	0.08445137
102	0xbe8ca5b0	-0.2747016
103	0x3defbb30	0.11705625
104	0x3e1c657b	0.15273087
105	0xbe6667fd	-0.22500606
106	0xbe90d8db	-0.28290448
107	0xbe5bba18	-0.21457708
108	0x3e2649d6	0.16239104
109	0xbd46d4ed	-0.048542906
110	0xbed56e6b	-0.41685805
111	0xb9cf9b74	-0.00039597938
112	0x3e26cb01	0.16288377
113	0xbd021b94	-0.03176458
114	0xbe81bb23	-0.25338086
115	0xbcf63b5d	-0.030057603
116	0x3e61be4a	0.22045246
117	0x3e65cad7	0.22440659
118	0xbeecf43b	-0.46280083
119	0x3eb64d45	0.35605827
120	0x3db9f189	0.09079272
121	0x3c984705	0.018588552
122	0x3d059c8c	0.032619998
123	0xbda6c706	-0.081434295
124	0x3d391c90	0.045193255
125	0xbd07138b	-0.032977622
126	0xbdca767f	-0.098858826
127	0xbe634860	-0.22195578
128	0xbe64fd18	-0.22362173
129	0xbde2a375	-0.11066333
130	0xbd97d2fa	-0.074132875
131	0xbe08c0ef	-0.13354848
132	0xbd930228	-0.07178146
133	0x3c494367	0.012284136
134	0x3e95de12	0.2927099
135	0xbc05284f	-0.008127286
136	0x3ce96af6	0.028493386
137	0x3cfe5d07	0.031050218
138	0x3d98c5c1	0.074595936
139	0xbd8c92bc	-0.06863925
140	0x3d829dc8	0.06377751
141	0x3e8e176f	0.27752253
142	0xbf1cf13b	-0.6130559
143	0x3e222e92	0.15838078
144	0xbd872bb8	-0.066001356
145	0x3d7e9907	0.062157657
146	0x3d0910cd	0.033463288
147	0x3d5be9c3	0.05368973
148	0x3d58785a	0.05284915
149	0x3ca21ad5	0.019788185
150	0x3f0cce1a	0.55001986
151	0x3dae5ad8	0.08513421
152	0xbe3727cf	-0.1788628
153	0xbd0b9da0	-0.03408587
154	0xbe98a726	-0.29815024
155	0x3e5735e1	0.21016647
156	0xbdeae29e	-0.11469005
157	0xbe1e3183	-0.15448575
158	0xbcebeb31	-0.028798671
159	0xbdb21c53	-0.08696809
160	0xbe2dfe91	-0.1699164
161	0x3e50681d	0.20352216
162	0xbd575a41	-0.052576307
163	0x3d9553fb	0.07291409
164	0x3ca1986e	0.019726004
165	0xbe084516	-0.13307604
166	0xbeadf258	-0.33973956
167	0xbeb2c277	-0.3491399
168	0xbaf6042b	-0.0018769553
169	0x3de4b70d	0.11167727
170	0x3e17dad3	0.14829569
171	0x3dc3a1f5	0.09552375
172	0x3e129b27	0.14316998
173	0x3db8507b	0.089997254
174	0x3bc02905	0.005864265
175	0x3dfc578e	0.12321387
176	0xbbd2b07d	-0.0064297304
177	0xbeea3715	-0.4574515
178	0xbf014fa0	-0.50512123
179	0xbed756ba	-0.42058355
180	0xbee62897	-0.44952843
181	0xbef3037e	-0.47463602
182	0xbeca63fa	-0.395294
183	0x3d88c809	0.06678779
184	0x3dc5334d	0.096289255
185	0xbd31da2a	-0.043420948
186	0x3ddebad3	0.10875478
187	0x3e0472f4	0.12934476
188	0x3d67b25d	0.056566585
189	0x3dd08437	0.10181468
190	0x3c5b66bd	0.013391194
191	0xbef61689	-0.48064068
192	0xbce84fc3	-0.028358346
193	0x3e0a08a8	0.13479865
194	0xbeeb8f63	-0.46007833
195	0x3e32c681	0.17458536
196	0x3d9c0afd	0.07619283
197	0xbed79243	-0.42103776
198	0xbe381350	-0.17976117
199	0xbe55084b	-0.20803945
200	0xbe231dbc	-0.15929312
201	0xbe8480e0	-0.25879574
202	0xbd67b1ee	-0.05656617
203	0x3d8d3bb5	0.06896154
204	0xbe81e7c4	-0.25372136
205	0xbdda2fc1	-0.106536396
206	0x3de4f195	0.111788906
207	0x3e1970ef	0.14984487
208	0x3d52716e	0.051377706
209	0x3ea636fa	0.3246382
210	0xbd8651fc	-0.06558606
211	0xbe2e14bb	-0.17000096
212	0xbe38d465	-0.18049772
213	0xbd426823	-0.047462594
214	0xbe25965f	-0.16170643
215	0xbe2b8e3b	-0.16753475
216	0xbf050d20	-0.5197315
217	0x3ea90e3e	0.33018678
218	0x3d987429	0.07444031
219	0xbd11e78d	-0.035621215
220	0x3cf15d7b	0.02946352
221	0x3d041e8a	0.032255687
222	0x3cbf9f85	0.023391495
223	0xbc1d6f78	-0.009609096
224	0xbd74fb0d	-0.059809733
225	0x3e37f91a	0.17966118
226	0x3be7725c	0.0070631932
227	0xbd6a5b72	-0.057216115
228	0x3e2ec29f	0.1706643
229	0x3cd57315	0.026055852
230	0xbd82ca8c	-0.06386289
231	0xbebb02b8	-0.36525512
232	0xbeaeea76	-0.34163254
233	0xbe1b1533	-0.15144806
234	0xbea5ad3e	-0.32358736
235	0xbeb552fc	-0.35414875
236	0xbe411a07	-0.18857585
237	0xbe8b85ef	-0.2725062
238	0x3e31469e	0.17312095
239	0x3e3713c1	0.1787863
240	0xbe8edb78	-0.27901816
241	0x3e20f7bd	0.15719505
242	0x3dc7a3b3	0.0974802
243	0x3e09c2e1	0.13453247
244	0x3d938037	0.072021894
245	0xbe85ff1f	-0.26171204
246	0x3d6c199a	0.057641603
247	0x3b8ddeee	0.004329554
248	0xbe817f9e	-0.25292677
249	0xbcb43de5	-0.02200217
250	0xbe583cc4	-0.2111693
251	0xbda0ed4b	-0.0785776
252	0xbe838bd4	-0.25692618
253	0x3c4334d5	0.011914452
254	0x3e87493b	0.26423058
255	0x3e21ae7d	0.15789218

b0 f4 [32]
0	0xbd80b41b	-0.062843524
1	0xbdbdc5ea	-0.09266265
2	0xbdaf7ca8	-0.08568698
3	0x3d9f661d	0.077831484
4	0xbd0a563a	-0.03377364
5	0xbe3428e1	-0.17593719
6	0xbdca4a13	-0.0987741
7	0xbce45587	-0.027872814
8	0x3c01ae05	0.007915025
9	0x3d7f3566	0.062306784
10	0x3d21a656	0.03946527
11	0x3de55e7e	0.111996636
12	0x3817426e	3.6063073e-05
13	0x3a9b4903	0.0011847321
14	0x3d785054	0.060623482
15	0xbcec6149	-0.028854983
16	0x3ccf1854	0.025280155
17	0x3e07fca9	0.13279976
18	0x3e1d4b0e	0.15360662
19	0x3d9d7a60	0.07689357
20	0x3cf6c087	0.030121101
21	0xbc4e846d	-0.012604815
22	0xbda1dfba	-0.079040006
23	0xbd2b446c	-0.0418133
24	0xbd8fb698	-0.07017249
25	0x3cba1b6a	0.02271815
26	0xbdce6efa	-0.10079761
27	0x3c6c31bf	0.014416157
28	0xbdf778eb	-0.1208361
29	0xbd81afd9	-0.063323684
30	0xbd0fc864	-0.035103217
31	0xbbaf28f9	-0.0053454605

conv1 f4 [32, 32, 3, 3]
0	0x3cd30b3b	0.025762191
1	0xbc82c9df	-0.0159654
2	0xbdc8ed79	-0.09810919
3	0x3af15047	0.0018410765
4	0x3af58449	0.0018731441
5	0xbd963b4f	-0.07335531
6	0xbcfa8d5c	-0.030584984
7	0x3d77fac7	0.060541894
8	0xbd88b1d1	-0.06674541
9	0xbe3798cc	-0.17929381
10	0x3d1610f5	0.036637265
11	0x3cb97a18	0.022641227
12	0xbe36c674	-0.17849141
13	0x3d81e4c4	0.06342462
14	0xbca86f00	-0.020560741
15	0xbd5d6353	-0.0540498
16	0xbbe59068	-0.00700574
17	0xbd2f4f65	-0.042800326
18	0xbd4a573a	-0.049399592
19	0xbddf775c	-0.10911438
20	0x3d5e1fc0	0.054229498
21	0xbd38dbff	-0.04513168
22	0xbce6a9d7	-0.028157158
23	0x3b04463d	0.0020183467
24	0xbd8efb04	-0.06981471
25	0x3ccbb9f6	0.024868947
26	0x3d33e2e3	0.043917548
27	0xb93e6c7b	-0.00018160224
28	0xbc2d869b	-0.0105911745
29	0x3c6e0cea	0.014529446
30	0xbccbbe44	-0.024871
31	0xbcd3bb64	-0.02584619
32	0x3dd50925	0.10402135
33	0x3cf76041	0.030197265
34	0x3e04201d	0.12902875
35	0x3e69a334	0.22816163
36	0x3d12f67b	0.035879593
37	0x3c0de2ad	0.008660001
38	0xbd2a1ab9	-0.04152939
39	0xbd4e62be	-0.050387137
40	0x3c4a8e89	0.012363085
41	0x3d2614c5	0.04054715
42	0x3d2616da	0.040549137
43	0xbdaea389	-0.085272856
44	0xbd7cac38	-0.061687678
45	0x3e58092b	0.21097247
46	0x3cb8bd41	0.02255118
47	0xbbd5ec4f	-0.0065284143
48	0x3e57e568	0.21083605
49	0x3d63274a	0.05545739
50	0xbd93caf3	-0.07216444
51	0x3e22d44d	0.15901299
52	0xbe095080	-0.13409615
53	0xbdc6b99c	-0.09703371
54	0x3d121f83	0.035674583
55	0x3d8c62e1	0.06854797
56	0x3cbc0b04	0.022954471
57	0x3e02b795	0.12765343
58	0x3d48c942	0.04902006
59	0xbc0ce55c	-0.008599605
60	0x3d5656fe	0.052329056
61	0xbd277125	-0.040879387
62	0xbd903015	-0.07040421
63	0x3dc00af9	0.09377093
64	0xbbab30c8	-0.005224321
65	0x3c9304eb	0.017946681
66	0x3d1e1f74	0.038604215
67	0xbd2285ec	-0.0396785
68	0x3cbbd408	0.022928253
69	0xbe4925c3	-0.19643311
70	0x3d88c27d	0.06677721
71	0x3d9cdfa0	0.076598406
72	0x3ca81d52	0.020521794
73	0x3be1daf0	0.0068925545
74	0x3dd6940c	0.104774565
75	0x3bae94eb	0.005327811
76	0x3d15846f	0.03650325
77	0x3d9a7ce6	0.07543354
78	0xbd079060	-0.03309667
79	0xbdaa1d75	-0.083064
80	0x3cf5508e	0.029945638
81	0x3dcbdcc4	0.09954217
82	0x3dfd436c	0.12366375
83	0x3d89ba3a	0.06724973
84	0x3d1a943b	0.03773902
85	0xbb229dc9	-0.0024813286
86	0xbda03fb1	-0.07824648
87	0xbd1eb305	-0.038744945
88	0xbe08b931	-0.13351895
89	0xbd447bbf	-0.047969576
90	0xbe00fa4d	-0.12595482
91	0x3cf85b48	0.030316964
92	0x3da4476f	0.080214374
93	0xbe19f134	-0.15033418
94	0xbba44c9f	-0.0050140168
95	0x3d13a069	0.03604165
96	0xbd34d3e3	-0.044147383
97	0xbddd27a7	-0.10798579
98	0xbdb60d90	-0.088893056
99	0x3d512c31	0.051067535
100	0x3cdfce10	0.027319938
101	0xbd7ff081	-0.06248522
102	0x3dc31749	0.09525926
103	0x3d4e98d9	0.050438736
104	0xbda2e6e3	-0.079541944
105	0x3e4c9688	0.19979298
106	0xbd10cbd3	-0.035350632
107	0x3db6bbca	0.08922537
108	0x3def82f7	0.116949014
109	0x3d51acf1	0.05119032
110	0xbd42f3df	-0.047595855
111	0x3df896e4	0.12138155
112	0xb8b8d2ea	-8.8130895e-05
113	0xbd01526e	-0.03157275
114	0xb937a891	-0.00017515036
115	0x3ba0a368	0.004902292
116	0xbd36e9d2	-0.044656582
117	0x3cce7a56	0.025204819
118	0x3cefd301	0.02927542
119	0x3cfaf35e	0.030633625
120	0x3d574a87	0.05256131
121	0x3d6126c2	0.054968603
122	0x3be48d0e	0.006974823
123	0xbdb88a74	-0.09010783
124	0x3d3412ae	0.043963127
125	0x3c796bca	0.015223453
126	0xbd78e94b	-0.06076936
127	0xbd5f8a13	-0.054575037
128	0xbdced1fc	-0.10098645
129	0xbd1bb682	-0.03801585
130	0xbce58113	-0.028015649
131	0xbdaf0cfe	-0.085474
132	0x3d6a4930	0.057198703
133	0x3e0af8eb	0.13571517
134	0x3e2a1122	0.16608098
135	0x3dccbca2	0.09996916
136	0x3df76a7c	0.12080857
137	0x3d1e06a3	0.038580548
138	0x3bbdb4a3	0.005789356
139	0x3d9db222	0.07699992
140	0xbdb828f8	-0.08992189
141	0xbd9c2394	-0.076239735
142	0xbe84222a	-0.25807315
143	0xbe0cc0dd	-0.13745447
144	0xbc04972e	-0.008092685
145	0xbc93042c	-0.017946325
146	0xbd672423	-0.056430947
147	0xbda0e648	-0.07856423
148	0xbe0c4f57	-0.13702141
149	0xbe0e7302	-0.1391106
150	0xbde01642	-0.10941745
151	0xbe568cd3	-0.20952158
152	0xbe166b29	-0.14689316
153	0x3dc2e6fb	0.09516712
154	0x3d700336	0.058596812
155	0x3d52948d	0.0514112
156	0xbd13b6c6	-0.03606298
157	0xbcd833fa	-0.026391972
158	0x3dda1754	0.10648981
159	0xbd0d5c1c	-0.03451167
160	0xbe540e0b	-0.20708482
161	0xbe06fda2	-0.1318269
162	0xbd1cbcc9	-0.038265977
163	0x3d9af360	0.07565951
164	0x3c07e70f	0.008294835
165	0xbcf9d441	-0.030496718
166	0x3c9133a7	0.017724825
167	0x3b91b8b3	0.0044470667
168	0x3daebd47	0.085321955
169	0x3d847658	0.06467885
170	0x3b6f5b76	0.003652302
171	0xbd696fbc	-0.056991324
172	0xbdfd18c0	-0.12358236
173	0xbd364477	-0.044498887
174	0x3c4bb087	0.012432224
175	0xbd1b5c6c	-0.037929937
176	0x3d2c7480	0.04210329
177	0x3dff207f	0.1245737
178	0x3e91a25e	0.2844419
179	0x3eb208ad	0.34772244
180	0xbeb0eaae	-0.34554046
181	0xbce0fe40	-0.027464986
182	0x3c09578a	0.008382687
183	0xbdc6fa87	-0.09715753
184	0x3d6ec0b2	0.058289237
185	0x3dfb5024	0.12271145
186	0x3daba624	0.08381298
187	0x3cb4683c	0.02202236
188	0x3e79b1b3	0.24384193
189	0x3e14422c	0.14478368
190	0x3dc066d5	0.09394614
191	0x3deeac1d	0.11653922
192	0x3de9907d	0.11404512
193	0x3b49ffef	0.0030822714
194	0xbd03d6a1	-0.032187108
195	0xbbe0966e	-0.00685387
196	0xbdd44483	-0.1036463
197	0xbd9c5b3c	-0.07634589
198	0xbd22e383	-0.039767753
199	0x3cc5aaa4	0.02412922
200	0x3d1ba35d	0.037997592
201	0x3d7bf9ca	0.061517514
202	0xbd5205ac	-0.05127494
203	0x3ce23a62	0.02761573
204	0xbe37916d	-0.1792657
205	0xbd8c48ae	-0.068498
206	0xbdaf8dbb	-0.08571955
207	0xbdaa2dae	-0.08309494
208	0xbc90c284	-0.017670877
209	0xbc7a7135	-0.01528578
210	0xbd2b6d69	-0.04185239
211	0xbd693142	-0.05693174
212	0x3d44d28b	0.048052352
213	0x3c1a8f57	0.009433589
214	0x3cf7d1f8	0.030251488
215	0x3d65fba7	0.056148198
216	0xb9b7d46b	-0.00035062744
217	0x3d29ee95	0.041487295
218	0x3cdf03dd	0.027223522
219	0x3d51a3c8	0.051181585
220	0xbc6ddaa2	-0.014517458
221	0x3d6d1778	0.05788371
222	0xbd0f1afa	-0.034937836
223	0x3cf869f6	0.030323964
224	0xbd79a131	-0.06094474
225	0xbd6bbafd	-0.057551373
226	0x3c45157b	0.012029047
227	0xbd13ec46	-0.036114
228	0xbe2bd81a	-0.16781655
229	0xbca89051	-0.020576628
230	0x3af40b29	0.0018619049
231	0xbdb73319	-0.08945293
232	0x3d7e36be	0.062063925
233	0x3e65dc4c	0.22447318
234	0xbdf80853	-0.12110963
235	0xbdce3781	-0.1006918
236	0xbc3a1eb1	-0.011359856
237	0xbd35c787	-0.044379737
238	0x3c72344f	0.014782979
239	0x3d6d8dca	0.05799655
240	0xbd26b6bc	-0.040701613
241	0xbd7c087b	-0.061531525
242	0xbb192da4	-0.0023373151
243	0xbd9fa053	-0.07794251
244	0x3c3cf99a	0.011534119
245	0x3d91b39a	0.071143344
246	0xbe323117	-0.17401539
247	0x38d109c7	9.967718e-05
248	0x3d6cc099	0.057800863
249	0xbe4db1e1	-0.20087387
250	0xbd5a67ab	-0.05332152
251	0x3d2386b3	0.03992338
252	0xbde57cef	-0.1120547
253	0xbd55eed9	-0.052229736
254	0x3ce0ebf4	0.027456261
255	0xbdb34977	-0.08754247

b1 f4 [32]
0	0x3d568812	0.05237586
1	0x3d49ec84	0.049297825
2	0x3de3d78d	0.111250974
3	0x3d669768	0.056296736
4	0xbe0c452c	-0.13698262
5	0xbd40b145	-0.047044057
6	0xbddd518f	-0.10806572
7	0x3e436292	0.1908057
8	0xbcbceb88	-0.023061529
9	0x3c8c9ed8	0.017165586
10	0x3df282dd	0.118413664
11	0x3cef8ce7	0.029241992
12	0x3d3c917e	0.04603719
13	0x3e3a388d	0.18185635
14	0x3dc50a24	0.09621075
15	0xbb023bd6	-0.001987209
16	0x3d742975	0.05960985
17	0xbe863d16	-0.2621848
18	0xbec568f1	-0.38556626
19	0x3d46f442	0.048572786
20	0xbe3238eb	-0.17404525
21	0x3d994f33	0.07485809
22	0x3d3d23a9	0.046176586
23	0x3d38f16c	0.045152113
24	0x3da5147c	0.08060548
25	0x3d3d5cf5	0.04623123
26	0x3da7cd0e	0.08193408
27	0xbeea0d77	-0.45713398
28	0x3ced715c	0.028984718
29	0x3e0f6e3b	0.14006893
30	0xbca73f6d	-0.020415986
31	0xbda1ae16	-0.078945324

conv2 f4 [32, 32, 3, 3]
0	0x3d7431df	0.059617873
1	0x3dc4d83b	0.09611555
2	0x3d3ac031	0.045593444
3	0x3bb9a9af	0.00566598
4	0x3b8e633c	0.0043453258
5	0xbbef3921	-0.0073005115
6	0x3d6de7b1	0.058082286
7	0x3d58b716	0.05290898
8	0x3d257174	0.0403914
9	0x3d3b67b9	0.045753215
10	0x3cf66ee2	0.03008217
11	0xba8d4ff8	-0.0010781279
12	0x3d55134e	0.052020364
13	0xbcf04305	-0.029328832
14	0x3c898614	0.016787566
15	0xbddf7af3	-0.109121226
16	0xbcf9d8f7	-0.030498965
17	0xbd391f40	-0.045195818
18	0xbb8470c8	-0.004041765
19	0x3d0a0b7f	0.03370237
20	0x3d30c6a0	0.043158174
21	0x3d316948	0.043313295
22	0xbd204dde	-0.03913676
23	0x3d300018	0.04296884
24	0x3cb391b7	0.021920068
25	0x3d382d6d	0.044965196
26	0x3c25aac4	0.0101115145
27	0xbd213785	-0.03935959
28	0xbb61a086	-0.0034427955
29	0xbd3ac801	-0.045600895
30	0xbc93ad66	-0.018027019
31	0x3d7b6492	0.06137521
32	0x3cb39345	0.02192081
33	0xbdfc8b0e	-0.1233121
34	0xbdbaea28	-0.09126693
35	0xbd1a3f22	-0.037657864
36	0xbc28c1d4	-0.0103001185
37	0xbca97247	-0.020684374
38	0x3bfa109c	0.0076313745
39	0xbbbb977d	-0.005724846
40	0xbb8c66e7	-0.004284728
41	0x3cb9a620	0.022662222
42	0x3c9d0a9f	0.019170104
43	0x3caf75e8	0.021418527
44	0x3bbf2ee8	0.005834449
45	0x3bca6e3e	0.0061776927
46	0x3cc79bc3	0.024366265
47	0x3cd9abce	0.02657118
48	0x3c9b20da	0.018936563
49	0xbd1863fc	-0.037204728
50	0x3cd11e82	0.025527243
51	0x3c92d0a2	0.01792175
52	0x39994a16	0.00029237632
53	0x3c1cbfa5	0.009567176
54	0x3b70cca2	0.0036743064
55	0xbc1fe2c6	-0.009758657
56	0xbb952459	-0.004551452
57	0x3d0684ea	0.0328416
58	0xbc8a0690	-0.016848832
59	0x3d161b94	0.036647394
60	0xbd3bbbf5	-0.045833547
61	0x3cab242e	0.020891275
62	0xbac7f6c5	-0.0015256038
63	0xbd52d6d8	-0.051474422
64	0xbc211cbc	-0.009833511
65	0xbd24fcdb	-0.040280204
66	0xbdd00271	-0.10156716
67	0xbd07decf	-0.03317147
68	0xbd1a9fbc	-0.03774999
69	0xbd20090f	-0.03907114
70	0x3c36d023	0.011158022
71	0xbb46fec9	-0.0030364266
72	0x3d31e43f	0.043430563
73	0xbcf4eda5	-0.029898474
74	0xbcca4a72	-0.024693701
75	0x3bdc0984	0.0067150015
76	0xbb0bece0	-0.0021350905
77	0x3ba25a3f	0.004954606
78	0xbcba5c92	-0.02274922
79	0xbb3b405a	-0.0028572292
80	0xbcff990c	-0.031200908
81	0xbb32bfeb	-0.0027275037
82	0x3cc97170	0.024590224
83	0x3cb49c7d	0.022047276
84	0x3c4b32a3	0.012402209
85	0xbd9738e3	-0.07383897
86	0xbcc80c7f	-0.024420021
87	0x3c711a5d	0.014715758
88	0xbda99c33	-0.08281746
89	0x3d158308	0.036501914
90	0x3c37a02b	0.011207621
91	0x3d0088ec	0.03138058
92	0x3d358040	0.04431176
93	0xbc83566a	-0.016032416
94	0xba076184	-0.0005164372
95	0xbcf767d1	-0.03020087
96	0xbb79bd4b	-0.0038107212
97	0xbb3162ff	-0.0027067063
98	0x3cc01285	0.02344633
99	0x3c635c15	0.013876935
100	0x3cbc9478	0.023020014
101	0xbcb3d8a5	-0.02195389
102	0xbc6e165c	-0.014531698
103	0xbce0300d	-0.027366662
104	0x3d85bf68	0.065306485
105	0x3d46fab7	0.048578944
106	0xbc15de2b	-0.009147207
107	0x3d918302	0.07105066
108	0x3c6af4da	0.014340604
109	0x3d26c660	0.04071653
110	0xbcce0c3c	-0.025152318
111	0x3d51a1b3	0.0511796
112	0xbdbce1d6	-0.09222762
113	0x3ba6d90b	0.0050917915
114	0xba7330ce	-0.0009276987
115	0xbd80eb18	-0.062948406
116	0xbdaa875f	-0.08326601
117	0xbc3e9203	-0.011631492
118	0xbc9adec7	-0.018905057
119	0xbd6e4edc	-0.058180675
120	0xbca15ce8	-0.019697621
121	0xbd388ef8	-0.04505822
122	0xbd1f2bd4	-0.038860157
123	0xbd2f269d	-0.042761434
124	0xbcb329c6	-0.021870505
125	0xbd2298ae	-0.039696388
126	0xbc87c424	-0.01657302
127	0xbd1832f9	-0.037157986
128	0x3c5559b4	0.013021875
129	0xbc97946e	-0.018503394
130	0xbc707c3a	-0.014678055
131	0x3b8c353e	0.004278808
132	0xba15a54c	-0.000570853
133	0x3d749ebe	0.0597217
134	0xbcfaa7e0	-0.030597627
135	0x3bf25cb0	0.007396303
136	0xbb919495	-0.004442761
137	0x3d06ac45	0.032879133
138	0x3b82218c	0.0039712843
139	0xbaf204f3	-0.001846461
140	0x3b62e204	0.003461958
141	0x3d8d0d27	0.06887274
142	0x3c5238a6	0.012830889
143	0x3c8581b8	0.016297206
144	0x3d972596	0.07380216
145	0xbb971b4f	-0.0046114097
146	0xbdb7213c	-0.08941886
147	0x3d5f19bd	0.054467905
148	0x3c2274f0	0.009915575
149	0xbd54efff	-0.05198669
150	0x3d7daed5	0.06193431
151	0x3d289b99	0.041164014
152	0xbd054013	-0.03253181
153	0x3d1d6612	0.03842742
154	0xbcc57a2f	-0.024106113
155	0x3d561716	0.05226811
156	0x3d0e4c0f	0.034740504
157	0x3c1ca0a5	0.009559785
158	0xbbb8da44	-0.0056412537
159	0xbcdb6f00	-0.026786327
160	0x39bcc34c	0.00036003662
161	0x3c3b17a3	0.01141921
162	0x3c8dd2a1	0.01731235
163	0x3ae2690e	0.001727374
164	0xbb2e73fa	-0.002661942
165	0x3c2ff697	0.010739944
166	0x3d52bf92	0.051452227
167	0x3ab65f59	0.0013913914
168	0x3bf4cad7	0.0074704695
169	0xbb7d8c80	-0.003868848
170	0x3cc8fc19	0.024534272
171	0x3b1e2c96	0.0024135462
172	0x3ca8f7da	0.020625997
173	0xbda54c47	-0.080711894
174	0xbc41a1ff	-0.011818408
175	0x3d254436	0.040348254
176	0xbc809fdc	-0.015701227
177	0xbc8284b7	-0.015932424
178	0xbd21bf8f	-0.039489325
179	0xba5854ab	-0.00082523626
180	0x3ba405cd	0.0050055743
181	0x3b06dda0	0.0020578876
182	0xbba5f75a	-0.005064887
183	0x3d2bba6a	0.041925825
184	0x3c1f9a5a	0.00974139
185	0xbcff7107	-0.031181825
186	0xbc1e533b	-0.009663398
187	0x3da5c3f6	0.08094017
188	0x3cbb7224	0.022881575
189	0xbd307d78	-0.043088406
190	0xbded3538	-0.11582416
191	0xbd70dad8	-0.058802456
192	0x3b7b4aa3	0.0038344047
193	0x3c895722	0.016765181
194	0xbd4de216	-0.05026444
195	0xbd7fd220	-0.06245625
196	0xbc067e96	-0.008208891
197	0x3cc77b83	0.024350887
198	0xbbde7a59	-0.0067894873
199	0x3c52a795	0.0128573375
200	0xbce8871b	-0.028384736
201	0xbb12fc96	-0.0022428385
202	0x3d135aae	0.03597515
203	0xbbe162ca	-0.0068782317
204	0x3d09d8b9	0.03365395
205	0xb78e27ce	-1.6946255e-05
206	0x3cd576b2	0.026057575
207	0xbceefd0f	-0.029173402
208	0x3cb94313	0.022614991
209	0xbd5b0f79	-0.053481553
210	0x3a9bd7ba	0.0011889853
211	0xbca519d5	-0.02015392
212	0xbe0ef9cb	-0.13962476
213	0xbc754f83	-0.01497257
214	0xbd644cfd	-0.055737484
215	0xbd1a0abe	-0.0376079
216	0x3c53a394	0.012917418
217	0x3b55aa6a	0.0032602795
218	0xbacc20a7	-0.0015573696
219	0xbd17c75b	-0.037055355
220	0xbcc9dd90	-0.024641782
221	0x3b83d85f	0.004023596
222	0x3d2f5187	0.04280236
223	0xbc2f2bbe	-0.010691581
224	0xbcd000a0	-0.025390923
225	0xbd531800	-0.05153656
226	0xbb2de90d	-0.0026536614
227	0xbd8c6985	-0.06856064
228	0xbce6a66a	-0.028155524
229	0xbdbf7209	-0.09347922
230	0xbce16b58	-0.027517006
231	0xbd7f5e62	-0.06234587
232	0xbd560af3	-0.052256536
233	0x3c43b52b	0.011945049
234	0x3c61be0a	0.013778219
235	0x3cdbe44a	0.026842255
236	0xbd377054	-0.04478486
237	0xbcce1f0d	-0.02516129
238	0xbd55b655	-0.05217584
239	0x3c98e3e6	0.018663358
240	0x3cc47c69	0.023985105
241	0xbb7fd428	-0.0039036367
242	0xbc6a69a6	-0.014307415
243	0xbb315143	-0.0027056492
244	0xbca8965e	-0.020579513
245	0xbc610480	-0.013733983
246	0x3d1cf2ff	0.038317677
247	0xbc208acb	-0.009798716
248	0xba5d763c	-0.0008448099
249	0xbd0da532	-0.03458137
250	0x3cd2b887	0.025722755
251	0x3b91aeb6	0.004445876
252	0xbd214c52	-0.039379425
253	0xbc633333	-0.013867187
254	0x3c58fa65	0.013243292
255	0xbd2f71a3	-0.04283298

b2 f4 [32]
0	0x3d8b4f3a	0.06802221
1	0x3e832ff7	0.25622532
2	0x3d707da7	0.05871358
3	0xbd8f99cd	-0.07011757
4	0x3e31602c	0.17321843
5	0x3d34a274	0.04410024
6	0x3d39e738	0.045386523
7	0x3d8679c1	0.065661915
8	0xbd389ae7	-0.0450696
9	0x3e8cbc02	0.2748719
10	0x3e70e4aa	0.23524728
11	0x3df10e22	0.11770274
12	0x3da44da2	0.0802262
13	0xbdaac23b	-0.08337828
14	0x3e135f77	0.14391886
15	0xbd69efeb	-0.05711357
16	0x3e654399	0.22389068
17	0x3b3dd1fb	0.002896427
18	0x3dafd6b3	0.085858725
19	0x3e8ed479	0.2789648
20	0xbc250787	-0.010072595
21	0x3e59bac7	0.21262656
22	0xbe3d776c	-0.18502587
23	0xbc986c99	-0.01860647
24	0x3e74f786	0.23922548
25	0xbd15d331	-0.03657836
26	0x3daf61a2	0.08563544
27	0x3d5f81dd	0.054567207
28	0x3c818613	0.015811002
29	0x3e7b8b1b	0.24564783
30	0x3c42e236	0.011894753
31	0xbb878181	-0.004135311

conv3 f4 [32, 32, 3, 3]
0	0xbdf5b339	-0.11997075
1	0xbd2e4ca8	-0.042553574
2	0xbe322aaa	-0.17399088
3	0xbd12a837	-0.035804953
4	0x3c8507d8	0.016239092
5	0xbcd23577	-0.02566026
6	0xbe1d2a79	-0.15348233
7	0xbd6d8e99	-0.05799732
8	0xbe082df4	-0.1329878
9	0x3e4948f5	0.19656737
10	0x3e48742f	0.1957557
11	0x3e75973d	0.23983474
12	0x3e0138ed	0.12619372
13	0xbb1e80a5	-0.0024185565
14	0x3e0c3c15	0.13694794
15	0x3e794a3e	0.24344727
16	0x3e0ed15b	0.1394705
17	0x3e48f630	0.19625163
18	0x3d29df23	0.041472565
19	0x3d16f217	0.03685197
20	0x3c92e60e	0.017931964
21	0x3d6cbb6d	0.05779593
22	0x3cf844db	0.03030627
23	0x3d2985d6	0.0413874
24	0x3d173048	0.03691128
25	0x3d707a55	0.058710415
26	0x3d1ee976	0.038796864
27	0x3cbbb4ea	0.022913415
28	0x3cdab7ca	0.026698966
29	0xbcbccb29	-0.023046093
30	0x3c8dfbe2	0.017332021
31	0x3d36d466	0.044636153
32	0x3cbff270	0.023431033
33	0x3bccd49c	0.006250931
34	0x3c9f0c77	0.019415123
35	0xbc672c8d	-0.014109743
36	0xbdb085b1	-0.086192496
37	0x3c342e3c	0.010997351
38	0xbdab8a67	-0.083760075
39	0xbc82becf	-0.015960125
40	0x3cd28528	0.02569826
41	0xbd9955da	-0.07487078
42	0xbd872bb8	-0.066001356
43	0xbd8dff63	-0.06933477
44	0xbdb9f93a	-0.09080739
45	0x3e837bd2	0.25680405
46	0x3e0349b0	0.12821078
47	0x3e772de5	0.24138601
48	0x3e491088	0.19635212
49	0x3d594bcf	0.053050812
50	0x3db13518	0.08652705
51	0x3e24684e	0.16055414
52	0x3e1f6238	0.15564811
53	0x3e8aadb9	0.27085665
54	0xbdcd6da0	-0.10030675
55	0xbda3c420	-0.07996392
56	0xbda03832	-0.078232184
57	0xbdbe198b	-0.09282216
58	0xbd8382b8	-0.06421417
59	0xbe2dc72f	-0.16970514
60	0xbdce5af2	-0.1007594
61	0xbe07c4d3	-0.13258676
62	0xbe2eb21d	-0.17060132
63	0x3d947e62	0.07250668
64	0x3dc31447	0.09525352
65	0x3dd06adf	0.10176634
66	0x3e1214b8	0.14265716
67	0x3d39837e	0.045291416
68	0x3e32df3a	0.17467967
69	0x3e097734	0.13424379
70	0x3d657d51	0.056027714
71	0x3dd443e9	0.10364515
72	0xbd529618	-0.05141267
73	0xbc8f66c4	-0.017505057
74	0x3c29db53	0.010367232
75	0xbc60d8a3	-0.013723525
76	0xbdb5bf19	-0.088743396
77	0xbd86899a	-0.06569214
78	0xbd0949f3	-0.03351779
79	0x3d446b20	0.047953725
80	0x3c7a2997	0.015268705
81	0x3e5a9523	0.21345954
82	0x3e200098	0.15625226
83	0x3e827e50	0.25486994
84	0x3e5042a4	0.20337921
85	0x3e12be10	0.14330316
86	0x3e249913	0.16074018
87	0x3e57d14a	0.21075931
88	0x3e1f3a2e	0.15549538
89	0x3e6adc52	0.22935608
90	0xbda7fe7b	-0.08202835
91	0xbdc216c8	-0.094770014
92	0xbdd260ec	-0.10272393
93	0xbdc27fdd	-0.09497044
94	0xbbbcd420	-0.005762592
95	0xbda9383b	-0.08262678
96	0xbddb3795	-0.10703961
97	0xbdd90635	-0.10596887
98	0xbdeba5cf	-0.11506235
99	0x3c874d8c	0.01651647
100	0x3de8bb33	0.113638304
101	0x3c3ee195	0.011650463
102	0x3d9eeff1	0.07760609
103	0xbc1c2129	-0.00952939
104	0x3c4f7a32	0.012663411
105	0x3d7d886e	0.061897688
106	0x3d1d681a	0.038429357
107	0x3b8ddef3	0.004329556
108	0x3d035fc0	0.032073736
109	0xbcf344f6	-0.02969597
110	0x3d84f038	0.064911306
111	0x3c6e0ec4	0.014529888
112	0x3d1500dd	0.036377776
113	0xbd0827b9	-0.033241007
114	0x3c43b5a5	0.011945163
115	0xbd60b87d	-0.05486344
116	0x3d13fb93	0.03612859
117	0xbe11f28e	-0.14252684
118	0xbc167013	-0.009181994
119	0xbdfbf273	-0.12302103
120	0xbd828837	-0.06373637
121	0xbc2ec0a9	-0.010666051
122	0xbdbd028f	-0.09229004
123	0xbdfc24a4	-0.12311676
124	0xbdbc3e71	-0.09191597
125	0xbdfbe492	-0.12299456
126	0x3ded5096	0.11587636
127	0x3de234ef	0.110452525
128	0x3df6358e	0.120219335
129	0x3d930e74	0.07180491
130	0x3d842c4f	0.06453764
131	0x3d46a2f0	0.048495233
132	0x3da87cc9	0.08226926
133	0x3dddc98c	0.10829458
134	0x3de81838	0.11332744
135	0x3d093bf9	0.03350446
136	0x3c33298d	0.010935199
137	0x3d8e8cfe	0.06960486
138	0xbd3e5496	-0.046467386
139	0xbd0b6f9c	-0.034041986
140	0x3b061aaa	0.002046267
141	0x3d454245	0.048158903
142	0xbd6767c4	-0.056495443
143	0xbd9866f5	-0.074415125
144	0xbd7fa032	-0.062408634
145	0xbcaa1249	-0.020760672
146	0xbd966562	-0.07343556
147	0xbbe06812	-0.0068483436
148	0x3c4289bb	0.011873658
149	0xbd2c9cad	-0.042141605
150	0xbdc3701f	-0.0954287
151	0xbc5fafe1	-0.013652773
152	0xbda4d278	-0.08047956
153	0x3cb51e55	0.02210919
154	0xbce00dc2	-0.02735031
155	0xbe06df92	-0.13171223
156	0xbda9e48d	-0.08295546
157	0xbd2e4fed	-0.042556692
158	0xbad93f7a	-0.0016574704
159	0x3d160773	0.036628198
160	0xbd987fe2	-0.07446267
161	0xbdbd5dd5	-0.09246413
162	0xbd9cdaf6	-0.07658951
163	0xbd6c6e14	-0.057722166
164	0xbd4b3306	-0.049609207
165	0x3c32a860	0.010904402
166	0xbca3fd7c	-0.020018332
167	0xbc8faf26	-0.017539572
168	0xbdd70e3d	-0.105007626
169	0xbca49a77	-0.020093186
170	0xbb8de25d	-0.004329963
171	0x3c6b2f4e	0.01435454
172	0xbd110caf	-0.035412487
173	0xbb1ec7b0	-0.002422791
174	0x3c12ebd1	0.008967356
175	0x3c88dd26	0.016707014
176	0xbd01498f	-0.03156429
177	0xbcfa4966	-0.030552577
178	0x3d0edf5e	0.03488099
179	0xbd762e08	-0.060102493
180	0xbd99e441	-0.07514239
181	0xbb78a958	-0.0037942734
182	0xbdca7921	-0.09886385
183	0xbd325f5f	-0.043547984
184	0xbcd3bf4f	-0.025848059
185	0xbb8f0e7b	-0.00436574
186	0xbd55bd12	-0.052182265
187	0xbcbc671e	-0.022998389
188	0xbc6170ef	-0.013759836
189	0x3d183f4b	0.037169736
190	0x3b31736f	0.002707686
191	0x3bfeefaa	0.007780035
192	0xbcc394a2	-0.023874585
193	0xbd2c5a26	-0.04207816
194	0x3c854f1b	0.016273072
195	0x3c43f6d6	0.011960706
196	0xb937efdf	-0.00017541599
197	0xbc784ef1	-0.01515554
198	0x3d92bbc5	0.071647204
199	0x3c6bf4a6	0.01440159
200	0xbc065fde	-0.008201567
201	0x3cdcf6ba	0.026973117
202	0x3d7eb7a7	0.062186863
203	0x3c098331	0.008393095
204	0xbc8e7ee9	-0.0173945
205	0x3bdfc230	0.006828569
206	0xbd60a9e9	-0.05484954
207	0x3c1851fd	0.009296891
208	0xbbbc5671	-0.0057476093
209	0x3cea2b72	0.02858517
210	0x3da884dc	0.08228466
211	0x3d88eaa0	0.06685376
212	0x3be0ad53	0.0068565994
213	0xbcce5579	-0.02518724
214	0x3cceeb2f	0.025258629
215	0x3d6431e3	0.05571164
216	0x3d4f5e30	0.050626934
217	0xbca0c30f	-0.019624261
218	0xbd0423ec	-0.03226082
219	0xbca25216	-0.019814532
220	0x3d56c072	0.052429624
221	0xbbb81bc0	-0.0056185424
222	0x3be27479	0.0069108573
223	0xbd2a74b3	-0.0416152
224	0x3c0b2e41	0.0084949145
225	0x3d8d2853	0.06892457
226	0x3d171e74	0.036894277
227	0x3d80e937	0.06294482
228	0x3db1b603	0.08677294
229	0x3d228d23	0.03968538
230	0x3dc1705d	0.0944526
231	0x3d4e1b25	0.050318856
232	0x3e16cb3e	0.14725968
233	0x3d4063c0	0.04697013
234	0x3cfe87b2	0.031070564
235	0x3cf66df1	0.030081721
236	0xbd34dee5	-0.04415788
237	0xbdd9f296	-0.10641973
238	0xbd99452c	-0.074838966
239	0xbd28f859	-0.041252468
240	0x3d6c8cb2	0.057751365
241	0xbdcea1cf	-0.10089456
242	0xbd30fe0e	-0.043211035
243	0xbbbba90b	-0.0057269386
244	0xbd3e6658	-0.04648432
245	0xbd57ca33	-0.052683067
246	0xbd9239f6	-0.071399614
247	0x3d17c7e1	0.037055854
248	0xbc4ee6b9	-0.012628251
249	0xbd11b888	-0.035576373
250	0xbd3c73a2	-0.046008714
251	0xbdcfd105	-0.10147289
252	0x3c575f97	0.013145349
253	0x3d032838	0.032020777
254	0x3d9feda3	0.078089975
255	0x3d9ecb37	0.07753604

b3 f4 [32]
0	0xbf04b5c4	-0.5183985
1	0xbd16dba6	-0.036830567
2	0x3ec70d65	0.38877407
3	0x3f2ec8af	0.6827497
4	0x3e946f0c	0.28990972
5	0x3f4436b2	0.7664596
6	0x3f5891d5	0.8459752
7	0x3d5aab8d	0.05338626
8	0x3e7b8cd7	0.24565445
9	0xbf173595	-0.59066135
10	0x3e9de580	0.30839157
11	0xbe0abb8e	-0.13548109
12	0xbf18d508	-0.5970006
13	0xbe8500cd	-0.25977173
14	0x3e94bc6a	0.2905
15	0x3dd9638a	0.10614689
16	0x3f63cf6d	0.8898838
17	0xbe9edcf4	-0.3102795
18	0x3f51773e	0.81822574
19	0x3e988df0	0.2979579
20	0xbf33251e	-0.6997851
21	0x3e6ebfe4	0.23315388
22	0x3d85e996	0.065386936
23	0x3ca39e8a	0.019973058
24	0xbea2c58a	-0.31791335
25	0xbcecc698	-0.02890329
26	0x3cfd8574	0.030947424
27	0xbf21818a	-0.63088286
28	0x3d277bc5	0.04088952
29	0x3f3c8f5c	0.7365625
30	0x3ed818ee	0.4220652
31	0xbefd2b10	-0.49446917

w4 f4 [5, 32]
0	0xbf8456f1	-1.0339032
1	0xbfdaa9be	-1.7083051
2	0x3fdaac14	1.7083764
3	0x3edae74b	0.42754588
4	0x39dc7d7f	0.00042055172
5	0x3fb99f53	1.4501747
6	0x3fe97fd7	1.8242139
7	0xc004e833	-2.0766723
8	0x3efede95	0.49779192
9	0xbe862edb	-0.26207623
10	0x4007310b	2.1123683
11	0xbfcd4315	-1.6036097
12	0xbf8b4e34	-1.0883241
13	0xbfd9eb51	-1.7024938
14	0x3fdc69c2	1.7219775
15	0xbfaf446d	-1.3692757
16	0x400a9a4e	2.165668
17	0xbfb6272f	-1.4230708
18	0x3f964542	1.1739886
19	0x3fa1ef75	1.2651201
20	0xbf8527d3	-1.0402778
21	0xbf8922db	-1.0713762
22	0xbfc73a90	-1.5564747
23	0xbf84e470	-1.0382214
24	0xbf91c057	-1.1386822
25	0x3edd9b37	0.43282482
26	0xbf80b404	-1.0054936
27	0xbf6000e4	-0.8750136
28	0xbfb6cba5	-1.4280897
29	0x3fc4cbbc	1.5374675
30	0x3fa2ffab	1.2734274
31	0xbfaa9e9b	-1.3329653
32	0xbf9d3527	-1.2281846
33	0x3fecec36	1.8509586
34	0xbfc728b4	-1.5559297
35	0xbf90150f	-1.1256427
36	0xbff2466d	-1.8927742
37	0xbf93de6a	-1.155225
38	0x3ede01f2	0.4336086
39	0x3f8c2a9f	1.0950507
40	0x3f5d21de	0.863798
41	0xbf9f5c64	-1.245007
42	0xc002ea17	-2.0455377
43	0xbfb76b6c	-1.4329658
44	0xbf442f2b	-0.7663447
45	0xbf80f5d0	-1.0075016
46	0xbfc123b9	-1.5089027
47	0x3fe7b3ba	1.8101723
48	0x3d9f0bed	0.077659465
49	0x3ff8b6ca	1.9430783
50	0x3fb92adb	1.4466203
51	0xc00cff21	-2.2030718
52	0xbf9dd560	-1.2330742
53	0x3ffb592e	1.963659
54	0xbf8bbb1e	-1.0916479
55	0x3e180f84	0.14849669
56	0x3fef486f	1.869398
57	0xbee86b49	-0.45394352
58	0x3f583df4	0.8446953
59	0xbe5aa7a3	-0.21353011
60	0xbfb27a76	-1.3943622
61	0x3f880b33	1.0628418
62	0x3f2ec67b	0.6827161
63	0x3ee9726d	0.45595112
64	0x3ff50d07	1.9144601
65	0x3f671647	0.9026837
66	0xbf032196	-0.51223123
67	0xbfaf6f56	-1.3705852
68	0x3f8605a0	1.0470467
69	0xbfafbc1c	-1.3729281
70	0xbf899927	-1.0749863
71	0xbfce597a	-1.6121056
72	0xbfd83470	-1.6891003
73	0x4019fadc	2.4059362
74	0xbedcb9f3	-0.43110618
75	0xbe1aaad8	-0.15104234
76	0x3f69b489	0.912911
77	0x3fde21c8	1.7354059
78	0x3fddec12	1.7337668
79	0xbf8e0682	-1.1095736
80	0xbf65fc56	-0.8983816
81	0xbf8dd867	-1.1081666
82	0x3f720fa2	0.94555104
83	0xbf75e257	-0.9604849
84	0xbf860b35	-1.047217
85	0xbf120f46	-0.57054555
86	0x40058ed7	2.0868433
87	0x400b92e6	2.180841
88	0xbf9f0415	-1.2423121
89	0xbf64d342	-0.89384854
90	0xbf57c2cb	-0.84281605
91	0x4016ac43	2.354264
92	0xbfaf2563	-1.3683285
93	0xbfa3d501	-1.2799379
94	0xc000af00	-2.0106812
95	0xbfde6309	-1.7373973
96	0x3fa143ff	1.2598876
97	0xbf5b0982	-0.8556138
98	0x3fc3aaca	1.5286496
99	0xbfb1e86e	-1.3899057
100	0xbfc6ffce	-1.5546815
101	0xbfaf51b1	-1.3696805
102	0xbf4cddb5	-0.800258
103	0x3fa4b8f8	1.2868948
104	0x4000f9c4	2.0152445
105	0xbf0a446e	-0.54010665
106	0xbf676d2c	-0.9040096
107	0x3ffb7025	1.9643599
108	0x400950a4	2.145547
109	0xbfccf944	-1.601357
110	0xbfa016b5	-1.250693
111	0xbfb11e54	-1.383738
112	0xbfdaf1e1	-1.7105066
113	0x3f82a555	1.0206705
114	0xbffea7d0	-1.9894962
115	0x3f7f00f2	0.9961082
116	0x4000740c	2.007083
117	0xbf75671f	-0.95860475
118	0xbf2cc7c0	-0.67492294
119	0xbfb71a0f	-1.4304827
120	0xbf5858b8	-0.84510374
121	0x401647a0	2.3481216
122	0xbfa91752	-1.3210242
123	0xbe91e39f	-0.28493974
124	0x3fb4e497	1.413226
125	0xbfc9545b	-1.5728868
126	0x3f716ead	0.943095
127	0xbf748332	-0.9551269
128	0xbf975d9b	-1.1825441
129	0xbf2693fc	-0.65069556
130	0xbfbf72af	-1.4956874
131	0x40043b2f	2.0661123
132	0x3fed6fae	1.8549707
133	0x3fef715c	1.870647
134	0xbfaa9263	-1.3325924
135	0x3f9aa976	1.2082965
136	0xbfa10398	-1.2579222
137	0xbf91ac93	-1.138079
138	0xbe804bbb	-0.25057778
139	0x3bc47969	0.0059959185
140	0xbfc6c5dd	-1.5529133
141	0x3faa027a	1.3282006
142	0xbf88cf6e	-1.0688303
143	0xbea7d78e	-0.32781643
144	0xbf090b33	-0.53532714
145	0xbf90f946	-1.1326072
146	0xbf2e7393	-0.681451
147	0x3fb0184c	1.3757415
148	0x3ec9b97f	0.39399335
149	0xbef6f3f4	-0.48232996
150	0x3f4a5b69	0.7904573
151	0xbfc766ee	-1.5578287
152	0xbf986f50	-1.190897
153	0xbf945d24	-1.1590924
154	0x3fed51f3	1.8540634
155	0xbfbb3f09	-1.4628612
156	0x3ff3c2aa	1.9043782
157	0xbf5f8c0d	-0.87323076
158	0xbf8b70cb	-1.0893797
159	0x3ff81cee	1.9383829

b4 f4 [5]
0	0x3e4f2ea6	0.20232639
1	0x3d99306d	0.074799396
2	0xbe13646a	-0.14393774
3	0xbca8c330	-0.020600885
4	0xbe0a9956	-0.13535056

exp_avg f4 [32, 1, 3, 3]
0	0x3b20fe23	0.002456554
1	0x3a92f7d8	0.0011212779
2	0xba98d82a	-0.0011661102
3	0x3b2505bd	0.0025180422
4	0x3a5e1312	0.00084714696
5	0x3972a13c	0.00023138983
6	0x3a98ef0f	0.0011667925
7	0xb96ef077	-0.00022787029
8	0x3947c872	0.0001905279
9	0x3ad1749f	0.001598019
10	0x3a9d5209	0.0012002598
11	0xbaaa88d7	-0.0013010752
12	0x3aa99dbb	0.0012940684
13	0x3b0c54f5	0.0021412943
14	0x397dce2c	0.00024204765
15	0x3a8f743c	0.0010944675
16	0x3b8e835d	0.004349156
17	0x3b2cbaa5	0.0026356366
18	0xbaefb0ae	-0.0018286908
19	0xbaeacced	-0.0017913856
20	0x3ac3c220	0.0014935173
21	0xba00badb	-0.0004910656
22	0xbb83f91f	-0.0040275003
23	0x3a15e18b	0.00057175074
24	0x3b3175b6	0.0027078218
25	0xbab39692	-0.001370149
26	0x3b0c18bb	0.0021377045
27	0x3bc50887	0.0060129794
28	0x3b626adf	0.0034548563
29	0x3b4274ed	0.0029671744
30	0x3b0aeade	0.002119712
31	0xb9ac9d1d	-0.00032923455
32	0x39dd5cff	0.00042221692
33	0x3a8fc9fb	0.0010970229
34	0xba01f247	-0.00049570616
35	0x3a20a264	0.0006127714
36	0xbb3e5558	-0.0029042568
37	0x389e31aa	7.543278e-05
38	0xba96b854	-0.0011499026
39	0x3ade0554	0.0016938844
40	0x3b2e1445	0.0026562375
41	0x38435f05	4.6580117e-05
42	0x396e0294	0.00022698409
43	0xb8a7d269	-8.0023725e-05
44	0xbb2c25a5	-0.0026267555
45	0xba952896	-0.0011379893
46	0xbafe1a57	-0.0019386512
47	0xbb4b7687	-0.003104599
48	0xb8bba493	-8.947509e-05
49	0xb94e79f9	-0.0001969113
50	0xb9ed8614	-0.0004530406
51	0x3a278a94	0.0006391194
52	0x3a7cf11b	0.00096489646
53	0x3a8ff425	0.0010982795
54	0x3bb78756	0.00560085
55	0x3b8028d2	0.003911116
56	0x3a64b9c5	0.00087251916
57	0x3bca9bad	0.006183109
58	0x3b0ec052	0.0021782112
59	0x3b1fe604	0.0024398575
60	0x3bf8cf49	0.0075930697
61	0x3acf9570	0.0015837383
62	0x3b1b9eaa	0.0023745694
63	0xbafb0a31	-0.0019152818
64	0xb9f41f52	-0.00046562642
65	0xba2d8079	-0.000661857
66	0xbb4a14c5	-0.0030835134
67	0xb9b2aeb8	-0.0003408098
68	0xb9dd20f9	-0.0004217697
69	0xbb8d29fb	-0.004307983
70	0xba6281e5	-0.00086405716
71	0xb95ed279	-0.00021249977
72	0xbb2f6bb0	-0.0026767068
73	0xb99cef75	-0.00029933048
74	0xb991ce4f	-0.00027810267
75	0xbb8eeef3	-0.004361981
76	0xb9bece77	-0.00036393452
77	0xb97fdc50	-0.00024400768
78	0xbb8a4da9	-0.0042206836
79	0xba7640de	-0.0009393821
80	0xba383d6a	-0.00070281944
81	0xbb0219f8	-0.0019851904
82	0xbafe7d40	-0.001941599
83	0xba7b8b57	-0.00095956534
84	0xbb8fd20c	-0.004389053
85	0xbb8c1d91	-0.0042759855
86	0xbacf33c4	-0.0015808274
87	0xbb9f42c9	-0.0048602563
88	0xbb388c8a	-0.002815994
89	0xba3c9f4f	-0.00071953697
90	0xbb70b5f1	-0.003672954
91	0xba63f305	-0.00086955755
92	0xbc01b02f	-0.007915541
93	0xbafef1db	-0.0019450741
94	0x3aae7a7e	0.0013311652
95	0xba816ae3	-0.0009873774
96	0x39eb5d6d	0.000448923
97	0x3ac68375	0.0015145378
98	0x3b0e42a3	0.00217072
99	0xbb441711	-0.0029920975
100	0xbb0e359e	-0.0021699439
101	0xba7e6d18	-0.0009705587
102	0x3a8b6808	0.0010635862
103	0x3addf332	0.001693344
104	0xba188df3	-0.0005819492
105	0x3ada3e70	0.0016650688
106	0x3aa1362c	0.001229947
107	0xba848dba	-0.0010113039
108	0xbb292654	-0.00258102
109	0xbba28e6a	-0.0049608247
110	0xbb17b7e5	-0.0023150381
111	0xbb2dcd2a	-0.0026519992
112	0xbb95db5e	-0.0045732697
113	0xbb56334c	-0.0032684384
114	0xb99350e7	-0.00028098302
115	0xbb1737c5	-0.0023074013
116	0xbb9b417b	-0.0047380305
117	0xbb80967d	-0.0039241896
118	0xbb89b763	-0.0042027696
119	0xbb6eaec1	-0.003642008
120	0xbba33659	-0.004980844
121	0xbbc4c55e	-0.0060049733
122	0xbc020bc8	-0.007937379
123	0xbbb8c958	-0.0056392364
124	0xbbbf712f	-0.00584235
125	0xbbfa961a	-0.007647288
126	0xba15ea65	-0.00057188264
127	0xb98d64d9	-0.00026968753
128	0xba8521fa	-0.001015722
129	0xbb083982	-0.002078623
130	0xbb2a0af3	-0.0025946468
131	0xbad2fa38	-0.00160963
132	0xbbe03c71	-0.0068431427
133	0xbbd6662e	-0.0065429425
134	0xbbb07a61	-0.0053856825
135	0xbb888cf6	-0.0041671945
136	0xbb998157	-0.004684608
137	0xbae8d05b	-0.001776229
138	0xbb395d1b	-0.0028284255
139	0xbb64dfa1	-0.0034923332
140	0xbb12d26e	-0.0022403258
141	0x3a04093e	0.00050367776
142	0x3ac9dfbc	0.0015401761
143	0x3b59e18e	0.0033246013
144	0xbb0667ef	-0.0020508727
145	0xbaa4bbd3	-0.0012568183
146	0xbaa9b693	-0.0012948088
147	0xba9c6b1a	-0.0011933774
148	0x363d31f2	2.8192267e-06
149	0xba1cbf73	-0.0005979456
150	0xba4b0d50	-0.0007745819
151	0x38dd874e	0.00010563304
152	0xbaac6f14	-0.0013155662
153	0x39a327a7	0.00031119326
154	0x3ac39b1e	0.0014923548
155	0x3b1ff092	0.0024404866
156	0x3930aeb4	0.0001684975
157	0x39f00b9f	0.00045785026
158	0x3a62a12e	0.00086452335
159	0x396715f7	0.00022038059
160	0x3a195e38	0.00058505265
161	0x3a1303c1	0.00056081644
162	0xbafb098c	-0.0019152625
163	0xbadf07d9	-0.0017015889
164	0x39e4c4e7	0.00043634253
165	0xba7ba6f9	-0.0009599771
166	0xb9374f10	-0.00017481693
167	0x3a4c48cd	0.00077928306
168	0x39786b0d	0.00023691003
169	0x3a0b5849	0.0005315585
170	0xba8be5be	-0.0010673327
171	0x3b9dffec	0.004821768
172	0x3bb911cc	0.0056478735
173	0x3bb1aed0	0.0054224506
174	0x3b545ad2	0.0032402766
175	0x3b32ee6e	0.002730276
176	0x3afa6d7d	0.0019106116
177	0x3b28cf74	0.0025758417
178	0x3ac6b7ea	0.0015161012
179	0x3ad31961	0.0016105586
180	0xbb54f679	-0.0032495542
181	0xbae00b32	-0.001709318
182	0xbb298e7c	-0.002587228
183	0xbc120fb1	-0.008914874
184	0xbbc6a259	-0.006061834
185	0xbb8d2f07	-0.0043085846
186	0xbc19273b	-0.009347732
187	0xbbf7faa0	-0.0075677186
188	0xbc0a6722	-0.00844744
189	0x3986894a	0.0002566076
190	0xb9c74914	-0.00038010685
191	0xb9a1cdd5	-0.0003086167
192	0xbaaacd93	-0.0013031237
193	0xbaccd5ab	-0.0015627643
194	0xba2cb4ff	-0.000658825
195	0xbae03e79	-0.0017108462
196	0xbaf105f6	-0.0018388617
197	0x39bc880a	0.0003595951
198	0xb854e81f	-5.076092e-05
199	0x3987241f	0.0002577612
200	0xbaa55001	-0.0012612344
201	0x385fe0f4	5.3376847e-05
202	0x3a207f26	0.0006122462
203	0xba797833	-0.0009516507
204	0xb87d6e23	-6.0422473e-05
205	0xbab34ffe	-0.0013680456
206	0xbaca1b4e	-0.0015419514
207	0x3a713f5b	0.0009202861
208	0x3abdf91f	0.00144938
209	0xb95035af	-0.00019856424
210	0xb9211b80	-0.00015364401
211	0x3a423d58	0.00074096536
212	0xbab6675a	-0.0013916299
213	0x3aeb477c	0.0017950381
214	0x3b4641ed	0.0030251697
215	0xbb00439e	-0.0019571553
216	0x3b213858	0.0024600234
217	0x3b3a7862	0.0028453101
218	0x3a701c96	0.0009159533
219	0xb94e0e0a	-0.00019650921
220	0xb918fa44	-0.00014589081
221	0x3a537285	0.0008066076
222	0xbb7aa66c	-0.0038246168
223	0xbab4f43b	-0.0013805697
224	0xba04a8f5	-0.0005060577
225	0x3b6d8f3c	0.0036248704
226	0x3a014d15	0.00049324456
227	0x3916ea20	0.00014392333
228	0x3ab85211	0.0014062544
229	0xbb909d93	-0.0044133156
230	0xbb85471b	-0.0040673143
231	0x3b8624f2	0.0040937597
232	0xba87f5fe	-0.0010372994
233	0xb8b714af	-8.7299726e-05
234	0x3a0db60d	0.0005405851
235	0x3a94c68b	0.0011350674
236	0xb9b48523	-0.0003443147
237	0x39881cca	0.0002596139
238	0x3a28fff0	0.0006446829
239	0x3aec052a	0.001800691
240	0x3b30bc61	0.0026967751
241	0x3a74fdd8	0.0009345687
242	0x3b2de372	0.0026533273
243	0xba685ac5	-0.00088636234
244	0x3a0d987a	0.0005401444
245	0x38373d89	4.368791e-05
246	0xbb994faa	-0.004678686
247	0xbab6bea9	-0.0013942319
248	0x3a6dfb4f	0.00090782804
249	0xbbb5a4e1	-0.0055433367
250	0xbae7372d	-0.0017640345
251	0xb9c8bc76	-0.00038287387
252	0x399d6e79	0.00030027682
253	0xbaf7c45f	-0.0018903128
254	0xbb5b8c3b	-0.0033500332
255	0xbb3df8a0	-0.0028987303

exp_avg_sq f4 [32, 1, 3, 3]
0	0x3a1cc955	0.00059809285
1	0x3a0d2bc4	0.0005385245
2	0x39ee424a	0.00045444287
3	0x3a5f828e	0.0008526229
4	0x3a638e83	0.00086805987
5	0x39a3a462	0.00031212257
6	0x3a8d460d	0.0010778323
7	0x3a78a418	0.0009484901
8	0x3958f090	0.00020688982
9	0x393dba43	0.00018093832
10	0x393b87fc	0.00017884368
11	0x39e79daf	0.00044177237
12	0x39493d50	0.00019191694
13	0x398c030d	0.00026705154
14	0x3a337b8c	0.0006846718
15	0x39ce69d9	0.00039370244
16	0x39d350d3	0.00040305275
17	0x3a6273de	0.00086384814
18	0x39a23468	0.00030938094
19	0x390aee40	0.0001324946
20	0x39b2e050	0.00034117932
21	0x39008650	0.00012257067
22	0x3987c763	0.0002589776
23	0x3a1968b6	0.000585209
24	0x39cd17b4	0.00039118307
25	0x3a30a58b	0.0006738535
26	0x3a7ddae8	0.00096838037
27	0x3abbfeae	0.0014342868
28	0x3a2c6074	0.0006575652
29	0x38e186c4	0.00010753938
30	0x3a2cad85	0.0006587136
31	0x39b047a4	0.00033622712
32	0x38357c0d	4.3269294e-05
33	0x3883246c	6.253351e-05
34	0x38bbf172	8.9618276e-05
35	0x384b9269	4.8535327e-05
36	0x39e5c671	0.00043826134
37	0x39e7e1ec	0.00044228078
38	0x3a17ae7c	0.0005786193
39	0x39776fb1	0.00023597364
40	0x399f29c4	0.0003035796
41	0x39ee639c	0.00045469112
42	0x39117d00	0.00013874844
43	0x397e497b	0.00024250701
44	0x39fef391	0.00048628126
45	0x38a6cca7	7.953616e-05
46	0x39f1f6f7	0.00046151105
47	0x3a3d6cfb	0.0007226017
48	0x38a44ac7	7.834058e-05
49	0x39df875a	0.0004263472
50	0x3a3efff4	0.0007286065
51	0x38b7f43e	8.771614e-05
52	0x39df4c94	0.0004259093
53	0x3a371b14	0.0006984931
54	0x3953ce29	0.00020199329
55	0x392acc66	0.00016288608
56	0x393e42f9	0.00018144761
57	0x399f8e1f	0.00030432732
58	0x38c89a95	9.565536e-05
59	0x3899a5ca	7.326489e-05
60	0x3a223e05	0.0006189051
61	0x39b99dbc	0.0003540347
62	0x395f4334	0.00021291972
63	0x39a62a57	0.00031693533
64	0x3984460f	0.000252292
65	0x3920bfdd	0.00015330264
66	0x39a45f24	0.00031351403
67	0x39562067	0.00020420701
68	0x384220db	4.6283803e-05
69	0x39b83ad0	0.00035139034
70	0x3975f63e	0.00023456753
71	0x38892322	6.539213e-05
72	0x39f61412	0.0004693573
73	0x393c72d0	0.00017971848
74	0x38ba3e08	8.880725e-05
75	0x39a78883	0.0003195443
76	0x387ad01d	5.9798465e-05
77	0x384d5c55	4.89618e-05
78	0x39930e53	0.00028048697
79	0x38682ea5	5.535655e-05
80	0x38074aa2	3.2256015e-05
81	0x3a0e4c82	0.00054282707
82	0x39456b83	0.00018827435
83	0x385c9b33	5.2596628e-05
84	0x3a0c03a1	0.0005341117
85	0x394d02e8	0.00019551406
86	0x38847682	6.316324e-05
87	0x3a0f4371	0.00054650666
88	0x394d6f58	0.00019591802
89	0x386eedab	5.6964967e-05
90	0x39dad559	0.00041739157
91	0x39a3d9d5	0.0003125208
92	0x3a749b69	0.0009331019
93	0x39e049ea	0.0004277968
94	0x39a069f8	0.0003059653
95	0x3a8b0315	0.0010605777
96	0x39e33674	0.00043337385
97	0x39c59f49	0.00037693445
98	0x3a77baf4	0.00094501604
99	0x3a31294f	0.00067581696
100	0x3a6e6055	0.0009093334
101	0x3a79d20e	0.0009529897
102	0x39c736df	0.0003799712
103	0x3a1de4a6	0.0006023146
104	0x3a730613	0.00092706195
105	0x38f36e9d	0.00011607746
106	0x39892c90	0.00026163878
107	0x39f5f088	0.0004690925
108	0x3a392185	0.0007062185
109	0x3a3767e9	0.000699638
110	0x399dd675	0.00030105156
111	0x3a3dd74a	0.00072418584
112	0x3a520d31	0.000801283
113	0x3a0a14ba	0.0005267371
114	0x39d5fbe4	0.000408142
115	0x3a1e593d	0.0006040519
116	0x3a07eede	0.00051854353
117	0x39965f18	0.0002868108
118	0x39b967d5	0.0003536331
119	0x399da01a	0.00030064658
120	0x3a118d79	0.0005552392
121	0x3a3d817c	0.00072290725
122	0x3a488a7f	0.0007650032
123	0x39bfa2ad	0.00036551562
124	0x3a2ab3ec	0.0006511796
125	0x3a602bb1	0.00085514324
126	0x38f6d657	0.00011770118
127	0x38d2ada2	0.00010045922
128	0x38fc8ced	0.00012042546
129	0x394c7ddb	0.00019501841
130	0x395f669d	0.00021305164
131	0x3989dd6f	0.00026295657
132	0x39fa00e3	0.00047684376
133	0x3a2088f4	0.0006123923
134	0x3a56de10	0.0008196542
135	0x3a37fb1b	0.00070183136
136	0x3a3398d1	0.00068510795
137	0x3a689726	0.00088726205
138	0x3a08a551	0.00052126223
139	0x39f6c5ad	0.00047068056
140	0x3a2f0a42	0.0006677249
141	0x39a271fa	0.00030983967
142	0x394885bc	0.00019123306
143	0x39f21f30	0.00046181073
144	0x3965b683	0.00021907133
145	0x39f6fdb7	0.0004710981
146	0x39e0ae09	0.00042854276
147	0x394e12c6	0.00019652685
148	0x39ce5308	0.00039353245
149	0x39c7081c	0.0003796228
150	0x37fa8003	2.9861932e-05
151	0x397601df	0.00023461085
152	0x39bcbda1	0.0003599944
153	0x38efdaf7	0.000114371935
154	0x38fa0ebf	0.000119236756
155	0x39910649	0.00027661238
156	0x38d68f25	0.00010230978
157	0x3901ba0d	0.00012371708
158	0x39ae8ebb	0.0003329421
159	0x3943e850	0.00018683192
160	0x398aae66	0.00026451348
161	0x39fe355d	0.00048486414
162	0x390a1552	0.00013168648
163	0x393b2625	0.0001784792
164	0x39398439	0.00017692232
165	0x38817aff	6.174109e-05
166	0x388a2b5e	6.5884306e-05
167	0x38330924	4.268544e-05
168	0x395dcf0b	0.00021153332
169	0x396bd50f	0.00022490717
170	0x39710369	0.00022984821
171	0x3a02b40e	0.00049859367
172	0x3a07c5b8	0.00051793037
173	0x3a11b51c	0.00055582984
174	0x399f4ffe	0.00030386442
175	0x39a8a802	0.00032168633
176	0x39ae15c5	0.00033204086
177	0x3881456f	6.164132e-05
178	0x3871e801	5.7674948e-05
179	0x388a30b1	6.589422e-05
180	0x38b16d9b	8.460433e-05
181	0x38935463	7.0252245e-05
182	0x38ba47dc	8.882556e-05
183	0x39ea1503	0.00044647613
184	0x39dcecd3	0.00042138118
185	0x39f33363	0.00046386858
186	0x3a57531e	0.00082139845
187	0x3a4f6616	0.00079116353
188	0x3a57cf90	0.00082325283
189	0x39f310f4	0.00046361203
190	0x39c137a8	0.00036853296
191	0x385133bb	4.987766e-05
192	0x39f76e53	0.0004719371
193	0x39cdc72c	0.00039249042
194	0x3880951c	6.1312894e-05
195	0x3a07acb6	0.0005175577
196	0x39e434b6	0.00043526822
197	0x388ef367	6.816425e-05
198	0x378cc759	1.6782129e-05
199	0x37c67878	2.3659537e-05
200	0x3985f6f4	0.0002555173
201	0x378213d5	1.5506443e-05
202	0x3825497c	3.9407503e-05
203	0x39bb93ce	0.00035777543
204	0x377f21f3	1.5207089e-05
205	0x38c1404c	9.2149334e-05
206	0x39faf9e0	0.00047869887
207	0x3a1677fd	0.00057399255
208	0x39f54518	0.0004678152
209	0x3a1f4aa3	0.00060764904
210	0x39e40526	0.00043491385
211	0x3979fcba	0.00023840638
212	0x39ae31b7	0.00033224907
213	0x39a88010	0.0003213887
214	0x39142c76	0.00014130943
215	0x3945071f	0.00018790037
216	0x391812f4	0.0001450291
217	0x398e57d1	0.0002714978
218	0x3a0d9104	0.0005400332
219	0x39b48443	0.00034430818
220	0x39fe2bf5	0.00048479406
221	0x3a194f88	0.0005848338
222	0x3a05f2b7	0.00051097147
223	0x39cb1d29	0.00038740903
224	0x3a0055f9	0.00048956234
225	0x3a26de97	0.0006365566
226	0x39aa255b	0.0003245276
227	0x395fd4fe	0.00021346283
228	0x39e2996e	0.00043220393
229	0x396a8df9	0.00022368868
230	0x39486688	0.00019111682
231	0x3953cb27	0.00020198208
232	0x385e0d1b	5.294113e-05
233	0x389ae73f	7.386365e-05
234	0x388759f8	6.4540596e-05
235	0x3945dd9b	0.00018869939
236	0x39bd8368	0.00036146794
237	0x38fc45c4	0.00012029291
238	0x39a5f9fa	0.000316575
239	0x3a0d5579	0.00053914596
240	0x3983ed53	0.00025163087
241	0x3a01edd1	0.0004956397
242	0x3a492419	0.00076729205
243	0x3a1982e5	0.00058559916
244	0x396b0210	0.00022412115
245	0x38a5f479	7.91335e-05
246	0x39eb27ad	0.00044852254
247	0x391c346d	0.0001489685
248	0x3829a2e9	4.044446e-05
249	0x39bc5995	0.00035924898
250	0x38dbe65a	0.0001048564
251	0x3804040f	3.1475032e-05
252	0x3995e5ca	0.000285907
253	0x3a1b0cfc	0.00059147156
254	0x3a32abe8	0.0006815777
255	0x39cdbac6	0.00039239804

exp_avg f4 [32]
0	0xb19d9c5e	-4.5870783e-09
1	0xb2018925	-7.539971e-09
2	0x30519569	7.624608e-10
3	0x3172b025	3.5315761e-09
4	0x31a16940	4.6976822e-09
5	0x31c713b0	5.7939005e-09
6	0x30af3bd1	1.2749927e-09
7	0x30ac6fa5	1.2546378e-09
8	0xb13177a1	-2.5824891e-09
9	0x31ab58c3	4.986846e-09
10	0x3275e212	1.4312279e-08
11	0xaff2dfd8	-4.4178594e-10
12	0xb0900cd8	-1.0481029e-09
13	0xaf7498cb	-2.2245954e-10
14	0xb24fcf70	-1.2096152e-08
15	0xb160aa60	-3.2693137e-09
16	0xb159b9f9	-3.168337e-09
17	0x310e808f	2.0736797e-09
18	0x304973a7	7.3287726e-10
19	0x308d9255	1.030069e-09
20	0xb129b86d	-2.469757e-09
21	0xadf1bc9e	-2.748229e-11
22	0x305cb498	8.0292173e-10
23	0xb0b206e2	-1.2953161e-09
24	0xb13cdba5	-2.7482454e-09
25	0x3108fece	1.9935444e-09
26	0x3112fccb	2.1389492e-09
27	0x31466798	2.8871678e-09
28	0xb11e37e6	-2.30238e-09
29	0xb12e7528	-2.5386928e-09
30	0xb18f8091	-4.176464e-09
31	0xb1b61bad	-5.3000435e-09
