CS330/XCS330-PS3/src/submission/logs/maml/omniglot.way_5.support_1.query_15.inner_steps_5.inner_lr_0.04.learn_inner_lrs_False.outer_lr_0.001.batch_size_16/state12100.pt (torch, 353186 bytes, 30 tensors)

conv0 f4 [32, 1, 3, 3]
000000 52 8a 57 be 04 ae 13 be cc 92 59 bd 77 9b b4 bd
       -0.21048859 -0.1442185 -0.053118512 -0.08818715
000010 d3 97 89 3a 35 53 73 be 68 eb 57 3e 14 b5 7c 3e
       0.0010497518 -0.2376221 0.21085894 0.24678451
000020 4f 24 07 bf ba f3 28 be e7 09 1d bd 89 a6 12 bd
       -0.5278978 -0.16499224 -0.03833952 -0.03580335
000030 b4 7e 06 bf 3a 48 20 bb 35 83 c7 bc 91 e3 d0 3e
       -0.52537084 -0.0024457113 -0.024354557 0.4079862
000040 4b 26 a1 3a 7b 80 1b bd b7 66 5c 3e 5f 2f fc be
       0.0012294737 -0.037964325 0.21523558 -0.4925489
000050 b3 81 56 be c9 6e ec be 0c 09 a2 bc 6d 9c 0d 3e
       -0.20947914 -0.46178272 -0.019779705 0.13829203
000060 b4 53 a7 be 51 95 91 3e e4 9a 66 bb 4b 1e ef 3d
       -0.32681048 0.28434232 -0.0035187537 0.116757
000070 9f 79 a9 3d 19 ab dc be 83 4b ca 3d 64 49 d9 3d
       0.082751505 -0.43099287 0.09877684 0.10609701
000080 04 7d e8 be c2 0f fb be 89 94 f4 be da 58 ab be
       -0.4540788 -0.4903546 -0.47769573 -0.33466226
000090 6a 50 76 3d ac 22 f1 bc 46 48 3c bc 17 c9 cc bd
       0.060135283 -0.029435478 -0.011491841 -0.09999292
0000a0 72 1c d0 3d a1 48 9d 3e 2c 0c 0b bf 89 99 9a be
       0.101616755 0.30719474 -0.5431545 -0.30195263
0000b0 bd d9 af 3d 4f ce 1c bf ac 55 a8 3d d7 74 03 3e
       0.08586452 -0.612523 0.082194656 0.1283754
0000c0 33 bd 2c bf 94 04 18 3e 31 a1 43 3e f8 99 14 bf
       -0.67476195 0.14845496 0.19104458 -0.5804744
0000d0 65 90 0f bd fa 1a b1 3d 15 d4 ba be 6b a0 85 bd
       -0.035049815 0.086477235 -0.3648993 -0.06524738
0000e0 ad 90 c8 b8 9c bd 32 3c e6 c9 6a be 50 cc 45 be
       -9.563691e-05 0.010909464 -0.2292858 -0.1931622
0000f0 4b 0e b3 3e c4 65 02 be bf f4 df bd af eb 6e 3b
       0.34971842 -0.12734133 -0.109353535 0.0036456396
000100 ed ab bb 3e 3e 11 0d bd e2 7d 8b 3d eb 68 66 bd
       0.36654606 -0.03444027 0.068111196 -0.0562524
000110 b6 fb cd be 2a 66 45 3c 62 fb 2f bd 0a 9a b7 be
       -0.40231103 0.012048284 -0.042964347 -0.3585971
000120 d2 a6 9a 3e ba 9e 98 bb 08 46 af be 0e 93 c7 3a
       0.302054 -0.0046575936 -0.34233117 0.0015226321
000130 b1 5d 94 be 1b 10 d4 bd f2 c4 3b bd 16 6c 8f bd
       -0.2897773 -0.103546344 -0.04584212 -0.07003038
000140 de 53 88 be f9 01 b6 3d 31 37 05 be 75 4b ff be
       -0.26626486 0.08887095 -0.13009335 -0.49862257
000150 79 e6 7c 3e 0c c3 90 3d 80 b1 1b bf 66 06 45 3e
       0.24697293 0.07068452 -0.6081772 0.19240722
000160 c6 05 fc bd 0f 86 02 bf 67 a4 e7 3e 51 f2 a4 bd
       -0.12305789 -0.5098581 0.45242617 -0.08054031
000170 ac 21 9e 3d a2 4b 2b bf 30 31 a7 bd ce 5b 32 bc
       0.07721266 -0.6691228 -0.08163679 -0.010886146
000180 09 44 87 3e 5b d1 f4 bb 61 03 1e 3c 05 26 7f be
       0.26419094 -0.007471246 0.00964436 -0.24916847
000190 69 ed 55 3e 06 73 27 3e f7 50 ca be 07 e7 87 3d
       0.20891346 0.16352472 -0.39514896 0.06635862
0001a0 d3 b6 41 3e 8e d2 a0 be ba 05 b8 be 75 87 8c be
       0.18917398 -0.3141064 -0.3594187 -0.27447096
0001b0 9c 3c 27 3e 20 19 27 bd 3e 93 18 bf 22 58 13 bb
       0.16331714 -0.040795445 -0.59599674 -0.0022482951
0001c0 71 09 52 3e 84 a3 94 bd 51 88 c5 be 7f a8 26 bc
       0.20511414 -0.07257751 -0.38580564 -0.010172009
0001d0 7e 2a 9f 3e cd c7 8f 3e e6 ac 25 bf 2a e6 eb 3e
       0.31087106 0.28082123 -0.6471695 0.4607404
0001e0 c2 e7 ca 3d 4a 58 e1 3c bb 4f f7 3c dd ca fb bd
       0.099074855 0.02750792 0.030189386 -0.122945525
0001f0 6e 4d 0c 3d 28 2e 58 bd 97 d1 32 be 49 b6 90 be
       0.03425353 -0.052778393 -0.17462765 -0.28264073
000200 fa 85 a6 be d2 80 38 be cb 4d ba bd c2 0b 10 be
       -0.3252409 -0.18017891 -0.09096869 -0.14066985
000210 84 15 d2 bd 71 59 1f 3b dd 60 c5 3e 05 e7 bb bb
       -0.1025801 0.0024314786 0.38550463 -0.005734327
000220 a0 aa 1f 3c 4d cb d6 3b 76 a4 bc 3d 1d 5d 99 bd
       0.00974527 0.006554997 0.09211056 -0.07488463
000230 75 f8 ca 3d d8 8b c9 3e 53 c2 54 bf 63 76 5f 3e
       0.09910671 0.39364505 -0.83109015 0.21822505
000240 b8 87 83 bd 03 36 91 3d 55 6f 01 3d 76 a2 97 3d
       -0.06422371 0.0709038 0.031600315 0.07404034
000250 43 b7 42 3d b1 a0 74 3d 84 49 44 3f 38 9d a2 3d
       0.047538053 0.05972356 0.76674676 0.07940143
000260 4a 34 7d be 4b f9 97 3b a7 7f b9 be 63 2b 5e 3e
       -0.24726978 0.0046378723 -0.36230204 0.21696238
000270 ce ae 67 be 7f 90 3f be 20 58 b3 bc ac c6 16 be
       -0.22625276 -0.18707465 -0.021892607 -0.14724225
000280 d5 15 31 be 4f a1 7d 3e f1 c9 d9 3c a3 8a ab 3d
       -0.17293485 0.24768566 0.026585551 0.08376052
000290 5c fc 80 3d d3 f2 8b be a8 bb ed be 87 79 e9 be
       0.06298134 -0.27333698 -0.46432233 -0.4560053
0002a0 fc fe 90 ba 26 95 17 3e 22 85 12 3e f7 b4 af 3d
       -0.0011062319 0.1480299 0.14308599 0.08579438
0002b0 f6 83 47 3e ed e7 03 3e 1b 93 5a bc 9e 5d 18 3e
       0.19483933 0.12881441 -0.013340737 0.14879462
0002c0 61 2f 77 bc f2 1f 14 bf e0 a7 28 bf 63 df 10 bf
       -0.01508698 -0.57861245 -0.65881157 -0.5659086
0002d0 19 3a 18 bf ab 41 20 bf 1f fb f9 be c8 4a 5b 3d
       -0.5946365 -0.626002 -0.48824403 0.053538114
0002e0 82 d5 03 3e b4 08 78 bd d3 0a 28 3e 82 10 35 3e
       0.12874416 -0.060555175 0.16410379 0.17682078
0002f0 39 cf a6 3d c4 17 10 3e 33 22 42 bc d5 c5 15 bf
       0.08144993 0.14071566 -0.011848974 -0.5850499
000300 f4 95 f5 bc 01 f8 10 3e f9 5b 17 bf c4 ac 53 3e
       -0.02997873 0.14157106 -0.59124714 0.20671374
000310 b4 75 0d 3e 54 64 0e bf 1b b7 cc be 2d 26 b6 be
       0.13814431 -0.5562184 -0.39983448 -0.35576
000320 1c 29 25 be 1f 5b a7 be 06 8a 47 be 24 cc 5e bb
       -0.16128963 -0.32686707 -0.19486246 -0.003399619
000330 3d 94 db be e5 49 8d be 99 1b bd 3d 98 89 12 3e
       -0.42886534 -0.2759544 0.092337795 0.143103
000340 5a e4 c8 3c c8 73 d2 3e 90 b1 02 bd cd b8 4f be
       0.024522949 0.4110396 -0.031907618 -0.2028534
000350 e3 a3 5c be 06 81 da bd e4 b9 78 be 51 5b 86 be
       -0.21546893 -0.106691405 -0.24289662 -0.26241544
000360 23 9c 40 bf 45 be c5 3e be f6 88 3d 32 17 9c bd
       -0.75238246 0.38621727 0.06687687 -0.07621612
000370 17 f9 98 3c 70 37 c4 3c fa b0 0e 3d d7 49 82 bc
       0.018673463 0.023952216 0.034836747 -0.01590435
000380 e8 7f bc bd 09 6c 6d 3e 3d c0 e2 bc 96 94 46 bd
       -0.09204084 0.23185743 -0.027679557 -0.048481546
000390 e8 b7 5f 3e ba 64 24 3c b7 f1 9d bd 2b f8 dd be
       0.21847498 0.010033781 -0.07712119 -0.433534
0003a0 8e 74 e5 be 44 a2 8c be d8 11 00 bf cc d7 d3 be
       -0.44815487 -0.2746755 -0.5002723 -0.41375577
0003b0 64 e7 45 be 94 eb b2 be d9 8f 5b 3e f8 75 67 3e
       -0.1932655 -0.34945357 0.21441592 0.22603595
0003c0 16 d9 a7 be 14 11 49 3e 19 3f ed 3d aa cd 1e 3e
       -0.3278281 0.19635421 0.115843005 0.15508142
0003d0 46 bd df 3d c4 ab 96 be f9 5f bd 3d 89 53 d9 3c
       0.10924773 -0.29427922 0.09246821 0.02652909
0003e0 23 97 b7 be 4f b8 19 bc 19 b5 a7 be f9 9a d6 bd
       -0.35857496 -0.0093823215 -0.32755354 -0.104787774
0003f0 ce 0c ad be 6c 3a aa bc b9 73 a2 3e 90 a1 30 3e
       -0.33798832 -0.02077981 0.31728914 0.17249131

b0 f4 [32]
000000 e3 f1 0d 3d 2b bc 95 bd e9 c0 0b be 37 72 81 3d
       0.03465451 -0.07311281 -0.13647808 0.06320613
000010 08 99 00 bd 3a 95 15 be 10 bc 10 be ec 28 4c bd
       -0.031395942 -0.14607707 -0.1413424 -0.049843714
000020 f3 68 2d 3b c1 54 6d 3e d2 a9 2c 3d 3a 86 19 3e
       0.002646026 0.23176862 0.04215414 0.1499261
000030 93 30 b3 3d 9a 3c 6c 3c bf 99 21 3d 39 86 47 3c
       0.08749499 0.014418745 0.039453264 0.012177997
000040 71 60 a1 3a d3 e3 1a 3e 93 f7 84 3e 1a c1 90 3c
       0.0012312067 0.1512597 0.25970134 0.017670203
000050 65 e1 a6 3d 4a ea 85 bd c6 17 60 be 89 aa 17 be
       0.08148459 -0.06538828 -0.21884069 -0.14811148
000060 a5 a5 09 bd 16 b1 9f 3c 3e f7 85 bd cf 64 93 3d
       -0.033605237 0.01949362 -0.06541298 0.07196962
000070 d6 3f 0b bf 11 0b 72 bd 2c a0 d1 bc c7 70 04 3d
       -0.5439428 -0.059092585 -0.025589071 0.032334115

conv1 f4 [32, 32, 3, 3]
000000 8b 61 9b 3c 42 c9 17 be ee ae d5 bd 97 12 e7 3d
       0.01896741 -0.14822868 -0.10433756 0.112828426
000010 ca 32 86 3d 61 9b d3 bd c7 32 e4 3c c4 64 fd 3c
       0.06552656 -0.103323705 0.027856244 0.030931838
000020 58 04 40 be e8 03 4b be 0d b6 55 bc 6b b8 8e 3c
       -0.18751657 -0.19825709 -0.013043893 0.017421922
000030 58 51 82 be a1 02 85 3e 61 7a 0f 3c 5a a1 d0 3a
       -0.25452685 0.25978568 0.008757205 0.0015917227
000040 91 f1 5b 3d 9c 05 b8 3c 2d 37 54 bd 6c 3e f7 bd
       0.053697173 0.022463612 -0.051810432 -0.12072453
000050 8b fd 1f 3d 9b cd 67 3c 5d c3 45 bd c7 1c 40 3d
       0.039060157 0.014148141 -0.048282016 0.046902444
000060 1f 65 91 bd e4 ee 00 3e 9b ea 34 3e de 69 cc bc
       -0.070993654 0.1259113 0.1766762 -0.024952825
000070 b4 70 f8 bd 59 70 8e bc 5f 1a 27 bd c7 1d 82 bd
       -0.121308714 -0.017387556 -0.040796634 -0.06353336
000080 8c b7 b3 3d 5b b7 d8 3c 80 8b 37 3e bf 88 88 3e
       0.08775243 0.026454618 0.17924309 0.2666683
000090 ca 6a 6a 3c 0b 0e df 3c 2a 64 c7 bc bc f9 a1 bc
       0.014307687 0.027228376 -0.024339754 -0.019772403
0000a0 af f2 b3 3d bc 9d f6 3c e7 03 6f 3d d9 0f bc bd
       0.087865226 0.03010451 0.05835333 -0.0918271
0000b0 78 20 20 be 1a 19 8c 3e a5 ae a5 3d 47 75 a4 3d
       -0.15637386 0.273629 0.080899514 0.080301814
0000c0 8e 83 95 3e 68 58 f4 3d f8 c1 39 3d f7 57 51 3e
       0.2920193 0.11930925 0.045351 0.20443712
0000d0 1d 11 1c be e1 93 c5 bd ae b4 bd 3d d3 cf 2e bd
       -0.15240903 -0.09647346 0.092629775 -0.042678665
0000e0 3d 15 b2 bc 50 45 9b 3e d9 9d 2a 3e af 6c aa bd
       -0.021738643 0.3032632 0.16661777 -0.08321511
0000f0 19 65 21 3e b5 20 18 be bc fe 4a be ee 00 f1 3d
       0.15761222 -0.14856227 -0.19823736 0.117677554
000100 39 81 73 3c 7b 12 b7 3d 44 7a 3e 3d 6c e5 9d bc
       0.014862352 0.08939072 0.04650332 -0.019274436
000110 f6 b6 48 3d b2 a2 de bd 3a f8 2b 3d 7f 56 16 3e
       0.04900261 -0.108708754 0.041984774 0.14681433
000120 8f b0 ee 3c ad d4 6d 3d 70 43 08 3e ed ad 11 be
       0.029136924 0.05806415 0.13306975 -0.14226504
000130 44 71 90 3c 7a 88 d5 3d a9 80 8f bd ba e3 e3 bc
       0.017632134 0.104264215 -0.07006962 -0.02781855
000140 e2 8d 1a 3d 77 0c 1c 3d 17 d4 d6 3d 5c 90 d5 3c
       0.037732966 0.038097825 0.10489672 0.026069812
000150 37 69 b3 3d 33 52 64 3c e5 7b 5e bd 7b ca c9 3c
       0.087603025 0.013935613 -0.054317374 0.024632683
000160 f1 04 e5 bd 6f ce e0 bc 5d 93 52 be 3f 72 73 bc
       -0.11182583 -0.027442185 -0.20564027 -0.014858781
000170 96 05 3b 3d 71 f4 74 be f8 49 03 3d 57 7c 8c 3d
       0.045659624 -0.23921372 0.032052964 0.068596534
000180 ad 44 e5 bc ee 6e 81 bd 2d 87 81 bd 28 a5 37 3d
       -0.027986849 -0.06319986 -0.06324611 0.04483524
000190 2d 8d 07 3b b7 3e 23 be 87 a6 16 3e e8 83 31 3b
       0.0020683513 -0.15941893 0.14711963 0.002708668
0001a0 b4 99 39 be f7 2d d0 3e 2c 5f 86 bc 31 46 46 3d
       -0.1812504 0.40660068 -0.016402803 0.048406783
0001b0 5d 73 f3 3c 8e 19 23 3d 77 de 47 bd c3 8f 47 3d
       0.029718095 0.039819293 -0.048796143 0.048721086
0001c0 2f 72 04 bc 6d dd 86 ba 8a d7 51 3d 23 21 a3 3d
       -0.008083864 -0.0010289379 0.051230945 0.07965305
0001d0 b6 a7 f6 bd 44 a0 28 bd 6c 88 54 3d a6 46 4e 3d
       -0.12043707 -0.041168466 0.051887915 0.050360344
0001e0 59 7e 31 bd 0a a3 15 ba 0a 71 b0 3c e0 a8 02 be
       -0.043333385 -0.00057081936 0.021538276 -0.12759733
0001f0 8c 17 94 ba 2f 6d 8f bc d7 04 1e bd f6 ed 1f 3d
       -0.0011298521 -0.017508117 -0.038578834 0.039045297
000200 1b 45 ef bd d6 be 93 3d d1 32 84 bd e1 2b ec bc
       -0.11683103 0.072141334 -0.06455005 -0.028829517
000210 14 6a 38 3d b4 e5 85 3e 22 28 5e 3e c0 25 a7 3d
       0.04502304 0.26151812 0.21694997 0.08161497
000220 13 13 f7 3d 67 94 3c 3c f8 c5 96 3d 58 d6 1d 3e
       0.12064185 0.011509991 0.07361978 0.15413797
000230 be f1 d7 bc 77 8c 66 bd c6 e1 9e be 3b f2 27 be
       -0.026360389 -0.0562863 -0.31031626 -0.16400997
000240 02 8c 3a bd 47 57 61 bd 63 d8 bd bd 2f 16 d1 bd
       -0.045543678 -0.055014875 -0.09269788 -0.10209309
000250 41 da 19 be e8 9c 2b be b1 43 9a 3b 23 10 3b be
       -0.15024664 -0.16759074 0.0047077765 -0.18267874
000260 ba a9 df bd 90 2d 01 3e 56 50 42 3e d3 ad 80 3d
       -0.10921045 0.12615037 0.18975958 0.06283154
000270 f2 75 18 3b 74 e1 67 3d 0d 45 5d 3e a2 90 57 bd
       0.002326366 0.056611493 0.21608372 -0.052628167
000280 1a 81 d7 bd fc 50 16 be 50 5f 69 bd 68 00 82 3d
       -0.10522671 -0.1467933 -0.056975663 0.06347734
000290 9a 87 e3 bc 6c 83 7c 3d 78 d8 ff bc 33 da 45 bd
       -0.02777462 0.06164877 -0.03123115 -0.048303794
0002a0 66 03 4f 3d 1e 04 ec 3c 53 d2 d2 bc d3 5b 91 bd
       0.05054035 0.028810557 -0.025735056 -0.07097592
0002b0 a3 58 1b be 4f 63 70 bd 3c 88 02 3d e3 dc 31 bd
       -0.15170531 -0.058688458 0.031868204 -0.043423545
0002c0 47 75 b2 3d fb c8 89 3e 0d 73 b1 3e 4a 10 ef 3e
       0.08713775 0.26911148 0.3465809 0.46692115
0002d0 1a a9 b1 be 83 5b 0c bb 4e 04 4e 3c 01 2b d1 3c
       -0.34699327 -0.002141685 0.0125742685 0.025533201
0002e0 34 31 40 3e 05 c3 7c 3d e1 ff 56 3e 51 9a 38 3e
       0.1876877 0.061709423 0.20996048 0.18027617
0002f0 1a f7 9b 3e d3 76 28 3e 9a af e3 3c 4a 98 c3 3d
       0.3046196 0.16451578 0.027793694 0.09550531
000300 fb 25 3c 3e 96 a1 11 3b c2 52 30 bd b9 7a ba 3d
       0.18373863 0.0022221557 -0.043047674 0.09105439
000310 f7 ba 66 bd cc c0 d5 bd 12 32 93 bd f6 5a a2 bd
       -0.056330647 -0.10437164 -0.071872845 -0.07927506
000320 29 80 d8 bd 40 b6 50 3d 27 ad 45 be 20 30 c8 bd
       -0.105713196 0.050955057 -0.19304334 -0.09774804
000330 16 ea 8a be 97 86 89 be 3c 02 58 be 55 97 93 bd
       -0.27131718 -0.26860496 -0.21094602 -0.07206599
000340 5e b8 b0 bb 13 cc e6 bc c4 61 9a bd 45 b1 4c bd
       -0.005393072 -0.028173482 -0.075381786 -0.049973745
000350 42 88 8f 3d 15 11 87 3c 6f 34 2b 3d bc 78 cc 3c
       0.07008411 0.016487638 0.04179805 0.024959914
000360 0a db c9 bb 17 0c 4b 3d 27 e1 57 3d 63 1c aa bc
       -0.0061601447 0.049572077 0.052704956 -0.020765489
000370 06 82 a6 bc a3 a1 07 3d fe 10 7a bd 61 8e 5c 3c
       -0.020325672 0.033113133 -0.06105136 0.01346168
000380 7c 70 cf bd 76 87 06 be 86 6b be bd 55 ba 50 bc
       -0.101288766 -0.13137612 -0.09297852 -0.0127397375
000390 0e 47 96 be c0 27 83 bb 54 d1 7d 3d 7d eb 83 be
       -0.29351085 -0.0040025413 0.06196721 -0.257656
0003a0 f3 dd df 3d f4 7b 88 3e 19 ae dc bd 6d 05 8a bd
       0.10931005 0.2665707 -0.10775394 -0.06739316
0003b0 87 3e 62 3d 39 82 c9 3b d0 7e fa 3d df 38 ee 3d
       0.055235412 0.006149557 0.12231219 0.11631941
0003c0 0b de cd bc 0f ee 8c bd c5 9e 87 3d 28 23 b1 bd
       -0.025130292 -0.068813436 0.0662208 -0.08649284
0003d0 64 63 b8 3b c5 88 cc 3d 5e 1c 9d bd ea 4f 20 bc
       0.0056270827 0.09987024 -0.07671426 -0.009784678
0003e0 d6 ac 59 3d 59 b1 fc bd 6e 4a 95 3d db 09 cb 3d
       0.053143345 -0.12338514 0.07289587 0.09913989
0003f0 46 4d 82 bd 7d cb e5 bb 90 41 96 3d 77 47 6f bc
       -0.06362395 -0.007012783 0.07336724 -0.014604441

b1 f4 [32]
000000 94 b4 70 3d ef 2b d2 3d c3 3d 40 3d e3 51 ee 3d
       0.058765963 0.10262286 0.0469339 0.116367124
000010 5d 4a 59 be 00 60 77 bd 54 2c b7 be fd fb 63 3e
       -0.21219774 -0.060394287 -0.35776007 0.22264095
000020 f9 db 34 bd c7 33 ec 3c c8 aa 53 bc 37 2f 4a 3d
       -0.044155095 0.028833283 -0.012919135 0.049361434
000030 06 c5 02 3e ec 92 6a 3e da f6 ee 3d b8 24 cf 3b
       0.12770471 0.22907609 0.11668177 0.006321516
000040 6f fe 69 3d 31 77 aa be 43 fe 7c be 3c 5b 83 3d
       0.057127412 -0.3329406 -0.24706368 0.06413886
000050 1a 8c 26 be 3c 43 bc 3d cd 01 cd bd 22 14 13 3e
       -0.16264382 0.091925114 -0.10010109 0.14363149
000060 82 49 9c 3d dd fa b8 3d 1a ae 95 3d 21 b6 24 bf
       0.07631208 0.090322234 0.07308598 -0.64340407
000070 b4 17 88 3c 3c 81 1c 3e 94 03 83 bc f8 8b 4f be
       0.016612865 0.15283674 -0.015992917 -0.20268238

conv2 f4 [32, 32, 3, 3]
000000 5a e3 18 3d 70 de 89 3d 8f 6f e0 3c 18 75 72 bc
       0.037326194 0.0673188 0.027396945 -0.014798425
000010 9e fc 1b bd c5 a9 11 bd ed 9c b4 3b 6a 56 dc bc
       -0.03808271 -0.035562295 0.005511871 -0.026896674
000020 17 7d 2a bd 13 3d 92 bc 88 81 86 3b 90 6a 0b bc
       -0.0416232 -0.017851388 0.004104797 -0.008509293
000030 34 d0 e1 3c 3c 9c 51 bc 8d 0d 9c 3d 26 9f d1 bd
       0.0275651 -0.012793597 0.07619772 -0.10235433
000040 8f f9 c9 3a 5b 1f e2 3c 18 b6 90 3b 5f d8 dd bb
       0.0015409457 0.027602842 0.0044162385 -0.006770178
000050 21 37 21 bc da c8 3a 3d fd 4f 87 bd 00 a8 fb b8
       -0.009839804 0.045601703 -0.066070534 -0.00011999905
000060 3b c3 c5 3b 33 aa 2e 3b e3 38 22 bd 97 51 16 bd
       0.006035236 0.002665174 -0.039605033 -0.036698904
000070 b4 af f8 bc 0e 68 91 bd ed 37 b0 bb b6 5d 12 3d
       -0.03035722 -0.07099925 -0.0053777606 0.0357339
000080 fd f9 0c 3d c1 e5 41 bd 4c a4 6d bd 01 72 c8 3b
       0.034418095 -0.04733825 -0.058018014 0.006117106
000090 82 c5 f9 3b 5c 5e 82 bc 38 95 e6 bb f7 1c cb 3c
       0.0076224217 -0.015914135 -0.007036831 0.024794085
0000a0 13 8e 0a bb 80 7c 2f 3c 61 93 f5 3c a8 4a 97 3c
       -0.0021141812 0.010710835 0.029977502 0.018468216
0000b0 ec 41 34 3c be cb 32 3c 7b f2 af 3c d8 16 90 bb
       0.011002045 0.010912834 0.021477928 -0.0043972544
0000c0 b2 5d 54 3c 6d fa 1f bd ce bd 38 3b c5 2d 34 3d
       0.012961792 -0.039057184 0.0028189304 0.04398896
0000d0 b4 3e 2c bc 10 8c f2 3b 13 c0 32 3b 27 ff 59 3c
       -0.010512996 0.0074019507 0.002727513 0.013305462
0000e0 13 ed 15 3d af 83 cb 3c e9 ff 19 bc dc 1a b0 3c
       0.036603045 0.024843065 -0.009399393 0.021497183
0000f0 da 80 cc bc 5e b4 eb 3b 63 6f b7 bb c0 5c 34 bd
       -0.024963785 0.0071931323 -0.005597995 -0.044033766
000100 30 a6 90 bc 35 38 13 bd 2a 98 df bd 8f 2f a8 bd
       -0.01765737 -0.035942275 -0.10917695 -0.08212196
000110 11 3c be bc c8 68 76 bd d4 a6 00 bc cb f2 ee 3a
       -0.023222001 -0.06015852 -0.007852275 0.0018230317
000120 81 c7 94 3c ad 7a 64 bc 2e bf 3f 3c 61 86 b9 3c
       0.018161537 -0.013945264 0.011703296 0.022647085
000130 ec cb b0 bb 42 66 71 bc b4 05 1f bd 11 13 c4 bc
       -0.005395403 -0.014733853 -0.0388238 -0.023934873
000140 67 80 49 bd eb 00 57 3c 03 58 a0 3d 7b 6b f6 3c
       -0.04919472 0.013122777 0.07829287 0.030080548
000150 e3 47 34 3b 52 db 47 bd 10 5d fc bc e2 99 0e bc
       0.0027508668 -0.048793145 -0.030806094 -0.008703681
000160 96 e0 c2 bd ad 21 4c 3c 3c a3 cc 3c 3f 50 c9 3b
       -0.095154926 0.012459201 0.02498018 0.0061435993
000170 53 8c 56 3d db c0 d6 3b 37 3b c6 bc 17 30 a7 bc
       0.052379917 0.006553752 -0.024198158 -0.020408673
000180 79 a7 e6 3b 02 05 1c bc cf f0 dd 3c 2d 87 1f 3d
       0.0070390073 -0.009522678 0.027092366 0.038947273
000190 09 36 fe 3c 78 53 69 bd 38 14 07 bb d7 53 dc bc
       0.031031625 -0.056964368 -0.0020611417 -0.026895447
0001a0 da c1 ba 3c 1c 04 02 3d 61 31 b5 bc f5 c0 b3 3c
       0.022797514 0.0317422 -0.022118272 0.021942595
0001b0 04 ab cd bc bf a0 10 bc 54 d9 42 bd 7c 26 3b 3d
       -0.02510596 -0.008827387 -0.04757054 0.045691
0001c0 9d cf c3 bd ed 50 9a 3c 67 0a 96 bc c0 f1 94 bd
       -0.095610835 0.018837417 -0.018315507 -0.07272673
0001d0 d3 17 a8 bd 48 5a be bc 8e ce 89 bc 8f c2 07 bc
       -0.08207669 -0.023236409 -0.016822126 -0.0082861325
0001e0 99 47 c7 bc aa f8 3e bd 0c 4e b1 bc 16 b9 7f bd
       -0.024326133 -0.046623863 -0.021643661 -0.06243237
0001f0 20 00 f8 bc b3 e7 1e bd 9b de da 3c 40 c7 e6 bc
       -0.030273497 -0.038795184 0.026717475 -0.028171182
000200 81 fb 15 3d a7 12 5f 3a f0 d9 92 bc a9 61 4f 3c
       0.036616806 0.00085095543 -0.017926186 0.012657561
000210 09 7e bc bc 3d 96 98 3c 4d 65 4b bd 46 cb 1b 3d
       -0.023009317 0.018626327 -0.049657155 0.038035654
000220 18 44 3e 3c 59 56 87 3d 3a 20 a0 3c 5c af 9b bc
       0.0116129145 0.066082664 0.019546617 -0.019004516
000230 52 56 3a bb 12 b0 45 3d ad d8 cd bc 1a 1f c4 bc
       -0.0028432799 0.048263617 -0.025127733 -0.023940612
000240 c9 11 28 3d 75 3d b8 bc fe 90 60 bd c8 3d da 3c
       0.041032586 -0.022490242 -0.054825775 0.026640788
000250 b1 d3 92 bc d4 61 05 bd 16 a4 ad 3c e6 d4 18 3c
       -0.017923208 -0.032564 0.021196406 0.009328103
000260 90 bf c2 bc 47 5d a7 3b 6b 89 2b bd ec 8d 57 3b
       -0.023772985 0.005107555 -0.0418791 0.0032890989
000270 2c ca ff 3c 7a ee 08 3c f2 82 92 bc 51 cc b1 bb
       0.031224333 0.0083576385 -0.017884705 -0.0054259677
000280 65 83 84 3c e3 55 90 3b 91 ba a1 3c e7 c9 b9 bc
       0.016175935 0.0044047697 0.019742282 -0.022679282
000290 04 16 b8 3c 0e 21 5d 3c a1 58 06 3d b6 01 d9 3c
       0.022471435 0.01349665 0.032799367 0.026490074
0002a0 70 da a5 3c 34 24 f5 3b dc 6a 3b 3d 96 00 4a 3d
       0.02024576 0.0074811224 0.045756206 0.049316965
0002b0 bc 43 c4 3c 98 42 ba bd c4 de 24 3a 1f 15 ab 3c
       0.02395808 -0.09094733 0.0006289298 0.020884095
0002c0 37 cc 0a bd 00 c5 e8 b8 9c e7 2e bd 38 dd 7b bc
       -0.03388616 -0.00011099316 -0.04270135 -0.015372567
0002d0 4e d3 95 3c 24 30 41 3c 0f 7d 13 3d 7b 79 25 3d
       0.018289234 0.011791263 0.036007937 0.040399056
0002e0 e8 c9 65 bc 2e 2f c7 3b 0a 13 83 bc a3 5d f1 3c
       -0.014025189 0.0060786223 -0.01600029 0.029463595
0002f0 49 01 62 3d 9d 18 d8 3b 76 52 35 bd f6 79 1a 3b
       0.055177007 0.006594731 -0.044268094 0.002357123
000300 c4 e3 5e 3b 63 29 a9 3c 2e c8 0f bd 3b 29 a7 bd
       0.003401027 0.020649618 -0.035103016 -0.08162161
000310 3c 12 b4 bc e3 1e a2 bb 96 0e fa bb 7a 7f 01 bc
       -0.021981351 -0.0049475296 -0.0076311333 -0.007903928
000320 56 7a 16 bc 25 d0 81 bc 08 2d 20 3b c8 31 87 3c
       -0.009184441 -0.015846321 0.0024440903 0.01650323
000330 e8 81 15 3d 53 a4 df b8 a4 b0 1e 3d 46 1c 0f bd
       0.03650084 -0.000106640764 0.038742676 -0.034939073
000340 22 c6 35 3b 03 88 de bc 0d ea ed 3c fd a3 8c 3c
       0.0027736505 -0.027164465 0.029042268 0.01716804
000350 83 82 85 bd 0b 68 0c 3c 01 6b ac 3a 58 0a b2 3c
       -0.06519034 0.008569728 0.0013154448 0.021733448
000360 fc 13 e5 3c 41 ec fe 3c 10 f8 0f 3d 7f c6 2a bd
       0.02796363 0.031118514 0.03514868 -0.041693207
000370 1b d1 6c bc 08 9d 93 3c 11 2c db 3c 27 bb 23 bc
       -0.0144541515 0.018019214 0.026754411 -0.009993351
000380 51 b4 ea bb 2c 62 13 bc 86 1d 25 bd b1 ac 90 bd
       -0.0071626087 -0.008995574 -0.04031136 -0.07064188
000390 56 58 e1 3b 22 96 ba bd 66 be 67 bc 15 6e a6 bd
       0.0068769855 -0.09110667 -0.014144516 -0.08126465
0003a0 4c 99 ba bd 40 aa 38 bc ab 95 d1 3c 59 f3 02 3c
       -0.0911127 -0.0112710595 0.025584063 0.007992589
0003b0 fe 3c 11 bd a9 6b 03 bd af c4 3a bd 54 a9 7d 3d
       -0.035458557 -0.032085095 -0.04559773 0.061929062
0003c0 13 cf 6f 3c 6a af cc ba 6a 04 64 3d 5c 61 3d bc
       0.014636773 -0.0015616242 0.055668272 -0.011558857
0003d0 a8 c7 a4 bc 00 bb d1 bc 2c 2f 1f 3d 58 c0 c3 bb
       -0.020114735 -0.025601864 0.038863346 -0.005973857
0003e0 33 89 1b bc 6a 02 e6 bc 00 91 01 3d d4 35 c3 3c
       -0.00949316 -0.028077323 0.031632423 0.023829378
0003f0 da 36 d0 b9 45 6f 09 3c 4b 70 66 3c b1 41 4e bc
       -0.0003971372 0.008388345 0.014064859 -0.012588904

b2 f4 [32]
000000 67 2c 78 bc e5 ac b4 3e 2e a3 be 3d 8b 7e c0 bd
       -0.015147305 0.35288158 0.09308468 -0.09399136
000010 24 21 b9 3e 4b 09 f3 3d cc 81 49 3d f7 1e 80 3e
       0.36158097 0.11867007 0.04919605 0.25023624
000020 6e e7 1b be 2f 85 4f 3f 7a 32 b2 3e 34 e6 39 3e
       -0.15225002 0.810626 0.34804136 0.18154222
000030 ea 0e 51 3e f2 4b e1 bd be 36 e0 3d 75 1e 87 bd
       0.20415846 -0.110008135 0.10947941 -0.06597606
000040 1e 90 17 3f 33 85 7a bd 29 7f dc 3d 92 2c a3 3e
       0.5920428 -0.061162185 0.107664414 0.31869942
000050 19 24 89 bd 31 3b 81 3e e2 1a 8e be 69 f5 c3 bc
       -0.06696338 0.25240472 -0.27754885 -0.023920732
000060 fd 85 be 3e 69 b8 fc bd 7f de 81 3d 17 02 39 3e
       0.372116 -0.12339861 0.06341266 0.18067203
000070 1c 47 10 3d 06 b3 28 3e ff 72 93 bd 31 50 1c be
       0.035224065 0.16474542 -0.07199668 -0.15264966

conv3 f4 [32, 32, 3, 3]
000000 b4 e7 09 be 60 e6 29 bd 02 8d 2a be 9f 4a e2 bc
       -0.13467294 -0.04147947 -0.16655353 -0.027623473
000010 00 a3 26 3d dd 43 45 ba 12 6a 34 be 54 a2 85 bd
       0.040682793 -0.0007525066 -0.17618588 -0.06525102
000020 9f 94 0d be fd 42 f9 3d 5f 06 b5 3d 2a fd 02 3e
       -0.13826226 0.1217098 0.08839106 0.12791887
000030 e4 cd 28 3d 32 d7 b7 bd 72 f2 3e 3d 00 d5 53 3e
       0.041211978 -0.08976592 0.046617933 0.20686722
000040 f3 4e bf 3d ff aa 1d 3e 20 58 37 bd db 95 a1 bd
       0.0934123 0.15397261 -0.044761777 -0.07889911
000050 1b 1c c6 bd 49 7d 81 bc 3c 8b 7a bd 8f 96 43 bd
       -0.096733294 -0.01580681 -0.06116794 -0.047751006
000060 db 5e 1f 3d ac 69 1b 3d 03 6f 77 3c 50 eb 59 3d
       0.03890882 0.037942573 0.015102151 0.053202927
000070 3f 19 83 3d 4a aa 62 3c d2 a5 e2 3c d9 07 74 3d
       0.064013 0.013834545 0.02766696 0.059577797
000080 cc 00 29 3d cf 32 99 3c a2 a1 fe 3c 87 a2 b3 bb
       0.041260526 0.018700985 0.031082932 -0.0054820213
000090 43 3e ee bd ea 7f c1 3c 98 2c 81 bd fa b0 ef bb
       -0.11632969 0.023620564 -0.06307334 -0.0073147984
0000a0 ff 47 a2 3d 37 f1 97 bc 79 09 d6 bd a9 95 83 bd
       0.079238884 -0.018547637 -0.104510255 -0.0642503
0000b0 76 52 cb bd e8 b7 ab 3e 5b 20 31 3e 33 db 91 3e
       -0.099278376 0.33538747 0.17297499 0.28487548
0000c0 94 94 8a 3e 66 ff c7 3d cb 75 11 3e 12 82 88 3e
       0.2706648 0.0976551 0.1420509 0.26661736
0000d0 65 5b 6f 3e 53 e2 b6 3e 84 9e 6a bd ce 7c eb bc
       0.23374708 0.35719547 -0.05728008 -0.028746035
0000e0 97 41 8d bd a3 b7 fd bc 47 91 c5 3b 10 3b 05 be
       -0.06897276 -0.030971354 0.0060292813 -0.13010812
0000f0 cc b3 93 bc e4 49 41 bd 6c b9 f7 bd c3 72 27 3e
       -0.01803007 -0.04718961 -0.12095913 0.16352372
000100 75 29 21 3e a2 ef 32 3e ee 25 49 3e f6 57 8d 3d
       0.15738471 0.17474225 0.19643375 0.06901543
000110 b5 26 5e 3e 65 79 41 3e f4 33 b0 3d 5c ca 26 3e
       0.21694453 0.18893965 0.08603659 0.16288131
000120 44 2b b4 bd f6 b9 91 bc a2 96 2c 3d 33 1a a0 bd
       -0.08797315 -0.017788868 0.042135842 -0.07817497
000130 f0 75 de bd 7c 2b 04 bd 0c 65 01 be fe f6 f7 bb
       -0.108623385 -0.032268032 -0.12636203 -0.0075672856
000140 81 01 a2 3c 45 92 16 3e 66 95 96 3d bb 0a 70 3e
       0.019776108 0.14704235 0.07352714 0.23441593
000150 6e 4f c0 3d 3f 0a 95 3c 54 6b f5 3d 3c 81 39 3e
       0.0939015 0.018193362 0.11983362 0.18115705
000160 e7 93 00 3e 38 3f 88 3e 36 1a d2 bd f0 1d b9 bd
       0.1255642 0.26610732 -0.102589056 -0.09038913
000170 66 bc c9 bd d5 1e cf bd 01 90 63 3c 73 ff 83 bd
       -0.09850387 -0.101133026 0.013889314 -0.064452074
000180 ea a1 f9 bd aa 76 d4 bd 7a ff fa bd 42 4d ed 3c
       -0.12189086 -0.10374196 -0.122557595 0.028967503
000190 af ad 80 3d b9 c3 9f bd fe c7 55 3d f6 a0 89 bd
       0.062831275 -0.07801003 0.05219268 -0.06720154
0001a0 8a e7 9e bd bc f3 95 3c 41 ab d4 bc cc fd b5 bd
       -0.07759006 0.018304698 -0.025960566 -0.088862985
0001b0 80 14 09 bd 3f c8 a6 bd 9a e8 bb ba d5 44 f3 bc
       -0.033466816 -0.08143663 -0.0014336288 -0.029695908
0001c0 74 02 4f 3b b5 dc ac bd 97 33 50 bd de 54 d8 bd
       0.0031587156 -0.08440534 -0.05083045 -0.10563062
0001d0 0b ba 2e bd 28 be 21 be 3d c2 b3 bc c8 9b a1 bd
       -0.042657893 -0.15795195 -0.021943206 -0.07891041
0001e0 c9 35 ca bd 1a 20 04 bd 02 5e 29 bd a1 56 11 be
       -0.0987354 -0.032257177 -0.04134942 -0.14193203
0001f0 a3 6a bb bd f6 84 4d bd 88 5f 27 3e 5a 0d f5 3d
       -0.09151199 -0.05017563 0.16345036 0.11965437
000200 60 28 24 3e 76 d9 d4 3d 9b a9 4e 3d 31 c8 96 3d
       0.16031027 0.1039304 0.050454717 0.07362402
000210 96 e7 16 3e 1e 41 0c 3e f9 23 39 3e 6a db c7 3d
       0.1473678 0.13696715 0.18080129 0.09758647
000220 9d 12 ad 3d 84 ba 03 3e b9 33 f1 3c 25 f3 6c 3d
       0.08450816 0.12864119 0.029443609 0.05784907
000230 f9 24 b2 3d 51 46 da 3d 46 d3 e9 3c bc dc 1b 3c
       0.08698458 0.10657943 0.028543126 0.009513076
000240 07 46 41 bd 19 b4 24 bc 79 34 91 bd a4 21 2b 3c
       -0.047185924 -0.010052704 -0.070900865 0.010445032
000250 e9 46 f3 3c 7d 53 e7 bc 37 68 a0 bd 60 d8 18 ba
       0.029696899 -0.028238053 -0.078323774 -0.0005830582
000260 ad aa 9d bd 24 83 f4 3d 7e b8 9e 3d b0 44 3d bd
       -0.076985694 0.119390756 0.07750033 -0.046208084
000270 ba 95 6e bc 3d ea d9 3c ca 17 29 3d e3 cf db 3d
       -0.014562065 0.026600951 0.041282453 0.107330106
000280 41 76 dd bb 74 52 43 bd 5e 08 f1 bc ac d6 8c bc
       -0.0067584817 -0.047686055 -0.029422935 -0.017192207
000290 70 21 94 bb bb 10 f6 3c e1 56 1e 3c a6 25 11 3d
       -0.0045205876 0.030037275 0.009664268 0.035436295
0002a0 f0 f8 b8 bd df d2 81 3b 0b b5 3d 3d e9 7a 50 bc
       -0.09031856 0.0039619054 0.046315234 -0.012724617
0002b0 54 44 4f bd be 19 2b bc 39 67 86 bc c4 de 91 3b
       -0.050602272 -0.010443149 -0.016406642 0.0044516046
0002c0 2d b0 03 bd 8f e2 77 bd 0c 9f d2 3b 0f 05 ae bd
       -0.032150436 -0.060518797 0.0064276513 -0.084970586
0002d0 fe bd 09 be c9 9d c6 bc ca cc e9 bd e4 a8 80 bd
       -0.13451383 -0.02424516 -0.114160135 -0.06282213
0002e0 cc ff d4 bb 3c 0b a1 3c 8a 7a 00 bc 0c e0 56 3d
       -0.00650022 0.019658677 -0.007841716 0.05245976
0002f0 f2 16 70 3d a0 32 a5 3d d5 62 11 3d 55 7a 44 3d
       0.058615632 0.080662966 0.035494644 0.047968227
000300 5a c9 e0 3c e6 af 05 3b 64 b9 8b 3d 14 74 a0 3d
       0.027439762 0.0020399033 0.0682247 0.0783464
000310 bf 59 64 3d 79 10 2f 3d 43 bb 58 3d 1c 72 41 bc
       0.05574965 0.04274032 0.05291296 -0.011806991
000320 95 c1 f3 3c 97 24 cb 3c 3b 31 0b 3d 12 30 0f 3d
       0.029755393 0.02479772 0.033982497 0.034957953
000330 86 6c c5 3c 63 9f b4 3c df 78 db 3a db 72 29 3c
       0.0240996 0.022048658 0.0016744396 0.010342325
000340 c2 9f 11 bd e0 a8 aa ba 30 17 96 3d 6f 32 eb 3c
       -0.035552748 -0.0013020299 0.073286414 0.028710572
000350 9d d3 ed bc 04 5d 18 bc 48 b1 48 3c 5f 97 1b 3d
       -0.02903157 -0.00929952 0.012249298 0.037986156
000360 bb d6 1a 3d 72 2f 12 bd a4 76 3e bd 2b af 12 bd
       0.03780244 -0.03568978 -0.046499863 -0.035811584
000370 67 28 e8 3c d9 4f ca bc e2 6f f5 bc 61 da 94 bd
       0.028339578 -0.024696277 -0.029960576 -0.07268215
000380 9c 1e e9 bc e7 a1 82 bd 35 df 2f bd 65 44 4a 3c
       -0.028456978 -0.06378537 -0.042937476 0.012345408
000390 e3 05 8d 3c 0e de 93 3c b8 01 e8 3d 5d 75 ec 3c
       0.017214721 0.01805022 0.11328453 0.028864557
0003a0 b0 f0 26 3e 2b de c7 3d 55 06 e7 3a 2f 2c a2 3c
       0.16302752 0.09759172 0.0017625788 0.019796459
0003b0 a9 52 53 bd f8 ca 08 be 1f a4 a2 bd 9a 39 46 bd
       -0.051592503 -0.13358676 -0.0794146 -0.048394777
0003c0 17 cf a0 3c 4d 80 e3 bd 3c 13 63 bd 78 59 80 bd
       0.019629998 -0.11108456 -0.055438265 -0.06267065
0003d0 9c 8d a0 bd e7 82 0d be c8 3d e9 bd c8 9b 83 3c
       -0.0783951 -0.13819467 -0.11388737 0.016065493
0003e0 50 22 ab bd 38 49 05 be 4a 81 f6 bd e3 c6 5e be
       -0.08356154 -0.13016212 -0.12036379 -0.21755557
0003f0 05 79 68 bd 41 14 21 bd f3 7d 18 3c 3f b1 11 3c
       -0.05675604 -0.039325956 0.009307372 0.008892356

b3 f4 [32]
000000 00 10 29 bf 4d 7e 57 3d 3a 13 10 3f 73 2c 8d 3f
       -0.6604004 0.052610684 0.5627934 1.102919
000010 d5 32 bf 3e e4 5a 83 3f 85 c2 8a 3f 93 2c c1 3d
       0.3734347 1.0262113 1.0840613 0.0943233
000020 c0 c6 43 3e 7d 26 43 bf b9 5b 06 3f 1c ad 71 3a
       0.19118786 -0.76230603 0.5248371 0.0009219216
000030 c5 53 5c bf bc 9f 52 be 8d b8 ef 3e c7 f3 fd 3d
       -0.8606532 -0.20568746 0.4682049 0.124000125
000040 77 f0 b1 3f 99 d3 bd be fe 45 75 3f 39 d5 bc 3e
       1.3901509 -0.370755 0.95809925 0.36881426
000050 0a 34 71 bf ee dd a6 3e 77 aa 05 3c bc 28 1e bd
       -0.9422003 0.32591194 0.008158318 -0.038613066
000060 e1 c2 1d bf 61 8e 0b be 53 e9 b4 3c f6 0b 7b bf
       -0.61625487 -0.13628532 0.022083914 -0.98065126
000070 7c 2d 16 3d 08 84 79 3f 46 21 fc 3e 73 83 2c bf
       0.03666447 0.9746709 0.49244136 -0.67388076

w4 f4 [5, 32]
000000 a0 fb a7 bf 25 39 0a c0 80 6b 0a 40 74 56 51 3e
       -1.3123665 -2.1597378 2.1628113 0.20443135
000010 6a 4c d3 bd 44 03 df 3f 9e eb 1c 40 24 a2 40 c0
       -0.10317309 1.7422872 2.451881 -3.0098963
000020 c7 9f dc 3e 70 ac bd be 0c ee 33 40 bf 58 0a c0
       0.4309065 -0.37045622 2.8114042 -2.1616666
000030 15 4b af bf a2 de 0a c0 cc 69 0d 40 d1 19 c8 bf
       -1.3694788 -2.1698384 2.2095823 -1.5632879
000040 7e 8b 38 40 f8 a8 d6 bf 14 3c b1 3f 2c ce c1 3f
       2.883514 -1.6770315 1.3846459 1.5141044
000050 05 ac b2 bf ee dc a0 bf 5b ae 00 c0 a6 b2 9e bf
       -1.3958746 -1.2567422 -2.0106418 -1.2398269
000060 2d c4 a6 bf be 14 93 3e ad 4f b0 bf 53 cd 8a bf
       -1.3028618 0.28726763 -1.3774315 -1.084391
000070 66 10 e7 bf 1c c8 07 40 2d cb cd 3f 34 e3 d5 bf
       -1.805188 2.1215887 1.6077629 -1.6709962
000080 58 d9 c6 bf 3d 81 21 40 74 37 07 c0 d8 44 af bf
       -1.5535078 2.523513 -2.1127596 -1.3692884
000090 41 c4 19 c0 ab ab af bf e8 44 52 3e 6e 2f a0 3f
       -2.4026034 -1.3724264 0.20534098 1.2514474
0000a0 28 30 50 3f fd 39 be bf 4a 32 2a c0 1f 42 d7 bf
       0.8132348 -1.4861447 -2.6593194 -1.6817054
0000b0 9d 79 8c bf d1 c0 8c bf d9 30 eb bf 0b 63 30 40
       -1.0974613 -1.0996343 -1.8374282 2.756045
0000c0 35 d7 11 be 4d 39 29 40 98 bb f0 3f c3 d1 55 c0
       -0.14242251 2.6441224 1.8807249 -3.3409278
0000d0 79 69 b7 bf e5 0c 38 40 fb 7c a5 bf 70 0a 19 3e
       -1.4329063 2.875787 -1.2928766 0.14945388
0000e0 eb 41 30 40 82 d5 35 bf 5c 11 6a 3f a4 81 a8 be
       2.7540233 -0.7102891 0.9143274 -0.32911408
0000f0 46 97 f7 bf a9 ba 91 3f 47 76 3c 3f 43 e6 b3 3e
       -1.934304 1.1385089 0.73617977 0.35136613
000100 5d f2 25 40 3d 50 51 3f b7 35 22 bf a2 a1 be bf
       2.5929177 0.8176306 -0.6336321 -1.4893076
000110 10 18 95 3f 8d 98 eb bf 2c 32 b4 bf a9 d4 e8 bf
       1.1647968 -1.840593 -1.4077811 -1.8189899
000120 e2 e8 fb bf af 74 46 40 32 1a 53 bf 78 3f d2 bd
       -1.9680445 3.1008718 -0.82461846 -0.10266012
000130 49 15 66 3f e6 16 06 40 f7 70 f1 3f ec c6 bf bf
       0.8987623 2.0951476 1.8862599 -1.4982581
000140 13 3c a6 bf cb 2d ae bf d0 3d 86 3f 63 b8 8d bf
       -1.2987083 -1.3607725 1.0487614 -1.1071895
000150 0b 80 a8 bf 41 94 5c bf bd 97 2e 40 35 6c 35 40
       -1.3164076 -0.8616372 2.7280114 2.8347294
000160 b5 72 b7 bf 3e 9c 8e bf 95 b1 9c bf ef ae 48 40
       -1.4331881 -1.1141431 -1.2241694 3.135677
000170 f6 4f ca bf fc 9e dd bf f0 26 21 c0 cf 0d 0e c0
       -1.5805652 -1.7314143 -2.5180016 -2.2195928
000180 2c b1 b9 3f b9 ce 88 bf 95 08 d8 3f 10 55 d6 bf
       1.4507194 -1.0688087 1.6877619 -1.6744709
000190 46 c2 fb bf f8 98 c5 bf 87 21 72 bf 52 c3 cf 3f
       -1.9668663 -1.5437307 -0.9458241 1.6231482
0001a0 07 fc 19 40 53 73 50 bf 4b d6 8a bf 0d 7a 2a 40
       2.4060075 -0.8142597 -1.0846647 2.6636994
0001b0 10 a0 28 40 d3 c6 f7 bf 36 c2 b6 bf 48 9e e1 bf
       2.6347694 -1.9357551 -1.4278018 -1.7626429
0001c0 91 fd fa bf 86 75 84 3f 09 f8 22 c0 f0 3c 98 3f
       -1.9608632 1.0348365 -2.5463889 1.1893597
0001d0 55 7f 23 40 50 18 b2 bf 07 0b 5a bf e7 12 e6 bf
       2.5546467 -1.391367 -0.85173076 -1.7974519
0001e0 4d c5 98 bf 58 1e 3e 40 0e 1b e6 bf 00 8a e6 be
       -1.1935211 2.970602 -1.7977006 -0.4502716
0001f0 95 fe cf 3f e6 97 e7 bf 3f 12 83 3f 4f 91 92 bf
       1.6249567 -1.8093231 1.0239943 -1.1450595
000200 c0 56 c3 bf cf 05 49 bf 4c 09 ef bf 1f 4c 3b 40
       -1.5260849 -0.7852449 -1.8674712 2.926521
000210 a7 49 19 40 ab b9 10 40 fe 6e c7 bf dd b3 c2 3f
       2.3951204 2.2613323 -1.5580747 1.521114
000220 fe fe b5 bf 8a 7b ba bf d4 c8 db be c2 9e 18 be
       -1.4218442 -1.4568951 -0.42926657 -0.14904311
000230 4e 3d f4 bf d2 42 d3 3f 35 08 aa bf 74 79 f1 be
       -1.9081209 1.6504767 -1.3283755 -0.47162974
000240 88 17 3f bf 9a f7 bb bf ba e4 3f bf 24 46 cc 3f
       -0.7464528 -1.4684937 -0.74958384 1.5958905
000250 f6 ef 88 3e 1d 3b 34 bf a2 8f 2f 3f ba f8 e3 bf
       0.26745576 -0.704027 0.6857854 -1.781028
000260 ea 6f c0 bf e0 35 bb bf 4e 82 1e 40 58 00 e8 bf
       -1.5034153 -1.4625816 2.4767032 -1.8125105
000270 17 25 16 40 07 ae 73 bf 45 37 96 bf 6e a4 24 40
       2.3460138 -0.9518742 -1.1735617 2.572536

b4 f4 [5]
000000 4a 14 3e 3e 6c 70 91 3b 06 2e af bd d8 3d 5b bd
       0.18562427 0.0044384506 -0.085537 -0.053525776
000010 17 8a 1c be
       -0.15287052

exp_avg f4 [32, 1, 3, 3]
000000 06 4c 61 ba 89 d6 8d ba 7c 71 2b b8 62 10 ab b9
       -0.0008594397 -0.0010821383 -4.0875268e-05 -0.00032627868
000010 21 19 9b 3a d0 91 da 3a b6 4a af b9 06 31 ec ba
       0.001183305 0.0016675536 -0.00033434265 -0.0018019981
000020 e4 18 68 ba 1e d9 61 bb ab 10 a6 bb 04 21 b6 bb
       -0.00088538066 -0.0034461687 -0.005067905 -0.005558135
000030 3b 05 47 bb 8e 6f ae bb 5a b5 b1 bb c2 c2 0e bc
       -0.0030368108 -0.005323357 -0.00542323 -0.008713426
000040 9f 47 25 bc 84 47 0b bc 99 e7 aa 3a dc c2 f6 38
       -0.010087877 -0.008500937 0.0013038992 0.000117664895
000050 ab d3 c8 ba b7 c7 7e 3a 76 2a 82 38 ed 09 82 bb
       -0.0015321871 0.0009719091 6.206792e-05 -0.0039684684
000060 03 4c 1a bb 11 0c 85 bb c1 35 fa bb f7 0b 8a 3b
       -0.0023543842 -0.0040602763 -0.0076358025 0.004212852
000070 20 92 1b 3b 89 3c a0 b9 59 e8 1b 3b 6c f4 f8 3a
       0.002373822 -0.0003056268 0.0023789613 0.0018993742
000080 71 e4 07 3a 2e 61 60 3a 1f 59 80 3a cd 58 81 3a
       0.0005183882 0.0008559403 0.0009792185 0.0009868384
000090 29 16 a9 b9 36 2c 7b bb f3 c6 d7 ba ea 31 f5 3a
       -0.00032250702 -0.0038325912 -0.001646249 0.0018706892
0000a0 90 fe 4a ba bc 9d 14 ba e3 8b d6 39 77 79 06 ba
       -0.0007743621 -0.0005669256 0.00040921484 -0.0005129794
0000b0 5c c7 24 3a ed 75 d4 38 2c cc c7 39 d9 56 a2 3a
       0.00062858104 0.00010130913 0.00038108358 0.0012385502
0000c0 9f 52 73 3a c6 b0 8c 3a e0 9a 0e 3b 9f 26 bf 3a
       0.0009282026 0.0010733835 0.0021759793 0.0014583654
0000d0 fa ad 2a 3b ca 2c f3 3a bf 80 02 3b 78 3a 08 3b
       0.002604364 0.0018552777 0.0019913164 0.0020786803
0000e0 ea bf b6 3a 52 b0 94 3b a6 ca 66 3b 4f f2 84 3a
       0.0013942693 0.0045376206 0.0035216003 0.0010143014
0000f0 8d 21 d5 3b 62 aa 79 3b 2d f0 0d 3b 5a 9f 86 bb
       0.0065042437 0.003809594 0.0021658048 -0.0041083517
000100 96 99 96 ba f2 fc 81 ba f1 fa 61 bb d5 d4 0c ba
       -0.0011489864 -0.0009917303 -0.0034481848 -0.00053722906
000110 88 03 c7 b9 c4 12 76 bb b9 0f f4 ba 0b ed 3b ba
       -0.0003795887 -0.0037547806 -0.0018620408 -0.0007168806
000120 f8 e4 b1 bb dc 75 af ba 53 77 08 bb 92 41 93 bb
       -0.0054289065 -0.0013386565 -0.0020823076 -0.0044939006
000130 ae 35 2c ba 04 4a 5d ba f8 3f 9b bb c7 5e a1 b9
       -0.0006569278 -0.000844151 -0.0047378503 -0.00030778928
000140 93 43 65 ba 00 2e 7e 3a cf a7 63 3a 3b 85 35 39
       -0.0008745726 0.00096961856 0.0008684368 0.00017311137
000150 7f 5c f5 3a 90 ff a4 3a 0e e2 e1 39 7e b6 06 3b
       0.0018719583 0.0012588371 0.00043083768 0.002055555
000160 25 1e 4b 3b 7e 13 84 3a f8 68 69 bb a6 48 32 bb
       0.003099331 0.001007661 -0.0035615545 -0.0027203946
000170 55 ad 66 bb b1 e7 ff ba 83 4d 65 bb 0c 82 aa bb
       -0.0035198529 -0.0019524005 -0.0034988828 -0.005203491
000180 83 4f 05 ba c4 84 56 ba b0 a3 f5 ba 39 f2 6d 3a
       -0.00050853955 -0.0008183236 -0.0018740799 0.00090769265
000190 88 e9 de 39 14 82 7b 3b 8e 94 3d 3a 6c d4 98 3a
       0.00042517134 0.0038377093 0.0007231914 0.0011659986
0001a0 db 21 86 3b 09 20 15 3a 88 50 ec 39 7a 87 49 3b
       0.0040933914 0.00056886725 0.00045073428 0.0030750916
0001b0 94 58 1a 3b cb a6 14 ba c5 8c ec 3a 8d 24 ee 39
       0.0023551332 -0.0005670606 0.0018047324 0.0004542213
0001c0 3e 41 bb ba 9c cf fd 3a 88 f7 67 3a 07 02 b9 3a
       -0.0014286411 0.001936424 0.0008848836 0.0014114984
0001d0 2f 84 61 3b 54 15 6c 3a 2c f1 cd 3a 44 20 4c 3b
       0.0034411063 0.00090058637 0.0015712134 0.0031147161
0001e0 5a ef 8a ba 03 6e de ba f3 27 34 3a 98 ac ad 3b
       -0.0010599897 -0.0016970042 0.0006872408 0.005300116
0001f0 ca 0a d8 3a a8 82 46 3b 73 6f 4e 3a 07 de 49 ba
       0.0016482708 0.003029028 0.00078748836 -0.0007700626
000200 b5 03 a8 ba 2b 0d 8b ba 2b 6e 32 3a f6 01 d0 ba
       -0.0012818488 -0.0010608783 0.00068065774 -0.0015869725
000210 36 f1 b1 bb 52 59 7b bb 9d ee 7e bb 2e 49 3b bb
       -0.005430366 -0.00383528 -0.0038899549 -0.0028577554
000220 af fd b8 bb 65 bd ff bb 86 62 74 3b 09 df de 3b
       -0.005645476 -0.00780456 0.003729017 0.00680149
000230 e9 c1 bc 3b 1d 0e e7 3a 08 7d 41 3b f4 55 87 3b
       0.0057604206 0.0017628107 0.0029523987 0.0041301195
000240 24 75 53 ba 7b a0 87 bb fe 9b 85 bb 93 ec 34 3a
       -0.00080664665 -0.004139004 -0.0040774336 0.00069017074
000250 c6 dd fb bb b5 71 d6 bb d2 6f 9a 3a ca d3 61 bb
       -0.0076863496 -0.0065443167 0.0011782593 -0.0034458512
000260 90 c6 9b ba 68 bf ce 39 ef fb 15 3a 54 4c 14 3b
       -0.0011884738 0.0003943399 0.000572144 0.0022628503
000270 c0 ed 2f 3a 29 93 97 3a 34 3e 00 3b 79 b1 2f 3b
       0.0006711148 0.0011564243 0.0019568326 0.0026808663
000280 7f 3d 9c 3a 1c 00 0d 3b e9 f7 4f 3b 2a 0f 4d 3b
       0.0011920183 0.0021514958 0.003173346 0.0031289556
000290 9f b2 60 3b 57 9c b4 b9 fe 0b 44 3a a7 e7 84 3a
       0.0034286154 -0.00034448758 0.00074785936 0.0010139839
0002a0 ff 88 fc 3a dc 2f f6 b9 69 24 92 ba 6a 04 3b 39
       0.0019266902 -0.00046956434 -0.0011149767 0.00017835354
0002b0 6e d1 40 3b 25 0e 3d 3b 91 68 e3 b9 a3 dc f3 ba
       0.0029421705 0.0028847542 -0.00043374722 -0.0018605184
0002c0 e7 fd 98 ba 90 6a 8a 3a 91 4a 35 3a 91 30 2d 39
       -0.0011672348 0.0010560323 0.00069157133 0.00016516658
0002d0 0f 42 00 3a 91 c1 e5 39 8b 29 8a 3a bf 09 04 3b
       0.0004892656 0.00043822502 0.0010540945 0.002014741
0002e0 16 6c 22 3b b0 e8 06 3b 57 c3 40 3b 0c e0 7f 3a
       0.0024783663 0.002058547 0.0029413307 0.00097608636
0002f0 29 12 f4 ba 3d bd e3 39 c8 ac a6 3a 5d e6 0e 3a
       -0.0018621135 0.00043437807 0.0012716288 0.0005451197
000300 57 f4 c6 3a 7d 28 07 3b 7a d2 4d 3a de df 33 3b
       0.001517902 0.0020623498 0.0007851493 0.0027446668
000310 54 29 6d 3b 58 fb ee 3a 98 ce b6 38 25 66 b8 37
       0.0036187964 0.0018232865 8.7169174e-05 2.1982074e-05
000320 47 f1 0b 3a c0 8e 96 38 09 d3 21 39 67 d3 5e 3a
       0.00053383823 7.1791466e-05 0.00015432773 0.00085001293
000330 ce ae ba 38 aa cc 08 b9 9f 9b d7 3a fd 8f ca bb
       8.901731e-05 -0.00013046214 0.0016449577 -0.0061817155
000340 c1 02 91 bb 42 b7 b8 bb 11 da 9c bb 49 e8 57 bb
       -0.004425377 -0.0056370804 -0.0047867377 -0.003294485
000350 20 14 12 bb dc 4e 95 bb 6c 99 22 bb 87 03 14 bb
       -0.0022289827 -0.00455652 -0.0024810685 -0.002258511
000360 87 0b 1a ba 71 26 00 bb d1 7a 62 39 0c a3 70 ba
       -0.00058763515 -0.0019554163 0.00021598792 -0.00091795693
000370 c9 3e 31 bb 2b 0a cf ba 7f 9c b9 ba 67 f4 66 bb
       -0.002704548 -0.0015795877 -0.0014161019 -0.003524089
000380 11 8b 33 bb 91 ed a5 3b 47 e2 4c 3b ba 18 eb 39
       -0.0027396122 0.0050637205 0.0031262801 0.00044841116
000390 30 b1 c7 3b 3b 52 30 3b fd d9 4e 3b 7d 15 92 3b
       0.0060941204 0.0026904482 0.0031563037 0.004458128
0003a0 ee 0b 95 3a f6 34 79 3a a4 3f e5 ba 25 91 61 bb
       0.0011371353 0.0009506488 -0.001749028 -0.0034418788
0003b0 cb 76 31 bb cf 34 17 bb 01 2e b6 bb a5 b3 cd bb
       -0.0027078863 -0.0023072248 -0.0055596833 -0.006277519
0003c0 12 0c 1c bb 39 37 c7 bb 3b dc 10 bc 1a 65 37 3a
       -0.0023810905 -0.006079581 -0.00884157 0.00069959613
0003d0 b9 e6 db 3a 9a de f3 3a 98 4d 03 bb 89 70 5c ba
       0.0016777135 0.0018605769 -0.0020035263 -0.0008409103
0003e0 89 37 13 ba 16 a5 97 bb 8d 3f 93 b8 bc 19 6d ba
       -0.00056158804 -0.004627834 -7.0213435e-05 -0.0009044667
0003f0 be ab 81 b9 6c fd f8 b9 b2 19 ec ba a0 3f ca ba
       -0.00024732755 -0.0004749106 -0.0018013029 -0.0015430339
