CS330/XCS330-PS3/src/submission/logs/maml/omniglot.way_5.support_1.query_15.inner_steps_5.inner_lr_0.04.learn_inner_lrs_False.outer_lr_0.001.batch_size_16/state10100.pt (torch, 353186 bytes, 30 tensors)

conv0 f4 [32, 1, 3, 3]
00000000: 3047 24be b438 07be 1e64 b8bc 1a1a 5bbd
00000010: ba53 ebbb 7d94 78be 3078 513e 5677 623e
00000020: 9ccb febe f811 17be d1df 24bd e35e 07bd
00000030: 47c2 f8be e669 3bbc 4f09 febc cbd7 bc3e
00000040: 7d77 47bb 5341 1fbd 85be 3c3e e7be d9be
00000050: 3aee 4abe 6808 cbbe f952 1ebd 7a0e 053e
00000060: 8802 8cbe f958 893e acc6 f6ba 7089 d63d
00000070: ce95 5d3d f86a c2be 6490 dd3d ab1f b23d
00000080: 45f4 e0be 752a e3be 0efb e5be a813 8bbe
00000090: ea9a 3f3d fa64 25bd 3536 e9bc d045 9bbd
000000a0: 4094 9f3d 5c14 7b3e 7696 fabe d3ad 87be
000000b0: 3da9 c33d b16b 10bf 4a6d 8e3d bdc8 053e
000000c0: 5fda 1ebf 1e50 093e 97e5 393e 501c 07bf
000000d0: 6cd3 c5bc 84ae a53d c9a6 a5be c543 62bd
000000e0: 163a 063c dbfc ddbc 3c63 6cbe c73a 39be
000000f0: ad70 a63e 3d56 ecbd 6f2f b8bd c86f cb3c
00000100: c96d b33e 7253 dbbc 7997 393d f9d6 9abd
00000110: 5d86 bdbe 4502 37bb 2384 1dbd 5604 9bbe
00000120: 6d62 923e 3d94 5f3c 3ac9 94be 947c 1d3b
00000130: f47a 8bbe 63a3 ccbd ba60 3dbd c3b9 5dbd
00000140: 22fb 85be a7b2 823d 72da 1abe 5a9e dbbe
00000150: bc48 723e aea0 a63d 343d 10bf 77de 2e3e
00000160: 1f39 02be f6dd e6be 4ebf d43e 590f 8abd
00000170: bc07 ab3d 69af 1dbf e7f9 d5bd 2619 75bc
00000180: 5e76 783e b4df 9eb7 0e20 0d3c d4df 69be
00000190: c78e 463e aaff 113e c49a b6be b93d 863d
000001a0: 3d06 373e 12b1 8cbe f90c acbe 5590 6bbe
000001b0: 2adf 133e 6cac 6bbd 8ec9 0dbf 7835 9f3b
000001c0: d787 503e e8ae b1bd 9f01 afbe a43a 3fbc
000001d0: 6557 863e 85ff 8a3e e5a7 15bf 94b1 dd3e
000001e0: e7cd 983d e69c c13c 42a9 103d cfeb cabd
000001f0: 68c9 f83c 306f 29bd c50e 25be 41c8 8bbe
00000200: 2635 8cbe b249 3bbe b082 e8bd 7ff9 06be
00000210: 46e2 9ebd f1d3 ef3b 9b82 b73e 8464 88bc
00000220: 44b0 0abb c90c 0bbb a0b1 9e3d f24f a0bd
00000230: 005f a23d 1b02 ac3e 132e 44bf 7966 4e3e
00000240: f575 77bd 11ee 7c3d e0ef 413d 9e7a 513d
00000250: 4911 023d 031a 663d 9bc7 343f dffa a43d
00000260: 77fa 87be 765b abbb 074c 96be 666b 7c3e
00000270: 6074 40be 7e35 17be 3ccd 9a3b 87ee 0ebe
00000280: b830 37be 09da 703e 5237 e03c 8d9a bd3d
00000290: 1827 983d 2d87 6fbe b11d d3be 29cb d1be
000002a0: 6ab5 a3bb 79dd 023e 39b0 093e 7816 d43d
000002b0: 9940 373e d54d ef3d c12c 593b b92c 0a3e
000002c0: 7a97 85bc 7c4b 05bf 822a 1ebf f28c 02bf
000002d0: 5232 08bf d41c 12bf 804d f4be 7773 563d
000002e0: 98a5 f03d d017 8cbd 53ce 183e 024b 213e
000002f0: 5e7e 913d 57f7 f63d 596b 543a ad3a 0bbf
00000300: 12cc ffbc c0d4 193e 7835 0cbf 79d4 483e
00000310: 97ae f73d 85ba 00bf 2ae6 acbe 00e5 98be
00000320: 7b65 1bbe eb75 9fbe 5a4e 28be bf38 b53c
00000330: 43d1 babe daea 55be 849e d53d 7aa0 f13d
00000340: 3cb1 113d 9721 c43e f370 72bd 16a0 36be
00000350: cefb 52be 7059 ccbd 8d90 6abe 5b88 67be
00000360: 2683 31bf 4f8d b73e 56d6 7a3d d0d3 9abd
00000370: f5cf c53c c361 bf3c 01ed 3c3c 0599 0dbd
00000380: 4f81 aabd de12 5a3e f7b5 ae3b a2e5 2ebd
00000390: 5fc5 4c3e e4a8 a73c 796a 99bd b9f8 e4be
000003a0: 1256 c9be a9ca 61be 1f70 d7be 9275 b7be
000003b0: 3de6 48be 39cd a8be e270 523e 060c 443e
000003c0: 2c55 a1be 7337 443e c18b e23d bb18 1c3e
000003d0: 34b5 de3d cfcf 91be 8a32 be3d 1194 fd3c
000003e0: 8c35 aebe b5d9 93bb 5a5d 97be e0e7 adbd
000003f0: 1e27 99be aa6c 07bd 4bf3 9b3e aafe 193e
-0.16042781 -0.13205224 -0.022508677 -0.05349169 -0.007181612 -0.24275394 0.20456004 0.22115836
-0.49764717 -0.14752948 -0.04025251 -0.033049475 -0.48585722 -0.011438822 -0.031010298 0.36883387
-0.003043621 -0.038880657 0.18432052 -0.4252846 -0.19817439 -0.3965485 -0.038653348 0.12993804
-0.2734568 0.26825693 -0.0018827519 0.10475433 0.054097943 -0.37972236 0.10818556 0.086974464
-0.43936363 -0.4436833 -0.44918102 -0.27163434 0.046778597 -0.040379502 -0.02846823 -0.07581675
0.07791948 0.24519485 -0.48942918 -0.26499805 0.09553764 -0.56414324 0.06954439 0.13064857
-0.6205196 0.13409469 0.18153988 -0.52777576 -0.024148665 0.08089927 -0.3235381 -0.05524041
0.00819256 -0.02709811 -0.2308473 -0.18088828 0.3250784 -0.11539886 -0.08993422 0.024833575
0.35044697 -0.026773188 0.04531047 -0.07560534 -0.37016574 -0.0027924937 -0.038456094 -0.30276746
0.28590718 0.013646183 -0.29059774 0.0024030553 -0.27242243 -0.09992101 -0.046234824 -0.054132234
-0.26168162 0.063817315 -0.15122393 -0.4289425 0.23660558 0.08136116 -0.5634339 0.17077051
-0.12717102 -0.45091218 0.41552204 -0.067412086 0.083510846 -0.6159578 -0.10448056 -0.014959609
0.24263903 -1.8939238e-05 0.008613599 -0.2283929 0.19390403 0.14257684 -0.35664952 0.065547414
0.17873473 -0.27478844 -0.33603647 -0.23004277 0.14440599 -0.05753748 -0.55385673 0.004858669
0.20364319 -0.08675939 -0.34180924 -0.011671696 0.26238552 0.2714807 -0.5845931 0.43299544
0.07461148 0.023634385 0.035317667 -0.09908258 0.030369475 -0.041365802 -0.16118915 -0.2730122
-0.273843 -0.18289831 -0.11353052 -0.13181113 -0.07758002 0.0073189666 0.35841832 -0.016649492
-0.0021162191 -0.0021217337 0.07748723 -0.07827748 0.07928276 0.33595356 -0.76632804 0.20156278
-0.060415227 0.061750475 0.047347903 0.051142327 0.031754766 0.05617715 0.70617074 0.08055662
-0.26558277 -0.005229409 -0.2935488 0.24650344 -0.18794394 -0.147665 0.004724173 -0.13958178
-0.17889678 0.23520674 0.027370129 0.09257994 0.074293315 -0.23391409 -0.4123359 -0.4097531
-0.0049959915 0.12779798 0.1344613 0.10355848 0.17895736 0.11684767 0.0033138248 0.13493623
-0.016307581 -0.52068305 -0.6178361 -0.50996315 -0.5320178 -0.5707524 -0.47715378 0.05235621
0.117503345 -0.068404794 0.14922456 0.1575127 0.07104181 0.12058895 0.0008103154 -0.5438641
-0.031225238 0.15022564 -0.54769087 0.19612302 0.12093847 -0.50284606 -0.3376935 -0.29862213
-0.1517543 -0.31144652 -0.16436139 0.022121785 -0.3648778 -0.2089037 0.10430625 0.117981866
0.035569414 0.38306877 -0.059189748 -0.17834505 -0.20603868 -0.09977996 -0.22906704 -0.22610609
-0.6934074 0.35849997 0.061239563 -0.07559931 0.024147013 0.023362046 0.0115311155 -0.03456976
-0.08325445 0.2129626 0.0053317505 -0.042699464 0.19997166 0.020466276 -0.07491011 -0.4472101
-0.3932348 -0.22049965 -0.4207773 -0.35831887 -0.19619079 -0.32969072 0.20550874 0.19145212
-0.31510293 0.19161777 0.11061812 0.15243809 0.108744055 -0.28478858 0.09286983 0.030954393
-0.34025228 -0.0045120367 -0.2956341 -0.08491492 -0.29912657 -0.033062615 0.30459055 0.15038553

b0 f4 [32]
00000000: 6100 2bbd 26c9 89bd 8742 19be 2fc2 9d3d
00000010: 7093 4dbd 28d3 42be b7fb 3cbe c0ca 33bd
00000020: b927 873d 54b2 4b3e 534d 233d 8c9a c23d
00000030: 9faa 883d 2433 813c da48 263d 6ec4 2d3d
00000040: 6796 e93b 8566 063e 72cb 4f3e 7e1f c63c
00000050: dc77 593d 1893 59bd 4af1 15be c672 0dbe
00000060: acdf 18bc 1355 4b3c c264 57bd 3b48 343c
00000070: eb57 cebe 803a 7bbd 32eb 9cbc 7f7e a13c
-0.04174841 -0.06727819 -0.14966784 0.07703053 -0.050189435 -0.19025862 -0.18455397 -0.04389453
0.06599373 0.19892246 0.039868664 0.09502134 0.066731684 0.015771456 0.04059682 0.042423658
0.007128525 0.13125046 0.20292452 0.024184939 0.053092822 -0.053118795 -0.14642826 -0.13813314
-0.009330671 0.01241042 -0.052586325 0.011003549 -0.4030145 -0.061335087 -0.019155119 0.019713638

conv1 f4 [32, 32, 3, 3]
00000000: c66c cd3c 501b f9bd 0834 c0bd 9b32 b83d
00000010: 21d3 3a3d 9cff 08be ea4b 1b3c e384 873d
00000020: eeb1 32be cf95 42be b7d7 13bd 9574 123d
00000030: 2530 8abe 8b99 4c3e 5d47 43bd 8f5d d3bc
00000040: eda2 af3d f288 db3c ccf8 5bbd 54d9 debd
00000050: 09fc aa3d f817 62bb a35e 4fbd 072a 4c3d
00000060: 0437 21bd 8cfc f23d b83f 513e fc97 9f3c
00000070: 6447 fbbc f49c d83c 09be a3bc 9c2c 3dbd
00000080: 514d d63d 24ad 493d 9748 203e 7d30 873e
00000090: 0a24 3d3d 08c8 e93c 4776 6cbd b664 77bc
000000a0: fd13 6d3d 795c e2bc 4430 ee3c c039 dbbd
000000b0: a9e9 19be 054a 973e 890a e73d 6564 b13d
000000c0: a587 913e c7e9 e93d 1741 b43c 0405 493e
000000d0: 021f 1cbe 5df0 acbd aef8 ba3d 3ede 13bd
000000e0: 6026 4fbc 0a42 833e 554b c93d 86c4 01be
000000f0: a092 b73d e66f dbbd ff9e 3dbe 2f46 053e
00000100: 604c c23c 189e ac3d 5c29 063d af6b 3fba
00000110: 798d 9a3d 88a7 19be 8351 6b3d b752 173e
00000120: 58d1 ac3d 9d7c b13d 7f99 233e 6c20 b2bc
00000130: 0995 d73c b5fb 003e ac41 b8bc 001a 6dbd
00000140: cfc6 4d3d be87 1e3e 3e70 0c3e 23dd a13d
00000150: d547 013e 0b78 cd3b 58a5 5dbd fcd9 253d
00000160: 82fc e8bd db92 c4bd 03e0 25be b50f 92bc
00000170: a46b 833d 7a56 76be e782 06bc 5eb0 633d
00000180: 3707 75bd ec0a bcbd b61b 80bd 57c1 703d
00000190: 2497 233d 41a2 e0bd 7816 0c3e 1cce 953c
000001a0: b08e 47be 5062 a03e 75a6 4ebd 2146 8b3c
000001b0: 7ccd 803d 16d6 4d3d 725e e1bc b755 3d3d
000001c0: 0874 bdbc b95e 95bc 0b8e 503d d119 1d3d
000001d0: a5f9 ddbd b94f 25bc fb9a 9f3d 6988 f63c
000001e0: ea3c 49bc 30d1 103c dc5c 743d b92d b7bd
000001f0: 54b8 013c fb1a 36bd cd19 4ebd c629 143d
00000200: 18d7 ffbd 08be 8e3c d792 9abd fe9e e9bc
00000210: a476 5f3d 0f06 703e af7e 7f3e 7364 073e
00000220: 7cb3 eb3d be4c 9cba 428a 3c3d fc97 053e
00000230: ff48 c6bc acbf d8bd 57f2 99be ac89 2abe
00000240: ffa0 92bc a2fa 54bd 2b90 91bd 9a92 c5bd
00000250: c3cc 14be d39e 33be 86db 8ebd 3f8d 40be
00000260: 0a28 f5bd aaa4 073e e371 553e 08f6 013d
00000270: 30ac 94bc cb41 5c3d 029a 6e3e b688 4abd
00000280: fa05 f6bd 6408 00be c96b 4cbd 0076 bd3d
00000290: ca96 8bbb fd91 eabb ec45 a0bd f4db 96bc
000002a0: 2db3 913d 35fa 453d e369 fdbb 700c 96bd
000002b0: 0bea 0fbe b45f 5cbd 584c 1dbc 9cf3 4abd
000002c0: 64be a33d 15b4 313e 5b92 943e b4ed ca3e
000002d0: c600 b3be f411 7b3c 8754 323d 85dc e4bc
000002e0: 5560 e33d 9532 023d d727 1d3e c94c 023e
000002f0: 9969 9e3e eacd 723e 771b c33d 07fc 103e
00000300: 88e3 433e 82c1 643c 9a35 02bd b831 463d
00000310: b336 cbbd b637 d6bd 9400 48bd ec2f a43b
00000320: bfab 2ebd 7e7f a33d 2907 d0bd 961b 37bd
00000330: d2e4 4fbe ca7d 24be 8f79 07be 5738 85bd
00000340: 554a 913b 0866 2bbd 9d71 9cbd 0c9c 3abd
00000350: 72ea ad3d 0dc7 dbb9 ca4d 163d a82a 8fbc
00000360: 5401 f83c 4e71 723d 8002 ae3d 3562 a23c
00000370: 16c0 d2bc c312 313d 318d 98bd 7752 ca3c
00000380: a1e6 e7bd 64eb 95bd be72 6bbd b5fd 073b
00000390: 475b 5abe 00d8 61bc 61a9 923d 3c7d 26be
000003a0: 0747 aa3d e45c 773e 3780 e5bd 3736 85bd
000003b0: 29c5 4e3d 8f02 f1bc da7f df3d a195 f13d
000003c0: c63d 38bd a57a b2bd d042 b83d 605a abba
000003d0: 94b6 ad3d d939 0c3e aacd a6bc c528 223c
000003e0: 308c a43d 908d eabd 67e4 ca3c 0f1a a03d
000003f0: cce7 c9bd 1766 323b 3b90 b13d 71fe 11bd
0.025076281 -0.121634126 -0.09384924 0.08994027 0.045611504 -0.13378757 0.009478549 0.06617143
-0.17450687 -0.1900246 -0.036094394 0.035755713 -0.26989856 0.19980447 -0.04767548 -0.025801448
0.085759975 0.026798699 -0.053704068 -0.10881296 0.08348853 -0.003449915 -0.050627362 0.049844768
-0.039359108 0.11864576 0.20434463 0.019481651 -0.03067369 0.026442029 -0.019988077 -0.04618512
0.10463966 0.049237385 0.15652691 0.2640418 0.046176948 0.028537765 -0.057729986 -0.015099695
0.05788039 -0.027631985 0.02907575 -0.10704374 -0.1503054 0.2954866 0.11281306 0.08661727
0.284238 0.114215426 0.022003694 0.1963082 -0.15246204 -0.08444283 0.09129463 -0.03610062
-0.012643427 0.2563632 0.098288216 -0.12672624 0.089635134 -0.10714702 -0.18517683 0.13015054
0.023718059 0.084285915 0.032754287 -0.0007302118 0.07546515 -0.15005314 0.057450783 0.14777647
0.08438367 0.08666346 0.15976523 -0.021743976 0.026316183 0.12596019 -0.022492252 -0.057886124
0.050238427 0.15481469 0.13714692 0.079035066 0.12625058 0.0062704138 -0.054112762 0.04049109
-0.11376287 -0.09598323 -0.16198735 -0.017829755 0.06417015 -0.24056426 -0.0082099205 0.05558812
-0.059821334 -0.09181771 -0.062552854 0.058778133 0.03993906 -0.109684475 0.13680446 0.018286757
-0.19488025 0.31325006 -0.050451715 0.017001214 0.06289193 0.050252996 -0.027510855 0.046224322
-0.023126617 -0.018233644 0.050916713 0.0383547 -0.108386315 -0.010089808 0.07793232 0.030094342
-0.012282589 0.008838937 0.05965887 -0.08944268 0.007917482 -0.044459324 -0.050317574 0.03617265
-0.12492198 0.017424598 -0.07547539 -0.028518196 0.054556504 0.23439811 0.2495067 0.13221912
0.11508843 -0.0011924726 0.04603029 0.13046259 -0.02420473 -0.105834335 -0.30067703 -0.1665408
-0.017899035 -0.051996835 -0.07107576 -0.09647103 -0.14531235 -0.17541055 -0.069754645 -0.18803881
-0.119705275 0.13246408 0.20844226 0.031728774 -0.018148512 0.053773683 0.23300937 -0.049446784
-0.12012859 -0.12503201 -0.04990748 0.09251022 -0.004259919 -0.0071585164 -0.078258365 -0.018415429
0.07114253 0.04833432 -0.00773357 -0.07326591 -0.14054124 -0.053802207 -0.009600721 -0.04954873
0.079952985 0.17353852 0.2901791 0.39634478 -0.34961528 0.015324105 0.043537643 -0.027937183
0.11102358 0.03178652 0.15347229 0.12724604 0.3093994 0.23711362 0.09526723 0.14158641
0.19129765 0.0139621515 -0.0317894 0.04838726 -0.099225424 -0.10459845 -0.048828676 0.0050105955
-0.04264426 0.079833016 -0.10157616 -0.044704042 -0.20302132 -0.1606361 -0.13229965 -0.065048866
0.00443391 -0.04184535 -0.076388575 -0.045558974 0.084919825 -0.0004191924 0.03669528 -0.017476395
0.03027407 0.059190087 0.084965706 0.01982222 -0.02572636 0.043230783 -0.07448805 0.024697525
-0.11323286 -0.07320288 -0.057482474 0.0020750586 -0.21323882 -0.013784409 0.07161213 -0.1625871
0.08314329 0.24156529 -0.11206096 -0.06504481 0.050480995 -0.029420165 0.109130576 0.117961176
-0.044980787 -0.08714799 0.089971185 -0.0013073198 0.0848209 0.13693942 -0.02036174 0.0098974155
0.08034551 -0.11452782 0.024767114 0.0781747 -0.09858665 0.0027221495 0.08670088 -0.035643045

b1 f4 [32]
00000000: 51f4 703d f415 973d 5830 9a3d c64d ef3d
00000010: b5b0 20be 8299 77bd 8bc4 98be 8f54 613e
00000020: e2ad 3abd 6406 d43c 67e1 fc3b add1 333d
00000030: f474 0b3e 299a 583e c4bd e23d 70af 13bc
00000040: ccd9 5d3d 7250 aebe 04a0 6bbe 6510 813d
00000050: dd7f 22be 805e f03d 7200 493b 8950 cf3d
00000060: 3038 973d 1c57 973d 5548 993d 93f8 0ebf
00000070: 899c 5b3c 27ec 163e 421f f8bc 0043 26be
0.05882675 0.07377234 0.07528752 0.11684756 -0.15692408 -0.06044913 -0.2983745 0.22004913
-0.045575984 0.025881954 0.0077172997 0.043901134 0.13618833 0.21152557 0.11071351 -0.0090139955
0.054162785 -0.3404575 -0.2301026 0.06301955 -0.15869088 0.117367744 0.0030670431 0.10122783
0.07383764 0.07389662 0.07484499 -0.55848044 0.01340402 0.14738522 -0.030288342 -0.16236496

conv2 f4 [32, 32, 3, 3]
00000000: 12cc 913d 5711 c93d c98a 233d acc9 e83b
00000010: c010 a039 65c8 8bbc 8c8b 463c 12da 8dbb
00000020: 6c9d c4bc 2e94 193b e46d 65bb c423 7bbb
00000030: 471f 093d e3e0 19bd c8d2 563d c968 77bd
00000040: b918 963c 0649 ef3c 5879 c8bb 7f60 09bb
00000050: 1e5c 6c3c 1286 bc3c 6b84 9dbd 201a 3cbb
00000060: 7445 93bb c4b6 463b 0b82 10bd 7070 6bbd
00000070: ca8e ecbc aafc a8bd eb43 afbc dc6b 373d
00000080: dea1 fd3c 498f 51bd 7ffa 0abd 52b0 0cbb
00000090: 51be 7f3c 4377 ccbb ec54 903c d0f2 e93c
000000a0: 9877 033c acbd 203d 278b 243d 6713 de3c
000000b0: 8bc0 cc3c a151 ec3c 7937 e73c 313d 803c
000000c0: 34b9 b43c b0af 61bd 8af5 ccbb 0f78 3c3d
000000d0: d69b e9bc 2d4c a6bb 6402 2f3c 7195 5a3c
000000e0: 1940 173d 2016 313d dbfc 44bc b8a9 a93c
000000f0: 6bd3 6ebc 510c 363c d0df 78bc a33b 9dbd
00000100: abd4 3ebd 85fa 88bd f55b 91bd a4d9 93bd
00000110: 9f57 07bd 911d 17bc c914 f43c 35f6 8b3c
00000120: 6677 e53c 6520 56bb d5b4 9d3c 1451 dabb
00000130: 7667 99bc 78aa c7bc 30cc 56bd 602c 0abd
00000140: 1ad0 57bd b81f 063d 4f8b c23d 5cce 643d
00000150: 6b3e 45bc 7f00 a9bd 34a5 43bd 23bf 82bc
00000160: f2cc dcbd c984 573b 8141 df3c b39f eb3c
00000170: e837 543d 566e 30bb fa0f e2bc 72f0 38bd
00000180: ddde 0abc a04f b2bc 2ad3 933a 6851 893c
00000190: e39a 0b3d a60a 42bc e9a5 03bd d024 20bd
000001a0: 0133 ee3c 8775 4a3c cf24 d2bc e148 803d
000001b0: 8dc4 16bd 64de 76bc ef34 abbd e1c6 7c3d
000001c0: 7310 a6bd 8b72 f33a 8f7d 913c 982e 36bd
000001d0: 6514 99bd fad7 1dbd 8700 b9bb a2ad 85bc
000001e0: d33b 05bd c2e6 3bbd a917 a5bc abd8 47bd
000001f0: ee36 acbc b0f2 e3bc ffce ad3b c990 fbbc
00000200: 6d84 1a3d e88e 8cbc 6818 f4bc 3679 f73a
00000210: 09d6 0abd a5a5 273c 8342 7abd fee6 0b3c
00000220: 4f17 f83a dcc7 953d 7121 a8bc ea30 e4bc
00000230: 7b6a 7fbb 2892 033d 9307 c6bc c779 a5bc
00000240: 3bc2 5d3d 1968 c3bc 4a59 a7bd 8c22 053d
00000250: a473 a8bc 2919 94bd dcfb 723d 9052 3e3c
00000260: 4d50 6fbd bc27 283c 4547 1fbd ad4c 5c3c
00000270: 972b 893c 47a8 283a 4f5b a8bc 87a3 31bc
00000280: 3f18 b73c 5fc9 8b3c 8503 0c3d 183a 8bbc
00000290: e40d 093d d25a 1c3d 54ca 343d ee35 1e3d
000002a0: a168 0a3d d53a 963c 8927 633d e53c 663c
000002b0: bafd 8f3c a5f6 afbd 2735 94bc 3658 8c3c
000002c0: a397 0abd b3f3 8dbc 6e8f 4abd 7a7c 8bbc
000002d0: 6c47 d63c c19d d23c 8668 333d 48ef 443d
000002e0: 5505 763b 00a6 223b b0fd b8ba 87f1 6b3d
000002f0: 9d5a 483d 1200 24bd 089d 9abd f682 c7ba
00000300: af3e bbbc 44f0 233c ad53 a7bc 083e c6bd
00000310: 188b debc 138a 7c3b ee7b 55bb 6028 183c
00000320: 8df1 603a f178 06bc 01a3 6d3b eaca 553c
00000330: 4293 363d ce49 e13b 2107 2d3d 0d7e 9abd
00000340: 22ee f0bc 303a 33bd 8618 1f3d 1f24 b23c
00000350: f0a6 51bd d630 d43c 9be3 833c 94e0 2f3d
00000360: d1da c13c e64a ea3c c1e2 fb3c bbef 0dbd
00000370: ca94 07bc abde c33c f562 7c3d 1038 363c
00000380: 8663 79bb 2def 413c f7a4 69bc 1d7c 85bd
00000390: 9a78 04bc 622b c3bd 1c64 f2bc 1256 aabd
000003a0: 9139 aabd 9c6d 0abc d11e ec3b 0ae4 4ebc
000003b0: f6db 53bd 08e5 3cbd bcde 76bd 24cf 4c3d
000003c0: 4522 2c3d ad64 20bc d6b2 023d 393a 0d3a
000003d0: dc01 1bbc f966 9ebc c8dc 193d 0b99 e8bb
000003e0: 5f6c 4abc f1a4 e0bc 032c 033d 6817 bf3c
000003f0: 255b a0bc 6464 7a3a 5726 0b3d 1ec5 03bd
0.071190014 0.098177604 0.039927278 0.0071041193 0.00030530058 -0.017063329 0.0121182315 -0.0043289745
-0.024000846 0.002343427 -0.0035008127 -0.0038320879 0.033477094 -0.037567984 0.05244711 -0.060402665
0.018322336 0.029209625 -0.006117981 -0.0020962057 0.014426259 0.023013148 -0.07691272 -0.0028702095
-0.0044943634 0.003032134 -0.03528027 -0.057480276 -0.02887668 -0.08251317 -0.02139469 0.044780597
0.030960973 -0.051162038 -0.033930298 -0.00214674 0.01560934 -0.006239803 0.017618619 0.028558165
0.008024119 0.039243385 0.04017177 0.027108861 0.024994155 0.028847517 0.028224694 0.015654178
0.022060968 -0.05509919 -0.0062548565 0.046012934 -0.028516691 -0.005074999 0.010681722 0.013341294
0.036926363 0.04323399 -0.012023176 0.020710811 -0.014576773 0.011111335 -0.01519008 -0.076773904
-0.046589535 -0.06688408 -0.070976175 -0.07219246 -0.033042546 -0.009223358 0.029795067 0.017085174
0.028011035 -0.0032673117 0.019251266 -0.0066624973 -0.018726092 -0.024373278 -0.052440822 -0.033733726
-0.052688695 0.032745093 0.09499227 0.055860862 -0.012038807 -0.08252048 -0.04776497 -0.015960282
-0.10781278 0.0032885543 0.027252914 0.028762674 0.05181113 -0.0026921234 -0.027595509 -0.04515118
-0.008475986 -0.021766484 0.0011278142 0.01676245 0.03408326 -0.011843359 -0.032140646 -0.039097607
0.029077055 0.012357122 -0.025652317 0.062639005 -0.03680854 -0.0150676705 -0.08359706 0.061713103
-0.08108606 0.0018573565 0.017760066 -0.04447803 -0.07474593 -0.03853605 -0.005645815 -0.016318146
-0.032527756 -0.045874365 -0.020152884 -0.048790615 -0.021022286 -0.027825683 0.005304217 -0.030708687
0.037723947 -0.017157987 -0.029796794 0.0018880728 -0.033895526 0.010232364 -0.061098587 0.00853896
0.0018927845 0.07313511 -0.020523759 -0.027855355 -0.003897338 0.032121807 -0.024173534 -0.02019967
0.05414031 -0.023853349 -0.081713274 0.03250365 -0.020562954 -0.072313614 0.059322223 0.011616364
-0.05842619 0.01026338 -0.038886327 0.013446015 0.016744418 0.00064337667 -0.020551352 -0.010842211
0.022350429 0.017063795 0.034183044 -0.016995475 0.033460513 0.03817255 0.044138268 0.03862565
0.03379119 0.0183386 0.055457626 0.014052604 0.017577041 -0.085919656 -0.018091751 0.017131906
-0.03383602 -0.017328119 -0.04945319 -0.017027128 0.026157103 0.025709989 0.043800853 0.04807976
0.00375398 0.0024818182 -0.0014113691 0.057603385 0.04891454 -0.04003913 -0.075494826 -0.0015221525
-0.022857038 0.010006014 -0.020425642 -0.096798 -0.027165934 0.0038534447 -0.0032575089 0.00928697
0.0008580916 -0.008207546 0.0036260488 0.013048867 0.04457403 0.0068752533 0.042243127 -0.075435735
-0.029410426 -0.043756664 0.038841747 0.02174574 -0.051184595 0.025902193 0.016099742 0.042938784
0.02366391 0.028600167 0.030747773 -0.034652453 -0.00827522 0.023909887 0.06161781 0.011121765
-0.0038053705 0.011836809 -0.014260522 -0.06517813 -0.008085394 -0.09529759 -0.029588751 -0.08317198
-0.08311761 -0.0084489845 0.007205822 -0.012627611 -0.051723443 -0.04611686 -0.06027101 0.050002232
0.04202487 -0.009789628 0.031908832 0.0005387399 -0.0094608925 -0.01933621 0.03756407 -0.0070983223
-0.012354939 -0.0274224 0.032024395 0.02332659 -0.019574711 0.00095517025 0.03397211 -0.032170407

b2 f4 [32]
00000000: 2716 973c 125b a13e 8825 6d3d 2ff1 d0bd
00000010: 0910 8f3e eba7 8a3d cd1a 123d 59e4 e43d
00000020: 23a2 85bd 3d2d 293f 8325 a73e 1259 423e
00000030: 5caf 3e3e 3a42 d5bd eb42 dd3d f2de 9abd
00000040: ad20 ae3e 9736 d2bc 3835 d43d 94a4 943e
00000050: 4a24 33bd 060d 813e 1dc3 8cbe 4eb8 efbc
00000060: 7302 b43e 8dea e0bd 1af4 883d ffe8 2d3e
00000070: 271b 193d 1310 5d3e eda4 e7bb 2a15 a1bc
0.01844318 0.31514794 0.05789712 -0.10202252 0.2794192 0.06770309 0.03567009 0.11176366
-0.06525066 0.66084653 0.32645807 0.1897929 0.18621582 -0.10413022 0.10803779 -0.07562055
0.34009305 -0.025660796 0.10361713 0.29031813 -0.04373578 0.2520525 -0.2749261 -0.029262688
0.3515812 -0.10982237 0.06687184 0.16983412 0.03737941 0.21588163 -0.007069221 -0.019663412

conv3 f4 [32, 32, 3, 3]
00000000: d9ea e7bd 99be a7bc 092d 25be 72fa b3bc
00000010: e190 4d3d c757 99bb 6ec0 1dbe 6b95 1fbd
00000020: 350b 04be 1ea2 5b3e 0077 3d3e 499f 613e
00000030: f5e1 ca3d d0db 1ebd 6f06 c53d 0f04 803e
00000040: fd45 043e 8a50 3e3e ecc1 213d 29a3 1abb
00000050: cd4c 9cbc 0329 b93c 6c6d 0ebd 3226 5abc
00000060: 015e 5e3d fe16 253d 8fb9 ca3c 6c78 7b3d
00000070: 14d6 833d e818 a83c 0f8c 433d 757c 993d
00000080: cc70 783d 6f68 1a3d f010 393d 52bd 453c
00000090: c9dd e7bd 10d3 05bc 2d9d ebbd 09f5 23bd
000000a0: ebcd 823c 94bb babd 3251 fcbd 1254 d8bd
000000b0: 4826 0cbe c10f ab3e fedc 413e 4c70 973e
000000c0: 8d21 853e dec6 d53d 6872 103e 760b 6d3e
000000d0: cbe1 5c3e c75f ab3e 725d 75bd 598e 8cbd
000000e0: 3f97 87bd 9326 b0bd 2692 95bd b6f7 2ebe
000000f0: c4f7 2fbd 5ee9 e1bd 6e5c 11be 5d5e fe3d
00000100: 74d7 0d3e 6731 1f3e c019 3b3e d1fd 9c3d
00000110: 7c7f 623e 8f7d 393e 5cb3 cc3d 4836 2b3e
00000120: 33e6 b7bd 5adc e9bc 07bf 8c3c dc6f 4fbd
00000130: eaa9 c9bd 6ae3 53bd 1581 cbbd e32e 55bb
00000140: 40af cabb cbbe 4f3e 73ca ec3d 18b8 763e
00000150: 5458 183e 8299 543d d593 ea3d 0121 433e
00000160: 3621 ed3d 1e45 6c3e 0fab 9bbd efa0 9ebd
00000170: 468b cdbd 3133 acbd 98b6 943c 4d95 97bd
00000180: e160 dfbd 2883 cbbd b852 02be 76cd 9bbb
00000190: c2a1 8b3d 540d 28bd 071c eb3c 76c0 72bd
000001a0: fe82 16bd 9540 4c3b f557 84bc 8d03 39bd
000001b0: 1789 58bc ff35 84bd 0e38 3f3c 84f8 c5bc
000001c0: 8167 1f3c a597 a0bd a4ee 50bd 97cc cebd
000001d0: bf21 08bd a464 0fbe 9d3a f73b 9de1 b8bd
000001e0: 4f34 89bd 7e48 1e3c 85c9 43bd 931d 09be
000001f0: adbe a3bd ea88 b0bd 595b 1f3e 07ec ee3d
00000200: 182c 113e b565 a83d 7822 113d 441b 393d
00000210: af6e e73d 3d57 e23d 6446 133e 4dcc 2f3d
00000220: 374d 373d 1e02 e43d 5bff bdbc 84a7 8a3c
00000230: 50c3 843d b987 903d d550 30ba 59b6 bdbb
00000240: a7ef 0ebd 6576 e33b ef7d 63bd f7dd a03c
00000250: 80fa 243d 4356 b3bc a96e 9bbd 0613 473b
00000260: 6e9d 9bbd 60ba cb3d 22ca 5e3d 040a 59bd
00000270: 3ba8 37bc 106d f83c 1cd9 833d 1b95 fa3d
00000280: 01af 243c 58a3 1dbc fca8 68bd b538 23bd
00000290: cf67 4fbd bf03 ad3c 7283 e9ba 4a05 63bc
000002a0: 48de c3bd d1b1 04bc 435c 44bb 2679 ec3c
000002b0: f114 66bc c93b 713c 7a4a 813c 6503 023d
000002c0: 953e 88bc 7801 16bd fb89 003d 3bec 8abd
000002d0: 028b b2bd a373 98bc 12e1 bebd 1c25 32bd
000002e0: f307 d8bc 7d74 8d3c c562 0bbd 3bca 39bc
000002f0: 3769 613c 14bb d43d 70b9 883d 410a 903d
00000300: 1d8f 263d 8c37 ae3c 0453 9d3d 92e1 8a3d
00000310: 91c5 593d 8f63 0b3d bbe4 0d3e 4b8c a83d
00000320: 8d9d 953d d0e9 b43d 0ef5 db3d 5365 813d
00000330: 600d 873d 4627 a13d ffd1 a83c 43c7 843c
00000340: a806 2dbb 2deb 4e3d 7bc5 8d3d 446d 463d
00000350: 8f04 a63b ddd9 9fbc d410 803c a574 493d
00000360: 174e 473d d0bd a6bc 290e 0bbd ed5b bdbc
00000370: c8aa 3c3d ef85 1bbc 69f6 26bc ebbc 56bd
00000380: ef18 f5bb 8d6e c4bc 2642 86bd ede5 f8bc
00000390: 120d 263d 9294 5cbc 70b2 793d f049 ab3c
000003a0: 5a68 eb3d 8301 213d 4400 d83b 671f 293c
000003b0: 6ea1 72bd b8ae 07be 22f4 b9bd 6bf9 68bd
000003c0: 7f59 b53c 7c65 01be 2822 8dbd 4d77 7ebc
000003d0: 0f70 7bbd 974d d9bd 4e84 c8bd ff4e 3ebb
000003e0: 3dd1 b8bd 747d a2bd 93f9 e1bd 1437 46be
000003f0: 51de 1c3d 0972 223d f6c8 d53d be20 9e3d
-0.113240905 -0.020476626 -0.16130461 -0.021970008 0.050186995 -0.0046796533 -0.15405437 -0.038960855
-0.128949 0.21448562 0.18502426 0.22033419 0.09906379 -0.03878385 0.09620368 0.25003096
0.12917323 0.1858541 0.03949158 -0.0023595786 -0.01907959 0.022602564 -0.03477232 -0.013314771
0.054288868 0.04030513 0.024746684 0.06139414 0.064373165 0.020519689 0.047740992 0.074944414
0.060654446 0.037697252 0.04518217 0.012069063 -0.11321599 -0.008167997 -0.11504588 -0.040028606
0.01596733 -0.09117809 -0.12320174 -0.1056291 -0.13686478 0.33410457 0.18931958 0.29577863
0.2600216 0.104383215 0.14106143 0.23148903 0.21570508 0.3347151 -0.05990357 -0.06863088
-0.06620645 -0.086011074 -0.07303266 -0.17086682 -0.042960897 -0.110308394 -0.14195415 0.12420342
0.1385172 0.15546189 0.18271542 0.07665599 0.22118944 0.18114303 0.099951476 0.16719925
-0.08979454 -0.028547455 0.017180933 -0.050643787 -0.09846862 -0.05173055 -0.0993673 -0.0032529167
-0.006185442 0.20287625 0.115620516 0.24093664 0.14877445 0.05190421 0.11453978 0.19055559
0.115786 0.23073241 -0.07600986 -0.077455394 -0.1003633 -0.084082015 0.018153474 -0.07401524
-0.1090715 -0.099371254 -0.12726867 -0.0047547175 0.06817962 -0.041028336 0.028699888 -0.059265576
-0.036746018 0.0031166424 -0.016155222 -0.045169402 -0.0132162785 -0.064556114 0.011671079 -0.024166353
0.009729267 -0.07841424 -0.051008835 -0.10097616 -0.033235308 -0.14003235 0.007544829 -0.09027407
-0.0669943 0.009660838 -0.047799606 -0.13390188 -0.07995353 -0.08619864 0.1556219 0.116661124
0.14176977 0.08222524 0.035433263 0.04519202 0.11300408 0.11051796 0.1438232 0.042919446
0.044751372 0.11133216 -0.023193052 0.01692558 0.064825654 0.07057137 -0.0006725912 -0.00578956
-0.03489652 0.006941604 -0.05554002 0.019637091 0.040277958 -0.021891719 -0.07589466 0.003037633
-0.07598387 0.099476576 0.054391988 -0.052988067 -0.011209543 0.030325443 0.06437895 0.12235471
0.01005149 -0.009621464 -0.05680178 -0.039849002 -0.05063611 0.02111995 -0.0017815663 -0.0138562415
-0.09563881 -0.008099035 -0.0029962219 0.028866362 -0.014043079 0.014723727 0.015782584 0.03174152
-0.016631404 -0.036622494 0.03138159 -0.06783339 -0.0871792 -0.018609827 -0.093202725 -0.04349242
-0.026370978 0.01726746 -0.03402974 -0.011339719 0.013757995 0.10387245 0.066759944 0.07033206
0.040663827 0.021266721 0.076818496 0.067813054 0.05316693 0.034030493 0.13856785 0.08229884
0.07305441 0.08833659 0.107401 0.06318154 0.06594348 0.07868819 0.020607946 0.016208297
-0.0026401673 0.05051725 0.06922432 0.048444048 0.0050664614 -0.019513065 0.015633024 0.049183507
0.048658457 -0.020354182 -0.03394905 -0.023115123 0.046061307 -0.0094923815 -0.010190585 -0.05242626
-0.007479779 -0.023978496 -0.065555856 -0.030383075 0.04053981 -0.013463156 0.060961187 0.02090928
0.11494513 0.039308082 0.0065918285 0.010322428 -0.059235983 -0.13250244 -0.09079768 -0.05687849
0.022137402 -0.1263637 -0.068912804 -0.015531373 -0.061386164 -0.10610502 -0.0979086 -0.0029038785
-0.09024284 -0.079340845 -0.11033931 -0.19356948 0.038297955 0.039659534 0.10438721 0.07721089

b3 f4 [32]
00000000: e155 16bf b3e4 393d 3c03 083f 21d5 803f
00000010: 3b66 b33e b122 7c3f 873c 813f e887 b93d
00000020: 2fb6 823e f5ed 2bbf 244e e43e 4aa9 78bc
00000030: 42cd 45bf 6670 5ebe 428d e23e 4bfb bf3d
00000040: 4dd5 9e3f f437 a7be 075a 6f3f 36ef b63e
00000050: c3e8 6abf 001c 9d3e 1bc5 0a3d a6cb 2b3c
00000060: 1f37 03bf bef8 bebd 8889 9a3c 7b46 4abf
00000070: fe4d c83c 630a 673f a007 f63e ef95 23bf
-0.5872479 0.04538412 0.53129935 1.0065042 0.35038933 0.98490435 1.0096596 0.09059125
0.2552962 -0.6715997 0.44590867 -0.01517708 -0.77266324 -0.21722564 0.44248396 0.09374102
1.2408844 -0.32659876 0.93496746 0.35729378 -0.91761416 0.30685425 0.03387938 0.010485565
-0.51255983 -0.093247876 0.018864408 -0.79013795 0.024451252 0.90250224 0.48052692 -0.63900656

w4 f4 [5, 32]
00000000: c64c 9abf 9e3a 00c0 3744 0040 b5b5 993e
00000010: 1d9a c1bd 990a ca3f 58e8 0d40 d011 27c0
00000020: b780 fb3e 2d26 c0be 281e 2140 a9e2 fbbf
00000030: ca5a 9ebf 442f ffbf c080 0140 3e38 c0bf
00000040: a63e 2540 e328 cdbf ed6e a13f 5427 b13f
00000050: 064b 9ebf 8c2f 9abf 3251 e6bf 0730 9abf
00000060: 21e8 a2bf 1ff8 b13e aebc 9fbf dab0 84bf
00000070: 53ad d4bf 3111 ee3f 3f46 bf3f a101 c6bf
00000080: fb79 bbbf 5e88 1040 8221 f8bf 98f9 a6bf
00000090: b372 0ac0 a018 a5bf 8a29 953e c95d 943f
000000a0: 180d 4f3f 588b b2bf 24a6 17c0 30e1 d0bf
000000b0: a6ab 82bf 1922 87bf 479c dfbf c8f6 1040
000000c0: bd63 11bd 5f74 1340 5686 dd3f 8183 39c0
000000d0: 51b4 b0bf e54b 1940 2ffb 9cbf 29fc 0f3e
000000e0: 936f 1440 685b 28bf 82ba 693f fccc a3be
000000f0: a284 dcbf f745 923f e639 353f 782c c33e
00000100: e204 1840 dd58 613f 7408 12bf 1f67 b8bf
00000110: bcd6 8b3f 5854 d8bf fd54 a9bf db7c debf
00000120: 5aaf eabf c612 3940 6b7a 36bf 3233 adbd
00000130: 99d2 673f d896 f83f 8c95 ec3f 80eb a0bf
00000140: 482e 99bf 3662 9bbf a6e8 833f b94e 84bf
00000150: a232 93bf 552c 37bf fde2 2040 6582 2940
00000160: a17a aebf 2fda 6dbf fa82 8bbf aa36 3a40
00000170: d80a c5bf 91f4 cabf 2408 1ac0 1dab 03c0
00000180: dc0e b33f 8483 7cbf ed48 d23f 63fa cfbf
00000190: fa88 e7bf 966e c0bf e29c 66bf 4ced b93f
000001a0: a6ed 1240 0e8a 3cbf 9561 81bf df2f 1540
000001b0: a0d6 2140 6749 e7bf 277c aebf c79d cfbf
000001c0: 0aba eebf 54dc 823f 1954 18c0 dd34 913f
000001d0: 3af1 1940 b870 9bbf e09f 4cbf 3601 d4bf
000001e0: 0c9d 8bbf ef35 2f40 872d d1bf d3b3 c3be
000001f0: f5a1 cb3f 8eff ddbf d90c 7c3f 1c5f 8dbf
00000200: d587 b3bf 2729 47bf b9e5 e2bf 7dc5 2140
00000210: dffb 0c40 d211 0940 2831 c1bf ca35 b43f
00000220: 7d34 b6bf d3b6 a6bf e23c babe 75e2 38bd
00000230: 1e26 e7bf a4cc c73f 9487 a0bf 3771 cfbe
00000240: 9390 2cbf a414 acbf 9cc6 43bf 92b7 c43f
00000250: 273a a93e 22d7 1abf b379 453f 2664 dcbf
00000260: 3322 afbf c5e8 a8bf a4b5 1040 f506 dabf
00000270: cd56 0c40 edf9 79bf 86b0 9abf 01e8 1740
-1.2054679 -2.0035777 2.0041635 0.30021444 -0.09453223 1.5784484 2.2173061 -2.6104622
0.4912164 -0.37529126 2.5174656 -1.9678546 -1.2371457 -1.9936299 2.0234833 -1.5017164
2.5819488 -1.6028103 1.2611977 1.3840127 -1.2366645 -1.204576 -1.7993529 -1.2045907
-1.272709 0.34759614 -1.2479455 -1.0366471 -1.6615394 1.8598996 1.4943312 -1.5469247
-1.46466 2.2583232 -1.9385226 -1.304492 -2.1632507 -1.289814 0.29133254 1.1591121
0.80879354 -1.3948774 -2.3695154 -1.6318722 -1.0208633 -1.0557281 -1.7469567 2.2650623
-0.03549551 2.3039777 1.7306621 -2.8986514 -1.3805028 2.3952572 -1.2264155 0.14061035
2.31931 -0.65764475 0.91300213 -0.31992328 -1.7227976 1.1427602 0.7079147 0.38119864
2.375298 0.8802622 -0.5704415 -1.440647 1.0924907 -1.690074 -1.3229061 -1.7381853
-1.8334763 2.8917708 -0.71280545 -0.0845703 0.9055572 1.9421034 1.8483138 -1.2571869
-1.1967249 -1.2139347 1.0305374 -1.0336524 -1.1499827 -0.7155202 2.5138543 2.6485837
-1.3631173 -0.92911047 -1.0899346 2.9095864 -1.5393934 -1.5855886 -2.4067469 -2.057319
1.398891 -0.98638177 1.6428505 -1.6248287 -1.8088677 -1.5033748 -0.90083134 1.4525542
2.295755 -0.73648155 -1.0107905 2.3310468 2.5287247 -1.8069276 -1.3631638 -1.6220025
-1.8650525 1.0223489 -2.380133 1.1344258 2.4053483 -1.2143774 -0.7993145 -1.656287
-1.0907302 2.7376668 -1.6342019 -0.38223132 1.59088 -1.7343614 0.98457104 -1.104465
-1.4025828 -0.7779717 -1.7726356 2.5276787 2.202873 2.1417127 -1.5093126 1.4078915
-1.4234768 -1.3024544 -0.36374575 -0.04513784 -1.8058507 1.5609326 -1.2541375 -0.40516064
-0.674081 -1.3443799 -0.7647493 1.5368521 0.3305218 -0.60484517 0.77138823 -1.7218063
-1.3682312 -1.3196036 2.2610865 -1.7033373 2.192798 -0.9764698 -1.2085121 2.3735354

b4 f4 [5]
00000000: 5bf7 353e 11a2 173c a685 abbd ec3a 9ebd
00000010: bc70 ffbd
0.1777014 0.009254948 -0.08375101 -0.07726082 -0.12472674

exp_avg f4 [32, 1, 3, 3]
00000000: 0e1f fc3b f021 e23b cfdd f23b 9b7b 233c
00000010: 930e 163c 75e7 503b 9540 3d3c e6fb 013c
00000020: bef9 ca3a 8de7 b439 0a57 bfb7 d850 7d39
00000030: 02b5 073b 0b80 fc39 189b 66b9 139b b73a
00000040: a002 21bb 3d1d 29bb fb6a 263b 8041 3b3b
00000050: fe2d 0a3b bb4e cb3a 3db4 4f3b 7e5c 7f3b
00000060: b548 ae3a fde0 893b e045 d33b 3ddb d0bb
00000070: 48cc 6ebb 1612 adb9 2239 96bb acc8 33bb
00000080: 1b02 08ba c22b a5ba 0e68 1fba f977 2bba
00000090: f66f 523b 1dd0 db39 41a3 81ba 4693 e03a
000000a0: f4ff 9b39 4ab8 3eba e2dc 9f3a e3e6 bb3a
000000b0: 8fc7 373b 50c6 eb3a 5e6e 8a3b cab5 963a
000000c0: e7af 1a3a 9cd4 603b f6d4 043b 1eb4 8e39
000000d0: 6dc3 603a fcfe 80ba 092e fc3a a1b3 0dba
000000e0: 54e8 153b 499f d9b9 672f 75ba b8fe 6fba
000000f0: 0efd 05bb daa2 43bb a2d6 e6ba 8f98 c6bb
00000100: 437b c3bb b717 95bb e755 b4ba 60fd 5dbb
00000110: 7654 54bb ef76 cfba 6c01 1dbb 23d7 a0ba
00000120: 41a3 87bb b4b1 78bb f0dd d7ba 657f 7fba
00000130: 2131 cfba fd96 9cba 96f2 cf3a 46b3 7bba
00000140: 42da edb9 37bf f2b9 2b15 1eba eced 3a3a
00000150: 6209 19ba 71fb 00bb 64a8 62b9 7484 9dba
00000160: 11b1 20bb 5fa9 123a 1e46 d43b 72cf 613b
00000170: ba8a ea3a 9153 1d3c ac2d 5d3b 885e 4d3b
00000180: ecd6 473c 7ad9 b23b e264 aa3b aa58 9339
00000190: ec52 c7b9 7c5f 29ba 3874 db38 803f 863a
000001a0: d1fa cb3a 8603 ac3a d5b8 6d3a f34f 0bba
000001b0: ac09 a7bb ebfd 0f3b 8e05 d839 c28c 8fba
000001c0: 1f71 a13b 5a7b 563b f551 b8ba b7ad 153b
000001d0: 4ead aaba b037 1a3b 06af 913a 2002 01bb
000001e0: 1700 023c 5fdd 2f3a 7033 8239 2e0e c73b
000001f0: 6862 5eba f161 4d3b fa81 15b9 0b9e 6bb9
00000200: d811 0c3b 8079 c8ba 4842 d3ba cb44 9239
00000210: 870e beba 9a42 37bb 355d 3bba 1422 1fbc
00000220: 05f4 23bc dbd0 15bc c419 fabb 1f58 12bc
00000230: 14c8 49bc 8ef0 d6ba b8f5 fdb9 84ce bdb9
00000240: 9fc4 8c3b ee7e e73b 62ca ce3b bf18 7b3b
00000250: e818 493b b0b8 303b 06e8 03bb dae7 44ba
00000260: 1232 36ba 8a52 113a 81e9 f5ba 1130 34bb
00000270: 6268 b039 2f8e deb9 0f2e b43a c0d8 5639
00000280: 0cdf 123b 1e03 063b b0dd 443b 2263 d33a
00000290: 2c17 2d3b 9e5b ca3a 2679 b43a 044a d838
000002a0: 0b77 163b eacf cb3a e0c5 3638 843f c63a
000002b0: 5f39 14ba 5a90 72b9 dd5f 893b 7536 383b
000002c0: 80fb 233b f9c1 9239 8490 973a 9160 193a
000002d0: 9a82 d93a 6322 93b8 8e65 c23a 3ede 053b
000002e0: f264 6d3b 0b87 413b 9c18 ae39 e8f6 293b
000002f0: 31ce 8f3a d5cd 80ba 93fd d9b8 370d 87ba
00000300: 6a5c 3bbb 38ba a8ba f321 51b9 0d08 9bbb
00000310: b878 65bb 14ef b1b9 4b93 ea37 49c4 0f38
00000320: d475 c438 3e99 2138 0ac5 4139 9352 673a
00000330: 3eba 6038 4fc8 ba3a 496e 473b 23ab 1fbb
00000340: 0b0c 2dbb 8372 61bb 5c47 52bb 28bf baba
00000350: ab61 beba 6f98 2bba bc53 91ba 8df2 8dba
00000360: 49bd c1ba ddca 37bb eec0 cdbb 3cd8 77bb
00000370: 4d40 19bb dcc7 c3bb 065c 30bb 0817 5ab8
00000380: dbb2 baba 4902 833b 2f55 353b f923 ba3a
00000390: e710 9c3b 17f7 543b 70c7 8f3a 577b 193b
000003a0: f80f 1e3b 7684 af3a 390d 253b 5087 9b3b
000003b0: e961 d43b 037b 8f3a 993d b33b 3cee d53b
000003c0: 239c abba 21c7 313b d250 723b 71a0 32b9
000003d0: 146d 24ba fc90 cc39 c1fc cd3a cf21 65ba
000003e0: 558b 6735 d1be 3e3b 7b06 0439 2513 023b
000003f0: 97de f4ba a2f7 3fba 7bf3 75bb f7ca 99bb
0.0076941317 0.0069010183 0.0074116956 0.0099782 0.009158748 0.003187624 0.011551042 0.007933592
0.0015485806 0.00034504794 -2.2809505e-05 0.00024158077 0.0020707254 0.00048160585 -0.00021992286 0.0014008008
-0.0024568215 -0.002580478 0.0025393355 0.0028572977 0.0021084542 0.0015511134 0.0031693124 0.0038965042
0.0013296815 0.004207729 0.0064475387 -0.0063737915 -0.003643768 -0.00033010606 -0.0045844475 -0.0027432842
-0.0005188302 -0.0012601542 -0.0006080874 -0.00065410096 0.003211019 0.00041925992 -0.0009890572 0.0017133735
0.00029754604 -0.0007275386 0.0012196566 0.0014335777 0.002804253 0.0017988179 0.0042245826 0.0011498269
0.0005900845 0.0034306413 0.0020268536 0.00027218548 0.00085740426 -0.0009841616 0.0019239794 -0.000540549
0.0022874074 -0.00041508142 -0.0009353072 -0.00091550825 -0.0020445022 -0.0029851706 -0.0017611573 -0.006060667
-0.0059656217 -0.004549946 -0.0013758511 -0.0033872947 -0.0032398975 -0.0015828292 -0.0023957146 -0.0012271147
-0.0041393344 -0.0037947716 -0.0016469341 -0.00097464613 -0.0015807488 -0.0011946853 0.0015865143 -0.0009601604
-0.00045366777 -0.00046300303 -0.0006030376 0.000713079 -0.0005837885 -0.001968112 -0.0002161577 -0.0012017624
-0.0024519602 0.0005594696 0.006478085 0.0034455922 0.0017894127 0.009602443 0.0033749146 0.0031336863
0.012197237 0.005458054 0.0052000144 0.00028104085 -0.0003801802 -0.00064610667 0.00010464381 0.0010242313
0.001556242 0.0013123609 0.00090683746 -0.00053143426 -0.0050975885 0.0021971415 0.0004120287 -0.0010951983
0.004926815 0.0032727332 -0.0014062511 0.0022839138 -0.001302162 0.0023531727 0.0011114783 -0.0019685104
0.007934592 0.0006708707 0.00024833856 0.0060746884 -0.00084832916 0.0031338895 -0.00014258167 -0.00022470222
0.002137294 -0.0015294999 -0.0016117776 0.00027898545 -0.0014500179 -0.0027963282 -0.0007147373 -0.009712715
-0.010006909 -0.009144033 -0.007632466 -0.0089321425 -0.012315769 -0.0016398595 -0.00048438995 -0.00036202755
0.0042959 0.0070646917 0.006310747 0.003831431 0.0030685011 0.002696555 -0.002012731 -0.0007511355
-0.000695021 0.00055436103 -0.0018761606 -0.002749447 0.00033647107 -0.00042449075 0.0013746637 0.00020489376
0.0022410778 0.0020448635 0.0030039363 0.0016127566 0.0026411517 0.0015438681 0.0013769015 0.00010313469
0.0022959139 0.0015549634 4.3576467e-05 0.001512513 -0.0005654301 -0.00023132694 0.004192336 0.002810863
0.0025021732 0.0002799181 0.0011563455 0.00058508763 0.0016594708 -7.015911e-05 0.0014831291 0.0020426656
0.0036223498 0.0029529955 0.00033206202 0.002593452 0.0010971484 -0.0009826968 -0.00010394598 -0.0010303621
-0.0028589019 -0.001287288 -0.0001994444 -0.0047311843 -0.003501458 -0.00033938198 2.7963562e-05 3.427666e-05
9.3679555e-05 3.852811e-05 0.00018479317 0.0008824255 5.3579213e-05 0.001425037 0.0030430725 -0.002436348
-0.0026404883 -0.003440053 -0.003208599 -0.0014247643 -0.0014524957 -0.00065458467 -0.0011087577 -0.0010829732
-0.0014781143 -0.00280445 -0.0062791025 -0.0037818095 -0.0023384274 -0.005974753 -0.002691032 -5.19967e-05
-0.0014243977 0.003998075 0.0027669182 0.0014201395 0.004762757 0.003249591 0.0010969471 0.0023419464
0.0024118405 0.0013390917 0.0025184883 0.004746355 0.0064813984 0.0010946695 0.0054699895 0.006528644
-0.0013092797 0.0027126747 0.0036974442 -0.00017035172 -0.00062723574 0.00039017934 0.0015715585 -0.00087406946
8.625696e-07 0.0029105435 0.00012590915 0.0019847837 -0.001868206 -0.0007322972 -0.003752916 -0.0046933847

exp_avg_sq f4 [32, 1, 3, 3]
00000000: c846 703a 90ca 243a 2534 0a3b ee56 fa3a
00000010: 0077 af3a 0ada f939 86d0 793b ef3c 063b
00000020: c61a d439 acf2 533a a383 893a c2f1 c03a
00000030: 9ed7 4f3a e233 343b 82d5 773b 1e75 593b
00000040: 5134 913b 7211 3c3b 022d ca39 040b e638
00000050: 127b 8439 5617 0639 1dee 8f39 1130 173a
00000060: ed28 8c3a 12e4 133b d3a7 d33a d250 8b3a
00000070: 8856 b739 12d2 bd38 3b6c a63b f2fc 8e3a
00000080: 095c b237 e7af 0039 23d0 4238 f566 0338
00000090: 0339 543a 81f7 7c3a f0e7 2a3a 8425 5239
000000a0: fa50 a939 d86c 563a 7356 f338 b22c a139
000000b0: 70a8 d03a a440 e839 02b3 1c3b c002 b13b
000000c0: 474f ad39 ef16 043b 5572 9f3b 1f0e eb39
000000d0: f411 3c3b d8e0 9a3b e948 6f39 5cde 0b3a
000000e0: 37c5 cf3a 10f3 8039 ab13 3e3a 09b6 a139
000000f0: 1d12 823b 690f 0a3b 77de 4b3a df74 773a
00000100: be61 243b 11e5 8e3a 43cc 2a3b b2ae b339
00000110: 153c 003a 8fa8 f43a ba4b b339 0b41 b439
00000120: ef60 863a caee e83a 5528 a339 d9a0 b53a
00000130: 613a 4d39 5d39 af38 0402 c73b 2915 ae38
00000140: 33d3 8438 9f51 193a 2b63 4839 0f28 2438
00000150: ae85 073a d71e a839 af4d 2f38 76f5 ae3a
00000160: fc29 4c39 8c63 2838 1aba e13a 4a00 e839
00000170: 00c6 7e3a f6e5 e839 531e 0c3a 9bb1 833b
00000180: 4741 a03a 8074 b03a 69c0 023c ae97 ce39
00000190: 1230 463a 6196 ac3a 2a49 0339 5777 d639
000001a0: f5eb 463a 7cb9 4738 f525 7439 0c13 3a3a
000001b0: b93e 073a bfe6 a939 d5db fa38 ec1d 263a
000001c0: 8178 0c3a f5d5 d239 430d 6539 b707 853a
000001d0: c585 943a 9383 9a3a a724 473a ec60 3e3a
000001e0: 7cde 9a3b 325b 2d3c 6f95 bf3b 47b1 583a
000001f0: 435a 0c3c 4efe 443b 2474 ae38 21ca 4d39
00000200: d31e 003a 4743 3f39 a8aa 3539 2432 383a
00000210: c792 133a 70a9 3e3a a508 c83a 3873 293b
00000220: 61a2 ce3a 85ea 8a3a cd14 fc3b 5959 383b
00000230: 92f0 7a3b 9f81 023a d59a 393a 66b2 3d3a
00000240: 25c4 fa39 60e8 0e3a 1931 023a b0d9 d83a
00000250: 404f 4a3b d9a6 c639 d543 4339 7833 ec39
00000260: 5e97 4b39 e85d 6c3a 810e 8039 9204 a03a
00000270: 36f8 1e39 fd6f 6f39 4399 1d3a 69d2 2739
00000280: 244e c239 f662 1a3a 2f12 353b 16e6 da3a
00000290: 140a 4b3b 4cbf b239 3032 3639 65d5 2939
000002a0: f4bf 823a 0589 3b3a be9a 2f3a 1deb 6f3b
000002b0: b546 273b d1ee 043b b9ca 803b 9ab3 313b
000002c0: cdd8 423b 2cdb a439 e487 7939 01d5 be39
000002d0: 6a10 a439 6244 c839 8726 a539 8905 c83a
000002e0: 40ce 8f3a fdd6 183a 2ebc e53b 9a37 813b
000002f0: 39f6 413b a1e8 0b3b 8e42 a53a c297 6139
00000300: ec20 fa3a ec30 e03a 32e5 6a39 ff55 e53a
00000310: abcc c03a 257a 7039 d0e0 e035 6af5 8436
00000320: 4ce6 093a 65c8 8236 dcd6 d438 a3b0 b43a
00000330: f71b 6436 c9b3 5e38 fbc6 a33a 5a6b 413a
00000340: ed5c 313a 75f7 c03a 8be4 ed39 84bd a739
00000350: eb9a 4d3a bf2e 8939 c79f 5c39 7290 9b39
00000360: 9574 8d38 d1f5 b739 6a47 f339 bdaa 8d3a
00000370: 513c 153c c52c 063c 4b15 503c 8690 4a3c
00000380: d22c b43a 9a1b d03a 3bb2 6a3a 9b42 173a
00000390: 07c0 0a3c 8dd9 ee3a d03a 3a3a 5408 683a
000003a0: ab3e 153a fcfb cb39 1754 0239 4278 8639
000003b0: f417 003a 0075 093a 863b 793a 891a 9e3a
000003c0: 27f4 b23a 59b4 4a3b f072 8f3b d156 3b3c
000003d0: 169e ea3b 4166 f23a 66c5 223c fc1f 9f3b
000003e0: 3b54 6b3a 2cc4 433b 086d a63a c367 5d3a
000003f0: a07e a339 ad40 383a 4b66 343a 8784 ef3a
0.00091658207 0.00062862877 0.002108821 0.0019099393 0.0013386905 0.00047655433 0.0038118674 0.0020483097
0.0004045574 0.0008085172 0.0010491501 0.0014720487 0.0007928553 0.0027496745 0.003781647 0.003318138
0.0044312854 0.0028696922 0.00038561976 0.000109693065 0.00025268696 0.00012787929 0.00027452494 0.00057673553
0.0010693349 0.002256636 0.0016148038 0.0010628945 0.0003496895 9.051351e-05 0.00507882 0.0010909124
2.126211e-05 0.0001227256 4.6447047e-05 3.132872e-05 0.00080956536 0.0009649918 0.0006519547 0.00020041136
0.00032294524 0.0008179671 0.000116032454 0.00030741614 0.0015919339 0.0004429865 0.0023910408 0.005401939
0.00033056198 0.002015527 0.0048659244 0.00044833214 0.0028697224 0.0047265105 0.00022819977 0.00053355633
0.0015851621 0.00024595158 0.00072508556 0.0003084394 0.0039694444 0.0021066314 0.00077769853 0.00094397174
0.0025082673 0.0010902007 0.002606169 0.000342717 0.00048917654 0.0018665957 0.0003419796 0.00034380736
0.0010252277 0.001777136 0.00031119832 0.001385714 0.00019572071 8.355335e-05 0.0060732383 8.300908e-05
6.3335894e-05 0.00058486493 0.0001911043 3.9137954e-05 0.0005169761 0.00032066435 4.17956e-05 0.00133483
0.00019470596 4.014703e-05 0.00172216 0.00044250704 0.00097188354 0.00044421823 0.0005345095 0.004018975
0.0012226485 0.0013462454 0.0079804445 0.00039404392 0.00075602636 0.0013167375 0.0001252039 0.00040906176
0.0007588261 4.7618043e-05 0.00023283793 0.0007098175 0.0005159188 0.0003240611 0.00011961876 0.0006336856
0.00053585327 0.00040213732 0.00021844082 0.0010149394 0.001133137 0.001178848 0.0007596709 0.0007262367
0.0047262292 0.010580825 0.0058466713 0.00082661625 0.008566442 0.0030058804 8.3185994e-05 0.00019625622
0.00048874057 0.00018240242 0.0001732508 0.00070265145 0.00056294765 0.0007273173 0.0015261365 0.002585603
0.0015764945 0.0010598457 0.0076929093 0.0028129427 0.0038290364 0.00049784215 0.0007080262 0.0007236361
0.00047829855 0.00054514967 0.00049664226 0.0016544368 0.003086999 0.00037889814 0.00018621919 0.00045051775
0.00019415977 0.00090166787 0.0002442487 0.0012208393 0.0001516052 0.00022834535 0.00060119125 0.00016004745
0.00037060783 0.000588938 0.0027629246 0.0016700651 0.0030981349 0.00034093333 0.00017375569 0.00016196592
0.0009975419 0.00071539014 0.00066987786 0.0036608644 0.0025524322 0.0020283947 0.0039304164 0.0027115108
0.0029731274 0.00031443813 0.00023797114 0.00036398324 0.00031292747 0.00038197922 0.00031499958 0.0015260439
0.0010971501 0.00058303756 0.007010958 0.003943396 0.0029596223 0.0021348374 0.0012608336 0.00021514206
0.0019083298 0.0017104424 0.00022401361 0.0017496942 0.0014709433 0.00022933686 1.675473e-06 3.9624765e-06
0.0005260452 3.897631e-06 0.000101489684 0.0013785552 3.3990925e-06 5.3096363e-05 0.0012495214 0.00073783624
0.0006765861 0.0014722185 0.0004537444 0.00031993922 0.0007843214 0.00026165505 0.00021040357 0.00029671524
6.745119e-05 0.00035087627 0.0004640178 0.001080833 0.009108619 0.008189385 0.012700389 0.012363559
0.0013746268 0.0015877367 0.000895295 0.0005770118 0.008468634 0.0018222794 0.00071041007 0.00088513386
0.0005693237 0.0003890692 0.00012429092 0.0002564807 0.0004886382 0.00052435696 0.0009507466 0.0012062351
0.0013653085 0.003093025 0.0043777153 0.011434273 0.0071599586 0.0018493609 0.009934759 0.0048561078
0.000897709 0.0029871566 0.0012697289 0.00084459427 0.00031184126 0.00070286804 0.0006881698 0.0018273749

exp_avg f4 [32]
00000000: 0f3a d02e 060c 3230 6a17 fa31 80e4 4632
00000010: 0a70 6ab1 5c50 47b2 c123 0e32 e9cf 85b1
00000020: db85 3e32 a827 7eb1 68d7 efb1 aa4b beaf
00000030: 32ef 5b31 be16 1632 bfb6 05b2 0bab 17b1
00000040: 16fd 9b31 bbef ffb0 67e3 3e31 7a34 672f
00000050: ea8e 19b0 d487 82b0 beb9 0732 50d3 fcb1
00000060: a79a b4b1 b4d8 71b1 2c37 4ab2 4b26 1132
00000070: 6977 cd31 47dd df30 0d2c 3532 2b3d a230
9.469058e-11 6.477311e-10 7.2786195e-09 1.1577072e-08 -3.4115168e-09 -1.1601596e-08 8.273617e-09 -3.894446e-09
1.1089891e-08 -3.6984407e-09 -6.9803043e-09 -3.461456e-10 3.2004661e-09 8.73632e-09 -7.7831706e-09 -2.2070619e-09
4.5398663e-09 -1.8621827e-09 2.7777902e-09 2.1027971e-10 -5.586417e-10 -9.49735e-10 7.900267e-09 -7.3581887e-09
-5.2562714e-09 -3.5193297e-09 -1.1770492e-08 8.448818e-09 5.9798606e-09 1.6288276e-09 1.0545603e-08 1.1804436e-09

exp_avg_sq f4 [32]
00000000: ffc3 9727 c434 d327 9d6a 1d28 e81e 9b27
00000010: eedc 1b27 3572 8127 99f6 8a27 ad1a c927
00000020: 18ad 1327 c6a2 d326 260e 2c27 4c2d a926
00000030: a93a 1927 8a1c 0b27 682c 9328 b1dc 0e28
00000040: c5f1 f726 3b37 5f27 32ff 1d27 3515 d127
00000050: a6e5 3b27 2e87 b526 b776 cc27 ef9a 8627
00000060: eaf6 7d27 75a6 0028 f2a7 b026 20c5 9726
00000070: 9290 4727 09dd 3428 c9e9 1b28 7ed3 5a26
4.212342e-15 5.8621473e-15 8.738369e-15 4.305465e-15 2.1630337e-15 3.5928516e-15 3.8570056e-15 5.581763e-15
2.0494182e-15 1.4685186e-15 2.3877465e-15 1.1739008e-15 2.1264815e-15 1.9305596e-15 1.6339537e-14 7.930438e-15
1.72046e-15 3.0977407e-15 2.1926469e-15 5.8032146e-15 2.6075956e-15 1.2596038e-15 5.6750085e-15 3.736045e-15
3.5244656e-15 7.141522e-15 1.2257975e-15 1.0531161e-15 2.769517e-15 1.0039937e-14 8.6549225e-15 7.592057e-16
