CS330/XCS330-PS3/src/submission/logs/maml/omniglot.way_5.support_1.query_15.inner_steps_1.inner_lr_0.4.learn_inner_lrs_False.outer_lr_0.001.batch_size_16/state7400.pt (torch, 353132 bytes, 30 tensors)

conv0 f4 [32, 1, 3, 3]
00000000: 8c03 6fbd 4d1e 96be ff3b 223f 1d5c acbe
00000010: 2800 a1be eb22 59bd d4dd 2bbd a09b 35bd
00000020: 83fa dfbd e683 5d3e 46f9 9f3e 1129 5bbf
00000030: 4715 d3ba ea9b 2dbb f14f 173e 5880 99bd
00000040: e2ff 423d c882 0f3e ea87 40be 6257 9fbe
00000050: 8780 1e3d e9ab a63e b985 8f3c 8e6d ab3e
00000060: 2156 59be c8b6 a1be fbb2 d7be 8ce6 c33d
00000070: 1ab9 cfbe 394f 06bf b12f e33d 9f71 65bd
00000080: 1f74 d2be 5fe3 b23e dddd 303e c879 8b3e
00000090: 6cec d43e a9ae d5be 3038 4b3f 3f60 c7bc
000000a0: a6b9 de3c 33a4 b9bb e273 7f3b 69b6 54bc
000000b0: 903c 6e3d 537a 03bf 13fa ddbe 1c92 83be
000000c0: c3b5 b53e edd2 c6bd 6ba8 b7be 9724 a0bd
000000d0: 81ef b03e 60e5 cfbd 6833 0cbf e2f3 07bf
000000e0: 3e1e 1cbe 0fcb 6f3d a741 323d aad0 04bf
000000f0: 5a98 653e 9e45 c33d 8068 0fbf 9138 223c
00000100: 490e a23e a5e8 f53d 389f bc3c b884 653e
00000110: 1db3 d4bc 68c8 33bf 30a0 40bf b092 1abe
00000120: d6cd fcbc 7322 2dbd b325 353d 1dc8 c0bb
00000130: 8ace 35bd b903 91bc db57 eb3e 8e29 64bf
00000140: af93 b63e a977 24bf 4d7a 49be ae61 d63e
00000150: 9c21 b5be 7c74 223e b95d 413e b214 f5bc
00000160: db84 a2bc 40cd 94bc 8980 bdbe ecb0 5cbd
00000170: 1257 323c ed92 4cbe 522f 593c 29b5 b6bd
00000180: f9ea f83e d20d 4d3e 8e52 33bf 7583 06bf
00000190: f273 b7bd a08f 32be fbdf 583e 4c24 a8be
000001a0: 3b71 f63d e436 cc3e 426d dcbe 82f9 813e
000001b0: 05c2 73bd 9fe7 acbe b6eb c7be d11b 6bbe
000001c0: e97c 20be 2c5a 06be 6c2b 0c3f ab95 48bd
000001d0: 0b04 99bd 8b3d 2bbf 8eef 853e 445c 8a3e
000001e0: 69a6 43bf 1893 e23d 2925 943e 8d61 4fbe
000001f0: 57cb 02bf d7ec 6fbe 2531 1abf 75f7 1bbf
00000200: 3fbe 63be 43ea 8f3e bda4 9d3e bcc4 9d3d
00000210: c1b6 64be 0990 87bd 3897 4e3e af77 fc3d
00000220: 8092 243e 418a f73e 900c 843d 45c6 4fbe
00000230: 5afc 0cbf e2d4 393e 6ed6 2abe 1f29 cbbe
00000240: 9f7c 3abd 7540 cfbd 3354 a83e 1c97 2b3e
00000250: eff5 ffbe cac4 693e 1957 123d 7384 20bf
00000260: b012 af3d 2a1c 023f cfb4 72be 0729 cdbe
00000270: 8d36 093e 61ee 16bf 1998 3b3d da8c 3dbe
00000280: cf0b bfbd f861 893e c923 27bf 6108 49bf
00000290: 6e66 43bf 305c dcbd 9a43 003e 7c77 ef3c
000002a0: cd0a 113e 0e05 b63e bbff f93d ae4f 73be
000002b0: 653c 183e e989 f0bd 95c2 adbc 5d78 d4be
000002c0: ab26 c2be 16eb 90be edaa 33be 332c ad3e
000002d0: 239b fabd 0896 8e3d cbab a23e 8e1c 0d3e
000002e0: ab57 58be e40e 54bf febc 81bd 25c9 863d
000002f0: 43d4 da3e 2d70 733e 27f6 8ebe 3d4c ccbe
00000300: e56e b43d f9bd f13e cc60 95be 1226 0dbf
00000310: 7c9b cd3d 8a3d 443e 0517 1b3e 2f6d 213e
00000320: 73bf 1fbf 8ff8 443e 44c3 8d3e 0c7e 3ebf
00000330: d33f eabc e0e8 23bd 03b2 2bbf 7982 4bbf
00000340: 9254 51bd b934 89bc e596 2cbe b808 9f3e
00000350: f0b0 29bd 5a09 8c3d e4a0 e63e d5b9 2cbe
00000360: 5348 d5bb 1aef 8bbd be0f cebe 8841 64bd
00000370: 0800 013c b864 d53e d086 20bf 25cc c2be
00000380: 1388 de3e bbd5 513e 06aa 8a3e deaa e6bc
00000390: f399 493e c5ef a43e 11b1 5ebe 456b 4abf
000003a0: 5654 76bf 29ca 32bf a4a5 503e f7d0 d7bd
000003b0: 767f 1cbf b941 7c3e 1c75 d3b9 8153 16bf
000003c0: 5906 703e 6157 96be 6e53 04bf 6656 28bc
000003d0: 2959 1a3e afaf ed3d 0a70 2ebf 463b a23e
000003e0: a364 433e 811a 3dbf 1355 c4bc ed3e 603d
000003f0: b504 0dbf c4e9 3e3d 1bdb dd3e 9c88 88bd
-0.058352992 -0.29319993 0.63372797 -0.33664027 -0.31445432 -0.053011816 -0.0419596 -0.04433787
-0.10936453 0.21632347 0.31244868 -0.8560954 -0.0016104364 -0.0026490637 0.14776589 -0.07495183
0.04760731 0.14014733 -0.18801847 -0.31121355 0.038696792 0.32553032 0.017519819 0.3348202
-0.21224262 -0.31584764 -0.4212874 0.09565458 -0.4057091 -0.52464634 0.11093081 -0.05601656
-0.41104218 0.34939095 0.17272134 0.2724135 0.41586626 -0.41734818 0.7938261 -0.024337886
0.027188133 -0.005665326 0.0038978984 -0.012982943 0.058163226 -0.51358527 -0.43354854 -0.2569741
0.35490236 -0.097082 -0.3587068 -0.07819479 0.34557727 -0.10151172 -0.5476594 -0.5310651
-0.15245911 0.05854326 0.043519642 -0.51880896 0.22421399 0.09534763 -0.5601883 0.009901182
0.31651524 0.12007264 0.02302514 0.2241391 -0.025964314 -0.7022767 -0.75244427 -0.1509502
-0.030859869 -0.04226918 0.044225406 -0.0058832304 -0.044386424 -0.01770197 0.45965466 -0.8912591
0.3565955 -0.64245087 -0.1967556 0.418714 -0.35377204 0.15864748 0.18883409 -0.029917095
-0.019838741 -0.018164277 -0.37012127 -0.053879663 0.010885017 -0.19977923 0.013255911 -0.08921272
0.4861677 0.20024803 -0.70047843 -0.5254434 -0.08957662 -0.17437601 0.21179192 -0.32840192
0.12033316 0.39885628 -0.43052107 0.25385672 -0.059511203 -0.33770463 -0.3904702 -0.2295983
-0.1567265 -0.13120335 0.54753757 -0.04897086 -0.07471474 -0.6689078 0.26159328 0.27023518
-0.76425797 0.11063212 0.289346 -0.20252056 -0.5109152 -0.23430191 -0.6023124 -0.60924464
-0.22240542 0.28108415 0.30789748 0.0770354 -0.2233534 -0.066192694 0.20174873 0.12327515
0.1607151 0.48347667 0.064477086 -0.20290478 -0.5507256 0.18147615 -0.16683361 -0.3967981
-0.045529004 -0.10119716 0.3287674 0.16756862 -0.4999232 0.22828975 0.035727594 -0.627021
0.08548486 0.50824225 -0.23701786 -0.40070364 0.13399716 -0.5895749 0.04579935 -0.18510762
-0.09328424 0.26832557 -0.6528898 -0.7852841 -0.7632817 -0.10759771 0.12525788 0.02923178
0.14164276 0.3555073 0.1220698 -0.23760864 0.14866789 -0.11745054 -0.021210948 -0.4149808
-0.37920126 -0.28304356 -0.17545672 0.33822784 -0.12236621 0.0696221 0.31771693 0.13780424
-0.21127193 -0.8283522 -0.063348755 0.06581334 0.42740068 0.2377326 -0.27922174 -0.39901915
0.08810214 0.4721525 -0.29175413 -0.55136216 0.10039422 0.191641 0.151455 0.15764306
-0.62401503 0.19235443 0.27688038 -0.7441108 -0.028594887 -0.04001701 -0.670685 -0.7949596
-0.051106043 -0.016748773 -0.16854437 0.3106134 -0.041428506 0.06837721 0.45044625 -0.16867764
-0.006508866 -0.068327144 -0.40246385 -0.055726558 0.007873543 0.41678405 -0.6270571 -0.38046375
0.4346319 0.20491688 0.27082843 -0.028157648 0.19687633 0.3221418 -0.21747233 -0.7906993
-0.96222436 -0.6983972 0.20375687 -0.10537904 -0.6113199 0.24634446 -0.0004033231 -0.58721167
0.23439921 -0.2936354 -0.51689804 -0.010274505 0.15073074 0.116057746 -0.6813971 0.31685847
0.19081359 -0.73868567 -0.023966348 0.05474751 -0.5508531 0.046609655 0.43331227 -0.06666681

b0 f4 [32]
00000000: 323f d83c eb87 023b d4a3 96bd 1abd d93c
00000010: ee7d 03bd c9e5 afbd 2360 363d f971 893d
00000020: 5bd4 0c3d d994 753d 13dd a0bc 5306 c2bc
00000030: 4e9d 093d d4b0 d4bd a804 00bc 34a2 c4bb
00000040: d7f4 17bd 5eaf f53c 5859 86bd 0d7b e0bd
00000050: 1ec1 893b edb5 94bd ccfd b6bc 61f8 a53c
00000060: 0877 b2b9 b220 8fbd 66b5 e6bc d715 cfbc
00000070: 75d3 2dbc ee4b 24bd f5b5 50bd b2ee e5bd
0.026397321 0.001991744 -0.073554665 0.026579428 -0.032102518 -0.0858875 0.044525277 0.06711192
0.034382205 0.059956405 -0.019636666 -0.023684656 0.033597283 -0.1038529 -0.00781361 -0.0060007814
-0.03709873 0.029990848 -0.0656001 -0.1096097 0.0042039296 -0.07261262 -0.022337817 0.020260038
-0.0003403949 -0.06988658 -0.02816267 -0.025278969 -0.010609497 -0.040111475 -0.050954778 -0.11227168

conv1 f4 [32, 32, 3, 3]
00000000: 1ac8 01bd 403a 46be 59fb d6bd 4350 da3c
00000010: d156 45bd 8236 27be d4ae 1dbe 2d8a a23d
00000020: 74cf edbc 5887 0e3e b2f0 32bc 7d98 3abd
00000030: e917 093c 65df 133e bbef 173d 7873 4bbd
00000040: 02c2 15be 03fe 143d 0fe8 3ebe 06c6 8cbe
00000050: 3b02 423e 4620 53be 31e0 c9bc 7d64 a13d
00000060: 0d49 643d a37b 193e ecdd 023e 4518 e33d
00000070: d032 92bd d792 12be 26cb 6d3e 5cc8 423d
00000080: ef9d bd3d a404 223e aeec 81bd e857 e13d
00000090: 3065 773c a899 c9bd 98b7 473e 0905 95bd
000000a0: 8665 f9bd 2540 c9bd aa12 b53c ae34 a43d
000000b0: c0fd 21be fb6c 95bd 433d 85bd 30d1 cbbe
000000c0: 163f df3d 9dc8 debc 7ae7 423d 9813 06bd
000000d0: 0f1d 0a3e 2fb3 dcbd a1cd 90be d654 d5be
000000e0: 326a 1ebf e111 f73d ce85 f83d 512f 54be
000000f0: ca56 0bbe bee7 0f3e 6a81 dabd fabb 23be
00000100: 5e12 c9bd 493d f8bc 032d 9b3d 2f99 cd3c
00000110: 5d43 223e ea20 61be ce8f 24be 0b9f a93d
00000120: dd42 c83c 1dce 46be 72a1 05be fbfa 433e
00000130: 8e2b 3dbd e7ab 04be 21a5 023f fdb5 a53e
00000140: 780e 973e 4538 b9bd 1c87 b93d 4196 183e
00000150: a634 38bd e086 dc3c 1171 9cbc 3448 893d
00000160: bf44 b13d ff1d 86be f15d 03bd ec5f 6fbd
00000170: a6c2 06be c3d2 463e 168c e13d c074 d6bd
00000180: 1e3c 953c 4268 b9b9 7d20 6cbe 9404 aabe
00000190: f965 1ebe 7b5a 59be c54d 5f3d 3eb3 30bd
000001a0: d0d6 0fbe 723c 8b3e 9850 28bd 8884 bebd
000001b0: 2253 143c 61fe 21bd 4390 21be 8d72 223e
000001c0: 020f 0c3d a495 bf3d 5d96 543e c8b5 773d
000001d0: e93b 463d ddb7 a2be 42aa a6bd ca16 51be
000001e0: 136f 83be 0609 f53d 5c59 20be 5abc c0be
000001f0: 3e66 8dbe 1f1e 25be 6817 afbe 0184 2ebd
00000200: 58c1 32be 9b45 993d 5706 8f3d 3682 793d
00000210: 280f 6d3e 01a1 70bd 3085 50bd 58fb a43d
00000220: f400 353c 5c83 7b3e 0e70 a63d 5ea6 63bd
00000230: 1816 513e 4f6f d4bc e786 a3bd 1abc 86bd
00000240: 5aca 5a3c 693d 49be a925 cabc c96a 2ebc
00000250: eb84 efbd e753 b3bd 833a 8a3e ccf4 4e3e
00000260: edde a1bd bbe4 223d 7e4b 71bd 5f7f b63c
00000270: 0321 ae3c 25d5 02be 28a3 6abc 36ed 933d
00000280: a701 74be 760e ffbd 62c2 49be 3ae7 3fbe
00000290: d547 c8bd a58b 583d 76f0 3e3e 97a5 bc3d
000002a0: ec40 1bbd bc67 5ebe 5e6a d33c 3642 d0be
000002b0: 6f02 8bbd d717 f1be c5de 953d cbb8 a63d
000002c0: d790 16be e65e 94be 3e4b b6be 61d9 a2be
000002d0: 2f78 113d 4ccd da3d b625 ee3e b4c3 1fba
000002e0: f898 42be 04dd 1e3e bfec 9d3b aaba 8a3d
000002f0: cf5f 3d3e 3820 0a3d a39e 853d 4c35 2bbd
00000300: de49 9abd 4bef 35bc 66ca 3abd 3b6e 1e3e
00000310: 527b b03d 2008 673e 6e15 6fbe 9e90 60be
00000320: b126 b5be 4652 8abc 0ead 37bd 38cf afbe
00000330: c405 993d fa66 5d3d 5980 d3be 4aab 163c
00000340: 8047 83bd 0bdc a23d ecc8 a03d 5169 013e
00000350: 3685 7b3d ca93 5b3e 05f3 303d 6500 55be
00000360: 4534 cf3d 9396 043e 36ef ebbe f8cb 58bc
00000370: bf1e 6e3e 90cb 6ebd ca98 da3d 0fb1 f73d
00000380: 82d7 d3bd 112a b2be 6fcf 5abe 46b6 9dbd
00000390: 7f41 2bbd ab31 62be 2380 84bd b0d9 a3be
000003a0: 29c3 cabe aa28 e0be dcd5 9e3c 49f4 abbe
000003b0: e521 ffbe 1a5d 103e 65a1 033d db6a 67be
000003c0: ddcf 893e 990a 523e caf4 70be ea34 38bd
000003d0: f290 febc b1ff b2be 861f 54bd 8a84 d7bc
000003e0: 4a50 d3bd af84 0d3d b396 df3d 743b 0a3d
000003f0: d675 c6bc 9414 b23d 0944 a13e 7af3 4f3d
-0.031684972 -0.19358158 -0.104971595 0.0266496 -0.048178498 -0.16329387 -0.15398723 0.07936511
-0.029029585 0.13918817 -0.010921644 -0.04555558 0.008367517 0.14440687 0.03709386 -0.049670666
-0.1462479 0.036375057 -0.18643211 -0.2749483 0.18946163 -0.2061778 -0.024643036 0.07880495
0.05573373 0.1498857 0.12779969 0.110886134 -0.07138598 -0.14313827 0.23222026 0.04755436
0.09258639 0.15822083 -0.06343971 0.11003095 0.015099809 -0.09843761 0.19503629 -0.07276351
-0.12177567 -0.09826688 0.022103626 0.0801786 -0.15819454 -0.07296177 -0.06505825 -0.39808035
0.109007046 -0.02719527 0.047584035 -0.03273353 0.13487647 -0.10776364 -0.28281882 -0.41666287
-0.6188079 0.12063957 0.12134896 -0.20721175 -0.13607326 0.14053246 -0.10669215 -0.15989676
-0.098179564 -0.03030266 0.07576945 0.025097458 0.1584601 -0.21985212 -0.16070482 0.08282288
0.024445945 -0.19414563 -0.13049868 0.1913871 -0.046184115 -0.129562 0.51033217 0.3236541
0.29503226 -0.09043936 0.09058973 0.14901067 -0.044972084 0.026919782 -0.019096883 0.06703225
0.086556904 -0.2619476 -0.03207201 -0.058441088 -0.1316019 0.19416337 0.110130474 -0.10471487
0.018217143 -0.00035363628 -0.23059268 -0.33206618 -0.15468587 -0.21225922 0.054517526 -0.04313969
-0.14046788 0.27194554 -0.041092485 -0.09302622 0.0090530235 -0.039549235 -0.15777688 0.1586401
0.034194 0.093547136 0.20760484 0.060476094 0.04839698 -0.31780902 -0.08137943 -0.2041885
-0.2567068 0.11964612 -0.15659088 -0.376437 -0.27617067 -0.16124772 -0.34197545 -0.042606357
-0.17456567 0.07483979 0.06983631 0.060915194 0.23150313 -0.058747295 -0.050908267 0.080557525
0.0110475905 0.24561828 0.081268415 -0.055578582 0.20418584 -0.025931982 -0.07984715 -0.06578846
0.013353908 -0.19652332 -0.02467616 -0.010645577 -0.11695274 -0.087562375 0.26997766 0.2021057
-0.07903848 0.039768916 -0.058909886 0.022277532 0.021255976 -0.1277662 -0.014321126 0.07222979
-0.23828755 -0.1245393 -0.19703057 -0.1874055 -0.09779326 0.05286755 0.18646416 0.09211271
-0.03790371 -0.21719259 0.025807556 -0.40675515 -0.067875735 -0.470885 0.073178805 0.08140715
-0.1470369 -0.28978652 -0.3560428 -0.31806472 0.035515007 0.106836885 0.46513146 -0.00060945307
-0.19003665 0.15513998 0.004819482 0.067738846 0.1849358 0.033722132 0.06524398 -0.041798875
-0.0753362 -0.011104415 -0.04560318 0.15471737 0.086172715 0.22561693 -0.23348019 -0.21930167
-0.35381082 -0.016884934 -0.044842772 -0.34337783 0.07471803 0.054053284 -0.4130886 0.009196112
-0.06410122 0.07952126 0.07850823 0.12637831 0.061406337 0.21443096 0.04320051 -0.20800932
0.101173915 0.12948065 -0.4608094 -0.013232224 0.23253916 -0.0582996 0.106736735 0.12094318
-0.10343839 -0.3479772 -0.21368192 -0.077007815 -0.04181051 -0.2208926 -0.06469753 -0.3200202
-0.3960202 -0.43781024 0.019389085 -0.33584812 -0.49830547 0.14098015 0.03213634 -0.22599356
0.269164 0.20511855 -0.2353088 -0.044972338 -0.031074975 -0.34960702 -0.051787876 -0.026308317
-0.10318048 0.034550365 0.109174155 0.033748105 -0.02422611 0.08695331 0.3149722 0.050769307

b1 f4 [32]
00000000: 87eb 833e ddf4 993c c414 17bc e84c abbd
00000010: 5f52 d73c e68c 2039 9ddf fa3d 7c13 f5bc
00000020: 3166 95bc 76c4 22bd 5060 173c bcd7 873d
00000030: 8fed 003d 9b8a 06bb 81a6 803b 2202 46bc
00000040: 0a44 0c3c f189 16bd cb5c c13c 491e 5fbc
00000050: 69b1 503c fa22 133d e12e 2d3c 3cb8 883c
00000060: ac0f 493d 5255 44bc 9ec3 a13d 6370 1c3d
00000070: 0555 373c bca3 fdba 2061 bdbb 8a21 183d
0.2576563 0.018793518 -0.0092212595 -0.08364278 0.026284395 0.00015311278 0.12249682 -0.029916517
-0.018237205 -0.03973814 0.009239271 0.06632945 0.031476554 -0.0020529393 0.003926099 -0.012085469
0.008561144 -0.036752645 0.023603817 -0.01361806 0.01273761 0.035922028 0.010570259 0.016689412
0.04908721 -0.011983233 0.07898639 0.038193118 0.011189704 -0.0019351165 -0.0057794005 0.03714136

conv2 f4 [32, 32, 3, 3]
00000000: 390a a53d 2cc3 6a3d d708 bcbc 4ea1 073e
00000010: 6ebb 23bb 4bd4 fe3d 0ce3 753d 6854 3e3d
00000020: 5351 b7bc 3d9f 0b3d cfd8 1b3d 0a22 983c
00000030: 2b7d 9e3d 0e8b 5c3d a48c 47bd 04a3 12bc
00000040: 0889 f23c d5a8 9a3d 9512 ee3c 056c 863c
00000050: 7cfd e93b 35a5 053d b732 663d 95dd 0dbb
00000060: 8a7b 793d e451 8fba 1ef5 dcbc 7b15 97bb
00000070: f516 c63b cbdc ebbc b933 7238 7637 a9bd
00000080: 09a8 9abd f27b 32bd 5ab8 15bd d15f 08bd
00000090: f5f0 513d c085 57bd e071 6cbd 4a6f 3ebd
000000a0: a530 d3bc f3dd 9b3d 7885 ea3d 6007 1f3d
000000b0: a1e3 273d be80 2c3d 2ca3 453d 65f9 3cbc
000000c0: 623f 4fbd eabb 223d 1522 7dbb e7c8 e63d
000000d0: 3d2e a9bb 6b21 bc3c adb8 c03d 3449 3cbd
000000e0: deca 573d 75df 06bd bf70 db3d 051c 23bd
000000f0: 9e1a 5b3c b0bb ba3c f76d 323d 48f8 3f3d
00000100: 6b00 0c3d c3dd 373d 39b2 843c 609a 383d
00000110: 65f6 e8bc 9e33 223d c953 d9bc e588 423d
00000120: 2faa ad3c 2eb3 a43c 2ae6 b53b 32d7 ef3b
00000130: ccee 653c 0f7a 733d 840d c23c 025d e6bc
00000140: 72ea 37bd 08c3 26bd a98d 88bb 4f5b a9bb
00000150: 0fa7 813d 4bd8 183d a5da aabd f156 d23d
00000160: 623a 41bc 5dd9 793d 0cfc d2bc de00 a03d
00000170: 957b bcbd dc02 fbbc bb87 8fbd cd66 b73c
00000180: cf4a 413d 3742 c6bc f6ec 68bd a6ed 733d
00000190: 35bf 04bd a9c1 5c3d f152 7cbd 7579 f13b
000001a0: 8c5c b93d a230 72bd b793 04bc 2c27 3a3d
000001b0: 283c 863d 68c3 1d3d 6905 4cbd 2831 2d3c
000001c0: deb1 823d cd24 03bc b4ab dbbd 2621 aabd
000001d0: 0009 313b cd6e a03c 42a1 1fbd 41b1 d2bb
000001e0: 4ba2 6bbd 3a57 9c3d a96a 03ba c1d9 4fbd
000001f0: 0261 8e3d 87f1 62bd aebe f9bc ec9e f93c
00000200: daaa 0dbc fce2 54bd 9e58 c73c f38a ad3a
00000210: f6d3 d73b ca7d 753c 5a9b 0abc eeb5 843c
00000220: 9ef0 013c 0cf2 a03c 163d de3c 90bc 30bd
00000230: fb80 c63c df40 78bc a0bf 413d 3250 51bd
00000240: dc93 f0bb a214 2abd ec6d efbc 742c 6c3c
00000250: fb8f 84bd cc76 823c e241 2abd 2dfe 4f3d
00000260: 9e66 093d a46e 763c 337d 2e3c 67cb 8b3c
00000270: 2d9f ab3d 3ee0 1338 fe5e 433b 3613 9f3b
00000280: 285c 7f3d f121 af3a df27 1fbc 1664 933d
00000290: 2dda 1cbd 1e17 163d 492f 2abd 6a54 4d3d
000002a0: ad65 643d 184e 253d 312c 32bd 117f 3bbc
000002b0: dafa e7bc a32c 09bd 0918 5fbc 6c31 34bb
000002c0: f1f0 2f3d 63ea bf3c 66ea c1bc a5e1 283d
000002d0: d299 023e 6351 a6bc 75f4 babd b0f8 963c
000002e0: 000c 84bd ee6d bbbd bf32 64bd 9e67 2dbd
000002f0: d7f2 d9bd c0e0 413d 65f1 03bd 2b94 863c
00000300: 2032 ea3d 0ea4 f2bc 3602 ca3c 7a24 8b3b
00000310: a8c7 aabb 1a4b 04bd 7bd5 73bb 47f5 ca3c
00000320: d5df aa3c 26ca dd3d f051 17bc eaa6 583d
00000330: 9390 86bc 0afb 433d 0387 da3b 9ae7 d0bc
00000340: 58af 15bd ed24 ad3c 8e48 603d d2ae fcbc
00000350: 06f4 43bd 2c29 64bc de80 d43c a179 103d
00000360: 653b d33c 0153 6dbd ef65 93bd 11a6 9e3c
00000370: c3c1 083d 29b0 063d 4213 be3d 1aaf 0e3c
00000380: 708c afbb 0cf8 97ba cea8 123d d001 4ebd
00000390: a104 7f3b 215a 5f3d f75b ccbc 798b 88bd
000003a0: 8361 833d f835 2ebd f575 c03c 8122 a5bc
000003b0: 5ae5 4fbc bffa c13b 3a30 32b9 643b 8dbb
000003c0: 3d5c 3c3b eec5 fa3b 5b3b fd3c d946 c2bd
000003d0: 864e 91bd 2199 403d 4af8 56be 601a a4bd
000003e0: d29c 0cbe cb50 68be 8686 18bd 634d 96bd
000003f0: c8a1 d73c f409 b93c 24a6 e7ba e5d1 f6bc
0.080585904 0.057315037 -0.022953434 0.13245127 -0.0024983543 0.124428354 0.060030982 0.046467215
-0.022377646 0.03408741 0.03804856 0.018570919 0.07738718 0.05384355 -0.04871811 -0.008949999
0.029606357 0.075517334 0.029061595 0.01640893 0.0071408134 0.032628257 0.05620071 -0.0021646966
0.06090883 -0.001093444 -0.02697235 -0.004610715 0.006045217 -0.028791806 5.7745467e-05 -0.082625315
-0.075515814 -0.043575235 -0.036552764 -0.033294503 0.051255185 -0.05261779 -0.057725787 -0.046492852
-0.025780031 0.07610693 0.114512384 0.038825393 0.04098857 0.042114966 0.048251316 -0.01153407
-0.050597556 0.03972999 -0.003862505 0.11268788 -0.0051629827 0.022965154 0.09410224 -0.04596825
0.052683704 -0.03292795 0.10714864 -0.039821643 0.013373045 0.022794574 0.043561902 0.04686764
0.034180086 0.044889223 0.016198264 0.0450691 -0.028437803 0.039600007 -0.02652921 0.047493834
0.021199314 0.02010497 0.0055511193 0.0073193545 0.014033984 0.059442576 0.023688085 -0.028120521
-0.04490132 -0.04071334 -0.004167278 -0.0051683555 0.06330692 0.037315648 -0.083424844 0.10270489
-0.011793705 0.06099831 -0.025754951 0.078126654 -0.09203259 -0.030641012 -0.070083104 0.022387886
0.047190484 -0.024201496 -0.05686661 0.05955281 -0.03240891 0.053895626 -0.061602537 0.007369215
0.09050855 -0.05912841 -0.008091859 0.045447513 0.06554443 0.038516432 -0.049809847 0.010570802
0.06381582 -0.008004379 -0.10726109 -0.08307104 0.002701342 0.019584084 -0.038972147 -0.0064298217
-0.05752782 0.07633825 -0.0005013147 -0.050744776 0.069520965 -0.05540612 -0.030486431 0.030471288
-0.008646691 -0.05197428 0.024334248 0.0013240263 0.006586547 0.014983604 -0.00845989 0.016200032
0.007930903 0.019646667 0.027128737 -0.043148577 0.024231425 -0.015152185 0.04730189 -0.05110187
-0.007341845 -0.041523583 -0.02922722 0.014414895 -0.064727746 0.015925787 -0.041566737 0.05077951
0.03354513 0.015041027 0.010649967 0.017064763 0.0837997 3.5256373e-05 0.0029811258 0.004854585
0.062343746 0.0013361556 -0.009714096 0.07196824 -0.038294006 0.03664314 -0.041549 0.05012933
0.055761028 0.04035768 -0.043499175 -0.011443869 -0.028317858 -0.033489835 -0.01361657 -0.0027495278
0.04295439 0.023427194 -0.02367134 0.041230816 0.1275399 -0.02030248 -0.09128658 0.01842913
-0.06447601 -0.09151827 -0.055712458 -0.042335145 -0.10642021 0.04733348 -0.032212634 0.016428074
0.11435342 -0.029619243 0.024659257 0.0042462917 -0.005211789 -0.032298185 -0.0037206102 0.02477516
0.020858685 0.108295724 -0.009235844 0.052893557 -0.01642636 0.04784683 0.0066689267 -0.025501061
-0.036544174 0.021135772 0.054756694 -0.03084508 -0.04784014 -0.013925832 0.025940355 0.035272244
0.025785157 -0.057940487 -0.07197177 0.019366296 0.03338791 0.032882843 0.09281017 0.00870874
-0.0053573176 -0.001159431 0.035805516 -0.050294697 0.003891267 0.054529313 -0.024946196 -0.06667227
0.06415083 -0.042531937 0.023493746 -0.020158054 -0.012688959 0.005919784 -0.00016993369 -0.0043100584
0.0028741502 0.0076529896 0.030912092 -0.09486169 -0.07095055 0.047021035 -0.20993152 -0.08012843
-0.13731697 -0.2268707 -0.037237667 -0.07338979 0.02632226 0.022587754 -0.0017673415 -0.030129382

b2 f4 [32]
00000000: 4209 0f3d 4ec5 593d 21c3 b9bc 7334 ccbc
00000010: 2b3f a93d 0bb7 a33d fb32 453e 2d74 9ebd
00000020: b2ef 703d c02f c7be e4d7 883d f88d 213e
00000030: c904 3bbe e469 00bf e354 0e3d db52 533e
00000040: 57c2 c63c 2c8c 0e3d 8eb7 a83c d914 843c
00000050: 750a d13d ec3d 8e3d 2765 90ba aa37 f83d
00000060: f3b2 5bbc f7b9 be3d be7f ba3c eafb be3e
00000070: 5369 8d3d 885b 7a3d bac2 273e 49d7 e6bc
0.03492094 0.05316668 -0.022676053 -0.024927353 0.082640015 0.07993897 0.19257729 -0.077370025
0.05882234 -0.38903618 0.06681803 0.15776813 -0.18263544 -0.50161576 0.034748923 0.20637076
0.02426259 0.034801647 0.020595338 0.016123222 0.10207073 0.069454044 -0.0011016474 0.12119992
-0.013409364 0.09312814 0.02276599 0.3730157 0.069048546 0.061122447 0.16382876 -0.028178828

conv3 f4 [32, 32, 3, 3]
00000000: 3328 39bc bf97 a5bb bd11 4bbd 0d7f 3abd
00000010: b3ec f63d 01b7 febb fde1 d1bc 2aee 623b
00000020: e9b0 24bd 4227 aa3e 21fc 353e 93f4 c03e
00000030: e0ba e13d 3f22 00be dcd1 d53d 5cc3 ca3e
00000040: 72b3 a63d 3210 c93e f1b6 82bc abe3 293d
00000050: 148a a1bc 8b30 d3bc 028e 1d3d 2953 943d
00000060: 149a 91bc 836e 2c3d 0f1a 48bb b4f0 203d
00000070: a95d 893c 4f57 0dbd bf60 ec3c 4e90 9f3d
00000080: 4a97 47bd 2efa 993d c3c2 4cbd ffaa 903c
00000090: 2e07 c7bd c1c8 283c 602d bebd 46d4 233c
000000a0: cc22 c23d d5d6 08bd 8cf3 f0bd 8026 dabc
000000b0: f802 6ebd 7df6 f2bd a780 df39 ea6d 80bd
000000c0: f585 963c af36 903d b43d 3c3d 7e93 85bd
000000d0: d434 c4ba b008 02be 9b8d 243d f0d7 5eb8
000000e0: e693 563d 9813 b1bc 3cde 503b 570f 263d
000000f0: 5cbe 84bb 2e47 603d b50e 73bd d35d c63c
00000100: a429 303c 9e63 153c 0ec4 a63c b890 1fbc
00000110: 82ea 44bc a18f febc 90dc 66bc 1274 4c3d
00000120: a11c c9bb d823 14bc b7bd 9a3c 6a40 733d
00000130: 40bc dfbc c4e3 ccbc d73a 033c cd3b 80bd
00000140: 3cf1 f23c 3a57 29bd ba64 883d 89a7 a7bb
00000150: cb19 463d 9d27 c2bc dcbc 3d3c c61c 3f3d
00000160: c9cb 86bc cf40 ddbb ccd3 75bc fa10 29bc
00000170: fe2b a13c 169b 8abc 958a 6bbe afe6 89bd
00000180: bcac 6e3d 4931 f8bd 46f2 643d 22e9 b5bc
00000190: 6937 7d3d 4b44 febc ddfd b93b ba5d 253d
000001a0: d03d 28bd 3a36 193a c0dc da3c 8419 313d
000001b0: 1d51 29bd eee0 093d e838 04bd 7669 d33c
000001c0: 883e d5bb 4aa0 fb3c 2ad9 3a3d 8033 653c
000001d0: d8d7 b23d bf74 e43c 4d43 5dbc 99d6 f5bc
000001e0: 01f6 93bb 7a47 293d f3b0 fc3b 550f f93c
000001f0: d527 94bd b780 7d3d 9ea2 e33c 14b3 1d3d
00000200: 8470 22bc baa5 91bd 3be2 983d a289 773d
00000210: decf aa3d e98e 87bc 54f2 90bc bafb 8bbc
00000220: 4e0a 9939 0c4b c33b a0e6 023d acf1 953c
00000230: 3237 e8b9 386c 943c 7664 70bc 70e6 8b3c
00000240: 41fa 113d 0cf2 7abd d32b 8dbd b988 33bd
00000250: 6feb 203d 331b 2e3d 8ab0 8bbd 0157 b3bc
00000260: d4e5 283d 8aab 0ebd 8f09 14bd a9b9 ecbc
00000270: d467 723d 2e66 d6bb 192f d3bd f04c 97bc
00000280: df0b d73c c307 023d c78b 823c 1be5 6cbc
00000290: f934 663d d555 b6bc d39d 2a3d 38cd 433c
000002a0: 5192 43bd fe01 5a3c bcca 873c 3c4c dc3b
000002b0: 5b90 423d 0ce9 283d 2ca8 5e3d 93b1 efbb
000002c0: 4cdf 56bd 6e84 213d dfad 183d 72f8 ed3c
000002d0: f855 8abd e133 eabb 97d8 5bbd 7cdf 25bd
000002e0: f057 d43c be30 453d 474e 4abd 94ce 433d
000002f0: b2d4 1bbe 30c1 6d3d 4efa f43c c58a 82bd
00000300: b90d 85bd 7973 e0bc 8975 443d 296c 15bb
00000310: f3e1 00bd 14c5 433c 3df3 183b 457e adbb
00000320: 0963 e6bc 6031 e5bc 47e1 36bc 77ed 803d
00000330: 40f2 b63d 63e4 d1bc cd19 c3bb 90fb ac3d
00000340: d0ac d1bb 345d c63d a470 263d de7d 003b
00000350: 5a4e 073d 159f 90bd 825b c13d 2ca1 70bb
00000360: 402b 153d 593b 113d 964e 10bd 5caa 5e3d
00000370: 9dcf c83c dacf 483d bbda 943d be23 38bd
00000380: cda6 123c 059c d13d 4f23 5b3d 33cf 413d
00000390: 3eaa a9ba a462 06bd 1316 a33c 26cc d23d
000003a0: a66b 623c 75b6 b73d a1a0 e9bc 4e5d e0bc
000003b0: 3722 16bd 6e9d 0e3d a515 0ebd de82 d1bc
000003c0: c092 9abd 5e4d f13c c75e e23c b907 5abd
000003d0: 978e f03c b7cb acbc 963c 99bb 2e02 51bd
000003e0: b90d fcbb 9bb7 553d 06b4 1dbd db9e 773d
000003f0: 9234 7c3d 0443 5ebd 7e0c 873b 090d 323c
-0.011301088 -0.00505349 -0.049577463 -0.04553132 0.120568655 -0.0077732806 -0.025620455 0.003462682
-0.040207777 0.33233076 0.17771961 0.37686595 0.11021972 -0.12513064 0.10440418 0.39602172
0.08139695 0.3927017 -0.015956374 0.041476887 -0.019719161 -0.025779983 0.038465507 0.07242424
-0.017773665 0.04209758 -0.003053311 0.039292052 0.016768293 -0.034507092 0.028854726 0.07791196
-0.048728265 0.07518421 -0.049990427 0.017659662 -0.09718166 0.01030177 -0.09285998 0.00999934
0.09479293 -0.033408005 -0.11765203 -0.026629686 -0.0581083 -0.1186342 0.00042629728 -0.062709644
0.018374423 0.0704168 0.045957282 -0.065222725 -0.0014969357 -0.12698627 0.040174108 -5.3130032e-05
0.05238714 -0.021615788 0.0031870743 0.040541973 -0.004051013 0.054755382 -0.059340198 0.02421466
0.010752115 0.009117989 0.020357158 -0.0097390935 -0.012018802 -0.031074347 -0.014090672 0.04991538
-0.006137446 -0.009041749 0.018889291 0.059387602 -0.027311444 -0.02501095 0.008009634 -0.06261406
0.029656045 -0.04134295 0.06659837 -0.0051164073 0.04836444 -0.02370053 0.011580672 0.0466583
-0.016454594 -0.0067521106 -0.01500411 -0.010318989 0.019674297 -0.016919654 -0.23002084 -0.067334525
0.0582702 -0.121187754 0.055895112 -0.022205893 0.06182042 -0.031038424 0.005676015 0.040372588
-0.041074574 0.0005844567 0.02671659 0.043237224 -0.04133712 0.033661775 -0.032280833 0.025807124
-0.0065076984 0.03071608 0.04561726 0.013989329 0.08732575 0.0278877 -0.013504815 -0.030009555
-0.00451541 0.04132793 0.0077115237 0.030402819 -0.0723416 0.06189033 0.027787503 0.03850086
-0.009914521 -0.07111688 0.07465025 0.06043399 0.08340429 -0.016547637 -0.017693676 -0.017087806
0.00029190112 0.005959874 0.031958222 0.018303715 -0.00044291612 0.018118009 -0.014672389 0.017077655
0.03563905 -0.06126599 -0.068931244 -0.04383156 0.039287027 0.042506408 -0.068207815 -0.021892073
0.041234806 -0.03483156 -0.03614193 -0.028897123 0.05918105 -0.0065429425 -0.103117175 -0.018469304
0.026250778 0.031745683 0.015935792 -0.01445892 0.056202862 -0.022257725 0.04165442 0.011950783
-0.04774696 0.013306139 0.016576163 0.006722955 0.04750095 0.041237876 0.0543596 -0.0073148697
-0.052459046 0.039432935 0.03727519 0.029049132 -0.067546785 -0.0071472977 -0.053673353 -0.040496334
0.025920838 0.048142187 -0.049391057 0.04780443 -0.15217856 0.058045566 0.02990451 -0.063741244
-0.06496758 -0.027398812 0.047963653 -0.0022800064 -0.031465482 0.011948843 0.002333834 -0.0052945935
-0.028123396 -0.027977645 -0.011162109 0.06295293 0.08932924 -0.025621599 -0.0059540034 0.08446419
-0.0063987747 0.09685746 0.040634766 0.0019606273 0.033033706 -0.070615925 0.09441282 -0.003671716
0.0364182 0.03545699 -0.035231195 0.054361686 0.02451306 0.049026348 0.07268282 -0.04495596
0.008950901 0.102348365 0.05350047 0.04731674 -0.0012944413 -0.032808915 0.019907987 0.102928445
0.013819611 0.08970348 -0.028518977 -0.027388241 -0.036653724 0.034818105 -0.03468861 -0.025575098
-0.075475216 0.029455837 0.027633084 -0.05323002 0.029364867 -0.021093233 -0.004676412 -0.05102747
-0.0076920656 0.052177053 -0.03850176 0.06045423 0.061573572 -0.05426313 0.004121362 0.010867366

b3 f4 [32]
00000000: 6200 423e c712 3d3e 6500 333e 39f9 603e
00000010: 277c 633e 3e1a 573e 9a3c d43d 2ccf 3d3e
00000020: b237 493e 06be 653d 46a1 6a3e 0964 343e
00000030: adaf 5a3e 9923 383e f2be f13d 43a8 2e3e
00000040: f6a0 2b3e c746 1e3e 54f7 f93d cc0b 483e
00000050: bef7 2d3e e290 373e 1e4c 243e 0d5d eb3d
00000060: 37ae f83d 9847 253e d21f 743e d002 183e
00000070: 8fdf 3c3e e803 023e 2a7c cf3d 46fa 093e
0.18945459 0.18464194 0.17480619 0.21970071 0.22215329 0.21006104 0.10363121 0.18536061
0.19650152 0.056089424 0.22913083 0.17616285 0.21356077 0.1798233 0.11803998 0.17056374
0.1676062 0.15456687 0.12205377 0.1953575 0.16989037 0.17926362 0.16044661 0.114923574
0.12142604 0.16140592 0.23840263 0.14844823 0.18444656 0.12696803 0.10131104 0.13474378

w4 f4 [5, 32]
00000000: 6266 fbbf 5ef2 0ec0 fa6e d93e 975c 07c0
00000010: 2493 1b3f c8f4 913f c059 9bbe 3c3d fdbf
00000020: d621 2540 c1d3 b4bf c0ee dcbd 64ce dabf
00000030: 9e89 3c40 d2c7 20bf 6522 3740 5a8e fabf
00000040: 607f 343f 3184 733f 2f0e 11c0 701a 3940
00000050: c011 6d3f fd24 05c0 497a 35bf c55e dfbf
00000060: ea7a 1f3f c5ef d2be 0b50 b5bf f195 3840
00000070: 2969 91be c106 debf 705c 9fbd c1a7 82bf
00000080: ead0 a3bf a11b 2840 da45 6c3f 3174 883f
00000090: dea5 b1bf 3f8e c1bf ca96 a3bf f74d 0f40
000000a0: 123b e0bf 6c85 85bf 38a5 10c0 ab7b e9bf
000000b0: 8f3d 78bf 3105 60bf bc3b b0bc f32d fcbf
000000c0: 8caa 3440 9866 d8bf 2ba4 df3e 574b bebf
000000d0: 7c1d f03f dd56 d5bf d181 3940 03e5 703f
000000e0: 163a d3bf 5a39 83bf 48fa 2c40 2f90 bcbf
000000f0: c363 3040 0f63 6cbe a9eb 65bf 1787 9abf
00000100: 2dae 2140 760b 7c3e 574d 23c0 90b6 d1bf
00000110: 86c8 fcbf 9543 1940 6c62 2640 38a4 a23f
00000120: 900d eebf f630 3340 da25 223f b0be 743d
00000130: d735 a8bf 671d f3bf 7e68 dabf c15b 85bf
00000140: badf eabf 7566 b1bf 161c 2140 9731 643e
00000150: a9a8 d83f 1727 eb3d 5690 12bf d25a 37bf
00000160: 22ec cb3f 7877 a4bf 61a8 f6bf f3d6 a4bf
00000170: 820b f7bf b323 9bbf 98fc 3340 b4d7 b2bf
00000180: aa42 d1bf 69c1 653f 8bb5 da3f b7c8 30bf
00000190: 0c64 e7bf 47a2 7cbf 7301 d93c 9bf3 ecbf
000001a0: 58d1 633f bdbc 8ebf f070 3dbf 5733 2340
000001b0: 0f9c f3bf 81b0 d9bf fa67 e5bf 9fd3 0c40
000001c0: 7ea1 7bbf 89f7 1b40 6da1 293f 2a1c ffbf
000001d0: 4afd 01c0 304e 74bf 2646 ecbf f3a1 1d40
000001e0: eb03 c53f 1e3f 2f40 3328 d9bf dd7c bfbe
000001f0: eaf9 09bf c8a4 2640 94bb d1bf 8f34 54bf
00000200: 0161 9f3f 8007 8bbf 8404 1bbe c32e 2740
00000210: 727c 2d40 2236 cfbf fa30 e5bf de8d 203f
00000220: 81b4 ab3e bf44 28bf b3bf 3240 f756 18bf
00000230: dc70 aebe a5a4 3140 f40b d0bf 46a1 7d3e
00000240: 4091 edbf 59cc b6bf 36e0 a3bf a23f 8ebf
00000250: e065 eebf cf9e 2a40 e82d bfbf 25f4 d8bf
00000260: 894c 03c0 7134 3abf 84c3 013f 4d34 cdbf
00000270: b87f dabf 4c73 0cbf 0e60 c7be f7c8 3140
-1.964062 -2.233543 0.4246748 -2.1150262 0.60771394 1.1402826 -0.3034191 -1.9784312
2.5801902 -1.4127122 -0.107877254 -1.7094235 2.9458995 -0.628049 2.8614743 -1.9574692
0.7050686 0.95123583 -2.2664907 2.8922386 0.9260521 -2.0803826 -0.7088972 -1.7450796
0.62296927 -0.41198555 -1.4165052 2.8841517 -0.28400543 -1.7345811 -0.07781303 -1.0207444
-1.279813 2.6266863 0.92294085 1.0660459 -1.3878744 -1.5121535 -1.2780392 2.2391336
-1.7518027 -1.0431342 -2.2600842 -1.8240865 -0.9696893 -0.8750792 -0.021512859 -1.9701523
2.8229094 -1.6906309 0.43679938 -1.4866742 1.8758998 -1.6667134 2.8985484 0.94099444
-1.6502101 -1.0251877 2.702776 -1.4731501 2.756089 -0.23084663 -0.89812714 -1.2072476
2.5262558 0.24613747 -2.5515954 -1.6383839 -1.9748695 2.3947499 2.5997572 1.2706366
-1.8597889 2.7998633 0.63339007 0.059752166 -1.3141431 -1.8993348 -1.7063138 -1.0418626
-1.8349526 -1.3859392 2.5173392 0.22284542 1.6926471 0.11482065 -0.5725149 -0.71622956
1.5931437 -1.2848959 -1.9270135 -1.2878097 -1.9300387 -1.212027 2.812292 -1.3972077
-1.6348469 0.89748245 1.7086653 -0.69056267 -1.8077407 -0.98685116 0.026489949 -1.8511842
0.8899131 -1.1151348 -0.74000454 2.5500085 -1.9032 -1.700699 -1.7922356 2.2004163
-0.9829329 2.4369833 0.6626194 -1.993047 -2.0310845 -0.95431805 -1.8458908 2.4630096
1.5391821 2.7382274 -1.6965393 -0.3739995 -0.53896964 2.6038074 -1.6385369 -0.828927
1.2451478 -1.0861664 -0.15138441 2.612229 2.7107205 -1.6188395 -1.7905571 0.6271647
0.3353615 -0.657299 2.7929504 -0.595077 -0.3407048 2.775674 -1.6253648 0.24768552
-1.8559952 -1.4281112 -1.2802799 -1.1113169 -1.862484 2.665943 -1.4935884 -1.6949507
-2.0515463 -0.7273627 0.5068896 -1.6031586 -1.7070227 -0.5486343 -0.3894047 2.777891

b4 f4 [5]
00000000: 00c3 213e 2ff5 f6bb 45b4 9abd bbe5 8ebc
00000010: 304a e3bd
0.15797043 -0.0075365524 -0.07553915 -0.017443528 -0.110981345

exp_avg f4 [32, 1, 3, 3]
00000000: bd65 543b 106d a13b 1122 063b e018 7e39
00000010: 41cc d939 325d 71b8 2ae7 b939 bd8f 19b9
00000020: 5fa7 dbba c459 3c3a 3ba1 853a 6852 f83a
00000030: 56aa bb39 a585 183b acec 3a3a eea6 c93a
00000040: c6b0 a33b f412 8c3b 9d75 a4ba 475e 8c3a
00000050: c3e6 97ba 5d3d e0ba 5d4e 513a 93b4 fa38
00000060: 25f1 0dbb fba3 8bb9 c6ec ca39 ca40 44ba
00000070: 7e79 2bba 0493 b8b9 7d78 abba 5691 2aba
00000080: 63f1 42ba 58c7 2abb fadd 08ba deb5 4d3a
00000090: f9aa e73a d5e1 d13a ca16 55b9 a15d e83a
000000a0: 6706 0e3a 28bf ae38 00d9 2bb9 a4ec 12bb
000000b0: 5331 ceba c369 283a d115 56ba 519c b3b9
000000c0: 61e4 cdba 2d2b 9dba 8bd4 42ba 72e9 10bb
000000d0: 42d3 f2ba bfd6 aeba 4b4b acba cf89 51ba
000000e0: 4573 80ba 25bc 8ebb 213d f2ba 78d8 2fba
000000f0: 0c62 e0bb 4e1d 48bb 0168 11ba cbb1 06bb
00000100: 5a17 8cba 6652 b53a 9b30 4bba 11a2 c8b9
00000110: 5dad 9a3a da39 28b9 38c2 53b9 6aee 8a3a
00000120: 69c9 7eba 7a76 a5b8 d7dc a9b8 ec7a d7ba
00000130: ddce 5aba 15a2 bcb9 4651 c0ba 1f22 f1b9
00000140: 1f0e 45b6 1af5 873a a609 cab9 e791 aa3a
00000150: 612e d13a 02f9 6a3a 31e4 ba3a da32 6d3a
00000160: 2d79 dd3a be2c 1f3b 1ce1 acb9 087d 673a
00000170: f655 1a3b 364c 4b38 3587 073b 5add 1e3b
00000180: fddb e43a 71e1 0a3b f4e9 023b 9ca4 75bb
00000190: 2556 91b9 e161 3aba 3dea 81bb e22e 8eb8
000001a0: 53f3 91ba ae06 8ebb 9bc3 e6ba 7c11 e4ba
000001b0: 8127 8cba b3e8 0fba 8044 0bba f1ea c6ba
000001c0: 12ca 09ba 8d3c 45ba 5efe 37bb 5fcd f2ba
000001d0: c1e0 b8ba 8569 9339 6e9e 9fba 89dc 43bb
000001e0: 7571 4f3a 3c7d 96ba 411d 00bb 0e6a 79ba
000001f0: d711 1abb 5d1b 3dbb ba10 9cba 7761 95ba
00000200: e001 2ab9 1eb5 35bb d328 3fbb 1d6f 39ba
00000210: 3445 28ba 6dfc 48ba 9bf7 13ba 4bea 7aba
00000220: 1782 15ba c243 94ba b92c b53a adbd eb38
00000230: 4ebb b0b9 ae66 ce3a abd1 123a 648a a2b7
00000240: 7bd6 f0ba 978d efb9 7cef 233a 231f 5abb
00000250: 052f 22b9 45bc e2b9 1b7b 48bb 501a eeb9
00000260: c3f0 caba 1e22 8739 647e 6cba 75f9 453a
00000270: 58b6 373b 0e29 543a 6be5 cd39 7464 a43b
00000280: b3e2 7e3b 6b6d 383b 5edb 9fb8 6d7d f3b8
00000290: 08b9 19ba 4f56 3139 1b59 ed38 171b 2cba
000002a0: 0eeb a3ba 3800 d5ba c03a 99ba d12c 3739
000002b0: fb34 94b8 abb4 66b9 567a 4aba f773 a039
000002c0: 06da 693a 4045 0cba 188d a83a e58c c93a
000002d0: bc8a ad3a 81f5 843a 961e 1139 654a e63a
000002e0: 4211 a13a 8ccf a239 fd61 803a 04fb 4b3a
000002f0: 0ed7 26b9 2b0e b5b9 cbd7 353a 6fd9 1b3b
00000300: 7f37 fab9 6755 0c3b 58a8 253b 833c 443a
00000310: 9c46 513b fc8d 833b 58b9 5abb 5a0e 20bb
00000320: 475c 9fb9 41e8 43bb fa6d 32bb 510a 0dba
00000330: 8216 f7ba c947 89bb 4b6c c9ba f60e 8a39
00000340: 8298 f5ba 4996 a63a a47c 153a 4414 aaba
00000350: 524f b0b8 d11b ad3a 78d1 dd39 d0ea 20ba
00000360: 116a b63a e1bc 1c3b 9c21 763a 6c45 83ba
00000370: 33a7 053a 1d15 65ba 7b21 53ba ff8c 20b8
00000380: a6eb 1f38 f2b8 5dba 5ef4 c9ba 819d 09bb
00000390: 6191 373a 8ca2 24ba e2c5 6aba 8951 323a
000003a0: 1087 12b9 2ac0 74b8 0b17 32bb 6c92 7dbb
000003b0: 2972 beb9 7236 5abb e0d1 50bb 5084 79b9
000003c0: cb28 1dbb 4cc2 0dbb 85fe 1dba 8534 40b9
000003d0: eea8 02b8 7ced f63a 7e4f 2db9 7d3b b3ba
000003e0: c0b1 2f39 6e35 d039 6b6d c5ba 6db5 82b8
000003f0: c122 84b9 f885 1f39 f20d 9b39 173f ba39
0.0032409274 0.0049263313 0.0020467083 0.00024232594 0.00041541646 -5.7545672e-05 0.0003545818 -0.00014644764
-0.0016758254 0.0007185007 0.0010195145 0.0018945457 0.0003579433 0.0023273018 0.0007130604 0.0015384832
0.0049954383 0.0042747203 -0.0012547259 0.0010709249 -0.0011589158 -0.0017108131 0.00079843943 0.000119545635
-0.0021658626 -0.0002663432 0.00038704852 -0.0007486461 -0.0006541236 -0.0003520475 -0.0013082173 -0.0006506642
-0.0007436482 -0.002605876 -0.00052210654 0.000784723 0.0017674855 0.0016012738 -0.00020321753 0.0017728099
0.0005417824 8.332572e-05 -0.0001638867 -0.002241888 -0.0015731252 0.0006424451 -0.0008166703 -0.00034258005
-0.0015708321 -0.0011991017 -0.0007432184 -0.00221118 -0.0018526094 -0.0013339146 -0.0013144998 -0.00079932524
-0.0009799978 -0.0043559247 -0.0018481353 -0.00067079766 -0.0068476256 -0.0030535045 -0.0005546809 -0.002055275
-0.0010688112 0.0013833761 -0.0007751078 -0.00038267722 0.0011800934 -0.0001604328 -0.0002019488 0.0010599617
-0.00097193435 -7.889881e-05 -8.0996826e-05 -0.0016439832 -0.0008346865 -0.00035978915 -0.0014672659 -0.00045992524
-2.9363507e-06 0.0010372729 -0.0003853563 0.0013013453 0.0015959257 0.00089634967 0.001425868 0.000904841
0.0016897075 0.0024288143 -0.00032974116 0.0008830582 0.0023549772 4.846995e-05 0.0020679955 0.0024240823
0.0017460581 0.0021191502 0.0019975873 -0.0037482148 -0.00027720738 -0.0007109922 -0.003964691 -6.77982e-05
-0.0011135138 -0.0043342924 -0.0017605902 -0.001740023 -0.0010692925 -0.0005489692 -0.00053126365 -0.0015176219
-0.0005256246 -0.00075239764 -0.0028075199 -0.001852434 -0.0014105068 0.00028116643 -0.0012177953 -0.0029886088
0.000791333 -0.0011481415 -0.0019548687 -0.00095143996 -0.0023509169 -0.002885542 -0.001190684 -0.0011396845
-0.00016213162 -0.0027726362 -0.002916862 -0.0007073747 -0.00064190035 -0.0007667009 -0.0005644501 -0.00095716555
-0.0005703284 -0.0011311697 0.0013822532 0.00011241003 -0.0003370889 0.0015747154 0.0005600701 -1.9376348e-05
-0.0018374467 -0.00045691125 0.00062536425 -0.003328272 -0.0001546704 -0.0004324635 -0.0030590955 -0.00045414502
-0.001548313 0.00025774626 -0.0009021519 0.00075521256 0.002803227 0.0008093276 0.00039271577 0.0050168578
0.0038892447 0.002814139 -7.622571e-05 -0.00011610505 -0.00058640586 0.00016912188 0.00011317638 -0.0006565316
-0.0012505965 -0.0016250676 -0.0011690482 0.00017468935 -7.067058e-05 -0.00022001813 -0.0007723918 0.0003060398
0.00089207327 -0.0005350895 0.0012859432 0.0015377073 0.0013240199 0.0010143967 0.00013839672 0.0017569779
0.0012288468 0.00031053682 0.0009794828 0.00077812397 -0.00015911108 -0.00034533566 0.00069367577 0.0023780724
-0.00047725064 0.0021413208 0.0025277343 0.00074858236 0.0031932956 0.0040147286 -0.0033374634 -0.0024422617
-0.00030395595 -0.0029893073 -0.0027226196 -0.00053802604 -0.0018851312 -0.0041894657 -0.0015367357 0.00026332558
-0.0018737467 0.0012709583 0.0005702472 -0.001297601 -8.4071085e-05 0.0013207142 0.0004230847 -0.00061385054
0.0013917108 0.0023916292 0.00093891635 -0.0010015196 0.0005098462 -0.0008738803 -0.0008054 -3.8278286e-05
3.812802e-05 -0.000845804 -0.001540791 -0.002099842 0.0007002559 -0.0006280325 -0.00089558784 0.0006802311
-0.0001397396 -5.83531e-05 -0.002717438 -0.003869201 -0.0003632468 -0.0033296612 -0.0031863376 -0.0002379578
-0.0023980613 -0.0021630703 -0.0006027001 -0.00018330112 -3.1151743e-05 0.0018839086 -0.00016528179 -0.0013674345
0.00016755518 0.0003971266 -0.0015062516 -6.232676e-05 -0.00025202896 0.00015213329 0.00029574294 0.0003552369

exp_avg_sq f4 [32, 1, 3, 3]
00000000: 4402 7e38 d9b5 9638 eef4 a638 2358 7a37
00000010: 5c76 e337 ea83 5d38 b1da c637 2e72 f737
00000020: 0acb 1c38 3ffb 8338 dcf6 1f38 e590 e237
00000030: b587 9f38 51cd 7a38 6458 7d38 e400 b038
00000040: d98a 9838 b817 be38 6880 0638 b716 a837
00000050: 90a3 5c38 8462 7c38 fbbe 5038 287c 6938
00000060: fc47 fc37 3255 7c37 5f8b cd37 7243 5638
00000070: 5453 e337 a0ae a237 d070 5a38 7869 2838
00000080: f398 1538 a707 6538 7a24 7138 3d22 7438
00000090: feeb 5938 6549 1738 9ab9 9437 9e9e 6f38
000000a0: 7250 6338 6e0b 2538 198d 9138 0f52 6f38
000000b0: 6009 6938 e996 4537 a2e9 8136 2b1d 6a36
000000c0: 598e 3538 e4dd b537 fa0d 4337 3d65 8138
000000d0: 6e77 8738 1fa9 4738 c97e 1337 2409 c736
000000e0: aeb4 3837 841a 6338 7b0c bd37 5acb a236
000000f0: f308 1e39 3da9 6138 71a9 e636 0fc2 3e38
00000100: 594e 3c38 37b7 7d38 8137 0638 d4df 0438
00000110: 87b6 5a38 cc36 0d37 8675 cc36 0f40 fd37
00000120: 6829 9538 dbb3 9a38 e016 b038 def7 8438
00000130: 997c 3e38 8f67 5538 d3af 5838 a107 c737
00000140: 36a2 3e38 458d 5737 3ec9 1438 eaf2 3a38
00000150: 87d9 ee37 239a 4138 ea61 6938 eba8 2038
00000160: c412 4138 f92b 6838 397f 0238 06b5 8638
00000170: 8fa5 4a38 6767 4038 4c21 ae38 f2fe fe37
00000180: a81b b638 8210 b138 48cc 1038 349b 7b38
00000190: 694f bb37 05ad 1038 413d 9d38 4a76 3738
000001a0: 5117 8338 e0b9 ac38 890c 8738 a1ce 9638
000001b0: a247 4b38 f435 1f37 27c5 0e37 1820 8538
000001c0: 4ae2 9f37 2e9e 8337 8d9a c038 7771 7d38
000001d0: 2cc3 4238 bd5b d037 be0c ac38 c55c 1a39
000001e0: 1f63 6137 99ec 7938 e44e fb38 b4b6 9737
000001f0: 08b8 3038 6102 b938 8f12 4237 6783 1037
00000200: c146 1138 be26 3238 40f2 2438 3a35 8138
00000210: 79ea 0c38 a8bd 4838 ad83 a238 686b 7d38
00000220: 4531 5138 5a0d 2a38 d458 9538 0589 3138
00000230: c521 e137 ff29 9c38 79a1 0d38 30e6 8537
00000240: 4974 5d38 0d4c 3f38 85db 4738 cfaa 3438
00000250: bc3c b137 f4e1 0638 e1c5 0e38 7c58 4d37
00000260: 8088 0e38 d294 ab38 cc02 2438 62de bd37
00000270: 22c4 9b38 d90a ef37 2a7b 0c38 5c01 b138
00000280: 8574 7a38 60b7 b838 2eb3 2237 e2f7 2637
00000290: bd69 3d37 d1a8 4c38 839e 4938 0b65 6238
000002a0: da51 da38 0a62 d738 4160 e438 fb96 8f37
000002b0: 1df8 0738 d5a3 9537 d7fc 9637 4fb4 ac36
000002c0: d9fa 8737 0ed0 5537 5854 e237 7b78 c238
000002d0: 5e93 a638 92cc b638 1f86 9438 7afc cc38
000002e0: aeed 5f38 a7cc 0538 be2c ab38 872c ab38
000002f0: b021 8538 92d2 9138 66c8 6f38 d89e ba37
00000300: f353 9638 302d b538 2567 8838 2069 1e38
00000310: 2166 8f38 9b5d a738 6240 b638 8c4a 8438
00000320: a184 6537 a714 a738 33df 5838 d75e 0637
00000330: 6b1d 8f38 dc76 6c38 e2a6 3937 78cb 9737
00000340: 30f7 3038 bcf7 3e38 c813 3a38 2734 5638
00000350: cb03 5d38 3512 a238 821c 7e38 a936 8738
00000360: 5d8e 7b38 a6e5 6138 9909 8038 e801 7238
00000370: c2d7 af38 a7ef c738 3daa 4e37 0c12 2338
00000380: 2e04 9f38 8111 ec38 b9eb de38 cedc b138
00000390: 2ae9 b238 3b90 8138 18c3 6738 2345 c237
000003a0: 24cf 3537 b1a5 3937 a672 9538 71b2 e537
000003b0: 4e89 ed36 8f81 9338 45cd bf37 c64d 0337
000003c0: bbd3 9638 eecf e037 74d9 d236 2c75 8e38
000003d0: 2244 9638 73f2 a038 3a07 dd37 714f 5138
000003e0: 829d 9338 36b2 8337 df7a 4d38 d952 8338
000003f0: 373d c037 2b63 3b38 2352 4038 4296 4238
6.056043e-05 7.186429e-05 7.9611185e-05 1.4921682e-05 2.7115624e-05 5.281336e-05 2.3705275e-05 2.9497864e-05
3.7382393e-05 6.293365e-05 3.813846e-05 2.7008771e-05 7.606988e-05 5.979586e-05 6.040222e-05 8.3925e-05
7.273787e-05 9.064324e-05 3.2067677e-05 2.0037738e-05 5.2604417e-05 6.017323e-05 4.976893e-05 5.566716e-05
3.0074261e-05 1.5040207e-05 2.4502804e-05 5.108439e-05 2.7099311e-05 1.9393221e-05 5.2080315e-05 4.0152547e-05
3.5666813e-05 5.460498e-05 5.749285e-05 5.820602e-05 5.1956617e-05 3.606956e-05 1.7729402e-05 5.7129764e-05
5.4195938e-05 3.934971e-05 6.94042e-05 5.7058463e-05 5.556026e-05 1.17772515e-05 3.871698e-06 3.4885695e-06
4.3286334e-05 2.1680207e-05 1.162616e-05 6.1700564e-05 6.459547e-05 4.7602804e-05 8.791402e-06 5.9317263e-06
1.1009322e-05 5.4145712e-05 2.2536367e-05 4.8516495e-06 0.00015071388 5.3801796e-05 6.8742597e-06 4.548026e-05
4.489566e-05 6.0490533e-05 3.199978e-05 3.167971e-05 5.2145242e-05 8.417013e-06 6.0933553e-06 3.018978e-05
7.112586e-05 7.376793e-05 8.396595e-05 6.340419e-05 4.541557e-05 5.0879604e-05 5.1662162e-05 2.3726201e-05
4.54506e-05 1.28478905e-05 3.547337e-05 4.4572087e-05 2.8473105e-05 4.6158337e-05 5.564272e-05 3.830429e-05
4.6032263e-05 5.5354063e-05 3.11129e-05 6.423336e-05 4.831474e-05 4.5872668e-05 8.3031686e-05 3.0397878e-05
8.683588e-05 8.4430925e-05 3.4522527e-05 5.9987608e-05 2.2329115e-05 3.4493412e-05 7.497753e-05 4.3740765e-05
6.25091e-05 8.236221e-05 6.4396365e-05 7.191045e-05 4.8465685e-05 9.4897005e-06 8.509763e-06 6.347912e-05
1.9059651e-05 1.5690075e-05 9.184061e-05 6.0425573e-05 4.6434972e-05 2.4838251e-05 8.2039725e-05 0.00014721144
1.34341235e-05 5.9586575e-05 0.00011983307 1.808568e-05 4.2133062e-05 8.8219305e-05 1.1567622e-05 8.613663e-06
3.463659e-05 4.247459e-05 3.932626e-05 6.1611136e-05 3.359697e-05 4.7860347e-05 7.7492885e-05 6.041993e-05
4.987537e-05 4.0543593e-05 7.121419e-05 4.2327698e-05 2.6837815e-05 7.446482e-05 3.3767403e-05 1.5962025e-05
5.2798805e-05 4.5608776e-05 4.764974e-05 4.3074422e-05 2.1128326e-05 3.2158525e-05 3.4039727e-05 1.2239554e-05
3.3982564e-05 8.181635e-05 3.910325e-05 2.263411e-05 7.4275085e-05 2.8496072e-05 3.3493307e-05 8.440271e-05
5.9713162e-05 8.80796e-05 9.697671e-06 9.952086e-06 1.1289897e-05 4.8794613e-05 4.806976e-05 5.3976702e-05
0.00010410296 0.0001027026 0.00010889816 1.7117234e-05 3.241758e-05 1.7838474e-05 1.7999131e-05 5.14699e-06
1.6210064e-05 1.2744231e-05 2.6980575e-05 9.273082e-05 7.942946e-05 8.7165405e-05 7.082172e-05 9.7745055e-05
5.33887e-05 3.190027e-05 8.162249e-05 8.162209e-05 6.348209e-05 6.9533606e-05 5.7168676e-05 2.2246895e-05
7.168194e-05 8.6391694e-05 6.5041975e-05 3.776804e-05 6.837794e-05 7.980616e-05 8.6904285e-05 6.308136e-05
1.3680344e-05 7.967027e-05 5.1706284e-05 8.009104e-06 6.824251e-05 5.637748e-05 1.1065715e-05 1.809535e-05
4.219188e-05 4.553025e-05 4.436428e-05 5.1070147e-05 5.269404e-05 7.728153e-05 6.058487e-05 6.447483e-05
5.997565e-05 5.3858057e-05 6.105303e-05 5.769907e-05 8.384838e-05 9.533698e-05 1.23181935e-05 3.8879036e-05
7.582489e-05 0.00011256617 0.00010629692 8.481146e-05 8.5311316e-05 6.178064e-05 5.5256387e-05 2.3158796e-05
1.0836669e-05 1.1065437e-05 7.1262286e-05 2.738202e-05 7.079135e-06 7.0336384e-05 2.286456e-05 7.8263165e-06
7.191995e-05 2.6799706e-05 6.2838026e-06 6.7929126e-05 7.165248e-05 7.674554e-05 2.6348618e-05 4.990347e-05
7.038844e-05 1.5699403e-05 4.899024e-05 6.261998e-05 2.2916689e-05 4.467663e-05 4.5852863e-05 4.6393143e-05

exp_avg f4 [32]
00000000: 0d00 0eb1 afbc 872f f127 9ab0 0ea0 4aae
00000010: f993 bd31 6a1e 22b0 92bb 7fb1 314b 8faf
00000020: 871e 8f30 68b1 8fb0 98d4 7830 32bc 1e30
00000030: a1c8 46ae 0325 e030 e28d 07b0 886c fcaf
00000040: 4abf 4ab1 b39e 3a30 8c00 0831 68f3 08b0
00000050: d1d8 5830 1059 af2f 69ba 3031 78c4 842d
00000060: 61bd f630 ee47 e82e ba77 fe30 377d ba2f
00000070: 33ec 4530 9252 992f 968b 3fb1 05ca 17b0
-2.0663748e-09 2.4690425e-10 -1.1216327e-09 -4.607164e-11 5.5174465e-09 -5.897848e-10 -3.7214005e-09 -2.6064975e-10
1.0413296e-09 -1.0455041e-09 9.052399e-10 5.7747507e-10 -4.5198182e-11 1.6308664e-09 -4.931434e-10 -4.591565e-10
-2.9503604e-09 6.789193e-10 1.9790916e-09 -4.9822413e-10 7.8888457e-10 3.1895597e-10 2.5717333e-09 1.5093912e-11
1.795268e-09 1.0562916e-10 1.8514961e-09 3.3922173e-10 7.200384e-10 2.7889208e-10 -2.7873504e-09 -5.5220567e-10

exp_avg_sq f4 [32]
00000000: fb8e a124 6e32 3d25 b373 4e24 8e1d 2f24
00000010: 25dc 8a25 6cde 2b24 cf03 3825 e0a6 f023
00000020: 66a1 d124 5649 3124 4cd7 3d24 fe68 4024
00000030: a6a5 4924 cf40 7e24 24f3 0324 42a3 4124
00000040: 89ff 2624 cc65 8f24 ab35 a224 3782 0625
00000050: 05b5 9424 4e10 8324 10e4 3524 6565 2624
00000060: 6bef 9224 b553 9724 19c6 1d24 66f3 3b24
00000070: 2a76 5424 4a1b c925 a17c 2824 1c3d 9724
7.006484e-17 1.6410223e-16 4.476713e-17 3.797211e-17 2.408836e-16 3.7268113e-17 1.5960746e-16 2.6091526e-17
9.091272e-17 3.8442875e-17 4.1165206e-17 4.1722295e-17 4.3725237e-17 5.5132365e-17 2.8612045e-17 4.198849e-17
3.621196e-17 6.2188815e-17 7.034722e-17 1.1666766e-16 6.449143e-17 5.6839815e-17 3.9441295e-17 3.6081397e-17
6.3722997e-17 6.5627616e-17 3.4211743e-17 4.0755328e-17 4.607026e-17 3.4886434e-16 3.6534758e-17 6.5589335e-17
