CS330/XCS330-PS3/src/submission/logs/maml/omniglot.way_5.support_1.query_15.inner_steps_1.inner_lr_0.4.learn_inner_lrs_False.outer_lr_0.001.batch_size_16/state10900.pt (torch, 353186 bytes, 30 tensors)

conv0 f4 [32, 1, 3, 3]
-0.054358177 -0.34455448 0.75105923 -0.36980778 -0.34191337 -0.083593294 -0.0576954 -0.048813358
-0.13248007 0.1732625 0.3742422 -1.1104048 -0.033630185 -0.025915045 0.13557735 -0.11053172
0.054545913 0.12556346 -0.19298947 -0.41070482 0.07807792 0.36764848 0.047624175 0.35784757
-0.20999277 -0.3495185 -0.5183942 0.099864796 -0.4953129 -0.6571318 0.15773904 -0.028210985
-0.48609588 0.38095495 0.18404786 0.28884527 0.50833106 -0.49433059 0.85980546 -0.023566246
0.024976442 -0.009676281 -0.0057704677 -0.002432012 0.05678992 -0.6305889 -0.51086795 -0.28018087
0.40594023 -0.12048582 -0.41411176 -0.06694044 0.33921564 -0.12551488 -0.6195697 -0.5716806
-0.2685373 0.04387269 0.035868235 -0.5662339 0.2534736 0.10004188 -0.6305695 -0.02551349
0.3817393 0.13383879 0.053024065 0.25999397 -0.036005117 -0.8008291 -0.85625994 -0.21932693
-0.0052412027 -0.024096234 0.015117342 -0.021479081 -0.01437206 -0.0220701 0.51299334 -1.0584853
0.41584978 -0.7387634 -0.25761378 0.44045207 -0.43806237 0.19271684 0.23015198 -0.07767519
-0.02224738 -0.0063299676 -0.37344542 -0.05806256 0.008296985 -0.24028991 0.023162583 -0.07920034
0.53672886 0.20232736 -0.8110499 -0.5812687 -0.099895984 -0.18754089 0.25875655 -0.34790674
0.12392127 0.43873927 -0.5050389 0.2886318 -0.09228003 -0.41661844 -0.45825437 -0.26820356
-0.15800624 -0.125243 0.6302177 -0.06748861 -0.08760847 -0.7556561 0.30562982 0.28721228
-0.8867981 0.12974933 0.32310703 -0.23265263 -0.6394282 -0.2647985 -0.6872165 -0.679994
-0.24299456 0.32001132 0.37350205 0.06772249 -0.26632077 -0.044001665 0.20990518 0.13092797
0.20135094 0.47613072 0.05371979 -0.21973786 -0.7134153 0.15490416 -0.18855387 -0.48226362
-0.051676217 -0.08806211 0.36740217 0.20100154 -0.5562801 0.23593901 0.0048866277 -0.7766995
0.068632044 0.5495431 -0.23095281 -0.52410537 0.15618038 -0.65190357 0.05386406 -0.25424495
-0.08978811 0.28394058 -0.75616896 -0.9301469 -0.8921697 -0.13481621 0.14511226 0.045094874
0.16221544 0.4222303 0.14443915 -0.20280692 0.10377352 -0.12628533 -0.043995414 -0.42160323
-0.50392956 -0.32199293 -0.20256048 0.3622283 -0.14430001 0.06394566 0.38506627 0.1663478
-0.21666302 -0.9803519 -0.07989953 0.04111951 0.47833285 0.26410872 -0.32321474 -0.48179153
0.10098808 0.51443213 -0.34814423 -0.6305757 0.1505115 0.2208859 0.12591556 0.20180261
-0.7427073 0.1793627 0.32832626 -0.86215645 -0.032379042 -0.05923598 -0.8249637 -0.9385793
-0.05872611 -0.042916078 -0.22820085 0.3626722 -0.037480317 0.08333086 0.48263812 -0.17245628
-0.005173726 -0.085665606 -0.4611807 -0.07531243 0.0030210852 0.4828313 -0.7167584 -0.4769393
0.44641018 0.22748753 0.28859252 -0.024758935 0.23304527 0.37735558 -0.285458 -0.91698575
-1.0986843 -0.80732125 0.25306118 -0.1451964 -0.7048696 0.2709761 0.011539636 -0.69120115
0.24443337 -0.3382066 -0.6017549 -0.02021712 0.13426195 0.12390809 -0.81054026 0.3889976
0.21654114 -0.88264763 -0.006545749 0.06442548 -0.6294471 0.06964576 0.49016467 -0.05414941
00000000: aea6 5ebd 7269 b0be 6b45 403f 7257 bdbe
00000010: 450f afbe f632 abbd 0352 6cbd 84f0 47bd
00000020: dba8 07be ba6b 313e ac9c bf3e bf21 8ebf
00000030: cebf 09bd ca4b d4bc cad4 0a3e 745e e2bd
00000040: 896b 5f3d b593 003e 089f 45be e747 d2be
00000050: 51e7 9f3d 6c3c bc3e 9111 433d cc37 b73e
00000060: 5808 57be 17f4 b2be 7bb5 04bf ea85 cc3d
00000070: a799 fdbe ca39 28bf 5886 213e b91a e7bc
00000080: 8fe1 f8be 870c c33e 0b77 3c3e 87e3 933e
00000090: fc21 023f e618 fdbe 361c 5c3f 000e c1bc
000000a0: 659b cc3c 4489 1ebc 3116 bdbb 6462 1fbb
000000b0: 8c9c 683d 466e 21bf 3ec8 02bf de73 8fbe
000000c0: 66d7 cf3e 45c1 f6bd 7506 d4be 1218 89bd
000000d0: acad ad3e f986 00be 1f9c 1ebf a959 12bf
000000e0: b97d 89be dab3 333d 92ea 123d b4f4 10bf
000000f0: 4bc7 813e c2e2 cc3d 016d 21bf ab01 d1bc
00000100: 5573 c33e 090d 093e c32f 593d ee1d 853e
00000110: 1a7a 13bd 2303 4dbf da33 5bbf 3d97 60be
00000120: 65be abbb 7765 c5bc baae 773c e6f4 afbc
00000130: ca78 6bbc 5bcc b4bc 8853 033f 727c 87bf
00000140: 43ea d43e 991f 3dbf f4e5 83be ef82 e13e
00000150: b649 e0be 9057 453e f6ac 6b3e 2c14 9fbd
00000160: 2340 b6bc 9e6b cfbb 3d34 bfbe 02d3 6dbd
00000170: 14f0 073c 8f0e 76be 75bf bd3c ca33 a2bd
00000180: 1067 093f e72e 4f3e f7a0 4fbf 07ce 14bf
00000190: 4496 ccbd b80a 40be bd7b 843e d520 b2be
000001a0: 6fca fd3d 6fa2 e03e 3b4a 01bf 8cc7 933e
000001b0: 50fd bcbd 034f d5be 51a0 eabe fa51 89be
000001c0: 63cc 21be b33f 00be f255 213f 7837 8abd
000001d0: 126c b3bd ae72 41bf 837b 9c3e 7d0d 933e
000001e0: 3305 63bf 02dd 043e 496e a53e 7e3c 6ebe
000001f0: 91b1 23bf ab93 87be 6ced 2fbf 1614 2ebf
00000200: 91d3 78be 86d8 a33e a93b bf3e 17b2 8a3d
00000210: 325b 88be 173b 34bd 62f1 563e fb11 063e
00000220: f12e 4e3e 68c7 f33e 4809 5c3d f602 61be
00000230: 63a2 36bf 329f 1e3e 4414 41be 42eb f6be
00000240: 71aa 53bd e859 b4bd 231c bc3e 59d3 4d3e
00000250: 5f68 0ebf ff99 713e 0120 a03b c7d5 46bf
00000260: f58e 8c3d dbae 0c3f e57e 6cbe c52b 06bf
00000270: c0ed 1f3e 27e3 26bf 90a0 5c3d 652c 82be
00000280: d4e2 b7bd a960 913e 4a94 41bf 1b1e 6ebf
00000290: 3c65 64bf 430d 0abe 4f98 143e 67b5 383d
000002a0: ce1b 263e 922e d83e dbe7 133e 9eac 4fbe
000002b0: 3687 d43d f150 01be 8934 34bd 61dc d7be
000002c0: 8701 01bf 42dc a4be 046c 4fbe fd75 b93e
000002d0: 62c3 13be f1f5 823d 6827 c53e 1457 2a3e
000002e0: e9dc 5dbe 58f8 7abf 5da2 a3bd ee6c 283d
000002f0: 0be8 f43e 4239 873e 677c a5be 61ad f6be
00000300: d7d2 ce3d d3b1 033f f63f b2be 696d 21bf
00000310: b01f 1a3e ea2f 623e 02f0 003e 58a5 4e3e
00000320: 1122 3ebf dbaa 373e 611a a83e 49b6 5cbf
00000330: e39f 04bd 6da1 72bd d230 53bf bc46 70bf
00000340: ca8a 70bd c5c8 2fbd 7cad 69be 2cb0 b93e
00000350: f684 19bd 5fa9 aa3d 581c f73e 6198 30be
00000360: 5c88 a9bb 7371 afbd e01f ecbe 673d 9abd
00000370: 66fd 453b aa35 f73e 7a7d 37bf 6331 f4be
00000380: e08f e43e 7ef2 683e 66c2 933e 40d3 cabc
00000390: 6ba3 6e3e c034 c13e 8d27 92be 94bf 6abf
000003a0: b0a1 8cbf 9bac 4ebf 3c91 813e 5dae 14be
000003b0: 5672 34bf 61bd 8a3e be10 3d3c 8ff2 30bf
000003c0: be4c 7a3e 6a29 adbe 9c0c 1abf 609e a5bc
000003d0: f77b 093e 86c3 fd3d 917f 4fbf b22a c73e
000003e0: f6bc 5d3e 32f5 61bf b97d d6bb 82f1 833d
000003f0: 7223 21bf 70a2 8e3d ddf6 fa3e c6cb 5dbd

b0 f4 [32]
0.044619575 -0.0016372605 -0.055478573 0.04246022 -0.029388353 -0.085314095 0.029544856 0.049124695
0.03966578 0.03519132 -0.04661873 0.007087387 0.019044768 -0.11086679 0.00882839 -0.0046237097
-0.040743705 0.060881913 -0.054432336 -0.20834313 0.027426954 -0.08572768 -0.04548646 0.039641574
0.0034269756 -0.06006279 0.008813678 -0.012483284 -0.012615882 -0.056365404 -0.047069326 -0.11722753
00000000: 04c3 363d 5999 d6ba 803d 63bd c5ea 2d3d
00000010: d8bf f0bc 28b9 aebd 0e08 f23c fa36 493d
00000020: 9678 223d c624 103d 48f3 3ebd 503d e83b
00000030: c603 9c3c 210e e3bd f4a4 103c 7d82 97bb
00000040: dfe2 26bd 505f 793d 71f4 5ebd e757 55be
00000050: 7eae e03c fe91 afbd 0350 3abd 345f 223d
00000060: 1c97 603b 6604 76bd 3f67 103c b086 4cbc
00000070: d8b2 4ebc 69df 66bd c4cb 40bd fd14 f0bd

conv1 f4 [32, 32, 3, 3]
-0.0061936816 -0.26177782 -0.15011084 0.06471021 -0.05974155 -0.18896815 -0.17452683 0.094678596
-0.05694975 0.15737207 -0.032378066 -0.11394028 0.06121685 0.15650265 0.14355828 -0.035796978
-0.1800036 0.023610262 -0.23738076 -0.28992975 0.29236618 -0.28989163 -0.08832998 0.075146124
0.073947325 0.19068645 0.113347836 0.12830211 -0.08515119 -0.22407576 0.24150577 0.07491605
0.072105475 0.17235455 -0.12588847 0.11414966 -0.0046957056 -0.11833956 0.24113774 -0.0876715
-0.12793066 -0.11787142 -0.01335715 0.08778432 -0.19880149 -0.07670224 -0.034424663 -0.4072407
0.13634533 -0.011455915 0.083279796 -0.04665069 0.18300971 -0.10002633 -0.35743406 -0.41742662
-0.67355615 0.18127966 0.1589881 -0.1587013 -0.14483064 0.19813453 -0.042736754 -0.20874271
-0.107725866 -0.050307665 0.044998426 0.07091801 0.18396042 -0.2962707 -0.14325699 0.1825165
-0.056070596 -0.21902376 -0.2030821 0.22381839 -0.047092095 -0.1904539 0.5959847 0.3095319
0.36356768 -0.0964402 0.0908409 0.20481917 -0.068387024 0.00736499 -0.0030190968 0.108256765
0.09818904 -0.35552314 -0.053982124 -0.03821938 -0.13700691 0.24297379 0.15376402 -0.09111461
0.021038065 -0.050141316 -0.31174245 -0.4339929 -0.14161405 -0.17247657 0.08886563 -0.02287047
-0.17303546 0.32455957 -0.18689376 -0.10695104 -0.05077844 -0.06377316 -0.20284124 0.15477784
0.017727626 0.07698738 0.20903394 0.0039785504 0.05094935 -0.266077 -0.029880472 -0.20469467
-0.26100013 0.1352247 -0.13597435 -0.42432034 -0.31937942 -0.18576327 -0.338109 -0.024408666
-0.19693017 0.115890056 0.105380416 0.06866494 0.2620157 -0.055752367 -0.046027813 0.11648208
0.032455307 0.3017379 0.17145568 -0.069439046 0.25168133 0.05042199 -0.08721044 -0.09142618
-0.021717902 -0.23950462 -0.024701208 -0.037352536 -0.14657696 -0.13487288 0.2762483 0.2161123
-0.025722254 0.058594815 -0.09627107 0.034564123 -0.027171714 -0.091653384 -0.0067558726 0.08642204
-0.24022166 -0.2036999 -0.16031836 -0.14621966 -0.09488844 0.08371263 0.2151638 0.115882516
-0.010316952 -0.24140446 0.028257547 -0.468905 -0.07627611 -0.518527 0.10179266 0.14491601
-0.15634578 -0.4552877 -0.49992266 -0.38948917 0.048493758 0.11371223 0.542981 0.016708285
-0.21721783 0.20976703 -0.011287018 -0.026930504 0.14835964 0.0026228991 0.0636737 -0.0002159433
-0.05808985 -0.023624115 -0.065236956 0.16791077 0.08050358 0.27127555 -0.25143066 -0.20566602
-0.37076893 0.0053774538 -0.053439077 -0.38549328 0.11434741 0.072840326 -0.4663163 0.0036921748
-0.079026036 0.08986637 0.09138878 0.12924293 0.09061045 0.2488524 0.03992971 -0.24546362
0.0888489 0.13144475 -0.6142661 -0.013856081 0.21392262 -0.016288888 0.10218734 0.11798554
-0.09064667 -0.34772822 -0.17985891 0.03305469 -0.019438794 -0.18105815 -0.039593127 -0.30939147
-0.40384716 -0.4421837 0.016765656 -0.34173366 -0.55557775 0.19773379 0.06453294 -0.26739338
0.35731676 0.22220597 -0.26449442 -0.089351796 -0.032054413 -0.4210009 -0.09971785 -0.051543243
-0.17411987 0.11650927 0.099967584 0.04193647 -0.050241843 0.085503 0.3653356 0.04205429
00000000: 5ef4 cabb be07 86be a8b6 19be c986 843d
00000010: 8eb3 74bd de80 41be 29b7 32be dae6 c13d
00000020: 2444 69bd 2526 213e dd9e 04bd 8659 e9bd
00000030: 85be 7a3d 3b42 203e f100 133e da9f 12bd
00000040: dd52 38be 4f6a c13c f113 73be ac71 94be
00000050: 05b1 953e ad6c 94be 59e6 b4bd 36e6 993d
00000060: b271 973d 4f43 433e e922 e83d a161 033e
00000070: bf63 aebd 1e74 65be 4a4d 773e 966d 993d
00000080: 09ac 933d b67d 303e e8e8 00be 4cc7 e93d
00000090: 6fde 99bb 035c f2bd d0ec 763e 1e8d b3bd
000000a0: 4100 03be 9266 f1bd f3d7 5abc 44c8 b33d
000000b0: 9e92 4bbe 1016 9dbd e000 0dbd da81 d0be
000000c0: 1c9e 0b3e 97b1 3bbc 998e aa3d cb14 3fbd
000000d0: e666 3b3e 9bda ccbd 9901 b7be f1b8 d5be
000000e0: 2d6e 2cbf 60a1 393e c7cd 223e 9882 22be
000000f0: 7c4e 14be c7e3 4a3e bc0c 2fbd a6c0 55be
00000100: 619f dcbd 690f 4ebd 4550 383d 763d 913d
00000110: 1f60 3c3e cbb0 97be f6b1 12be 9be5 3a3e
00000120: 48aa 65bd c447 60be c1f4 4fbe a630 653e
00000130: a4e3 40bd 5906 43be 7492 183f f77a 9e3e
00000140: 8b25 ba3e 7182 c5bd cb0a ba3d 1ebc 513e
00000150: 7f0e 8cbd 0456 f13b 0adc 45bb b9b5 dd3d
00000160: 5617 c93d 2107 b6be 5c1c 5dbd ed8b 1cbd
00000170: 8a4b 0cbe 1fce 783e 5174 1d3e 4c9a babd
00000180: 0558 ac3c fb60 4dbd b59c 9fbe 5134 debe
00000190: 4603 11be b39d 30be 2fff b53d da5a bbbc
000001a0: 3530 31be ac2c a63e 1461 3fbe 2609 dbbd
000001b0: 0efd 4fbd 819b 82bd 9db5 4fbe 157e 1e3e
000001c0: 8739 913c 8fab 9d3d fe0c 563e 805e 823b
000001d0: 44b0 503d 3f3b 88be e4c7 f4bc 7b9b 51be
000001e0: cfa1 85be 5878 0a3e dc3c 0bbe 8440 d9be
000001f0: b385 a3be ba38 3ebe 9f1c adbe aff4 c7bc
00000200: 10a8 49be c457 ed3d b0d1 d73d 34a0 8c3d
00000210: ec26 863e 985c 64bd a987 3cbd 288e ee3d
00000220: dbef 043d 647d 9a3e 1492 2f3e 0f36 8ebd
00000230: 60dc 803e 4a87 4e3d 639b b2bd a63d bbbd
00000240: bee9 b1bc b340 75be 305a cabc f9fe 18bd
00000250: 4518 16be 1e1c 0abe 6b70 8d3e 8b4c 5d3e
00000260: 7ab7 d2bc 1e01 703d c429 c5bd 1c93 0d3d
00000270: 3797 debc c5b4 bbbd 5e60 ddbb 0afe b03d
00000280: abfc 75be b596 50be 7f2a 24be 9bba 15be
00000290: df54 c2bd 8771 ab3d e653 5c3e d053 ed3d
000002a0: 6f08 29bc bb32 77be 5f7c e73c 5114 f0be
000002b0: a636 9cbd 2fbe 04bf ac78 d03d dd64 143e
000002c0: 1c19 20be 781b e9be ddf5 ffbe 206b c7be
000002d0: 64a1 463d f5e1 e83d ce00 0b3f d0df 883c
000002e0: 5a6e 5ebe 2bcd 563e 2fed 38bc 5c9d dcbc
000002f0: 97eb 173e f2e4 2b3b 5b67 823d d76e 62b9
00000300: 9fef 6dbd 5c87 c1bc f49a 85bd cdf0 2b3e
00000310: 10df a43d a1e4 8a3e 85bb 80be 1d9a 52be
00000320: 6dd5 bdbe 5a35 b03b efe2 5abd 605f c5be
00000330: fa2e ea3d 4f2d 953d 03c1 eebe 6af8 713b
00000340: 67d8 a1bd dc0b b83d 0a2a bb3d 4258 043e
00000350: f991 b93d 2ad3 7e3e 568d 233d d15a 7bbe
00000360: 69f6 b53d 7499 063e 8b40 1dbf 9e04 63bc
00000370: 880e 5b3e 4670 85bc 9947 d13d 67a2 f13d
00000380: f6a4 b9bd 6f09 b2be ef2c 38be 5b64 073d
00000390: 1b3e 9fbc 4f67 39be 672c 22bd 8f68 9ebe
000003a0: 0ec5 cebe e765 e2be 2158 893c b7f7 aebe
000003b0: 583a 0ebf ba7a 4a3e d929 843d c9e7 88be
000003c0: 39f2 b63e f689 633e d06b 87be 13fe b6bd
000003d0: 7d4b 03bd 6e8d d7be df38 ccbd 021f 53bd
000003e0: 7b4c 32be 6a9c ee3d cebb cc3d 93c5 2b3d
000003f0: 64ca 4dbd 321c af3d 450d bb3e 1f41 2c3d

b1 f4 [32]
0.34352276 0.022489432 -0.004512833 -0.101621374 0.030896043 0.0031678877 0.117326245 -0.013376866
-0.025881046 -0.049479414 0.010173552 0.06394531 0.04331543 -0.0048012477 0.0073599783 -0.018552013
0.005150593 -0.06260825 0.022296991 -0.016415382 0.018557671 0.03441124 0.018632151 0.020494029
0.08092575 -0.009873816 0.08382312 0.04412719 0.013150239 -0.000106359286 -0.01862262 0.046923447
00000000: 37e2 af3e c23b b83c 63e0 93bb de1e d0bd
00000010: b319 fd3c 569c 4f3b be48 f03d a42a 5bbc
00000020: 7d04 d4bc edaa 4abd f8ae 263c c2f5 823d
00000030: 856b 313d c953 9dbb f92b f13b 64fa 97bc
00000040: 4ec6 a83b c138 80bd 2ea8 b63c 8d79 86bc
00000050: 4206 983c cdf2 0c3d 74a2 983c 18e3 a73c
00000060: 66bc a53d c9c5 21bc 75ab ab3d b6be 343d
00000070: 1a74 573c 350d dfb8 778e 98bc cd32 403d

conv2 f4 [32, 32, 3, 3]
0.04592205 0.028921047 -0.069715634 0.10565813 -0.004648564 0.09397536 0.031176176 0.009354512
-0.05355754 0.02440216 0.024062429 0.012907641 0.07609312 0.04820981 -0.050420173 -0.012487117
0.020606678 0.06020453 0.021034248 -0.022201901 -0.037215058 0.05708538 0.061813235 0.0003233313
0.05973662 -0.0053934557 -0.04552256 -0.0038415045 -0.012406121 -0.058216397 -0.0005209856 -0.082273
-0.10182715 -0.054741446 -0.063882776 -0.07266634 0.021705486 -0.03890676 -0.027860526 -0.04556182
0.008976787 0.116645485 0.08910273 0.038426258 0.05510007 0.036133546 0.062391814 -0.022497673
-0.040525608 0.07377446 0.0001258171 0.11236758 0.021167649 0.01453265 0.099649794 -0.049672034
0.024169326 -0.01950696 0.10917092 -0.045039 0.019030955 0.009074897 0.03708787 0.020688232
0.027003495 0.029230965 0.00062497327 0.031772055 -0.04452076 0.023990698 -0.050419766 -0.00037480792
0.013046201 0.039434914 0.009756553 0.008463065 0.02996392 0.05729175 0.037905294 -0.006872598
-0.04827891 -0.064806804 -0.058013264 -0.058992766 0.04218861 -0.0015878446 -0.12097375 0.06918336
-0.048250508 0.014395639 -0.05375051 0.058243945 -0.123181194 -0.041344088 -0.07867441 -0.01609186
0.035703562 -0.049456943 -0.098021865 0.08027662 0.025315206 0.097558856 -0.046457406 0.058365703
0.13192458 -0.056442656 0.02615646 0.06831551 0.07596486 0.045458425 -0.04476532 0.024230912
0.09030005 0.026179468 -0.124869145 -0.088903286 -0.0009314522 0.041766826 -0.058207165 -0.017925205
-0.04165146 0.073211774 -0.00054547325 -0.06895072 0.051160637 -0.0632517 -0.044951882 0.02547928
-0.017877977 -0.032494947 0.042539764 0.016167263 0.017716477 0.0278108 0.0019261184 0.010427018
-0.0037252314 -0.01521382 0.041992094 -0.036559053 0.012945179 -0.008874163 0.044993054 -0.052513666
-0.030671436 -0.051891215 -0.035573505 0.013261371 -0.03646359 0.029496554 -0.032728855 0.07512719
0.054282125 -0.0014872608 0.015927851 0.010154509 0.072093375 0.001571454 -0.004841231 -0.0016729777
0.061216313 0.0045129554 0.011498006 0.11552055 0.011549425 0.07123206 0.013607827 0.09787258
0.07305728 0.07597885 -0.01634539 -0.030623334 -0.06419903 -0.057429623 0.015053312 0.027627865
0.065618925 0.014777124 -0.02485889 0.041067034 0.14372018 -0.031680834 -0.15622252 0.026776366
-0.09143543 -0.15720032 -0.06434682 -0.09150183 -0.18751894 0.074180625 -0.015505738 0.009487168
0.15469399 0.0032547635 0.053273804 0.046996195 0.016151348 -0.04042447 0.0063764825 0.023124114
0.0044521727 0.10690587 -0.02700843 0.023958083 -0.013782381 0.030024694 -0.029683923 -0.023959622
-0.031995952 0.020618519 0.050400127 -0.028872278 -0.049787346 -0.024349669 0.0027622913 0.022274414
0.029275319 -0.06744505 -0.08015985 0.023224104 0.02420391 0.01098419 0.09886733 0.004451038
-0.014035722 -0.013972883 0.024986409 -0.057565957 0.010153297 0.07045499 -0.0037260335 -0.07544342
0.060294997 -0.04439229 0.024491739 0.0126522165 0.03397477 0.007164241 0.016563086 0.019271836
0.0032031513 0.020342631 0.040632866 -0.11242178 -0.06304313 0.14618059 -0.32041433 -0.17947313
-0.122013114 -0.34149536 -0.13549337 -0.06313799 0.052999593 0.07239163 0.018590504 0.017042259
00000000: c218 3c3d d5eb ec3c 12c7 8ebd 4a63 d83d
00000010: fb52 98bb 2776 c03d 2e65 ff3c ab43 193c
00000020: 275f 5bbd 0ae7 c73c 921e c53c 927a 533c
00000030: b6d6 9b3d a677 453d 6285 4ebd c496 4cbc
00000040: 56cf a83c 0699 763d 0450 ac3c c3e0 b5bc
00000050: d16e 18bd 5cd2 693d e02f 7d3d cb84 a939
00000060: 63ae 743d 96bb b0bb dd75 3abd c0c1 7bbb
00000070: 0b43 4bbc 5174 6ebd c092 08ba bf7e a8bd
00000080: c18a d0bd 9138 60bd f9d4 82bd 17d2 94bd
00000090: b4cf b13c b25c 1fbd c23b e4bc 089f 3abd
000000a0: 6013 133c d4e3 ee3d 7e7b b63d da64 1d3d
000000b0: 9cb0 613d c500 143d 8f8e 7f3d 0a4d b8bc
000000c0: 2efe 25bd 1017 973d c5ed 0339 f920 e63d
000000d0: c767 ad3c 5a1a 6e3c 3115 cc3d e774 4bbd
000000e0: c0fe c53c 0fcd 9fbc 0195 df3d d17a 38bd
000000f0: cee6 9b3c e0ae 143c 73e9 173d 5e7a a93c
00000100: 6f36 dd3c c775 ef3c 3fd5 233a 6a23 023d
00000110: 675b 36bd 2488 c43c f584 4ebd de81 c4b9
00000120: bcbf 553c 8186 213d f3d9 1f3c aba8 0a3c
00000130: e576 f53c c1aa 6a3d 9542 1b3d 8833 e1bb
00000140: 1bc0 45bd 6eb9 84bd 519f 6dbd 66a2 71bd
00000150: f7cd 2c3d 391f d0ba 16c1 f7bd 01b0 8d3d
00000160: 53a2 45bd b0db 6b3c 7f29 5cbd 3491 6e3d
00000170: 6c46 fcbd 6b58 29bd 0d20 a1bd 14d3 83bc
00000180: e63d 123d 5d93 4abd b0bf c8bd 1268 a43d
00000190: d661 cf3c f0cc c73d 1f4a 3ebd e010 6f3d
000001a0: 3d17 073e 6a30 67bd 1346 d63c 01e9 8b3d
000001b0: 7793 9b3d 9d32 3a3d d75b 37bd e87f c63c
000001c0: 3cef b83d 5376 d63c 65bb ffbd ed12 b6bd
000001d0: b32c 74ba b113 2b3d a36a 6ebd e1d7 92bc
000001e0: b99a 2abd 0ef0 953d 17fe 0eba 0936 8dbd
000001f0: d18d 513d 1b8a 81bd 771f 38bd ecb9 d03c
00000200: d674 92bc 6c19 05bd 2d3e 2e3d 3571 843c
00000210: 2522 913c 7ad3 e33c cf75 fc3a 15d6 2a3c
00000220: 0323 74bb 6343 79bc e7ff 2b3d f2be 15bd
00000230: 0418 543c f064 11bc a34a 383d 9218 57bd
00000240: aa42 fbbc e28b 54bd 86b5 11bd 3946 593c
00000250: d85a 15bd c2a2 f13c b10e 06bd 49dc 993d
00000260: ef56 5e3d 31f0 c2ba 207b 823c 195f 263c
00000270: b1a5 933d 3ff9 cd3a 30a3 9ebb d147 dbba
00000280: f5bd 7a3d 6ae1 933b 2262 3c3c 0a96 ec3d
00000290: cd39 3d3c 1de2 913d 5df3 5e3c 6b71 c83d
000002a0: 0e9f 953d cd9a 9b3d c4e6 85bc c9dd fabc
000002b0: c87a 83bd 533b 6bbd 2ba2 763c d553 e23c
000002c0: 3763 863d c01b 723c dfa4 cbbc e835 283d
000002d0: 622b 133e c3c3 01bd ccf8 1fbe 1c5a db3c
000002e0: 8042 bbbd 1ff9 20be 44c8 83bd 5065 bbbd
000002f0: f704 40be 03ec 973d c70b 7ebc 1170 1b3c
00000300: 1a68 1e3e df4d 553b a235 5a3d 157f 403d
00000310: d54f 843c 2194 25bd d0f1 d03b c86e bd3c
00000320: 88e3 913b 77f1 da3d c840 ddbc be43 c43c
00000330: 7fcf 61bc 59f6 f53c b32b f3bc f846 c4bc
00000340: 300e 03bd 2be8 a83c 5d70 4e3d 8e85 ecbc
00000350: d1ed 4bbd f578 c7bc 8f07 353b d578 b63c
00000360: cbd2 ef3c a120 8abd d92a a4bd 7a40 be3c
00000370: 4747 c63c 08f7 333c f47a ca3d 03da 913b
00000380: 16f6 65bc 85ee 64bc 4cb0 cc3c 48ca 6bbd
00000390: 045a 263c b54a 903d 7830 74bb 1482 9abd
000003a0: e3f7 763d b1d4 35bd e6a2 c83c 3e4b 4f3c
000003b0: 2129 0b3d 02c2 ea3b 4faf 873c f8df 9d3c
000003c0: f6eb 513b 97a5 a63c a66e 263d 643d e6bd
000003d0: c21c 81bd 5db0 153e 590d a4be cec7 37be
000003e0: 03e2 f9bd 7bd8 aebe c6be 0abe 7e4e 81bd
000003f0: 1a16 593d 1042 943d 1d4b 983c 359c 8b3c

b2 f4 [32]
0.03417101 0.07484349 -0.03566444 -0.058253355 0.108254336 0.11616544 0.1995844 -0.11916337
0.056598097 -0.46759212 0.06001909 0.21031408 -0.28261042 -0.63666743 0.033306923 0.27474397
0.027220495 0.033233732 0.022349514 0.0174714 0.11911239 0.10856908 -0.0025090321 0.11640475
-0.011317704 0.14229006 0.027979804 0.47717866 0.07066238 0.04711361 0.19414708 -0.056155983
00000000: e7f6 0b3d 8b47 993d e014 12bd 129b 6ebd
00000010: 73b4 dd3d 25e8 ed3d da5f 4c3e ed0b f4bd
00000020: 68d3 673d 3c68 efbe 94d6 753d 935c 573e
00000030: 50b2 90be a3fc 22bf d76c 083d 3eab 8c3e
00000040: 84fd de3c 1820 083d 5416 b73c 2e20 8f3c
00000050: 32f1 f33d 7759 de3d 936e 24bb 9d65 ee3d
00000060: e46d 39bc 7cb4 113e e735 e53c c350 f43e
00000070: 70b7 903d 33fa 403d 7ece 463e d103 66bd

conv3 f4 [32, 32, 3, 3]
0.008165632 -0.0014598741 -0.041684996 -0.026998688 0.11777083 -0.003228743 0.007098874 0.029181581
-0.015882757 0.3378877 0.13672535 0.37232602 0.065614074 -0.21601896 0.045037117 0.40706256
0.04967236 0.37565768 0.00056128844 0.034862433 -0.03124732 -0.012511185 0.028476926 0.05189584
-0.012145337 0.03609291 -0.014298951 0.03837637 0.018605832 -0.023260856 0.02590709 0.07704892
-0.0358795 0.08144485 -0.032169312 0.031464137 -0.08129467 0.023531005 -0.06660191 0.030375114
0.1075063 -0.009960264 -0.08276623 -0.0019294999 -0.036810953 -0.12624286 -0.0053922087 -0.06854551
0.0006566873 0.052387103 0.029547086 -0.07575705 -0.009328352 -0.13001287 0.0368041 -0.004105189
0.051284254 -0.022553755 0.001640521 0.04628202 -0.0072502587 0.053081308 -0.044834133 0.019651407
0.013196881 0.012799079 0.020173818 -0.0025911373 -0.0061963457 -0.022570008 -0.0036586823 0.04879193
0.032623168 0.02291712 0.044754907 0.09159894 0.006893958 0.001890255 0.022912933 -0.04340494
0.031389948 -0.04423968 0.063096665 -0.00036235596 0.03969561 -0.01944104 0.021756118 0.036584765
-0.012476817 0.0050806864 -0.020941854 -0.016944146 -0.009005232 -0.020787062 -0.21217722 -0.078829944
0.047719028 -0.1068891 0.03876651 -0.016707033 0.05760457 -0.023294315 0.00028162196 0.029264977
-0.035202026 -0.0012469798 0.014509955 0.03929949 -0.043397233 0.030173445 -0.02991147 0.018948046
-0.009246191 0.022144873 0.033318177 0.0009272331 0.059967328 0.023410652 -0.007315634 -0.011359593
-0.017186148 0.035081156 0.010450154 0.01770119 -0.07406243 0.05359974 0.053926725 0.07652275
0.016871318 -0.050608966 0.088465 0.053729564 0.08223885 -0.0035265076 -0.033949085 -0.019638352
0.002358964 0.009812813 0.02553535 0.019292833 0.0016384835 0.015720358 -0.010912668 0.017990192
0.07754165 -0.042186216 -0.054780535 -0.01192144 0.03860481 0.04316084 -0.052535422 -0.027693503
0.025384538 -0.019044919 -0.007507706 -0.015507238 0.09861834 0.029165102 -0.06354393 0.0056576408
0.02400322 0.009736502 0.055433907 -0.014800816 0.053472552 0.009079176 0.041810393 0.008253721
-0.044050366 -0.0015404784 -0.016337663 0.011439003 0.018965222 0.006174214 0.06534164 -0.015724389
-0.06379142 0.061818823 0.038669243 0.010935195 -0.062047694 0.004312338 -0.057089917 -0.027877165
0.043591663 0.05025601 -0.04681259 0.05646032 -0.14868547 0.045816645 0.02845772 -0.048678227
-0.053517014 -0.014195575 0.06481123 -0.0032699096 -0.026847752 0.020977579 -0.00043661325 -0.0090083955
-0.033398923 -0.028966188 -0.009662378 0.05517471 0.072876155 -0.029376868 -0.0066088606 0.07064663
-0.0019054022 0.0849578 0.009536635 -0.017482325 0.018589245 -0.09951488 0.0593837 -0.021828013
0.009682351 0.023364766 -0.034978166 0.008487686 -0.01022056 0.024567736 0.038580988 -0.07689066
-0.020702979 0.055184104 0.011732379 0.0017359548 -0.04612644 -0.06775125 -0.027931351 0.050185405
-0.024432711 0.03423403 -0.019514048 -0.008965916 -0.007942063 0.021560011 -0.025943028 0.0017318021
-0.06891124 0.030152777 0.04461717 -0.038367484 0.04403047 -0.0018604982 0.009730572 -0.035801217
0.006503581 0.050003104 -0.03595206 0.0629158 0.05890524 -0.040482398 0.02967335 0.012911756
00000000: 25c9 053c 3f59 bfba e3bd 2abd 5a2c ddbc
00000010: d531 f13d 5299 53bb ac9d e83b 360e ef3c
00000020: 8e1c 82bc 9eff ac3e bb01 0c3e 84a1 be3e
00000030: ac60 863d 1334 5dbe d778 383d 816a d03e
00000040: 3f75 4b3d 3456 c03e 6e23 133a e9cb 0e3d
00000050: 61fa ffbc b7fb 4cbc 7148 e93c bb90 543d
00000060: 3cfd 46bc 29d6 133d 2646 6abc 8a30 1d3d
00000070: 426b 983c 8d8d bebc 1b3b d43c d3cb 9d3d
00000080: 62f6 12bd 8fcc a63d f8c3 03bd 8ae0 003d
00000090: d27d a6bd 18c4 c03c 9566 88bd 3bd5 f83c
000000a0: 432c dc3d 6030 23bc 5781 a9bd 46e7 fcba
000000b0: 15c7 16bd cf45 01be 20b1 b0bb 9761 8cbd
000000c0: 8a25 2c3a dc93 563d bb0c f23c 8326 9bbd
000000d0: f2d5 18bc 1822 05be e5bf 163d d284 86bb
000000e0: 700f 523d a7c2 b8bc c006 d73a 3792 3d3d
000000f0: 9493 edbb c96b 593d ffa3 37bd fdfb a03c
00000100: bb37 583c 3ab3 513c 9043 a53c 12d0 29bb
00000110: b70a cbbb bde4 b8bc 81c6 6fbb 0cda 473d
00000120: df9f 053d afbc bb3c ec50 373d 3a98 bb3d
00000130: b6e6 e13b 6fc2 f73a e7b3 bb3c 61c9 31bd
00000140: bf92 003d ab34 35bd d338 813d 98fa bdb9
00000150: dd97 223d d142 9fbc e339 b23c e8d9 153d
00000160: 906b 4cbc e37b a63b 408e abbc 73ce 8abc
00000170: ae8a 13bc a149 aabc fc44 59be 9871 a1bd
00000180: 0775 433d ace8 dabd a2c9 1e3d 30dd 88bc
00000190: c5f2 6b3d b8d3 bebc a9a6 9339 1bbd ef3c
000001a0: 0030 10bd b371 a3ba 2abb 6d3c 81f8 203d
000001b0: 4cc1 31bd 4d2e f73c e608 f5bc ef38 9b3c
000001c0: 567d 17bc 2a69 b53c a478 083d 8f11 733a
000001d0: 4da0 753d b2c7 bf3c fcb7 efbb 961d 3abc
000001e0: f7c9 8cbc 42b1 0f3d 1f37 2b3c 1602 913c
000001f0: 0bae 97bd 678b 5b3d 45e2 5c3d f6b7 9c3d
00000200: b835 8a3c 594b 4fbd 232d b53d 8813 5c3d
00000210: d86c a83d fb1c 67bb 320e 0bbd 9ce0 a0bc
00000220: d998 1a3b ecc5 203c 832f d13c 010c 9e3c
00000230: 62c2 d63a fbc7 803c 0ccb 32bc 2b60 933c
00000240: 28ce 9e3d 74cb 2cbd 8e61 60bd 2552 43bc
00000250: 1420 1e3d 6cc9 303d 622f 57bd 7cdd e2bc
00000260: 3cf3 cf3c 1704 9cbc 3403 f6bb 1212 7ebc
00000270: 6af8 c93d a7eb ee3c 5223 82bd bb63 b93b
00000280: 67a2 c43c d985 1f3c aa0e 633d 1f7f 72bc
00000290: 0906 5b3d d3c0 143c 6041 2b3d 9d3a 073c
000002a0: 286e 34bd e1e9 c9ba 90d6 85bc a86a 3b3c
000002b0: f45c 9b3c 1051 ca3b d6d1 853d 6fd0 80bc
000002c0: 13a5 82bd bc35 7d3d a463 1e3d 8829 333c
000002d0: b925 7ebd 834e 8d3b 1ed7 69bd a75e e4bc
000002e0: 2c8d 323d 3fd9 4d3d 8fbe 3fbd f042 673d
000002f0: 0141 18be 3caa 3b3d 2a20 e93c d262 47bd
00000300: a834 5bbd 8f94 68bc c0bb 843d fb4b 56bb
00000310: d1ef dbbc 2cd9 ab3c 3de9 e4b9 f397 13bc
00000320: 4fcd 08bd 804a edbc f34e 1ebc e0fe 613d
00000330: 1840 953d c2a7 f0bc 248f d8bb 2eaf 903d
00000340: b0be f9ba 5bfe ad3d 8c3f 1c3c 1837 8fbc
00000350: 7948 983c 75ce cbbd 533c 733d a9d0 b2bc
00000360: b9a2 1e3c 7767 bf3c 4445 0fbd ef0f 0b3c
00000370: 2374 27bc 4742 c93c 1907 1e3d da78 9dbd
00000380: 4b99 a9bc ba08 623d 2a39 403c fa88 e33a
00000390: 14ef 3cbd 2bc1 8abd 4ad0 e4bc 368f 4d3d
000003a0: 1c27 c8bc fb38 0c3d eddb 9fbc c7e5 12bc
000003b0: 6d1f 02bc 9f9e b03c 7986 d4bc a3fd e23a
000003c0: 5621 8dbd f502 f73c 7ec0 363d 3927 1dbd
000003d0: 4b59 343d f6db f3ba fa6c 1f3c 4ca4 12bd
000003e0: fe1b d53b 0ed0 4c3d 7842 13bd 00da 803d
000003f0: 9f46 713d dfd0 25bd 8615 f33c d48b 533c

b3 f4 [32]
0.25479162 0.2072094 0.17411497 0.3060741 0.28342012 0.2757481 0.18559442 0.19511381
0.22538827 0.014031675 0.27008313 0.18760549 0.3432239 0.18971077 0.104426324 0.24706717
0.22677734 0.17908764 0.15329967 0.20831487 0.16898829 0.27476886 0.24879143 0.17456235
0.12920186 0.31262314 0.25865737 0.2530694 0.17680196 0.12695621 0.08267547 0.16103363
00000000: 0c74 823e b32e 543e 324b 323e bfb5 9c3e
00000010: 711c 913e db2e 8d3e 770c 3e3e eacb 473e
00000020: 2fcc 663e 1ce5 653c 5648 8a3e a71b 403e
00000030: 0bbb af3e 8a43 423e 78dd d53d 2dff 7c3e
00000040: 5238 683e c062 373e 97fa 1c3e 7e50 553e
00000050: 440b 2d3e 81ae 8c3e 2ec3 7e3e 79c0 323e
00000060: 7e4d 043e 2410 a03e bd6e 843e 5092 813e
00000070: 930b 353e cf00 023e c251 a93d 00e6 243e

w4 f4 [5, 32]
-2.1618886 -2.4220328 0.5315785 -2.3142931 0.46477064 1.0292152 -0.5699761 -2.143315
3.109684 -1.5432355 -0.21111043 -1.773819 3.6353712 -0.76944244 3.4157255 -2.1153722
0.5530021 0.8610432 -2.4927535 3.4411802 1.0125664 -2.2450016 -0.93041396 -1.8780504
0.6829392 -0.5623206 -1.4992242 3.5875788 -0.45897362 -1.8149697 -0.2324152 -1.2196003
-1.3926009 3.0616732 0.94517916 0.9487142 -1.5228935 -1.6482793 -1.3710829 2.5671697
-1.9256276 -1.178047 -2.4579022 -1.9793195 -1.1462898 -0.98787004 -0.2015892 -2.1182845
3.3491325 -1.8251936 0.35639024 -1.6777267 2.006348 -1.8075578 3.4715993 0.8395356
-1.7572076 -1.1629118 3.1247373 -1.6421212 3.2265313 -0.35217568 -1.0077327 -1.3500967
3.0212598 0.10356493 -2.892179 -1.7658888 -2.1337717 2.8727088 3.1665244 1.1650351
-2.0057373 3.2742293 0.5569766 -0.09075727 -1.4925435 -1.9994173 -1.8846745 -1.1643585
-2.0444205 -1.5115801 2.9286165 0.043534014 1.756104 -0.04586097 -0.81053615 -0.8326605
1.6327434 -1.4207962 -2.1142778 -1.4632478 -2.0857854 -1.3336462 3.2501378 -1.4893582
-1.7924638 0.81173164 1.8413107 -0.8141457 -1.971153 -1.1572535 -0.17762849 -1.9626653
0.71168727 -1.2437323 -0.84391004 2.9760578 -2.1127799 -1.8667994 -1.96218 2.6919305
-1.1175036 2.8778815 0.5622336 -2.1636376 -2.225399 -1.0756328 -1.9643908 2.9457548
1.7373531 3.2834659 -1.8292586 -0.6423631 -0.67653614 3.0310974 -1.7714682 -0.9220548
1.1445508 -1.21143 -0.10099149 3.1318707 3.2596955 -1.7479068 -1.8969253 0.6025141
0.21880104 -0.8497504 3.2081203 -0.71570015 -0.5562993 3.2060049 -1.7713848 0.14297752
-1.9861084 -1.5806786 -1.3748462 -1.2299738 -1.9982849 3.1782744 -1.6116441 -1.873094
-2.2669506 -0.90999335 0.36990538 -1.8043404 -1.8495834 -0.72173464 -0.5273928 3.2198427
00000000: 625c 0ac0 9602 1bc0 8715 083f 611d 14c0
00000010: 6bf6 ed3e 53bd 833f f4e9 11bf 132c 09c0
00000020: 1005 4740 be88 c5bf 552d 58be 800c e3bf
00000030: eca9 6840 2efa 44bf 3f9b 5a40 4262 07c0
00000040: 8c91 0d3f 546d 5c3f 4689 1fc0 4c3c 5c40
00000050: c79b 813f 1bae 0fc0 9c2f 6ebf f563 f0bf
00000060: 1ad5 2e3f 3ef4 0fbf 94e6 bfbf e49a 6540
00000070: 97fe eabe ed50 e8bf 40fe 6dbe dd1b 9cbf
00000080: bf40 b2bf 74f2 4340 43f7 713f efde 723f
00000090: 2dee c2bf d1fa d2bf a57f afbf 824c 2440
000000a0: f77a f6bf 3eca 96bf 454e 1dc0 575a fdbf
000000b0: a0b9 92bf 0de5 7cbf 666d 4ebe f991 07c0
000000c0: 3058 5640 f29f e9bf c878 b63e c0bf d6bf
000000d0: 0168 0040 0e5e e7bf af2e 5e40 ceeb 563f
000000e0: 2eec e0bf 4bda 94bf b2fb 4740 0731 d2bf
000000f0: 7d7f 4e40 5f50 b4be 63fd 80bf f8cf acbf
00000100: 525c 4140 da19 d43d 7619 39c0 a508 e2bf
00000110: b78f 08c0 76da 3740 56a8 4a40 df1f 953f
00000120: 005e 00c0 f98c 5140 0596 0e3f f3de b9bd
00000130: aa0b bfbf e8ec ffbf 043d f1bf b309 95bf
00000140: c9d7 02c0 757b c1bf 746e 3b40 b950 323d
00000150: 04c8 e03f b6d8 3bbd 4c7f 4fbf 3d29 55bf
00000160: bcfd d03f a6dc b5bf 5450 07c0 b44b bbbf
00000170: 827d 05c0 ebb4 aabf 4202 5040 4aa3 bebf
00000180: 746f e5bf a5cd 4f3f 12b0 eb3f da6b 50bf
00000190: be4e fcbf e220 94bf 3ee4 35be 9e38 fbbf
000001a0: 2331 363f 9f32 9fbf 7d0a 58bf bb77 3e40
000001b0: c937 07c0 48f3 eebf b728 fbbf 9748 2c40
000001c0: 5c0a 8fbf 362f 3840 8bee 0f3f 0a79 0ac0
000001d0: f06c 0ec0 56ae 89bf 2871 fbbf 3f87 3c40
000001e0: 9661 de3f 4e24 5240 2525 eabf e871 24bf
000001f0: 7931 2dbf 80fd 4140 78bf e2bf c90b 6cbf
00000200: a480 923f 2310 9bbf a0d4 cebd 9270 4840
00000210: da9e 5040 69bb dfbf 73ce f2bf 5d3e 1a3f
00000220: 610d 603e 3e89 59bf d851 4d40 2038 37bf
00000230: a269 0ebf 2f2f 4d40 bdbc e2bf b368 123e
00000240: cd38 febf ad53 cabf f6fa afbf c86f 9dbf
00000250: cdc7 ffbf d968 4b40 5b4a cebf 8bc1 efbf
00000260: b815 11c0 53f5 68bf 3d64 bd3e a0f4 e6bf
00000270: 26bf ecbf 9ac3 38bf 3703 07bf e711 4e40

b4 f4 [5]
0.115959756 -0.06285551 -0.011319711 -0.022103231 -0.07373054
00000000: 4f7c ed3d 64ba 80bd 4f76 39bc d611 b5bc
00000010: 0a00 97bd

exp_avg f4 [32, 1, 3, 3]
-0.0006846315 6.321769e-05 0.00086741894 0.0007432923 0.00048276197 0.001817728 0.00052370667 0.000108510016
0.0014082603 -0.001140131 -0.0018149462 0.00010698228 -0.00057513895 0.00017110756 0.0022680594 0.0014081001
0.0015798517 0.0031308185 0.0017748993 0.001051653 2.0410336e-05 0.0031277519 7.520288e-05 8.736715e-05
0.0024244941 -3.0845582e-05 0.00013042398 0.0004989902 -0.00058327994 -0.00047170185 8.667915e-05 -0.0009229691
-0.0010462567 -0.0017219702 -0.0015680154 -0.0018673074 -0.0005760062 -0.00036201425 1.692086e-05 0.00034155158
-0.0009190996 0.00033341348 0.0013522793 -0.003122717 -0.0012260966 -0.00068067404 -0.00050132175 -0.000719542
-0.0016952064 -0.0012868731 -0.00095509365 -0.0021435493 -0.0033570856 -0.0023925176 -0.00050397497 9.045955e-05
-0.00045808032 -0.0010555969 -0.0011166501 -0.0006213425 -0.0024067662 -0.0017529905 -0.00017830232 -0.00021849491
-0.0010314676 -0.00028902947 0.0004184131 -0.00070648803 -0.00037229215 -0.00016770048 -0.0003051887 -0.00047925388
-0.0021671795 -0.0011335183 -0.00064766005 0.0005853361 0.0007002032 0.0003361333 0.0004633614 0.0007462942
0.0007808938 -0.00012776908 -0.00087641843 -0.0007058053 -0.0007418648 -0.0009602034 -0.0010163944 -0.000486658
-4.9726812e-05 -0.0006811382 -0.0010761705 -0.00072782824 -0.00048760878 -0.0022827352 -0.0015593283 -0.001246638
-0.0035425082 -0.0015249952 -0.0013298426 -0.0006544781 0.000665882 0.001611605 -0.0012209284 -0.0002249608
0.0011773936 -0.0008963692 0.0001386139 0.00087783445 0.00083044975 -0.0004108641 -0.00044465685 3.9415947e-05
-0.0010536086 -0.0013422926 -0.0014858627 -0.001071998 -0.0007541753 0.00027750185 0.00053053524 0.00078884733
0.00017880157 7.944816e-05 0.0008651235 0.0005453377 0.0001808093 0.00060627394 -2.3794972e-05 -3.738917e-05
0.0023921696 -0.00075276353 5.7015855e-05 0.0022682229 4.0026953e-05 -0.0001861322 0.0011474101 0.0021529219
0.0027262934 0.0015853533 0.0018080445 0.0019366553 0.0013026287 0.0016547517 0.0016087525 0.00077811105
0.00063947315 -0.00010750259 -0.00085848547 0.000453205 -0.0005435314 -0.00026820356 0.00059470854 0.00020372841
-0.0006561035 0.002445406 0.0016333823 0.0013066112 0.0009632507 0.0013502 0.0013720918 0.00064044626
0.00080327777 0.0009853917 -0.0009026526 -0.0010547915 -0.0004998849 -0.0010508923 -0.0013118014 -0.0017076097
-0.0020530238 -0.0033253303 -0.0036807845 0.000102397535 6.953031e-05 -0.0005386348 -5.955844e-05 -8.170231e-05
0.00018238022 -7.812612e-05 -0.0010794812 -0.0007460951 0.0020909775 0.003695365 0.0024483926 0.0038244263
0.003263976 0.0017861683 0.003012042 0.002009401 0.0015226897 -0.0022367102 -0.0034978003 -0.0011795282
-0.0016464571 -0.0028439425 -6.391043e-05 -0.00048317105 -0.0022745212 0.00094345724 0.0022939567 0.0020165136
0.00089680107 0.0018141967 0.0013001447 0.0005408872 0.001038968 0.0013995767 0.00064463605 0.0004270963
0.0010634797 0.0005483085 -0.00027835506 0.0005851025 -0.0013083899 -0.0010245126 -0.00061682786 -0.0023257206
-9.880766e-06 -7.901299e-05 -0.0006292138 0.00088853866 0.00048612893 0.00041119326 0.0005193086 0.00065312773
0.00046716616 0.0038701573 0.0031981284 0.0032223794 0.0019151358 0.002106832 0.0026404262 0.00026701574
0.000777311 0.0017546157 0.0007175488 0.0003306084 0.00021464335 0.0007616535 0.00074385776 0.00026324572
0.0011721546 0.0014400585 0.00022524288 -0.0002477461 0.0001824429 -0.00028029273 -0.00036527545 0.0005946998
-1.3463891e-05 0.00057525083 0.001583382 0.00037822712 0.0005470107 0.00030465907 0.00010906323 0.00024873758
00000000: d878 33ba bd93 8438 8063 633a 80d9 423a
00000010: 371b fd39 d540 ee3a 5c49 093a df8f e338
00000020: 6095 b83a 7370 95ba 7de3 edba ad5b e038
00000030: ecc4 16ba 566b 3339 b9a3 143b 0090 b83a
00000040: 0713 cf3a 6b2e 4d3b bda3 e83a 9ed7 893a
00000050: dd36 ab37 f8fa 4c3b 3db6 9d38 e238 b738
00000060: 43e4 1e3b 3160 01b8 6cc2 0839 aace 023a
00000070: 41e7 18ba c04e f7b9 84c7 b538 68f3 71ba
00000080: 8d22 89ba bbb3 e1ba de85 cdba 70c0 f4ba
00000090: 1fff 16ba bbcc bdb9 45f1 8d37 4712 b339
000000a0: bbef 70ba 00ce ae39 f73e b13a 7fa6 4cbb
000000b0: fab4 a0ba 436f 32ba 226b 03ba a59f 3cba
000000c0: b031 deba 4cac a8ba 405f 7aba ca7a 0cbb
000000d0: 8d02 5cbb c9cb 1cbb 301d 04ba 1ab5 bd38
000000e0: 802a f0b9 f45b 8aba 8f5c 92ba 97e1 22ba
000000f0: d6ba 1dbb 9ac4 e5ba aaf6 3ab9 c81b 65b9
00000100: 4f32 87ba e188 97b9 755e db39 9c33 39ba
00000110: 3530 c3b9 c1d8 2fb9 bc01 a0b9 5e44 fbb9
00000120: 3d07 0ebb 9092 94ba bbc7 29ba 3e71 193a
00000130: d78d 373a 0c3b b039 50ef f239 f5a2 433a
00000140: e5b4 4c3a c0f9 05b9 72bf 65ba cb05 39ba
00000150: b479 42ba 29b6 7bba 8938 85ba 2226 ffb9
00000160: c291 50b8 698e 32ba 4a0e 8dba bacb 3eba
00000170: bea5 ffb9 f199 15bb 6062 ccba 3b66 a3ba
00000180: 6d29 68bb 59e2 c7ba 1d4e aeba 4891 2bba
00000190: 968e 2e3a 7e3c d33a 8f07 a0ba 74e3 6bb9
000001a0: c652 9a3a 52fa 6aba e358 1139 791e 663a
000001b0: 8ab2 593a 3f69 d7b9 d520 e9b9 8d52 2538
000001c0: 3d19 8aba deef afba 47c1 c2ba 4982 8cba
000001d0: d9b3 45ba ab7d 9139 9e13 0b3a a6ca 4e3a
000001e0: ae7c 3b39 689d a638 75c9 623a fef4 0e3a
000001f0: a097 3d39 5bee 1e3a 509b c7b7 51d2 1cb8
00000200: f2c5 1c3b 1b55 45ba 4f24 6f38 77a6 143b
00000210: 9de2 2738 7b2c 43b9 b264 963a 0918 0d3b
00000220: 9dab 323b a1cb cf3a e8fb ec3a 5ed7 fd3a
00000230: f7bc aa3a 41e4 d83a c7dc d23a 26fa 4b3a
00000240: 51a2 273a 0373 e1b8 fc0b 61ba 259c ed39
00000250: c67b 0eba ac9d 8cb9 37e6 1b3a ee9f 5539
00000260: 5cfe 2bba 1b43 203b 3717 d63a 9942 ab3a
00000270: a982 7c3a 32f9 b03a c3d7 b33a 9fe3 273a
00000280: 0f93 523a 4228 813a fe9f 6cba ee40 8aba
00000290: b50a 03ba 18be 89ba c0f0 abba e0d1 dfba
000002a0: 068c 06bb c9ed 59bb 5139 71bb 42be d638
000002b0: cdd0 9138 2b33 0dba 63ce 79b8 9857 abb8
000002c0: 513d 3f39 a4d7 a3b8 617d 8dba 9895 43ba
000002d0: c808 093b f02d 723b 3675 203b 3aa3 7a3b
000002e0: 6ee8 553b dd1d ea3a ae65 453b 28b0 033b
000002f0: fd94 c73a c595 12bb 5a3b 65bb 669a 9aba
00000300: efcd d7ba 7061 3abb a707 86b8 1f52 fdb9
00000310: 2210 15bb 5852 773a 3556 163b 7c27 043b
00000320: 4d17 6b3a 57ca ed3a 9e69 aa3a 53ca 0d3a
00000330: fb2d 883a 0072 b73a cbfc 283a e5eb df39
00000340: 7564 8b3a 5cbc 0f3a 2ff0 91b9 9061 193a
00000350: 487e abba f048 86ba 9eb2 21ba 1e6b 18bb
00000360: 91c5 25b7 c7b3 a5b8 d3f1 24ba d2ec 683a
00000370: 1fdf fe39 6d95 d739 3622 083a a936 2b3a
00000380: fbed f439 77a2 7d3b b197 513b 8e2e 533b
00000390: 4b05 fb3a c712 0a3b 000b 2d3b 3ffe 8b39
000003a0: 75c4 4b3a 22fb e53a e319 3c3a 8255 ad39
000003b0: e311 6139 b3a9 473a 73ff 423a 3e04 8a39
000003c0: fba2 993a 58c0 bc3a 2d2f 6c39 ebe3 81b9
000003d0: 254e 3f39 41f4 92b9 7182 bfb9 a1e5 1b3a
000003e0: f9e2 61b7 6ecc 163a 7c89 cf3a c94c c639
000003f0: 4465 0f3a a6ba 9f39 e0b8 e438 fe68 8239

exp_avg_sq f4 [32, 1, 3, 3]
4.8566948e-05 5.715771e-05 6.755665e-05 1.1872853e-05 2.1254958e-05 4.056106e-05 1.7773977e-05 2.4323115e-05
3.1562573e-05 4.6623016e-05 2.9061075e-05 1.238017e-05 5.3630494e-05 4.6138768e-05 3.7353428e-05 5.4352375e-05
5.4946424e-05 5.790144e-05 4.0873732e-05 1.3251912e-05 3.4221866e-05 6.141521e-05 3.282216e-05 3.517869e-05
4.1727402e-05 9.020434e-06 1.2637342e-05 4.2015377e-05 2.2284637e-05 1.4062127e-05 4.077618e-05 2.9750496e-05
2.4945526e-05 4.815061e-05 4.503962e-05 4.4204327e-05 3.484656e-05 3.148668e-05 1.932436e-05 4.1840216e-05
4.582117e-05 3.104991e-05 5.2052346e-05 4.803501e-05 4.460629e-05 6.593288e-06 1.9923634e-06 1.7825923e-06
2.7168513e-05 1.4186599e-05 7.3642723e-06 5.0407234e-05 4.525917e-05 3.349661e-05 3.433183e-06 3.5124351e-06
3.349852e-06 3.165227e-05 1.3122649e-05 2.6675218e-06 9.0532536e-05 3.122736e-05 2.542833e-06 3.4371176e-05
3.505861e-05 4.0986128e-05 2.3527364e-05 2.330296e-05 3.1346794e-05 6.4466553e-06 4.1894805e-06 1.418379e-05
6.969825e-05 5.7480534e-05 6.9329166e-05 5.4499164e-05 4.038039e-05 4.5443303e-05 4.265949e-05 1.8526083e-05
3.9092654e-05 8.289019e-06 2.4042527e-05 3.3432094e-05 1.7369182e-05 3.153376e-05 4.0665993e-05 1.9047911e-05
3.1728305e-05 4.1295083e-05 2.1656606e-05 4.4223365e-05 3.1779455e-05 3.468801e-05 5.5329267e-05 1.944334e-05
5.646087e-05 5.4040116e-05 1.3920491e-05 3.4176628e-05 1.449954e-05 2.2980897e-05 4.7209047e-05 2.7944812e-05
4.2165833e-05 5.9671966e-05 4.02196e-05 5.0109535e-05 3.59245e-05 6.737646e-06 6.24177e-06 4.371559e-05
1.2576295e-05 1.0684224e-05 6.7418e-05 4.8347025e-05 4.078778e-05 1.4899604e-05 4.9081118e-05 9.34586e-05
6.9158073e-06 3.094848e-05 7.94487e-05 8.787275e-06 2.0527328e-05 5.722502e-05 9.854878e-06 6.5188474e-06
2.552233e-05 3.1942207e-05 3.1167438e-05 4.580348e-05 2.322264e-05 3.5514127e-05 5.6240475e-05 3.72472e-05
2.9753359e-05 2.3331419e-05 4.167025e-05 2.091182e-05 1.0459349e-05 4.6484904e-05 1.7839999e-05 7.1947425e-06
4.7031815e-05 3.4800887e-05 3.8782542e-05 3.5555022e-05 1.3430494e-05 2.2622124e-05 2.746701e-05 6.7398596e-06
2.2280947e-05 6.1732506e-05 2.6828688e-05 1.3029317e-05 5.031333e-05 1.7609387e-05 2.2170985e-05 4.7992235e-05
3.3633e-05 5.5961278e-05 5.849928e-06 6.497259e-06 8.065014e-06 3.4244287e-05 3.506255e-05 4.0107494e-05
7.036352e-05 6.790866e-05 7.342169e-05 1.1930899e-05 2.1523367e-05 1.2784626e-05 8.236144e-06 2.5578988e-06
3.802472e-06 7.8359335e-06 1.842097e-05 6.116358e-05 5.413168e-05 5.920342e-05 4.9652735e-05 7.3256284e-05
4.0742932e-05 2.019342e-05 5.96073e-05 5.567461e-05 4.434517e-05 5.361451e-05 4.2099593e-05 1.7989976e-05
5.6805497e-05 7.033304e-05 4.9841146e-05 2.9796885e-05 5.332507e-05 5.949493e-05 5.5329692e-05 4.0024304e-05
6.9646776e-06 5.325901e-05 3.221867e-05 4.3062378e-06 4.8227717e-05 3.1931162e-05 4.4049225e-06 1.0979015e-05
2.8859136e-05 2.8038887e-05 2.7789083e-05 3.4476612e-05 3.309406e-05 5.18839e-05 4.2935215e-05 4.2137606e-05
3.4828707e-05 3.0377203e-05 3.6479774e-05 3.726978e-05 5.164499e-05 6.002801e-05 7.3420333e-06 2.1065309e-05
4.5879002e-05 7.7960794e-05 7.901761e-05 5.8415495e-05 5.5970962e-05 4.409745e-05 3.6239388e-05 1.5197849e-05
6.78913e-06 7.1680333e-06 4.793632e-05 1.8141822e-05 3.8403964e-06 4.5339893e-05 1.51425e-05 3.9816614e-06
4.516884e-05 1.7943918e-05 3.1453565e-06 4.714187e-05 4.653853e-05 5.2684874e-05 1.5488273e-05 3.2746455e-05
4.5841163e-05 9.034377e-06 3.4562334e-05 4.289514e-05 1.7480299e-05 3.7610396e-05 3.8518698e-05 3.9223254e-05
00000000: 5db4 4b38 a0bc 6f38 33ad 8d38 8431 4737
00000010: ad4c b237 1b20 2a38 5319 9537 7e09 cc37
00000020: 0e62 0438 158d 4338 2fc8 f337 6db4 4f37
00000030: 4ef1 6038 2085 4138 f0ab 1c38 6bf8 6338
00000040: 4676 6638 33db 7238 d66f 2b38 8754 5e37
00000050: 7389 0f38 0acc 8038 87aa 0938 d58c 1338
00000060: 7504 2f38 7856 1737 f804 5437 ab39 3038
00000070: e5ef ba37 60ec 6b37 1707 2b38 b490 f937
00000080: 1c42 d137 53f5 4938 ece8 3c38 0968 3938
00000090: 3528 1238 9110 0438 bf1a a237 977d 2f38
000000a0: 1b30 4038 963b 0238 c852 5a38 3379 4938
000000b0: a417 3b38 ea3b dd36 8bb4 0536 6841 ef35
000000c0: f0e7 e337 fb02 6e37 9e1a f736 5b6c 5338
000000d0: aad4 3d38 b67e 0c38 a365 6636 2db7 6b36
000000e0: 05ce 6036 5ec2 0438 5929 5c37 ad03 3336
000000f0: 49dc bd38 1ffa 0238 8aa5 2a36 c529 1038
00000100: e50b 1338 85e8 2b38 a15c c537 ba7a c337
00000110: 5d7a 0338 5950 d836 5d93 8c36 eaf6 6d37
00000120: f72a 9238 4117 7138 d064 9138 0896 6438
00000130: 1d5e 2938 609a 3e38 47ed 3238 7668 9b37
00000140: 6bf7 2338 1111 0b37 efae c937 7039 0c38
00000150: 09b4 9137 1e43 0438 c790 2a38 14c9 9f37
00000160: 0214 0538 4234 2d38 35ab b537 7a7c 3938
00000170: ee4a 0538 f87d 1138 5911 6838 411a a337
00000180: 66d0 6c38 22a9 6238 0e8c 6937 e058 0f38
00000190: 0d43 7337 1ac7 c037 5402 4638 076b ea37
000001a0: 38db 3038 4948 7a38 77b1 2838 b42c 5238
000001b0: a3ad 1638 f013 e236 6570 d136 425b 3738
000001c0: c7fe 5237 6540 3337 c362 8d38 39c8 4a38
000001d0: 8c13 2b38 50f9 7937 73dc 4d38 34ff c338
000001e0: 550e e836 adce 0138 b29d a638 0f6d 1337
000001f0: 1a32 ac37 e604 7038 6156 2537 79bc da36
00000200: c918 d637 aff9 0538 c8b9 0238 1d1d 4038
00000210: 3dce c237 01f5 1438 c0e3 6b38 e039 1c38
00000220: da96 f937 d7b7 c337 17c7 2e38 cb6b af37
00000230: 907a 2f37 c9f8 4238 1ba7 9537 5e6a f136
00000240: 0744 4538 2bf7 1138 70aa 2238 ea20 1538
00000250: 8853 6137 a4c4 bd37 f468 e637 f426 e236
00000260: f8e7 ba37 6376 8138 2b0e e137 7e98 5a37
00000270: 8707 5338 dfb7 9337 d4fb b937 454b 4938
00000280: 2911 0d38 f7b7 6a38 804a c436 0803 da36
00000290: f94e 0737 86a1 0f38 2010 1338 1839 2838
000002a0: 2190 9338 2f6a 8e38 f8f9 9938 d22a 4837
000002b0: 148d b437 8d7d 5637 f82d 0a37 5ea8 2b36
000002c0: f92d 7f36 1477 0337 bb86 9a37 f244 8038
000002d0: 730b 6338 3051 7838 3842 5038 2ba1 9938
000002e0: 64e3 2a38 0a65 a937 da02 7a38 2884 6938
000002f0: 44ff 3938 24e0 6038 1894 3038 2ee9 9637
00000300: 7042 6e38 c37f 9338 860c 5138 53f4 f937
00000310: 5ca9 5f38 328a 7938 ce11 6838 c5df 2738
00000320: 20b2 e936 6d62 5f38 8922 0738 4d7e 9036
00000330: 1e48 4a38 d3ed 0538 ffcd 9336 8332 3837
00000340: 8616 f237 0d35 eb37 9a1c e937 fb9a 1038
00000350: 7ace 0a38 ea9d 5938 5615 3438 e9bc 3038
00000360: 0a15 1238 8cd2 fe37 dc01 1938 1f52 1c38
00000370: 639d 5838 96c6 7b38 965b f636 68b5 b037
00000380: 346e 4038 e27e a338 42b6 a538 2903 7538
00000390: 5dc2 6a38 47f5 3838 bfff 1738 44fa 7e37
000003a0: 2fce e336 f084 f036 3b0f 4938 442f 9837
000003b0: c1dc 8036 572b 3e38 8b0c 7e37 369a 8536
000003c0: ac73 3d38 4586 9637 d014 5336 33ba 4538
000003d0: 5e32 4338 f4f9 5c38 d0ec 8137 3d59 0938
000003e0: 9345 4038 5b92 1737 06f7 1038 4eea 3338
000003f0: a8a2 9237 dbbf 1d38 238f 2138 a683 2438

exp_avg f4 [32]
-9.1892126e-11 -2.87021e-10 -6.682845e-10 1.7263466e-09 -3.115774e-09 -1.4690595e-09 1.7123519e-09 2.538897e-10
-8.343533e-10 4.982597e-10 5.5466176e-10 -2.3396296e-10 -1.9275088e-09 5.9692e-10 4.4033308e-10 1.5576006e-09
1.04112e-09 2.915409e-10 -2.2681795e-10 4.3539554e-09 -7.496645e-10 -6.110099e-10 -8.2309665e-10 5.2735627e-10
3.7404497e-09 -1.4281625e-09 4.3105333e-10 -6.4914685e-10 3.2808234e-10 4.2262116e-10 7.5868484e-10 5.0890864e-10
00000000: ab12 caae 9dca 9daf 57b2 37b0 6c44 ed30
00000010: 471d 56b1 f0e7 c9b0 0758 eb30 cc93 8b2f
00000020: 6558 65b0 e9f5 0830 da76 1830 5c9f 80af
00000030: 1875 04b1 8314 2430 5f13 f22f 3313 d630
00000040: 2717 8f30 bc46 a02f 9463 79af cc99 9531
00000050: f310 4eb0 00f4 27b0 4740 62b0 66f5 1030
00000060: 5885 8031 0049 c4b0 5df9 ec2f a66f 32b0
00000070: 7c5d b42f a456 e82f b38b 5030 43e3 0b30

exp_avg_sq f4 [32]
6.0321915e-17 3.3175657e-17 3.5926433e-17 2.794898e-17 1.7703468e-16 3.440927e-17 9.46828e-17 2.0029022e-17
5.7784727e-17 2.6413487e-17 3.5594528e-17 3.1301444e-17 3.311761e-17 4.682432e-17 2.364208e-17 2.0630066e-17
2.5209676e-17 3.9759495e-17 4.686209e-17 1.1241897e-16 4.861809e-17 4.94889e-17 2.8509786e-17 2.5425275e-17
5.3079412e-17 4.3208884e-17 2.3680469e-17 3.2532884e-17 3.3330763e-17 2.4892983e-16 2.7556465e-17 5.4221977e-17
00000000: c617 8b24 e7fe 1824 72ae 2524 55e4 0024
00000010: 6a1b 4c25 4caf 1e24 dc52 da24 31bc b823
00000020: 153e 8524 159f f323 9a26 2424 395a 1024
00000030: 5fba 1824 66f0 5724 480f da23 5e47 be23
00000040: aa84 e823 ba5b 3724 fe1c 5824 399c 0125
00000050: 1c36 6024 2e3a 6424 6a7a 0324 bc81 ea23
00000060: 1cc9 7424 0c44 4724 ed69 da23 0d08 1624
00000070: 05b6 1924 8f7f 8f25 dd29 fe23 030e 7a24
