CS330/XCS330-PS3/src/submission/logs/maml/omniglot.way_5.support_1.query_15.inner_steps_1.inner_lr_0.4.learn_inner_lrs_False.outer_lr_0.001.batch_size_16/state6600.pt (torch, 353132 bytes, 30 tensors)

conv0 f4 [32, 1, 3, 3]
-0.048601113 -0.27876237 0.60381854 -0.335631 -0.30698383 -0.03884903 -0.05204797 -0.037829094
-0.104181856 0.22403863 0.2976216 -0.78481334 -0.000612167 0.0033369858 0.16296928 -0.07935223
0.051281326 0.14708322 -0.17959774 -0.2846039 0.031465974 0.3125147 0.017788172 0.32383737
-0.20262834 -0.30160627 -0.42191187 0.08519016 -0.3924076 -0.5150453 0.103522845 -0.055727262
-0.3990493 0.327547 0.16639148 0.25936103 0.3932878 -0.38627842 0.7815166 -0.025488293
0.029463122 -0.013590916 0.0027569374 -0.013598507 0.055935655 -0.4903172 -0.41602793 -0.23146512
0.3426019 -0.099910066 -0.34032202 -0.09140039 0.33249944 -0.10149244 -0.5248009 -0.50882876
-0.14143072 0.068583794 0.025673373 -0.53195345 0.21205656 0.10048218 -0.5323272 0.02381604
0.29501632 0.11841461 0.0078075663 0.20686135 -0.02352576 -0.69160366 -0.71697694 -0.14306514
-0.02501159 -0.0536236 0.058464255 -0.004932956 -0.061583 -0.019452453 0.45172468 -0.8429958
0.3445109 -0.6173713 -0.17546973 0.40839532 -0.3359021 0.15256833 0.18754119 -0.022895923
-0.017139839 -0.009481212 -0.37213874 -0.06318982 0.011869532 -0.18323512 0.012022774 -0.07720806
0.47201765 0.1914485 -0.6726078 -0.5040836 -0.07614534 -0.1628242 0.20135209 -0.3253744
0.12625356 0.3898612 -0.41399693 0.2485634 -0.06462271 -0.3268098 -0.38218114 -0.21996701
-0.14422403 -0.11543406 0.5180912 -0.051939916 -0.0820177 -0.6428668 0.24881089 0.2543413
-0.724951 0.10077295 0.27605522 -0.2002556 -0.48795536 -0.24033858 -0.5806116 -0.56611025
-0.22667874 0.26725775 0.30539542 0.07753644 -0.20686525 -0.07519853 0.19433506 0.12487767
0.1462246 0.47688532 0.059433695 -0.19121237 -0.5187573 0.17768478 -0.16342045 -0.3792518
-0.04269211 -0.1124677 0.3301514 0.16431187 -0.47137627 0.22458252 0.0535191 -0.5871526
0.087754115 0.49554044 -0.23653074 -0.38221902 0.12350027 -0.5639222 0.04382988 -0.1783835
-0.08388533 0.27000555 -0.6317534 -0.7444462 -0.731195 -0.106091104 0.11842652 0.01301457
0.13744785 0.34028396 0.11755235 -0.21798351 0.14274137 -0.111497775 -0.007028703 -0.3952415
-0.36356288 -0.28114542 -0.1758144 0.33818814 -0.11472589 0.07512708 0.295498 0.13682762
-0.21801645 -0.7941198 -0.058035303 0.05929548 0.4021446 0.23496658 -0.26597458 -0.366662
0.074961 0.46013853 -0.2741242 -0.55400944 0.08664348 0.18120264 0.14984588 0.14503552
-0.5915825 0.17455038 0.2708553 -0.7269555 -0.026280893 -0.025691617 -0.6322086 -0.7652458
-0.06275506 -0.015927365 -0.16440089 0.29404992 -0.03714664 0.067588925 0.44196573 -0.15952459
-0.0028622085 -0.060048513 -0.3857696 -0.06393815 0.0060308557 0.40183526 -0.6110694 -0.3563137
0.41996685 0.20567243 0.2612659 -0.025556287 0.18087266 0.3068337 -0.19378187 -0.76335764
-0.92060626 -0.6808321 0.19463445 -0.10767425 -0.57035184 0.23886237 -0.015291144 -0.55981773
0.2399399 -0.28564534 -0.50405633 -0.017092684 0.14197594 0.104110286 -0.658946 0.2893867
0.18313682 -0.70637625 -0.021420691 0.05250278 -0.5277625 0.040613957 0.41904205 -0.04080557
00000000: f611 47bd f1b9 8ebe da93 1a3f d4d7 abbe
00000010: fc2c 9dbe 2920 1fbd 4130 55bd aef2 1abd
00000020: 4c5d d5bd 626a 653e dc61 983e 87e9 48bf
00000030: d579 20ba 55b1 5a3b 6be1 263e 6c83 a2bd
00000040: 5e0c 523d fc9c 163e 78e8 37be 9ab7 91be
00000050: 77e2 003d ed01 a03e 80b8 913c 03ce a53e
00000060: ce7d 4fbe 236c 9abe d504 d8be 2e78 ae3d
00000070: a6e9 c8be 02da 03bf c903 d43d 4542 64bd
00000080: 3150 ccbe 3eb4 a73e 8762 2a3e f8ca 843e
00000090: 055d c93e 49c6 c5be 7911 483f d3cc d0bc
000000a0: a55c f13c 6fac 5ebc bcad 343b 46cc 5ebc
000000b0: c91c 653d db0a fbbe 9d01 d5be 3105 6dbe
000000c0: 8469 af3e a69d ccbd b03e aebe 2130 bbbd
000000d0: 5e3d aa3e 45db cfbd 5a59 06bf 9a42 02bf
000000e0: 37d3 10be a975 8c3d f750 d23c 1a2e 08bf
000000f0: 5b25 593e 9ac9 cd3d 9846 08bf db19 c33c
00000100: 610c 973e 5c83 f23d 9dd6 ff3b 76d3 533e
00000110: 18b9 c0bc f00c 31bf cd8b 37bf ab7f 12be
00000120: 1be5 ccbc 6ca4 5bbd 3778 6f3d a2a4 a1bb
00000130: 753e 7cbd c05a 9fbc 7548 e73e 93ce 57bf
00000140: bc63 b03e 0c0c 1ebf 56ae 33be 3119 d13e
00000150: 5cfb abbe df3a 1c3e cc0a 403e 3b90 bbbc
00000160: d968 8cbc 1657 1bbc f888 bebe aa69 81bd
00000170: 6d78 423c fda1 3bbe 2bfb 443c 421f 9ebd
00000180: 4cac f13e 130b 443e 0630 2cbf 9f0b 01bf
00000190: 17f2 9bbd 63bb 26be 3e2f 4e3e 7997 a6be
000001a0: 9d48 013e e39b c73e 68f7 d3be 6787 7e3e
000001b0: e958 84bd 9d53 a7be 3fad c3be 083f 61be
000001c0: 77af 13be b168 ecbd a0a1 043f f3be 54bd
000001d0: e5f8 a7bd eb92 24bf 48c8 7e3e 0639 823e
000001e0: 6496 39bf 0c62 ce3d 1c57 8d3e ce0f 4dbe
000001f0: 49d5 f9be 511b 76be f6a2 14bf 9aec 10bf
00000200: 791e 68be 02d6 883e ca5c 9c3e 6dcb 9e3d
00000210: 7cd4 53be b001 9abd c5ff 463e ddbf ff3d
00000220: e7bb 153e 502a f43e bf70 733d 2dcd 43be
00000230: 47cd 04bf 00f3 353e b157 27be 4b2d c2be
00000240: ecdd 2ebd 7755 e6bd 9b09 a93e 5f41 283e
00000250: 3b58 f1be f6f8 653e d836 5b3d a24f 16bf
00000260: 6eb8 b33d 7ab7 fd3e 1d35 72be 36b2 c3be
00000270: b6ed fc3d 355d 10bf f686 333d 2aaa 36be
00000280: 12cc abbd 2b3e 8a3e 97ba 21bf 0794 3ebf
00000290: 982f 3bbf 4b46 d9bd 9a89 f23d 103b 553c
000002a0: 21bf 0c3e b339 ae3e 49bf f03d 1237 5fbe
000002b0: cb2a 123e f258 e4bd 0951 e6bb 185d cabe
000002c0: ea24 babe 4bf2 8fbe b108 34be ff26 ad3e
000002d0: 68f5 eabd 3adc 993d 844b 973e 8a1c 0c3e
000002e0: b43f 5fbe 6f4b 4bbf 6db6 6dbd d1df 723d
000002f0: e6e5 cd3e 149b 703e d22d 88be 1fbb bbbe
00000300: 2785 993d 4797 eb3e 025a 8cbe 90d3 0dbf
00000310: 2372 b13d 2f8d 393e 3371 193e 3184 143e
00000320: f371 17bf 56bd 323e 8cad 8a3e c119 3abf
00000330: 074b d7bc 3a77 d2bc 6cd8 21bf 26e7 43bf
00000340: ba85 80bd 1b7a 82bc b558 28be b68d 963e
00000350: 1327 18bd 106c 8a3d 5549 e23e 6a5a 23be
00000360: e493 3bbb 6ef5 75bd 9883 c5be 01f2 82bd
00000370: 7c9e c53b 5abd cd3e 0b6f 1cbf c06e b6be
00000380: e505 d73e cb9b 523e a5c4 853e 6b5b d1bc
00000390: af36 393e 4f19 9d3e c16e 46be 686b 43bf
000003a0: daac 6bbf 034b 2ebf 414e 473e 5184 dcbd
000003b0: 9402 12bf 5698 743e b587 7abc 3750 0fbf
000003c0: ceb2 753e 1b40 92be d609 01bf f505 8cbc
000003d0: 2462 113e c637 d53d afb0 28bf 7e2a 943e
000003e0: 3888 3b3e 13d5 34bf 727a afbc 280d 573d
000003f0: 711b 07bf d25a 263d ae8c d63e be23 27bd

b0 f4 [32]
0.035203792 0.015919048 -0.077120624 0.034508303 -0.025821293 -0.083456025 0.038364377 0.055369157
0.009528524 0.05358249 -0.016202966 -0.037560306 0.014273671 -0.10665637 -0.0036853747 0.004238351
-0.040397234 0.008409946 -0.07901014 -0.045309793 0.013277223 -0.057601932 -0.026023213 0.011615317
-0.000733584 -0.0754161 -0.0248491 -0.018741278 -0.014326409 -0.018937614 -0.048772488 -0.11370934
00000000: da31 103d aa68 823c 6bf1 9dbd 9458 0d3d
00000010: 2d87 d3bc feea aabd f723 1d3d c5ca 623d
00000020: 871d 1c3c 5079 5b3d 15bc 84bc d6d8 19bd
00000030: 1edc 693c a86e dabd 5486 71bb dde1 8a3b
00000040: 9277 25bd dfc9 093c 11d0 a1bd c396 39bd
00000050: b688 593c 01f0 6bbd a22e d5bc 2c4e 3e3c
00000060: fd4d 40ba c273 9abd 5790 cbbc 4f87 99bc
00000070: 51b9 6abc 0e23 9bbc a9c5 47bd 71e0 e8bd

conv1 f4 [32, 32, 3, 3]
-0.03502474 -0.19544391 -0.12097095 0.03362669 -0.04305749 -0.17299041 -0.13246344 0.07361772
-0.026994547 0.15639423 -0.0064325174 -0.042606737 0.023642141 0.13209765 0.018702708 -0.0486197
-0.1449641 0.03593614 -0.15418471 -0.25364393 0.17861752 -0.19430368 -0.015490313 0.079031415
0.062074024 0.13717179 0.12983653 0.113796085 -0.061375692 -0.12499098 0.22963005 0.04798056
0.104502484 0.12346222 -0.06903578 0.11472569 0.018170059 -0.078120865 0.17818373 -0.06960344
-0.101614326 -0.10819598 0.03494898 0.08042891 -0.15685607 -0.07076804 -0.062383726 -0.37747034
0.11158902 -0.02646213 0.059883226 -0.028854921 0.12348104 -0.08114739 -0.27084514 -0.41577137
-0.58646727 0.093605 0.09986041 -0.19605897 -0.1389939 0.12213884 -0.11845161 -0.13314901
-0.08328323 -0.013539651 0.09598103 0.023649199 0.16516878 -0.19543378 -0.15636022 0.06366425
0.036956586 -0.19022664 -0.131301 0.17951605 -0.063652396 -0.14079723 0.4736773 0.3179785
0.2775787 -0.094327405 0.08890883 0.123014286 -0.049737558 0.022471044 -0.02391173 0.059562746
0.08010685 -0.23888537 -0.014811902 -0.06877098 -0.114456266 0.17559671 0.09403146 -0.08364198
0.0029172 0.003072041 -0.1957524 -0.2940926 -0.15953709 -0.21495584 0.06386038 -0.054506976
-0.12897249 0.23147379 -0.033575535 -0.10051228 0.03591027 -0.024317656 -0.14153035 0.15097542
0.031201858 0.11096021 0.17714658 0.04510984 0.039468616 -0.31680676 -0.09307873 -0.21143807
-0.25835818 0.1070949 -0.1575045 -0.34705123 -0.2528498 -0.13729985 -0.34386867 -0.051560834
-0.16762283 0.08401336 0.058237858 0.055013254 0.22931696 -0.04427832 -0.036003377 0.09818716
0.018192198 0.22863579 0.07719262 -0.046924043 0.19634695 -0.050449528 -0.08927189 -0.06399479
0.021623086 -0.18152177 -0.046200294 -0.0037944142 -0.105563484 -0.09665881 0.26865736 0.1875447
-0.08595699 0.032214444 -0.027629113 0.0064212354 0.0407807 -0.118659504 -0.029218098 0.08056974
-0.23221985 -0.11266727 -0.1892183 -0.19052346 -0.087503865 0.049360573 0.17802374 0.09571801
-0.056702103 -0.21817213 0.033990946 -0.4034188 -0.06618646 -0.44289303 0.054369546 0.061012387
-0.14743055 -0.26388285 -0.30232057 -0.28909266 0.041638643 0.10646448 0.45995677 0.0036682817
-0.16099428 0.14945598 0.0045335037 0.0856931 0.21350183 0.048574932 0.07330744 -0.041078184
-0.07751385 7.017263e-05 -0.047069628 0.16203402 0.087437555 0.23682776 -0.20491943 -0.21935734
-0.3472391 -0.005219432 -0.06312797 -0.34109488 0.0678971 0.038432684 -0.40955085 0.007190932
-0.057502232 0.07611465 0.06798855 0.12384545 0.06621513 0.18505514 0.036163777 -0.18688725
0.11707981 0.12323134 -0.43370503 -0.012161255 0.22188126 -0.076674104 0.10704863 0.14041895
-0.1015346 -0.33255142 -0.19877322 -0.08146541 -0.026605284 -0.2138073 -0.055716336 -0.3172925
-0.39644685 -0.43837255 0.030010425 -0.32068667 -0.4835198 0.13821638 0.013046264 -0.2178058
0.2534974 0.1831278 -0.23206814 -0.04478448 -0.034792144 -0.3301484 -0.03876065 -0.0148339
-0.08029281 0.032574344 0.11887923 0.031764466 -0.008169179 0.08269864 0.3134831 0.052695762
00000000: 1a76 0fbd 7322 48be 9ebf f7bd 24bc 093d
00000010: 0d5d 30bd 6624 31be 7fa4 07be e3c4 963d
00000020: ab23 ddbc cf25 203e dec7 d2bb 6784 2ebd
00000030: 2aad c13c 9b44 073e 6c36 993c 7325 47bd
00000040: 7871 14be c631 133d 99e2 1dbe 9edd 81be
00000050: 83e7 363e 8bf7 46be 15cb 7dbc 39db a13d
00000060: 5541 7e3d c376 0c3e def3 043e ec0d e93d
00000070: 1465 7bbd 45fb ffbd 2424 6b3e 4487 443d
00000080: 6605 d63d c3d9 fc3d a262 8dbd 4df5 ea3d
00000090: 60d9 943c d5fd 9fbd cc75 363e 408c 8ebd
000000a0: 2c1b d0bd db95 ddbd a926 0f3d eab7 a43d
000000b0: e19e 20be d6ee 90bd 1486 7fbd cb43 c1be
000000c0: c988 e43d 1cc7 d8bc 1d48 753d 2861 ecbc
000000d0: a1e3 fc3d 9a30 a6bd 37ac 8abe fcdf d4be
000000e0: b822 16bf fab3 bf3d 9d83 cc3d afc3 48be
000000f0: 6b54 0ebe ee23 fa3d c296 f2bd 3758 08be
00000100: 6690 aabd 6ad5 5dbc b491 c43d f7bb c13c
00000110: 0122 293e cb1f 48be e51c 20be 6762 823d
00000120: ca5f 173d c6ca 42be c573 06be 0ed3 373e
00000130: 305c 82bd 262d 10be d585 f23e 14ce a23e
00000140: cc1e 8e3e ba2e c1bd d515 b63d eaee fb3d
00000150: 9cb9 4bbd 3215 b83c 88e2 c3bc 11f8 733d
00000160: 0f0f a43d 5e9e 74be 9fad 72bc cdd7 8cbd
00000170: 0c68 eabd a0cf 333e 9193 c03d 7d4c abbd
00000180: 7f2e 3f3b 4c54 493b 5173 48be 4e93 96be
00000190: b15d 23be 621d 5cbe 3bc9 823d b542 5fbd
000001a0: 5d11 04be 7707 6d3e 8086 09bd 62d9 cdbd
000001b0: a616 133d d235 c7bc 55ed 10be 4d99 1a3e
000001c0: 0a9b ff3c 1b3f e33d ea65 353e 18c5 383d
000001d0: d8a9 213d 7f34 a2be 10a0 bebd 3983 58be
000001e0: 8647 84be 9254 db3d dc48 21be b3b0 b1be
000001f0: 8775 81be 5598 0cbe 8e0f b0be 7431 53bd
00000200: 52a5 2bbe 320f ac3d d28a 6e3d 9455 613d
00000210: 11d2 6a3e 2f5d 35bd 4778 13bd 5a16 c93d
00000220: ce07 953c 801f 6a3e 2a17 9e3d 6d33 40bd
00000230: 2d0f 493e 2aa4 4ebd 2ed4 b6bd b30f 83bd
00000240: e622 b13c d8e0 39be 853c 3dbd b5ab 78bb
00000250: ab31 d8bd 0ef5 c5bd 758d 893e b80b 403e
00000260: 380a b0bd 4bf3 033d 7356 e2bc 3a69 d23b
00000270: aa09 273d c103 f3bd cb5a efbc bf01 a53d
00000280: 0acb 6dbe 19be e6bd 71c2 41be 9518 43be
00000290: 3a35 b3bd 502e 4a3d db4b 363e ce07 c43d
000002a0: 7740 68bd 8468 5fbe 173a 0b3d e98c cebe
000002b0: c48c 87bd e0c2 e2be 9ab2 5e3d 20e8 793d
000002c0: 09f8 16be a71b 87be c3c9 9abe f403 94be
000002d0: 488d 2a3d 0d0a da3d 747f eb3e 8e67 703b
000002e0: afdb 24be fd0a 193e c98d 943b dd7f af3d
000002f0: 39a0 5a3e 82f6 463d 3622 963d 9941 28bd
00000300: 95bf 9ebd a529 9338 15cc 40bd 3fec 253e
00000310: 7612 b33d fa82 723e 66d6 51be 369f 60be
00000320: 53c9 b1be c507 abbb 3d49 81bd fda3 aebe
00000330: a20d 8b3d 976b 1d3d a6b0 d1be e9a1 eb3b
00000340: 7687 6bbd ffe1 9b3d 953d 8b3d afa2 fd3d
00000350: cc9b 873d 187f 3d3e 7820 143d 5f5f 3fbe
00000360: 8ac7 ef3d b660 fc3d 960e debe 0040 47bc
00000370: d734 633e 5007 9dbd 503c db3d fcc9 0f3e
00000380: 5ff1 cfbd 2e44 aabe 358b 4bbe 56d7 a6bd
00000390: 53f3 d9bc 4df0 5abe d036 64bd 2a74 a2be
000003a0: 15fb cabe 5e72 e0be 6cd8 f53c 0b31 a4be
000003b0: e88f f7be 9888 0d3e ffbf 553c 7c08 5fbe
000003c0: 69ca 813e db85 3b3e 45a3 6dbe ee6f 37bd
000003d0: 3582 0ebd 3609 a9be 7dc3 1ebd e309 73bc
000003e0: 8f70 a4bd ad6c 053d f476 f33d 751b 023d
000003f0: 05d8 05bc e85d a93d db80 a03e 83d7 573d

b1 f4 [32]
0.23975691 0.014304111 -0.009742021 -0.075041674 0.024795651 0.0010562434 0.11732291 -0.03124406
-0.014143324 -0.043288726 0.0055451994 0.068878464 0.025747526 -0.0010198832 0.0051872213 -0.0115432525
0.0073040263 -0.033385005 0.022860836 -0.013033551 0.008781871 0.036414802 0.008596541 0.017974485
0.05267273 -0.016694412 0.07914038 0.034963295 0.0085811615 0.00059696863 -0.004965566 0.035973042
00000000: d682 753e ca5b 6a3c ff9c 1fbc 73af 99bd
00000010: 4020 cb3c a671 8a3a fe46 f03d 8bf3 ffbc
00000020: 67b9 67bc 854f 31bd 81b4 b53b 2710 8d3d
00000030: 7aec d23c 9aad 85ba 91f9 a93b e91f 3dbc
00000040: 9d56 ef3b b7be 08bd a646 bb3c ad8a 55bc
00000050: d6e1 0f3c b027 153d 82d8 0c3c 3a3f 933c
00000060: 5cbf 573d b8c2 88bc 5a14 a23d ac35 0f3d
00000070: 0098 0c3c e37d 1c3a 30b6 a2bb 7858 133d

conv2 f4 [32, 32, 3, 3]
0.072874285 0.051742002 -0.020681828 0.1271702 -0.009648866 0.1261871 0.06116571 0.051295184
-0.013194954 0.035136424 0.03526142 0.013875113 0.06917504 0.044180658 -0.057164684 -0.016685545
0.024539191 0.07242515 0.023706533 0.012941333 0.005745618 0.033394933 0.05490082 -0.00391817
0.066931345 -0.0019382103 -0.028723603 -0.0075202435 0.00664871 -0.018938748 0.002772756 -0.0781468
-0.0691889 -0.029880041 -0.031697784 -0.03160726 0.05799409 -0.050268006 -0.056802087 -0.041545883
-0.025815897 0.0761821 0.118292205 0.039494887 0.040943578 0.042898566 0.04105836 -0.011049126
-0.05150923 0.023954278 -0.0045051207 0.11446753 -0.019518478 0.021688247 0.09166928 -0.054877162
0.052766453 -0.031379208 0.10449371 -0.037659083 0.012323886 0.022175 0.041449316 0.052466586
0.028383592 0.0410241 0.018584082 0.043188866 -0.027758894 0.039220817 -0.026041083 0.050047863
0.015680578 0.0057226145 -0.012920137 0.0054663736 0.006666922 0.051489178 0.026931237 -0.026394606
-0.041041106 -0.03288014 0.017907087 0.011851791 0.071490705 0.059866663 -0.0717353 0.10591907
0.0010425317 0.06958507 -0.03326316 0.07346486 -0.09377024 -0.027317189 -0.06649796 0.02714317
0.05660886 -0.014746481 -0.05247402 0.051539473 -0.04557786 0.037330344 -0.07002498 -0.0034875534
0.08188268 -0.061447 -0.013852962 0.042484917 0.055606764 0.031782933 -0.050035547 0.0036875266
0.057205692 -0.0131740365 -0.104572326 -0.087932914 -0.00027684288 0.022560671 -0.031692486 -0.0012440551
-0.04975965 0.08500015 0.0058094673 -0.040354364 0.07571576 -0.054989647 -0.021269985 0.03401848
-0.009734532 -0.04868039 0.020690015 -0.004544035 0.008793612 0.009758087 -0.014819936 0.02046323
0.007605217 0.029175412 0.023748077 -0.04945487 0.022463968 -0.014453364 0.044377852 -0.052371673
0.0009616872 -0.02665784 -0.017401097 0.015013948 -0.05824243 0.027441856 -0.04614313 0.048133586
0.035030358 0.019466747 0.01062373 0.022165505 0.08747162 -0.000940721 0.00814432 0.005463773
0.06015076 0.0009053236 -0.011547276 0.06819879 -0.04614733 0.03272953 -0.047728226 0.04314819
0.05709475 0.039352827 -0.04374604 0.0074879504 -0.019402888 -0.027006673 -0.01189863 -0.010134397
0.038630214 0.026834058 -0.0327271 0.04103419 0.12384822 -0.026914971 -0.10309505 0.017121922
-0.06387977 -0.0966911 -0.04900134 -0.03228826 -0.09934424 0.042100716 -0.042707615 0.006176304
0.11301703 -0.035378125 0.019338906 0.0048246696 -0.0044723903 -0.024289351 -0.00730027 0.01897923
0.015248356 0.10998812 -0.010323015 0.05407392 -0.017988611 0.046434656 0.0057873367 -0.022741262
-0.035911787 0.022150492 0.052361634 -0.033727404 -0.05194808 -0.019975638 0.0213997 0.02923083
0.032100514 -0.05112109 -0.05563316 0.018101145 0.03456387 0.041530035 0.08971047 0.010163382
0.002318823 0.0013018216 0.03258523 -0.05321822 7.370776e-05 0.04541325 -0.03652917 -0.06318605
0.0624676 -0.047203444 0.026566852 -0.021204988 -0.01136336 0.0016435708 -0.0040112273 -0.008839562
0.0008521139 0.0066253836 0.030995833 -0.09398238 -0.06715098 0.04699684 -0.19714755 -0.06987987
-0.13296045 -0.20978266 -0.022679733 -0.06862153 0.030757032 0.020397214 0.00063225074 -0.027446344
00000000: 1d3f 953d 6cef 533d f06c a9bc e838 023e
00000010: 4716 1ebc 3137 013e e588 7a3d e61a 523d
00000020: a62f 58bc 36eb 0f3d 476e 103d 7154 633c
00000030: a5ab 8d3d c7f6 343d 8425 6abd 20b0 88bc
00000040: 6a06 c93c a353 943d 3434 c23c e307 543c
00000050: bd45 bc3b 20c9 083d afdf 603d fe63 80bb
00000060: 4d13 893d 8c0b feba c34d ebbc 606c f6bb
00000070: 6cdd d93b 6f25 9bbc 20b7 353b 6e0b a0bd
00000080: e9b2 8dbd fdc6 f4bc 89d5 01bd 9d76 01bd
00000090: 368b 6d3d d3e5 4dbd 4ea9 68bd 042c 2abd
000000a0: dc7b d3bc 5c05 9c3d 2f43 f23d 64c5 213d
000000b0: 74b4 273d 68b6 2f3d d02c 283d 6507 35bc
000000c0: 58fb 52bd c33b c43c b19f 93bb f46d ea3d
000000d0: 37e5 9fbc 8dab b13c 1abd bb3d e0c6 60bd
000000e0: a321 583d 7c87 00bd cc00 d63d 6940 1abd
000000f0: 20ea 493c 58a8 b53c c2c6 293d 34e7 563d
00000100: b584 e83c e308 283d a53d 983c cfe6 303d
00000110: 9f66 e3bc 02a6 203d 1c54 d5bc fdfe 4c3d
00000120: 8e74 803c c584 bb3b fbae 53bc 441f b33b
00000130: 3276 da3b 51e6 523d e69e dc3c 8039 d8bc
00000140: b81a 28bd 53ad 06bd e2b1 923c 042e 423c
00000150: b869 923d bf36 753d f5e9 92bd 19ec d83d
00000160: 8fa5 883a 9e82 8e3d f43e 08bd bf74 963d
00000170: 9d0a c0bd 4cc8 dfbc 1530 88bd 5a5b de3c
00000180: b1de 673d 399b 71bc ffee 56bd 0e1b 533d
00000190: daaf 3abd b4e7 183d 4269 8fbd 708f 64bb
000001a0: 1bb2 a73d d9af 7bbd 89f7 62bc aa04 2e3d
000001b0: ebc3 633d d22e 023d 13f2 4cbd 6eaa 713b
000001c0: 8450 6a3d ead7 57bc 042a d6bd 2c16 b4bd
000001d0: 3925 91b9 28d1 b83c fbcf 01bd 900f a3ba
000001e0: c6d0 4bbd 8f14 ae3d 585d be3b 9e4a 25bd
000001f0: dd10 9b3d d33c 61bd 643e aebc f656 0b3d
00000200: 967d 1fbc 1765 47bd 1b7e a93c 21e6 94bb
00000210: 1513 103c 62e0 1f3c 51cf 72bc 81a2 a73c
00000220: 2f35 f93b 4601 ef3c 548b c23c 3191 4abd
00000230: 5b06 b83c cdcd 6cbc 8dc5 353d ae83 56bd
00000240: bc19 7c3a 8b61 dabc bf8c 8ebc 10fd 753c
00000250: 9d8f 6ebd becd e03c 9400 3dbd b927 453d
00000260: fe7b 0f3d ba78 9f3c 270f 2e3c 6f94 b53c
00000270: 5224 b33d b89a 76ba c16f 053c 7309 b33b
00000280: a560 763d 3d53 6d3a c930 3dbc cfab 8b3d
00000290: fc04 3dbd 660f 063d ac7e 43bd 28bc 303d
000002a0: 2fdc 693d 6e30 213d 0c2f 33bd 7b5d f53b
000002b0: cef2 9ebc 193d ddbc 79f2 42bc be0a 26bc
000002c0: b73a 1e3d 19d3 db3c da0c 06bd 7813 283d
000002d0: 23a4 fd3d c97c dcbc 7f23 d3bd 4643 8c3c
000002e0: 66d3 82bd fc05 c6bd a1b5 48bd b240 04bd
000002f0: fe74 cbbd cd71 2c3d 2eee 2ebd 9862 ca3b
00000300: 7975 e73d a7e8 10bd a06c 9e3c 4318 9e3b
00000310: 218d 92bb 76fa c6bc 1a37 efbb 557a 9b3c
00000320: 3ed4 793c 7441 e13d dd21 29bc 9d7c 5d3d
00000330: da5c 93bc 4432 3e3d b3a3 bd3b e24b babc
00000340: 3d18 13bd f374 b53c 2779 563d bf25 0abd
00000350: 83c7 54bd f3a3 a3bc 6c4e af3c 7e75 ef3c
00000360: d47b 033d 5964 51bd 99df 63bd da48 943c
00000370: d892 0d3d 661b 2a3d 1fba b73d 5084 263c
00000380: 65f7 173b e2a1 aa3a 1778 053d 59fb 59bd
00000390: 8d93 9a38 3e03 3a3d 9c9f 15bd b067 81bd
000003a0: 07de 7f3d 6658 41bd baa2 d93c 15b6 adbc
000003b0: 632d 3abc 166d d73a 9d70 83bb cfd3 10bc
000003c0: 6560 5f3a bf19 d93b f9ea fd3c d679 c0bd
000003d0: 7486 89bd c27f 403d 0ce1 49be 2d1d 8fbd
000003e0: c926 08be 44d1 56be d9ca b9bc 7289 8cbd
000003f0: 2cf6 fb3c 0f18 a73c a1bd 253a 28d7 e0bc

b2 f4 [32]
0.031054642 0.044674482 -0.021173712 -0.017087324 0.0800151 0.0735719 0.19141032 -0.064142585
0.05698382 -0.37008977 0.06488849 0.14544764 -0.15941434 -0.45781362 0.035116114 0.17843723
0.021955822 0.03700746 0.018420396 0.017342176 0.10566324 0.058268517 -0.0015257518 0.119594306
-0.014518514 0.103792004 0.020325229 0.34768417 0.06547759 0.06257657 0.1542117 -0.02223129
00000000: 4e66 fe3c 97fc 363d 7e74 adbc b7fa 8bbc
00000010: f5de a33d ddac 963d 1101 443e 305d 83bd
00000020: de67 693d 687c bdbe 42e4 843d 3af0 143e
00000030: 833d 23be 8c66 eabe ead5 0f3d 40b8 363e
00000040: b2dc b33c 2295 173d 5fe6 963c 2e11 8e3c
00000050: f865 d83d f8aa 6e3d bcfb c7ba dced f43d
00000060: 10df 6dbc e790 d43d 1881 a63c a903 b23e
00000070: 1d19 863d 2528 803d ace9 1d3e 651e b6bc

conv3 f4 [32, 32, 3, 3]
-0.017911976 -0.009687297 -0.05425168 -0.05207415 0.11903447 -0.009374208 -0.031321883 -8.1917475e-05
-0.04217685 0.3295777 0.19166674 0.3810162 0.12587827 -0.092119314 0.13106531 0.39925772
0.099780135 0.4069042 -0.021435661 0.04120368 -0.011029051 -0.03176933 0.03845418 0.08478971
-0.01852332 0.04702407 0.012479664 0.03588851 0.024025368 -0.022915946 0.03227725 0.087806486
-0.04091448 0.08222641 -0.040633094 0.027634071 -0.11121072 0.001523943 -0.094941735 -0.0073133716
0.084656484 -0.03529465 -0.13306487 -0.034245916 -0.05453697 -0.12034591 -0.0045592333 -0.06298121
0.014257377 0.06360883 0.043317646 -0.06811269 -0.0063699735 -0.12717251 0.046383724 0.0028337152
0.055811845 -0.01699582 0.0050208555 0.041236136 -0.0002357917 0.056767154 -0.061690386 0.025129888
0.009180272 0.011628292 0.01778664 -0.016447699 -0.013775317 -0.03765917 -0.024762703 0.044251814
-0.012283502 -0.024172468 0.006213372 0.04904062 -0.04157929 -0.03905971 -0.0050129043 -0.078639925
0.022590451 -0.03878604 0.06941136 0.00023735796 0.04783641 -0.027144091 0.009394686 0.046359763
-0.02072653 -0.008355742 -0.0036271003 -8.413078e-05 0.03713667 -0.0087952865 -0.22793338 -0.052179113
0.06296088 -0.11948269 0.07166064 -0.014155101 0.0742008 -0.020943778 0.008499529 0.048215058
-0.0365721 0.00466814 0.03680323 0.05090483 -0.04648343 0.024286527 -0.044135418 0.017869977
-0.02037683 0.01867062 0.039589915 0.0037838805 0.07995466 0.028642574 -0.018092537 -0.03504043
0.0015915673 0.04242384 0.006750393 0.034009896 -0.07450255 0.059783757 0.032932397 0.051484495
0.0017659629 -0.08365931 0.07113438 0.06276991 0.063106075 -0.03881792 -0.03137647 -0.017379455
-0.0016453532 0.0034099706 0.03262826 0.018124912 -0.00038420936 0.01887489 -0.013073163 0.018853977
0.039321333 -0.06607064 -0.07095234 -0.043098457 0.04320359 0.04461017 -0.07717817 -0.028616548
0.040645022 -0.030972766 -0.026138613 -0.01787788 0.06609532 0.010425708 -0.09786394 -0.02290352
0.03946862 0.04173049 0.016614174 -0.02798796 0.048807144 -0.025712056 0.030000955 0.0030350462
-0.042592574 0.012028184 0.02239161 0.0119870575 0.040626872 0.031013401 0.060844976 -0.013896284
-0.066245526 0.047993418 0.039552126 0.028540377 -0.07555886 -0.015439929 -0.05059211 -0.053462815
0.012776623 0.048197858 -0.05462928 0.041482646 -0.15012857 0.078121 0.0481405 -0.048207432
-0.059945196 -0.020273441 0.06102448 0.0044387886 -0.021477465 0.028456593 -0.0034203432 -0.014894954
-0.03674943 -0.03950011 -0.025658548 0.05318054 0.079419985 -0.039354417 -0.016945407 0.089825764
-0.0033035032 0.11097051 0.049937874 0.0069977613 0.04583026 -0.06860846 0.09741152 -0.0005405356
0.031338464 0.031569317 -0.047395725 0.055105235 0.03153064 0.040249642 0.05960497 -0.05233822
7.863008e-05 0.10607698 0.05183538 0.051208694 -0.0057663927 -0.042376183 0.02271286 0.10101011
0.0069262465 0.098318994 -0.009738767 -0.015056114 -0.026276143 0.05529568 -0.02475178 -0.016307358
-0.062972024 0.038809072 0.03750565 -0.052945722 0.03214825 -0.016444512 -0.008116847 -0.05139756
-0.00305616 0.051468223 -0.03638784 0.067535214 0.067387626 -0.053499572 0.004408 0.017803919
00000000: 23bc 92bc 78b7 1ebc 0237 5ebd b44b 55bd
00000010: 58c8 f33d 4796 19bc 604b 00bd 1ccb abb8
00000020: a2c1 2cbd 69be a83e 4944 443e 8e14 c33e
00000030: 3ce6 003e 0da9 bcbd fc35 063e 826b cc3e
00000040: 8759 cc3d bf55 d03e d799 afbc 31c5 283d
00000050: 31b3 34bc 8f20 02bd 2182 1d3d 3aa6 ad3d
00000060: 38be 97bc 509c 403d 8177 4c3c d5ff 123d
00000070: d9d0 c43c 39ba bbbc 2635 043d e3d3 b33d
00000080: f195 27bd 5266 a83d e36e 26bd d960 e23c
00000090: 72c2 e3bd 0bbf c73a d070 c2bd 02a5 efbb
000000a0: 6160 ad3d 1f91 10bd 2842 08be 7245 0cbd
000000b0: 2862 5fbd eb77 f6bd 9f65 95bb 4bfc 80bd
000000c0: c697 693c 5945 823d d86d 313d aa7e 8bbd
000000d0: 36bb d0bb 8339 02be dcfc 3d3d dab5 393b
000000e0: f69a 643d d13a 8bbc fd85 a43b 39e7 283d
000000f0: da3e 77b9 ad84 683d 0faf 7cbd 32dd cd3c
00000100: da68 163c 9784 3e3c 4ab5 913c 53bd 86bc
00000110: deb1 61bc 8040 1abd 27db cabc 6441 353d
00000120: be40 49bc 5705 c6bc 8b99 cb3b d1de 483d
00000130: 0c4f 2abd 13fd 1fbd 4a43 a4bb f80d a1bd
00000140: 9c0f b93c 1cde 1ebd 8b27 8e3d 4be3 7839
00000150: 1df0 433d 495d debc 2bec 193c bce3 3d3d
00000160: afca a9bc 86e6 08bc a5b4 6dbb 5e6f b0b8
00000170: 9f1c 183d 1b1a 10bc 5e67 69be c4b9 55bd
00000180: a2f1 803d 57b3 f4bd d0c2 923d ccea 67bc
00000190: 97f6 973d 4992 abbc 9c41 0b3c 277d 453d
000001a0: a0cc 15bd 32f7 983b fcbe 163d 9581 503d
000001b0: 6965 3ebd 8af4 c63c 57c7 34bd 0f64 923c
000001c0: 4fed a6bc 21f3 983c 0929 223d fbfa 773b
000001d0: 45bf a33d d5a3 ea3c cd36 94bc 8e86 0fbd
000001e0: 239c d03a 9fc4 2d3d 6732 dd3b f64d 0b3d
000001f0: cb94 98bd d0df 743d 1fe4 063d 68e1 523d
00000200: e277 e73a 9355 abbd e7ae 913d 838d 803d
00000210: c23d 813d 8aff 1ebd 9d84 00bd 5c5f 8ebc
00000220: e4a8 d7ba d079 5f3b 36a5 053d b27a 943c
00000230: b56f c9b9 839f 9a3c d230 56bc a873 9a3c
00000240: 680f 213d 0b50 87bd 764f 91bd 0288 30bd
00000250: 3ff6 303d 27b9 363d 970f 9ebd 406d eabc
00000260: 657b 263d 99ba fdbc a520 d6bc a274 92bc
00000270: fc5c 873d 97d0 2a3c e46c c8bd 2aa0 bbbc
00000280: d9a9 213d 97ed 2a3d 731a 883c 0247 e5bc
00000290: 00ea 473d 17a2 d2bc 90c4 f53c a0e7 463b
000002a0: 8d75 2ebd dc11 453c 9c6e b73c 5d65 443c
000002b0: 5d68 263d d10f fe3c 9538 793d 3dad 63bc
000002c0: bcab 87bd bf94 443d 6901 223d 82cd e93c
000002d0: 9bbe 9abd c2f7 7cbc ac39 4fbd d3fb 5abd
000002e0: 0a55 513c 1e6b 453d f4c2 5fbd b5e9 293d
000002f0: 4ebb 19be e7fd 9f3d f92e 453d 2875 45bd
00000300: 1889 75bd 7d14 a6bc cef4 793d 4273 913b
00000310: 82f1 afbc cd1d e93c d627 60bb f709 74bc
00000320: 9286 16bd deca 21bd e031 d2bc d7d3 593d
00000330: f2a6 a23d 1932 21bd 18d1 8abc 92f6 b73d
00000340: 967f 58bb 8244 e33d a88b 4c3d 7a4d e53b
00000350: 83b8 3b3d 9882 8cbd b17f c73d bbb2 0dba
00000360: c35c 003d d44e 013d 0522 42bd 07b6 613d
00000370: 4626 013d cfdc 243d 5724 743d 9a60 56bd
00000380: 34e6 a438 e33e d93d 5651 543d 35c0 513d
00000390: 02f4 bcbb a692 2dbd 5210 ba3c 63de ce3d
000003a0: 91f5 e23b 785b c93d 598f 1fbc ebad 76bc
000003b0: 1141 d7bc b97d 623d 3fc4 cabc 0297 85bc
000003c0: 7af7 80bd 43f6 1e3d 869f 193d 9ddd 58bd
000003d0: e2ad 033d a4b6 86bc 86fc 04bc 3f86 52bd
000003e0: db49 48bb 58d0 523d 6a0b 15bd e74f 8a3d
000003f0: 8602 8a3d 5e22 5bbd fc70 903b 86d9 913c

b3 f4 [32]
0.17458048 0.17116994 0.17154561 0.20766635 0.20580101 0.20152646 0.09430663 0.18406066
0.18718536 0.066670224 0.21603662 0.1751774 0.18535163 0.17558308 0.120877534 0.16002814
0.15444061 0.14956822 0.11841287 0.18645751 0.17182918 0.1581532 0.14423332 0.1025404
0.119198754 0.14346279 0.23726593 0.13545492 0.17309298 0.124611035 0.1009267 0.13551499
00000000: 3ac5 323e 2c47 2f3e a7a9 2f3e 7da6 543e
00000010: 80bd 523e f45c 4e3e d623 c13d 667a 3c3e
00000020: 85ad 3f3e 668a 883d b438 5d3e b461 333e
00000030: d1cc 3d3e 0dcc 333e a48e f73d 6bde 233e
00000040: ae25 1e3e 6928 193e 7282 f23d b8ee 3e3e
00000050: fdf3 2f3e eaf2 213e e6b1 133e b400 d23d
00000060: 7a1e f43d e9e7 123e d7f5 723e b2b4 0a3e
00000070: 493f 313e 1234 ff3d a8b2 ce3d 71c4 0a3e

w4 f4 [5, 32]
-1.8979751 -2.167036 0.39616832 -2.0455086 0.6396055 1.1397544 -0.2460875 -1.9245294
2.428963 -1.3624243 -0.08490409 -1.6824968 2.7657578 -0.59433836 2.7055836 -1.9174521
0.7321255 0.9733598 -2.2007368 2.7340887 0.9050906 -2.018584 -0.6537712 -1.7176437
0.6142235 -0.3886117 -1.3781176 2.7111204 -0.23843065 -1.7168474 -0.03414672 -0.96916753
-1.248654 2.5057456 0.92282724 1.0927747 -1.341274 -1.4723816 -1.2493857 2.1571605
-1.7052264 -1.004192 -2.18461 -1.7693553 -0.9303721 -0.842703 0.0211409 -1.9215037
2.6829247 -1.6562997 0.4564569 -1.4315739 1.8346355 -1.6122245 2.7503917 0.9596317
-1.618995 -0.9844039 2.5822268 -1.4288622 2.6256773 -0.17892586 -0.8692175 -1.1528108
2.3803802 0.28739846 -2.4416964 -1.6079158 -1.9371724 2.262886 2.4438176 1.281082
-1.8116561 2.6497357 0.65529466 0.105606385 -1.282183 -1.8605729 -1.6616675 -1.0015293
-1.775843 -1.349063 2.3887706 0.26241225 1.6610858 0.15525289 -0.5231474 -0.679234
1.571218 -1.2381972 -1.8739378 -1.257326 -1.8869835 -1.1617823 2.6750994 -1.3625491
-1.5775971 0.90461737 1.658571 -0.654874 -1.7516626 -0.92866373 0.0783405 -1.8100634
0.9399676 -1.0681684 -0.71885675 2.4159665 -1.8145666 -1.6518561 -1.717316 2.0724473
-0.9450248 2.315618 0.69490314 -1.9192544 -1.9631802 -0.92727894 -1.7990009 2.3317897
1.4811679 2.5957348 -1.6642019 -0.2835523 -0.50019825 2.4757698 -1.5737617 -0.8006122
1.2549814 -1.0501944 -0.17402783 2.4665985 2.5540993 -1.5619487 -1.7397088 0.62249637
0.37959275 -0.6018059 2.6719573 -0.5624689 -0.2612875 2.651098 -1.5767677 0.26001784
-1.8092365 -1.3812627 -1.244712 -1.0647906 -1.8183894 2.5078566 -1.451608 -1.6313779
-1.9829047 -0.6683634 0.53743196 -1.5340959 -1.6632849 -0.51634604 -0.3559998 2.640708
00000000: d9f0 f2bf b8b0 0ac0 93d6 ca3e 9de9 02c0
00000010: 30bd 233f 79e3 913f 5dfe 7bbe fb56 f6bf
00000020: 2174 1b40 eb63 aebf 32e2 adbd 0e5c d7bf
00000030: 2d02 3140 8f26 18bf 4828 2d40 126f f5bf
00000040: 946c 3b3f 1c2e 793f dfd8 0cc0 4ffb 2e40
00000050: 04b4 673f 7b30 01c0 8d5d 27bf c0db dbbf
00000060: c03d 1d3f 1df8 c6be 2866 b0bf ff82 2d40
00000070: 2a27 74be a8c1 dbbf 6edd 0bbd 5d1b 78bf
00000080: e5d3 9fbf 235e 2040 683e 6c3f 0be0 8b3f
00000090: deae abbf 0077 bcbf dfeb 9fbf eb0e 0a40
000000a0: dc44 dabf 5d89 80bf a6d0 0bc0 3c7a e2bf
000000b0: de2c 6ebf 62bb 57bf ae2f ad3c d5f3 f5bf
000000c0: 0ab5 2b40 a101 d4bf b8b4 e93e d03d b7bf
000000d0: 56d5 ea3f 5f5d cebf 6b06 3040 6caa 753f
000000e0: 3a3b cfbf e501 7cbf 3443 2540 f5e4 b6bf
000000f0: 190b 2840 5738 37be 0a85 5ebf 4e8f 93bf
00000100: 2658 1840 e425 933e c144 1cc0 2fd0 cdbf
00000110: 44f5 f7bf 20d3 1040 8267 1c40 7ffa a33f
00000120: 59e4 e7bf 4595 2940 64c1 273f 2948 d83d
00000130: 931e a4bf 4127 eebf 85b1 d4bf 1d32 80bf
00000140: d34e e3bf 19ae acbf 9ee1 1840 e65a 863e
00000150: 769e d43f 9dfa 1e3e fdec 05bf 48e2 2dbf
00000160: ac1d c93f 3f7d 9ebf 32dd efbf 0ff0 a0bf
00000170: ad88 f1bf 48b5 94bf d434 2b40 0268 aebf
00000180: b4ee c9bf 0195 673f 0e4c d43f d3a5 27bf
00000190: 7b36 e0bf e8bc 6dbf fc70 a03d 28b0 e7bf
000001a0: b7a1 703f beb9 88bf ff06 38bf 329f 1a40
000001b0: b843 e8bf 0570 d3bf 03d1 dbbf faa2 0440
000001c0: 25ed 71bf 1633 1440 2ce5 313f 21aa f5bf
000001d0: 7d49 fbbf 2762 6dbf a945 e6bf 0b3c 1540
000001e0: e996 bd3f 8520 2640 9104 d5bf c42d 91be
000001f0: fe0c 00bf 0373 1e40 0671 c9bf ecf4 4cbf
00000200: 3ba3 a03f c56c 86bf 5a34 32be c0dc 1d40
00000210: 5d76 2340 efed c7bf c7ae debf ec5b 1f3f
00000220: fb59 c23e f40f 1abf 5901 2b40 f6fd 0fbf
00000230: 7ac7 85be 97ab 2940 86d3 c9bf 0f21 853e
00000240: 1095 e7bf 37cd b0bf b952 9fbf 0f4b 88bf
00000250: fcc0 e8bf b980 2040 4ace b9bf fed0 d0bf
00000260: d2cf fdbf dd19 2bbf 2495 093f 415d c4bf
00000270: 85e6 d4bf 412f 04bf 9b45 b6be 5c01 2940

b4 f4 [5]
0.1537547 0.003072957 -0.07012516 -0.010705213 -0.12941904
00000000: df71 1d3e aa63 493b c89d 8fbd eb64 2fbc
00000010: 6d86 04be

exp_avg f4 [32, 1, 3, 3]
-0.0005217331 -0.00076597556 -0.00089833885 -0.00012969291 -0.000108174274 0.00076461345 0.00013430514 0.000268826
0.0012104937 -0.0012498058 -0.001254414 -0.00021012059 0.00082871405 5.6756697e-05 -0.0012367927 0.0035007272
0.0029967304 0.0037538595 0.0007329993 0.0010439039 0.0012399682 -0.00045942978 0.00095862104 0.0010036379
-0.00037035832 0.0003787052 4.6954065e-05 0.0008228478 0.001287751 8.858697e-05 0.00011535715 0.0015836596
0.00065742695 0.0007946277 0.0016752598 0.0005145735 -0.002785248 0.00019083185 0.0011331121 -0.001238472
0.0007213499 0.0009082008 -0.00035489036 0.00012952676 0.001630072 0.0015965863 0.00073528214 0.00078718323
0.0010974995 0.0010855357 -0.00028242703 0.0034608257 0.0034955363 0.0022722066 0.0007100411 0.0006422788
0.0002922433 0.0031025074 0.002243585 0.00032719382 0.00071309827 0.00068926776 -0.0006991181 -0.00029662938
0.0006186541 -9.152411e-05 0.00035726742 0.0005606419 0.00037432567 0.0003553129 0.0003416789 0.0007705072
0.0011183416 0.00014037667 -0.0006652329 0.0010252494 0.0005538865 0.0007324764 -0.0007747044 -5.6107583e-05
0.00016497204 -0.0004887613 -0.0018025257 -0.002054605 -0.0015095297 -0.0016905969 3.703251e-05 0.0008560912
-6.051053e-05 0.0014435434 0.00059624104 -0.0026932294 0.001416384 0.0025606651 -0.0011654925 0.0015263674
0.0009545764 -0.002206157 -0.0002943569 -0.002298268 0.0011344849 -0.0007894698 -0.004331 -0.0014670305
-0.0019912692 -0.004594201 -0.0042535122 -0.0038490659 0.00032916432 0.00012224406 -0.00024440646 -0.001213397
0.000102608385 -9.11294e-05 -0.00066067657 4.0457773e-05 0.0019453575 -0.0011918728 -0.0038930273 -0.0041583464
-0.0011209297 -0.0020230643 -0.0025813899 -0.00068331393 -0.0007980095 -0.0007101574 -0.0003308831 0.0007056141
0.0011677479 -0.0013841585 0.0003227856 0.002319088 -0.0016426062 -0.0013749397 -0.00020118908 -0.0008799053
7.5939664e-05 0.0005526033 -0.0016727591 -0.00022921346 0.0005129266 -0.0018769933 -0.0007907751 -0.00037660028
-0.0010438391 -0.00033045394 -9.621817e-05 -0.0014214065 -0.000114993985 0.00017649189 -0.0015121567 0.0003127649
0.00049931864 -0.0006736089 1.1267769e-06 0.00075623754 -0.0014656098 -0.00021935275 0.00085481163 0.0006183153
0.00123469 0.0026109933 -0.00014470029 -0.0003272664 -0.0005061421 -0.0012755414 -0.0014430421 -0.00220271
-0.0016822937 -0.0018828289 -0.0023840466 2.5709336e-05 0.000111273446 -0.00019016866 0.000495759 0.00032104654
0.0010093448 0.0006956346 -9.5670795e-05 0.0011998955 -0.0035069757 -0.004328127 -0.0024169567 -0.002964922
-0.001756729 -0.0010986578 -0.0024853759 -0.0026256081 -0.001454047 -0.00015466473 -0.0010600211 0.0011762531
0.00047262365 -0.0003408492 -0.00029541575 0.0017188682 0.0014031874 0.0028025801 0.0017906723 0.0006935246
0.000564566 0.0011456357 0.0013582315 0.00067690643 -0.0006853535 0.00066756224 0.00090689637 -0.0022122527
-0.0027008564 -0.0013965635 -0.0029845492 -0.0034456442 -0.00093789905 -0.0038477192 -0.004269706 -0.0038398048
0.0032215852 0.0024732174 0.0020903468 0.001187013 0.001053056 0.0026503594 0.0015907121 0.0010506811
0.002026731 -0.002549696 -0.00045905192 0.00015776466 -0.0013553875 -0.0008622704 -0.0015091132 -0.0002078297
0.00015788472 -0.00045988205 0.00333253 0.000758704 0.0012766856 0.0028662314 0.0005489284 0.0015775068
0.0009017245 -0.00059482263 0.0008320452 -0.00048200655 -0.0028263642 -0.0027471718 -0.0014731288 -0.0029774266
-0.0020065473 -0.00047573153 -0.0018597437 -0.0011520549 -0.000303889 -0.002083839 -0.0018149749 -0.00013118629
00000000: eac4 08ba c0cb 48ba 807e 6bba 2dfe 07b9
00000010: 9fdb e2b8 5770 483a 43d4 0c39 37f1 8c39
00000020: 6ea9 9e3a 86d0 a3ba 266b a4ba d153 5cb9
00000030: 0f3e 593a 0a0e 6e38 e01b a2ba 756c 653b
00000040: cb64 443b 5003 763b c026 403a 9ad3 883a
00000050: 6e86 a23a 9fdf f0b9 f84b 7b3a 808c 833a
00000060: a72c c2b9 f48c c639 8bf0 4438 62b4 573a
00000070: c1c9 a83a c4c7 b938 e6eb f138 cc92 cf3a
00000080: 2d57 2c3a 904e 503a 6494 db3a 71e4 063a
00000090: b588 36bb 091a 4839 ef84 943a 3954 a2ba
000000a0: f918 3d3a 5314 6e3a 9410 bab9 93d1 0739
000000b0: 24a8 d53a 8c44 d13a f3bf 403a f95a 4e3a
000000c0: f9d9 8f3a 8948 8e3a b712 94b9 05cf 623b
000000d0: 5e15 653b 4de9 143b 0d22 3a3a 9a5e 283a
000000e0: 3b38 9939 7053 4b3b 1c09 133b 368b ab39
000000f0: 37ef 3a3a faaf 343a 0645 37ba ec84 9bb9
00000100: 2d2d 223a a2f0 bfb8 9f4f bb39 0bf8 123a
00000110: 2441 c439 4a49 ba39 5e23 b339 ddfb 493a
00000120: 5195 923a 1332 1339 0663 2eba a961 863a
00000130: b232 113a a903 403a 8815 4bba 0f55 6bb8
00000140: 58fc 2c39 3720 00ba ba42 ecba 8da6 06bb
00000150: 69db c5ba 0597 ddba 5b53 1b38 4f6b 603a
00000160: b0cc 7db8 4735 bd3a 0f4d 1c3a e480 30bb
00000170: f6a5 b93a d5d0 273b 70c3 98ba 6410 c83a
00000180: 8a3c 7a3a 2c95 10bb ea53 9ab9 8a9e 16bb
00000190: ffb2 943a 6cf4 4eba 10eb 8dbb 6049 c0ba
000001a0: f47f 02bb f48a 96bb 0c61 8bbb 9c40 7cbb
000001b0: b093 ac39 a42e 0039 ae23 80b9 d90a 9fba
000001c0: 752f d738 b91c bfb8 4131 2dba 34b1 2938
000001d0: 5efb fe3a 9d38 9cba 2922 7fbb bd42 88bb
000001e0: 29ec 92ba 6395 04bb 892c 29bb 6c20 33ba
000001f0: 8331 51ba db29 3aba 617a adb9 f6f8 383a
00000200: 1e0f 993a a76c b5ba 8d3b a939 d7fb 173b
00000210: b84c d7ba 5237 b4ba 48f6 52b9 72a9 66ba
00000220: cc41 9f38 94dc 103a 7b40 dbba 0559 70b9
00000230: ec75 063a 7205 f6ba 054c 4fba 6f72 c5b9
00000240: 6ed1 88ba c740 adb9 bdc8 c9b8 7d4e baba
00000250: ed28 f1b8 ae10 3939 8f33 c6ba 98fa a339
00000260: b5e4 023a 2195 30ba c23b 9735 3e3e 463a
00000270: b419 c0ba 0e02 66b9 7015 603a 7016 223a
00000280: 52d5 a13a 331d 2b3b b0ba 17b9 f494 abb9
00000290: 9fae 04ba 1130 a7ba 7524 bdba 575b 10bb
000002a0: 6980 dcba 41c9 f6ba aa3d 1cbb 61aa d737
000002b0: 7a5b e938 0368 47b9 d3f5 013a 2352 a839
000002c0: fe4b 843a 3f5b 363a dea2 c8b8 d045 9d3a
000002d0: 4ad5 65bb f6d2 8dbb ce65 1ebb 234f 42bb
000002e0: 0b42 e6ba d700 90ba b0e1 22bb 6512 2cbb
000002f0: b995 beba 7f2d 22b9 68f0 8aba 812c 9a3a
00000300: 79ca f739 01b4 b2b9 08e2 9ab9 a54b e13a
00000310: 28eb b73a 7eab 373b feb4 ea3a a6cd 353a
00000320: 62ff 133a 2829 963a b006 b23a 6c72 313a
00000330: 4ba9 33ba 58ff 2e3a c9bc 6d3a 71fb 10bb
00000340: da00 31bb e50c b7ba 6d98 43bb 51d0 61bb
00000350: 57dd 75ba 042a 7cbb e4e8 8bbb 3ca5 7bbb
00000360: 3b21 533b b415 223b 33fe 083b 8c95 9b3a
00000370: b206 8a3a a7b1 2d3b 717f d03a 02b7 893a
00000380: e7d2 043b cd18 27bb e8ac f0b9 a16d 2539
00000390: 42a7 b1ba fd09 62ba 70cd c5ba dcec 59b9
000003a0: db8d 2539 531c f1b9 9366 5a3b c3e3 463a
000003b0: 7656 a73a 62d7 3b3b f6e5 0f3a 58c4 ce3a
000003c0: b561 6c3a dfed 1bba 9c1d 5a3a d3b5 fcb9
000003d0: 863a 39bb e509 34bb 0016 c1ba ee20 43bb
000003e0: 4780 03bb 9b6b f9b9 a5c2 f3ba 8c00 97ba
000003f0: 4b53 9fb9 0491 08bb 74e4 edba 0d8f 09b9

exp_avg_sq f4 [32, 1, 3, 3]
6.525646e-05 7.612216e-05 8.4141466e-05 1.67308e-05 2.732212e-05 5.8073114e-05 2.1709659e-05 3.18319e-05
4.2397434e-05 6.4187036e-05 4.0361178e-05 2.9397854e-05 7.706625e-05 6.140196e-05 6.289856e-05 9.476624e-05
8.152904e-05 9.82999e-05 3.4397253e-05 2.1841128e-05 5.24297e-05 6.503133e-05 5.1675077e-05 5.5411238e-05
3.3570424e-05 1.5813917e-05 2.377663e-05 5.869733e-05 3.165226e-05 2.3633282e-05 5.87658e-05 4.3566026e-05
4.025921e-05 6.0105696e-05 6.25925e-05 6.504225e-05 6.007787e-05 3.6298796e-05 1.930735e-05 6.5966386e-05
5.3976084e-05 4.193002e-05 8.1386985e-05 5.940812e-05 6.37507e-05 1.2829297e-05 4.8250868e-06 4.238665e-06
4.8235197e-05 2.5244892e-05 1.4057209e-05 6.8221096e-05 7.525611e-05 5.5125463e-05 1.0466855e-05 7.732399e-06
1.416183e-05 6.319122e-05 2.6527172e-05 6.118363e-06 0.00017513639 6.530668e-05 9.316601e-06 4.8817e-05
4.7572405e-05 6.807564e-05 3.3135737e-05 3.342356e-05 5.9361995e-05 8.4539415e-06 6.5948334e-06 3.5238743e-05
8.3545325e-05 8.126892e-05 9.160257e-05 7.470333e-05 5.14653e-05 5.8790647e-05 6.074105e-05 2.8515577e-05
5.2188294e-05 1.4645901e-05 3.95702e-05 4.864416e-05 3.2463737e-05 5.418956e-05 6.317917e-05 4.5268545e-05
5.3054788e-05 6.300189e-05 3.4293647e-05 7.6153796e-05 5.8703325e-05 5.2657928e-05 9.677054e-05 3.522004e-05
0.00010150377 9.895261e-05 3.9097256e-05 6.461454e-05 2.1993113e-05 3.6455032e-05 7.611742e-05 4.5858153e-05
6.385119e-05 8.86954e-05 7.609372e-05 7.731427e-05 5.0680796e-05 9.636139e-06 8.82166e-06 6.630881e-05
1.9871928e-05 1.6327422e-05 9.557186e-05 6.5586624e-05 5.1135008e-05 3.144078e-05 9.602135e-05 0.00016781906
1.5351425e-05 6.9779366e-05 0.00013894924 2.0686633e-05 5.057638e-05 0.00010412822 1.3334627e-05 1.0209798e-05
3.480143e-05 4.921253e-05 4.5918645e-05 6.772613e-05 3.7901293e-05 5.4231838e-05 8.097108e-05 6.932918e-05
5.893347e-05 5.0202685e-05 8.414516e-05 5.1625262e-05 3.5554454e-05 8.758613e-05 4.038457e-05 2.0602027e-05
5.886625e-05 5.0258684e-05 4.958168e-05 4.7669782e-05 2.4242207e-05 3.4948447e-05 4.0086063e-05 1.4660347e-05
3.908426e-05 8.538489e-05 4.2830095e-05 2.68848e-05 7.91854e-05 3.1955486e-05 3.75731e-05 9.044684e-05
6.715827e-05 9.902581e-05 1.0788958e-05 1.0824074e-05 1.1934684e-05 5.4418913e-05 5.3261054e-05 5.8329966e-05
0.00011448303 0.000112627 0.00012020429 2.165923e-05 4.0472332e-05 2.2400822e-05 2.2481332e-05 5.717327e-06
1.9417572e-05 1.2217172e-05 2.7057173e-05 0.0001011849 9.49678e-05 0.00010329952 8.040299e-05 0.00011425886
5.9790178e-05 3.7523172e-05 9.886074e-05 9.15556e-05 7.121911e-05 7.648427e-05 6.3916756e-05 2.6099384e-05
7.535603e-05 9.7229604e-05 7.169784e-05 4.2598014e-05 7.781567e-05 8.5091786e-05 9.8507415e-05 7.0464244e-05
1.7582832e-05 9.298656e-05 5.7128516e-05 9.627619e-06 8.022216e-05 6.26292e-05 1.3755075e-05 2.1374546e-05
4.454463e-05 5.1438776e-05 4.9748494e-05 5.448016e-05 5.7910303e-05 8.814444e-05 7.000287e-05 7.314433e-05
6.937818e-05 5.9777944e-05 6.67055e-05 6.631896e-05 9.540091e-05 0.0001054319 1.4994908e-05 4.5018493e-05
8.638828e-05 0.00013294241 0.00012458142 0.00010189017 0.00010208359 7.4629614e-05 6.647665e-05 2.826521e-05
1.3205133e-05 1.3488305e-05 7.976183e-05 3.0092053e-05 8.80804e-06 8.172516e-05 2.6516018e-05 1.0146343e-05
8.5087064e-05 3.1400323e-05 8.50165e-06 7.7886296e-05 8.31384e-05 8.847741e-05 3.3059325e-05 5.9731887e-05
8.167657e-05 1.9363091e-05 5.5040997e-05 7.401757e-05 2.7108248e-05 4.866663e-05 5.1754276e-05 5.5499655e-05
00000000: 4cda 8838 c6a3 9f38 1b75 b038 1f59 8c37
00000010: ce31 e537 8893 7338 231d b637 3e83 0538
00000020: e6d3 3138 279c 8638 7c49 2938 699b f637
00000030: a19e a138 edc4 8038 68e8 8338 3dbd c638
00000040: 92fa aa38 5b26 ce38 c545 1038 7737 b737
00000050: f6e7 5b38 6e61 8838 b1bd 5838 5d69 6838
00000060: f8cd 0c38 21a8 8437 ed73 c737 c731 7638
00000070: 5bc2 0438 1640 c637 4c7b 7638 aaba 3638
00000080: ffdb 2838 001a 7c38 1844 8338 4b67 8838
00000090: 1ffc 7b38 893f 1838 38f6 a137 6f57 8a38
000000a0: 6164 6238 04de 2f38 4eae aa38 fc2c 7938
000000b0: e5b1 8538 693d 5737 2ee7 a136 db39 8e36
000000c0: 2650 4a38 fec4 d337 41d7 6b37 ec11 8f38
000000d0: d1d2 9d38 8436 6738 cd9a 2f37 67ba 0137
000000e0: 9998 6d37 8785 8438 ab86 de37 574c cd36
000000f0: d1a4 3739 42f5 8838 7f4e 1c37 dbc0 4c38
00000100: 7b88 4738 d5c3 8e38 3afb 0a38 4630 0c38
00000110: 75fb 7838 67d5 0d37 3049 dd36 50cd 1338
00000120: 0e35 af38 eb6e aa38 c11a c038 0baa 9c38
00000130: 72dc 5738 fa95 7638 35c4 7e38 bc34 ef37
00000140: c1e4 5a38 aab7 7537 2ef8 2538 4507 4c38
00000150: ac29 0838 9949 6338 0f7f 8438 bbde 3d38
00000160: 2587 5e38 e21f 8438 86d6 0f38 c2b4 9f38
00000170: 3738 7638 05dd 5c38 4af1 ca38 3bb9 1338
00000180: 6cde d438 c784 cf38 5cfc 2338 ab81 8738
00000190: da7d b837 4be7 1838 3ba1 9f38 d157 4038
000001a0: d9e7 8538 fb01 ba38 8194 9f38 c823 a238
000001b0: 1792 5438 e7aa 2137 be00 1437 450f 8b38
000001c0: a4b2 a637 dff6 8837 c06d c838 8d8b 8938
000001d0: cc79 5638 48df 0338 125f c938 96f8 2f39
000001e0: efc6 8037 8356 9238 e7b2 1139 3588 ad37
000001f0: f921 5438 6a5f da38 c9b7 5f37 c04a 2b37
00000200: c0f7 1138 8d69 4e38 c598 4038 3008 8e38
00000210: 34f8 1e38 fe76 6338 04cf a938 d264 9138
00000220: 552f 7738 b990 5238 1777 b038 3488 5838
00000230: 4e20 1538 72ae b738 9a62 2938 84d2 ac37
00000240: 28e7 7638 dacc 5238 ecf5 4f38 0af1 4738
00000250: be5b cb37 9c95 1238 1522 2838 b6f5 7537
00000260: 68ee 2338 aa10 b338 77a4 3338 ab86 e137
00000270: 5710 a638 f107 0638 cf97 1d38 47ae bd38
00000280: 52d7 8c38 14ac cf38 3902 3537 0b99 3537
00000290: 143b 4837 dd3f 6438 9f64 5f38 53a7 7438
000002a0: 9c16 f038 2932 ec38 3016 fc38 d8b0 b537
000002b0: d6c0 2938 66e9 bb37 4b96 bc37 77d7 bf36
000002c0: ebe2 a237 5bf8 4c37 d6f8 e237 3b33 d438
000002d0: 7329 c738 82a2 d838 079e a838 429e ef38
000002e0: 37c7 7a38 3362 1d38 7553 cf38 8a01 c038
000002f0: 785b 9538 2e66 a038 0c0b 8638 00f0 da37
00000300: 7608 9e38 bfe7 cb38 7c5c 9638 45ab 3238
00000310: f830 a338 4e73 b238 c495 ce38 34c6 9338
00000320: d87e 9337 c701 c338 479d 6f38 4f86 2137
00000330: f23c a838 cc57 8338 99c5 6637 7d4d b337
00000340: 6fd5 3a38 f7bf 5738 0aa9 5038 a081 6438
00000350: b7e4 7238 30da b838 81ce 9238 1065 9938
00000360: 207f 9138 14ba 7a38 3ee4 8b38 b814 8b38
00000370: f911 c838 521b dd38 a492 7b37 3dd2 3c38
00000380: 5b2b b538 7566 0b39 12a2 0239 dead d538
00000390: b615 d638 7882 9c38 6169 8b38 141b ed37
000003a0: 9d8b 5d37 d44b 6237 ce45 a738 316e fc37
000003b0: 3ec6 1337 dc63 ab38 b76e de37 363a 2a37
000003c0: c570 b238 d7b3 0338 4fa2 0e37 e356 a338
000003d0: 975a ae38 f38c b938 2ea9 0a38 a088 7a38
000003e0: c649 ab38 ec6d a237 d2db 6638 e139 9b38
000003f0: 8566 e337 651f 4c38 bb12 5938 4dc8 6838

exp_avg f4 [32]
1.9909896e-09 -4.5535415e-09 -1.1916158e-09 1.3910386e-09 -9.770881e-10 4.0909265e-10 2.4133116e-09 -1.5506818e-09
4.6251185e-09 1.3675303e-09 -2.1990962e-09 -1.6012492e-09 8.121801e-10 7.5272816e-11 -1.2833431e-09 4.1046275e-10
-8.373945e-10 1.4750925e-10 -1.434508e-09 2.5704288e-09 -4.090985e-09 -6.0596256e-10 1.641162e-09 -7.03811e-10
-9.111312e-10 1.14685136e-10 1.0270863e-09 -3.733389e-10 4.1544493e-10 -2.1278426e-09 1.1130427e-09 5.765678e-10
00000000: dcd1 0831 6075 9cb1 41c6 a3b0 d22e bf30
00000010: 3b4a 86b0 ace6 e02f 6dd7 2531 c41f d5b0
00000020: f9ea 9e31 b2f3 bb30 e91e 17b1 f312 dcb0
00000030: 1840 5f30 d486 a52e 9f61 b0b0 7fa7 e12f
00000040: 662e 66b0 2a30 222f 4328 c5b0 76a3 3031
00000050: af90 8cb1 d390 26b0 418f e130 4c76 41b0
00000060: 2973 7ab0 fe31 fc2e 6329 8d30 c73e cdaf
00000070: ad64 e42f 6739 12b1 b5f9 9830 5a7c 1e30

exp_avg_sq f4 [32]
7.327103e-17 2.680058e-16 4.9679353e-17 4.6438697e-17 2.6882825e-16 4.254962e-17 1.9832386e-16 3.1244034e-17
1.0571255e-16 4.6456544e-17 4.8722242e-17 4.8512565e-17 4.5498484e-17 5.930243e-17 3.1646742e-17 5.7266005e-17
4.7190002e-17 7.183624e-17 8.5569307e-17 1.2486205e-16 7.444424e-17 5.9032386e-17 4.4863835e-17 3.9486886e-17
7.0225285e-17 7.3614224e-17 3.7101654e-17 4.615652e-17 5.459084e-17 4.0293752e-16 4.200807e-17 6.762494e-17
00000000: 95f3 a824 ad7e 9a25 071b 6524 2329 5624
00000010: 0cf8 9a25 ba39 4424 dfa6 6425 7216 1024
00000020: adc1 f324 353e 5624 12b1 6024 87b9 5f24
00000030: 21d3 5124 fabd 8824 e1f1 1124 e20b 8424
00000040: 1fa0 5924 a2a4 a524 344f c524 c6f4 0f25
00000050: 1fa8 ab24 921e 8824 dee5 4e24 e319 3624
00000060: b1ed a124 2bbe a924 e719 2b24 00dc 5424
00000070: 7dc1 7b24 1547 e825 60ba 4124 b8ee 9b24
