CS330/XCS330-PS3/src/submission/logs/maml/omniglot.way_5.support_1.query_15.inner_steps_1.inner_lr_0.4.learn_inner_lrs_False.outer_lr_0.001.batch_size_16/state8900.pt (torch, 353132 bytes, 30 tensors)

conv0 f4 [32, 1, 3, 3]
00000000: a4c5 73bd f4f9 a1be 774b 2f3f 31d2 bbbe
00000010: 44c2 aabe c46a 98bd 6c56 7ebd f1c4 19bd
00000020: 761a d3bd 0c47 463e d768 a73e a1c9 7bbf
00000030: 612d 8cbc 8258 bcbc feeb 103e 5a48 c3bd
00000040: d7fd 5a3d 53d9 0e3e 1017 3cbe 4c0e b7be
00000050: 3eb5 8b3d 6131 b53e aee3 2f3c 9cef ad3e
00000060: 57d2 4dbe 066d b0be dea5 ebbe 150f d13d
00000070: 706e e2be eabd 12bf 7882 0a3e f214 34bd
00000080: 7166 e4be 2a9d bf3e a5c9 2f3e 0a08 903e
00000090: ec28 ec3e 9d7b e4be fc13 523f 0301 7ebc
000000a0: d480 bc3c dfa6 fc39 a24f b1ba 9694 90bc
000000b0: 71b4 4e3d 73df 0ebf 52bd f4be ef0d 8ebe
000000c0: ecdf bd3e 189d f7bd 48b9 c4be ba4a bcbd
000000d0: d03e af3e 7610 eebd 7f33 14bf aa2d 0dbf
000000e0: bae4 38be c090 5e3d b275 d23c 0b0e 0ebf
000000f0: a626 6d3e 06e1 c43d 556a 19bf 40bf 65bc
00000100: e612 b23e be75 fe3d 3fcc 253d 25c0 6e3e
00000110: 9526 e5bc be37 3fbf 830c 4dbf 40a4 3dbe
00000120: 69c8 54bc 0407 1ebd fa0d ca3c 28e6 46bc
00000130: e820 f8bc c8ea b8bc ff94 f83e 493a 77bf
00000140: a820 c33e 3cb8 2dbf 9112 67be eeb5 dc3e
00000150: 3b2a bfbe 72be 353e 5d4a 573e 3160 f9bc
00000160: 4d31 8bbc f233 18bc d9d4 c3be 096e 81bd
00000170: 708b 283c 4d1b 6abe 3efa 033c 80a4 a6bd
00000180: 4c5e fe3e 7747 413e ec18 41bf 6a58 0dbf
00000190: 5473 aebd 370b 35be 91d8 6c3e 95ee a7be
000001a0: 0d3a f83d 7c8d d53e 994e efbe d8a7 893e
000001b0: a35f 79bd 23d9 babe 7608 d6be a55d 7dbe
000001c0: f62e 24be c7cd 17be da13 153f fe9a 82bd
000001d0: d037 aebd 3c16 32bf 5a90 933e 9495 903e
000001e0: 599d 51bf a7c3 ed3d 9872 993e 6593 64be
000001f0: 270b 12bf aca5 84be edd5 24bf cb39 24bf
00000200: df4c 6abe 1a6c 963e d44a af3e 628f a83d
00000210: c8fa 74be 23a9 4abd a4a9 4f3e d5c3 f23d
00000220: c5c2 3d3e 44a5 f83e 7765 2e3d 273b 52be
00000230: 26a5 1dbf 4b63 283e d588 35be 842d e7be
00000240: a82a 21bd a8d5 acbd f3ef af3e c951 3c3e
00000250: dd1a 06bf a056 783e d092 953c 70cf 31bf
00000260: 6bc2 ab3d 1b52 053f f0d3 7ebe 2fd2 eebe
00000270: 912c 0c3e 4725 1ebf 4c88 863d f00a 54be
00000280: b331 a1bd 1561 8c3e b223 33bf 165d 59bf
00000290: ea2f 52bf 6e0f 0bbe 47a7 133e 0ffa 143d
000002a0: 3c0d 0d3e 3ea9 c43e 0b43 fc3d e7f1 62be
000002b0: 6ec0 063e 5d4a cebd 3c96 2cbd adb8 cfbe
000002c0: edb6 e8be 6050 98be 1b9e 3cbe 1750 b03e
000002d0: 86d4 05be 8848 923d 00ef b23e 4a35 203e
000002e0: a3ab 50be d3c8 67bf 6753 9ebd 0681 1e3d
000002f0: d507 e53e 59ce 7a3e e4d0 98be f897 e1be
00000300: 23f6 b63d 0708 fa3e 9bcf a3be 4017 16bf
00000310: ab07 f63d 245d 553e 07d7 0a3e e2bc 323e
00000320: b275 2dbf 6d07 3f3e 882d 993e 99ca 4cbf
00000330: fecc 01bd 02bc 1ebd 0e30 3ebf 3d03 5cbf
00000340: 1665 5fbd 6357 93bc 5150 45be 8e7a ac3e
00000350: b554 a0bc a400 a93d 8582 ee3e 452a 2cbe
00000360: fef3 17bb 1abe 8fbd 2abc ddbe a5ee 8bbd
00000370: 570c 793b b71c e33e c369 2cbf 6065 d6be
00000380: f9b1 e03e ac39 5b3e a5ed 8e3e 3303 c6bc
00000390: 23d8 613e bc85 b03e c9ad 76be 208c 58bf
000003a0: e511 84bf 0221 3dbf 4491 6a3e 16b1 05be
000003b0: c399 27bf 4abd 853e 45ed 1f3b 7fce 20bf
000003c0: 4984 7d3e 79ba 98be 3259 0ebf 6eda aebb
000003d0: 8ec2 153e 2f14 f13d 54ce 3abf faea b53e
000003e0: 6528 4d3e e3c0 4cbf de25 5dbc ec0f 563d
000003f0: be12 16bf 12aa 593d dc4f ed3e e2eb 4fbd
-0.059514657 -0.31636012 0.68474525 -0.366838 -0.33351338 -0.07442239 -0.062094137 -0.037541334
-0.103077814 0.1936304 0.32697174 -0.98354536 -0.017111482 -0.022991423 0.14152524 -0.09535284
0.053464737 0.1395009 -0.18368173 -0.35753095 0.068216786 0.35389236 0.010735435 0.3397187
-0.2009977 -0.34458178 -0.46024984 0.10207955 -0.44224882 -0.57321036 0.13526332 -0.043965288
-0.44609407 0.37424594 0.17166765 0.28131133 0.4612497 -0.4462556 0.82061744 -0.015503171
0.023010649 0.00048189514 -0.0013527761 -0.017648976 0.05046505 -0.55809706 -0.4780069 -0.27745005
0.370849 -0.1209051 -0.38422608 -0.091939405 0.3422761 -0.116242334 -0.57891077 -0.551478
-0.18056002 0.054337263 0.025690887 -0.5549018 0.23159274 0.09613232 -0.59927875 -0.014022648
0.34780043 0.12424801 0.040477987 0.23315485 -0.027972499 -0.7469443 -0.80097216 -0.18519688
-0.012987235 -0.03858091 0.024664868 -0.012139834 -0.030289128 -0.02257289 0.48551175 -0.9657331
0.38110852 -0.67859244 -0.22565676 0.4310755 -0.37336907 0.1774843 0.21024461 -0.030441375
-0.016991282 -0.0092897285 -0.38248327 -0.06319816 0.010287151 -0.22861977 0.008055268 -0.08136845
0.49681318 0.18874918 -0.7542865 -0.55213034 -0.08518091 -0.1768006 0.23129489 -0.3279921
0.12120447 0.41709507 -0.46739653 0.26885867 -0.060882222 -0.36493787 -0.4180333 -0.24742754
-0.16033539 -0.14824592 0.58233416 -0.06377219 -0.08506739 -0.69565177 0.2882107 0.2823912
-0.8188072 0.11609583 0.2997024 -0.22321852 -0.5704827 -0.25907648 -0.64388925 -0.64150685
-0.22880886 0.2937935 0.34236777 0.08230473 -0.2392379 -0.049477708 0.20279557 0.11853758
0.1853133 0.48563588 0.042577233 -0.20530377 -0.6158012 0.16444127 -0.17727979 -0.45151913
-0.03934732 -0.08439189 0.34362754 0.18390574 -0.5238474 0.24251795 0.018258482 -0.6945715
0.08386692 0.5207841 -0.24885535 -0.46644732 0.13688876 -0.6177563 0.06568965 -0.20707297
-0.078708075 0.27417818 -0.6997634 -0.8490766 -0.8210436 -0.13580105 0.1441928 0.036371287
0.1377458 0.38410372 0.12317475 -0.22162591 0.13159344 -0.100727774 -0.042135462 -0.40570584
-0.4545206 -0.2974882 -0.18419687 0.34436104 -0.13069353 0.071427405 0.34947968 0.15645328
-0.20377974 -0.9054081 -0.077307515 0.038697265 0.44732538 0.24492778 -0.2984687 -0.44061255
0.089336656 0.4883425 -0.31994328 -0.58629227 0.12013181 0.20836312 0.13558589 0.17454866
-0.67757714 0.18655176 0.2991755 -0.7999664 -0.031689636 -0.038753517 -0.74292076 -0.8594244
-0.054539762 -0.017986005 -0.1926892 0.33687252 -0.019571641 0.08252075 0.46583953 -0.16813
-0.0023186202 -0.07018681 -0.4330762 -0.06832627 0.003800174 0.44357845 -0.6734888 -0.41874218
0.43885782 0.21408719 0.27915683 -0.024171447 0.22055106 0.3447703 -0.24089731 -0.84588814
-1.0317961 -0.7387849 0.22906977 -0.13055834 -0.65468997 0.2612098 0.0024402898 -0.6281509
0.24757494 -0.29829767 -0.5560485 -0.0053360974 0.14624998 0.11771428 -0.7297108 0.35530835
0.2003494 -0.7998182 -0.013497798 0.052261278 -0.5862235 0.053140707 0.4634999 -0.050762065

b0 f4 [32]
00000000: bfea af3c da4e 2f3c b1f8 94bd bcd4 2d3d
00000010: 5bfb 48bd b18a cbbd be4a 233d efb5 633d
00000020: c775 253c 62be 683d a2a8 c1bc ebf5 08bc
00000030: b43b 0a3d edd7 c3bd c641 b4bb e610 febb
00000040: e09e 36bd ede9 1d3d 4b7a b3bd 70e2 f4bd
00000050: 65f8 263c 8782 c0bd e9ad 11bd a85a 3a3c
00000060: 92c4 e63c fa01 8dbd 91f5 81bc d95c 69bc
00000070: b909 3bbc 9af9 9ebd 01ae c4bc cb4b cdbd
0.02147424 0.010699952 -0.072739966 0.042439207 -0.049067836 -0.09938563 0.0398662 0.055593427
0.010098881 0.05682219 -0.02363998 -0.008359413 0.033748344 -0.09562669 -0.005501005 -0.0077534793
-0.04458511 0.038553167 -0.0876356 -0.11957252 0.010191058 -0.09399896 -0.035566244 0.011374153
0.028169904 -0.068851426 -0.015864165 -0.014243328 -0.011415892 -0.077624515 -0.024008753 -0.10024222

conv1 f4 [32, 32, 3, 3]
00000000: 7c0d 95bc 944a 65be 9ff3 0abe d714 263d
00000010: 06b7 80bd ded2 39be c460 2dbe 8b17 9e3d
00000020: 4be0 66bd 007a 1d3e b933 a4bc fd61 84bd
00000030: 9898 433d adfc 1b3e f811 bc3d 225d 14bd
00000040: 5c48 23be b507 383d dab9 4cbe f7cf 8bbe
00000050: bfed 653e 502a 7bbe 9f2d 34bd 766b 913d
00000060: 5647 4f3d 02c5 273e 4fc2 e23d 5956 083e
00000070: 6a4c 8abd ff74 3bbe 7cf0 6e3e 49bd 7c3d
00000080: 50d9 a33d a4aa 263e e539 b7bd 7fdd e43d
00000090: 547d 433c e6b9 efbd ccc6 4f3e 7412 98bd
000000a0: 121a 04be 9db4 f2bd 08c6 493b 8c56 9a3d
000000b0: 69c0 43be 80c4 52bd 409b d8bc 8e72 c2be
000000c0: d768 063e dd33 01bc acc1 a43d 850c e8bc
000000d0: be2d 2f3e 7d82 cebd 363b a2be 3d91 d2be
000000e0: 1464 24bf e15d 1d3e 16a1 103e b25d 31be
000000f0: 6907 05be 327e 303e 1873 97bd 00ce 32be
00000100: e9cb bbbd 53f5 06bd 1539 8b3d 5b69 483d
00000110: 160d 3d3e daa2 84be 6a3e 2abe 1a0a f03d
00000120: 44ba 4bbc a5f1 55be 9c08 2cbe 83b7 5f3e
00000130: ea92 58bd fcd4 26be af11 0e3f 90c8 a13e
00000140: 394d ae3e 4b69 d8bd cee5 b93d e1aa 283e
00000150: c8bd 97bd 4d1f 093c 7692 07bd 4a27 8b3d
00000160: f7f2 aa3d 1ed9 a1be f3a8 45bd 04dd 55bd
00000170: b4dc 00be 3721 5a3e 17d2 063e 3a88 b3bd
00000180: b774 903c fb0d c2bb 9b04 84be cf3d c3be
00000190: 05f6 08be 443b 48be 60f2 903d 5995 3fbd
000001a0: 3e8d 1fbe f5ea 9a3e dd9a e6bd 8647 a0bd
000001b0: efc0 4bbc 30f7 46bd b973 3dbe eedc 203e
000001c0: e6f4 c23c 6be4 af3d 3226 593e 8257 183d
000001d0: ce36 503d 907b 9dbe cd8f 66bd 65b9 4abe
000001e0: 55a3 88be 9520 fd3d d410 2bbe 9cbb d3be
000001f0: 588b 9bbe 76ca 3dbe b9ab a3be 3185 1dbc
00000200: 2251 37be e0f8 d83d 8776 d13d 8075 9f3d
00000210: 536e 723e 4962 79bd 98f1 3cbd b054 c83d
00000220: 6425 9f3c dba2 853e fc6e 1f3e 641a 45bd
00000230: 431f 6d3e 79cf 3f3c 1bb4 92bd 871e a0bd
00000240: 66a8 d939 92c6 66be 7103 d6bc 09cb 7dbc
00000250: 6d32 0cbe 2fe2 04be 8224 8e3e b27b 573e
00000260: 4c46 90bd 75ea 5b3d a0b9 9abd 4b48 123d
00000270: 019c 6f3b d2d2 c5bd 6282 a3bb 1632 9e3d
00000280: 4017 6fbe 39ba 1ebe 8214 2bbe 3f54 23be
00000290: c7c0 c8bd b8d6 8b3d f257 513e 02ee d83d
000002a0: 53b0 dfbc 8b44 64be 8745 e53c e14a e1be
000002b0: 2c16 a6bd 355b ffbe 527e b73d 953e 033e
000002c0: 3c3d 17be 74f2 b8be 1711 cebe a7ee afbe
000002d0: b031 5b3d fefd e53d 2722 023f 1541 873c
000002e0: ec07 48be 64b9 3a3e f7a6 22bc 616a 013d
000002f0: 55b1 283e a826 f33c f50b 753d bd95 82bc
00000300: 1ada 64bd 912a c4bb 2422 77bd d3e4 233e
00000310: 08c1 b93d 08c4 733e 02ed 7bbe 00c5 53be
00000320: 6585 bbbe c2e6 3dbc 99db 46bd e63b b7be
00000330: 2c58 bc3d 3acc 723d 5280 dbbe 4361 243c
00000340: 8949 7abd bb6a ac3d 8915 993d edae 0b3e
00000350: 3c41 8d3d 6e50 6c3e 902e 593d c3bd 76be
00000360: e849 a13d 39b0 eb3d 0e7a 08bf 5a58 82ba
00000370: 26d0 603e 3814 aabc 5eb4 da3d d8a0 fb3d
00000380: 5a1d c3bd cf85 a8be 600b 3fbe e358 69bc
00000390: 69bf 5fbc d496 39be 20bb 1ebd c0bc 9abe
000003a0: 88a6 ccbe 2cd7 e0be 817e 9a3c f0b2 a6be
000003b0: b259 07bf 17a2 2a3e 7181 543d f696 78be
000003c0: ec39 9f3e 1dd6 5e3e 0e03 77be ac70 acbd
000003d0: 874f 0bbd bc6f d0be 3913 95bd 636f 0cbd
000003e0: e10d 16be 29e6 883d e28f d63d df42 033d
000003f0: 4e02 ebbc 24e7 c73d 9d83 b33e c541 2f3d
-0.018194906 -0.2239173 -0.13569497 0.04054722 -0.06284909 -0.18146846 -0.16931444 0.07719334
-0.056366246 0.1537857 -0.020044195 -0.06464002 0.047752947 0.15233107 0.09183115 -0.03622163
-0.15945572 0.044929225 -0.19992772 -0.27307102 0.22453974 -0.2452786 -0.04398882 0.07100575
0.05060514 0.16383746 0.11072218 0.13314189 -0.06752856 -0.18306349 0.23333925 0.061703954
0.080004334 0.16276032 -0.089465894 0.111750595 0.011931736 -0.11705379 0.20290679 -0.07425395
-0.1290057 -0.118508555 0.0030788202 0.07536039 -0.19116367 -0.05145693 -0.026441216 -0.37978023
0.1312593 -0.0078859 0.080447525 -0.028326282 0.17107293 -0.100834824 -0.316858 -0.41126433
-0.6421521 0.15367843 0.1412395 -0.17320898 -0.12991108 0.1723564 -0.07394999 -0.17461395
-0.09169752 -0.032948803 0.06797997 0.0489286 0.18462023 -0.25905496 -0.16625372 0.11720677
-0.012434546 -0.20892961 -0.16800159 0.21847348 -0.052874483 -0.16292185 0.55495733 0.3159833
0.3404329 -0.10566958 0.09077035 0.16471435 -0.07409245 0.008369279 -0.03309866 0.06794603
0.08347123 -0.3161096 -0.048256826 -0.05221273 -0.12584192 0.21301733 0.1316608 -0.087662175
0.017633779 -0.0059220768 -0.25784764 -0.38133094 -0.13375099 -0.19553858 0.07077479 -0.04677329
-0.15581223 0.30257383 -0.112600066 -0.07826142 -0.012436136 -0.04857558 -0.18501176 0.15709278
0.023798417 0.08588489 0.21205977 0.03719283 0.050833516 -0.30758333 -0.056289483 -0.19797285
-0.26687112 0.1235973 -0.16705638 -0.41354072 -0.30379748 -0.18534264 -0.3196695 -0.009614275
-0.17902043 0.10594344 0.102276854 0.07786083 0.23674898 -0.060884748 -0.04612884 0.09781778
0.019427009 0.2610081 0.15569681 -0.04812087 0.23156457 0.01170718 -0.07163259 -0.07818323
0.00041514932 -0.22536686 -0.026124688 -0.015490302 -0.13691111 -0.12976907 0.27762228 0.2104328
-0.07044658 0.053690393 -0.075549364 0.035713475 0.0036561491 -0.096593514 -0.004989908 0.07724397
-0.23348713 -0.15500726 -0.16707042 -0.15950106 -0.09802394 0.06828064 0.20443705 0.105922714
-0.027305758 -0.22291772 0.027987255 -0.4400244 -0.08109698 -0.49874273 0.089596406 0.12816842
-0.14769453 -0.36122477 -0.40247414 -0.34361765 0.053514183 0.11230086 0.5083336 0.016510526
-0.19534272 0.18234783 -0.009927503 0.03159559 0.16473897 0.029681519 0.059825856 -0.015940541
-0.05587206 -0.0059865196 -0.060335293 0.16005258 0.09070021 0.23805249 -0.2460213 -0.20680618
-0.3662521 -0.0115906615 -0.04854927 -0.35787886 0.09196505 0.059276797 -0.42871338 0.010032955
-0.061105285 0.08418795 0.07474811 0.13640948 0.06897208 0.23077556 0.05302292 -0.24095826
0.078754246 0.11508221 -0.5331124 -0.0009944544 0.21954402 -0.020761594 0.106789336 0.12286538
-0.09527083 -0.32914588 -0.18656683 -0.014242384 -0.013656476 -0.18123943 -0.038752675 -0.3022213
-0.39970803 -0.43914163 0.01885915 -0.32558393 -0.5287124 0.16663395 0.051881257 -0.24276337
0.31098878 0.21761365 -0.24122259 -0.08419928 -0.03401139 -0.40710247 -0.07279057 -0.034285914
-0.14653732 0.066845246 0.10476662 0.032046195 -0.028687622 0.097608835 0.3506135 0.042787332

b1 f4 [32]
00000000: e2b3 9a3e d41c b43c 03b8 1dbc ac10 b2bd
00000010: 5029 f23c 4dff 7739 b69f f13d 21d5 c7bc
00000020: 2ee2 adbc f3ab 32bd 7c25 733c dac4 7c3d
00000030: 5743 1a3d 658f 99bb 5376 fe3b 5185 6cbc
00000040: 7eab dd3b 6f6a 4dbd 0040 cd3c c920 6dbc
00000050: 8e3b 613c 77e5 053d fecc 473c f32f a03c
00000060: 5ab5 703d 06fa 33bc ecc1 a23d c6e7 293d
00000070: 7043 343c fecc 67ba c3a7 6abc 0afe 303d
0.30215365 0.021986403 -0.009626391 -0.08694586 0.029560715 0.00023650863 0.117980406 -0.02439362
-0.021226015 -0.043621015 0.01484048 0.06171117 0.037661877 -0.0046862834 0.00776557 -0.014436082
0.006764828 -0.05015033 0.025054932 -0.014473149 0.013747109 0.032689538 0.01219487 0.019554114
0.0587667 -0.010984903 0.07947144 0.041480802 0.0110024065 -0.0008842497 -0.014322224 0.04321102

conv2 f4 [32, 32, 3, 3]
00000000: 295a 893d 788c 293d 5527 33bd 04d5 013e
00000010: 27e1 adbb 422e e03d 1f43 493d 42b5 d83c
00000020: 1c76 30bd 213d 273d 0a13 343d 3692 fd3c
00000030: ed76 af3d 60a2 7a3d ab37 19bd 2c60 f1bb
00000040: 4224 f73c 84af a23d 8ebc c93c 7e84 923a
00000050: cb6f 30bc 91e2 433d a725 803d 52ca b13b
00000060: 50b7 8b3d 9cd9 b03a f466 edbc b5a0 6fbb
00000070: 9850 e9bb a7ce 61bd 2f03 f13b 0d68 aabd
00000080: 45bd bebd 2798 5abd 682f 66bd ddd0 64bd
00000090: 6522 333d 33bc 27bd 417f 28bd 9ea3 2fbd
000000a0: b544 35bc 743e c13d ce3c dc3d 2842 2e3d
000000b0: baef 4a3d 742c 133d ab5d 403d e969 f7bc
000000c0: 0a70 4fbd 24a3 563d 243f 8bbc 31a5 f53d
000000d0: 3a7a 3f3c 81d1 143c 7a7b d93d d286 1fbd
000000e0: dcd4 343d 2e93 95bc 8d39 ec3d 7c25 1fbd
000000f0: 812a be3c c487 a13c 82c0 273d aa46 1a3d
00000100: c741 0f3d 5ada 1f3d eda0 8d3c 6903 433d
00000110: acae 02bd 748c 2e3d 090c d6bc d310 e73c
00000120: 2329 1c3c 2cce b03c 2123 e23a ddd3 70ba
00000130: db92 793c fd47 4e3d e46b d93c 664a acbc
00000140: 42d2 62bd fb62 22bd 1c6b e2bc 75ea 1cbd
00000150: 8caf 643d 8b00 373c 453c dcbd 234e c73d
00000160: f060 02bd e244 113d bb54 ffbc 7154 943d
00000170: ed9c e0bd 7170 d6bc 6d88 8cbd 86f7 133a
00000180: eba2 383d d574 10bd af7b a9bd 4879 903d
00000190: 6dc2 43bc 1443 8d3d f7de 53bd e749 d73c
000001a0: 5305 d33d 0cfa 60bd dafc de3b cc5a 603d
000001b0: 1b20 9e3d 2f03 3d3d d486 27bd f33f 8c3c
000001c0: e6d1 963d eed6 ea3b b139 f8bd a93c c1bd
000001d0: 0f15 16bb 1d74 0c3d 14d1 36bd 6917 03bb
000001e0: 6ae2 4ebd 9a8d 983d 7270 ac38 a755 90bd
000001f0: 7c09 523d 9730 83bd 9e61 19bd b8a3 ea3c
00000200: 351e 6abc a323 31bd a590 1d3d e084 6b3c
00000210: 8a39 de3b cd87 b93c 8219 4ab9 3764 613c
00000220: 78ac 233b 2ba0 f4ba ad5f fe3c 40a7 3abd
00000230: f2e1 053c b47e 40bc 1833 1c3d 6f16 84bd
00000240: ece5 31bc 48aa 20bd 8e95 39bc b390 493c
00000250: d5f5 6fbd baa4 d93c 44fc 35bd f03c 4e3d
00000260: 73cd 0d3d 0820 db3a 949d 6c3c 6baf cb3c
00000270: 5585 943d de0c 07b8 a9a0 fe3b bcb2 02bb
00000280: 8104 7e3d 4022 593b bc8c 0bba 78e4 bc3d
00000290: 442f 5cbc 1b87 453d cec8 61bc ecd5 9d3d
000002a0: e1ef 683d 4b2b 713d b966 f6bc 35ed 65bc
000002b0: 83d2 29bd 4a28 3bbd 56aa d93b a6ae 913c
000002c0: 402e 8a3d 0a02 c93c 1441 91bc 1623 563d
000002d0: b0e0 123e fc38 cebc 54e6 e5bd ea95 dc3c
000002e0: 1fd4 a1bd 39f7 ddbd 3b47 7fbd 4c47 99bd
000002f0: 69e2 0bbe dd53 733d db8b 03bd a263 843b
00000300: fecf 053e 06e1 98bc 57b7 0c3d 10c4 b33c
00000310: 8cd7 be3b 4405 09bd 7c9c 1fbb c480 ad3c
00000320: ce7f 733c e10c d03d ece0 8bbc 63f1 303d
00000330: e937 b8bc e0fc 1b3d 5161 04bc 996b 01bd
00000340: add7 12bd 26c3 a03c 7ad9 6c3d 394f bdbc
00000350: a29f 1dbd 1213 eebc 5ee8 dd3b 4820 813c
00000360: df07 8e3c 5f1b 84bd 5a5e a0bd 0a00 713c
00000370: 0bed da3c 133d bf3c 9bfc c23d 9c80 fd3b
00000380: d7a6 acbb a82a 293b 1d37 0f3d e64a 81bd
00000390: 8030 513c d8df 833d 2668 9cbc 8a43 95bd
000003a0: d38c 793d bf7c 52bd 44c0 b43c 7d90 7cbc
000003b0: 8cf8 bd3b d77f 983b 215b 773a 23c5 313b
000003c0: b8bc 473b 89e0 623c d60d 143d 66c9 d4bd
000003d0: 2f13 a1bd 148d a93d 7e43 89be 198a 06be
000003e0: 50ea 0bbe 692b 94be 2145 b6bd e69b 8dbd
000003f0: f7f5 0f3d 13b1 313d 7965 e63b ece2 1ebc
0.0670665 0.041393727 -0.04373868 0.12678915 -0.0053063813 0.10946323 0.049136277 0.026453618
-0.043081388 0.04082978 0.04396347 0.030953508 0.08567605 0.06119001 -0.037406605 -0.007366201
0.030168656 0.07943633 0.024626043 0.0011178402 -0.010768841 0.047823492 0.062571816 0.00542573
0.068220735 0.0013492587 -0.028979756 -0.0036564295 -0.007120203 -0.05512872 0.007355116 -0.08320627
-0.09313444 -0.05336776 -0.056197554 -0.05586325 0.043733973 -0.040950965 -0.041136984 -0.042880647
-0.011063744 0.0943574 0.10753785 0.04254356 0.049545027 0.035931066 0.04696433 -0.03020187
-0.05064396 0.052401677 -0.016997881 0.119943984 0.011686856 0.009083153 0.106192544 -0.038946934
0.04414831 -0.018258657 0.115344144 -0.038854107 0.023213627 0.019718058 0.040955074 0.037665047
0.03497484 0.039026596 0.01728865 0.047610674 -0.03190486 0.042614415 -0.026128786 0.028206265
0.009531292 0.021582685 0.0017252901 -0.00091868435 0.015232767 0.050361622 0.026540704 -0.02103157
-0.0553763 -0.039645176 -0.027638964 -0.038309533 0.055831477 0.011169563 -0.10753683 0.097317
-0.031830728 0.035466082 -0.031168332 0.072426684 -0.10967431 -0.026176663 -0.06861959 0.0005644489
0.045077246 -0.03526767 -0.08275544 0.070543826 -0.01194821 0.0689756 -0.051726308 0.026280357
0.1030375 -0.054925963 0.0068050446 0.05477409 0.077209674 0.046145614 -0.040900066 0.017120337
0.07364254 0.007166735 -0.12120379 -0.09435398 -0.0022900735 0.03429042 -0.044632986 -0.0020002967
-0.050508894 0.07448883 8.222544e-05 -0.07047587 0.051278576 -0.06405752 -0.03744661 0.02864252
-0.0142894285 -0.043246876 0.038468022 0.014374942 0.0067817615 0.022647763 -0.00019273724 0.013756803
0.0024974626 -0.0018663456 0.031051481 -0.04556966 0.008171545 -0.011748958 0.038134664 -0.06449591
-0.01085804 -0.039224893 -0.0113271605 0.012302565 -0.058584053 0.026567806 -0.044430032 0.050351083
0.03461976 0.001671792 0.014441866 0.02486392 0.072519936 -3.219849e-05 0.007770617 -0.001994296
0.062016014 0.0033131987 -0.00053234 0.092232645 -0.013439003 0.04822455 -0.013780786 0.07706818
0.05686939 0.058879178 -0.030078279 -0.014033605 -0.041460525 -0.04569272 0.00664262 0.017783474
0.06747103 0.024537105 -0.017731227 0.052279554 0.14343524 -0.025173657 -0.11225572 0.026926953
-0.07901787 -0.108381696 -0.06232379 -0.07484302 -0.13660587 0.05940615 -0.0321158 0.0040401975
0.13067624 -0.018661987 0.034354534 0.021944076 0.005824035 -0.033452287 -0.0024354747 0.021179564
0.014862014 0.101587065 -0.017075025 0.043198954 -0.022487598 0.038082957 -0.008079843 -0.031596754
-0.035850216 0.019624304 0.05782459 -0.023109065 -0.038482316 -0.029061828 0.006772085 0.015762463
0.017337738 -0.06450533 -0.07830496 0.014709482 0.026724359 0.023344552 0.09520837 0.0077362787
-0.0052689123 0.0025812779 0.03496467 -0.06313114 0.012767911 0.06439179 -0.01909263 -0.07288273
0.060925316 -0.0513885 0.022064336 -0.015415308 0.0057974514 0.0046539116 0.00094358815 0.002712556
0.0030477475 0.013847479 0.036146007 -0.10389976 -0.07864987 0.08278862 -0.26809305 -0.13138618
-0.13663602 -0.2893937 -0.08899904 -0.06914501 0.03514668 0.04338176 0.0070311395 -0.009697657

b2 f4 [32]
00000000: 73fe 103d bb3a 803d 9ef4 d6bc 7132 1abd
00000010: c210 cc3d 120c ae3d 8c99 443e 4eef bbbd
00000020: 13a9 6e3d bf26 d7be d992 643d aeee 363e
00000030: 8f8e 6abe b988 12bf 3266 093d 8373 753e
00000040: 14dd d93c 8a4d 083d 9342 a63c 4156 893c
00000050: 5b69 dd3d ca46 b23d 43f9 d1b9 ca65 f23d
00000060: f541 4cbc d290 0e3e a0db dd3c dfdc d93e
00000070: ad40 8c3d 53f4 5b3d 24a7 383e 610a 2cbd
0.03539891 0.06261202 -0.02623969 -0.03764576 0.09964134 0.08498396 0.19199198 -0.09176503
0.05826671 -0.42021748 0.055804107 0.17864487 -0.22905944 -0.5723987 0.033544727 0.23969845
0.026594676 0.033277072 0.020295417 0.016764762 0.108111106 0.08704908 -0.000400493 0.11835821
-0.012466897 0.13922432 0.027082264 0.42551324 0.068482734 0.053699803 0.18032509 -0.042002086

conv3 f4 [32, 32, 3, 3]
00000000: 2069 06ba e5a9 193b c0b0 27bd d96f 11bd
00000010: ce05 fc3d 389f 74bb 251c 49bc 6a27 823c
00000020: 0ea5 f0bc 4e44 ae3e 480c 303e b4d5 c73e
00000030: 0d4a bf3d aa54 24be cb8f b23d d342 ce3e
00000040: 9451 8e3d d7d0 c93e 7a9e aabb 82e6 373d
00000050: 9b99 95bc 8ee9 8bbc 19fd 263d 2cab 8c3d
00000060: 1739 73bc 48dd 2f3d 2044 96bb 11a7 2e3d
00000070: f8a5 b73c 5d80 cbbc adeb 253d 20ae b53d
00000080: da75 00bd b770 b43d e88f 0fbd 889e 013d
00000090: 2b1d c8bd 735f 3a3c b103 b1bd a73c 373c
000000a0: 23c7 be3d 85cf fdbc 3ee3 e3bd 253e c7bc
000000b0: ca2b 6abd 86e2 01be 0281 a9ba 4cda 82bd
000000c0: 046d ed3b b8dd 7e3d c225 1e3d 3383 96bd
000000d0: f817 b3bb 2537 04be 783c 103d 60e4 17bb
000000e0: 9373 5d3d 247e c6bc b765 993b add7 493d
000000f0: 78fe 2cbc 2750 5a3d 8f39 4bbd e70a ac3c
00000100: f77b ea3b 9675 d13b a01c b13c 2f45 c4bb
00000110: 8c52 15bc 0b2c e3bc bca2 39bc 847a 443d
00000120: ed1a 8a3a 5546 b53a 41d4 ea3c bf83 a03d
00000130: 2e0c fc39 5919 38ba a34f a83c 9aca 2cbd
00000140: e8eb 2d3d 37d5 3abd 701b 833d e352 bdbb
00000150: a3c4 253d ec38 c7bc 33c5 463c b65d 1e3d
00000160: 5441 8abc a893 2cbb 50fa aabc ad58 63bc
00000170: 8cee 533c addc c7bc afcd 67be d9b8 90bd
00000180: 4a26 443d 2047 f9bd f8df 453d 467c c1bc
00000190: 42d7 6f3d 9ece e2bc 99e2 ba3b 888b 193d
000001a0: 4266 11bd 8809 7039 f930 af3c 5aef 323d
000001b0: f4ba 3fbd d5d8 bd3c 2f17 20bd 856d 993c
000001c0: 5aa4 70bc 99ee a43c 0d36 193d 5beb 9e3b
000001d0: 5d7b 923d 98ba ad3c 8bd4 96bc 7ee6 fbbc
000001e0: 2d28 6bbc 0922 063d 0cbc d43a 8380 9a3c
000001f0: 0374 a5bd 4724 4f3d fd1f 053d fb03 553d
00000200: 75e4 63b9 c781 8dbd 2fac a23d f749 663d
00000210: 248b 983d 259b 78bc 8b74 03bd 7072 a5bc
00000220: 53cf 89ba 906c 63b9 6b91 fe3c 539a a93c
00000230: 55d5 2ebb 2d28 9e3c 7089 2dbc e958 753c
00000240: 55db 283d d059 77bd 886e 73bd a582 ffbc
00000250: 5c1e 203d 1120 5f3d ece8 73bd 2647 9dbc
00000260: f0c7 503d 8556 5abd 81c6 48bd 9102 14bd
00000270: ac51 753d 7c25 c2bb ef1e b7bd bb88 5abc
00000280: 1e58 ab3c 5019 b93c 97b6 113d 997e 4ebb
00000290: 9c59 843d 4b3b 5fb8 2ee7 623d 83be 9b3c
000002a0: 29cb 2ebd 3d9d aa3c cbdf 553c 0ada 573c
000002b0: 877b 183d b6d0 f33c 86bc 8d3d 307e 84bb
000002c0: 914f 51bd e43b 5d3d 31c0 283d 5fab cc3c
000002d0: 2039 90bd b88f d73a a9e5 5fbd 32fc 20bd
000002e0: 7fe9 153d 94a0 423d 9497 62bd e2ed 493d
000002f0: d987 20be a2d3 763d 7bf6 fd3c d5be 5fbd
00000300: d9ae 5abd 4ebb a6bc 87d6 6b3d b644 623b
00000310: ead3 e6bc 21f5 8a3c f6fb f4b9 da76 35bc
00000320: d095 11bd b7c5 09bd f831 90bc 5b85 563d
00000330: 205b a23d 1dbd 03bd 3de7 37bc e9d4 9d3d
00000340: 305d 75bc 536f a23d adf8 933c ff72 98bc
00000350: 6f0c 5f3c b85a aabd 9d58 a63d 426b 70bc
00000360: a1a0 6e3b 6a77 943c a301 2cbd 5b13 f03c
00000370: 927a df3b 2497 323d 011b 4d3d 2c72 86bd
00000380: d022 d83a 8d2c ac3d c18a 363d dae4 1c3d
00000390: 0598 a6bc a5d7 2abd 5178 9d3b 4a05 a43d
000003a0: 6516 143a 7c4c 8e3d b0e7 63bc c31a e8bb
000003b0: a24e 88bc fb36 3d3d 0678 3ebc a391 333a
000003c0: 7132 4bbd 8168 6a3d a0c2 483d 5e93 48bd
000003d0: 1a43 ee3c 736d a0bc 3a80 783a 7a4d 45bd
000003e0: 16b0 70bb 6f6b 3d3d 17c9 34bd 29cd 703d
000003f0: 2abf 803d fc98 3fbd 94ae 803c c05e 3e3c
-0.0005127359 0.0023447212 -0.040940046 -0.035507057 0.12305795 -0.0037326347 -0.012274777 0.015887935
-0.02937558 0.34036487 0.17192185 0.3903023 0.09340296 -0.16047922 0.087188326 0.40285358
0.069491535 0.39417145 -0.00520688 0.044897564 -0.018261721 -0.017079141 0.040768716 0.06868586
-0.014845154 0.04293564 -0.004585758 0.042639796 0.022418007 -0.024841482 0.04050796 0.08871102
-0.031362392 0.08810561 -0.03504935 0.031645328 -0.09771188 0.011375296 -0.08643282 0.011183894
0.09315326 -0.030982742 -0.111273274 -0.024321625 -0.057170667 -0.12684068 -0.0012932124 -0.06389293
0.0072456617 0.062223166 0.038610227 -0.07349243 -0.005465504 -0.12911661 0.035213917 -0.0023176894
0.0540653 -0.02423007 0.004681315 0.04927795 -0.010558717 0.053299095 -0.04961544 0.021001292
0.007155891 0.006392191 0.021620095 -0.0059896926 -0.009113919 -0.027730962 -0.011330303 0.047968403
0.0010536589 0.0013830165 0.028665664 0.078376286 0.0004807426 -0.000702282 0.020545786 -0.042185403
0.042461306 -0.045613494 0.06401718 -0.005777703 0.04047073 -0.024319135 0.012131977 0.03866359
-0.016876854 -0.0026333127 -0.020871311 -0.013876122 0.012935292 -0.024397219 -0.22637056 -0.07066507
0.047888078 -0.12171769 0.048309296 -0.023618829 0.058554895 -0.027686413 0.005703282 0.037486583
-0.03549791 0.00022891734 0.021385657 0.043685295 -0.04680915 0.023174683 -0.03908461 0.01872898
-0.014687622 0.020133303 0.037405062 0.004849834 0.07152436 0.021207139 -0.018411895 -0.030749556
-0.01435284 0.032747302 0.0016230359 0.018860107 -0.08078768 0.050571706 0.03250121 0.05200575
-0.00021733514 -0.06909519 0.07942998 0.056222882 0.07448414 -0.015173708 -0.032093566 -0.02019617
-0.0010514058 -0.0002168885 0.0310752 0.02070347 -0.0026677449 0.019306267 -0.01059185 0.014974811
0.041224796 -0.060388386 -0.059431583 -0.031190226 0.039091453 0.05447394 -0.059548303 -0.019198965
0.050971925 -0.053305168 -0.049017433 -0.03613526 0.05989234 -0.0059248786 -0.08941447 -0.013338263
0.020916041 0.022595078 0.035574522 -0.0031508564 0.06462404 -5.3222564e-05 0.05539625 0.019011742
-0.042674217 0.02082693 0.013053845 0.013174543 0.03722718 0.029762607 0.069207236 -0.004043363
-0.05110127 0.054012194 0.041198913 0.02498406 -0.07042146 0.001644603 -0.05466238 -0.039303012
0.036599632 0.04751642 -0.055320337 0.04929913 -0.15676822 0.060260423 0.03100132 -0.05462535
-0.053389404 -0.020352986 0.057577636 0.0034525818 -0.02817722 0.01696259 -0.00046727032 -0.0110757
-0.035543263 -0.03363582 -0.017601952 0.05237327 0.07927537 -0.032162774 -0.011224565 0.07706625
-0.014975831 0.0793139 0.018062914 -0.018609522 0.013613804 -0.083180845 0.081223704 -0.01467401
0.003641166 0.018123347 -0.04199375 0.029306104 0.0068200314 0.04360117 0.05007458 -0.06564745
0.0016489867 0.08406935 0.04456592 0.038304187 -0.02033616 -0.04170956 0.0048056026 0.08008821
0.0005649089 0.06948182 -0.013910219 -0.0070832684 -0.016639058 0.04619501 -0.0116252955 0.00068500097
-0.04960865 0.05722857 0.049013734 -0.048968665 0.02908473 -0.01958344 0.00094795565 -0.04816959
-0.003672605 0.046245035 -0.044137087 0.058789406 0.06286462 -0.046776757 0.015708245 0.01161927

b3 f4 [32]
00000000: 2bde 593e 957d 3d3e b4e3 373e 4d69 833e
00000010: 1bfd 7f3e 9dd8 753e 4426 023e 15a2 3e3e
00000020: 4d1b 5c3e 7b8d 523d 5954 803e 771b 443e
00000030: 8e23 893e feb6 433e 9b2b e33d 7529 453e
00000040: 7c6f 433e 274f 243e 6341 093e 6fa1 4c3e
00000050: e4c1 2c3e 2574 5c3e 4c22 473e 3313 0b3e
00000060: 6a65 fb3d f758 603e bfa5 803e 45af 3d3e
00000070: c483 343e 7f15 fc3d 8306 c33d 5771 1a3e
0.21276157 0.18504937 0.17957956 0.25666276 0.24998896 0.24008413 0.1270991 0.18616517
0.2149479 0.051404458 0.25064352 0.19151102 0.2678494 0.19112775 0.110923015 0.19254096
0.19085497 0.16045819 0.1340385 0.19983457 0.16870838 0.2152868 0.19446677 0.13581543
0.122752026 0.21908937 0.25126454 0.18523891 0.1762839 0.123087876 0.095227264 0.15082298

w4 f4 [5, 32]
00000000: d770 04c0 1c65 15c0 c2db ee3e 1c37 0ec0
00000010: 1399 0a3f 78e4 8b3f f2a2 dcbe 81d4 04c0
00000020: 0109 3540 7789 bdbf 174a 1cbe 1b33 e0bf
00000030: c544 5040 1fbd 30bf 6be5 4740 a40e 03c0
00000040: 10f2 1f3f 0421 663f fee8 18c0 b0ec 4940
00000050: b541 753f 0dfe 09c0 583b 55bf 5631 e9bf
00000060: 7fda 223f 56c2 f6be e383 bbbf 10bb 4c40
00000070: 369c c4be 0911 e4bf 8509 1cbe a63c 8fbf
00000080: 0980 aabf 28a8 3440 c30d 6c3f ab85 813f
00000090: babb babf 8b14 cbbf 0a12 a9bf c539 1940
000000a0: 55e7 edbf 2465 8cbf c896 17c0 f7ca f4bf
000000b0: 45b4 87bf 2feb 6ebf cfe0 dabd e70b 03c0
000000c0: c44d 4440 e515 e2bf 9216 cf3e 2d1d cbbf
000000d0: f336 f93f d5a7 debf fa80 4a40 d938 673f
000000e0: cec6 d9bf c67f 8cbf a84c 3a40 5a71 c8bf
000000f0: 8e3c 3f40 461f 95be a33f 74bf 457d a4bf
00000100: 7e67 3040 79bf 3e3e 8ca4 2dc0 5113 dabf
00000110: bb24 03c0 1bb1 2740 dc0c 3740 6f21 9e3f
00000120: 3f64 f7bf c002 4140 dfb3 173f 0fd1 c6bb
00000130: 63e7 b1bf 028a fabf 50c2 e5bf e3fc 8bbf
00000140: ac06 f6bf bcdb b7bf e5f6 2c40 35a2 0c3e
00000150: 724d dc3f bbed 393d 715e 29bf 4153 44bf
00000160: 4b2c cf3f e051 acbf 2e88 00c0 89cf aebf
00000170: d2ba ffbf 5099 a3bf 284a 4140 b9c2 b9bf
00000180: d36d dbbf a3fa 5e3f 0063 e63f 30ac 3ebf
00000190: 6308 f2bf 56ea 88bf 36c8 82bd 7376 f4bf
000001a0: fced 503f 265d 98bf f12d 4abf b9c7 3040
000001b0: f57e 00c0 14c8 e4bf c9c4 f2bf a9ab 1b40
000001c0: 2739 85bf 6085 2940 5ac5 1f3f 3045 05c0
000001d0: 5a96 07c0 c842 82bf deff f2bf 0c89 2c40
000001e0: e52d d33f 7b75 3f40 50b3 e1bf c0dd fbbe
000001f0: 146d 1abf bbca 3340 aba1 dbbf 07eb 60bf
00000200: ef5a 9b3f 7432 93bf 9a5c 10be de43 3740
00000210: 145e 3e40 b0d2 d6bf f581 ecbf 77e3 1e3f
00000220: 6085 9a3e 362c 3bbf e1da 3f40 55a7 25bf
00000230: 1169 debe 2e64 3f40 b62b d6bf cbc7 5b3e
00000240: 149b f6bf e835 bfbf 0646 a8bf 7991 94bf
00000250: da85 f7bf d410 3a40 1496 c7bf 1cab e4bf
00000260: 628c 0ac0 29e4 4ebf 720e dd3e 0fcd d8bf
00000270: dd0b e4bf b2c7 1dbf 0a56 e2be 6983 4040
-2.0693872 -2.3342962 0.46652037 -2.2221136 0.5413982 1.0929098 -0.43093067 -2.0754702
2.8286746 -1.4807576 -0.15262638 -1.7515596 3.2541974 -0.69038576 3.1233776 -2.0477686
0.62478733 0.8989413 -2.3892207 3.1550713 0.95803386 -2.156131 -0.83293676 -1.8218181
0.6361465 -0.48195142 -1.4649624 3.1989174 -0.3840043 -1.7817699 -0.15238006 -1.1190383
-1.3320323 2.8227634 0.922085 1.0118917 -1.458854 -1.5865644 -1.320863 2.394151
-1.8586222 -1.0968366 -2.368578 -1.912444 -1.0601889 -0.9332761 -0.1068741 -2.0476015
3.0672464 -1.7662932 0.40446907 -1.5868279 1.9469894 -1.7394968 3.164122 0.9032112
-1.7013795 -1.0976493 2.9109287 -1.5659592 2.988071 -0.29125422 -0.954096 -1.2850729
2.7563167 0.18627729 -2.7131681 -1.7037145 -2.0491168 2.6201847 2.8601599 1.2353953
-1.9327468 3.0157928 0.59258837 -0.006067402 -1.3898739 -1.9573367 -1.7949924 -1.093655
-1.9220786 -1.4363933 2.7025692 0.13733752 1.7211134 0.045392733 -0.6615973 -0.76689535
1.6185392 -1.3462486 -2.0083117 -1.3657085 -1.9978888 -1.2781162 3.0201511 -1.451255
-1.7142891 0.8710119 1.7998962 -0.7448149 -1.890881 -1.0696514 -0.063858435 -1.9098648
0.81613135 -1.1903427 -0.7897635 2.76219 -2.0077488 -1.7873559 -1.8966304 2.4323523
-1.0408067 2.6487656 0.6241051 -2.0823479 -2.1185517 -1.017663 -1.8984334 2.6958647
1.6498381 2.9915454 -1.7632847 -0.4919262 -0.6032269 2.8092487 -1.7158712 -0.87858623
1.2137126 -1.1499772 -0.14097825 2.8635173 2.974492 -1.6783047 -1.847716 0.62065834
0.30179882 -0.73114336 2.9977343 -0.64708453 -0.43439534 2.9904895 -1.673209 0.21462934
-1.9266076 -1.4938326 -1.314637 -1.1606895 -1.9337723 2.907277 -1.5592675 -1.7864718
-2.1648183 -0.80816895 0.43175083 -1.6937579 -1.781612 -0.61632836 -0.44206268 3.0080206

b4 f4 [5]
00000000: 7ab6 153e 8628 fdbc 1397 67bd e91c d8bc
00000010: e649 b4bd
0.1462039 -0.030903112 -0.05654056 -0.026380973 -0.088031575

exp_avg f4 [32, 1, 3, 3]
00000000: cc7c b9ba a8cb 91ba 64bb 45ba feb8 c439
00000010: 4378 bdb8 cc94 4d39 16a8 4e3a c144 64ba
00000020: bbb5 2e39 9690 683a 40dd 1b39 ac0a 463a
00000030: 25c8 053b 6f7d cd3a a4c5 1f3a de65 133b
00000040: ba57 0e3b 4eb7 043b 254d 253a 5ac0 723a
00000050: 4198 b23a 3445 553a ec76 073b a5e8 df3a
00000060: 9925 d23a 8735 913a 25ab f5b8 df07 1d3b
00000070: 7740 003b d5c9 c83a 34a2 0b3b ad76 ef3a
00000080: 3670 ac3a 9529 2f3b d841 d83a bf43 933a
00000090: cea3 b1ba 9e5c b23a 3840 a33a 599a 2fbb
000000a0: 488c c5ba ee52 643a cb3a 02bb ddad e7ba
000000b0: 55ba cb39 7596 5539 6f16 a139 32fc f838
000000c0: efbb 3db9 080c 71b9 b203 e638 e04b be3a
000000d0: eb71 a43a 98f1 513a ac35 f6b9 763c 93b9
000000e0: 8d49 45ba 8e55 1fbb f917 e7b9 b174 0dba
000000f0: e19c 8dbb 0fcc f6ba adbf 13ba 9abb 0b38
00000100: 90be 9db9 af73 8fb9 3cee efb9 7fc2 51ba
00000110: 63e9 f3ba da6e e137 41ab d0b8 4ab3 05ba
00000120: f8d6 84bb bc7b 82ba 8a51 60bb 7902 30bb
00000130: ec32 ae39 8529 e038 3768 f8ba b601 5cba
00000140: f690 0cba 3a39 4d39 d015 b939 bf39 133a
00000150: 6337 d53a 7a74 b13a 5dbd 053a ae0f 13ba
00000160: 5ae1 b3b9 aa96 65b9 994c 01b9 e540 823b
00000170: 652f 013b cfc9 2739 74e9 963b c76b df3a
00000180: 4566 01ba c578 0e3b c05e cfb7 773f f639
00000190: 4a1e 46ba d339 9fb9 bc49 39ba 5f64 87ba
000001a0: 1d97 8aba e549 b8ba f618 b1ba bbd0 1eb8
000001b0: 50cc b33a 438e f139 defc 0f3a bb83 973a
000001c0: 3c39 ba3a bec0 c339 d27b ea3a 491e b23a
000001d0: 1dd4 773a fe91 e4b9 2fa8 13bb b3cd 2ebb
000001e0: 3af0 01ba 489f b0ba 148b e6ba d9b6 7aba
000001f0: 7410 33ba 197a 90ba cdc6 2639 0d0e 033a
00000200: 9874 1cba a9cf 1d3a 66d5 213a 7586 7eb8
00000210: 11d7 10b9 2266 a6b9 1c0a b7ba 7192 34ba
00000220: 5a59 283b 3a92 193b ef26 78b6 7749 1c3b
00000230: 26c0 733a 51ed 933a 177a 093b ae7b 7a3a
00000240: fb8e 44bb c873 6bba b273 5fba a7fd fbba
00000250: fcd0 0dba ed76 ecb8 aa2e e9ba 1a9c b7b9
00000260: 7720 f5b9 3145 faba 3d25 3eba bddd 25ba
00000270: a2da aaba e39e 98ba 5cc9 a7ba 2a42 913a
00000280: 2b3f ccb8 4848 4339 8bd0 9939 77fa c739
00000290: 9719 f839 de85 4a3a ab26 3537 c215 923a
000002a0: 57f8 e03a 14d7 853a 1337 5d3a 4ae2 383a
000002b0: 2885 033b f734 ceb5 2ab3 eb39 9d02 6f3a
000002c0: 00bd 9f3a e925 7439 0ec2 a03a 391a 4a3b
000002d0: 16a3 b7ba e90a b239 cd16 8a3a 9a3d 8d39
000002e0: b7c4 f53a b549 913a 0226 3c3a 8ec2 3f3b
000002f0: 8cb3 9a3a a879 aeba ff06 dfb8 05a8 4c39
00000300: 63e5 093b 5263 d93a 58ef b23a 5d28 b83a
00000310: e089 083a 6ec8 af3a 6c32 c93a b9bb 993a
00000320: e736 503a 25ba 9a3a d7e9 893a 7959 ab39
00000330: 21d9 f9b8 42c0 7438 cd08 333a 2b07 2739
00000340: abde e139 baaa 233b d578 4a38 1a34 9c39
00000350: c874 313a 667c f239 579a 9dba fa4a e8ba
00000360: 2615 1137 deb2 faba f336 eeb9 1304 1eba
00000370: 05fd b5ba 0f13 bcba 0d55 efb9 65a7 18ba
00000380: 8f55 b2ba 6f04 e53a 9173 503b 7eec 0f3b
00000390: d9a2 d73a 2062 e93a db8e 4e3a 7699 ac3a
000003a0: 7c6e 8e3a ae49 dd39 4eb7 023b e85a 783a
000003b0: b936 643a 0bae 833a b184 5fb8 0021 e039
000003c0: 5eb9 443a 09b8 6bb9 fd14 6239 7aa6 fdba
000003d0: f5fb f5ba 6188 d6ba 63c4 03b8 b8b6 02ba
000003e0: 824e fab9 048c 0fba f05f a2b9 d29a 29ba
000003f0: 4fcc cd3a 1911 163b cc89 313a ff21 143b
-0.0014151572 -0.0011123316 -0.0007542877 0.00037521863 -9.034623e-05 0.00019605755 0.0007883323 -0.0008707755
0.00016661633 0.00088716426 0.00014864374 0.0007554691 0.0020413485 0.0015677641 0.00060948194 0.0022491137
0.002171977 0.002025086 0.0006305746 0.000926023 0.0013625697 0.0008135617 0.0020670248 0.0017082883
0.0016032933 0.0011078574 -0.000117143885 0.002396099 0.0019569674 0.001531894 0.0021306397 0.0018269621
0.0013156 0.0026727666 0.0016499115 0.00112354 -0.0013552846 0.0013607924 0.0012455052 -0.002679488
-0.0015071714 0.0008709867 -0.001987147 -0.0017675717 0.00038858005 0.00020369313 0.00030725027 0.000118725366
-0.00018094455 -0.00022988033 0.00010967943 0.0014518462 0.0012546157 0.00080087176 -0.00046960765 -0.00028083072
-0.00075259135 -0.002431247 -0.00044077614 -0.00053961115 -0.00432168 -0.0018829125 -0.0005636167 3.33149e-05
-0.00030087354 -0.00027361276 -0.0004576313 -0.00080016995 -0.0018608983 2.687371e-05 -9.9501114e-05 -0.00051002635
-0.0040539466 -0.0009955089 -0.0034228289 -0.0026856943 0.00033225806 0.00010688886 -0.0018951957 -0.0008392589
-0.0005362177 0.00019571642 0.000353022 0.000561621 0.0016267117 0.0013538741 0.00051017647 -0.00056099414
-0.0003430944 -0.00021895269 -0.00012330934 0.003975021 0.0019712087 0.0001600154 0.0046054665 0.001704567
-0.0004936199 0.0021739465 -2.4720444e-05 0.0004696806 -0.0007557614 -0.00030369926 -0.0007068177 -0.0010329596
-0.00105736 -0.0014060108 -0.0013511467 -3.786453e-05 0.0013717506 0.00046073095 0.0005492697 0.0011559644
0.0014207731 0.00037336902 0.0017889685 0.0013589348 0.00094539096 -0.00043596321 -0.0022530665 -0.00266729
-0.0004956756 -0.0013475204 -0.0017589056 -0.00095639896 -0.000683076 -0.0011022716 0.00015905053 0.0004999347
-0.00059683016 0.00060200185 0.00061734614 -6.0683542e-05 -0.00013813029 -0.00031738082 -0.0013964805 -0.00068882765
0.0025688023 0.0023433105 -3.6977542e-06 0.00238475 0.00092983467 0.0011285936 0.0020977312 0.0009555173
-0.002999245 -0.00089817913 -0.0008524015 -0.0019225375 -0.0005409864 -0.000112755086 -0.0017790396 -0.00035020785
-0.0004675423 -0.0019094107 -0.0007253474 -0.0006327292 -0.0013035128 -0.0011644032 -0.0012801099 0.001108234
-9.739244e-05 0.00018623576 0.0002933781 0.0003814285 0.00047321312 0.0007725636 1.0797444e-05 0.00111454
0.0017163855 0.0010211193 0.00084386877 0.00070527627 0.002006838 -1.5363611e-06 0.0004495618 0.0009117516
0.0012187064 0.00023283776 0.0012264864 0.0030838384 -0.0014010395 0.00033958934 0.001053536 0.00026939512
0.0018750642 0.0011084588 0.00071772945 0.002926025 0.0011802777 -0.0013311403 -0.00010634772 0.00019517548
0.0021041266 0.0016585386 0.0013651652 0.0014050115 0.0005208533 0.0013411173 0.001535011 0.0011728919
0.00079427514 0.0011804743 0.001052196 0.00032682324 -0.00011913689 5.8353187e-05 0.00068296195 0.00015929031
0.00043081245 0.0024973587 4.8273087e-05 0.00029793457 0.0006769416 0.0004625052 -0.0012024146 -0.001772254
8.6475975e-06 -0.0019126793 -0.00045435838 -0.0006027829 -0.001388461 -0.0014348942 -0.00045649 -0.00058232836
-0.0013605821 0.0017472635 0.0031807164 0.0021961029 0.0016451731 0.0017805733 0.00078795635 0.0013168294
0.0010866667 0.000422073 0.0019945684 0.00094739953 0.0008705664 0.0010046376 -5.329092e-05 0.00042749196
0.00075044285 -0.00022479905 0.00021560858 -0.0019351982 -0.0018767106 -0.0016367548 -3.1415733e-05 -0.00049863337
-0.0004774221 -0.0005475881 -0.00030970527 -0.00064699084 0.0015701147 0.0022898375 0.00067725475 0.002260327

exp_avg_sq f4 [32, 1, 3, 3]
00000000: 3fc0 4f38 beea 7b38 d854 9738 2cdb 6537
00000010: a62f c937 61d5 4238 e604 a437 952f d337
00000020: 89ad 0c38 acd2 8938 f209 2038 61d6 b737
00000030: 41fc a138 fb1e 7838 de8e 5638 d90d a438
00000040: 23d8 8d38 81c4 a338 9ef5 3938 a4a5 9437
00000050: c6a4 2a38 cc7a 9238 abd0 3338 934d 3938
00000060: 065c 4038 7374 4e37 051a 8537 9a0b 5138
00000070: f588 cf37 3c4e 9137 91d1 4f38 577b 1638
00000080: ccf4 0238 6c07 5b38 10e6 5e38 c9a7 6038
00000090: f912 2738 0d05 0238 b28d 9037 4008 4638
000000a0: f836 4238 4059 0e38 a44e 7338 9f63 4938
000000b0: 188d 3b38 08d2 1b37 efb6 3d36 97ca 3336
000000c0: c2fa 0d38 bfb5 8d37 ed2f 1137 7595 6738
000000d0: ea25 6238 f068 2838 0087 c436 97cb b236
000000e0: 2721 0337 31ce 3e38 dbc9 9637 859d 8b36
000000f0: fd11 0839 7766 3138 4925 9936 6de3 2838
00000100: 2752 3038 e5a3 5c38 7283 e837 031a ec37
00000110: e0ed 3938 2bb0 0137 5818 ae36 eb99 c437
00000120: 3ad2 8738 6016 8938 d7f3 9338 84be 6c38
00000130: 5d19 3038 1189 4738 9d63 3438 75a5 a037
00000140: 95d4 2a38 663e 3537 da1b 0338 a247 2e38
00000150: a38d bd37 8737 2738 4d83 4b38 0d67 f537
00000160: c8d2 1e38 4e9b 4738 f5fd ee37 0c7e 6338
00000170: 811e 2338 fdbd 2e38 d7d2 9438 8a28 cd37
00000180: e81e 9f38 dcc8 a138 e5cf e337 d5f2 4338
00000190: 63f6 9e37 e284 f337 8aa4 8238 b840 1c38
000001a0: fb8f 5938 a392 9938 d49a 5c38 60b4 7c38
000001b0: f831 3738 aa8b 0a37 7f52 f636 52e8 6838
000001c0: 549a 7d37 251b 5337 74c1 a938 794e 6538
000001d0: 28ae 3038 9f57 b037 2080 8b38 5038 fe38
000001e0: 9533 2037 66b8 4338 db9f d238 c8a6 6a37
000001f0: 6ca3 0c38 7373 9c38 d4a1 2637 135c f036
00000200: ba7f ec37 c786 1138 7b4d 0738 711e 5938
00000210: fe61 de37 c346 2738 c08f 8a38 7edf 4838
00000220: 2b97 2d38 8e1f 0638 94de 6538 2aec 0438
00000230: 6382 8e37 d9ce 7738 3a19 dc37 3a16 3737
00000240: f553 4538 04a3 1a38 8d23 2438 d4f7 1f38
00000250: 3ae4 8537 4c80 f137 501f fa37 846e 1b37
00000260: a8f5 f937 5eeb 9238 7e18 0438 17b1 8437
00000270: 503e 8138 9509 b437 236e db37 07db 9338
00000280: 01d5 5138 381a 9d38 e734 0137 58d9 fd36
00000290: cd6e 1d37 68f3 2738 12e3 2938 9a2c 4038
000002a0: b518 af38 fd15 a838 b4b6 b538 712b 4537
000002b0: de35 d537 2eab 8b37 9a18 4137 e7e6 7f36
000002c0: 192b 4137 c853 f536 47ed a837 4173 a138
000002d0: ccb0 8b38 0a25 9b38 9dc5 7838 f96d b838
000002e0: 43ef 4538 1ebe d637 eb9d 9938 7d09 9438
000002f0: 9012 6438 188d 7938 24bf 5738 b7a4 a537
00000300: 1a17 8a38 1323 a638 6b4e 6d38 5cc3 1638
00000310: 71be 8638 cf2f 9438 6a63 9538 56a5 5238
00000320: 1b58 1e37 1dd6 8638 86c4 2e38 5455 cc36
00000330: 81cd 6b38 efe9 3538 6dd9 f236 86b6 7b37
00000340: cbe2 1438 c053 1838 a281 1738 3f1a 3438
00000350: 2182 3538 3121 8338 2e2f 5d38 bbdf 6438
00000360: 0622 3a38 bbef 2138 6ded 4338 3ec7 3f38
00000370: db4c 8638 951b 9d38 1b52 2037 60fc fb37
00000380: 94bf 8438 6773 b938 b7c0 ba38 c72d 9338
00000390: a758 8738 2aa7 5138 e385 3f38 7777 9837
000003a0: 9ed0 0037 7a7a 0e37 530c 7238 8223 b337
000003b0: 78ab af36 5364 6438 eac0 8f37 fda8 b936
000003c0: 4720 6838 c8ac ac37 40e9 9736 ded9 7538
000003d0: 3585 7638 46e8 8638 2b7d b837 2142 3438
000003e0: 6564 7f38 3653 4b37 e1b5 3238 5856 6b38
000003f0: d101 ab37 d16e 2e38 f804 3738 a688 3a38
4.953169e-05 6.0061684e-05 7.2160445e-05 1.3700494e-05 2.3983255e-05 4.645193e-05 1.9552604e-05 2.5175317e-05
3.354022e-05 6.57191e-05 3.8156235e-05 2.1915128e-05 7.724064e-05 5.915666e-05 5.115463e-05 7.822709e-05
6.7636625e-05 7.8090474e-05 4.4336186e-05 1.7720107e-05 4.0684616e-05 6.984695e-05 4.2871263e-05 4.4179684e-05
4.586207e-05 1.230567e-05 1.5866952e-05 4.9840288e-05 2.4740099e-05 1.7321778e-05 4.954782e-05 3.5877656e-05
3.12224e-05 5.222058e-05 5.3143187e-05 5.3562024e-05 3.9833572e-05 3.099912e-05 1.723212e-05 4.7214562e-05
4.6304398e-05 3.393856e-05 5.8008955e-05 4.8014914e-05 4.4715678e-05 9.287622e-06 2.8269676e-06 2.6791001e-06
3.3850556e-05 1.6893142e-05 8.653832e-06 5.5213884e-05 5.391791e-05 4.0152052e-05 5.8569713e-06 5.3285144e-06
7.815927e-06 4.549156e-05 1.797539e-05 4.1608605e-06 0.00012976672 4.2295516e-05 4.564096e-06 4.0266128e-05
4.203818e-05 5.2604726e-05 2.7717764e-05 2.8145505e-05 4.4328975e-05 7.7300165e-06 5.188438e-06 2.3436694e-05
6.4764594e-05 6.536837e-05 7.054925e-05 5.6444216e-05 4.198529e-05 4.757295e-05 4.3008116e-05 1.9150533e-05
4.072914e-05 1.0802969e-05 3.1258773e-05 4.1551546e-05 2.259651e-05 3.9867617e-05 4.8521255e-05 2.9254263e-05
3.786644e-05 4.7589936e-05 2.8490069e-05 5.4238408e-05 3.8890637e-05 4.1661773e-05 7.096462e-05 2.4456782e-05
7.5874676e-05 7.714491e-05 2.7157317e-05 4.6717778e-05 1.89498e-05 2.9029736e-05 6.229531e-05 3.7253572e-05
5.1870924e-05 7.322922e-05 5.2596282e-05 6.024947e-05 4.3677137e-05 8.257959e-06 7.340975e-06 5.5529476e-05
1.5115907e-05 1.25829e-05 8.0945814e-05 5.4670938e-05 4.2123866e-05 2.1021637e-05 6.651902e-05 0.00012122153
9.548753e-06 4.6663357e-05 0.00010043356 1.3986319e-05 3.35308e-05 7.460164e-05 9.93205e-06 7.163276e-06
2.819287e-05 3.4696215e-05 3.2258667e-05 5.1765182e-05 2.6510093e-05 3.9881805e-05 6.607128e-05 4.789186e-05
4.13872e-05 3.1977477e-05 5.4805147e-05 3.1691197e-05 1.6988435e-05 5.908203e-05 2.623779e-05 1.0912825e-05
4.704665e-05 3.686828e-05 3.9133756e-05 3.8139362e-05 1.5961112e-05 2.8789182e-05 2.9816903e-05 9.264451e-06
2.9797506e-05 7.005663e-05 3.1494063e-05 1.581809e-05 6.162806e-05 2.1462134e-05 2.615812e-05 7.050303e-05
5.002786e-05 7.491227e-05 7.7013165e-06 7.5652897e-06 9.383727e-06 4.0042592e-05 4.0504216e-05 4.5817906e-05
8.349252e-05 8.01496e-05 8.664784e-05 1.17522295e-05 2.5416663e-05 1.6649803e-05 1.1509424e-05 3.8132364e-06
1.1513731e-05 7.3113224e-06 2.0137652e-05 7.698546e-05 6.6609675e-05 7.397875e-05 5.931185e-05 8.794288e-05
4.719129e-05 2.5599318e-05 7.325023e-05 7.058957e-05 5.4376724e-05 5.949763e-05 5.1438008e-05 1.9746234e-05
6.584656e-05 7.92203e-05 5.6578236e-05 3.594473e-05 6.4250904e-05 7.066095e-05 7.123391e-05 5.0221883e-05
9.4380475e-06 6.4294996e-05 4.166786e-05 6.0896073e-06 5.6219757e-05 4.337163e-05 7.2374737e-06 1.5003263e-05
3.5497167e-05 3.6317622e-05 3.6121935e-05 4.2939788e-05 4.3274955e-05 6.252749e-05 5.2734445e-05 5.45678e-05
4.4377543e-05 3.8608658e-05 4.6712743e-05 4.5723507e-05 6.4039334e-05 7.491481e-05 9.55586e-06 3.0039053e-05
6.329935e-05 8.842983e-05 8.905067e-05 7.018033e-05 6.4538144e-05 4.9985167e-05 4.566264e-05 1.8175442e-05
7.677967e-06 8.492376e-06 5.7708774e-05 2.1354997e-05 5.235368e-06 5.445287e-05 1.7136761e-05 5.5331025e-06
5.534317e-05 2.0584455e-05 4.5273046e-06 5.8615457e-05 5.877503e-05 6.432882e-05 2.1992795e-05 4.297693e-05
6.0890237e-05 1.2119117e-05 4.2607895e-05 5.610878e-05 2.0385634e-05 4.158804e-05 4.3635227e-05 4.447312e-05

exp_avg f4 [32]
00000000: d948 8531 b902 9cb1 5319 9c30 2a8f 2eb0
00000010: fd67 a630 f6cd 4130 df72 01b1 1d55 1c30
00000020: 3a65 a2b0 659a b1b0 f251 3631 1da7 76b0
00000030: 2a85 3031 3475 81b0 8512 2930 dbb7 3330
00000040: 0747 d230 4fbd 3eb0 3cbe 5a30 0dfc f22e
00000050: 018e de30 6330 a831 490f 9b30 251e 0730
00000060: 4b6d b62e bf9f 19b1 22e9 43b0 1701 0bb0
00000070: 093f b72f 6e62 8f2e 67cc 8f30 7842 a5af
3.8790913e-09 -4.540507e-09 1.1357691e-09 -6.350428e-10 1.2107645e-09 7.050568e-10 -1.8837267e-09 5.687342e-10
-1.1815822e-09 -1.2922327e-09 2.6531066e-09 -8.973176e-10 2.5687066e-09 -9.419296e-10 6.150816e-10 6.5381095e-10
1.5299698e-09 -6.939062e-10 7.957828e-10 1.1049659e-10 1.6192986e-09 4.8949444e-09 1.1282079e-09 4.915555e-10
8.295816e-11 -2.2355235e-09 -7.127189e-10 -5.0569454e-10 3.3332295e-10 6.520372e-11 1.0462714e-09 -3.0060554e-10

exp_avg_sq f4 [32]
00000000: 83aa 8e24 e740 9924 50a9 4624 be0e 1624
00000010: 6341 5e25 1e5c 1524 4ee7 1325 e121 cb23
00000020: 97b1 a724 ab52 0b24 8c80 2824 1572 2224
00000030: 4ce3 2e24 6c12 6124 8468 f823 9f13 0424
00000040: 49db 0424 b0bf 5b24 8951 8524 03bf 0425
00000050: cb74 8724 c85e 8624 f8e9 2024 4dc8 0f24
00000060: 111f 8a24 1baa 8d24 73c1 0024 13ff 1f24
00000070: f557 3424 afb9 a225 317b 1124 ff7e a024
6.187154e-17 6.646312e-17 4.307782e-17 3.2538552e-17 1.9277584e-16 3.238725e-17 1.2828587e-16 2.2023652e-17
7.2725554e-17 3.0210843e-17 3.6538076e-17 3.522478e-17 3.7922764e-17 4.8804702e-17 2.6932478e-17 2.8639557e-17
2.880868e-17 4.765042e-17 5.781768e-17 1.1513892e-16 5.874477e-17 5.82738e-17 3.489265e-17 3.1177843e-17
5.990059e-17 6.143717e-17 2.7919433e-17 3.4693685e-17 3.910578e-17 2.8228344e-16 3.154621e-17 6.960408e-17
