CS330/XCS330-PS3/src/submission/logs/maml/omniglot.way_5.support_1.query_15.inner_steps_1.inner_lr_0.4.learn_inner_lrs_False.outer_lr_0.001.batch_size_16/state10000.pt (torch, 353186 bytes, 30 tensors)

conv0 f4 [32, 1, 3, 3]
000000 a6 75 6e bd a1 e6 ad be fe 79 37 3f 0b 43 c4 be
       -0.058217667 -0.33965018 0.7167052 -0.383324
000010 6e 20 ab be 27 dd a4 bd ea c9 80 bd 68 32 1e bd
       -0.3342318 -0.08049994 -0.06288512 -0.03862229
000020 c1 dd f3 bd d0 e3 48 3e 3c 3d b8 3e 7c d4 86 bf
       -0.119075306 0.19618154 0.35984218 -1.0533595
000030 6e a5 67 bc 83 43 52 bc c8 79 08 3e d3 ea bb bd
       -0.014138563 -0.012833479 0.13327706 -0.091756485
000040 16 15 7e 3d 7b 5f 07 3e 4a a4 4b be 57 15 c6 be
       0.062031828 0.13220017 -0.1988689 -0.38688156
000050 3d 0c 9c 3d ff 55 b4 3e 6b 2d e2 3c 87 38 b4 3e
       0.07619522 0.3522186 0.027609548 0.35199377
000060 5e 81 58 be e3 f8 b2 be a7 b6 ff be 2d 56 e9 3d
       -0.211431 -0.3495551 -0.4994404 0.1139339
000070 10 7b f3 be 1a 31 1c bf 11 9a 1a 3e 25 82 11 bd
       -0.47554827 -0.61012423 0.15097834 -0.035524506
000080 b1 9d eb be 03 3b c6 3e ed e9 3b 3e 28 17 94 3e
       -0.46018746 0.38716897 0.18350954 0.28923917
000090 f8 bc f3 3e b3 18 f8 be 79 58 58 3f 8c 7b 6d bc
       0.4760511 -0.48456344 0.8451 -0.014494788
0000a0 0a f0 fb 3c 47 98 b4 3a e7 38 e8 3b c4 b1 9a 3a
       0.030754108 0.0013778292 0.0070868614 0.0011802246
0000b0 39 2b 86 3d 18 21 1a bf 65 3f 02 bf e3 b8 91 be
       0.06551213 -0.6020675 -0.5087798 -0.2846137
0000c0 51 7c ca 3e 8d 60 e8 bd 38 b5 cc be ea dc 8f bd
       0.3954797 -0.113465406 -0.3998201 -0.07024558
0000d0 38 a3 ab 3e 6a 9e eb bd 26 8d 17 bf 40 21 11 bf
       0.33522964 -0.115048245 -0.5919975 -0.5669136
0000e0 42 5a 72 be ef fe 70 3d 78 a6 f5 3c 41 43 0f bf
       -0.23667243 0.058836874 0.029986605 -0.55961996
0000f0 57 2c 80 3e 72 73 b4 3d 68 81 1b bf 5f 02 18 bc
       0.2503383 0.08811082 -0.60744333 -0.009277909
000100 d6 9a ba 3e 2a 4d 08 3e 7c 3b 55 3d 45 c2 77 3e
       0.36446255 0.13310686 0.05205868 0.24195202
000110 9e 89 ff bc a7 e5 46 bf f1 85 54 bf ff 6f 4c be
       -0.03119355 -0.7769417 -0.8301688 -0.19964598
000120 27 d3 84 bc ec f8 00 bd 2b e7 88 3c f1 03 c9 bc
       -0.016213967 -0.03148739 0.016711792 -0.024538012
000130 7c 17 3e bc 83 58 5c bc e5 6d fe 3e 30 ac 82 bf
       -0.011602279 -0.013448837 0.49693218 -1.0208797
000140 68 5b cd 3e fb a9 38 bf 5d 0f 6e be b7 49 e1 3e
       0.401088 -0.7213437 -0.23248048 0.44001552
000150 30 c5 cf be 8e 93 46 3e b0 ec 61 3e 16 45 6b bd
       -0.4058013 0.19392225 0.22062945 -0.057438932
000160 16 43 9a bc c1 66 0a bb ab c3 bf be ad 89 6d bd
       -0.018830817 -0.0021118375 -0.3745397 -0.057992626
000170 c8 3f f3 3b c7 1d 64 be 3a f5 88 3c 41 f2 9b bd
       0.007423375 -0.22276984 0.016718496 -0.07614566
000180 76 11 07 3f b6 df 4f 3e eb 5f 48 bf 1e a8 10 bf
       0.5276102 0.20300183 -0.7827136 -0.56506526
000190 fd 0f d3 bd 62 ba 40 be f4 dd 78 3e 52 e3 b0 be
       -0.10305784 -0.188211 0.24303418 -0.34548432
0001a0 a2 50 04 3e 40 7c dc 3e 48 36 f8 be cc 4c 93 3e
       0.12921384 0.43063545 -0.48478913 0.2876953
0001b0 32 bb 9f bd d5 7a cd be 04 64 e2 be 55 5a 7f be
       -0.077993765 -0.40132776 -0.4421693 -0.24936803
0001c0 9f 4c 24 be ab 3d 03 be 05 c3 1c 3f 78 1d 86 bd
       -0.16044854 -0.12816493 0.61235076 -0.065485895
0001d0 93 95 a5 bd 06 95 3c bf 33 75 97 3e 17 96 8f 3e
       -0.0808517 -0.7366489 0.29581603 0.28044197
0001e0 67 b1 5b bf 00 9a f8 3d d4 b0 9f 3e 48 53 60 be
       -0.8581757 0.12138748 0.31189597 -0.2190677
0001f0 55 2f 1e bf b4 67 84 be 4e f0 2b bf 03 9b 2c bf
       -0.6179097 -0.2586037 -0.6716355 -0.6742403
000200 13 17 68 be 5d 88 a0 3e 06 27 b7 3e dd 22 a0 3d
       -0.22665052 0.31354037 0.3577196 0.0781915
000210 b3 28 7c be f7 da 6a bd 9f 8c 55 3e 9d 16 03 3e
       -0.246249 -0.057337727 0.20854424 0.12801595
000220 65 a9 49 3e ae a2 fc 3e f6 fd 76 3d 9d 77 5f be
       0.19693525 0.49342865 0.06030079 -0.21822973
000230 10 fd 27 bf 9b ed 27 3e a1 75 41 be 4e c4 ed be
       -0.6562052 0.16399233 -0.18892528 -0.4643883
000240 19 59 4f bd 1b 96 ab bd b8 84 b6 3e e3 32 4b 3e
       -0.05062208 -0.0837824 0.3564813 0.1984363
000250 4a fd 07 bf 04 ef 7e 3e 45 a3 05 3c 62 a9 3d bf
       -0.53120863 0.24895865 0.008156602 -0.7408658
000260 f6 b4 9f 3d 27 c0 0a 3f 26 11 6b be f3 3e fa be
       0.077981874 0.5419945 -0.2295576 -0.4887615
000270 84 b0 15 3e cb 51 22 bf 72 36 80 3d d2 27 73 be
       0.14618117 -0.63406056 0.062603846 -0.23745659
000280 cd 65 bc bd 08 2a 90 3e 67 85 3b bf 12 a3 62 bf
       -0.091991045 0.28157067 -0.7325043 -0.88530076
000290 9d a2 60 bf da 67 0c be f5 10 18 3e 39 52 2d 3d
       -0.8774813 -0.13711491 0.14850219 0.04231474
0002a0 d8 5d 19 3e dc 7d cd 3e fd 0d 0b 3e 91 bc 57 be
       0.14977205 0.40135086 0.13579555 -0.21068026
0002b0 e9 82 f2 3d af d3 f6 bd 05 b2 5f bd 38 48 d2 be
       0.118413754 -0.12052094 -0.054613132 -0.41070724
0002c0 2f e6 f8 be f9 ae a1 be d4 3d 39 be 58 85 b5 3e
       -0.48613116 -0.31578806 -0.18089992 0.35453296
0002d0 ce 87 1f be f1 d3 88 3d 4f 9c bb 3e af 6b 20 3e
       -0.15579149 0.066810496 0.36642691 0.15666078
0002e0 87 e8 51 be 17 89 71 bf a9 e9 a4 bd 39 53 31 3d
       -0.20498858 -0.9434981 -0.0805238 0.043292258
0002f0 69 e8 f3 3e a4 31 7e 3e 82 1f a1 be 73 fa f1 be
       0.47638252 0.24823624 -0.3146935 -0.4726139
000300 82 ec c7 3d ff 78 00 3f 25 52 b2 be 05 d0 1b bf
       0.09761907 0.50184625 -0.34828296 -0.6086429
000310 3e 60 04 3e 2f 78 59 3e 6f 7e 06 3e c6 84 3b 3e
       0.12927338 0.21237253 0.13134168 0.18312368
000320 61 8c 38 bf 7b e5 3f 3e 99 db 9f 3e 8c 23 53 bf
       -0.720892 0.18739884 0.31222227 -0.82476115
000330 13 70 0e bd 28 3d 35 bd 43 5d 4c bf 06 bc 65 bf
       -0.03477485 -0.044247776 -0.79829806 -0.89740026
000340 47 ad 3d bd 75 43 0a bd f0 30 67 be bd cf b0 3e
       -0.04630783 -0.03375574 -0.22577262 0.34533492
000350 dc 08 41 bd 98 50 97 3d 90 8c f3 3e 87 dc 34 be
       -0.04712759 0.07388419 0.47568178 -0.1766225
000360 22 3f 6a bc 13 45 9e bd 8b 3c df be ae 49 87 bd
       -0.014297279 -0.077280186 -0.43600878 -0.0660585
000370 07 08 4e 3c 64 bd f0 3e 65 a8 33 bf 3a 5f df be
       0.012575156 0.47019494 -0.70178825 -0.4362734
000380 f1 3e eb 3e a4 69 73 3e 6c 82 93 3e 19 3c b0 bc
       0.45946458 0.23770767 0.28810441 -0.021513032
000390 65 89 65 3e ed 6f ba 3e 1f 62 85 be 48 e3 61 bf
       0.22415693 0.36413518 -0.26051423 -0.8823743
0003a0 01 4e 89 bf 05 98 45 bf 49 55 76 3e d4 e0 15 be
       -1.072693 -0.7718509 0.24055971 -0.14636546
0003b0 e7 9c 30 bf 6c 86 86 3e ca 0a bb 3b 7b 9f 28 bf
       -0.68989414 0.2627443 0.0057080733 -0.6586835
0003c0 68 24 73 3e dd 90 a6 be 93 27 17 bf 81 3f 3e bc
       0.23744357 -0.32532397 -0.5904476 -0.01161182
0003d0 5a 4e 10 3e 3d cf eb 3d 71 8b 45 bf b3 15 c5 3e
       0.14092389 0.11514137 -0.77165896 0.38493118
0003e0 23 b7 58 3e 81 f8 58 bf d9 30 51 bb 4c fb 81 3d
       0.21163611 -0.84754187 -0.0031919985 0.06346759
0003f0 bf 21 1c bf 49 83 81 3d 96 45 f5 3e 26 2e 20 bd
       -0.6098899 0.06323869 0.47904652 -0.03910651

b0 f4 [32]
000000 9d b5 06 3d dd 70 39 3c e6 a9 85 bd cf a1 3b 3d
       0.032888044 0.011318413 -0.06526546 0.04580861
000010 b9 f7 43 bd 36 a2 a8 bd 32 4a 08 3d 5c 34 48 3d
       -0.04784367 -0.08234064 0.033273883 0.04887806
000020 97 be f3 3c 32 41 18 3d 99 70 fe bc 76 53 48 bc
       0.029753966 0.03717155 -0.03105955 -0.01222693
000030 59 59 b2 3c 46 1a db bd fb 97 31 3c 77 09 c6 3b
       0.02177112 -0.10698371 0.010839458 0.0060436088
000040 60 f0 45 bd e6 88 3c 3d d6 06 8c bd 9c 24 22 be
       -0.048324943 0.046028994 -0.06837241 -0.15834278
000050 61 38 79 3c f7 6a a9 bd c2 e4 da bc 78 bd c2 3c
       0.015211196 -0.08272355 -0.026720408 0.023771986
000060 56 3d e4 3c 7a 80 8d bd 21 37 c3 bb 34 46 8b bc
       0.027861279 -0.069092706 -0.0059574996 -0.017001249
000070 c1 d5 09 bc a8 7b 87 bd 81 e9 42 bd 80 e5 c2 bd
       -0.008412779 -0.066153824 -0.047585968 -0.0951643

conv1 f4 [32, 32, 3, 3]
000000 96 14 e4 bc 39 2c 79 be e0 55 25 be 24 f4 50 3d
       -0.027841847 -0.24333276 -0.1614604 0.05101408
000010 68 40 95 bd 65 10 49 be 07 07 2a be 71 4a 9f 3d
       -0.07287675 -0.1963516 -0.16604243 0.077778704
000020 86 60 6d bd 4b 2b 1a 3e a1 8e b8 bc 47 3f 9f bd
       -0.05795338 0.15055577 -0.022528948 -0.07775741
000030 70 d6 6e 3d de 15 25 3e e7 3f 02 3e 3f f9 1b bd
       0.058309972 0.16121623 0.1271969 -0.038079496
000040 99 b3 2f be 76 bd 0b 3d d8 36 78 be 5a 6c 95 be
       -0.17158355 0.03411623 -0.24239671 -0.29184228
000050 d7 cf 6c 3e 06 18 90 be 15 35 8f bd 80 ea ad 3d
       0.2312616 -0.28143328 -0.069925465 0.08491993
000060 99 f4 98 3d f3 3c 41 3e 9b da f6 3d 4b 3d 0d 3e
       0.07468528 0.18870907 0.120534144 0.13792913
000070 41 af 96 bd dc 73 40 be a2 ec 74 3e 32 3c 91 3d
       -0.07357646 -0.18794197 0.23918393 0.070915595
000080 62 c2 ad 3d d0 1f 32 3e a1 50 d9 bd 84 71 e7 3d
       0.08484341 0.17394948 -0.10611082 0.11300948
000090 86 d0 c6 3b aa c6 ed bd 07 d1 5c 3e 0e 38 9e bd
       0.0060673384 -0.11610158 0.21564113 -0.07725535
0000a0 2f 78 00 be a7 98 f0 bd 67 50 c8 ba d5 18 a1 3d
       -0.12545846 -0.11747866 -0.0015282751 0.078660645
0000b0 bb 70 47 be 02 51 8e bd 91 f5 e2 bc 07 b0 cf be
       -0.19476597 -0.06949045 -0.027704986 -0.40563986
0000c0 6c 06 00 3e a1 51 ae bc 81 92 ad 3d 02 c8 51 bd
       0.1250245 -0.021279158 0.08475209 -0.051216133
0000d0 d5 04 34 3e 68 f4 e5 bd 55 60 ad be 76 69 d3 be
       0.17579968 -0.112282574 -0.33862558 -0.41291398
0000e0 6c 30 29 bf bf 89 29 3e 36 4f 1b 3e 06 84 2d be
       -0.6608951 0.16556452 0.15166935 -0.16944894
0000f0 76 11 0f be 4d d9 43 3e a1 49 78 bd 8d 35 49 be
       -0.13971505 0.19125862 -0.060617093 -0.19649334
000100 40 f7 d7 bd 57 08 03 bd 50 95 6d 3d 33 66 56 3d
       -0.10545206 -0.031990375 0.058003724 0.05234356
000110 44 f8 37 3e bf 1b 87 be 4f 43 0d be f4 af 27 3e
       0.179658 -0.26388356 -0.13795207 0.16375715
000120 cd df e2 bc f5 72 61 be a5 1d 41 be 5d d0 61 3e
       -0.027694607 -0.22016509 -0.18858965 0.2205214
000130 79 54 1e bd e1 80 34 be 3a 44 14 3f f4 5a a3 3e
       -0.03865478 -0.17627288 0.57916605 0.3190533
000140 22 90 b7 3e 09 ae bd bd d7 ee d1 3d 2c 14 43 3e
       0.35852152 -0.0926171 0.10250633 0.19050664
000150 ad 51 7b bd ac 5c 23 3b de 1f 70 bc 08 43 d4 3d
       -0.06135719 0.0024927063 -0.014656035 0.10364348
000160 34 d0 b8 3d e0 93 ad be d2 b5 3f bd 8c ef 10 bd
       0.090240866 -0.33901882 -0.046804257 -0.0353847
000170 29 28 02 be a4 b5 6a 3e 66 4e 1e 3e 1f b2 c6 bd
       -0.12710632 0.22920853 0.15459594 -0.09701943
000180 60 f1 a3 3c ac 67 ed bc 06 56 97 be 66 b0 d3 be
       0.020012558 -0.028980099 -0.29557818 -0.4134552
000190 dc bb 15 be 81 bc 3e be c9 7b 84 3d bc 82 2f bd
       -0.14622444 -0.18626596 0.06468923 -0.042849287
0001a0 81 7c 32 be 00 8e 99 3e de a1 21 be 37 0b c6 bd
       -0.17430307 0.2999115 -0.15784404 -0.09670108
0001b0 be 0f 08 bd 5c 43 6a bd fd 1a 32 be ab dc 23 3e
       -0.033218138 -0.057193145 -0.17393108 0.16002147
0001c0 7b c3 df 3c 1f 17 b5 3d 7a 13 68 3e f0 5e 11 3d
       0.027314892 0.088423006 0.2266368 0.03549093
0001d0 bb 88 6a 3d 71 82 98 be fa 13 2c bd 3d 54 43 be
       0.057259303 -0.2978702 -0.04201124 -0.19075103
0001e0 cb 61 87 be 0f 0e ef 3d 76 4f 1b be 9e 79 c7 be
       -0.26441798 0.11672603 -0.1516703 -0.38959974
0001f0 67 0d 9a be 95 7a 45 be c0 d6 a8 be c1 48 e4 bc
       -0.3008835 -0.19285043 -0.3297634 -0.027866723
000200 ba f3 5b be 62 b0 af 3d c1 b2 b5 3d 37 b7 71 3d
       -0.21479693 0.08578564 0.08871985 0.059012618
000210 66 10 6c 3e 1c b6 88 bd f6 09 48 bd 4c 17 cc 3d
       0.2305313 -0.066753596 -0.048837624 0.09965381
000220 be e9 d4 3c 9b f2 93 3e 8f f5 1c 3e c6 27 8e bd
       0.025990363 0.2889603 0.15328048 -0.0694118
000230 ca 6c 70 3e 61 23 1b 3d a3 73 a0 bd f1 46 9d bd
       0.23479 0.037875537 -0.07834556 -0.076795466
000240 2b 21 47 bc e5 d2 60 be 9a e6 cc bc 4c 1e c0 bc
       -0.012153904 -0.2195545 -0.025012303 -0.023451947
000250 3b 0c 16 be 14 4c 09 be 8e 46 93 3e a3 b9 69 3e
       -0.14653103 -0.13407928 0.28764766 0.22824721
000260 51 15 32 bd e3 23 88 3d 51 7d af bd b3 bd 5f 3d
       -0.04347736 0.0664747 -0.08568824 0.05462427
000270 7e b2 4e bc 07 49 b4 bd 81 6c 0e 3c 13 15 a2 3d
       -0.012615798 -0.08802991 0.008692862 0.07914176
000280 21 38 72 be 1b 84 2d be 9a d2 21 be 06 91 1a be
       -0.23654224 -0.16944925 -0.15802994 -0.15094385
000290 6b 30 ca bd c9 17 92 3d 52 00 50 3e ff 8b cf 3d
       -0.09872516 0.07133443 0.20312622 0.10134124
0002a0 ee e8 dc bc 44 c1 72 be fd 3e aa 3c 0d 53 e9 be
       -0.026966538 -0.23706537 0.020781988 -0.45571175
0002b0 63 ba b2 bd 07 e2 06 bf d7 dd b7 3d c1 01 16 3e
       -0.08726957 -0.5268864 0.089778595 0.14649107
0002c0 ee 9e 1f be 50 92 da be ed 2c ec be 2a ce c0 be
       -0.1558797 -0.42689753 -0.46128026 -0.3765729
0002d0 35 8c 39 3d 56 df e5 3d 91 fb 05 3f 40 c4 60 3c
       0.045299727 0.112242386 0.52336985 0.013718665
0002e0 5a 5e 5c be 25 de 4c 3e fa 76 39 bc f1 23 f7 bb
       -0.21520367 0.20006616 -0.01131987 -0.0075421263
0002f0 96 92 1e 3e 9d af 17 3c df ab 63 3d ec d0 9d bc
       0.15485606 0.009258178 0.05558383 -0.01926466
000300 30 29 93 bd c7 b1 49 bc 47 71 8b bd 2d 9e 27 3e
       -0.0718559 -0.012310452 -0.06808715 0.16368933
000310 48 98 b4 3d 85 8c 85 3e cf 2c 84 be a4 65 56 be
       0.08818108 0.2608377 -0.25815436 -0.2093721
000320 b0 cd bb be 11 ed ea bb 1c 04 4b bd 78 c0 bf be
       -0.36680365 -0.007169374 -0.049564466 -0.3745153
000330 4b 4b c8 3d 72 e5 97 3d 77 17 e8 be 02 7a bb 3c
       0.09779986 0.0741681 -0.45330402 0.022885326
000340 23 67 6c bd 99 37 ba 3d 40 e8 b6 3d c3 95 02 3e
       -0.057715546 0.09092636 0.08931017 0.12752442
000350 c1 e4 8c 3d e7 c2 71 3e 44 34 0f 3d 35 ea 82 be
       0.06879569 0.23609506 0.034961954 -0.2556931
000360 37 21 a0 3d 91 80 dd 3d f6 6d 15 bf 33 0a d9 bc
       0.07818835 0.10815538 -0.5837091 -0.026494121
000370 76 88 5a 3e 97 e8 05 bd 00 e8 cf 3d e9 12 fa 3d
       0.21341118 -0.032692518 0.10151672 0.12210638
000380 7a ee c8 bd cb d1 b1 be ea 4e 3e be 87 0d a2 3c
       -0.09811111 -0.34730372 -0.18584791 0.019781841
000390 88 9a c3 bc 05 b2 48 be 5d f1 30 bd 9a 22 9e be
       -0.023877397 -0.19599159 -0.043198932 -0.30885774
0003a0 ee ee cc be 82 b1 db be a0 88 4a 3c 5a 9e b2 be
       -0.4002604 -0.42908865 0.0123616755 -0.34886438
0003b0 f2 16 09 bf ab 21 38 3e 75 fe 67 3d 50 75 80 be
       -0.53550637 0.17981593 0.056639154 -0.25089502
0003c0 6c 77 a9 3e b7 7a 65 3e 50 17 82 be 64 63 a2 bd
       0.33098924 0.22410093 -0.2540841 -0.079291135
0003d0 97 8d 15 bd 96 6c d3 be 27 49 8c bd 9c 99 28 bd
       -0.036511984 -0.41293782 -0.0684989 -0.04116212
0003e0 7f 3d 32 be a5 d4 ed 3d 1e 7b e6 3d a4 fd 37 3d
       -0.17406271 0.11612824 0.112539515 0.044919625
0003f0 9f b8 2a bd 54 a6 e0 3d e6 2c bc 3e 76 1f 15 3d
       -0.041679975 0.109692246 0.36753005 0.036406957

b1 f4 [32]
000000 b6 13 a4 3e b0 22 b4 3c 3b 83 f4 bb 07 18 c3 bd
       0.32046288 0.021989197 -0.007461933 -0.09526067
000010 df 44 f6 3c af b0 99 3a c0 eb f4 3d f5 04 ad bc
       0.030062137 0.001172563 0.11959028 -0.021120528
000020 b8 ea c2 bc 3f c7 46 bd b0 51 4f 3c 2a ba 75 3d
       -0.023793563 -0.04852986 0.012653753 0.059991993
000030 c6 78 22 3d f5 ee ab bb c5 b9 1b 3c 10 89 8e bc
       0.03966596 -0.0052469918 0.00950474 -0.01739934
000040 67 87 b1 3b bc d0 6d bd 59 74 ba 3c 04 a7 84 bc
       0.0054177525 -0.058060393 0.022760557 -0.01619292
000050 b3 05 9b 3c 07 a0 10 3d 44 04 77 3c 36 0e a9 3c
       0.018923616 0.035308864 0.015076701 0.02063666
000060 6f fe 94 3d 22 bd 1e bc d9 c4 a4 3d 24 0b 25 3d
       0.07275092 -0.009688647 0.08045358 0.040293828
000070 6f 55 78 3c 00 9c aa ba 9b 2d 71 bc 3d 17 30 3d
       0.015157088 -0.0013016462 -0.014720346 0.04299091

conv2 f4 [32, 32, 3, 3]
000000 a0 24 5f 3d ea 0f 12 3d db ef 87 bd 17 11 fa 3d
       0.054478288 0.035659708 -0.06637546 0.12210291
000010 3e b3 31 3b 97 e1 cd 3d 4f 27 34 3d a2 56 b3 3c
       0.0027114893 0.100527935 0.0439828 0.021891896
000020 3d 32 61 bd 0e 47 ea 3c aa b4 0a 3d c6 65 c6 3c
       -0.05497955 0.028598335 0.0338637 0.024218451
000030 6a 7f 9e 3d e8 6a 5d 3d fd ed 2b bd dd a1 30 bc
       0.07739146 0.054057032 -0.04197501 -0.010780779
000040 c7 c6 ed 3c 03 56 9f 3d cf 3c b1 3c bb 5c 7c bb
       0.029025448 0.07780077 0.021635441 -0.003850742
000050 c4 87 d2 bc 76 2d 55 3d 97 19 8b 3d 27 71 af 3b
       -0.025699504 0.052045308 0.0679199 0.005354065
000060 16 1e 85 3d 29 32 c8 3b ca 7f ee bc c8 72 1b bc
       0.06499879 0.006109495 -0.029113669 -0.009487815
000070 c0 fc e2 bb 23 e4 52 bd eb ed 96 ba 7e 1a 99 bd
       -0.006927103 -0.0514871 -0.0011514997 -0.07475756
000080 35 7a ba bd c2 9c 74 bd 4a f7 75 bd 8c 6d 87 bd
       -0.091053404 -0.05971981 -0.060050286 -0.06612691
000090 d9 8b 1d 3d 10 33 dd bc f3 f4 fb bc e9 f0 16 bd
       0.038463447 -0.027001888 -0.03075645 -0.036850844
0000a0 2b 15 20 3c 9c c8 df 3d 07 84 d5 3d 76 08 48 3d
       0.009770672 0.10926935 0.10425573 0.048836194
0000b0 f4 5f 5a 3d ca c7 1d 3d bd 11 82 3d 6b 8b 08 bd
       0.053314164 0.03852061 0.063510396 -0.033336084
0000c0 83 ae 3a bd 77 da 89 3d f9 91 bc bc a1 c3 e7 3d
       -0.045576584 0.06731122 -0.023018824 0.1131661
0000d0 fe 77 74 3c 15 fd e2 ba 20 0b d6 3d dc 5d 35 bd
       0.0149211865 -0.0017317856 0.10451341 -0.044278964
0000e0 28 de e6 3c 33 2d 74 bc df 10 ec 3d 9d 66 2a bd
       0.028182104 -0.014903354 0.115266554 -0.041601766
0000f0 f7 7f b8 3c 92 4d 6f 3c ba 48 1c 3d 82 76 10 3d
       0.022521956 0.014605897 0.038155295 0.035269268
000100 22 cd 1f 3d 09 ca 1e 3d c2 23 76 3c c0 5e 3c 3d
       0.03901399 0.038766894 0.015023174 0.0459888
000110 90 2e 17 bd 25 dd 01 3d 34 7e 0f bd 87 61 3c 3c
       -0.03690964 0.03170504 -0.035032466 0.011497862
000120 37 b9 1c 3c 69 02 f6 3c e4 de e2 3b c3 b7 14 ba
       0.009565643 0.030030446 0.0069235433 -0.00056731346
000130 2e c6 aa 3c a7 92 70 3d f6 a7 e8 3c 66 3f 6d bc
       0.020846453 0.05873361 0.028400403 -0.014480447
000140 7f ae 39 bd c6 e9 58 bd 28 4b 4d bd 88 d2 7e bd
       -0.045332428 -0.05295732 -0.050120503 -0.062212497
000150 35 95 60 3d e4 e5 63 b9 f0 3c eb bd 35 f1 a9 3d
       0.054829795 -0.00021734048 -0.11486232 0.0829796
000160 61 b7 2f bd d5 de e5 3c e1 59 44 bd 4e d4 69 3d
       -0.042899493 0.028060356 -0.047937278 0.057087235
000170 9a af f8 bd 32 98 ef bc 6a f2 98 bd 4b 41 71 bb
       -0.12142868 -0.029247377 -0.07468112 -0.00368126
000180 b3 c6 2a 3d e4 6f 37 bd 4e 7a bb bd c9 7a 95 3d
       0.0416934 -0.04478444 -0.09154187 0.0729881
000190 cf 75 ee 3b 88 54 b0 3d 75 3f 5e bd 39 64 1b 3d
       0.0072772275 0.08609873 -0.054259736 0.037937377
0001a0 ec 33 f0 3d 95 99 65 bd a0 87 8d 3c fd 63 88 3d
       0.11728653 -0.05605467 0.017276585 0.06659696
0001b0 cd 24 a5 3d 42 18 37 3d 06 3e 3c bd 5c 7e b7 3c
       0.0806366 0.04470087 -0.045957588 0.02239912
0001c0 a7 14 a5 3d 6f 9c 7d 3c d9 c8 fb bd a0 f8 b5 bd
       0.0806058 0.015479191 -0.12294168 -0.08885312
0001d0 23 c1 a4 3b 28 ef 2a 3d f9 3a 3a bd a9 88 ff bb
       0.0050279065 0.041731983 -0.045466397 -0.0077982736
0001e0 0c 81 31 bd 54 be a4 3d f9 8e ca 3b 73 44 9a bd
       -0.04333596 0.08044115 0.0061815945 -0.07532587
0001f0 7b 71 58 3d fe 7d 78 bd a6 29 3a bd ea 02 c3 3c
       0.0528426 -0.06066703 -0.045449875 0.0238051
000200 fb f5 8b bc 12 f9 34 bd 06 11 26 3d ab bb 6a 3c
       -0.017085066 -0.044182844 0.04054358 0.01432697
000210 0f b0 3c 3c 02 45 d2 3c e2 f8 45 3a 80 ec 56 3c
       0.011516585 0.025667671 0.000755204 0.013117909
000220 b1 bf 90 3a 9a a4 b4 bb 22 ba 1e 3d a6 51 19 bd
       0.0011043457 -0.005512786 0.03875173 -0.03743138
000230 24 13 84 3c 3c 07 26 bc 8f 05 30 3d c2 91 67 bd
       0.016122408 -0.010133561 0.04297405 -0.05653549
000240 ac 8c c1 bc 9b e9 57 bd 52 6e 14 bd 01 aa 39 3c
       -0.023626648 -0.052713018 -0.036238022 0.011332036
000250 e2 94 4b bd a0 c3 aa 3c 0b c4 14 bd 08 26 84 3d
       -0.049702533 0.020845234 -0.036319774 0.064525664
000260 78 75 21 3d fd bc e7 39 25 22 8d 3c f1 82 9a 3c
       0.039418668 0.0004420056 0.017228195 0.018861266
000270 4a 63 96 3d 3b 80 ca 3b 28 c2 cd 3b af ef 09 bb
       0.07343157 0.006179837 0.0062792487 -0.0021047404
000280 16 b2 81 3d c1 4e 89 3a 88 d7 85 3b 4a 35 d5 3d
       0.06332795 0.0010475741 0.004084531 0.10410555
000290 45 1f bd 3b 69 09 6c 3d 0f 9c 3e b8 5a 9e bf 3d
       0.00577155 0.05762616 -4.544487e-05 0.09356375
0002a0 0c 7b 86 3d 45 b6 91 3d db 5d 69 bc e3 a1 22 bd
       0.06566438 0.07114843 -0.014243568 -0.03970517
0002b0 fb fd 4e bd f0 73 2f bd 58 3d f0 bb 8e 3f bb 3c
       -0.050535183 -0.042835176 -0.0073315315 0.022857454
0002c0 b7 40 8b 3d 03 89 5d 3b 13 97 b9 bc 75 16 2b 3d
       0.06799453 0.003380359 -0.022655046 0.041769464
0002d0 88 64 11 3e 9d 0d f9 bc bc 25 0c be 77 b8 d1 3c
       0.14198506 -0.030402 -0.1368627 0.025600655
0002e0 7a a9 b9 bd 42 e4 0f be 11 bf 86 bd fd 9b b4 bd
       -0.09065528 -0.14051917 -0.06579412 -0.08818815
0002f0 01 eb 2a be ac de 88 3d ca 39 bd bc 7f 73 12 3c
       -0.1669121 0.06683096 -0.023098845 0.008938669
000300 54 ed 13 3e 26 4c 92 bb be ad 55 3d ca a9 1d 3d
       0.14446002 -0.004464644 0.052167647 0.038492
000310 c4 30 a2 3c ae 44 af bc 56 e0 84 bb 25 93 b7 3c
       0.019798644 -0.021395054 -0.0040550632 0.022409031
000320 dd 70 05 3c 8a 18 cf 3d da d6 8b bc a5 d2 18 3d
       0.0081445845 0.10112102 -0.017070223 0.03731026
000330 da 63 d2 bc 0e 3e 12 3d 1a 72 88 bc 31 46 93 bc
       -0.025682379 0.03570371 -0.01665597 -0.017977806
000340 1b e3 c9 bc 09 41 e7 3c fe 97 74 3d f6 08 46 bc
       -0.024644425 0.028229253 0.059715264 -0.012087097
000350 04 e7 f5 bc 35 60 c0 bc 99 61 1e 3c 53 f0 a5 3c
       -0.030017383 -0.023483375 0.009666824 0.020256197
000360 c8 6e c8 3c b2 fa 87 bd 96 19 b2 bd 4c bd 67 3c
       0.024466887 -0.06639613 -0.086962864 0.014144253
000370 c9 50 97 3c 14 3e c3 3b 88 a9 c6 3d 18 04 c3 3b
       0.018471139 0.005958328 0.09700304 0.0059514157
000380 06 96 69 bc d6 72 12 bc 6b 6e 03 3d 25 27 8c bd
       -0.01425696 -0.008938512 0.032087725 -0.06843404
000390 0c a5 6b 3b 07 30 87 3d 87 e9 b0 bc c7 35 a5 bd
       0.003595653 0.06600957 -0.02159573 -0.08066898
0003a0 db 76 6e 3d a7 cb 58 bd 05 ce bf 3c 8b 1e ab bb
       0.05821882 -0.052928593 0.023413667 -0.005222147
0003b0 08 f7 89 3c 82 5b e5 3b 9b 9f 06 3c 97 ab 6b 3c
       0.016841426 0.006999434 0.008216764 0.014384172
0003c0 71 14 0f 3c 92 4b ac 3c 2d 4f 2e 3d 11 a6 c5 bd
       0.008732901 0.021032128 0.042555977 -0.09650815
0003d0 c1 0a 78 bd b1 45 07 3e de 77 94 be 9d ae 1a be
       -0.06055713 0.13210179 -0.289977 -0.15105672
0003e0 ee 56 ec bd 03 16 9e be 12 c9 d4 bd 92 b2 77 bd
       -0.11540018 -0.3087617 -0.103899136 -0.060473032
0003f0 8f dc 26 3d 6f 5a 6b 3d 06 57 5b 3c 08 3d a4 39
       0.040737685 0.05745929 0.013387447 0.0003132599

b2 f4 [32]
000000 f8 fc cd 3c 57 f2 5c 3d 11 ab ff bc 90 39 4c bd
       0.025145039 0.05394205 -0.0312095 -0.049859583
000010 19 fa cb 3d 4a 95 c4 3d 03 e9 49 3e d9 96 e0 bd
       0.09959812 0.09598787 0.19717793 -0.10966272
000020 65 36 68 3d 7e 4d e6 be ab b7 76 3d 62 5b 49 3e
       0.0566925 -0.44980997 0.060233753 0.19663766
000030 ad 66 86 be cb 9a 1b bf cb 4a 0a 3d da bb 86 3e
       -0.2625021 -0.6078307 0.033762734 0.26315194
000040 e1 f6 e2 3c c4 df 07 3d d5 81 ae 3c 16 c7 92 3c
       0.027705612 0.033172384 0.021302143 0.017917197
000050 65 42 f4 3d cc 94 cf 3d c3 b1 05 bb 86 a4 ee 3d
       0.11926726 0.101358026 -0.0020400144 0.11652474
000060 51 33 57 bc 68 e8 05 3e ab ed e3 3c 7d 66 ea 3e
       -0.013134793 0.13076937 0.02782329 0.45781317
000070 84 33 8e 3d 85 83 55 3d 28 54 40 3e 0a 4e 4d bd
       0.069434196 0.05212738 0.18782103 -0.050123252

conv3 f4 [32, 32, 3, 3]
000000 fa c8 42 39 ad be 8b bb 86 e2 3b bd 45 17 03 bd
       0.00018576151 -0.0042646737 -0.045870326 -0.032004613
000010 0d 55 f4 3d 20 7d c1 bb 1d b8 69 bb ec e9 a8 3c
       0.11930285 -0.0059048086 -0.0035662719 0.020619355
000020 58 77 dc bc 0f 54 ad 3e 92 ac 1d 3e ea c1 c3 3e
       -0.026912376 0.33853194 0.15397862 0.38233882
000030 a8 33 9d 3d 6d da 43 be 4e 85 7e 3d 0d 79 ce 3e
       0.07675868 -0.19126292 0.062138848 0.4032673
000040 cc 13 6b 3d 46 4e c2 3e a5 57 b6 bb 57 bf 0e 3d
       0.057391927 0.37950343 -0.0055646473 0.034850445
000050 90 3f f2 bc 9b e6 73 bc 13 1e 03 3d fd 05 72 3d
       -0.029571325 -0.014886524 0.032011103 0.059087742
000060 a6 5c 41 bc 2b 59 22 3d 84 25 00 bc ff 8c 07 3d
       -0.011801874 0.03963582 -0.007821444 0.03309345
000070 4f bc 6c 3c 52 e2 e8 bc 61 3b ce 3c 87 51 a1 3d
       0.014449193 -0.02842823 0.025174798 0.07876878
000080 2c 5e 1d bd fb 3b 98 3d 10 d2 1a bd 75 f1 ec 3c
       -0.038419887 0.07433315 -0.037797987 0.02892373
000090 d3 20 c2 bd 4a 56 53 3c 55 b8 a5 bd 55 58 93 3c
       -0.09478917 0.012898991 -0.08091799 0.017986456
0000a0 b0 94 c7 3d 53 c5 c0 bc 17 1e cf bd 06 9e 89 bc
       0.09745157 -0.023531592 -0.10113161 -0.016798984
0000b0 2c 47 59 bd 82 4c 03 be c2 67 a8 bb 5f ad 8f bd
       -0.05304639 -0.12822154 -0.005139322 -0.0701549
0000c0 3f 95 23 3b e1 3e 62 3d 20 37 ef 3c dd d6 99 bd
       0.0024960784 0.055235747 0.02920109 -0.07511685
0000d0 6b 3c 1f bc d2 68 0a be 89 2a 2b 3d 18 4a 0a 3a
       -0.009718995 -0.13516548 0.04178861 0.0005275323
0000e0 1c 5a 65 3d 0e f5 a2 bc 44 dc 7e 3b 4e 24 44 3d
       0.055994138 -0.019892242 0.0038888613 0.047886185
0000f0 f8 47 10 bc 36 4f 4d 3d e3 45 51 bd 5d 9e 78 3c
       -0.008806221 0.05012437 -0.05109204 0.0151744755
000100 71 50 98 3b 78 66 e6 3a 5c 2b 8c 3c 96 5a ff bb
       0.0046482612 0.0017578145 0.01711052 -0.007792781
000110 3d ea 4e bc a5 51 e6 bc 27 db 28 bc 07 0f 36 3d
       -0.012629089 -0.028115103 -0.010306156 0.044447925
000120 19 69 c2 3c 8e 0a 75 3c 0c cc 28 3d 71 cc bf 3d
       0.023731755 0.01495613 0.04121022 0.09365166
000130 a9 93 fe 3b 86 a8 3f 3c 53 5f 0a 3d e4 32 06 bd
       0.0077690673 0.011697894 0.033782315 -0.032763377
000140 ce 2a 2b 3d d8 79 3c bd 95 31 87 3d f6 2c b0 3a
       0.04178887 -0.046014637 0.06601254 0.0013441134
000150 2e f2 20 3d f8 4b 9b bc 54 71 9c 3c c8 56 1c 3d
       0.03929346 -0.018957123 0.019097008 0.0381687
000160 48 ed 4a bc 37 25 08 3b 56 40 01 bd 7e d2 be bc
       -0.012385674 0.0020774135 -0.031555496 -0.02329373
000170 87 f3 e2 bb a7 bf d2 bc 46 8e 60 be 12 c7 9d bd
       -0.0069260034 -0.025726153 -0.21929273 -0.07703985
000180 2e 42 3d 3d 74 18 e9 bd 99 24 29 3d a4 31 9e bc
       0.046205692 -0.11381617 0.041294668 -0.01931078
000190 70 28 6d 3d 05 70 cf bc c7 59 52 3b c9 57 00 3d
       0.057899892 -0.02532197 0.0032096968 0.03133372
0001a0 9f 03 1c bd 1f 63 23 35 d2 c3 81 3c a0 ea 1d 3d
       -0.03808939 6.086647e-07 0.015840445 0.038553834
0001b0 70 b9 32 bd a1 ab f8 3c 51 65 02 bd b5 7f 95 3c
       -0.04363388 0.030355277 -0.031834904 0.018249372
0001c0 92 ec 36 bc 45 be a6 3c 56 23 14 3d b5 8c 78 3b
       -0.011164801 0.0203544 0.03616651 0.0037925665
0001d0 e9 e3 80 3d fa 30 a6 3c 53 8d 28 bc 80 f9 a2 bc
       0.062934704 0.020287026 -0.010287601 -0.019894361
0001e0 50 8b a3 bc 58 c1 0c 3d 63 48 9b 3b 6e 16 63 3c
       -0.01996389 0.034364074 0.004738854 0.013860328
0001f0 66 24 a2 bd 26 7f 45 3d 2b 9f 00 3d 26 91 76 3d
       -0.07917099 0.04821696 0.031401794 0.060197018
000200 90 4c 3c 3b 98 26 9c bd b5 48 9a 3d 4f 82 3c 3d
       0.0028732158 -0.07624549 0.07533399 0.04602271
000210 e2 d7 8a 3d 82 82 3a bc 6c aa 07 bd d4 c8 5b bc
       0.06779458 -0.011383655 -0.03312151 -0.01341458
000220 5c 3b 05 3c 52 10 5e 3c 54 04 0e 3d a3 e6 e7 3c
       0.008131828 0.013553696 0.034672096 0.028308218
000230 9b 89 16 3c 41 87 d1 3c e7 22 e7 b8 f0 39 e8 3c
       0.009188081 0.02557719 -0.000110214394 0.02834794
000240 5c 1f 2f 3d 1b a6 69 bd 96 a8 5e bd ec fd c9 bc
       0.042754516 -0.057043176 -0.054359995 -0.024657212
000250 c0 cd 29 3d 4b 0c 7f 3d 89 02 6c bd b4 da a1 bc
       0.041455984 0.062267583 -0.057619605 -0.019757606
000260 6c 96 36 3d 3f b4 06 bd 37 ea 90 bc 50 34 96 bc
       0.044577047 -0.03288674 -0.017689807 -0.018335491
000270 d8 93 61 3d 8a ce aa b7 02 fe a7 bd 6e ec 92 bc
       0.055072635 -2.0361756e-05 -0.08202745 -0.017935004
000280 20 0e 9d 3c bd 91 44 3c b3 97 0f 3d fe 16 be bc
       0.019171774 0.011997637 0.03505678 -0.023204323
000290 99 c5 49 3d 4c 02 a6 bb 70 db 14 3d 73 15 b9 3b
       0.04926071 -0.005066192 0.036342084 0.005648309
0002a0 da bc 4d bd 7e 12 8b b9 8d 53 75 bc f2 c2 a0 3c
       -0.05022893 -0.00026525924 -0.014973533 0.019624207
0002b0 44 68 18 3d 44 79 c2 3c 91 d8 99 3d 22 77 54 b7
       0.03720881 0.023739465 0.0751201 -1.26639225e-05
0002c0 45 b6 50 bd 9f 12 8b 3d 1d b7 4c 3d 51 24 b1 3c
       -0.050955076 0.06790661 0.049979318 0.021623762
0002d0 72 be 8f bd 16 05 5a 3b 93 7d 69 bd e7 87 09 bd
       -0.070187464 0.0033267192 -0.057004523 -0.033576872
0002e0 cd 64 2c 3d aa 3e 44 3d e0 70 54 bd e8 d1 5c 3d
       0.04208832 0.047911324 -0.05186546 0.05391112
0002f0 23 72 1f be c8 07 64 3d cb 8f 0c 3d 15 3f 2a bd
       -0.15570883 0.055671483 0.03431682 -0.041564066
000300 e1 80 5b bd 9a da 94 bc 04 1b 85 3d a5 30 a8 37
       -0.053589705 -0.018170644 0.064992934 2.0049813e-05
000310 02 68 ed bc 27 cf a6 3c 5d d7 95 bb df b6 6a bc
       -0.028980259 0.02036245 -0.0045727924 -0.014325826
000320 df e8 1f bd e9 40 08 bd 3a 82 81 bc e2 e1 4d 3d
       -0.039040443 -0.03326503 -0.015809167 0.050264247
000330 a5 d2 96 3d bd 37 10 bd d4 e5 6a bc 49 e4 a6 3d
       0.07364396 -0.035209406 -0.014337022 0.08149011
000340 ee ad f2 bb 7d 4c 9f 3d b4 f4 c1 3c 71 64 15 bc
       -0.007405988 0.07778261 0.023676254 -0.009118185
000350 75 d0 bb 3c 93 a7 a7 bd 4e 05 a0 3d 2e 55 3f bc
       0.022926548 -0.08186259 0.07813512 -0.011678023
000360 95 b7 80 bb 3d ce 61 3c dd 3e 27 bd 14 27 1f 3c
       -0.0039281347 0.013782081 -0.040831435 0.009713907
000370 06 fb aa bb 30 13 0b 3d 0d 39 52 3d 21 40 83 bd
       -0.0052179126 0.033953846 0.05132394 -0.06408716
000380 ba d5 8b bb 07 51 8d 3d 2f 8f e5 3c 14 b3 a6 3c
       -0.0042674216 0.0690022 0.028022377 0.020349063
000390 7c 8e 0d bd 46 4e 66 bd 6d 47 57 bc f0 75 82 3d
       -0.03455971 -0.05622699 -0.013139588 0.06370151
0003a0 42 99 4c bc cb a4 50 3d c5 77 b1 bc 20 6f 43 bc
       -0.012487711 0.05093841 -0.021663556 -0.01192835
0003b0 eb b8 71 bc 60 d7 f7 3c 23 c3 9c bc c9 12 52 3b
       -0.014753561 0.030254066 -0.019136017 0.0032054654
0003c0 b1 db 7c bd f2 6e 3a 3d 8b 5e 3e 3d 5e b6 2f bd
       -0.06173295 0.045515962 0.046476882 -0.04289853
0003d0 05 c9 1a 3d 0d 73 8a bb fe f7 b5 3b 6b 33 2e bd
       0.037789363 -0.004225141 0.0055532446 -0.042529505
0003e0 a8 5c 6e 3b 03 cb 43 3d ff 1a 2c bd 3a 0f 7a 3d
       0.0036371145 0.04780103 -0.042017933 0.061049677
0003f0 62 1e 5f 3d 67 f9 49 bd 74 c5 89 3c 9c c8 f9 3b
       0.054472335 -0.049310114 0.016817786 0.0076227915

b3 f4 [32]
000000 4e 7c 70 3e f1 f4 46 3e 0e c1 33 3e d4 25 90 3e
       0.23484918 0.19429375 0.17554113 0.2815386
000010 08 56 8a 3e 42 ab 83 3e 71 8a 1f 3e b9 b2 42 3e
       0.27018762 0.25716597 0.15580155 0.1901349
000020 23 80 63 3e fb c2 af 3c 69 03 83 3e 5e e0 3f 3e
       0.22216849 0.021455279 0.2558854 0.18737933
000030 04 69 a1 3e a3 f1 49 3e 56 1d e4 3d 54 cf 63 3e
       0.31525433 0.19721083 0.11138408 0.22247058
000040 3d 5d 53 3e c2 76 34 3e 14 12 18 3e 00 dd 53 3e
       0.20641036 0.17623428 0.14850646 0.20689774
000050 28 0e 2e 3e c2 e4 7d 3e 1d a1 5c 3e 69 84 1b 3e
       0.16997588 0.24794295 0.21545835 0.15187229
000060 e0 e9 fd 3d cb 41 88 3e d0 aa 81 3e b1 30 66 3e
       0.12398124 0.26612696 0.25325632 0.22479512
000070 d9 d1 32 3e d6 34 fc 3d c1 53 c2 3d 88 8f 26 3e
       0.17462863 0.12314765 0.09488631 0.1626569

w4 f4 [5, 32]
000000 f4 5b 07 c0 c9 12 18 c0 02 1b 03 3f 7b b1 10 c0
       -2.1149874 -2.3761466 0.51213086 -2.2608325
000010 b9 2a 03 3f 1d 0e 8a 3f c8 51 fc be 46 02 07 c0
       0.51237065 1.0785557 -0.49281144 -2.1095138
000020 f4 99 3f 40 12 11 c0 bf 4a 78 34 be 55 29 df bf
       2.9937716 -1.500521 -0.17624012 -1.7434489
000030 f6 aa 5e 40 36 13 39 bf e9 3d 53 40 40 a1 04 c0
       3.4791846 -0.7229494 3.3006537 -2.072342
000040 a8 95 19 3f a8 80 64 3f 39 1a 1c c0 26 ed 54 40
       0.5999398 0.89258814 -2.4391005 3.3269744
000050 97 04 80 3f 01 84 0c c0 cb d6 5d bf ca 8c eb bf
       1.0001401 -2.1955569 -0.86655873 -1.840234
000060 a6 05 2f 3f 1b 68 02 bf 4c f6 bc bf 0f 5c 5b 40
       0.68367994 -0.509401 -1.4762664 3.4274938
000070 65 b8 d1 be 27 88 e4 bf 90 a5 40 be e7 4b 94 bf
       -0.40960994 -1.785405 -0.18813157 -1.1585664
000080 e9 f4 ae bf d6 45 3d 40 bb 55 6d 3f 02 7c 78 3f
       -1.3668491 2.9573874 0.9270894 0.9706422
000090 b9 cf bf bf ce d1 ce bf 7a 69 ac bf 55 bc 1f 40
       -1.4985267 -1.6157777 -1.3469689 2.4958699
0000a0 45 37 f3 bf 21 57 93 bf f4 ad 1a c0 f1 6f fa bf
       -1.9001242 -1.1510965 -2.4168673 -1.9565412
0000b0 b8 b9 8d bf 7b 9c 76 bf 7d 2f 2a be 53 e7 05 c0
       -1.1072302 -0.9633252 -0.16619678 -2.092244
0000c0 85 7c 4e 40 f0 82 e7 bf 4f 5a c0 3e 22 fa d1 bf
       3.22635 -1.8086834 0.375689 -1.640446
0000d0 33 a2 fd 3f 24 0d e4 bf 0e ca 55 40 48 a5 5c 3f
       1.9815124 -1.781651 3.3404574 0.861897
0000e0 3b 44 df bf 57 15 92 bf 9b 06 42 40 c4 89 cd bf
       -1.7442697 -1.1412762 3.0316532 -1.6057668
0000f0 c4 ea 47 40 6a 89 a7 be c4 ae 7b bf 94 7b aa bf
       3.123704 -0.32722026 -0.98313546 -1.3318963
000100 4d 67 39 40 f0 f2 12 3e 37 fa 33 c0 6c 61 de bf
       2.89693 0.14350486 -2.812147 -1.7373481
000110 d3 43 06 c0 c5 1d 30 40 29 8e 41 40 a9 3f 99 3f
       -2.0978897 2.751817 3.0243018 1.1972553
000120 c5 b7 fd bf 3b e5 4a 40 7d 67 13 3f c1 60 80 bd
       -1.9821707 3.170241 0.57579786 -0.06268454
000130 c1 fa b8 bf 8b 5e fe bf d0 2a eb bf 8f 34 92 bf
       -1.4451524 -1.9872602 -1.837244 -1.142229
000140 76 2e fe bf 98 70 bd bf e8 05 35 40 50 09 bd 3d
       -1.9857929 -1.4799986 2.8284855 0.09230292
000150 64 f5 de 3f 62 d0 8c bb 3b dd 3f bf dc 6d 4d bf
       1.7418637 -0.004297302 -0.74946946 -0.8024576
000160 37 37 d0 3f c7 5a b2 bf 11 38 04 c0 b5 2b b6 bf
       1.626685 -1.3933953 -2.065922 -1.4232088
000170 b1 e9 02 c0 fb 20 a8 bf a6 1a 4a 40 f9 b4 bd bf
       -2.0455134 -1.3135065 3.1578765 -1.4820853
000180 0c c5 e1 bf 58 a7 54 3f 65 6b e9 3f 84 0b 4c bf
       -1.7638259 0.83067846 1.8235899 -0.7970507
000190 c2 cd f9 bf 66 c0 90 bf 6e 61 09 be 27 b6 fa bf
       -1.9515917 -1.1308715 -0.13416073 -1.9586838
0001a0 58 c2 41 3f b3 0d 9f bf 6a b6 55 bf d9 d6 37 40
       0.7568717 -1.2426056 -0.83481467 2.8724883
0001b0 92 59 05 c0 6d a0 eb bf 73 11 f9 bf 8f aa 24 40
       -2.083592 -1.8408333 -1.945845 2.57291
0001c0 09 74 8c bf 80 73 31 40 26 c3 13 3f 54 cb 08 c0
       -1.0972911 2.7726746 0.5771965 -2.1374102
0001d0 84 8a 0c c0 c5 64 87 bf e5 28 f9 bf 4d f1 34 40
       -2.1959543 -1.0577627 -1.9465605 2.8272278
0001e0 3e 78 d7 3f 9d 8b 49 40 fe a8 e7 bf c6 81 16 bf
       1.683357 3.1491463 -1.8098447 -0.5879177
0001f0 3b 3a 29 bf 36 99 3a 40 71 b2 e2 bf 64 ea 69 bf
       -0.6610448 2.9156013 -1.7710706 -0.91373277
000200 8e ba 97 3f a5 62 98 bf f7 59 f7 bd 29 51 41 40
       1.1853807 -1.1905104 -0.12077706 3.0205786
000210 02 0f 49 40 1a 5e dc bf 5b 59 f0 bf c5 26 1e 3f
       3.141541 -1.7216218 -1.8777269 0.6177791
000220 d0 1c 85 3e 59 c4 4a bf f2 6e 47 40 b6 9d 2d bf
       0.25998545 -0.7920585 3.1161466 -0.6781877
000230 d6 2d 01 bf 68 61 47 40 32 cc dd bf 28 36 38 3e
       -0.50460565 3.1153202 -1.732794 0.17989409
000240 37 ee fb bf 24 76 c5 bf 41 82 ab bf 1a e1 9a bf
       -1.9682072 -1.5426679 -1.3399125 -1.2099946
000250 10 f9 fb bf aa bc 43 40 16 b1 cc bf 47 d5 ea bf
       -1.9685383 3.0583901 -1.5991542 -1.8346337
000260 f6 ba 0d c0 1c 6f 5d bf 6f 43 ca 3e bf 19 e1 bf
       -2.2145362 -0.86497664 0.39504573 -1.7585982
000270 20 86 e9 bf 23 cc 29 bf 4e 41 f9 be 5d fd 48 40
       -1.8244057 -0.6632711 -0.48682636 3.140464

b4 f4 [5]
000000 11 f4 19 3e 35 c6 52 bd 39 9b 0c bd 8d e9 0a bd
       0.1503451 -0.051458556 -0.03432772 -0.033914138
000010 26 89 ac bd
       -0.084245965

exp_avg f4 [32, 1, 3, 3]
000000 44 c1 85 3a cd 2a fb 39 0c cd 2c ba 51 a2 c6 b8
       0.0010204692 0.0004790634 -0.00065918337 -9.4716095e-05
000010 6d 81 81 ba 02 fc 51 ba c8 a0 13 b8 33 26 92 ba
       -0.0009880491 -0.00080102694 -3.519727e-05 -0.00111503
000020 dc 26 d2 b8 14 76 80 3a 6a f3 55 39 e8 59 29 3a
       -0.000100208184 0.0009800815 0.00020403942 0.00064602355
000030 67 dd b9 ba b7 03 55 ba e0 33 94 b9 af 66 2b bb
       -0.0014180363 -0.0008125859 -0.0002826741 -0.0026153733
000040 4a 3f d5 ba 09 4b 3c b9 ad 87 b7 ba 86 d1 43 3a
       -0.0016269472 -0.0001795703 -0.0014002227 0.0007469881
000050 16 23 65 b9 67 88 bf ba 63 d8 aa 39 ea e4 d6 b9
       -0.00021852212 -0.0014612795 0.00032586147 -0.00040987815
000060 3b 8a c1 ba 3d 81 e4 39 63 ab 42 ba 08 8a d4 39
       -0.0014765927 0.0004358384 -0.00074260513 0.00040538632
000070 ec d4 0e 3a 92 a7 2b 3a 2d a1 58 39 09 d6 1d 3a
       0.0005448598 0.0006548102 0.00020659408 0.00060209684
000080 eb 24 6b 3a c0 47 e3 39 f1 6e 42 3a 1c 89 8a 3a
       0.000897004 0.00043350272 0.0007417044 0.0010569426
000090 61 d5 b0 ba 9f 07 3f b9 b0 22 eb 39 2b 1a 1a bb
       -0.0013491326 -0.00018218019 0.00044848537 -0.0023514132
0000a0 f7 44 98 ba aa ab 7d ba a9 12 c1 ba 4a 20 2e b9
       -0.0011617233 -0.0009676764 -0.0014730293 -0.00016605962
0000b0 80 b8 94 37 8f f3 c5 b9 b3 35 f7 38 c1 01 0a 39
       1.772889e-05 -0.00037756233 0.0001178788 0.00013161359
0000c0 a9 38 9d 39 54 c7 38 3a 3d 04 7f 3a 58 b5 8e 3a
       0.0002998759 0.0007048745 0.00097281096 0.0010887785
0000d0 39 5a 6a 3a b3 1d aa 3a 5b bf 43 39 42 3b 02 3a
       0.0008939836 0.0012978822 0.00018667935 0.00049679365
0000e0 95 df 1d 3a 14 db a0 39 2b 3b d0 3a f3 bf a0 39
       0.0006022391 0.00030680804 0.0015886774 0.0003066059
0000f0 db 26 f1 3a 50 3a f0 3a 4e e5 8d 39 6b d5 f2 39
       0.0018398421 0.0018327925 0.0002706446 0.00046316846
000100 11 ca 1a ba e4 e4 a9 ba 9a 02 03 b9 ab 38 dc b9
       -0.0005904744 -0.0012961891 -0.00012494103 -0.0004200389
000110 60 26 92 ba f2 3d d1 b9 a9 eb 14 39 03 ff 30 ba
       -0.0011150353 -0.0003990974 0.0001420217 -0.0006751867
000120 77 83 00 3b 72 b0 96 3a 36 08 1b 3b 2d b9 d2 3a
       0.001960961 0.0011496677 0.0023656017 0.0016076915
000130 76 e1 f2 3a 26 c3 d8 3a 43 ee ad 3a 0b d2 b7 3a
       0.0018530327 0.0016537651 0.001326986 0.001402439
000140 89 56 db 3a be fc 24 3a 19 3a bd 39 f0 1c 01 3a
       0.0016734164 0.0006293765 0.00036092175 0.00049252715
000150 18 ee 1a b9 43 b3 93 ba 87 7f 41 3a 0d 79 16 ba
       -0.00014775281 -0.0011268634 0.0007381369 -0.0005740084
000160 32 59 87 ba 4a 55 b3 b8 0f cf 30 b9 96 e7 fc 39
       -0.0010326265 -8.5512715e-05 -0.00016861803 0.0004823773
000170 fc 61 33 39 7d 6f 3e ba 14 b6 50 ba e7 b0 88 ba
       0.00017107272 -0.0007264538 -0.0007961702 -0.0010428698
000180 70 a4 26 ba 26 1a 02 3a 7c f6 5f 39 97 4c 47 3a
       -0.00063569006 0.0004963003 0.0002135876 0.00076026603
000190 57 4d 0f ba 91 e9 a7 b9 08 16 a8 b8 cf 67 67 b9
       -0.00054665416 -0.00032026743 -8.014968e-05 -0.00022068548
0001a0 1b 7d f6 b7 43 6c 30 3a 66 b3 44 3a 67 17 1b 39
       -2.9383742e-05 0.00067299994 0.0007503539 0.0001479067
0001b0 c0 df 9d ba 57 8b d7 b9 6b c8 bd b9 59 38 88 ba
       -0.0012044832 -0.00041111812 -0.00036198212 -0.001039277
0001c0 d6 8e 7d ba b4 9c 41 ba 0f 66 02 bb 65 99 4e ba
       -0.00096724683 -0.00073857163 -0.0019897257 -0.0007881134
0001d0 57 92 36 b9 ea c1 40 3a 19 b6 56 3a dd cb 0c b8
       -0.00017411388 0.0007353114 0.0008190587 -3.3568464e-05
0001e0 be 61 1b b8 bd 25 19 3a ad d3 6a 3a 2b 62 94 b9
       -3.704591e-05 0.000584211 0.0008957934 -0.000283019
0001f0 d4 b0 13 3a 58 00 8a 3a 2f 63 4a 3a 68 7d eb 39
       0.00056339544 0.0010528667 0.0007720468 0.00044916128
000200 3d 9a 97 39 f6 69 8e 3a 63 17 7d 3a 80 3f bb 3a
       0.0002891588 0.0010865319 0.0009654669 0.0014285892
000210 20 12 c1 3a d3 2c 0f 3a 27 55 a5 3a 9f 9a 20 ba
       0.0014730133 0.00054616964 0.0012613878 -0.0006126556
000220 6f f8 ad b8 31 cc 8d ba 02 50 a2 ba ff db 36 b9
       -8.295557e-05 -0.00108183 -0.0012383463 -0.00017438827
000230 cd 73 49 ba 20 3c f2 ba 28 90 77 b9 23 d0 08 ba
       -0.0007684797 -0.0018481053 -0.00023609458 -0.0005219003
000240 6a 94 d8 3a 06 10 c9 3a db 51 a6 3a 2b 33 56 3a
       0.0016523723 0.0015339858 0.001268919 0.0008171077
000250 99 e4 72 3a 90 3b 90 3a 1e 39 83 b9 91 19 39 3a
       0.0009265631 0.0011004079 -0.00025028823 0.00070609996
000260 bd f1 a3 3a 34 39 db b8 65 1b 89 38 65 0a f5 38
       0.0012507957 -0.00010453389 6.537772e-05 0.000116844465
000270 26 03 74 ba 68 9d 66 b9 76 63 95 b9 70 9f d9 39
       -0.00093083305 -0.00021993148 -0.000284936 0.00041508256
000280 ae 34 2d 3a d4 a8 1c 3a ff 47 ba 39 ff 31 8f 39
       0.0006607276 0.0005976085 0.00035530326 0.00027312335
000290 6c 2a 8d 39 3f 1d fb 39 5b 5a 65 3a 41 02 5d 3a
       0.00026925222 0.0004789624 0.0008749121 0.0008430817
0002a0 94 a4 0c 3a ff 42 8d 39 9f 62 79 3a fc 00 f7 b7
       0.00053651 0.00026943532 0.0009513292 -2.9445153e-05
0002b0 99 9b 82 3a ee ec 13 3a 45 d0 b1 39 a0 ed b0 b8
       0.0009964585 0.000564291 0.00033915244 -8.436595e-05
0002c0 03 ac 2f 38 31 f0 c7 39 e8 6b 2d 3a 39 4e a6 39
       4.188345e-05 0.00038135194 0.00066155056 0.00031720268
0002d0 9b db ca b8 04 c1 87 b8 09 60 93 ba db ec 53 3a
       -9.673015e-05 -6.4732536e-05 -0.0011243831 0.00080843054
0002e0 ee bf 51 39 03 0b 83 b9 21 39 14 ba 28 c6 8f 38
       0.00020003293 -0.00024994471 -0.0005654265 6.855681e-05
0002f0 12 02 cf b9 d0 bf 07 3b 92 f4 0b ba 8c d4 29 39
       -0.0003948366 0.0020713694 -0.0005338873 0.00016196276
000300 7e aa cf b7 d9 ef e2 ba 9e 84 5c ba 55 ca df b9
       -2.4755715e-05 -0.0017313912 -0.00084120955 -0.00042684624
000310 79 9e 0c bb 0c 84 e5 ba 95 c5 1c 3a d5 89 25 ba
       -0.0021456762 -0.0017510667 0.000598037 -0.0006314789
000320 2c 46 e4 b7 39 7e c9 39 a9 41 c9 b8 b9 c6 49 38
       -2.7212394e-05 0.0003843175 -9.596657e-05 4.810721e-05
000330 61 36 3b b7 11 c0 58 b7 86 65 1a 39 93 7b cc 38
       -1.115873e-05 -1.2919322e-05 0.00014724405 9.7504955e-05
000340 5f 37 ce 38 e7 32 4d ba b9 47 e5 ba d1 34 3a ba
       9.833159e-05 -0.00078277144 -0.0017492688 -0.0007103207
000350 4f b3 09 ba 2b 89 07 bb f0 a3 35 ba 6a e9 84 ba
       -0.00052528543 -0.0020681124 -0.00069290306 -0.0010140364
000360 3f ad 72 ba 7b 0f e8 ba 60 18 a5 39 0d d7 96 ba
       -0.0009257383 -0.0017704809 0.00031489413 -0.0011508182
000370 4c 6d 2c bb 34 14 49 ba 3a 80 33 b8 fd 5b 88 ba
       -0.0026310263 -0.0007670552 -4.2796346e-05 -0.0010403391
000380 b3 4a 17 ba a6 72 18 ba fb a1 61 ba ac a3 78 ba
       -0.0005771324 -0.0005815424 -0.0008607206 -0.0009484838
000390 bf 0a 01 ba d9 a5 9f b9 cf 0c 76 b8 80 a7 07 39
       -0.0004922561 -0.0003045041 -5.86629e-05 0.00012937002
0003a0 0f dd 7e b8 6a ac 5e b9 a4 d1 ad b9 cb 08 3f ba
       -6.0764196e-05 -0.00021235799 -0.00033153326 -0.0007287382
0003b0 45 8c c9 b7 e8 a6 42 ba e9 0c 12 ba 65 f1 c8 b8
       -2.4026385e-05 -0.00074253837 -0.0005571382 -9.5817064e-05
0003c0 6e 27 da ba 70 3a 69 ba 56 ee 25 b9 d9 2f 87 b9
       -0.0016643831 -0.00088969525 -0.00015824413 -0.00025784856
0003d0 a5 44 3a ba 53 16 87 ba 16 7d 9a b9 e9 60 00 ba
       -0.0007105566 -0.0010306336 -0.00029466365 -0.0004897253
0003e0 ee 6a 4b ba 23 fb ee b7 0c 6b ce 39 b9 f4 c4 b9
       -0.0007759769 -2.8488756e-05 0.00039371138 -0.00037566366
0003f0 b4 1e 75 37 d6 f4 7b 3a 59 5f 6c 3a 11 5b 49 39
       1.4610287e-05 0.00096113735 0.00090168935 0.00019202779
