CS330/XCS330-PS3/src/submission/logs/maml/omniglot.way_5.support_1.query_15.inner_steps_1.inner_lr_0.4.learn_inner_lrs_False.outer_lr_0.001.batch_size_16/state13800.pt (torch, 353186 bytes, 30 tensors)

conv0 f4 [32, 1, 3, 3]
000000 a0 b2 8d bd f3 af cb be 28 b3 52 3f 2d f0 cf be
       -0.06918836 -0.39782676 0.8230462 -0.40612927
000010 a4 53 c1 be 37 a1 cb bd 44 b9 8c bd 2d c2 d5 bc
       -0.37759125 -0.09942859 -0.06871274 -0.026093567
000020 39 3a 06 be 98 be 17 3e d2 d7 e0 3e a0 45 a2 bf
       -0.13108148 0.148188 0.43914658 -1.2677498
000030 6f b1 ef bc 56 88 3d bd 1a ac 07 3e d0 f4 f1 bd
       -0.029259412 -0.0462726 0.13249245 -0.118142724
000040 f9 77 9e 3d 8a 29 0a 3e ab 4f 2e be 1a 5b 08 bf
       0.07737727 0.13492408 -0.17022578 -0.5326401
000050 58 6a a3 3d 25 d1 cc 3e a8 56 41 3d 0a ff be 3e
       0.07979268 0.40003315 0.047201782 0.37303954
000060 ef 54 54 be ae b2 c9 be 2c 59 14 bf be c0 fb 3d
       -0.20735525 -0.39394134 -0.57948565 0.12292622
000070 d8 38 0c bf 4b 55 39 bf 77 ec 4d 3e 00 ff 99 bb
       -0.54774237 -0.7239577 0.20109735 -0.004699588
000080 b0 b3 09 bf 6b e5 d3 3e 73 32 4a 3e 41 f0 99 3e
       -0.53789806 0.4138597 0.19745807 0.30066112
000090 80 68 0e 3f 67 f4 0f bf 20 65 69 3f 22 fc 47 bc
       0.55628204 -0.56232303 0.9116993 -0.012206109
0000a0 54 d2 e4 3c d9 1f b4 bc 96 e2 3f bc cc db bd bb
       0.027932324 -0.021987842 -0.011711737 -0.005794024
0000b0 63 43 82 3d f6 33 2d bf 4a bb 13 bf fb 8d aa be
       0.06360509 -0.6765741 -0.57707655 -0.33311448
0000c0 e3 01 ea 3e f1 ac 0a be 82 31 e8 be 20 47 78 bd
       0.45704564 -0.13542534 -0.4535027 -0.060614705
0000d0 7b 96 b5 3e 51 ec 02 be 99 66 28 bf 1f bd 1f bf
       0.3546637 -0.1278546 -0.6578155 -0.6239795
0000e0 e8 11 b8 be 3f 7a 61 3d f7 8e 19 3d 32 ec 1d bf
       -0.3595116 0.055048224 0.037489858 -0.6168853
0000f0 41 f0 81 3e 50 3e e1 3d 55 db 2e bf ac 65 4c bd
       0.25378612 0.10998213 -0.68303424 -0.04990165
000100 b6 92 d0 3e 0e 0b 1b 3e f4 10 a0 3d 10 27 97 3e
       0.40736932 0.15140936 0.078157336 0.2952199
000110 72 9f 97 bc 3d 3d 60 bf 87 a8 6f bf b9 e1 71 be
       -0.018508647 -0.8759344 -0.9361653 -0.23621263
000120 90 ac 8c bc 3a b1 bc bc f8 e5 ce ba e1 0f bc bc
       -0.017172128 -0.023033727 -0.0015785089 -0.02295679
000130 7b c0 83 ba 62 52 ed bc ef e5 0c 3f 2c 59 96 bf
       -0.001005187 -0.028969947 0.5503835 -1.1745963
000140 15 ea ed 3e 73 14 51 bf 1e 6c 90 be f2 aa f5 3e
       0.46467653 -0.8167183 -0.28207487 0.47981983
000150 5a e6 f4 be 30 31 5e 3e f6 64 88 3e ba b2 a0 bd
       -0.47831994 0.21698451 0.26639527 -0.078465894
000160 3f 5e 07 bc 1f 6c 9e bb 0f 2d cd be a2 f1 7b bd
       -0.008262216 -0.0048346664 -0.4007344 -0.061509736
000170 90 ea 1f 3c 2d 67 86 be 42 16 0f 3c ce 10 c0 bd
       0.009760514 -0.26250592 0.008733334 -0.09378205
000180 09 40 15 3f e2 17 69 3e 8c 3f 60 bf 09 e1 25 bf
       0.58300835 0.22763017 -0.87596965 -0.647965
000190 5b 08 d1 bd 2e 12 3a be 4d e3 83 3e c8 6e c2 be
       -0.10206672 -0.18170998 0.25759354 -0.37975144
0001a0 dc 73 f2 3d 87 39 f4 3e 9b dc 07 bf 94 8a a9 3e
       0.11838505 0.4770014 -0.5307099 0.3311354
0001b0 a9 9e bf bd 29 7b f1 be cd 3f fc be 94 e5 95 be
       -0.09356434 -0.47164276 -0.49267426 -0.29276717
0001c0 09 fa 37 be 74 92 23 be 94 9d 30 3f 91 a7 c4 bd
       -0.17966475 -0.15973836 0.68990445 -0.09602273
0001d0 9a 27 df bd 6b 22 4c bf 43 62 a4 3e e5 e6 99 3e
       -0.10896225 -0.7974002 0.32106218 0.3005897
0001e0 b3 58 7b bf 88 e8 fa 3d 57 b3 b4 3e 2f 2a 84 be
       -0.9818222 0.12251383 0.35293075 -0.25813434
0001f0 e2 e2 3b bf 22 22 90 be ac 00 44 bf 69 0d 3c bf
       -0.7339307 -0.2815104 -0.76563525 -0.7345796
000200 b3 ba 70 be 6e fe a5 3e 70 0b d9 3e 3c 46 6b 3d
       -0.2350872 0.32420677 0.4239154 0.057440028
000210 9d 98 99 be 30 18 2d bd 0a 28 67 3e ee b1 07 3e
       -0.29999247 -0.042259395 0.22573867 0.13251469
000220 70 32 6d 3e 3c b0 00 3f 9f c0 5a 3d 82 c4 65 be
       0.23163772 0.5026891 0.053406354 -0.22438243
000230 24 43 4e bf ed e8 07 3e 9b 5c 5f be b4 09 06 bf
       -0.805712 0.13272448 -0.2181267 -0.52358556
000240 45 69 3a bd a7 d0 a9 bd 89 fc c8 3e 71 4c 64 3e
       -0.04551055 -0.082917504 0.3925517 0.22294785
000250 be 85 17 bf c4 a7 69 3e 6d 32 79 bc ee e4 67 bf
       -0.5918845 0.22817904 -0.015209776 -0.90583694
000260 b2 8b a1 3d 1d e1 11 3f 9d 56 85 be 9d fe 12 bf
       0.07887973 0.5698412 -0.26042643 -0.5741976
000270 49 3e 1e 3e b2 c4 36 bf 59 92 0b 3d 0f dc 9a be
       0.15453447 -0.71393883 0.034075115 -0.30246016
000280 11 7b c9 bd 47 fc 98 3e b1 9d 57 bf b5 92 81 bf
       -0.09837926 0.29879972 -0.84224993 -1.0122896
000290 2a af 7e bf b9 fb 1c be ea 98 2c 3e 67 a6 75 3d
       -0.9948603 -0.153304 0.16855207 0.059973147
0002a0 68 4a 35 3e 2e 48 e8 3e c9 e9 1b 3e 85 b9 62 be
       0.17704165 0.4536757 0.152259 -0.22141083
0002b0 0a f4 c1 3d 5c 96 2c be d6 1f 8a bd a8 fb df be
       0.09470375 -0.16854233 -0.067443535 -0.43746686
0002c0 88 a4 12 bf 07 c7 b0 be 05 44 45 be 88 10 c4 3e
       -0.57282305 -0.34526846 -0.19264229 0.38293862
0002d0 92 02 2b be 7c 6f 98 3d 82 98 e2 3e 36 9d 35 3e
       -0.16700199 0.07443139 0.4425698 0.17735752
0002e0 ff 80 71 be e5 4f 89 bf d3 53 d6 bd 92 b9 b1 3c
       -0.23584364 -1.0727507 -0.10465207 0.021694932
0002f0 fe 1f 02 3f ae 7a 8e 3e 2a 5b b3 be 47 87 0d bf
       0.50830066 0.27827972 -0.3503049 -0.5528454
000300 9b f9 fa 3d 99 5e 08 3f fc fa cb be c0 52 34 bf
       0.1225464 0.53269345 -0.39839923 -0.70438766
000310 da 35 33 3e 14 15 68 3e ae 5c 00 3e b1 0b 71 3e
       0.17501011 0.2266429 0.12535354 0.23539616
000320 43 05 59 bf 38 c0 3b 3e 17 af c2 3e b8 6a 6a bf
       -0.84773654 0.18335044 0.38024208 -0.9156909
000330 24 42 be bb 40 e5 46 bd 2d ec 6a bf 6f d2 82 bf
       -0.0058062244 -0.048558474 -0.91766626 -1.0220469
000340 d4 d2 30 bd 58 cb 51 bd a8 79 8c be b1 68 d7 3e
       -0.04316981 -0.051219314 -0.27436566 0.4207206
000350 43 2e f7 bc a9 f9 c5 3d 9e e6 00 3f 10 50 49 be
       -0.030173426 0.096667595 0.50351894 -0.19659448
000360 65 f4 f0 3b 79 fc b6 bd a4 9a f9 be 30 9a ca bd
       0.007353353 -0.08934874 -0.48750794 -0.0989269
000370 f9 07 44 3c bf 7d 0c 3f bc b5 3a bf ee 0b 0b bf
       0.011964791 0.54879373 -0.72933555 -0.5431508
000380 74 79 ef 3e 9c a1 89 3e d3 5a 99 3e 2b da fe bc
       0.4677235 0.2688111 0.29952106 -0.03110989
000390 ed 10 7a 3e 33 2f d4 3e 18 dc ab be c5 d6 7e bf
       0.24420519 0.4144226 -0.33566356 -0.9954646
0003a0 ff b5 96 bf e3 7e 5a bf a5 ff 99 3e 8b 8b 34 be
       -1.1774291 -0.85349864 0.30077854 -0.17631356
0003b0 c5 5a 43 bf 4a 8f 98 3e ae 93 ff 3c 09 85 38 bf
       -0.7631038 0.2979682 0.031198349 -0.72077996
0003c0 89 eb 84 3e a4 97 c4 be 71 43 25 bf 62 af eb bb
       0.2596095 -0.38396943 -0.6455603 -0.007192538
0003d0 f4 a4 fd 3d 59 fb 10 3e 79 c1 60 bf 53 8e df 3e
       0.12384978 0.14158382 -0.87795216 0.43663272
0003e0 a6 40 6d 3e 2c 0a 7d bf 23 5a 72 3c e6 89 b3 3d
       0.23169193 -0.98843646 0.014791998 0.087665364
0003f0 01 fd 30 bf c0 24 ac 3d ca aa 09 3f 75 a7 48 bd
       -0.69136053 0.08405447 0.5377623 -0.048987824

b0 f4 [32]
000000 a6 90 20 3d 7f 8f 9f 3b 73 b1 18 bd 47 e3 67 3d
       0.039200447 0.004869401 -0.037278604 0.056613233
000010 70 ff f9 bc 3a ac bd bd 0c 46 40 bc 15 62 6a 3d
       -0.03051731 -0.09261365 -0.0117354505 0.057222445
000020 f1 2c 1a 3d 87 54 18 3d 13 9a 12 bd ee 30 5c 3c
       0.037640516 0.037189987 -0.035791468 0.0134394
000030 af 01 9b 3c 1f 8c aa bd 5f ea 10 3d eb 01 6f 3c
       0.018921701 -0.08327507 0.035379764 0.01458786
000040 c2 0d 3b bd 5c 0c 97 3d 65 fa 73 bd d2 c6 a5 be
       -0.045667417 0.07375404 -0.059564967 -0.3237825
000050 65 3d 08 3d 8e ea 04 be 03 ff 1f bd fb e4 f2 3c
       0.033261675 -0.129801 -0.039061558 0.029650202
000060 6b 2d 74 ba eb 87 84 bd 79 d9 10 3c 61 07 dd bc
       -0.0009314629 -0.06471237 0.008840912 -0.026981058
000070 b1 6b 95 bc 9e 8c e1 bb 71 4b 28 bd 6e 6a dd bd
       -0.018239828 -0.006883218 -0.04108757 -0.108113155

conv1 f4 [32, 32, 3, 3]
000000 55 a0 86 3c d0 b3 8d be 53 92 56 be dc ff f5 3d
       0.016433874 -0.2767625 -0.20954256 0.12011692
000010 75 ba f3 bd 46 1f 69 be d9 14 13 be a7 47 9e 3d
       -0.11900798 -0.22765836 -0.14363421 0.0772851
000020 2b e7 0a be f9 bc 43 3e b9 1a 34 bd 9b 74 28 be
       -0.13564746 0.19115056 -0.043970797 -0.16450731
000030 10 ed dc 3d ef 57 33 3e 8a 81 5f 3e e9 01 96 bd
       0.107874036 0.17514013 0.21826759 -0.07324583
000040 6f ec 6f be bd 96 5f b8 d8 27 82 be a8 e6 9e be
       -0.23430036 -5.330773e-05 -0.25421023 -0.31035352
000050 d8 03 b6 3e ec c8 8a be dc 90 bc bd b6 23 e6 3d
       0.35549808 -0.27106416 -0.09207317 0.1123728
000060 56 32 c7 3d 9b 1c 45 3e 39 16 b7 3d 21 21 e3 3d
       0.09726398 0.19249193 0.089397855 0.11090303
000070 79 34 d3 bd 5a 9d 90 be bf 5f 6d 3e 03 75 a9 3d
       -0.10312743 -0.2824505 0.23181055 0.08274271
000080 b4 b4 89 3d 4b 96 0a 3e 47 a9 3d be 60 8c dd 3d
       0.067239195 0.13533895 -0.18521605 0.1081779
000090 38 e1 41 bd 44 77 df bd 8f ac 82 3e 5c 32 e4 bd
       -0.047333926 -0.1091142 0.25522277 -0.11142418
0000a0 e0 36 18 be 6e 06 11 be 56 48 00 bd a8 2a 7f 3d
       -0.14864683 -0.14162609 -0.031318985 0.06229654
0000b0 df 14 73 be 9b 14 da bc 41 3a 2d 3d eb be b9 be
       -0.2373843 -0.026621154 0.042291883 -0.3627847
0000c0 4b 02 3d 3e da 4c 09 3b d5 9d dd 3d 1a 8b 85 bd
       0.18457906 0.0020950348 0.1082112 -0.06520672
0000d0 ce 58 43 3e 1d 51 86 bd bc 36 b5 be 8b 00 c9 be
       0.19076845 -0.0655844 -0.35393322 -0.39258227
0000e0 b0 55 23 bf b9 b8 6e 3e 16 18 4e 3e 91 83 a7 bd
       -0.63802624 0.23312654 0.20126376 -0.08179391
0000f0 c1 93 51 be f9 87 3d 3e 77 ff cf bc 6e fd 58 be
       -0.2046652 0.185089 -0.02539037 -0.21190426
000100 b1 e4 dc bd b2 d8 3c bd 2c 5a 63 3d 7c 0b fb 3d
       -0.10785807 -0.046105094 0.055505916 0.1225805
000110 15 d3 4d 3e 7f 19 b9 be 86 43 e2 bd 76 a1 89 3e
       0.20100053 -0.36152264 -0.11048035 0.26880997
000120 a7 05 b8 bd 2d e6 88 be f4 bc 8f be db f0 63 3e
       -0.08985453 -0.2673811 -0.28073847 0.22259848
000130 e9 c1 e4 bc 91 0d 45 be 34 e0 23 3f 50 75 9f 3e
       -0.027924495 -0.19243456 0.6401398 0.3114419
000140 83 5d ca 3e 65 ed a4 bd d2 2e d1 3d db 8d 68 3e
       0.3952447 -0.08053092 0.102140084 0.22710364
000150 86 69 87 bd d2 a4 76 bc aa 17 04 3c 5b 0c 17 3e
       -0.06611924 -0.015053945 0.008062283 0.14750807
000160 3e 6f c0 3d 41 11 da be de c0 63 bd 8b 1d 5f bd
       0.09396218 -0.4259129 -0.055603854 -0.054471534
000170 b0 48 fc bd d7 5a 80 3e 15 d3 5c 3e 65 e0 9c bd
       -0.123185515 0.25069305 0.21564896 -0.07659987
000180 50 e5 3a 3b c2 ed de bd 7d 0c c5 be f3 a2 f6 be
       0.0028518029 -0.108851925 -0.3848609 -0.48171195
000190 43 f6 34 be 95 67 11 be 91 00 c1 3d 53 68 81 bc
       -0.17672066 -0.1419967 0.09423936 -0.015796816
0001a0 06 76 0d be c1 f4 95 3e 3a 8c 8e be b2 4f e2 bd
       -0.13814554 0.29288295 -0.2784136 -0.11050357
0001b0 29 8c bc bd 81 72 94 bd 8c ba 32 be 6d 84 09 3e
       -0.09206421 -0.072484024 -0.17453974 0.13429423
0001c0 90 96 00 3d 28 91 e1 3d 66 f1 20 3e b1 a0 98 bd
       0.031393588 0.110140145 0.15717086 -0.074525245
0001d0 ac 28 cc 3c 0f b2 0e be 01 43 a8 3d 04 8d 15 be
       0.024921738 -0.13935111 0.08215905 -0.14604574
0001e0 20 55 4f be 31 c5 32 3e 89 c8 a0 bd a0 ff ee be
       -0.20247316 0.17458035 -0.07850749 -0.466794
0001f0 35 30 b0 be 47 5d 6b be 0a 67 a4 be b0 5d 69 bd
       -0.3441178 -0.22984801 -0.32109863 -0.056974113
000200 ac 1a 97 be e3 7e fc 3d e3 8d f8 3d 65 db b2 3d
       -0.29512537 0.12328889 0.12136438 0.087332524
000210 fb 3f 8e 3e 8d f0 73 bd ec bf 0b bd cf 62 02 3e
       0.27783188 -0.05955558 -0.034118578 0.12733005
000220 46 d6 66 3d d3 75 af 3e 61 b1 14 3e 86 6e cd bd
       0.05635669 0.3426958 0.1452079 -0.10030846
000230 72 86 9c 3e c2 f3 b8 3d 8a ed a1 bd 6f df c7 bd
       0.30571324 0.09030868 -0.07906635 -0.097594135
000240 3a 6f 8b bc e7 ee 84 be 57 35 31 bd 7a 46 cf bc
       -0.01702081 -0.25963518 -0.04326376 -0.02530216
000250 c4 80 2b be f1 7e 1c be 0d 8b 95 3e 39 6d 60 3e
       -0.16748339 -0.152828 0.2920765 0.21916665
000260 1e c5 07 3d 4f 3a ce 3d 62 b4 de bd 34 b8 3c 3d
       0.03314697 0.10069715 -0.10874249 0.046074107
000270 37 45 c2 bc f2 19 a2 bd 35 a7 35 3c a3 ac 9d 3d
       -0.023714645 -0.07915105 0.011087229 0.076989435
000280 90 be 8e be f8 1a 78 be 52 b3 f3 bd 58 01 e2 bd
       -0.27879763 -0.24229038 -0.11899437 -0.110354125
000290 71 29 49 bd f5 f0 e0 3d 27 c9 74 3e 4f 30 13 3e
       -0.049111787 0.10983459 0.23904859 0.14373897
0002a0 ea eb d7 3b 79 6d 8d be 71 6d 10 3d a6 bd f3 be
       0.0065894024 -0.27622584 0.03526062 -0.47605628
0002b0 25 d6 13 bd 00 0e ed be a8 cd 1d 3e 81 39 7b 3e
       -0.036092896 -0.46299744 0.15410483 0.24533655
0002c0 a5 4b bd bd 88 1e 14 bf 68 a1 26 bf 69 8f ee be
       -0.09242944 -0.57859087 -0.65090036 -0.46593788
0002d0 ce 3c 72 3d e7 52 13 3e 87 53 1b 3f 45 a8 00 3c
       0.05914002 0.14387093 0.6067433 0.007852619
0002e0 4f b9 7b be 04 00 81 3e c9 3d 1b bc 55 4c c5 bd
       -0.24582408 0.25195324 -0.00947518 -0.096337
0002f0 e5 eb 00 3e ba b6 b6 3c 20 c1 dc 3d 6e da bb bc
       0.12589987 0.022303928 0.10779023 -0.022931304
000300 92 bd ca bc 0f aa 8a bc b9 a5 4d bd f9 6b 4a 3e
       -0.024748597 -0.016926793 -0.050206874 0.19767751
000310 39 59 c1 3d 1d b5 9c 3e 03 11 75 be 7e 49 43 be
       0.09440846 0.30606928 -0.2393227 -0.19071004
000320 66 aa bd be 26 60 1d 3d e7 61 8b bd d1 1b d3 be
       -0.37044066 0.038421772 -0.06805783 -0.4123216
000330 78 c6 01 3e 21 7f 9d 3d 2c 53 03 bf bb 04 1f 3c
       0.12673366 0.076902635 -0.51298785 0.009705718
000340 3c a0 c5 bd 5d 1a b4 3d 1f 4f b8 3d c8 c6 f7 3d
       -0.09649703 0.08794091 0.08999466 0.120984614
000350 00 4e a6 3d 02 d5 87 3e 97 1b 3e 3c 13 e3 90 be
       0.08120346 0.265297 0.011603258 -0.28298244
000360 69 dd 0d 3e 29 ed 9c 3d 1d 39 44 bf 55 b0 2f bc
       0.13853993 0.07662422 -0.7664965 -0.010723193
000370 db 08 73 3e 08 02 90 bb 55 1b 7f 3d ad 87 f4 3d
       0.23733847 -0.0043947734 0.062281925 0.119399406
000380 1f 39 aa bd ed 56 af be 12 da 1f be 94 a7 06 3e
       -0.08311676 -0.34246007 -0.15610531 0.13149863
000390 e5 7b ad 3c 7e 47 34 be d7 e1 7b bb 07 09 af be
       0.021177242 -0.17605397 -0.0038434172 -0.34186575
0003a0 ce 29 d0 be 3c 82 d9 be 07 65 c2 3c 50 9c a5 be
       -0.40656894 -0.42482173 0.023729814 -0.3234582
0003b0 7e 85 13 bf ae ba 71 3e b6 ea 99 3d 60 ea 91 be
       -0.5762557 0.23606369 0.07515471 -0.28499126
0003c0 24 02 cb 3e 3b 2b 43 3e f9 35 99 be cd dd bf bd
       0.3965007 0.1905946 -0.2992399 -0.09368477
0003d0 62 84 fc bc 51 a7 fc be 9a c5 06 be aa 87 4a bd
       -0.030824844 -0.49346402 -0.13161317 -0.049445786
0003e0 0a 03 75 be 39 38 03 3e 1d dc a8 3d ae b2 42 3d
       -0.2392694 0.12814416 0.08245108 0.047533683
0003f0 82 ff 6c bd 8d 3f d3 3d cb a4 d6 3e 36 2c 01 3d
       -0.05786086 0.10314856 0.41922602 0.031536303

b1 f4 [32]
000000 17 bd ca 3e a2 71 cf 3c e2 c7 9b bb 46 b8 e5 bd
       0.3959739 0.025322739 -0.0047540525 -0.11216788
000010 a9 02 fc 3c a4 be 02 3c f2 df 04 3e 96 7d 7a 3b
       0.030762987 0.007980023 0.12976053 0.0038221828
000020 0b 1d fe bc b7 da 53 bd fa 52 7e 3c f1 08 84 3d
       -0.031019708 -0.051722255 0.015522713 0.06447018
000030 dd 78 40 3d 98 88 06 bc 95 32 8b 3b 78 db c5 bc
       0.046990264 -0.008211277 0.004247973 -0.024152502
000040 db c2 06 3c 8e 2c 98 bd 0f 0b ae 3c 89 05 86 bc
       0.008225168 -0.07430373 0.021245508 -0.016360061
000050 cf a9 df 3c f1 04 e3 3c 45 e7 bd 3c 66 14 67 3c
       0.02730265 0.027712317 0.023181567 0.014103984
000060 dd 6c bf 3d 61 db 83 bc ba cc bb 3d f8 b3 4a 3d
       0.09346936 -0.016095819 0.09169908 0.049488038
000070 c0 b2 87 3c f4 8d af b7 e9 e1 de bc c6 e2 46 3d
       0.016564727 -2.0927728e-05 -0.027207332 0.04855611

conv2 f4 [32, 32, 3, 3]
000000 88 d5 42 3c 3e 88 de 3c 0e 8d d3 bd c0 4a c5 3d
       0.01189173 0.027164575 -0.103296384 0.09633398
000010 76 15 c2 3c 54 0a ba 3d e7 1d 83 3c ef 9f d8 ba
       0.023691874 0.09084001 0.01600547 -0.0016527156
000020 a3 f2 90 bd 0f a7 da 3c fd b3 15 3d 17 66 ac bc
       -0.07077529 0.026690988 0.036548603 -0.021044774
000030 6c bb 8d 3d 10 d4 0b 3d 76 5d ac bd 9b 9e da bc
       0.069205135 0.034137785 -0.08416264 -0.026686957
000040 48 64 96 bb b9 9d 02 3d 68 2f 22 bc 2b 06 8d bd
       -0.004589591 0.031888697 -0.009898998 -0.06885942
000050 05 48 d9 bd 37 e8 5b 3d 11 5f 3c 3d 3b c6 22 bd
       -0.1060944 0.053688254 0.0459891 -0.03973983
000060 cc 0c 85 3d a8 10 d5 bc 66 6a bf bd e6 eb e0 bc
       0.064965814 -0.026008919 -0.09346466 -0.027456235
000070 68 e1 aa bc d3 7f 4b bc ef f3 02 bd b9 58 d9 bd
       -0.020859435 -0.012420612 -0.031970914 -0.10612626
000080 d7 41 cc bd 46 15 80 bd 47 fe bb bd 28 1a e9 bd
       -0.099734955 -0.062540576 -0.09179359 -0.11381942
000090 24 8e 36 bc c1 45 f4 bc 68 92 ab bc dc 74 3a bd
       -0.011142287 -0.029818418 -0.020943835 -0.045521602
0000a0 a8 a4 25 3d a1 5b 05 3e e3 99 8a 3d c2 3b 10 3d
       0.04044023 0.13023235 0.06767633 0.03521324
0000b0 1f 15 4a 3d 68 41 33 3d 78 ce 5a 3d 1e f0 5f bd
       0.04933655 0.043763548 0.05341956 -0.054672353
0000c0 a0 0f 74 bc 76 46 ac 3d 0e 5f 70 bc 6d 17 e9 3d
       -0.014896303 0.08411877 -0.0146711 0.11381421
0000d0 a7 cb 49 3d 60 cd 76 3c e5 26 d2 3d a0 38 65 bc
       0.049266484 0.015063614 0.10261325 -0.013990551
0000e0 bd a1 86 bc 61 12 bd bb e5 6f 0f 3e 10 4e 82 bd
       -0.016434545 -0.005770013 0.14007528 -0.063625455
0000f0 59 5b 06 3d 22 b4 1e 3d e4 36 98 3c 2a c3 4b 3b
       0.03280196 0.038746007 0.018580861 0.0031091669
000100 f2 e6 6e 3c 53 f1 ad bb 41 6f 33 3c 1a 56 34 3c
       0.014581429 -0.005308309 0.010951818 0.011006856
000110 19 37 b1 bd a5 9e 66 3a 6f 30 bd bd 8d c1 90 bd
       -0.08653087 0.00087974436 -0.092377536 -0.07068167
000120 91 4b 9b bb b9 22 80 3d 1b 63 33 3d b3 d3 45 bc
       -0.004739233 0.06256623 0.043795686 -0.012074399
000130 7b b8 81 3c 48 a6 83 3d 93 35 28 3c 64 04 96 bc
       0.015835037 0.064282 0.010266679 -0.01831264
000140 8d 8d 10 bd 61 6d ab bd bb b6 8f bd 89 2f af bd
       -0.035291243 -0.08370472 -0.07017275 -0.085539885
000150 fb 9b 25 3d 8d c1 a6 bb 34 71 f7 bd 25 e1 2c 3d
       0.040431958 -0.005088991 -0.12082139 0.042206902
000160 df dd 98 bd 5c 2b 42 bd 4e f7 cb bd 6d 5a d5 3c
       -0.074641936 -0.047404632 -0.09959279 0.026044095
000170 37 62 0d be a0 8e ac bd 51 0a ea bd bd 98 40 bd
       -0.13806997 -0.08425641 -0.11427749 -0.047020663
000180 37 7a 7e 3c 3a 7c 8a bd 19 f5 e1 bd ab f5 ed 3d
       0.015532068 -0.067619756 -0.11033077 0.11619123
000190 67 0d 70 3d b7 0e c8 3d d6 2f 39 bc 0f 29 d1 3d
       0.05860653 0.09768432 -0.011302909 0.102129094
0001a0 90 7a 16 3e 58 af 48 bd 5e 89 53 3d 13 f4 9e 3d
       0.14695191 -0.048995346 0.051644675 0.07761397
0001b0 89 5c 9a 3d 26 7a 32 3d 0e 2b 72 bd 90 02 f0 3c
       0.07537181 0.04357352 -0.05912309 0.029298097
0001c0 b4 dd e0 3d 82 d1 59 3d ac 39 0f be 34 6d b1 bd
       0.109797865 0.053178318 -0.13986844 -0.08663407
0001d0 c0 ed 19 bc 41 3f b1 3d dd d2 e4 bc 1b cf 86 ba
       -0.009395063 0.08654643 -0.027932579 -0.0010285111
0001e0 36 0a aa 3b 94 c1 dc 3d be 88 4f 3d de 62 4c bd
       0.0051892055 0.107791096 0.050667517 -0.049898975
0001f0 c4 8d 7e 3d 67 32 86 bd a5 dc 11 bd 24 3a 38 3d
       0.062146917 -0.06552582 -0.035610814 0.044977322
000200 c9 f3 21 bd 91 06 c6 b9 86 83 88 3d 48 be bb 3c
       -0.039539132 -0.00037770395 0.06665711 0.022917882
000210 ad 63 57 3d a5 91 7a 3d f7 1c 63 3c 38 60 41 bc
       0.052585293 0.061174054 0.013861886 -0.0118027255
000220 fd f2 9a bc 10 91 01 bd 8d 3d 9e 3c b6 52 2b bd
       -0.018914694 -0.031632483 0.01931646 -0.041826926
000230 56 69 4e 3b 5d 1e 31 3c 7d bd 74 3d bb 45 2b bd
       0.003149589 0.010810462 0.059751023 -0.041814547
000240 9e ce 3f 3c ea cc 4b bd e8 ea 74 bd 69 35 02 3d
       0.011706976 -0.04975597 -0.059794337 0.031789217
000250 77 d8 c0 bc a1 f8 49 3c 37 83 f0 bc 8c 24 d8 3d
       -0.023540718 0.012327344 -0.029359443 0.10553846
000260 17 35 a1 3d 1a 73 16 bc f0 27 db 3c e2 62 1a bc
       0.07871454 -0.009182716 0.026752442 -0.00942299
000270 c6 c9 5d 3d 91 6d b9 bc af 8b 18 bd c3 91 f7 bb
       0.054147504 -0.022635253 -0.037242588 -0.007555218
000280 a1 ac 03 3d 2c 19 d1 bc fa 95 04 3d 17 d1 e8 3d
       0.032147054 -0.025524698 0.03236959 0.11368006
000290 6f 8f e2 3b 4b a1 b5 3d 9d 2f 09 3d f3 f1 b2 3d
       0.0069140713 0.08868655 0.033492673 0.087375544
0002a0 4c 26 c5 3d 66 b7 e0 3d 78 c9 a3 bb 5e 75 54 bd
       0.09626445 0.109724805 -0.004998382 -0.051869743
0002b0 0e 8a 9f bd 31 1b bf bd ad 7e 08 3d 57 dc 54 3c
       -0.07790004 -0.09331358 0.033323932 0.012991986
0002c0 2d a2 3c 3d 4e 2b cb 3c 1b 72 76 bd d8 9a 40 3b
       0.0460531 0.024800923 -0.060167413 0.002938917
0002d0 0d 88 12 3e 7c bc 88 bc 36 19 3b be 22 8e fc 3b
       0.14309712 -0.016691439 -0.18271336 0.0077073732
0002e0 7d de d8 bd cd eb 52 be 85 1f 7d bd 7f f5 c7 bd
       -0.10589311 -0.20597763 -0.061797637 -0.097636215
0002f0 45 b3 74 be ae c1 82 3c f5 29 e3 bc 00 bb 07 bd
       -0.23896511 0.015961494 -0.027729968 -0.03313732
000300 b4 6b f3 3d 08 1a 44 bc 07 43 f4 3c a4 c6 19 3d
       0.11885777 -0.011969097 0.029817117 0.037542954
000310 74 a5 23 3c c0 13 96 bd 07 27 dc 3b f7 c0 72 3c
       0.009988178 -0.07327986 0.0067185196 0.014816514
000320 e1 29 3d bc 51 d2 dc 3d 2e f8 4f bd 1a 85 6c 3b
       -0.011545629 0.10782302 -0.050773792 0.0036090077
000330 0c 61 52 3c bf 12 1f 3d fb 7f 95 bc 96 d9 0e bc
       0.012840521 0.038836237 -0.018249502 -0.008718869
000340 72 9f ef bc c7 ee 04 3d 14 e3 cc 3c 2a dd 29 bd
       -0.029250834 0.03245428 0.025010623 -0.041470684
000350 36 54 12 bd 01 1c 83 ba 98 03 a4 3c 36 b8 72 3d
       -0.03572484 -0.0010002853 0.020021245 0.05925771
000360 6a ff 50 3d 03 f4 46 bd e4 1f ef bd fb 94 bc 3c
       0.05102483 -0.04857255 -0.116760045 0.023020258
000370 cf a8 e0 3c 92 f7 45 bd 8e 66 b3 3d bc 99 2a bc
       0.027424244 -0.048331805 0.08759795 -0.01041263
000380 27 d7 85 bd a4 bf 27 bd 98 69 8f bc 86 cf b4 bd
       -0.06535178 -0.040954247 -0.017506406 -0.088286445
000390 21 2f 85 bc 11 68 fa 3c ec 01 4f bd 9d 52 b5 bd
       -0.016257824 0.0305672 -0.050538942 -0.08853648
0003a0 d6 64 f7 3c f0 1c e2 bd d4 c1 62 3c 93 61 c8 3c
       0.03019945 -0.11040676 0.013840158 0.02446059
0003b0 21 65 1c 3d 0e 21 0e bc ad 06 c1 3b a3 5e 8e 3b
       0.03818238 -0.008674873 0.0058906884 0.0043447777
0003c0 7c f2 3e bb 14 b6 ac 3c 05 13 03 3d 7c de d0 bd
       -0.0029136231 0.021082915 0.03200056 -0.101986855
0003d0 ff 94 98 bc 10 91 78 3e 9f bf d3 be a8 e5 7a be
       -0.018625734 0.24274087 -0.41357133 -0.2450167
0003e0 00 e9 f4 bd e0 7b cf be 05 12 3e be 83 31 83 bd
       -0.11958504 -0.40524197 -0.18561561 -0.06405928
0003f0 51 b9 6a 3d 34 ec a3 3d 58 7e a9 3c bc 03 ac 3c
       0.057305638 0.080040365 0.020690128 0.020997874

b2 f4 [32]
000000 f0 d5 ae 3c 3d 8e bf 3d 43 01 53 bd c0 78 74 bd
       0.021342248 0.09353302 -0.051514875 -0.05968547
000010 ab 98 10 3e ec 6a 09 3e b0 f6 54 3e 63 85 10 be
       0.14120738 0.13419694 0.20797229 -0.14113383
000020 e1 32 67 3d 83 7a fd be a4 c6 8d 3d 56 8e 68 3e
       0.056445006 -0.49507532 0.06922653 0.22710547
000030 68 80 aa be 32 af 36 bf 9d 0e 0d 3d fd 04 9f 3e
       -0.3330109 -0.71361077 0.034437764 0.31058493
000040 5f f9 e8 3c 2b 49 00 3d 56 a6 af 3c 59 b2 eb 3c
       0.028439222 0.03131978 0.02144162 0.028771566
000050 be e6 da 3d 7f cb 06 3e aa c6 97 bb 8d a5 de 3d
       0.10688542 0.13163565 -0.004631837 0.1087142
000060 c4 b5 b5 3b 23 e9 ef 3d db 9d f5 3c 90 42 02 3f
       0.00554535 0.11714389 0.029982498 0.50882816
000070 0d b8 aa 3d 76 8a 0e 3d de fd 55 3e 5b c3 9f bd
       0.08335886 0.034800015 0.20897624 -0.07800933

conv3 f4 [32, 32, 3, 3]
000000 9e 48 30 3a 75 0e 32 bc d9 c3 29 bd cc 75 10 bd
       0.0006724688 -0.010867705 -0.04144654 -0.03526859
000010 ea 57 d5 3d c0 1d fb bb c9 92 1d 3c 10 89 09 3d
       0.10417159 -0.0076634586 0.009617516 0.03357798
000020 28 f9 c6 bb bb 27 ac 3e b1 3d e7 3d 04 7f bd 3e
       -0.006072182 0.33624062 0.112910636 0.37010968
000030 f5 a8 2a 3d 5d 4b 82 be cc 32 d0 3c a7 d2 cf 3e
       0.041665036 -0.25448123 0.025414847 0.40590402
000040 a5 b0 21 3d f7 f4 c0 3e cc fa 9f 3a c7 f8 03 3d
       0.039475102 0.37686893 0.0012205481 0.032219674
000050 98 df 07 bd 5b d1 e5 bb c1 ea c8 3c d9 39 3c 3d
       -0.03317222 -0.0070134825 0.024526002 0.045953605
000060 42 d4 f8 bb de e4 03 3d 3d ea ab bc 49 36 dd 3c
       -0.0075936625 0.032200687 -0.020985717 0.027003424
000070 ba fd 17 3c 8b 5a d9 bc d3 fb bd 3c d9 67 88 3d
       0.009276802 -0.026532432 0.023191368 0.06660432
000080 30 d3 19 bd 34 6d 9a 3d 34 e6 4d bd e3 d7 4f 3c
       -0.03755492 0.0754036 -0.050268367 0.012685749
000090 c0 f2 9f bd 81 5e d2 3c 38 38 68 bd 0a 4f b5 3c
       -0.07809973 0.025679829 -0.05669424 0.022132415
0000a0 ea 38 c4 3d 68 9b 4c bc fa 91 9e bd ff 93 83 bb
       0.09581168 -0.012488224 -0.077426866 -0.0040154452
0000b0 92 fc 1d bd 2e 7e db bd 17 f6 87 3c 9c b1 49 bd
       -0.038570948 -0.10717426 0.016596837 -0.049241647
0000c0 b3 63 20 3c c1 18 88 3d 3a 8d 2a 3d 1e 53 94 bd
       0.009789395 0.066453464 0.04163859 -0.07242416
0000d0 69 d8 b3 ba 7b 5c f9 bd 8b e1 ea 3c cf 51 05 bc
       -0.0013721111 -0.121758424 0.028672 -0.0081371805
0000e0 1f 4f 2c 3d fe 53 eb bc 6f e0 d0 bb 78 a2 2e 3d
       0.042067643 -0.028726574 -0.006374411 0.04263541
0000f0 1e 1f 67 bc f1 6e 2c 3d a9 5f 41 bd 53 7b dd 3c
       -0.01410654 0.04209799 -0.04721037 0.027036345
000100 cb 44 96 3c 1a d0 87 3c eb 6f 40 3c 70 91 3b bc
       0.01834335 0.016578723 0.011745433 -0.011448249
000110 0e 87 7b bc 48 d6 d4 bc 2a ce 44 bc 96 b0 0b 3d
       -0.015352024 -0.025981084 -0.012012044 0.034103952
000120 9e 12 56 3d 2f 92 3e 3d bf e6 64 3d 21 36 0f 3e
       0.05226385 0.04652613 0.05588412 0.13985492
000130 cf 0b 48 3d 0f fc da 3c 00 79 44 3d e1 24 c2 bc
       0.048839387 0.026731519 0.047966957 -0.023699226
000140 fd c1 d8 3c 0e 6a 2b bd fa 93 68 3d 6e 47 4d bc
       0.026459688 -0.04184919 0.056781746 -0.012529237
000150 7b 06 05 3d 54 3c b8 bc 10 02 52 3c 9e 92 c4 3c
       0.032476883 -0.022489704 0.012817875 0.023995694
000160 78 24 9b bc 22 68 ab bb 3b 6f 60 bc 67 c5 2c bb
       -0.018938288 -0.0052309195 -0.013698394 -0.0026362778
000170 73 1a d9 3b 31 c0 8f bb 06 30 38 be 51 94 5d bd
       0.0066254674 -0.0043869247 -0.1798707 -0.054096524
000180 04 b9 8f 3d b1 1b 91 bd de eb 79 3d d2 19 84 39
       0.07017711 -0.0708536 0.061015956 0.0002519624
000190 71 78 81 3d e5 6d 29 bc fe 70 e3 3b e1 b2 e6 3c
       0.063218005 -0.010341142 0.00694096 0.028161468
0001a0 1b 06 de bc eb f5 6f 3a c0 db af 3b fc 12 0f 3d
       -0.02710252 0.0009153771 0.0053667724 0.034930214
0001b0 11 36 0b bd 75 91 17 3d 72 4c 95 bc 5d 18 cb 3c
       -0.03398711 0.037003953 -0.018224929 0.02479189
0001c0 d8 d9 a8 bb 95 a5 e6 3c 56 8b 0d 3d 2e ae a5 bb
       -0.005152922 0.028155128 0.03455671 -0.005056164
0001d0 71 d8 43 3d d4 93 5e 3c 11 65 0d bc ab 98 41 bc
       0.047813836 0.01358505 -0.008630053 -0.011816184
0001e0 19 11 ce bc bf 3d e0 3c 46 5c ac b8 fc 1a ab 3c
       -0.025154637 0.027373193 -8.2187864e-05 0.02088689
0001f0 e1 d7 8f bd c5 99 26 3d 2e 29 3a 3d ff 36 8b 3d
       -0.070235975 0.04067399 0.04544943 0.06797599
000200 aa 5c d0 3b ff a7 67 bd d3 45 a0 3d b5 08 ff 3c
       0.0063587027 -0.056556698 0.07825818 0.031132082
000210 c3 01 a2 3d 3e 38 36 3c f9 4e bf bc 32 26 ad bc
       0.07910492 0.011121808 -0.023353087 -0.021136377
000220 f2 8b b6 3b be cb a4 3c 17 4d 4a 3c b8 87 44 3c
       0.005570882 0.020116683 0.012347481 0.0119952485
000230 de f4 cf b9 64 a6 d9 3a d0 5a b4 bc 6c 86 1f 3c
       -0.00039664557 0.0016605374 -0.022015959 0.0097366385
000240 78 93 8c 3d 01 10 cd bc d4 0f 33 bd f1 b9 b9 bc
       0.06864065 -0.025032045 -0.043716267 -0.022671672
000250 d9 50 bf 3c 9b 5d be 3c 01 ac 2b bd a9 1a 80 bc
       0.02335398 0.023237994 -0.041912083 -0.015637713
000260 c8 8b d3 3c 7f 37 91 bc 49 ac c0 3b 97 94 19 3c
       0.025823489 -0.017726658 0.005879913 0.0093738055
000270 13 78 b0 3d 39 80 28 3c f7 fe aa bd 6a 7b f3 3c
       0.08616652 0.010284477 -0.08349412 0.029721934
000280 9b 89 2c 3d 8c 97 8f 3b 39 19 19 3d c0 03 af bc
       0.04212342 0.0043820795 0.03737757 -0.021364093
000290 49 d6 cb 3c b8 4a 2b 3c 56 9b 18 3d 42 45 0e bc
       0.024882453 0.010454826 0.037257515 -0.008683505
0002a0 0d cb 5e bd 79 27 62 bc 04 07 2c bd 76 85 31 3c
       -0.054392863 -0.013803356 -0.041998878 0.010835042
0002b0 8b e8 94 3c 78 15 4a 3b ad e3 69 3d 74 ce 94 bc
       0.018177291 0.003083555 0.057101894 -0.01816485
0002c0 b3 b8 7e bd 9b 7d 78 3d 80 ec 1b 3d c6 82 19 3c
       -0.06218786 0.06066666 0.03806734 0.009369558
0002d0 f3 b4 8c bd 2d 9b 0a 3b f7 1d 6d bd a4 48 10 bd
       -0.06870451 0.002114962 -0.057889905 -0.035225525
0002e0 e0 1a 24 3d 4f 96 53 3d 32 5e 78 bd 84 47 49 3d
       0.040064692 0.051657017 -0.060636707 0.04914047
0002f0 31 f9 13 be c1 3e 52 3d 52 de 24 3d 86 fe f3 bc
       -0.14450528 0.051329378 0.040251084 -0.029784452
000300 68 74 3a bd ba 86 22 bc 83 4e 5e 3d 7b 59 18 bb
       -0.04552117 -0.009919817 0.054274093 -0.0023246694
000310 d8 9a cd bc 46 e4 fa 3b 06 ca 4b bc f3 9e 5d bc
       -0.02509825 0.007656607 -0.012438303 -0.013526666
000320 fa 44 1c bd cf f8 10 bd d9 cf 0a bc 2b 4b 5c 3d
       -0.03815172 -0.035393532 -0.008472406 0.053782623
000330 ba 93 88 3d 43 17 a2 bc 8e de 62 3b 79 2a af 3d
       0.066688016 -0.019786483 0.0034617516 0.08553023
000340 a1 cf 14 3c e4 0d c2 3d 3c fa 8b 3c 89 5b be bc
       0.009082706 0.09475306 0.017087094 -0.023237007
000350 85 76 52 3c b8 bf 94 bd 78 56 87 3d a5 cb 5d bc
       0.01284564 -0.0726313 0.066082895 -0.013537322
000360 ad 56 1d 3c 6a 44 bb 3c 30 51 7f bc 1d 79 0b bc
       0.009603185 0.02285977 -0.015583321 -0.008512762
000370 44 99 bd bc 4c a1 d8 3c de e6 fa 3c 39 72 97 bd
       -0.023144372 0.0264441 0.030627664 -0.07394833
000380 3c d6 0a bc c6 08 0d 3d d7 9a f4 bb 72 d5 8c bc
       -0.008473929 0.034432195 -0.0074647474 -0.017191622
000390 95 e4 5f bd 17 b5 99 bd af d7 18 bd 22 c4 23 3d
       -0.054661352 -0.07505243 -0.037315067 0.03998197
0003a0 fa fb 0b bd 52 76 a2 3c 50 a1 a0 bc 2d 92 14 bc
       -0.03417585 0.01983181 -0.01960817 -0.009068054
0003b0 9f 4f ec bc f7 e4 95 3c 83 db ab bc 84 39 6f ba
       -0.02884656 0.018297656 -0.020978695 -0.0009125697
0003c0 69 50 66 bd c5 90 cd 3c b0 bb e0 3c 44 da 32 bd
       -0.05622903 0.025093446 0.027433246 -0.043665186
0003d0 0a aa 1d 3d 0a 39 4a bb 9e d8 b7 3a 0a 1c 21 bd
       0.03849224 -0.0030856752 0.0014026349 -0.03933338
0003e0 ad e1 3d ba 2a b0 1c 3d 71 52 27 bd 81 19 4a 3d
       -0.0007243406 0.03825394 -0.040850107 0.04934073
0003f0 03 a6 50 3d 02 12 31 bd 28 67 bf 3c b9 01 b5 3b
       0.05093957 -0.043230064 0.023364618 0.005523887

b3 f4 [32]
000000 72 97 a3 3e 5c c8 5d 3e b4 87 2a 3e 82 d9 cc 3e
       0.3195148 0.21658462 0.16653329 0.40009695
000010 05 b4 af 3e 0b 87 aa 3e a8 76 85 3e 9b 98 4d 3e
       0.34317032 0.33306155 0.2606709 0.20077746
000020 89 e5 80 3e 77 10 0a bc 11 36 b3 3e 4d 07 6a 3e
       0.2517512 -0.008426777 0.35002187 0.22854348
000030 54 0e f4 3e 44 85 37 3e 41 f7 c4 3d 47 52 a6 3e
       0.47667181 0.1792193 0.096174724 0.32484648
000040 7a 44 97 3e d8 05 69 3e 29 e5 52 3e 59 2f 4f 3e
       0.2954443 0.22756135 0.2059523 0.20232905
000050 4d 8f 21 3e 40 70 ca 3e 52 a0 b3 3e 6a 02 79 3e
       0.15777321 0.39538765 0.35083252 0.24317327
000060 11 1d 03 3e 86 64 e0 3e 6b 1d a7 3e d5 45 bf 3e
       0.12804057 0.43826693 0.32639632 0.37357965
000070 6a a5 31 3e 2f 8a fc 3d 44 20 45 3d 3c 91 33 3e
       0.17348257 0.12331044 0.048126474 0.17535871

w4 f4 [5, 32]
000000 14 e4 0e c0 eb f4 20 c0 e9 47 19 3f 87 39 1a c0
       -2.2326708 -2.5149486 0.5987535 -2.4097612
000010 af 49 aa 3e ce 02 6f 3f c2 21 31 bf 8d 50 0d c0
       0.3325934 0.93363655 -0.69192135 -2.2080414
000020 a3 cc 5c 40 5f a5 d0 bf f0 c3 8d be da b2 eb bf
       3.44999 -1.6300467 -0.2768855 -1.8413956
000030 e6 37 82 40 95 1d 56 bf e5 4a 71 40 c0 dd 0c c0
       4.0693235 -0.8363889 3.7701962 -2.2010345
000040 c3 d3 d9 3e e4 1b 42 3f bb 43 26 c0 40 f2 71 40
       0.42544374 0.7582381 -2.597884 3.7804108
000050 1b 91 88 3f dd 87 15 c0 90 6e 8a bf e3 7d f9 bf
       1.0669283 -2.3364174 -1.0814991 -1.9491543
000060 a0 7a 34 3f fb a1 2d bf 97 12 cb bf f9 de 80 40
       0.7049961 -0.6782529 -1.5865048 4.0272183
000070 ee 08 0e bf cf df ef bf 34 47 a3 be 31 a6 a8 bf
       -0.55482376 -1.8740176 -0.3189026 -1.3175718
000080 8f ef bc bf fb a3 55 40 f9 cd 77 3f 04 50 51 3f
       -1.4760607 3.3381336 0.96798664 0.8176272
000090 ca 16 ce bf ed 2a dd bf b0 7b b7 bf f2 69 33 40
       -1.6100705 -1.7278725 -1.4334621 2.8033414
0000a0 6b eb 00 c0 5c 29 a1 bf 09 00 24 c0 a3 b1 03 c0
       -2.0143688 -1.2590747 -2.5625021 -2.057717
0000b0 a3 94 a0 bf 17 32 8a bf 16 e7 ae be ce d6 0b c0
       -1.254536 -1.0796536 -0.3416068 -2.1849856
0000c0 9c a5 6c 40 b3 1f f2 bf 7c 35 90 3e 9c 13 e1 bf
       3.697608 -1.8915924 0.28165805 -1.7584109
0000d0 c9 48 05 40 44 a8 f1 bf 06 c9 76 40 c2 2a 3e 3f
       2.0825675 -1.8879476 3.8560195 0.74283993
0000e0 13 39 e8 bf 18 f0 9e bf ab db 5d 40 75 3b de bf
       -1.8142418 -1.2417021 3.4665325 -1.7361895
0000f0 dd fe 61 40 a8 b9 e1 be 4b 33 8b bf 4c 9f b9 bf
       3.5311806 -0.44086957 -1.0875028 -1.4501739
000100 8d 40 55 40 31 c3 00 3d 6b 7c 44 c0 54 a1 ec bf
       3.3320649 0.03143615 -3.0700939 -1.8486733
000110 89 24 0e c0 d8 fd 4b 40 85 76 61 40 d5 cc 88 3f
       -2.22098 3.1873684 3.5228589 1.068751
000120 d2 46 05 c0 ce 85 64 40 1a b5 ed 3e 5d df 23 be
       -2.0824475 3.5706668 0.46427232 -0.16003175
000130 5d b9 cb bf c2 d1 01 c0 2c ba fd bf 11 c7 a1 bf
       -1.5915943 -2.0284276 -1.982244 -1.2638875
000140 a8 91 08 c0 12 64 ca bf a4 3b 4e 40 68 09 a6 bd
       -2.1338902 -1.5811789 3.2223902 -0.08107263
000150 b8 39 e2 3f f6 d8 53 be 2e 31 70 bf a8 22 6a bf
       1.7673864 -0.20688233 -0.9382504 -0.9145913
000160 61 0a d0 3f ab df be bf a0 d5 0d c0 7c ba c6 bf
       1.6253167 -1.4912008 -2.2161636 -1.552566
000170 c0 11 0a c0 b4 21 b0 bf 38 bd 60 40 64 f0 c1 bf
       -2.1573334 -1.3760285 3.511549 -1.5151486
000180 b7 69 f0 bf 04 c6 36 3f f7 46 ed 3f a2 6b 65 bf
       -1.8782262 0.713959 1.8537282 -0.8961736
000190 8c bf 03 c0 e8 81 9f bf eb 00 a1 be 2b da ff bf
       -2.058566 -1.2461519 -0.31446013 -1.9988455
0001a0 59 ac 17 3f 17 4f a7 bf 91 6e 6b bf 7a cf 4d 40
       0.59247357 -1.3071011 -0.91965586 3.2157884
0001b0 33 92 0d c0 5a 04 f7 bf d3 87 02 c0 9c 76 3f 40
       -2.2120483 -1.9298203 -2.03954 2.9916143
0001c0 1d 01 9b bf 02 d9 4a 40 1a b4 f9 3e e9 7a 0f c0
       -1.2109715 3.169495 0.4877022 -2.2418768
0001d0 af 70 14 c0 ab ee 94 bf 4a d0 02 c0 e7 08 50 40
       -2.3193777 -1.1635336 -2.043963 3.2505434
0001e0 a2 fe e9 3f ca 2b 67 40 23 c4 f4 bf ab a6 49 bf
       1.8280833 3.6120477 -1.9122356 -0.7876994
0001f0 0c 88 52 bf 9b 27 51 40 90 d1 e9 bf 3d eb 78 bf
       -0.8223884 3.2680423 -1.8267078 -0.97233945
000200 e2 19 86 3f 8d 85 a1 bf 26 8f c9 bc 44 a4 60 40
       1.0476649 -1.2618881 -0.024604391 3.510026
000210 c5 22 69 40 a1 60 e9 bf 91 dd fb bf fa 51 08 3f
       3.6427472 -1.8232614 -1.9676992 0.53250086
000220 c3 c4 05 3e c0 ef 77 bf 87 a9 61 40 1f 95 46 bf
       0.1306334 -0.96850204 3.5259721 -0.7757129
000230 a0 1a 34 bf fb b8 5b 40 70 47 ee bf 9d 8d 92 3d
       -0.70353127 3.4331653 -1.8615551 0.07155917
000240 76 9c 03 c0 e7 ff d4 bf ee 8a b9 bf c3 b2 aa bf
       -2.0564246 -1.6640595 -1.4495523 -1.3335804
000250 f0 69 03 c0 67 1c 65 40 87 70 d6 bf a6 35 fa bf
       -2.053341 3.5798585 -1.6753091 -1.9547622
000260 61 89 14 c0 ae f6 80 bf f7 c8 85 3e dd 46 f8 bf
       -2.320885 -1.0075281 0.26129887 -1.9396626
000270 f7 1a f2 bf f8 2e 4e bf 83 4d 1c bf f7 ed 5d 40
       -1.8914479 -0.8054042 -0.61055773 3.4676492

b4 f4 [5]
000000 04 4e f3 3d bd 4a 98 bd 55 f7 99 bb e4 6b 81 bd
       0.11880115 -0.0743613 -0.0046986737 -0.06319407
000010 96 e3 f3 bc
       -0.029771607

exp_avg f4 [32, 1, 3, 3]
000000 55 a7 18 ba 24 55 5b ba af b1 5a 3a 65 b7 22 3a
       -0.0005823274 -0.0008366874 0.0008342517 0.00062071375
000010 a2 ff c5 3a 09 e2 c3 3a 4e e7 0d 3a 75 70 ed 3a
       0.0015106092 0.0014944683 0.000541319 0.001811518
000020 ae 00 c5 3a bc 24 45 3a 86 5f d0 39 c6 e7 c7 39
       0.001503011 0.00075204275 0.00039744022 0.00038128922
000030 15 44 78 3a 6b 40 56 38 9c 4d f3 39 d2 f5 c2 3a
       0.0009470594 5.108157e-05 0.00046406395 0.0014874286
000040 f9 1d 53 3a 12 12 1a 3a c7 12 6b 39 49 5f ab 3a
       0.00080534775 0.00058773265 0.00022418342 0.0013074662
000050 6e e0 b5 3a 1c a4 cd 3a f3 3b e1 3a cb a7 d0 3a
       0.0013876089 0.0015689167 0.0017184004 0.0015919147
000060 eb b2 d0 39 7f cd 88 3a 47 d3 11 3a 06 3a c1 3a
       0.00039806156 0.0010437219 0.0005562794 0.0014742024
000070 e1 c7 c8 3a b6 99 97 3a 2b 72 92 3a bb 5d bc 3a
       0.0015318358 0.0011566195 0.0011172941 0.0014371196
000080 ee c4 f6 3a 0c 39 07 3b 9b 37 1b 3b b1 31 1f 3b
       0.0018827 0.0020633368 0.0023684266 0.0024291093
000090 b7 8f 26 ba 26 0c 43 3a d2 0c 28 3a 0f 9d 8e ba
       -0.00063538126 0.000744047 0.0006410602 -0.0010880547
0000a0 09 06 b3 3a 98 2a 6f 3a 28 56 d1 ba bb 52 15 38
       0.0013658415 0.00091234734 -0.0015971111 3.5601417e-05
0000b0 30 d8 b3 b9 55 37 08 ba 59 de 03 ba 42 09 ef b8
       -0.00034302613 -0.00051962334 -0.0005030386 -0.000113981325
0000c0 d3 39 18 ba 80 13 30 39 da a9 e6 39 b5 90 16 b9
       -0.00058069563 0.00016791932 0.00043995568 -0.00014359022
0000d0 2e 57 e7 b9 cd 53 2c 3a 37 69 f7 39 85 af ce 37
       -0.00044124707 0.00065737666 0.00047189902 2.4638846e-05
0000e0 0c 67 8c 39 ba e7 9d 3a b5 c7 1f 3a 6b 38 02 3a
       0.00026779657 0.0012047209 0.00060951273 0.00049675134
0000f0 06 7b 25 3b 05 a1 57 3a 2b c1 1d 39 cb f6 bb ba
       0.002525033 0.0008225593 0.00015044647 -0.0014340518
000100 17 08 7b ba 35 a1 50 3a 1e b1 91 ba d4 3c 83 ba
       -0.00095760956 0.0007958592 -0.0011115407 -0.0010012635
000110 b8 95 b0 39 be c3 34 ba 82 74 87 b8 94 ab 15 3a
       0.00033680885 -0.0006895623 -6.459003e-05 0.0005709466
000120 c2 3e 6b b9 01 aa 85 ba 24 b7 84 ba 13 ab a1 ba
       -0.00022434726 -0.001019776 -0.0010125381 -0.0012334309
000130 66 42 f3 ba 8e c3 8e ba 0d ae 08 bb 39 ff 6f ba
       -0.0018559217 -0.001089202 -0.0020855695 -0.00091551576
000140 e6 ca 00 ba ef 98 7e 39 18 07 fd 39 ca 1e e1 b8
       -0.0004913047 0.000242803 0.00048261206 -0.00010734571
000150 f9 da 55 ba 14 0e b4 b9 21 88 02 ba 35 03 00 3a
       -0.00081579346 -0.00034342764 -0.0004979391 0.00048832904
000160 2c b7 0b 3a f6 ad eb 39 e8 0d e9 38 d0 11 81 3a
       0.0005329724 0.00044952304 0.00011112896 0.0009847227
000170 08 d9 2f 3a aa f8 88 39 46 48 fa 3a 01 8a 33 3a
       0.00067080604 0.0002612521 0.0019095025 0.0006848872
000180 98 26 d6 b9 0b 54 f9 3a 85 16 ac 37 9c 49 ca 3a
       -0.00040846015 0.0019022239 2.0514484e-05 0.0015433314
000190 5d af 98 39 18 25 68 ba e1 91 e4 3a 1d b2 13 3a
       0.00029122355 -0.0008855625 0.0017438495 0.0005634146
0001a0 bb 06 80 b7 68 87 fa 3a bd a3 6f 3a dc 1f ec 39
       -1.5261923e-05 0.001911384 0.00091415254 0.00045037165
0001b0 49 dc d9 39 49 d4 56 39 fb f1 66 39 6e a8 b0 39
       0.0004155359 0.00020487713 0.00022024654 0.00033694826
0001c0 c2 54 28 3a b6 55 c4 39 49 48 86 3a 58 8f d1 3a
       0.00064213213 0.00037447893 0.0010244931 0.0015988154
0001d0 39 96 a0 3a 16 9f 2a ba 09 81 35 b9 e5 11 3a ba
       0.0012251801 -0.0006508691 -0.00017309574 -0.00070980034
0001e0 14 19 20 ba 88 8b 03 3a e3 18 ab b9 a7 05 61 b7
       -0.00061072526 0.0005018045 -0.00032634204 -1.3412361e-05
0001f0 0c 8b a8 3a 9e 3c 74 39 2f 2f 42 3a a8 90 61 3a
       0.0012858822 0.00023292235 0.00074075436 0.00086046243
000200 37 12 f3 39 0c 65 3e 3b 71 fb 1d 3b cc b3 55 3a
       0.00046362143 0.0029051928 0.002410617 0.0008152097
000210 7d bc 06 3b a0 50 f0 3a 04 9b d9 b9 50 89 c7 3a
       0.0020559125 0.0018334575 -0.0004150496 0.0015223417
000220 28 76 2c 38 71 40 85 38 2e a8 b0 b9 f6 43 2d ba
       4.1118037e-05 6.353937e-05 -0.0003369464 -0.0006609553
000230 0f 6a d7 39 0d 91 9c ba b0 5f 2b ba 60 59 81 39
       0.00041087015 -0.0011945084 -0.0006537391 0.00024671387
000240 79 8a d6 3a 95 eb 20 3a 7a f1 9e b8 b6 bc e1 38
       0.0016368172 0.000613862 -7.5790056e-05 0.00010763986
000250 53 e6 7c b9 05 17 ff b9 f2 9a c5 b9 35 2f 9a b8
       -0.00024118395 -0.0004865454 -0.0003769021 -7.352085e-05
000260 1e 15 89 b9 5b 8e 12 ba 04 ae ca 39 aa e5 97 38
       -0.0002614641 -0.00055906706 0.00038658094 7.243019e-05
000270 cc c1 9b ba 25 52 60 b9 bf 2a a6 39 bf e7 d5 b9
       -0.0011883317 -0.00021392906 0.00031693836 -0.0004079919
000280 f7 57 9c b8 90 69 4f 3a f1 22 5a b9 87 c1 5b 39
       -7.4550444e-05 0.00079121534 -0.00020803117 0.00020957562
000290 04 c0 76 b8 2b 23 17 3a 0f f4 b5 b8 b9 c0 94 b9
       -5.88298e-05 0.00057654333 -8.676212e-05 -0.0002837235
0002a0 d7 be 43 3a 73 c1 91 b9 ae 36 14 ba 54 42 d6 b7
       0.0007467097 -0.00027800686 -0.00056539 -2.5541674e-05
0002b0 31 f1 ee b9 6c 7f 94 39 4e 7c 21 ba fe 50 e4 38
       -0.000455746 0.00028323696 -0.00061601854 0.00010886973
0002c0 28 b1 90 b8 3f 87 50 ba 2b db a8 ba 69 09 aa ba
       -6.899453e-05 -0.00079547236 -0.00128827 -0.0012972775
0002d0 a6 de 73 39 ac 8e 28 ba f4 98 35 ba 98 34 24 bb
       0.00023257229 -0.0006429951 -0.0006927394 -0.0025055762
0002e0 37 1c 02 bb cc 77 02 ba 6d 9d 33 bb c5 13 f1 ba
       -0.0019853243 -0.00049769576 -0.0027407065 -0.0018392733
0002f0 91 33 93 ba d0 07 6c bb 3c b4 7c ba b8 c9 a6 ba
       -0.0011230578 -0.0036015399 -0.0009639894 -0.0012724912
000300 23 d3 9e ba 1e ed 84 ba 3f ce 3a bb 34 48 f4 b9
       -0.0012117367 -0.0010141467 -0.002850428 -0.00046593102
000310 74 5f 57 ba e0 3c 60 bb 7b d1 40 3b d9 0d 09 3b
       -0.0008215823 -0.0034215972 0.0029421735 0.0020912795
000320 14 26 5d 3a d2 10 37 3b e6 1a bd 3a c0 2e 52 3a
       0.0008436155 0.002793361 0.0014427572 0.00080178306
000330 43 aa 26 3b 1a 8f 9b 3a 45 f4 20 3a 40 f5 81 39
       0.0025431074 0.0011868209 0.00061399146 0.00024787523
000340 ee 34 e0 b9 c0 7a 2b b8 03 bf ef 38 23 d1 82 b9
       -0.00042764045 -4.0883897e-05 0.00011431987 -0.0002495135
000350 f7 bf 13 b7 9f c7 34 3a 86 01 76 3a 3f da 8e 3a
       -8.806578e-06 0.0006896201 0.0009384382 0.0010898783
000360 06 7e 46 ba 5a 2d 5a b9 b3 c4 a4 38 5f 74 56 ba
       -0.00075718795 -0.00020806995 7.8567675e-05 -0.0008180793
000370 85 d3 25 b9 90 83 31 b9 8c 0b cf 37 03 a1 35 3a
       -0.00015814423 -0.00016929046 2.46817e-05 0.00069285947
000380 85 b4 c4 39 8a 0c 13 ba 02 a3 57 b8 ff 0c 93 3a
       0.0003751853 -0.00056094734 -5.1411807e-05 0.0011219083
000390 40 c2 48 ba 91 2e 3e ba e3 35 7d 3a e6 b8 19 ba
       -0.000765834 -0.0007254864 0.0009659214 -0.0005864039
0003a0 47 c1 80 b9 ec 2d 1b 39 93 6f e5 3a 02 53 bd 3a
       -0.00024558065 0.00014799059 0.0017504565 0.0014444294
0003b0 cc 3f 5d 39 33 a5 bc 3a 71 24 75 3a ef ab d9 39
       0.00021099969 0.0014392495 0.00093514385 0.00041517566
0003c0 9d 95 a6 3a d1 4d 83 3a 0f 90 cd 39 f3 25 ef 3a
       0.0012709383 0.0010017698 0.0003920798 0.0018245563
0003d0 a4 72 93 39 ac e6 d7 39 e4 e3 a9 38 0e 9a bb b9
       0.0002812344 0.0004117986 8.100996e-05 -0.000357822
0003e0 9c c4 74 3a e3 6f a9 39 92 8d 17 3a a7 34 1b 3a
       0.00093371584 0.00032317554 0.00057812885 0.00059206266
0003f0 6a 06 a2 ba 35 b9 31 bb a6 de 13 bb 60 ba 29 bb
       -0.0012361531 -0.0027118449 -0.0022563129 -0.0025898442
