CS330/XCS330-PS3/src/submission/logs/maml/omniglot.way_5.support_1.query_15.inner_steps_1.inner_lr_0.4.learn_inner_lrs_False.outer_lr_0.001.batch_size_16/state2700.pt (torch, 353132 bytes, 30 tensors)

conv0 f4 [32, 1, 3, 3]
000000 d6 9f 01 bd 7b 24 0f be 81 56 dc 3e 76 2e 88 be
       -0.031646572 -0.1397876 0.43034747 -0.26597947
000010 49 5f 8f be 5b b2 47 3b 18 3c 1c bd fd dd 06 bd
       -0.28002384 0.0030471298 -0.038143247 -0.03292655
000020 7e f8 68 bd e6 62 60 3e db d4 44 3e cc 08 01 bf
       -0.056877606 0.21912727 0.19221823 -0.5040405
000030 c0 34 9e 3c ab 3e 91 bc 25 b3 06 3e 2f fa 63 bc
       0.019312263 -0.017730078 0.13154276 -0.013914629
000040 4b fb 77 3d d7 66 11 3e 86 97 02 be 0d b2 33 be
       0.060542386 0.14199387 -0.12753114 -0.1754839
000050 39 c6 b8 3b 2b 44 78 3e 7a d1 4b 3d af 25 88 3e
       0.0056388644 0.24244754 0.04976032 0.2659125
000060 2f 99 45 be e4 eb 54 be 04 6b 9f be a8 5f 7e 3d
       -0.19296716 -0.2079311 -0.31136334 0.062102944
000070 27 2d 8d be 42 14 a0 be 32 80 36 3d b7 d3 79 bd
       -0.2757351 -0.31265455 0.04455585 -0.060992923
000080 85 e8 50 be a4 c8 95 3e 80 85 06 3e a8 66 95 3e
       -0.20401199 0.2925464 0.13136864 0.29179883
000090 aa 73 98 3e 08 be 6a be 34 6c 24 3f c2 db 81 bd
       0.29775745 -0.22924054 0.64227605 -0.063407436
0000a0 f6 77 2c 3d 77 0e 59 bb bd 16 84 3d ed 3b 55 bd
       0.04210659 -0.0033120194 0.064496495 -0.052059103
0000b0 d7 e5 78 3d c6 a5 b4 be cb dc 89 be dc 94 30 be
       0.060766067 -0.35282725 -0.26926264 -0.17244285
0000c0 ed 71 75 3e 6c a2 ed bd 61 83 57 be a6 65 db bd
       0.2396924 -0.11603245 -0.21046211 -0.10712747
0000d0 89 84 a7 3e 61 18 f6 bd b0 ff dc be f8 a5 be be
       0.32718304 -0.12016369 -0.43163824 -0.37236
0000e0 e9 12 0a bd 13 2a 9b 3d c5 26 91 3d 35 ce d9 be
       -0.03370944 0.075763844 0.07087473 -0.42540136
0000f0 7c 22 11 3e a4 f2 e3 3d 74 e8 d9 be 2e 27 c8 3d
       0.14173311 0.111302644 -0.4256016 0.09773098
000100 85 87 19 3e 19 b0 f1 3d 8f e4 2e 3d da e6 31 3e
       0.14993103 0.11801166 0.04269844 0.17373219
000110 c2 92 af bc 6a 24 0a bf 7d cb 00 bf 61 6b 5e bd
       -0.021432284 -0.53961813 -0.503105 -0.054301623
000120 63 af 2f 3b 6e 18 de bd 23 fc db 3d 6e 03 8d 3c
       0.002680742 -0.10844503 0.10741451 0.01721355
000130 9d b5 ed bd fd 46 eb 3c 32 96 a9 3e b6 6e 17 bf
       -0.116069056 0.028720373 0.33122402 -0.59153306
000140 c9 88 7a 3e e5 be f3 be 0d 02 f8 bd 24 fe bc 3e
       0.24466242 -0.47606578 -0.12109766 0.36912644
000150 13 52 3d be dd c4 d4 3d de 86 cc 3d 77 59 6b bc
       -0.1848834 0.10389111 0.099866614 -0.014364592
000160 11 d0 86 bc 22 d0 c3 bc c0 d8 9d be f0 5a 20 bd
       -0.016456636 -0.023902956 -0.3082943 -0.039149225
000170 77 c9 0d 3d 35 a6 c5 bd be 77 0a 3d 70 1d c9 bd
       0.03461596 -0.09650842 0.0338056 -0.09820068
000180 cd 94 b7 3e 30 6b 0f 3e c7 99 08 bf e0 e4 ca be
       0.35855713 0.14005733 -0.53359646 -0.39627743
000190 e2 e2 a8 bd d1 30 17 be 90 6a 0f 3e 16 a3 8c be
       -0.082463995 -0.14764716 0.14005494 -0.27468175
0001a0 b4 92 17 3e 1d d9 ae 3e 67 d9 8c be a6 a0 24 3e
       0.14802057 0.3415002 -0.27509615 0.16076908
0001b0 29 ff 0c bd a2 d3 90 be 4c 22 90 be 3a f2 38 be
       -0.034423027 -0.28286463 -0.28151166 -0.18061152
0001c0 d6 84 03 be 73 45 4d bd 20 9d c0 3e da 7a 48 3c
       -0.12843642 -0.05011506 0.37619877 0.012236321
0001d0 95 d7 62 bd 47 57 de be 98 35 46 3e 1d bf 5e 3e
       -0.055381376 -0.43425962 0.19356382 0.21752591
0001e0 ee 6b 03 bf 4a 5d 79 3d 3a 26 75 3e 5c cf 53 be
       -0.5133656 0.060879983 0.23940364 -0.2068457
0001f0 cb f1 ad be 64 19 54 be 23 fb d6 be 4c 01 da be
       -0.33973536 -0.20712811 -0.41988477 -0.42579114
000200 33 9d 3d be 41 21 65 3e 97 52 62 3e c4 d2 91 3d
       -0.18516998 0.22375967 0.22101818 0.071202785
000210 9e d9 08 be 69 5a c3 bd 76 ba 2c 3e 85 98 24 3e
       -0.13364264 -0.09538729 0.16868004 0.16073807
000220 4f 53 96 3d 6b 7a d5 3e d4 21 1d 3d 90 d1 f8 bd
       0.073401086 0.4169496 0.03836234 -0.12149346
000230 04 43 96 be 8e 75 27 3e 3d a2 bd bd 44 cb 91 be
       -0.29348004 0.16353437 -0.0925946 -0.28475392
000240 b6 7f f5 bb df 09 39 be c5 3d 96 3e 07 cf 1b 3e
       -0.007492031 -0.18070172 0.29344 0.15215693
000250 73 b5 a0 be 6e 75 4e 3e 7a 00 b9 3d 50 b3 b6 be
       -0.31388435 0.20161983 0.09033294 -0.3568368
000260 13 79 fb 3d 2b 7d d1 3e 83 86 67 be 6b d7 6e be
       0.122789524 0.40915808 -0.22609906 -0.23324363
000270 ed 9c fa 3d 08 44 c3 be c8 c3 1d 3d 64 ba 00 be
       0.122369625 -0.3813784 0.03851679 -0.12571102
000280 ef 5d 85 bd ec df 8d 3e 86 a0 f6 be af 7c 07 bf
       -0.06512057 0.277099 -0.48169345 -0.5292463
000290 6c c3 01 bf 0d 85 7a bd d0 b9 9c 3d 36 8a 8f bc
       -0.50688815 -0.061162043 0.076526284 -0.017521959
0002a0 02 72 d9 3d 75 3f 60 3e 4a 28 09 3e de b3 42 be
       0.106174484 0.21899207 0.13394275 -0.19013926
0002b0 a4 7c 3d 3e 6e ab b8 bd 68 ca 3c 3d 0e 3b ac be
       0.18504578 -0.090170726 0.046091467 -0.33638805
0002c0 d9 19 86 be be 43 4c be 90 3c 27 be 94 4e 89 3e
       -0.26191595 -0.19947717 -0.16331697 0.26817763
0002d0 d9 85 de bb 56 44 cd 3d a6 56 1a 3e ef c5 2c 3d
       -0.006790858 0.100228 0.15072116 0.04218095
0002e0 c9 e6 89 be a1 a7 0b bf 29 7b 47 bd f8 23 0c 3e
       -0.26933888 -0.54552656 -0.04870144 0.13685596
0002f0 02 9f 8e 3e ed f9 50 3e ad 5c 59 be bc 75 83 be
       0.27855688 0.20407839 -0.21226759 -0.25675762
000300 7e ca 05 3d b3 b9 bf 3e 44 65 51 be 4a 8e e2 be
       0.032663815 0.37446365 -0.20448786 -0.44249183
000310 16 f5 6d 3d e5 60 28 3e 5b c3 21 3e 5d a0 05 3e
       0.05809506 0.16443212 0.15797178 0.13049455
000320 22 ff a6 be fa 10 e2 3d 7c 3c 2d 3e 38 93 07 bf
       -0.32616526 0.11038394 0.16917604 -0.52959013
000330 4d 0f f1 3c 0c 85 82 bd af de d6 be b1 7d 0d bf
       0.029426241 -0.06373033 -0.4196677 -0.55269915
000340 12 4c 41 bd b5 14 ca 3a 86 cb 91 bd 85 18 73 3e
       -0.047191687 0.0015417548 -0.07118897 0.23739822
000350 8d c6 9a bb c4 67 55 3d f9 60 b1 3e 70 88 ef bd
       -0.004723376 0.05210091 0.34644297 -0.11695945
000360 88 29 4e bb 5f 56 26 bd 56 ca 9e be be 2b 99 bd
       -0.003145786 -0.040609714 -0.31013745 -0.07479046
000370 60 08 61 3b 6d 53 8f 3e 17 68 e7 be 8c 3e 62 be
       0.0034337267 0.27993336 -0.45196602 -0.22094172
000380 88 de b1 3e ba 26 1d 3e 19 d0 50 3e fa 0e 41 bc
       0.3474009 0.15346804 0.20391883 -0.011783356
000390 b9 82 0f 3e d4 a8 43 3e 4d c3 ab bd 81 45 12 bf
       0.1401471 0.19107372 -0.0838686 -0.57137305
0003a0 9d 60 23 bf af 18 0b bf 73 a1 4b 3e 96 3d 8e bd
       -0.63819295 -0.5433454 0.19885807 -0.0694534
0003b0 cc fa cc be 4b f4 4a 3e a2 89 82 bd 6f b2 c7 be
       -0.40035093 0.19819753 -0.063739076 -0.39003322
0003c0 4a 6d 5f 3e 53 b7 3e be 8a af 9d be ea 41 b6 bc
       0.21819034 -0.1862462 -0.30797988 -0.022248227
0003d0 75 b2 2e 3e a6 b2 a1 3d 2e 7c ef be 59 9b 4d 3e
       0.17060263 0.078954026 -0.4677443 0.20078792
0003e0 cb b1 27 3e 3c 7d e6 be fb 2f c3 bb 1c 3d 90 3d
       0.16376416 -0.4501742 -0.0059566475 0.07042906
0003f0 5c 9f d1 be ba 49 55 3d 9e 62 a2 3e 21 0d 86 bc
       -0.40941894 0.052072264 0.31715864 -0.016363682

b0 f4 [32]
000000 e1 4d 46 3b 0f a5 e1 bc 7b dc c3 bc f1 d4 3e 3c
       0.0030258822 -0.027544526 -0.023908844 0.011647449
000010 13 ae b6 3b 9a 00 18 bd 09 c1 6b bb 8d b0 04 3d
       0.0055749505 -0.03710995 -0.0035973212 0.032394934
000020 c6 f3 01 bd a9 38 4b 3d 33 e6 6f bc 80 7a 06 bd
       -0.03172662 0.049614582 -0.014642286 -0.03283167
000030 bc e6 55 bb 1d 84 4e bd fd bc 6c 3c ad bf cf 3c
       -0.003263875 -0.05041896 0.014449355 0.025359953
000040 9a 02 c3 bc 27 db f1 bb 78 a9 81 bd 3d 83 9a 3c
       -0.023804951 -0.0073808613 -0.06331152 0.018861407
000050 b0 0b ce 3b 55 49 65 bc b1 87 43 3c 3e c0 c6 3c
       0.0062880144 -0.0139945345 0.011934207 0.02426159
000060 e0 57 a6 3b 65 de a5 bd 68 67 83 ba 86 05 a6 bb
       0.0050763935 -0.08099059 -0.0010025324 -0.0050665764
000070 2f 01 cf bc 3a 3a de bc 6d 58 a6 bc e4 65 81 bd
       -0.02526912 -0.027127374 -0.020305837 -0.06318262

conv1 f4 [32, 32, 3, 3]
000000 46 60 83 bd 94 c1 1f be 50 0c 31 3b d1 d0 03 bd
       -0.06414847 -0.15601188 0.0027015395 -0.032181565
000010 22 8e 47 3c 5c f9 60 bc 71 f1 5d bd 79 91 e6 3c
       0.012179883 -0.013731327 -0.054185335 0.028145539
000020 e1 04 42 3d 91 75 60 3d 0f bc d2 3b 7b 84 82 bc
       0.047367934 0.05479962 0.0064311097 -0.015932312
000030 55 87 40 bc a4 8d cc 3d 87 40 28 bd 90 d0 f4 3c
       -0.011751016 0.09987953 -0.041077163 0.029884607
000040 18 12 c9 bd 83 19 ec 3c 0d 51 8d bd c3 84 44 be
       -0.09817904 0.028820759 -0.06900225 -0.1919127
000050 c1 32 d2 3d 95 6a d7 bd e9 8e e2 bb 31 6d b7 3d
       0.10263587 -0.10518376 -0.006914009 0.089563735
000060 9f 93 9f bb 52 5c 8d 3d 0e b9 7f 3d 62 41 6e 3d
       -0.0048698927 0.06902374 0.06243234 0.058167823
000070 ef 4f 89 bd 23 52 a2 bc 69 4c 04 3e c8 1b ce bc
       -0.06704699 -0.019814556 0.12919773 -0.025159732
000080 c2 c5 92 3d f0 bc 4e 3d dd d3 68 bd ff 22 8d 3d
       0.071666256 0.050473154 -0.056842674 0.068914406
000090 a1 2c a3 3d 8a 0f 5b bd f9 06 4f 3e 70 aa 22 bd
       0.07967497 -0.053481616 0.20217504 -0.039713323
0000a0 1f b3 c0 bc 3e f8 68 bd 27 9c ad 3d 4d 8e ea 3d
       -0.023522912 -0.056877367 0.08477049 0.11452923
0000b0 c9 32 7c bd 40 a5 98 bd 97 94 52 bd 3c f4 65 be
       -0.06157187 -0.07453394 -0.051411238 -0.2245645
0000c0 3c 33 6e 3c 85 b5 76 bd f7 96 b1 3a b6 e3 78 3c
       0.014538582 -0.060231704 0.0013549019 0.015191009
0000d0 8e 99 ac 3d e6 32 1d bd b4 c4 3f be f0 28 9c be
       0.08427726 -0.03837862 -0.1872738 -0.30499983
0000e0 f3 da ce be 51 ff 74 bd a7 2b 4a 3c 39 49 7a be
       -0.4040142 -0.0598138 0.012339509 -0.24441995
0000f0 ea e1 39 be d8 4a 5e 3c c5 e1 2b be a3 7b 08 be
       -0.18152586 0.013567649 -0.16785343 -0.13328414
000100 3a cd 39 bd b1 65 b1 3d c8 d4 73 3d e0 d6 44 bc
       -0.045361735 0.08661974 0.059529096 -0.012014121
000110 da c1 a1 3d 69 9f 07 be 4a f3 15 be b3 23 ec bb
       0.078983024 -0.13244404 -0.14643589 -0.007206404
000120 62 3f 8e 3d 9d e4 01 be 00 51 b4 bd 50 cc 16 3e
       0.06945683 -0.12684865 -0.08804512 0.14726377
000130 e2 63 02 bd f5 d7 88 bd d1 74 9e 3e e6 46 50 3e
       -0.031833537 -0.066818155 0.309485 0.20339546
000140 70 73 5f 3e 73 ef 33 bd 7b 78 84 3d f6 91 d7 3d
       0.2182138 -0.04392953 0.06468292 0.10525887
000150 0d 76 21 bd 76 8b bb 3c ff cd 05 3d 50 a9 8b 3b
       -0.039419223 0.022893649 0.032667156 0.004262127
000160 6d d8 24 3d 1b e0 f0 bd 7b b4 b9 3b 3e 6e 43 bd
       0.040245462 -0.11761495 0.005667267 -0.047712557
000170 c6 b4 c6 bd 55 f6 f9 3d 57 0e 98 3c 8d 05 a0 bc
       -0.097024485 0.12205187 0.018561525 -0.019533897
000180 a1 3b 1b bd 53 d4 94 bb f3 f8 92 bd 3d 77 0b be
       -0.037898663 -0.0045419126 -0.071763895 -0.13619705
000190 0b e2 cc bd 59 27 53 be 65 6f b5 bb 01 17 68 bd
       -0.10004052 -0.20620479 -0.005536961 -0.056662563
0001a0 31 13 ac bd 27 59 01 3e 41 c7 70 3d 51 ff f2 bc
       -0.08402098 0.12631665 0.058783773 -0.02966276
0001b0 60 77 07 3e bd 93 6d 3d 8d 7b 06 bd 35 c2 f2 3d
       0.13229132 0.058002222 -0.03283267 0.11853448
0001c0 69 2b 18 3d 30 5c 15 3e a8 11 1f 3e d2 bb 62 3d
       0.037150774 0.14585948 0.15534079 0.0553549
0001d0 e9 d9 ba 3c e9 90 a0 be 90 ae 20 be 72 25 e3 bd
       0.022808986 -0.31360558 -0.1569159 -0.110911265
0001e0 64 4e 62 be 3b 44 80 3c e6 26 d7 bd 80 f0 77 be
       -0.22100216 0.015657535 -0.10505466 -0.24212837
0001f0 36 cb 24 be 19 95 bd bd 9e b4 9d be b3 44 73 bd
       -0.16093144 -0.09256954 -0.30801862 -0.05939169
000200 e0 bc 11 be 52 0f 91 3d 21 e1 cb bb 79 d1 be 3c
       -0.14232206 0.07083 -0.006221906 0.023293244
000210 b6 61 40 3e d6 43 b1 bc 8d 76 d5 3c 3b c2 ab 3d
       0.18787274 -0.021638792 0.026057506 0.08386656
000220 11 cf 88 3c 10 20 0c 3e bf aa 36 bd f1 04 cf bc
       0.0167003 0.13684106 -0.04459643 -0.025270911
000230 97 68 ef 3d b9 c2 db bd 76 cf eb bd b3 a9 fd bc
       0.11689871 -0.107305 -0.115141794 -0.030964708
000240 52 83 d1 3c 87 88 e0 bd f1 39 e5 3b e9 e7 32 3c
       0.025575314 -0.109635405 0.0069954325 0.0109195495
000250 fd 5f 81 bd bc dc c4 bb 86 4d 67 3e d5 e3 eb 3d
       -0.063171364 -0.006007759 0.22588167 0.11518065
000260 f9 26 86 bd 0f e8 cc 3d 42 cc ea 3b 91 1f 1c bd
       -0.06550402 0.10005199 0.0071654627 -0.03811604
000270 e2 b6 16 3e 76 cf d2 bd 13 b3 77 bd 38 5d e0 3d
       0.14718202 -0.10293476 -0.060473513 0.1095528
000280 3f a3 39 be b1 16 75 bd a9 f4 f4 bd 57 54 c7 bd
       -0.1812868 -0.059836093 -0.11960728 -0.097328834
000290 7c a7 13 3d 54 b7 9e 3b b5 a2 09 3e f1 75 80 3d
       0.036048397 0.0048436318 0.13440974 0.062724955
0002a0 a4 c8 15 bd 95 62 28 be c6 49 a4 3d 19 b4 60 be
       -0.0365683 -0.16443856 0.08021884 -0.21943702
0002b0 15 2c 79 3d 84 46 a9 be ad a1 23 3d e3 30 ca bc
       0.060833056 -0.33061612 0.039949108 -0.024681514
0002c0 65 bb 35 be 7e ac 70 be 1b f9 78 be 86 f3 6e be
       -0.17747267 -0.235033 -0.24313776 -0.23335084
0002d0 fb ec 23 b7 af 29 8c 3d ee 74 b1 3e c5 88 83 bb
       -9.770733e-06 0.06843888 0.34659523 -0.004014107
0002e0 33 72 6b bd 79 e7 a2 3d 86 9f 13 3d 45 74 f2 3d
       -0.057481956 0.07954306 0.036040805 0.11838583
0002f0 8b 62 63 3e d4 7c 63 3d 19 ed 79 3d cd 44 a2 bc
       0.2220556 0.055538967 0.06101713 -0.019808197
000300 87 16 02 3d 65 68 88 bc 9e 88 4f 3d 3f 75 33 3e
       0.031759765 -0.016651342 0.050667398 0.17525195
000310 b5 0b a4 3d 6f d2 70 3e 5c bf b1 bd 0a d8 3f be
       0.080100454 0.23517774 -0.08679077 -0.18734756
000320 e1 c9 64 be e0 32 a6 3c e9 12 90 bd 07 bd 82 be
       -0.22342636 0.020287931 -0.07034857 -0.2553484
000330 fb c8 5b 3c 2d c2 a7 3b db ec 96 be 95 2a 7a 3d
       0.013414617 0.005119583 -0.2947758 0.061075766
000340 c2 2f 75 bc 3e c2 35 3d c2 f9 fe 3c af 09 86 3d
       -0.014965 0.044374697 0.031124953 0.06544816
000350 13 cd 8a 3d 58 e6 04 3e cb 55 73 bc 29 1d 78 bd
       0.06777396 0.12978494 -0.014851998 -0.060574684
000360 0f 97 02 3e 52 3d fe 3d 68 ad 4c be 86 2f f6 bc
       0.12752937 0.1241404 -0.19988024 -0.030051958
000370 60 38 57 3e 25 ac ed bd 54 e4 52 3d 7b 8e 8b 3d
       0.21017599 -0.116050996 0.051487282 0.06814285
000380 e6 b1 98 bd 8b 6b 9b be 5e 8f e6 bd 19 41 a4 bd
       -0.074558064 -0.30355486 -0.11257814 -0.08020229
000390 ac 00 c7 bd b1 c3 37 be bc 37 2f bd 6d f9 a7 be
       -0.09716925 -0.17945744 -0.04277776 -0.32807484
0003a0 3b 48 af be a5 ad bf be ae 02 88 3d c3 59 87 be
       -0.34234795 -0.37437168 0.06641136 -0.2643567
0003b0 ae 43 b1 be 17 42 97 3d 90 b4 3a bd 68 9f 2b be
       -0.34621948 0.073856525 -0.045582354 -0.16760027
0003c0 43 91 1d 3e 92 a4 a4 3d e0 4d 4f be d2 0d b1 3c
       0.15387444 0.08039202 -0.2024455 0.021613035
0003d0 be 57 9b bd 4a 5e 27 be be 7f 09 3c 3d 79 6f 3c
       -0.07585095 -0.16344562 0.0083922725 0.014616308
0003e0 83 1f 92 3c b5 98 88 3d 94 2c d8 3d 38 12 79 3d
       0.017837292 0.066697516 0.105553776 0.06080839
0003f0 dd 30 a4 3d df c9 f0 3d 2f 52 69 3e 4a 37 00 3e
       0.080171324 0.11757254 0.22785257 0.12521091

b1 f4 [32]
000000 94 00 e1 3d 69 bb 6c 3c f6 a4 49 bc 8c d6 0d bd
       0.109864384 0.014448979 -0.012307396 -0.034628436
000010 25 61 e2 3b d3 e7 9b bb 6d e1 52 3d 5c ad d4 bc
       0.006908553 -0.00475786 0.051484514 -0.02596157
000020 e7 f7 e9 bb c5 eb f9 bc 8f 81 7b 3b 4c 4f 96 3d
       -0.007140148 -0.030507931 0.0038376783 0.073393434
000030 6b 1e 2f 3c 0c 23 8f 3b 36 23 a9 3b 63 a6 d8 3b
       0.010688405 0.0043681916 0.005161668 0.0066116317
000040 63 64 b9 3b 96 89 8e bc e5 13 d6 3c a8 52 02 bc
       0.005657719 -0.01739959 0.026132533 -0.007954277
000050 b5 15 36 3b 88 9f df 3c 1f ed ee 3b 5a bd db 38
       0.0027783934 0.02729775 0.0072914506 0.00010478003
000060 ea 2e 07 3c 82 2f 8d bc e4 d5 75 3d e4 3f 8f 3c
       0.008250931 -0.017234568 0.060018435 0.01748652
000070 7c d0 4b 3a b4 c9 9c 3b 35 e1 19 b9 95 22 ba 3c
       0.0007774902 0.004784787 -0.00014675113 0.022721568

conv2 f4 [32, 32, 3, 3]
000000 84 14 33 3d 03 a9 0c 3d e9 96 13 bc 05 93 b3 3d
       0.043720737 0.03434087 -0.009008148 0.08768276
000010 d4 b0 29 bd 33 7e e5 3d 0c de d8 3c dc 42 3e 3d
       -0.041428402 0.11205711 0.026473068 0.04645048
000020 a4 44 5b bc 26 44 44 3d ca 12 02 3d ad 7b a1 3c
       -0.013383064 0.047916554 0.0317562 0.019712294
000030 56 60 58 3d b2 6f c0 3c b3 b3 97 bd 4a 58 fb bc
       0.052826248 0.02349076 -0.07407322 -0.030681748
000040 9a c5 a6 3c 03 ce 96 3d a0 c4 8d 3a 25 82 b4 3b
       0.020357896 0.07363512 0.0010816045 0.0055086785
000050 fd 01 0a ba d5 b1 ad 3c 8f b6 66 3d d7 32 fc ba
       -0.00052645785 0.021202961 0.056326445 -0.0019241226
000060 9c c4 3f 3d f9 c4 3d bc 5c 93 28 bd 50 8e 9a bb
       0.04681836 -0.0115826065 -0.041156158 -0.004716672
000070 90 52 09 3d d3 e3 66 3c 42 6f d9 3a 42 5d 61 bd
       0.033526003 0.014092403 0.0016588944 -0.05502058
000080 d9 c8 63 bd 60 60 66 3c 3f 01 01 3c 52 58 b0 bc
       -0.055611465 0.0140610635 0.007873832 -0.02152649
000090 cd a7 86 3d 27 6a 4e bd 1b ff 90 bd 60 10 55 bd
       0.06574974 -0.050394204 -0.070799075 -0.05201757
0000a0 dc 4d 00 bd 78 2d 7d 3d 63 37 b8 3d 4c 77 e3 3c
       -0.031324252 0.06181094 0.08994939 0.027766846
0000b0 5d 00 a8 3c 10 74 01 3d ee 60 86 3d 2e 23 6c b9
       0.020507986 0.031604826 0.065614566 -0.0002251982
0000c0 99 f4 98 bd e8 1c 11 3d 7b 61 83 bb 09 e5 b9 3d
       -0.07468528 0.035427958 -0.0040094233 0.09076888
0000d0 56 42 ea bc ec 28 eb 3c e0 43 a3 3d 7a cd 96 bd
       -0.028596085 0.028706037 0.079719305 -0.0736341
0000e0 79 ca 67 3d df 72 48 bd b9 19 c5 3d 32 74 42 bd
       0.056589577 -0.048937675 0.09624047 -0.047474094
0000f0 6d d3 d7 ba 2c 84 0a 3d f1 94 16 3d f3 d8 9c 3d
       -0.0016466208 0.033817455 0.036763135 0.07658567
000100 49 06 84 3c f3 c4 b8 3c 7a 9d 83 3c 43 7c cf 3c
       0.016116278 0.02255485 0.016066302 0.025327807
000110 b4 3a 29 bd 3c b2 c1 3c 42 57 2e bd ad 60 68 3d
       -0.04131575 0.02364456 -0.042563684 0.056732822
000120 d9 c6 fa 3c b1 5a 9d bb 07 61 79 bc d3 b0 74 3b
       0.030612396 -0.004802071 -0.015220887 0.003733684
000130 5d ed 9c bb 81 68 80 3d bc 3d a2 3c 0c 0b 48 bd
       -0.004789038 0.062699325 0.019804828 -0.04883866
000140 f4 cd 0d bd 25 89 3d bd bd 98 56 3d e0 36 c9 3c
       -0.03462024 -0.04627337 0.052391756 0.0245623
000150 54 4e 26 3d 84 90 97 3d 03 e0 a1 bd 35 be aa 3d
       0.040602043 0.07400611 -0.07904055 0.0833706
000160 83 28 a1 3c c6 7a 92 3d ab 44 11 bd 46 ef b9 3d
       0.019672638 0.071523234 -0.035465878 0.09078841
000170 76 1f 93 bd 6b 1f 02 bd 2a a5 61 bd d0 b2 67 3d
       -0.07183735 -0.031768244 -0.055089153 0.056567013
000180 28 c1 85 3d 99 59 a9 b9 7e 43 29 bd 88 77 47 3d
       0.06530982 -0.00032300947 -0.04132413 0.04869798
000190 af 27 88 bd ed d7 b6 3c 69 6e 7c bd ed ac 8b bc
       -0.06648194 0.022319758 -0.061628733 -0.01705023
0001a0 b0 f0 93 3d 66 54 41 bd 15 d2 c1 bc b7 a5 2f 3d
       0.07223642 -0.04719963 -0.023659745 0.042882647
0001b0 c5 36 63 3d 7d 89 a0 3c 42 fc 63 bd b5 60 0a 3c
       0.055472154 0.01959681 -0.055660494 0.008445908
0001c0 7f ac 59 3d a8 78 4a bc d2 04 bc bd 49 a8 bf bd
       0.05314302 -0.012357868 -0.09180607 -0.0935827
0001d0 d4 1d 3e bc 99 5f df 3c b2 a7 aa bc 56 94 fb 3c
       -0.011603791 0.027267264 -0.020831916 0.03071038
0001e0 e3 a6 5c bd 28 99 c1 3d cc 06 ba 3c 26 b2 10 bd
       -0.053870093 0.0945304 0.02270832 -0.035326146
0001f0 49 f5 a2 3d f4 19 57 bd a1 c4 a3 bc b2 be ef 3c
       0.07956941 -0.052514985 -0.01999122 0.029265735
000200 10 51 80 bc 62 ae 28 bd 9f e9 92 3c 42 34 87 bb
       -0.015663654 -0.04118193 0.017933665 -0.0041261027
000210 94 b4 d7 3c e9 37 d9 3b 40 66 d8 bb cc 51 25 3d
       0.026331224 0.0066289795 -0.006603986 0.04036121
000220 fc dd 56 3b 71 f0 29 3d 1f 73 c1 3c 54 03 6d bd
       0.0032786122 0.04148907 0.023614464 -0.057864502
000230 bb 95 0b 3d 4e 89 27 bc 12 d8 65 3d b3 45 fb bc
       0.03407834 -0.010225607 0.056114264 -0.030672884
000240 29 65 3c 3c ac 6f fb bc 88 ce b0 38 84 3a 4e 3c
       0.011498728 -0.030692898 8.4308034e-05 0.012587193
000250 c9 5b 87 bd 9c bf f6 3c a4 40 20 bd 0c 37 37 3d
       -0.066093035 0.030120663 -0.039124146 0.04473023
000260 e3 a9 10 3d 33 7c bd ba 1b d3 8e bc 20 67 0d 3b
       0.035318267 -0.001445657 -0.017434647 0.002157636
000270 0c 56 a7 3d f9 3d 46 bc 97 53 34 bc 0d ca 85 3c
       0.08170709 -0.012099736 -0.0110062575 0.016331697
000280 a4 11 74 3d 34 34 28 bc a6 7a a9 bc 66 7b 7b 3d
       0.059587136 -0.010266352 -0.020688366 0.06139698
000290 d2 8e 84 bd 5a dc 09 3d f4 14 6d bd 85 c7 17 3d
       -0.06472553 0.03365741 -0.05788131 0.03705551
0002a0 6b 19 7b 3d 81 90 e0 3c 6c ad 3c bd 66 8a 91 3b
       0.061303537 0.027412655 -0.046063825 0.004441547
0002b0 36 08 d5 bc 8f 27 d3 bc c2 f9 aa bc 0c d7 9d bc
       -0.026004892 -0.025775699 -0.020871047 -0.019267581
0002c0 ce 97 4e 3d 86 73 44 3d 1a 36 ea bc dd fe 4f 3d
       0.05043774 0.047961734 -0.02859025 0.050780166
0002d0 bd 4c af 3d 4b 6e f0 bc dd 19 ae bd c1 91 9b bc
       0.085595585 -0.029349467 -0.08501027 -0.0189904
0002e0 43 74 3c bd 0b 8c 0c bd 30 38 58 bd 5d e9 c4 3c
       -0.046009313 -0.034313243 -0.05278796 0.024037058
0002f0 06 c1 07 bd c4 0a bf 3c 72 72 3b bd 9b f7 57 bb
       -0.033143066 0.023320563 -0.04576344 -0.003295398
000300 c5 72 c7 3d ce 74 d4 bc 4a 27 e0 3c f4 58 ee bc
       0.097386874 -0.025934603 0.027362484 -0.02909515
000310 4e 89 c0 bb 27 47 de bc 91 3d 95 bc c8 54 e9 3b
       -0.005875743 -0.027133537 -0.018217834 0.0071207024
000320 d6 86 1e 3c 2f 1a ce 3d 4c 37 a9 bc 2b bd 3b 3d
       0.009675702 0.10063588 -0.02065625 0.0458347
000330 0f ed 24 bd 6e 09 03 3d 55 91 2a bc b8 bc 17 bd
       -0.04026514 0.031991415 -0.010410626 -0.03704521
000340 f6 13 60 bd 76 8e 9b 3c bc e8 7a 3d 58 8f 2f bd
       -0.054706536 0.01898883 0.06125711 -0.042861313
000350 3e 76 9a bd 6c e8 89 bc 24 3b d8 3c 6e f1 9d 3c
       -0.07542084 -0.01683446 0.026395388 0.019280162
000360 aa d5 39 3d 25 c1 35 bd 67 4a 30 bd a9 dc db 3a
       0.04536978 -0.04437365 -0.043039706 0.0016774136
000370 02 15 0a 3d 42 da 29 3d be 9b 6b 3d ee 29 35 bc
       0.03371144 0.041467912 0.057521574 -0.01105736
000380 f7 8d 39 bb 4c 70 c5 3c 6a 7e 64 3d 2e ef 06 bd
       -0.0028313377 0.024101399 0.05578462 -0.032942943
000390 9b 8c 4b 3c 3d 8e 78 3d 78 78 00 bd f5 59 3f bd
       0.01242366 0.060682524 -0.031364888 -0.04671665
0003a0 7b 12 a9 3d 9d 9b ed bc 60 8c 48 3d 5f 39 90 bc
       0.08255478 -0.029004866 0.048961997 -0.017605482
0003b0 1f 48 6f 3b 14 44 fc 3b 13 88 71 bc 58 98 62 bc
       0.0036511493 0.007698545 -0.014741915 -0.013830267
0003c0 bb 60 92 3c a8 ca 90 3b c4 f1 0c 3d 0b f5 80 bd
       0.01786839 0.0044186898 0.034410253 -0.06296738
0003d0 1f 83 72 bd 2c fd 4f 3d 0b 5e e3 bd c9 50 46 bc
       -0.059207078 0.050778553 -0.11101922 -0.012104222
0003e0 4c ff bc bd 4b 73 e2 bd cc f4 2b 3d 29 21 21 bd
       -0.092283815 -0.11057147 0.041981503 -0.039338265
0003f0 34 de b7 3c b7 19 4c b7 49 3c 5c bc 17 db f0 bc
       0.022444822 -1.2165335e-05 -0.0134421075 -0.029401345

b2 f4 [32]
000000 8b fa 26 3c 79 2b ae 3c 45 3d 14 bc eb b0 33 3c
       0.01019157 0.021260964 -0.009047811 0.0109674735
000010 da 5d 94 3d 89 c7 0e 3d 58 11 c1 3d 4a 80 24 3c
       0.07244463 0.03485826 0.09427136 0.010040352
000020 80 2d 9a 3c 3d 72 30 be 46 c1 6c 3d 16 00 7a 3d
       0.018820524 -0.17231078 0.057801507 0.06103524
000030 5b 69 81 ba fe 2d 29 be 0e c3 4c 3d 0c ce e3 3c
       -0.0009873317 -0.16521451 0.049990706 0.027808212
000040 74 73 d3 3b b9 00 4b 3d 1d 59 1b bb 0c 20 29 3c
       0.006452972 0.049561236 -0.0023704239 0.010322582
000050 8e 57 0c 3d 87 e1 a2 3c 05 ad f2 ba cb 93 bf 3d
       0.034263186 0.01988293 -0.0018514699 0.09354361
000060 48 d5 93 bc 3b fd cc 3c 86 85 30 bb ae f7 0e 3e
       -0.018046036 0.025023093 -0.0026935055 0.1396167
000070 02 a3 2d 3c 7d 23 5c 3d a4 7e 9b 3d 9c 5d 06 3b
       0.010597946 0.05374478 0.07592514 0.0020502573

conv3 f4 [32, 32, 3, 3]
000000 1e 6e 63 bd ee 03 26 bd 2d 58 7d bd 1d c4 cc bd
       -0.055524938 -0.04053109 -0.06185167 -0.09998343
000010 c3 63 b3 3d ac 68 df bc 25 25 5e bd a7 45 13 bd
       0.087592624 -0.027271591 -0.054234643 -0.035955098
000020 24 6b 86 bd 98 15 77 3e d4 72 6e 3e dc d5 a0 3e
       -0.06563404 0.24129331 0.23285991 0.31413162
000030 11 73 1d 3e ec 9e 86 3d 87 cc 2a 3e b7 b4 9f 3e
       0.15375926 0.06573281 0.16679583 0.31192562
000040 fa 56 ff 3d bd bc a5 3e 73 d8 36 bd 82 38 ca 3c
       0.12467761 0.32370558 -0.044640016 0.024685148
000050 8c 98 c4 bc 91 fd 66 bd c4 fa dd 3c c7 89 a1 3d
       -0.023998521 -0.056394164 0.027097113 0.07887607
000060 ea c4 fa bc 08 87 43 3d 5c 2f 4a 3c b4 95 81 bd
       -0.030611474 0.047736198 0.012340393 -0.06327382
000070 cd c6 9c bc 6c ba 1d bd c7 7e 14 bd 0f ca a5 3d
       -0.019137764 -0.038507864 -0.036253717 0.0809518
000080 1a ed 27 bd cd ec 4e 3d 10 38 3b bd 4e d5 60 3d
       -0.040997602 0.0505188 -0.045707762 0.054890923
000090 7f e8 04 be 41 6f 1c bd db 34 f6 bd fe 9e 47 bd
       -0.12979315 -0.038192037 -0.120218 -0.04873561
0000a0 d2 e5 11 3d a8 8a 89 bd c2 37 2d be 7e c3 8a bd
       0.035619564 -0.067159 -0.16915801 -0.067755684
0000b0 ad d9 3c bd 35 20 07 be e2 6d ba bc 37 a2 3e bd
       -0.04610603 -0.1319588 -0.022757474 -0.04654142
0000c0 2d ea b9 bb e8 e5 f2 3c c0 36 1d 3d 61 ef 79 bd
       -0.005673668 0.029650643 0.03838229 -0.061019305
0000d0 3d de ad bc 12 2b 13 be 84 8b 38 3d 5d ea 33 bc
       -0.021224136 -0.14371899 0.045054927 -0.0109811695
0000e0 dc ee 2b 3d b9 b4 1e bd 32 96 cf bc ef b6 94 3b
       0.04197584 -0.03874657 -0.025340173 0.004538409
0000f0 95 72 7d bc 31 e0 fd 3c af 45 d7 bd 31 bd a6 3c
       -0.015469213 0.030990692 -0.10511338 0.020353885
000100 3a e0 bb b9 38 fd ac 3c c8 02 6c 3c 6a 98 07 bd
       -0.0003583448 0.021116838 0.01440496 -0.033104338
000110 84 de b7 bb 52 c3 43 bd c5 26 30 bd 74 7d 7a 3d
       -0.0056112427 -0.047793694 -0.043005724 0.061154798
000120 90 b5 6e 3c 30 42 6f bc fa 18 19 3d 52 68 13 3d
       0.014569655 -0.014603183 0.037377335 0.03598816
000130 83 c8 84 bd 5d 26 66 bd 52 5b 6b bc c9 b5 bb bd
       -0.06483557 -0.05618893 -0.014365034 -0.09165532
000140 60 4a 08 3d a4 74 65 bd c7 12 89 3d 1c 8d e5 3a
       0.033274055 -0.05601944 0.066930346 0.0017513367
000150 88 c4 67 3d 3f 24 bc bc 5b cf b7 3c ac bd 73 3d
       0.05658391 -0.022966502 0.022437742 0.059507057
000160 1b 81 97 bc 7d ff fe 3a 6c 58 46 3d 46 fd 86 3d
       -0.01849418 0.0019454804 0.04842417 0.06591277
000170 3a 12 d8 3d ae cd 54 3d f3 04 30 be c0 e6 02 3d
       0.105503514 0.051953964 -0.17189388 0.03195834
000180 5b 2f d4 3d cd 50 a2 bd 0d f9 17 3e 81 c1 4f bd
       0.10360595 -0.07925568 0.14841099 -0.05072165
000190 8e 4c 76 3d ac 6d 52 bd 57 fa 25 bc 58 77 66 3d
       0.060131602 -0.051374123 -0.010130486 0.05626616
0001a0 9e ba 3a bd bc 16 59 bc 8a 9f 45 3d 68 09 6d 3d
       -0.04558813 -0.013250049 0.04824785 0.0578703
0001b0 22 3e f9 bc 9b 43 19 3d 6c 37 7b bd ee 40 29 3c
       -0.030425135 0.03741799 -0.06133215 0.010330422
0001c0 95 63 07 bd c0 db 21 bc 14 22 9e 3c fd ca ac bc
       -0.033053953 -0.009879053 0.01930336 -0.021092886
0001d0 b7 a2 5f 3d 80 f0 41 3d bb 59 b4 bb 83 7f 09 bd
       0.054598536 0.0473485 -0.005503861 -0.03356887
0001e0 3f 8a 98 3c c6 21 61 3d 0b 1d 32 3c 45 67 16 3d
       0.018620608 0.05496385 0.010871182 0.03671958
0001f0 f0 2f a2 bd 4c 33 7c 3d 09 f5 4b 3d 5b dd 92 3d
       -0.079192996 0.061572358 0.04979423 0.071711265
000200 00 e5 87 3c ad 36 a8 bd 59 5f 9b 3d 5e fe a4 3d
       0.016588688 -0.082135536 0.075865455 0.08056329
000210 f8 f5 90 3d 9f 5c 4c bd 89 d7 90 bc c5 5e 04 bd
       0.07078165 -0.049893018 -0.0176809 -0.03231694
000220 65 e4 8a bc 7c ed 01 bc 2e 12 c2 3c ab d4 d1 3b
       -0.01695461 -0.007930156 0.02369031 0.006403526
000230 24 1f c1 bb b8 1f 1e 3b 3b ab d9 bc a1 17 b5 3c
       -0.005893605 0.0024127793 -0.026570907 0.022105994
000240 8e 30 96 3d eb ba 18 bd 5c 0f 01 bd c3 28 39 bd
       0.0733348 -0.037287634 -0.03150879 -0.04520489
000250 87 0a 52 3d f3 86 73 3d d3 2f 91 bd d5 da 30 bc
       0.05127957 0.05945487 -0.070892 -0.010794361
000260 7a d6 86 3d 91 3a 47 3d fa 2e 76 3d 2a 6f a1 3d
       0.06583877 0.048639838 0.060103394 0.07882531
000270 04 b3 14 3e 8b 0f cf 3d 6a c1 30 bc e9 d8 69 3d
       0.14521414 0.101103865 -0.010788301 0.057091627
000280 ad 99 fc 3d 99 5c 0b 3e 71 c0 fb 3c 21 38 b3 bc
       0.12333999 0.13609542 0.030731412 -0.02187735
000290 15 8c 87 3d 63 11 68 bd 3e f6 a0 3b ca 51 c1 bc
       0.066185154 -0.056657206 0.004912167 -0.02359857
0002a0 01 56 2c bd 46 5b ed 3c 59 d4 ec 3c 91 00 a7 bc
       -0.042074207 0.028974187 0.028909849 -0.020386012
0002b0 55 30 71 3b 2d 8e 12 3d b1 8d dc bc c5 cb cf bd
       0.003680249 0.03578012 -0.026923032 -0.10146288
0002c0 64 4b 02 be 1d 29 c4 bc 43 6d 57 bc 68 05 53 bc
       -0.12724072 -0.023945386 -0.013148609 -0.012879707
0002d0 6f e2 62 bd 12 e7 a7 bc f1 c3 80 bc cb d9 9c bd
       -0.055391725 -0.020495925 -0.015718432 -0.07658728
0002e0 cf ed 1b bd fb a7 31 3d a5 43 50 bd e7 1e a1 3c
       -0.03806859 0.04337309 -0.05084576 0.019668056
0002f0 dd b6 21 be d6 ed ab 3d ff 22 37 3d bc f5 72 bd
       -0.15792413 0.08394973 0.04471111 -0.05931638
000300 12 e0 92 bd 27 f9 e8 bc 80 9e 91 3d 98 de 92 3c
       -0.07171644 -0.028439118 0.071103096 0.017928407
000310 dd ba 61 bc d6 b4 31 3d 91 40 22 3d 97 f7 96 3c
       -0.013777462 0.04338535 0.039612357 0.018428607
000320 fa 42 35 bc 9c bd 13 bd 41 7c 16 bd d2 31 09 3d
       -0.011063332 -0.036069497 -0.03673959 0.033494778
000330 5f 36 ad 3d 25 09 61 bd d2 fd 35 bd 8f 44 e0 3d
       0.08457636 -0.05494036 -0.044431515 0.109505765
000340 15 e2 1f 3b 15 a3 02 3e af 7b 68 3d 3c 30 1f 3a
       0.002439623 0.12757523 0.05675858 0.0006072556
000350 d4 49 30 3d 4c d7 a2 bd 03 fe 97 3d 84 47 88 bc
       0.043039158 -0.07951221 0.07421496 -0.016635664
000360 2c 81 46 bc d2 c7 39 bc 89 a3 97 bd 08 d0 e2 bc
       -0.012115758 -0.011339145 -0.07404239 -0.027687088
000370 9c 7a 29 bd d2 42 55 bc fc 59 ea bc 37 53 02 be
       -0.041376695 -0.0130164195 -0.028607361 -0.12727056
000380 8a ea 32 bd e1 c1 fb 3d 67 f4 89 3d 66 4a 8d 3d
       -0.043680705 0.12292839 0.06736069 0.06898956
000390 e5 51 3c 3c 22 2f 02 bd 9c 21 85 3d bc f2 e1 3d
       0.011494135 -0.03178323 0.06500551 0.11032626
0003a0 40 69 40 3c 26 1b 15 3e 65 c1 6d bc fc ff ba bc
       0.011743844 0.14561138 -0.014511441 -0.022827141
0003b0 03 42 16 bd 31 28 58 3d fb 6a 3e bd 12 21 24 bd
       -0.036684047 0.052772705 -0.046488743 -0.0400706
0003c0 dd 3b e0 bd e4 cb a6 3b 73 a6 21 3c 23 bf 3e bd
       -0.10948918 0.0050902236 0.009866345 -0.046569
0003d0 c4 b4 15 3d c1 c4 95 bb 2a 46 49 bc a7 fd 7b bd
       0.036549345 -0.004570574 -0.012284795 -0.0615212
0003e0 3c fd 5f b9 31 b8 6e 3d 1e 81 1e bd 9f 21 9a 3d
       -0.00021361274 0.058281127 -0.038697354 0.07525944
0003f0 41 b7 92 3d 41 3c 92 bd dc 4f a6 bc a8 c0 f5 3c
       0.07163859 -0.07140399 -0.020301752 0.029999092

b3 f4 [32]
000000 fb 8a fe 3d bd 3d f3 3d ef 8d 0b 3e a7 9d 18 3e
       0.12428852 0.1187701 0.13628362 0.1490389
000010 2c 0e 20 3e 72 7a 13 3e fd 55 ab 3d 8e 3b 20 3e
       0.15630406 0.14402178 0.0836601 0.15647718
000020 d0 4a 14 3e 1b b1 a2 3d ee ab 1b 3e 6f 54 0d 3e
       0.14481664 0.079439364 0.15202305 0.1380174
000030 49 44 14 3e d1 a8 10 3e 47 4a ee 3d 03 d7 d7 3d
       0.14479174 0.14126898 0.11635261 0.10539057
000040 67 12 e5 3d c0 e4 f1 3d e6 df a2 3d b1 4c 14 3e
       0.111851506 0.11811209 0.079528615 0.1448238
000050 7b d6 09 3e a2 47 ea 3d b8 3e 05 3e 02 06 af 3d
       0.13460724 0.11439444 0.13012207 0.08546068
000060 5d bf b6 3d 5d d6 05 3e a2 dd 42 3e 64 c7 de 3d
       0.089232184 0.13070054 0.19029859 0.108778745
000070 74 29 09 3e d7 c6 f0 3d 0a 05 d6 3d 12 a1 df 3d
       0.1339472 0.11756676 0.1045018 0.109193936

w4 f4 [5, 32]
000000 48 e3 af bf 23 49 c6 bf 09 1d 98 3e 61 ba bd bf
       -1.3741236 -1.549107 0.29709652 -1.4822503
000010 c0 4e 23 3f e4 42 70 3f cd 5d 11 3d 74 4e b2 bf
       0.6379204 0.93852067 0.035489846 -1.3930192
000020 e5 68 c0 3f d6 ce 76 bf 04 e8 34 3d f3 bb a9 bf
       1.5032011 -0.96409357 0.04416658 -1.3260483
000030 6b 6e e2 3f 3f f8 a3 be 9e 5a dd 3f 61 cc bc bf
       1.7689947 -0.32025334 1.7293279 -1.4749871
000040 7a f1 3d 3f 35 a6 6f 3f 72 1e c7 bf 28 6e df 3f
       0.7419659 0.93612987 -1.5556166 1.7455492
000050 79 28 2c 3f 5e fb c1 bf 95 55 b4 be 77 66 a5 bf
       0.67249256 -1.5154836 -0.35221544 -1.2921895
000060 2e e3 f1 3e b1 0d 1d be a9 de 84 bf e6 23 da 3f
       0.47243637 -0.15337254 -1.038045 1.7042205
000070 ac 62 f9 3c 5a 09 ae bf 74 99 57 3e 60 48 13 bf
       0.030442558 -1.3596604 0.21054631 -0.5753231
000080 40 02 70 bf 58 39 d2 3f f0 b2 3c 3f d6 41 89 3f
       -0.93753433 1.642375 0.73710537 1.0723217
000090 59 52 80 bf ac 09 86 bf 2f d0 6c bf b7 a9 bf 3f
       -1.002513 -1.0471702 -0.9250516 1.4973668
0000a0 b4 0c 9d bf dd d4 32 bf bd 77 cb bf 12 96 a7 bf
       -1.2269502 -0.69856054 -1.5895916 -1.3092673
0000b0 a2 45 16 bf 39 bd 0c bf 7f 0a 64 3e 00 2c b9 bf
       -0.587 -0.5497623 0.22269629 -1.4466553
0000c0 6a 3c db 3f a7 b6 9d bf 77 93 02 3f 13 0a 86 bf
       1.7127812 -1.2321366 0.51006263 -1.0471824
0000d0 63 2c b4 3f 28 8a 9d bf 7a 7b ea 3f 2d 5a 6f 3f
       1.4076046 -1.2307787 1.8318932 0.9349697
0000e0 28 c6 93 bf cc 32 16 bf 59 4d d7 3f 07 b0 89 bf
       -1.1544847 -0.5867126 1.682048 -1.0756844
0000f0 8e 71 da 3f 9a 0c ca 3d 79 2a 13 bf 3a 50 47 bf
       1.7065904 0.09865685 -0.57486683 -0.7785679
000100 8b 04 ba 3f f9 6e f2 3e 5e 3a d4 bf 74 00 9b bf
       1.4532636 0.4735029 -1.6580312 -1.2109513
000110 77 c8 bd bf 79 7a bd 3f 3e 56 c4 3f 3c 2b 94 3f
       -1.4826802 1.4803001 1.5338819 1.1575694
000120 8d fc ab bf 14 c9 df 3f ee ff 48 3f 78 6e 9e 3e
       -1.3436447 1.7483239 0.7851552 0.30943656
000130 ea 32 73 bf 83 0f be bf 27 cc a5 bf e0 8e 3d bf
       -0.94999564 -1.4848484 -1.2952927 -0.74046135
000140 68 49 a3 bf 27 59 80 bf 48 5a c9 3f 50 30 02 3f
       -1.2756777 -1.0027207 1.5730677 0.5085497
000150 83 b5 aa 3f 84 1e bf 3e 16 72 2c be bb d2 d7 be
       1.3336643 0.3732797 -0.16840395 -0.42152962
000160 8f 69 a5 3f 5a 4a 6c bf d9 fb b5 bf 49 3b 6d bf
       1.2922839 -0.9230095 -1.4217483 -0.92668587
000170 5f 2e b8 bf 04 c8 50 bf a1 36 e5 3f e7 a6 80 bf
       -1.4389151 -0.815552 1.7907296 -1.0050935
000180 fc 2c 97 bf 54 eb 67 3f 84 5e 96 3f 7c 64 ff be
       -1.1810603 0.9059346 1.1747594 -0.4988135
000190 0a ba a1 bf 65 9d 03 bf 9a 37 a1 3e 2a f2 ac bf
       -1.26349 -0.5141204 0.31487733 -1.3511403
0001a0 56 40 86 3f 95 ac 32 bf 4e 08 f3 be d7 91 cb 3f
       1.0488384 -0.6979459 -0.47467273 1.5903882
0001b0 52 f0 9e bf 39 f9 a2 bf e2 02 99 bf b1 e9 9e 3f
       -1.241709 -1.2732307 -1.1954005 1.2415067
0001c0 4b 7e 12 bf 1d be b9 3f e0 da 36 3f 98 0b b0 bf
       -0.5722396 1.4511143 0.71427727 -1.3753538
0001d0 22 15 b4 bf 55 dc 3a bf 89 ce b3 bf c1 e6 bd 3f
       -1.4068949 -0.7299245 -1.4047405 1.4836046
0001e0 83 4f 7f 3f 7f 12 de 3f a5 69 a6 bf 14 51 10 3e
       0.997307 1.7349395 -1.300099 0.14093429
0001f0 27 d2 87 be e3 07 d3 3f 92 c7 89 bf 3d 7d 0d bf
       -0.2652752 1.6486782 -1.0764029 -0.55269223
000200 a8 cd 95 3f 4b 1b 47 bf 68 4d 26 be ee 9b cb 3f
       1.1703386 -0.7777602 -0.16240466 1.5906961
000210 be 8c c9 3f a6 62 94 bf d6 e1 aa bf 5e 02 0f 3f
       1.5746076 -1.1592605 -1.335017 0.5586299
000220 dd f2 00 3f 8f 48 8f be bf 3a e4 3f d0 10 aa be
       0.5037058 -0.27985045 1.7830428 -0.33215952
000230 c2 ff 87 3d ed 57 df 3f c2 7b 8d bf cb 7d 8e 3e
       0.06640579 1.7448708 -1.1053393 0.27830347
000240 38 b1 af bf e8 21 69 bf 5a ed 72 bf 59 6a 37 bf
       -1.3725958 -0.9106736 -0.9489342 -0.7164665
000250 bd a4 a4 bf 66 cf c5 3f 1f 48 8d bf 58 f2 90 bf
       -1.2862774 1.5453918 -1.1037635 -1.1323957
000260 62 fd b5 bf 76 e0 74 be b5 e4 2f 3f 58 43 85 bf
       -1.4217951 -0.2391375 0.68708354 -1.0411177
000270 90 ec a1 bf 4f 70 6a be 94 d7 f2 bd 22 da de 3f
       -1.2650318 -0.22894405 -0.118575245 1.7410319

b4 f4 [5]
000000 ad 0f e8 3d 1d 76 73 39 77 9e e4 bd 25 c4 67 3d
       0.11331115 0.00023218287 -0.11163037 0.056583542
000010 53 8e e3 bd
       -0.111111306

exp_avg f4 [32, 1, 3, 3]
000000 ef 13 4d 3b 25 fe 69 3b 10 15 f3 3a b7 30 e5 3a
       0.00312924 0.003570446 0.0018545706 0.0017485832
000010 52 c9 5c 3a 1d 1b 3e 39 7a f8 4e 3a 52 ec 93 ba
       0.0008422333 0.00018129912 0.0007895302 -0.0011285639
000020 fe 7d ae b9 b5 0b 90 ba 8f 0c 02 bb be 2a 23 bb
       -0.00033281738 -0.0010989817 -0.0019843911 -0.0024897303
000030 62 98 fb 3a ca 00 38 3a a6 4f 72 bb 91 dd c4 b9
       0.0019195194 0.00070191605 -0.0036973744 -0.00037549113
000040 32 c9 90 ba 5d 5b 6a bb fe 56 30 ba 1e bf 0d ba
       -0.0011046289 -0.0035760023 -0.000672683 -0.0005407202
000050 0e 4e dc 3a c3 f8 0d bb ae 62 ab ba 60 95 4e 3a
       0.001680793 -0.0021663166 -0.0013075673 0.0007880535
000060 f6 bb c4 b9 35 bd ec b9 7c 53 9a 39 d6 67 cd ba
       -0.00037524075 -0.00045154398 0.0002943537 -0.0015671204
000070 e8 94 5f ba ae b2 6d 3a a0 22 7c ba c4 cb b0 ba
       -0.00085289637 0.0009067458 -0.00096181966 -0.0013488461
000080 12 0f 16 3a 61 a6 01 b9 a4 04 74 ba 63 6a 16 3a
       0.00057242915 -0.0001236438 -0.0009308553 0.0005737899
000090 34 50 4a 3b 84 b2 8a 3a c8 29 e9 ba f6 55 7a 3a
       0.0030870559 0.0010581766 -0.0017788941 0.00095495523
0000a0 e7 46 60 3a 94 30 dc b8 f6 d1 d7 3a a8 1b 85 38
       0.0008555487 -0.00010499466 0.0016465771 6.3470856e-05
0000b0 95 4f 87 b9 a3 1a 1d 3a 3a 6e b0 3a ac 28 13 3a
       -0.000258085 0.0005993044 0.0013460584 0.00056136656
0000c0 d3 53 8d ba 20 b1 b0 b8 e8 1a 84 ba 87 14 5b 3a
       -0.0010782428 -8.425326e-05 -0.001007882 0.0008357246
0000d0 7c 0e 16 3b 9a a8 91 38 4f 0c 19 3b a1 99 2a 3a
       0.0022896817 6.945543e-05 0.0023353284 0.0006507878
0000e0 7e a3 b8 3a a2 8b 81 3b bf ad 6c 3b 1e eb 97 3a
       0.001408681 0.003953413 0.0036114303 0.0011590456
0000f0 78 41 96 3b 62 cb 5f 3b cb 22 fe 39 ec 80 be b9
       0.004585441 0.0034148325 0.00048472578 -0.00036335678
000100 b8 ce c3 ba ab 29 1d bb a9 71 87 ba e3 a3 cc ba
       -0.0014938926 -0.0023981135 -0.0010333556 -0.0015612807
000110 f2 53 59 bb 1b 1f 64 ba f6 80 32 37 c5 80 ac ba
       -0.0033161608 -0.0008702145 1.0639653e-05 -0.0013160935
000120 0a c7 fa b9 7d ab 7f bb b3 15 a7 b9 cc 47 b3 ba
       -0.00047832011 -0.0039012127 -0.0003186889 -0.0013678013
000130 d1 19 4e bb 5a dd 8a 3a 35 78 10 bb 83 62 a9 3a
       -0.0031448493 0.0010594532 -0.0022044305 0.0012923036
000140 b8 73 57 b9 45 88 a2 3a d0 9a d8 3a 68 d0 a4 3a
       -0.00020547106 0.0012400231 0.001652563 0.0012574317
000150 b8 47 de 3a 82 48 9e 3a e6 cd a1 3a 92 11 ac ba
       0.001695863 0.0012076052 0.0012344688 -0.0013127795
000160 06 3b 88 ba af 9c eb b8 f2 c9 72 3a 4f 05 a5 ba
       -0.0010393567 -0.00011234858 0.00092616596 -0.0012590083
000170 7c 5e 37 3a 36 2d 65 3a 78 4d 2a 39 78 53 ac 3a
       0.0006994975 0.00087423937 0.00016241323 0.0013147434
000180 8f 56 14 3b 5a 26 32 38 67 72 fc 3a 65 8e e9 b9
       0.00226346 4.2474225e-05 0.0019260169 -0.00044547315
000190 14 78 0b 39 5f 6a 80 ba a7 1a d7 ba 69 ed d8 ba
       0.00013300806 -0.0009797326 -0.0016411141 -0.0016550246
0001a0 b1 84 3d ba 7a 06 26 bb b1 fc f5 ba 4e 87 4a bb
       -0.00072295504 -0.002533345 -0.0018767325 -0.0030903402
0001b0 ce 8e f4 3a 2e 80 1e ba 53 b1 5d 39 ed 51 fe 3a
       0.0018658282 -0.0006046322 0.00021142261 0.0019403078
0001c0 f0 15 4c 38 32 ff 52 3a 2e af 1b 3a d7 78 98 3a
       4.865782e-05 0.00080488913 0.00059388846 0.0011632693
0001d0 ab 5a 92 3a af 37 86 3b 35 b0 96 3b e7 66 1d 3c
       0.0011165937 0.0040959935 0.0045986422 0.009607053
0001e0 8e 2c 45 3b be 2a 74 3b f9 c4 ba 3b 67 2e 14 3b
       0.003008637 0.0037256922 0.0056997505 0.0022610666
0001f0 37 c9 27 3b 2c 7d 42 3b 9d aa bb b9 cd e8 90 3a
       0.002560211 0.002967666 -0.00035794536 0.0011055708
000200 2e 92 d5 3a 49 7c e4 ba 4e 16 12 3a c8 44 61 3b
       0.0016294175 -0.0017432059 0.00055727817 0.0034373272
000210 4d f6 27 ba bc 82 8b b9 ff 0e 96 3a 8c ae 9b 39
       -0.0006407246 -0.0002660955 0.0011448561 0.0002969395
000220 bc 54 ed 3a 5c a6 0f 3a c2 47 b2 3a c6 97 8b 3b
       0.0018106918 0.00054798066 0.0013601708 0.004260036
000230 6b 79 ed 3a 4e 19 67 ba ed 05 ce b8 cc 66 44 ba
       0.001811785 -0.00088157214 -9.823949e-05 -0.00074921246
000240 48 f8 82 38 0f e3 69 ba d3 56 7b b9 14 52 d0 ba
       6.245129e-05 -0.0008922079 -0.0002396957 -0.0015893602
000250 9a ca aa b9 49 dc eb b9 5b b3 c9 ba db 09 84 ba
       -0.00032575877 -0.00044986818 -0.0015388535 -0.0010073738
000260 36 66 38 bb ec e8 13 bb 5f e9 ee ba 0e d4 3e ba
       -0.0028137094 -0.0022569252 -0.0018227509 -0.00072795234
000270 46 9b 41 b9 d7 ed 5e ba c6 a2 83 ba 84 a8 8c bb
       -0.00018463758 -0.0008504069 -0.0010043017 -0.0042925496
000280 0a f6 a8 bb 89 2e 71 bb 59 60 81 38 d0 2b b6 3a
       -0.0051562833 -0.0036801419 6.1691455e-05 0.0013898555
000290 a0 4c f4 3a 5f e3 d1 37 af 6a 85 3a d0 f5 53 3b
       0.0018638559 2.502062e-05 0.0010178889 0.003234256
0002a0 cf 0f 20 3a ac 8f dc 3a 3b 2b 58 3b 55 cc f0 3a
       0.0006105871 0.0016827486 0.0032984752 0.0018371443
0002b0 59 92 a6 3a 53 38 14 3a 67 d0 20 3a eb 31 e7 3a
       0.001270841 0.0005654145 0.000613457 0.0017638778
0002c0 b4 75 e5 3a 0b b4 3d ba 91 46 a3 3a 40 85 66 3b
       0.0017506392 -0.00072366063 0.0012456944 0.0035174638
0002d0 5a 5c 28 bb a8 aa 3d bb 40 98 84 bb 2f 9f 26 bb
       -0.0025689811 -0.002894083 -0.00404647 -0.002542447
0002e0 e7 e0 4e ba 34 bd 34 ba ff 2d 06 bb da 7e 06 39
       -0.00078917894 -0.00068946485 -0.0020474193 0.00012826492
0002f0 b5 37 95 ba 23 d8 c3 38 89 7d e7 b9 4d 95 3b 3a
       -0.00113844 9.338583e-05 -0.00044153284 0.00071557314
000300 71 56 9a 3a 9d 5f 50 ba 17 3a 3c 39 1d 47 09 ba
       0.0011775029 -0.0007948818 0.00017950717 -0.0005236732
000310 5d c2 84 ba 0e aa 13 bb 8a 0f 7a 3b b9 b5 78 3b
       -0.0010128726 -0.002253178 0.0038156235 0.0037950112
000320 e8 4b 68 3b 84 6e ce 3a 4c da 2e 3a ad ff 38 3a
       0.0035445634 0.0015749489 0.0006670102 0.00070571416
000330 8b a1 81 3a 77 e5 bc 39 91 ed 44 3a 8f b2 97 3a
       0.0009890063 0.0003602912 0.0007512207 0.00115736
000340 58 52 21 ba 54 34 ed 3a e0 6a 88 38 14 94 73 ba
       -0.0006153933 0.001809726 6.5048924e-05 -0.000929178
000350 95 50 2d 3b 2e 77 ee 3a de f6 6a 3a 94 17 c9 3a
       0.0026445736 0.0018193477 0.00089631777 0.001534211
000360 64 13 86 ba 4d 60 af 3a 16 40 8d 3a fe 85 77 3b
       -0.0010229168 0.001338014 0.0010776545 0.0037769075
000370 f0 b4 77 3b 07 38 65 3b 19 da d8 3a 51 b9 77 3a
       0.0037797056 0.0034976022 0.001654449 0.00094499165
000380 96 87 6f 39 4f f1 26 3b 4a 27 69 3b fe 4a 7e 3b
       0.00022843326 0.002547342 0.0035576397 0.0038802023
000390 2b 5b 89 3a a2 e8 54 3a cd 42 cc 3a a4 ab 2c 3a
       0.0010479441 0.0008121823 0.0015583873 0.0006586856
0003a0 b4 af c3 3a 09 69 7d 3a 06 12 37 3b 55 b2 1d 3b
       0.0014929683 0.00096668355 0.0027934327 0.0024062593
0003b0 ac 5c c1 3a 5c 7a 43 3b 4a 7c f3 3a e7 3e 95 3a
       0.001475235 0.002982757 0.001857647 0.0011386544
0003c0 61 2b 22 3b b3 46 0e 3b 7a 2a 84 3a 61 a7 90 3a
       0.0024745094 0.002170962 0.001008346 0.0011036211
0003d0 2b bd 82 3b cc a6 83 3b 6f a1 e9 3a 4b 45 1d 3b
       0.0039898357 0.0040176865 0.00178246 0.00239976
0003e0 09 eb a8 3a ae 52 57 3b 4d 77 48 3b 95 24 03 3a
       0.0012887429 0.0032855677 0.0030588687 0.00050027046
0003f0 04 1d 04 ba f6 96 a5 38 c7 87 cb ba 50 c8 90 3a
       -0.0005039724 7.895932e-05 -0.0015528136 0.0011046026
