CS330/XCS330-PS3/src/submission/logs/maml/omniglot.way_5.support_1.query_15.inner_steps_1.inner_lr_0.4.learn_inner_lrs_False.outer_lr_0.001.batch_size_16/state4600.pt (torch, 353132 bytes, 30 tensors)

conv0 f4 [32, 1, 3, 3]
00000000: 875f 4cbd e513 59be a5bf 063f 42c7 9fbe
00000010: 070e 94be eabb 63bc 5a3e 44bd d5a6 0ebd
00000020: 9e98 acbd cc3e 613e 4d0c 863e cbf8 26bf
00000030: 19c1 2d3c c248 d73b 1a1b 0d3e f831 3dbd
00000040: 0e8d 363d 1b65 0b3e a47a 1dbe e77a 76be
00000050: a003 a53c b2aa 913e d77c 073d d6db 943e
00000060: 6ae0 3bbe 2909 8abe c03d babe feb9 9d3d
00000070: 62c7 a6be e681 e3be f15a b53d 630f 16bd
00000080: 846c a2be 6bdf 9a3e 8cbd 143e 664c 883e
00000090: fa20 b43e c45a a1be b653 383f d5a5 0dbd
000000a0: ecd4 e73c d19c b4bb ed8e a53c 7561 d3bc
000000b0: 8a2a 863d bf8a dcbe 9caf a7be 69e6 47be
000000c0: 1d02 983e 7c07 cdbd 2e70 9bbe 6473 dcbd
000000d0: a7f1 a73e 8365 c9bd edf9 f7be e13a f1be
000000e0: acce 9dbd ea89 8f3d 83f4 2b3d f787 f0be
000000f0: cf4f 343e a09a e63d 3268 febe 4495 6c3d
00000100: ac8f 6e3e d379 fb3d 1003 9f3c 8748 3f3e
00000110: 5f6e b9bc b7e7 1cbf d792 22bf de55 c5bd
00000120: f020 9bbc e236 87bd cf8e 813d bce5 243a
00000130: 7801 5fbd d7c7 ce3a ce93 c93e afe4 3bbf
00000140: 79ca 943e 4935 0abf c140 25be ca82 c53e
00000150: 4efc 88be 5dfc f33d 5a23 1a3e 96df 7cbc
00000160: 9d01 4abc 4b06 c1bc b44f b8be 25c8 65bd
00000170: 8a9b 443c 140d 13be 05e8 823c 8baf c1bd
00000180: f774 d53e 1ecc 2f3e 9a5c 1cbf 29c1 e9be
00000190: f9d0 dabd 8cc6 28be a625 363e c1b2 97be
000001a0: 75e1 0c3e 14e0 bc3e c074 b2be 1316 523e
000001b0: 2839 50bd 41f9 9bbe c587 aebe 5dfc 4fbe
000001c0: e0a7 ffbd c232 c7bd 2308 ea3e 4f11 afbc
000001d0: e1f2 8cbd e6bf 10bf 434a 633e 06c5 683e
000001e0: 8c69 22bf 3140 b33d 50dd 823e 78b6 47be
000001f0: a86b d9be b928 65be 7fab ffbe c583 04bf
00000200: 0dff 42be a078 803e 6270 853e bd81 993d
00000210: 9ad4 32be fd73 a6bd 8c3f 3c3e 4cc5 053e
00000220: 2094 d23d de93 f63e f4ac 4d3d 8189 18be
00000230: 79f4 ccbe 8613 3b3e 6197 0bbe 1932 a4be
00000240: 9dd8 adbc e645 10be 8448 9e3e 6153 1b3e
00000250: 90ad ccbe 7e45 5c3e bca0 8e3d fb90 fbbe
00000260: 6f35 a23d 60f5 ef3e f25b 72be b4bf a7be
00000270: 9053 f83d e407 efbe 20a7 ea3c dcd0 16be
00000280: 0a87 89bd fdc4 863e e2a6 0fbf 6655 24bf
00000290: 28cf 1dbf 83fc a3bd 0019 d13d 8523 053b
000002a0: 5062 053e bb61 953e fd36 ee3d 8587 59be
000002b0: 4f1e 313e 1559 c4bd a965 653c aaf5 c8be
000002c0: b46d a6be 3345 6cbe e852 32be a206 983e
000002d0: b613 94bd 4f21 bd3d 1d6f 6d3e 5428 e33d
000002e0: 6328 77be cee2 2ebf b09a 2bbd 48da bf3d
000002f0: 0b38 b33e fb55 563e f81b 6cbe 3382 a2be
00000300: db17 453d 050e de3e cf12 72be 8df8 02bf
00000310: 8002 4d3d 8d93 303e 9aaf 183e 2aa9 0b3e
00000320: 93ae efbe c805 173e 31b4 6b3e a024 22bf
00000330: 39dc 2bbc 5c0e 2dbd 8b1f 08bf 1fe4 2abf
00000340: a0ad 7bbd 83f1 77bc 494f e1bd 5694 8b3e
00000350: e95d 7ebc 87be 653d cf07 ce3e e3f6 1ebe
00000360: ab90 913a 1107 5fbd 087c b4be 57f6 60bd
00000370: c4ad ac3a f6b0 b13e 742d 0abf f1d3 98be
00000380: 71fe c63e d62b 333e 6398 753e 1756 73bc
00000390: b78c 213e 8536 863e 1d3d 24be 0026 2cbf
000003a0: eae7 4cbf b7a0 1cbf fa4c 3e3e 742c b6bd
000003b0: f471 f8be 9dff 653e 83a0 0cbd ee38 f9be
000003c0: bc95 763e 9be5 72be 0d8c cdbe c771 77bc
000003d0: 49a5 293e 96a7 d43d a914 13bf e8c2 823e
000003e0: f4b2 2c3e 0348 15bf 0502 fbbb 6d40 503d
000003f0: d510 f4be c598 1d3d eb94 c13e 5455 c5bc
-0.04989579 -0.21198995 0.52636176 -0.3120671 -0.28916952 -0.013899783 -0.047911026 -0.034827072
-0.08427547 0.21996611 0.2618126 -0.6522338 0.01060512 0.0065699527 0.1377987 -0.046190232
0.044568114 0.13612787 -0.15378815 -0.24070321 0.02014333 0.28450543 0.03307804 0.29073972
-0.18347326 -0.26960114 -0.36375237 0.07701491 -0.32573992 -0.44435042 0.08855236 -0.036635768
-0.31723416 0.3024858 0.14525431 0.26620787 0.3518141 -0.3151456 0.7200273 -0.034581978
0.028299771 -0.005511858 0.020209754 -0.025803307 0.065510824 -0.43074605 -0.32751167 -0.19521488
0.29689112 -0.10011193 -0.30359024 -0.107641965 0.32801554 -0.09833815 -0.48432866 -0.47115234
-0.07705435 0.07008727 0.04198123 -0.46978733 0.1760857 0.11259961 -0.4968887 0.05775954
0.23296994 0.122790955 0.01941064 0.1868001 -0.022635637 -0.6129107 -0.6350531 -0.096355185
-0.018936604 -0.06602265 0.06326067 0.00062903366 -0.05444476 0.001577611 0.3937058 -0.7339582
0.29060724 -0.53987557 -0.16137983 0.38576347 -0.26754993 0.11913369 0.15052548 -0.015434166
-0.012329486 -0.023562571 -0.3599831 -0.056099076 0.011999974 -0.14360458 0.015979776 -0.0945731
0.416908 0.17167708 -0.610788 -0.45655182 -0.106843896 -0.1648199 0.17787799 -0.29628566
0.1375788 0.36889708 -0.34854698 0.20516233 -0.05083576 -0.30463603 -0.3408796 -0.20311113
-0.124831915 -0.09726478 0.45709333 -0.021370558 -0.06882263 -0.56542814 0.22196297 0.22731408
-0.634423 0.08752478 0.25559473 -0.195032 -0.42464948 -0.22378816 -0.4993553 -0.51763564
-0.19042607 0.2509203 0.26062304 0.07495449 -0.17463914 -0.08127592 0.18383616 0.13063544
0.10282159 0.4815969 0.05021377 -0.14896204 -0.40030268 0.18269166 -0.13631965 -0.3206947
-0.021221453 -0.14089164 0.309147 0.15168525 -0.39976168 0.21510884 0.069642514 -0.4913405
0.07920348 0.46866894 -0.23667887 -0.32763445 0.12125313 -0.46685708 0.028644145 -0.14728111
-0.0671521 0.26322165 -0.5611402 -0.6419281 -0.6164422 -0.08007147 0.102098465 0.002031536
0.13025784 0.29176125 0.11631582 -0.21243103 0.17296718 -0.095873035 0.014001288 -0.39249927
-0.32505572 -0.23073272 -0.17414439 0.2969256 -0.07230322 0.09234869 0.23186918 0.11091676
-0.241365 -0.68314826 -0.04189557 0.09367806 0.35003695 0.20931236 -0.23057544 -0.3173996
0.048118453 0.4337007 -0.23639987 -0.5116051 0.050051212 0.17243786 0.14910737 0.1363875
-0.46812877 0.14748299 0.23017956 -0.63337135 -0.010489517 -0.042250022 -0.5317313 -0.66754335
-0.06144488 -0.0151332645 -0.110014506 0.2726161 -0.01552532 0.056089904 0.40240332 -0.15523867
0.0011105736 -0.0544501 -0.35250878 -0.054922428 0.0013174345 0.34705323 -0.53975606 -0.29849198
0.38865998 0.17497191 0.23983912 -0.014852068 0.15776335 0.2621347 -0.16038938 -0.67245483
-0.8004137 -0.6118273 0.18584052 -0.088951975 -0.4852444 0.2246079 -0.034332763 -0.48676246
0.24080557 -0.237204 -0.40145913 -0.01510281 0.16566958 0.10383527 -0.574534 0.25539327
0.1686514 -0.58313006 -0.007660153 0.05084269 -0.47669092 0.03847577 0.37808928 -0.02408854

b0 f4 [32]
00000000: 9d7f 373c 70c6 bd3c db40 85bd d14a e23c
00000010: ac01 3bbd 22ad 3bbd 956d 4d3c c1ae 343d
00000020: 70f5 9fbb c70c 823d 5077 5ebc 5b7a 31bd
00000030: 9333 40bc e92e 66bd 744f d83a 953c 113c
00000040: 39ad e6bc 3bd5 52bc 2e19 97bd fe55 3fbc
00000050: eca0 c13b 6f15 0cbd 7dca d8bc 67e4 b83c
00000060: 9f3c 69bc db79 97bd f206 6f3b d044 94bc
00000070: 9323 71bc b35f 21bc 41e6 23bd 952c d5bd
0.011199859 0.023165911 -0.06506511 0.027623566 -0.04565589 -0.04581941 0.012538333 0.04411197
-0.0048815534 0.06350093 -0.013578251 -0.043329578 -0.011731046 -0.05619708 0.0016503171 0.008864542
-0.02815877 -0.012868221 -0.073778495 -0.011678217 0.005909076 -0.03420013 -0.026463741 0.022569848
-0.014235645 -0.07396289 0.0036472646 -0.018099219 -0.014717954 -0.009849477 -0.04001451 -0.10408894

conv1 f4 [32, 32, 3, 3]
00000000: 76cf 79bd e6f7 1ebe 5de6 83bd f592 35bc
00000010: a140 acbc 7d48 bcbd 2a2f dabd 0af9 363d
00000020: 51a7 35bc ec33 db3d 756a 293c 00db 0abd
00000030: b545 0cbc 0a1c f73d dd5e 1bbd e448 89bc
00000040: 04b7 edbd 0d91 113d 371b 02be 3e53 67be
00000050: c07f 233e 8bf3 03be 24f4 9dbb 66e1 9c3d
00000060: 03f5 153d 465c c53d 086e d03d cf9e c33d
00000070: f9cf 41bd fe9c 7cbd 8563 4d3e 14e3 ea3c
00000080: 32e9 c63d 4ee3 c63d 64d0 4bbd 606b db3d
00000090: 89bf f53c b0cf 91bd 1aef 353e 82ab 72bd
000000a0: 9165 88bd e51c 9dbd 205c 993d f376 b93d
000000b0: f563 e5bd 867d 91bd 8219 9bbd d1bc a5be
000000c0: 38df 813d bf0b 74bd eec9 8f3c a423 98bc
000000d0: e3c2 ac3d d314 8abd 2181 53be a070 c1be
000000e0: 967d 00bf 69e0 b93c 088c 4a3d baae 6bbe
000000f0: 8c21 2fbe 62f8 863d 9a50 19be 06b3 25be
00000100: 462b a7bd e7b5 e63c 04c3 893d 4308 f03b
00000110: 1f5d eb3d f4af 2cbe d93f 1dbe bd74 3d3c
00000120: 3ca2 943d 13d3 2abe 43e4 ccbd 7ed7 263e
00000130: 357a 3fbd 680a e4bd edab c93e caab 9b3e
00000140: ec0f 7c3e aa9f 77bd dce2 bb3d afaa c93d
00000150: ea22 36bd 8eb8 c33c b77c e8bb 1d66 003d
00000160: 5d57 533d f360 40be 9feb c73c 8938 8fbd
00000170: e9d7 e2bd 52bd 203e 5104 6d3d a5ef 88bd
00000180: fc8f 02bc ef16 423c d5d9 00be df84 27be
00000190: 78d0 31be 7240 68be 069d 7f3d b3cc 8bbd
000001a0: 434e f7bd 974d 393e b16d 1e3d 14fb c4bd
000001b0: 77f9 d43d 3bb2 ae3c 3fb4 a8bd cb4c 163e
000001c0: b874 f43c 0990 ee3d c80c 1f3e 2d5e 493d
000001d0: 3ba4 b53c 876c abbe 51a3 e1bd fa10 16be
000001e0: 0998 85be 612f 5a3d dadd 17be eae7 a3be
000001f0: df77 5fbe 0852 02be 7ea2 b7be cbdb a2bd
00000200: 9b3f 26be 6c9a 9b3d b8d4 ee3c ee6b fd3c
00000210: 0e4d 523e c543 05bd 07ad 87bb f2c7 813d
00000220: 7ee0 6e3c b2ec 393e b581 6d3c 22d8 0cbd
00000230: 8885 2e3e ee1f 7fbd dd55 d3bd 7a6c 69bd
00000240: bc88 ae3c 993e 14be 408e babc 585f 063b
00000250: f512 a9bd 774a 6bbd dc4a 803e 2f77 2c3e
00000260: 33fb a4bd 9959 1c3d d96c 22bc 0c30 90bc
00000270: 9c30 a73d 5162 ebbd b007 4fbd 3c71 d33d
00000280: e5e3 4bbe 5af8 84bd aae1 29be fc3c 2abe
00000290: 587e 2bbd cf2d e63c 7456 1a3e a42e 8f3d
000002a0: 733f 6abd 17b8 4abe 825e 703d 415c a0be
000002b0: 38b7 79bb 9948 c1be c03f 943c 75e0 24ba
000002c0: 1ba5 10be 0c13 72be 6575 7dbe 7762 62be
000002d0: 4629 2c3c 85c3 af3d 1b63 d03e 40ff 80bc
000002e0: c836 ebbd 5f5b fe3d 7f5c a83c 86af cd3d
000002f0: d51c 683e 5d8a 1b3d 6330 8e3d d2d0 4dbd
00000300: 7ea8 46bd 58eb 47bc c7d4 c4ba dfa9 263e
00000310: c067 9b3d e24d 7a3e 8689 24be 01fb 56be
00000320: e419 a2be 1135 b23b 26a7 8dbd 67af a2be
00000330: 9ecd 483d 4962 113d 8c86 bdbe 473c 1a3d
00000340: 795e 20bd cef0 443d 8140 7e3d b254 c53d
00000350: 86ac 703d 26d8 303e 658e 9e3b 590d e0bd
00000360: e023 0a3e 8e98 ea3d df55 9bbe 0f05 1fbd
00000370: 9b0c 603e 7644 ccbd 0677 493d 898c 093e
00000380: 9827 90bd efd8 aebe 52af 35be 85b2 d3bd
00000390: 4622 6bbd c032 58be aab5 99bd 3a82 a7be
000003a0: abc1 c4be 3961 d7be 4dd5 3b3d eb4f 92be
000003b0: 64e9 ddbe c3dd e43d d297 3ebc 3394 52be
000003c0: 10a2 5b3e 9f43 1d3e e7db 65be cba5 49bc
000003d0: f6a0 6fbd aa91 7cbe 648e 61bc f4ae 0abc
000003e0: c08e 05bd 8770 133d c53f e63d 6d12 693d
000003f0: 9820 3b3d ae4b b53d 7641 903e b369 b93d
-0.060988866 -0.15524253 -0.06440423 -0.011082401 -0.021026911 -0.091935135 -0.10653527 0.044671096
-0.011087255 0.10703263 0.010340323 -0.03390026 -0.008561541 0.12065895 -0.037932266 -0.01675839
-0.11607173 0.03553872 -0.12705694 -0.22590348 0.15966702 -0.12885873 -0.0048203636 0.07660179
0.036610615 0.096367404 0.10177237 0.09551775 -0.04731748 -0.061673157 0.20057495 0.028672732
0.09712447 0.09711324 -0.049759284 0.107138395 0.029998558 -0.07119691 0.17766991 -0.059245594
-0.06659997 -0.07671527 0.074882746 0.09055891 -0.11200706 -0.0710402 -0.075732246 -0.32370618
0.06341404 -0.059581514 0.017552342 -0.018571682 0.08435609 -0.06742253 -0.20654728 -0.3778124
-0.5019163 0.022690015 0.04944995 -0.23015872 -0.17102641 0.06590344 -0.14972153 -0.16181573
-0.08162551 0.02816291 0.067266494 0.0073252036 0.11492371 -0.16863996 -0.15356387 0.011563477
0.07257506 -0.16682081 -0.10004475 0.16293141 -0.046747405 -0.11134797 0.3938898 0.30404502
0.24615449 -0.060455002 0.09174129 0.098470084 -0.04446689 0.023891713 -0.0070949453 0.031347383
0.051596988 -0.18786983 0.024404345 -0.06993205 -0.11076338 0.1569722 0.057865445 -0.066863336
-0.007968899 0.011846288 -0.12583096 -0.1635928 -0.17364681 -0.22680834 0.06240561 -0.06826153
-0.12075474 0.18096004 0.03867883 -0.09618202 0.10399144 0.021325221 -0.08237504 0.14677732
0.029840812 0.11648566 0.1553222 0.04916208 0.022173038 -0.33481237 -0.11017478 -0.14654914
-0.26092556 0.05326784 -0.14830723 -0.32012874 -0.21823071 -0.12726605 -0.3586616 -0.079520784
-0.16235201 0.07597813 0.029154167 0.030935254 0.20537207 -0.032535333 -0.0041404995 0.06336965
0.01457989 0.18156698 0.014496257 -0.034385808 0.17043126 -0.06228631 -0.103191115 -0.056988217
0.021305434 -0.14477004 -0.022772908 0.0020503607 -0.08255569 -0.057444062 0.25057113 0.1684234
-0.08055725 0.038171384 -0.009913647 -0.017601036 0.081635684 -0.11493362 -0.05054444 0.10324332
-0.19911154 -0.06492682 -0.1658999 -0.16624826 -0.041868538 0.028098015 0.15072042 0.06991318
-0.057189416 -0.19796787 0.05868388 -0.31320384 -0.0038103592 -0.377507 0.018096805 -0.000628955
-0.14125483 -0.23640078 -0.24751814 -0.22107874 0.010507887 0.08582214 0.4070061 -0.015746713
-0.11485058 0.124197714 0.020551918 0.10043244 0.22667249 0.03797375 0.06942823 -0.050247975
-0.04850053 -0.012202106 -0.0015017026 0.16275738 0.07588148 0.24443772 -0.16068086 -0.20994188
-0.31660378 0.005438455 -0.06916647 -0.31774446 0.049024217 0.035494123 -0.37016714 0.03765514
-0.039152596 0.04808121 0.062073234 0.09635295 0.05875828 0.17269954 0.004838752 -0.10940046
0.13490248 0.11454879 -0.30338952 -0.038823184 0.21879809 -0.099739954 0.049185775 0.13432516
-0.07038802 -0.34149882 -0.1774266 -0.10336784 -0.057405733 -0.2111311 -0.07505353 -0.32716542
-0.38429007 -0.42066363 0.045857716 -0.28576598 -0.43342125 0.1117511 -0.0116328765 -0.20564346
0.2144854 0.15357827 -0.22447167 -0.0123075945 -0.058503114 -0.24664941 -0.013766859 -0.008464564
-0.03260684 0.035995986 0.11242632 0.056902338 0.04568538 0.088523254 0.28174943 0.09053364

b1 f4 [32]
00000000: a63e 3e3e eb4e 893c e621 3dbc cde7 6ebd
00000010: 1032 9e3c 87ed 75ba 7a4f a13d 6380 c5bc
00000020: d2bd 54bc ee6f 29bd 2621 3e3b 02e4 943d
00000030: bf00 973c a8bd 823a d50f 613b ec73 41bb
00000040: 14af 783b 35f0 ccbc be63 ce3c 55a4 2cbc
00000050: 9748 c53b 1934 0b3d 1ecb a03b 7369 343c
00000060: d32d 043d 9181 85bc adbe 973d 2167 e83c
00000070: 7e2c b73a b34f 963b 5716 48bb d038 fb3c
0.18578586 0.016761264 -0.011543727 -0.05832653 0.019310981 -0.00093814026 0.07876487 -0.024109071
-0.01298471 -0.04136651 0.0029011457 0.072700515 0.018432973 0.0009974735 0.0034341712 -0.0029518558
0.0037946152 -0.025016883 0.025194045 -0.010537227 0.0060206163 0.03398523 0.004907026 0.011011469
0.032270264 -0.016297134 0.074094154 0.028369488 0.0013975052 0.0045871376 -0.0030530894 0.030666739

conv2 f4 [32, 32, 3, 3]
00000000: 6e4e 843d c89f 5f3d 97df adbb d049 df3d
00000010: 45e3 aebc a9d7 fe3d 6645 193d b07a 3e3d
00000020: ed6c 33bc 1388 443d 86f6 2e3d 0b81 813c
00000030: 3863 893d f1a4 243d 209b 88bd d92d a4bc
00000040: b831 ce3c 154a 903d 3c48 5f3c 8e76 3b3c
00000050: e276 a03b c13f d13c afe6 573d 8fd8 66bb
00000060: 594a 773d 7dc4 e8bb bcba 05bd efd8 f9bb
00000070: db11 a23c 7c5c d33b b43a f5ba ff3c 8dbd
00000080: d790 54bd bcbd 28bc 4669 83bc df5d a9bc
00000090: f46b 503d 66d5 5abd ed24 88bd ce23 50bd
000000a0: 3be9 f5bc e5ff 893d fa40 dd3d 5c6e 0f3d
000000b0: bbdf 003d 46b3 f83c de17 203d 9bd6 a7bc
000000c0: 7bb4 88bd e969 b13c af06 3ebc 5a5d c73d
000000d0: c1a8 16bd f333 733c 815e 9a3d c2e6 81bd
000000e0: 2da9 723d ef01 57bd d54e c43d e019 1ebd
000000f0: e7e4 dbbb a8e3 db3c 409a 453d a358 873d
00000100: 64e9 c93c 6e4f 263d 6b32 493c 4694 f93c
00000110: 0df8 febc bce5 f33c fb88 18bd bb2f 663d
00000120: 48e2 b03c 99c5 42ba 0197 26bc 6656 a73a
00000130: acbd d339 7de6 743d 8474 ab3c e356 20bd
00000140: 602c 01bd 4aab 2cbd 2801 f33c 3770 6d3c
00000150: 7a47 6d3d 83c0 863d a857 95bd 4b9a c13d
00000160: 1849 b03b 89ea 893d bdf3 00bd 4e39 a93d
00000170: c068 a5bd a4d8 c6bc 76bd 69bd f5f0 423d
00000180: 39c2 7e3d df46 82bb 153e 10bd 6be9 523d
00000190: bf8e 64bd bde3 ed3c e57a 6fbd e52e 0abc
000001a0: 8bd3 973d 902e 2abd 3c34 4bbc 3f8e 313d
000001b0: 2bfa 723d 31a0 013d 8d3b 2bbd bfc2 5b3b
000001c0: 3b0a 593d 907f 36bc 0451 c0bd 7190 b3bd
000001d0: f88c 023a 157d bf3c 2bc4 f5bc 8597 b13b
000001e0: f8b0 3abd 9286 be3d e5c2 883c 066c b0bc
000001f0: f137 b63d 2f68 3ebd 5a12 09bd a16a a93c
00000200: 3a4b bdbc f9fa 64bd d0ca 4b3c b2d7 c5bb
00000210: 94a7 6f3c 7da0 483c 0e08 4a3a c20f bf3c
00000220: 1299 f73b bf0b 1a3d e82b 993c 0d58 56bd
00000230: a30b f43c 2425 92bc 0727 473d bce1 2fbd
00000240: 9980 1c3c e623 d9bc c964 ffbb 28c6 903c
00000250: 52f7 73bd 13af ea3c a0bd 20bd f316 493d
00000260: 14d1 0b3d 539c 9a3c 9ad3 b73b b16a bf3c
00000270: 8a56 a63d 8684 98bb f0da 2f3b d96f a83b
00000280: 598e 663d aab2 efbb f75d 65bc a4ce 733d
00000290: 4ae4 69bd 693e 103d ca99 71bd dfea 0a3d
000002a0: c1af 843d f613 fd3c 7fd3 52bd 5b41 263b
000002b0: 0415 d3bc 10f2 20bd 59a4 9ebc f344 aabc
000002c0: 0cb7 113d e10d 223d 8090 f9bc 16cc 163d
000002d0: 8719 d43d c1d8 07bd 10b0 c4bd 4764 713a
000002e0: 3eb7 65bd dd0f 72bd 9d74 31bd 5f81 533b
000002f0: 208f 56bd 4530 173d 4418 2bbd 6956 593b
00000300: 9d0f d53d 993b f7bc 6903 c03c ed28 43bc
00000310: 7104 64bb e34d a1bc d730 6bbc 5cf1 3b3c
00000320: 67a3 af3b c082 d53d 897b 87bc b58d 363d
00000330: 1213 02bd cb22 123d 5a86 24bc 1718 e4bc
00000340: 84c2 3dbd 0e5a 263c a5e6 633d 31bf 28bd
00000350: 0962 92bd 4721 83bc c21d f43c 9e11 cf3c
00000360: 5a57 183d 1561 1cbd 3145 22bd b370 393a
00000370: b3d3 073d 7b46 293d 423b 863d c701 82bb
00000380: 9cac 6e3a b82c 5f3c 8582 343d 4c1b 34bd
00000390: 4449 853b 951a 4c3d e7f3 16bd 847f 62bd
000003a0: 0934 8b3d 9d11 26bd 1236 253d b7df aebc
000003b0: 2d04 66bc d110 1b3c 6ef3 0bbc cbca 7cbc
000003c0: 7307 673c 104a 1d3c 97c7 083d 089e 8bbd
000003d0: e528 74bd 2c1d 0a3d bb7a 0fbe 55b3 f6bc
000003e0: 590a f9bd 0cfd 13be 17e2 cc3c 3ce8 68bd
000003f0: 46b8 e73c c0c4 023c 92d2 9dbb e857 bcbc
0.06460272 0.05459574 -0.005306195 0.109027505 -0.021348605 0.12443478 0.0374197 0.046503723
-0.010951263 0.047981333 0.04271557 0.015808603 0.067083776 0.040196363 -0.06670213 -0.020041393
0.025170192 0.0704538 0.013628062 0.01144184 0.0048969844 0.025543096 0.05271023 -0.0035224294
0.060373638 -0.0071035014 -0.032648787 -0.0076247375 0.019783905 0.006450234 -0.0018709511 -0.068964
-0.051895943 -0.010299142 -0.01604141 -0.020674644 0.050884202 -0.05342617 -0.06647668 -0.050815396
-0.03001844 0.06738261 0.10803409 0.035017356 0.031463366 0.030358922 0.03908526 -0.020488074
-0.06675049 0.021656947 -0.011598273 0.09734602 -0.03678203 0.014843929 0.075375564 -0.06342842
0.05924337 -0.05249208 0.095853485 -0.038598895 -0.006710637 0.026841953 0.048242807 0.06608703
0.024647422 0.040603094 0.012280087 0.03046621 -0.03112414 0.029772632 -0.03724001 0.056197863
0.021592274 -0.0007429957 -0.010167838 0.0012766838 0.00040386373 0.059790123 0.020929582 -0.03914536
-0.03153646 -0.04215554 0.029663637 0.014492086 0.057929493 0.065796874 -0.0729211 0.09453257
0.005379807 0.06734187 -0.031482447 0.08262883 -0.0807662 -0.024273224 -0.05706545 0.047593076
0.062196944 -0.0039757336 -0.035215456 0.051492136 -0.055800196 0.029039258 -0.05846681 -0.008434032
0.074133955 -0.04154831 -0.01240259 0.043348547 0.05932061 0.03164691 -0.04180484 0.0033532826
0.052988272 -0.011138812 -0.093904525 -0.087677844 0.00049801124 0.023375073 -0.030000767 0.005419674
-0.045578927 0.09303011 0.016694495 -0.021535885 0.08897389 -0.046486076 -0.033464767 0.020680727
-0.02310716 -0.05590341 0.012438491 -0.006037676 0.014627356 0.012245295 0.0007706889 0.023322944
0.007556089 0.03760886 0.018697694 -0.052330066 0.029790705 -0.017839976 0.048621204 -0.042939886
0.009552144 -0.026506376 -0.007793997 0.017672613 -0.059562035 0.028647935 -0.03924334 0.04909415
0.03413494 0.01887337 0.0056099417 0.023366304 0.08121975 -0.00465447 0.0026833378 0.0051402864
0.056288097 -0.0073149996 -0.013999454 0.05952324 -0.05710248 0.03521577 -0.058984555 0.033915397
0.06478835 0.030893307 -0.05147123 0.0025368545 -0.025766857 -0.03929335 -0.019365476 -0.02078483
0.035574958 0.039564017 -0.03046441 0.036815725 0.103564315 -0.033165697 -0.09603894 0.0009208363
-0.056082956 -0.05909716 -0.0433241 0.0032273156 -0.05238259 0.036911268 -0.04177119 0.0033163077
0.104033686 -0.030179786 0.023439126 -0.011911613 -0.0034792686 -0.01969046 -0.014354906 0.011471119
0.0053600552 0.10425329 -0.016538398 0.044568736 -0.031756468 0.035677712 -0.0100417975 -0.027843518
-0.046328083 0.010153307 0.05563988 -0.04119796 -0.07147605 -0.016007079 0.029799346 0.025276955
0.03719268 -0.038178522 -0.039616767 0.00070739834 0.033160876 0.04132698 0.06554271 -0.003967497
0.00091047003 0.013621502 0.044069786 -0.043971345 0.004067572 0.049830038 -0.036853697 -0.05529739
0.06797034 -0.04054414 0.04033477 -0.02134691 -0.0140390815 0.009464459 -0.008541925 -0.015429209
0.014100897 0.009600177 0.03339347 -0.068172514 -0.059609313 0.033719227 -0.14011662 -0.030114809
-0.12160177 -0.14451998 0.025010152 -0.0568621 0.02828611 0.007981479 -0.0048163617 -0.022991136

b2 f4 [32]
00000000: 451a 9b3c 96ed 663d e760 7fbc 8631 503b
00000010: d6ab 9a3d a14b 503d eff9 2a3e 7489 a7bc
00000020: 28a8 2d3d b891 9abe d565 893d 3e52 e03d
00000030: 69a1 b1bd 6609 a6be 0b7f 2d3d a627 d13d
00000040: 156c 9a3c fbf2 333d c17b 423c 5ada 993c
00000050: e36d a63d 7fee 013d cb8b bd3a 8b4a e03d
00000060: 4bcb 9fbc 1b50 363d 8e07 1e3c b075 843e
00000070: d3a4 2f3d 3d02 733d 63fc f73d ac57 95bb
0.018933425 0.056378923 -0.015587068 0.00317678 0.07552306 0.050853375 0.16696905 -0.020451285
0.042396694 -0.301893 0.06708876 0.109531865 -0.08673365 -0.32429045 0.042357486 0.102126405
0.018850366 0.043932896 0.011870326 0.018780876 0.08126428 0.03172159 0.0014461217 0.10951718
-0.019506117 0.04450999 0.009645356 0.25871038 0.042881798 0.059328306 0.12108686 -0.0045575704

conv3 f4 [32, 32, 3, 3]
00000000: a1bf 1ebd e61b dbbc 1db6 89bd 5291 9ebd
00000010: 5483 d73d bff6 b1bc ec98 47bd 1823 8cbc
00000020: 745c 6cbd 0931 993e 3af0 573e ebbd b13e
00000030: 9640 0a3e 333f f5bc e04b 0e3e c2d9 b53e
00000040: 78eb cd3d 4f43 ba3e 413d 41bd f7a2 ae3c
00000050: b168 dcbc 668c 74bd 978b ab3c 1a5a 993d
00000060: 18cf 20bd ae82 143d 893d e63b 95e4 82bc
00000070: f557 d5bb 8d48 42bd 9629 03bc 5868 8f3d
00000080: f41f 77bd ff6a 463d 7230 7ebd ea0b 6b3c
00000090: 8052 e5bd 71f0 47bb 3bdf c7bd 1fff bdbc
000000a0: e87c 943d 9726 37bd 8075 19be d04d 33bd
000000b0: c4d1 48bd a3da 00be 27d0 39bc fc1c 7ebd
000000c0: d63b c63b 4e2a 583d 4f12 1a3d b257 8fbd
000000d0: 1ed8 52bc 872e 0ebe c735 193d 61d1 63bc
000000e0: 714f 123d 4751 18bd da37 7bbc 4702 643c
000000f0: 2e05 a5bc 2df8 1a3d 6b92 babd c9b7 f83c
00000100: d0a8 393c a829 ad3c 8cda cb3c b865 95bc
00000110: a38f d9bb da34 07bd f44a d5bc 3b33 513d
00000120: 675c 1ebc 0e7c 06bd a2e2 153c 535c 0b3d
00000130: cca2 78bd 794c 5abd d42e 77bc c6c4 bbbd
00000140: c572 c43c 709e 51bd 46d0 873d d93a b8bb
00000150: 4835 3c3d 41b6 edbc 53a3 2c3c 654c 463d
00000160: 7650 aabc 8a22 08bb 2aef c83c 6586 093d
00000170: 83a7 a23d 3720 943c ba89 53be a880 28bc
00000180: e82a a63d d69c ddbd 3a61 df3d 3ac7 e7bc
00000190: b060 913d 1b18 e1bc 9223 39b9 80bb 543d
000001a0: 749f 19bd fa82 ebbb 5ee2 243d e81c 5f3d
000001b0: e505 c9bc 4d43 323d 13f9 2fbd 7410 f33c
000001c0: cd86 3dbc e73a 9d3c 293d 4b3d b714 2d3c
000001d0: 661c aa3d f77b 483d 8aef 21bb 11ab eabc
000001e0: e4c8 933c 67ab 623d 2e20 5f3c c6ba 353d
000001f0: 9d8b 8dbd 835c 893d c9a8 043d 94d9 4d3d
00000200: cec6 c1bb de44 c7bd 6dd0 643d 742d 743d
00000210: ef55 4a3d 7c82 88bd 37d2 2ebd 781f 91bc
00000220: 53a4 92bb c303 95ba 2676 013d cdfa 583c
00000230: c8ad 9bbb 075d f73b 7d45 c7bc 5106 6e3c
00000240: 7158 4f3d 72f5 4fbd b877 4dbd 8532 4abd
00000250: 2184 5f3d 95b3 773d 66a3 8cbd 7f1c bcbb
00000260: 215d 8c3d b161 693a 0c57 4d3c 7bcf 033d
00000270: ddb8 c33d 0c8b 453d 7e9f 68bd 0ffa 133c
00000280: 8d7a 9d3d 9737 bf3d 8800 353b e171 46bd
00000290: 3398 113d 5d46 55bd 2af9 0e3c 5fad 92bc
000002a0: d1a5 2cbd a3b2 b33c ca93 e83c f49c 00bc
000002b0: 130b ba3c bc5e ff3c f752 cd3c 2a97 29bd
000002c0: 2beb a9bd 4804 953c ae49 cd3c 9f87 973c
000002d0: 896f 82bd 75c4 78bc 0ef0 18bd dea9 8abd
000002e0: ecbc 29bc 93cc 343d a0ce 79bd ccdb e83c
000002f0: 72dd 21be d7a8 8e3d 841b 073d c4b4 8dbd
00000300: 88fb 8fbd b684 fbbc 780a 7a3d a8f5 273c
00000310: aaa4 b1bc 42c5 0a3d c6f8 61ba 15e1 80bc
00000320: 791d 24bd 481d 44bd 4cea 1fbd c1cc 263d
00000330: a535 993d 8e1b 5ebd 2935 0abd 6b56 c83d
00000340: ce21 7abb 09b9 f03d 8b76 583d 2984 153a
00000350: a7cb 343d dc20 9bbd f9e9 ab3d 509a 09bc
00000360: 5a5e 35bc e9db 2abc e297 a8bd 4c7c 0fbc
00000370: 460f bdbc 028a 7cbb 5ed3 14bc faf8 e1bd
00000380: 4306 03bd 47c1 f53d 0675 823d 09b4 8e3d
00000390: 73b5 7b3a 69c2 2ebd d8e8 3b3d 3462 da3d
000003a0: a9a2 6b3b a3d8 ff3d 3e85 64bc b1cc ccbc
000003b0: f5d5 20bd 2455 493d f665 3ebd 907d 24bd
000003c0: 033c b8bd b8d4 533c 7518 883c 1aeb 5ebd
000003d0: e7c2 f73c c28a 8bbc 3c6a 52bc a6d7 64bd
000003e0: 94a8 5aba 4d76 4d3d ffdc 1dbd feeb 963d
000003f0: 4f5a 903d d4e7 7ebd e71f 00bc 3242 a33c
-0.03875697 -0.026746701 -0.067241885 -0.077425614 0.10523096 -0.021724103 -0.048729822 -0.017106578
-0.057705358 0.29920223 0.21087733 0.34715208 0.135012 -0.029937362 0.13896132 0.355177
0.10054678 0.36379477 -0.047177557 0.021317942 -0.02690539 -0.059704207 0.020940585 0.07487889
-0.03926 0.03625744 0.0070263785 -0.015978137 -0.0065107294 -0.04743247 -0.00800552 0.07002324
-0.060333207 0.048441883 -0.06205792 0.014346102 -0.11197376 -0.0030508304 -0.09759375 -0.02319294
0.072503865 -0.044714537 -0.14986229 -0.04377538 -0.049028173 -0.12583403 -0.011341131 -0.06203936
0.0060496135 0.05277472 0.037615117 -0.069991484 -0.012868909 -0.13884936 0.0374048 -0.0139049
0.035720292 -0.037186887 -0.01533314 0.013916559 -0.020144071 0.037834335 -0.09109958 0.030361073
0.011331752 0.021138027 0.024884485 -0.01823698 -0.0066394373 -0.033009388 -0.026036717 0.051074248
-0.009665585 -0.03283315 0.009148272 0.034023594 -0.06070213 -0.053295586 -0.015086848 -0.09168391
0.023980508 -0.05117649 0.06631522 -0.0056222496 0.04594925 -0.02901757 0.010536986 0.0484127
-0.02079032 -0.002077254 0.024528105 0.033575434 0.079421066 0.018081767 -0.20658007 -0.01028458
0.081136525 -0.1082093 0.10907216 -0.02829324 0.0709852 -0.027477315 -0.00017656226 0.051936626
-0.037505582 -0.0071872445 0.040254943 0.054470927 -0.024538944 0.043521214 -0.042962145 0.029670931
-0.011567784 0.019193126 0.049618874 0.010564021 0.08306198 0.048946347 -0.0024709427 -0.028646024
0.018040128 0.055339243 0.013618512 0.044367574 -0.06911395 0.06707098 0.03238753 0.050256327
-0.005913592 -0.09729932 0.055862833 0.05961366 0.04939836 -0.06665513 -0.042680945 -0.0177152
-0.0044751554 -0.0011368919 0.031606816 0.013243389 -0.004750941 0.0075489315 -0.024325127 0.014527873
0.050621454 -0.050771184 -0.050163 -0.049364585 0.054569367 0.060473997 -0.06867103 -0.0057407017
0.068537004 0.0008902802 0.012532961 0.03218029 0.09556744 0.04822831 -0.05679273 0.009031787
0.0768939 0.09336775 0.0027618725 -0.048448447 0.03554554 -0.052069057 0.0087263975 -0.017904935
-0.042150322 0.021935767 0.028390784 -0.007849921 0.022710359 0.031173103 0.025063975 -0.041403927
-0.08296808 0.018190518 0.025059547 0.018497286 -0.0636893 -0.015183558 -0.03733831 -0.06770681
-0.010359984 0.04414041 -0.06098807 0.02842512 -0.15807131 0.069657974 0.032985225 -0.06919244
-0.07030398 -0.03070293 0.06104514 0.01025144 -0.021684963 0.033879526 -0.0008620139 -0.015732327
-0.04006717 -0.047879487 -0.039041802 0.040722612 0.07480935 -0.054225497 -0.033742104 0.09782108
-0.0038167122 0.11754043 0.052847426 0.00057035923 0.04413953 -0.07574627 0.08394236 -0.008398607
-0.011069858 -0.010428407 -0.08232094 -0.008757662 -0.023078572 -0.0038534408 -0.009083597 -0.11033817
-0.031988394 0.11999755 0.06369977 0.06967933 0.0009601928 -0.042665873 0.045876354 0.10663262
0.0035955107 0.12492492 -0.013947783 -0.024999948 -0.039266545 0.049153462 -0.046483956 -0.04015881
-0.08995821 0.012929134 0.016613225 -0.05442343 0.030244304 -0.017033938 -0.012842711 -0.05586972
-0.000834116 0.05016165 -0.038540836 0.07369231 0.07048475 -0.062232807 -0.007820106 0.019929025

b3 f4 [32]
00000000: 429e 103e 38e9 173e 476f 253e 74a5 363e
00000010: 4000 303e 576f 373e 34a0 bd3d 8845 353e
00000020: db11 293e 7bb0 963d 832c 3f3e 9694 253e
00000030: b81f 1f3e 7a55 1f3e 6cdc f53d 14ae 033e
00000040: 8516 fb3d de1a 093e 3e33 cc3d 6477 2c3e
00000050: 428a 223e 30c6 073e 5b73 0f3e 04a1 af3d
00000060: fd0b e03d ded4 0e3e 82d4 5d3e 62b5 e83d
00000070: 7c90 2d3e 3581 f13d e6ea d93d 9de9 f83d
0.1412287 0.1483506 0.1615573 0.17836553 0.17187595 0.17913567 0.09259072 0.17702305
0.16510718 0.0735788 0.18669324 0.16169962 0.15539443 0.1555995 0.12004933 0.12859374
0.12260155 0.13389155 0.09970711 0.16842419 0.15873054 0.13259196 0.14008848 0.08575633
0.109397866 0.1394839 0.21663097 0.11362721 0.16949648 0.117922224 0.106405064 0.12153933

w4 f4 [5, 32]
00000000: 842a d7bf 8801 f7bf 1eff ab3e 5f65 e9bf
00000010: f76a 2f3f 57ac 8e3f a10f d1bd 26fd dbbf
00000020: 0795 ff3f 2490 98bf e438 1ebd a7f4 c6bf
00000030: 8223 1340 e7cf f7be ab1a 1040 7e84 e1bf
00000040: d07d 473f 5d5b 7c3f f4c6 f6bf 85eb 1140
00000050: 87a6 533f 9362 e9bf 95ad 07bf 38af c7bf
00000060: ebb2 103f d77e 97be 2e6c a0bf 3fc1 0f40
00000070: e0b6 dbbd b441 cbbf 65ca d13d d646 4fbf
00000080: af83 92bf b3f5 0840 07f5 5e3f da00 903f
00000090: ba1c 9bbf dc36 a8bf 1711 92bf 5bec ee3f
000000a0: 81f7 c2bf e803 64bf d722 f9bf e8e5 cbbf
000000b0: c3ea 46bf 7d3b 38bf d565 073e 0974 debf
000000c0: 8afd 0f40 ad82 bebf 073b fd3e 6971 a2bf
000000d0: 3fc0 d53f 2b94 bcbf d773 1540 68c6 7d3f
000000e0: d986 b8bf 7022 50bf eeac 0b40 149a a3bf
000000f0: eb27 0e40 dcd0 39bd 8baf 45bf ed63 81bf
00000100: 45e5 fb3f c0b3 c43e 517e 06c0 173a bbbf
00000110: e935 e2bf d671 f33f 66ab 0240 3960 a33f
00000120: 251d d2bf 40a5 0f40 b013 373f 1f2b 573e
00000130: cb20 94bf 3e19 dcbf bafc c2bf 96d0 65bf
00000140: 9da9 cabf a859 9cbf cb14 0240 b896 c83e
00000150: 1a7d c43f a41e 873e 7d05 bcbe 9cea 17bf
00000160: 5904 bf3f 34f8 90bf c1ca d9bf 7685 90bf
00000170: 11c6 dcbf ffb6 85bf 559c 1140 ec11 9dbf
00000180: fc9a b5bf 3dd2 713f decd be3f 0740 14bf
00000190: fe9a c7bf 6949 43bf 2cb0 573e 1854 d1bf
000001a0: bc30 883f 9e06 6abf 1658 1dbf 4b15 0340
000001b0: a62d c9bf 92fd bfbf 8b44 bfbf 1491 d73f
000001c0: 1d43 49bf 168a f83f e268 3c3f d44b d9bf
000001d0: a087 debf 5535 59bf 51ce d0bf 2f2f fa3f
000001e0: e907 a43f da46 0d40 7d19 c1bf 4daf a5bd
000001f0: 6e71 c4be da1a 0740 203f b0bf f8d1 32bf
00000200: 1fe0 a13f 0019 77bf c2cf 53be 0c86 0340
00000210: 3de1 0540 9f34 b4bf 22dc ccbf 4864 1a3f
00000220: 4887 e83e ac31 f3be dccf 1240 c72d f2be
00000230: fce9 d8bd a17d 0f40 ac27 b1bf 8386 9e3e
00000240: 0aea d3bf ced1 99bf 3ca2 93bf 5804 6dbf
00000250: 0cd8 cdbf 4408 0540 af75 a7bf 5e75 b7bf
00000260: 0bee e2bf 7599 fbbe 34a0 203f 2bc0 aabf
00000270: 51da c1bf eeb6 ccbe c05b 83be 55c5 0e40
-1.680985 -1.9297342 0.33593076 -1.8234061 0.6852259 1.1146344 -0.10208059 -1.718663
1.9967355 -1.1918988 -0.038628474 -1.5543412 2.2990422 -0.48400804 2.2516277 -1.7618558
0.7792635 0.9857691 -1.9279466 2.28 0.82675976 -1.8233207 -0.5299924 -1.5600348
0.5652301 -0.2958896 -1.2533014 2.2461698 -0.1072824 -1.5879426 0.10243682 -0.8096746
-1.1446437 2.1399963 0.8709263 1.125026 -1.2118142 -1.3141742 -1.1411465 1.866588
-1.5231782 -0.8906846 -1.9463757 -1.5929537 -0.7770197 -0.7196577 0.1322244 -1.7379161
2.2498498 -1.4883629 0.49459097 -1.269086 1.6699294 -1.4732717 2.3351953 0.9913087
-1.4416152 -0.8130255 2.1824298 -1.2781396 2.2211864 -0.0453652 -0.7722098 -1.010862
1.9679343 0.38418388 -2.1014597 -1.4627103 -1.7672702 1.9019115 2.0417113 1.276374
-1.6415144 2.244461 0.71514416 0.21012543 -1.1572508 -1.7195203 -1.5233376 -0.897714
-1.5833012 -1.2214861 2.032519 0.3917749 1.5350678 0.26390564 -0.36722937 -0.5934236
1.4923202 -1.1325746 -1.7015 -1.1290729 -1.7247945 -1.0446471 2.2751667 -1.2271094
-1.4187922 0.94461423 1.4906576 -0.579102 -1.5594175 -0.7628389 0.21063298 -1.6353788
1.0639873 -0.9141635 -0.61462533 2.0481746 -1.5717056 -1.4999259 -1.4942793 1.6841149
-0.7861803 1.941714 0.7359754 -1.6976266 -1.738514 -0.84847003 -1.6312963 1.9545649
1.2814914 2.2074494 -1.5085903 -0.080900766 -0.3836779 2.111014 -1.3769264 -0.69851637
1.2646521 -0.9652252 -0.20684722 2.0550566 2.0918725 -1.4078559 -1.6004679 0.6030927
0.4541571 -0.47498834 2.2939367 -0.4730055 -0.10591504 2.2420428 -1.3840232 0.30962
-1.6555798 -1.2017152 -1.1533885 -0.92584753 -1.6081557 2.0786295 -1.3082789 -1.4332693
-1.7728895 -0.49140516 0.6274445 -1.3339895 -1.514475 -0.39983314 -0.25655937 2.2307942

b4 f4 [5]
00000000: b3d3 003e 132e 1dba 94a1 abbd 3bda ac3c
00000010: d76a ebbd
0.12580757 -0.00059959403 -0.08380428 0.021100154 -0.114949875

exp_avg f4 [32, 1, 3, 3]
00000000: ddd0 873a ae6c bf3a d4a9 a13a b182 7139
00000010: 0e3c 753a 43f0 1e3b 7d1a 7139 0270 b13a
00000020: 05be 3c3b 486e 28b9 e6bf 23ba da4e a13a
00000030: b15a b73a 7b01 973a f310 563a 7bdc 453a
00000040: a46e 243b 7448 4e3b cb20 333b 9580 1cb9
00000050: f5a0 dfba e997 b73a 3bc5 bbb9 f597 94ba
00000060: 0200 7938 96ba 00ba e069 fe39 9d69 533b
00000070: f9cc cd3a af6b 083b 5c93 233b cb55 d33a
00000080: 9ee7 ef3a e5e8 c03a 3a5d 2e3b 6b1a 893a
00000090: 159c 6db9 a3bb 313a f955 2e39 d996 1fb9
000000a0: bc65 4f39 87c1 88b9 cf2c b0ba 1be2 8439
000000b0: 1154 ef39 3b83 be3a 91d0 653a a92e 133a
000000c0: 456f 073b d4c4 1a3b e6fb c039 a4c4 023b
000000d0: 8cdf 3a3b 18da c83a 0473 4eb9 faf5 c939
000000e0: 23a4 16ba 4161 d6b9 9671 6e38 b486 3fba
000000f0: b371 f8ba d549 c838 17a6 0eb7 e386 12ba
00000100: b6a9 b2ba 5fd3 a8ba 04a9 12bb 7a65 20bb
00000110: 5850 21bb b823 0cba 9364 a1b9 7e98 d7ba
00000120: 2678 433b d3ab 143b f194 ba3a 0583 283b
00000130: 75a4 113b e3f1 0b3b f648 663a 70cc 953a
00000140: 9d2a 923a ba8c b3b7 ba43 04ba 473b 64ba
00000150: 2706 3c3a fd94 233a 1541 be3a b239 a33a
00000160: 2c50 dc3a 4304 f13a 3432 93ba fabd 76ba
00000170: 6cf3 21bb c81a 3dbb bbb0 0cbb b30d 61bb
00000180: 81d5 bdbb ae84 eeba 9c78 f9ba a61c b639
00000190: 6aad 28bb f665 42bb 48d5 0abb f854 1dbb
000001a0: dec1 8ebb 76d2 65ba bdd0 a2b9 4dad 36bb
000001b0: e8c0 fc3a 8735 c539 058a ae39 0b67 d63a
000001c0: 9981 db39 22f4 e539 e831 813a afc4 223a
000001d0: e78c 81b9 cfda ae3a 49ba a83a dc7f 803b
000001e0: 594f 7f3a 2276 913a 414b 263b 5860 5f3a
000001f0: 58e9 bd3a bf0e e53a 4d2e 5fba 44d4 d5b9
00000200: d850 1eb9 064b dfba 29f0 8fba 6e48 cfb8
00000210: 9285 a539 18b4 aab9 793f 9dba 9be9 9eba
00000220: 6165 56bb 7eb7 96bb f368 15bb e063 53bb
00000230: 0e08 86bb 61d8 e23a e572 0e3a 8112 07ba
00000240: e497 253b 51be 833a 047b adb9 0a10 b63a
00000250: 5177 e5b8 d169 c4ba 2d4b 9439 3f1d bdb9
00000260: 57a6 7fba bf76 86bb 0aa4 18bb 3d00 bcba
00000270: f3f3 f3ba b84d 62ba d54e 99ba 957d da38
00000280: e085 783a 90df f43a ed3a be38 4279 39b8
00000290: b7e4 4239 e3f1 9a39 673a b739 1eda 4fb8
000002a0: 0408 0639 7f89 f9b9 ba9c b5ba 9809 edba
000002b0: 488e daba 3cad 56ba bf95 ddb9 88e7 1e39
000002c0: 90f9 6aba cdd7 e439 b857 39ba 5aad e0ba
000002d0: 6769 c03a 26f7 5aba 1ff1 54bb e534 703b
000002e0: a4db eab9 5464 1fbb 80b9 a33a d729 b8ba
000002f0: e2fe b0bb aa3b 5f3b b6d7 4a3b 336b 003b
00000300: 9d1a 013b 235c 113b 83ed 743a 9c2a f63a
00000310: 9d00 313b b04d 983a 838a 48bb 6fbb 4ebb
00000320: 73de dcba 27d4 86bb 9fc1 26bb 0b90 95b9
00000330: f573 2ebb 7f24 1cbb feea 66ba 150e d6b9
00000340: 36b6 2fbb 0c13 11bb 04d3 24ba 01a6 14bb
00000350: 2fc4 0bbb c666 963a 74e7 0bba 817d 1b3a
00000360: b845 7b3a f6fe 86ba 5adc 4db9 22bf b6ba
00000370: 28eb 41bb 0b9e 53ba 4309 83b9 35b3 00bb
00000380: 4ad7 01bb fb8c 55bb 2673 5dbb 0dbd 33bb
00000390: f698 73bb 6d6c 14bb 681d 4fba 1b5e ddba
000003a0: 5044 a7b9 0d43 c0b9 d7e8 ceba 4458 e7ba
000003b0: 8dd4 6bba 8de5 29bb 87ef c2ba 6027 49ba
000003c0: 75ab 35bb bf4a 5bba d7b3 c0b6 1651 913b
000003d0: 3bad 6d3b a53e 773b 5359 033b 1a57 e53a
000003e0: 34aa 383b ff8e 0d3b ead4 2c3b 1b3c 293b
000003f0: 848a d6b9 22cc 07bb 1a74 43bb 4338 b2ba
0.0010361929 0.0014604533 0.0012333938 0.00023032237 0.0009354957 0.0024252094 0.00022993419 0.0013537409
0.0028799784 -0.00016062811 -0.00062465516 0.0012306825 0.001398882 0.0011520827 0.0008165978 0.0007547808
0.002509036 0.003147629 0.0027332779 -0.0001492522 -0.0017061519 0.0014007065 -0.00035814368 -0.0011336791
5.9366233e-05 -0.0004910616 0.00048525538 0.0032258995 0.0015701345 0.0020816138 0.002495966 0.0016123591
0.001830328 0.0014717845 0.002660586 0.0010460144 -0.00022660226 0.0006779974 0.0001662596 -0.00015219617
0.00019778957 -0.0002608413 -0.0013441088 0.00025345464 0.00045648267 0.0014534959 0.00087667356 0.0005614558
0.0020665687 0.0023615854 0.00036808773 0.0019953633 0.0028514592 0.0015323786 -0.00019688538 0.00038520974
-0.0005746504 -0.0004088972 5.6849407e-05 -0.0007306144 -0.0018954783 9.5504955e-05 -8.50253e-06 -0.00055895577
-0.00136309 -0.0012880376 -0.0022378573 -0.0024474547 -0.002461454 -0.00053458987 -0.00030783247 -0.0016448644
0.0029826253 0.0022685423 0.0014235062 0.002571286 0.0022223268 0.0021353893 0.0008784676 0.0011428725
0.0011151616 -2.1403994e-05 -0.00050454924 -0.0008706343 0.00071725476 0.00062401575 0.0014515246 0.0012453108
0.0016808561 0.0018388111 -0.0011230172 -0.0009412464 -0.002471174 -0.0028855074 -0.0021467644 -0.003434044
-0.005793274 -0.0018197501 -0.0019033137 0.0003473509 -0.0025738128 -0.0029662824 -0.0021184254 -0.0024006944
-0.004356607 -0.0008767018 -0.0003105457 -0.0027874291 0.0019283565 0.0003761465 0.000332907 0.0016357613
0.00041867493 0.00043860177 0.0009856792 0.0006209118 -0.00024709778 0.0013340357 0.00128729 0.003921492
0.0009739302 0.0011097828 0.0025374445 0.0008521131 0.0014489098 0.0017475708 -0.0008513674 -0.00040784676
-0.00015098171 -0.0017035909 -0.0010981607 -9.88402e-05 0.0003157077 -0.00032559107 -0.0011997066 -0.0012124063
-0.0032714235 -0.0045995107 -0.002279815 -0.0032255575 -0.0040903157 0.0017306918 0.0005433991 -0.00051525986
0.0025267536 0.0010051226 -0.00033088785 0.0013890278 -0.00010941795 -0.0014985149 0.0002828477 -0.0003607068
-0.00097522646 -0.004103511 -0.0023291134 -0.0014343333 -0.0018612131 -0.0008632797 -0.0011696467 0.000104184415
0.0009480398 0.001868235 9.070882e-05 -4.4220367e-05 0.00018586485 0.0002955339 0.00034947993 -4.9555783e-05
0.00012782222 -0.00047595424 -0.0013855912 -0.0018084524 -0.0016674483 -0.0008189266 -0.00042263974 0.00015154306
-0.00089635793 0.00043648333 -0.0007070261 -0.0017141507 0.001467985 -0.0008352868 -0.0032492352 0.0036652621
-0.00044795603 -0.0024321275 0.0012491196 -0.0014050555 -0.005401478 0.0034062662 0.0030951328 0.0019595146
0.00196997 0.0022180162 0.00093432533 0.0018781009 0.0027008422 0.0011619832 -0.0030600138 -0.0031544825
-0.0016850963 -0.004114646 -0.0025444997 -0.00028526815 -0.0026619409 -0.0023825464 -0.000880882 -0.00040827753
-0.0026811487 -0.0022136597 -0.00062875473 -0.0022681954 -0.0021326651 0.0011474721 -0.00053369184 0.00059314823
0.0009585279 -0.0010299373 -0.00019632411 -0.001394246 -0.0029589627 -0.00080725615 -0.00024993168 -0.0019638066
-0.001981216 -0.0032585252 -0.0033790558 -0.0027425915 -0.003717003 -0.0022647635 -0.0007900805 -0.0016889008
-0.0003190362 -0.0003667105 -0.0015785944 -0.0017650207 -0.0008996211 -0.0025924176 -0.001487241 -0.0007673409
-0.0027720605 -0.0008365325 -5.742982e-06 0.004434715 0.0036266583 0.0037726548 0.0020042255 0.0017497272
0.002817762 0.0021600125 0.0026372024 0.002582318 -0.00040920463 -0.0020721038 -0.002982384 -0.001359709

exp_avg_sq f4 [32, 1, 3, 3]
00000000: fb4f aa38 8206 d038 e1a2 de38 c35f ba37
00000010: eb2d 1838 a541 9538 5568 d437 086e 1f38
00000020: 551f 5638 a5d1 9b38 3537 6438 b69d 5038
00000030: 5fed c638 47b9 ad38 c256 b838 14c5 f338
00000040: 18d2 e438 3b6a f638 0336 3138 406f 0238
00000050: ce1a 9738 4769 9c38 01ca 8738 62ee 9d38
00000060: 5a47 2338 79c2 b337 236b 1e38 ecca 9838
00000070: fb61 4d38 e6f8 2438 d44f ab38 7b5b 8a38
00000080: 8ec2 8138 737b 9c38 b498 ae38 52c9 ae38
00000090: cc64 9038 d87a 4638 7785 9237 5308 9938
000000a0: 16e5 9f38 6bef 4e38 01cd d038 3193 b938
000000b0: 5797 ae38 233c 9937 6cbe 2537 c662 da36
000000c0: f296 8438 9305 1338 6144 a037 b357 af38
000000d0: b619 d438 f927 9838 963e 8b37 e531 7937
000000e0: c96e ba37 f87c bc38 bd6f 3338 0bbf 2337
000000f0: 258c 6c39 ccac bb38 a227 6a37 2e21 8d38
00000100: 428e 8538 5821 b238 a2a6 4938 382b 3e38
00000110: dc26 9838 0064 7b37 377f 5637 80ef 3c38
00000120: c9e3 e738 373d b238 ef98 c638 d36e d838
00000130: 0d16 7138 f84b 9b38 7101 ab38 80c2 2438
00000140: dbfb 8838 d48d b637 4b53 5538 13b9 8038
00000150: a373 3038 2116 8f38 da35 ae38 6171 6138
00000160: 89b3 8038 16a5 9038 f801 8538 f9dd d138
00000170: 3eb2 c138 0cb9 c038 571a 0d39 3e0d 6b38
00000180: 4405 1839 35e4 0139 5ab6 4338 ab78 c038
00000190: 7149 ef37 40eb 4e38 fae2 c838 9862 6b38
000001a0: 0616 a138 4a8d fd38 7f77 d938 d105 c838
000001b0: 7dd7 5d38 29da 4737 d808 3a37 a110 9938
000001c0: 9baa ea37 06d9 ce37 1c39 e038 b611 a438
000001d0: 3553 7738 a79d 7238 9cb8 1539 2c6b 8139
000001e0: b61f d637 5b29 d938 91aa 5039 5298 fa37
000001f0: bdd9 aa38 fa0a 2439 3b88 a037 0810 7537
00000200: 358d 4138 3df1 9e38 4c31 8938 5c61 bd38
00000210: 4a05 6338 7325 9a38 c721 e238 5cfe bf38
00000220: 5981 ad38 c0c0 9d38 662b f838 c1fa b838
00000230: 74b2 8438 2ea2 0339 ea61 9038 cc90 1c38
00000240: f7df 9d38 4184 8138 7236 7138 afc9 9338
00000250: 79b4 4038 79f1 5238 d4c1 7b38 f07c e537
00000260: f1be 5538 c107 c438 05ac 7738 172e 6238
00000270: 8b61 c238 b92d 4338 d86a 8938 559d f338
00000280: 22e8 d838 9faf 1739 afe2 5d37 6e6c 6337
00000290: 7565 6037 1ecb 8538 116d 7b38 ad84 8b38
000002a0: 0aaf 1239 195f 0c39 8cce 1439 04a2 6138
000002b0: ff6b ac38 7abc 2238 78ad 5d38 1703 5b37
000002c0: 728b 1038 a895 f937 56fc 5538 b629 1e39
000002d0: e687 f938 6d62 fb38 1925 c338 5181 1439
000002e0: 0be9 9038 c71a 4438 9726 ec38 3dcc e238
000002f0: 0453 b538 b242 d238 c4a5 c638 e41b 1f38
00000300: 387e db38 2e84 0739 d9b6 d138 1866 7138
00000310: a740 e238 71be e238 6f59 0c39 1696 d938
00000320: e6e0 1138 ee5f 0039 022b a738 5c60 8a37
00000330: 6259 e138 09f4 bb38 7b16 b937 556b 0a38
00000340: 8d7e 8038 e03c 9438 2cb2 9238 dd15 9538
00000350: e644 a038 080f ff38 261a bf38 4e83 d938
00000360: 6b48 b638 6301 aa38 11cb c738 5a18 b438
00000370: f4e7 0739 9e39 0e39 0afd bd37 bedd 8c38
00000380: fe10 0639 c2ba 4339 4d84 3c39 7b09 2539
00000390: 045f 1539 f139 e338 1cf2 d638 0e8a 2138
000003a0: 1191 b637 a461 a837 3d94 d138 46c7 3838
000003b0: e505 7137 430c d838 877b 2338 a8cf 8a37
000003c0: 172d e338 e198 3f38 4585 6b37 235d d738
000003d0: 0867 e338 324d f438 9a06 4a38 0c74 a238
000003e0: e8bc e538 a90f 0938 64c1 a038 5298 d138
000003f0: 41b7 2a38 a171 8d38 1108 8938 c7e8 8e38
8.121129e-05 9.919425e-05 0.000106161235 2.221752e-05 3.628239e-05 7.117101e-05 2.5320953e-05 3.801103e-05
5.1050756e-05 7.430025e-05 5.441085e-05 4.9737944e-05 9.4855895e-05 8.2837934e-05 8.7899636e-05 0.000116238516
0.0001091102 0.00011749981 4.225039e-05 3.1098025e-05 7.205234e-05 7.458269e-05 6.474928e-05 7.530746e-05
3.892868e-05 2.1429021e-05 3.7769914e-05 7.285722e-05 4.896706e-05 3.933245e-05 8.1687846e-05 6.597392e-05
6.187438e-05 7.461654e-05 8.32541e-05 8.3344654e-05 6.88523e-05 4.7321286e-05 1.7466706e-05 7.297159e-05
7.6243814e-05 4.9337203e-05 9.956398e-05 8.848904e-05 8.325156e-05 1.8267025e-05 9.879102e-06 6.508405e-06
6.322366e-05 3.5052723e-05 1.9105328e-05 8.3609855e-05 0.00010113737 7.25537e-05 1.6599235e-05 1.48531735e-05
2.2224516e-05 8.987816e-05 4.278099e-05 9.760038e-06 0.00022558922 8.949041e-05 1.3956715e-05 6.729584e-05
6.368432e-05 8.493912e-05 4.8077323e-05 4.533978e-05 7.255163e-05 1.4984049e-05 1.27850135e-05 4.5045745e-05
0.00011057367 8.4991036e-05 9.469862e-05 0.00010320325 5.7479414e-05 7.405126e-05 8.154184e-05 3.928179e-05
6.531897e-05 2.1762135e-05 5.086073e-05 6.1379884e-05 4.2069365e-05 6.822893e-05 8.306997e-05 5.3749773e-05
6.136957e-05 6.897205e-05 6.342301e-05 0.00010007242 9.236157e-05 9.189741e-05 0.0001345662 5.60407e-05
0.00014497811 0.00012387412 4.666145e-05 9.1777496e-05 2.8525219e-05 4.933332e-05 9.579021e-05 5.612019e-05
7.6811804e-05 0.00012090297 0.00010369624 9.5378266e-05 5.2891195e-05 1.1912119e-05 1.1088523e-05 7.298706e-05
2.7974418e-05 2.4658173e-05 0.0001069179 7.823428e-05 5.896688e-05 5.784412e-05 0.0001427852 0.00024684647
2.5525555e-05 0.000103550694 0.00019899967 2.9873252e-05 8.1467886e-05 0.00015644348 1.9136924e-05 1.46068705e-05
4.6146295e-05 7.578961e-05 6.541851e-05 9.030357e-05 5.4125943e-05 7.350268e-05 0.00010782811 9.154968e-05
8.273376e-05 7.522246e-05 0.00011833645 8.82051e-05 6.32749e-05 0.0001255355 6.884693e-05 3.732815e-05
7.52806e-05 6.1758336e-05 5.7509584e-05 7.047073e-05 4.5944445e-05 5.029279e-05 6.002358e-05 2.7357106e-05
5.0960985e-05 9.3474526e-05 5.9049595e-05 5.3925523e-05 9.26881e-05 4.6534205e-05 6.55257e-05 0.00011616448
0.00010342921 0.00014465906 1.3225405e-05 1.35555e-05 1.3375063e-05 6.379768e-05 5.994464e-05 6.652749e-05
0.00013988852 0.00013386867 0.00014191325 5.379507e-05 8.221715e-05 3.8799342e-05 5.285206e-05 1.3054137e-05
3.4462144e-05 2.9752802e-05 5.1018164e-05 0.00015083593 0.00011898558 0.00011986946 9.3052346e-05 0.00014162554
6.909863e-05 4.675498e-05 0.00011260545 0.00010814562 8.6462154e-05 0.00010026003 9.472252e-05 3.793453e-05
0.00010466244 0.00012923844 9.999955e-05 5.755396e-05 0.00010788562 0.00010811992 0.00013384757 0.00010375322
3.4780147e-05 0.00012242768 7.9711914e-05 1.6495753e-05 0.00010745485 8.96231e-05 2.2064187e-05 3.3001725e-05
6.1270875e-05 7.068529e-05 6.9950096e-05 7.108946e-05 7.642228e-05 0.00012162147 9.11246e-05 0.00010371824
8.691925e-05 8.10649e-05 9.5268835e-05 8.587605e-05 0.00012961013 0.0001356364 2.2648386e-05 6.717023e-05
0.00012785566 0.00018666222 0.00017978363 0.00015739158 0.00014245143 0.00010834996 0.000102494116 3.8513965e-05
2.1763643e-05 2.0072628e-05 9.993508e-05 4.4054606e-05 1.4366092e-05 0.000103019665 3.8977272e-05 1.654758e-05
0.00010832602 4.568033e-05 1.4038121e-05 0.00010269347 0.000108433946 0.000116492054 4.81667e-05 7.7463774e-05
0.000109547575 3.267793e-05 7.665416e-05 9.9942685e-05 4.0701827e-05 6.744569e-05 6.5341716e-05 6.814446e-05

exp_avg f4 [32]
00000000: 107c 5fb1 15d5 ac2f 86d5 3130 65d7 5caf
00000010: 9ed6 9d31 81d1 ccb0 9218 09b1 43d9 fe30
00000020: 9459 2031 245f 0c31 1785 a230 c122 43af
00000030: 8cb9 4830 f33e f42e 26dd 5f30 345d 8db0
00000040: 6788 2430 bd98 3fb1 10f7 b530 51bd 3c31
00000050: 1e4e 2bb1 8eb9 d330 5d85 0831 bbdd a22f
00000060: 75eb 8530 8eef 3ab1 9296 3730 a8b7 16b1
00000070: c187 2330 850d 9db0 1de2 49b0 5a39 012c
-3.2521292e-09 3.1438022e-10 6.469566e-10 -2.0085407e-10 4.5937005e-09 -1.4902498e-09 -1.995009e-09 1.8542682e-09
2.3333984e-09 2.0426763e-09 1.1824878e-09 -1.7747494e-10 7.3023254e-10 1.11070174e-10 8.14412e-10 -1.028559e-09
5.985669e-10 -2.788098e-09 1.3239703e-09 2.7465215e-09 -2.492818e-09 1.5405008e-09 1.9866413e-09 2.9625177e-10
9.743945e-10 -2.7202733e-09 6.6788985e-10 -2.193227e-09 5.949197e-10 -1.1427096e-09 -7.34447e-10 1.836384e-12

exp_avg_sq f4 [32]
00000000: 2f05 aa24 712e 0c26 da8d 8b24 dfc0 0225
00000010: dc86 e725 bb01 8224 1db7 e925 d93a 6824
00000020: 32c4 2325 8b63 b324 0b5d b024 5ffc a024
00000030: 85c1 6f24 d966 be24 1b96 8524 034c 6225
00000040: 9d05 1925 483a 1825 ff7b 3425 45fc 9025
00000050: dca2 0a25 57c4 d124 ffad 8d24 d4ab 9d24
00000060: 2b30 d324 8843 ec24 8b2d 6424 d446 ad24
00000070: b66d ee24 d443 4b26 d3ad 6c24 581a e024
7.373453e-17 4.8635197e-16 6.0521947e-17 1.134105e-16 4.0163497e-16 5.6381444e-17 4.054314e-16 5.0356827e-17
1.420447e-16 7.779751e-17 7.6485454e-17 6.981647e-17 5.198878e-17 8.2573596e-17 5.7933844e-17 1.9628129e-16
1.3272536e-16 1.3203645e-16 1.5654523e-16 2.5150963e-16 1.2024771e-16 9.0971914e-17 6.1443763e-17 6.8378985e-17
9.158826e-17 1.0246309e-16 4.9478195e-17 7.514678e-17 1.03401904e-16 7.05217e-16 5.1321577e-17 9.718914e-17
