CS330/XCS330-PS3/src/submission/logs/maml/omniglot.way_5.support_1.query_15.inner_steps_1.inner_lr_0.4.learn_inner_lrs_False.outer_lr_0.001.batch_size_16/state4400.pt (torch, 353132 bytes, 30 tensors)

conv0 f4 [32, 1, 3, 3]
0	0xbd4bad4e	-0.049725823
1	0xbe4bdc5c	-0.19908279
2	0x3f04861d	0.5176714
3	0xbe9eb870	-0.3100009
4	0xbe945e37	-0.2897813
5	0xbc170e74	-0.0092197545
6	0xbd3d4c75	-0.046215493
7	0xbd135357	-0.03596815
8	0xbda520c8	-0.08062893
9	0x3e64727b	0.22309296
10	0x3e808ca1	0.2510729
11	0xbf23e515	-0.64021426
12	0x3c1a5f70	0.009422168
13	0xbb3e45a5	-0.002903321
14	0x3e083f84	0.1330548
15	0xbd4e2e5f	-0.05033719
16	0x3d2adadc	0.041712627
17	0x3e094cbc	0.13408178
18	0xbe130e6f	-0.14360975
19	0xbe703ce5	-0.2346073
20	0x3c9a9a90	0.01887253
21	0x3e93a3b5	0.28835836
22	0x3d09c596	0.0336357
23	0x3e91d669	0.28483894
24	0xbe35a72b	-0.17739551
25	0xbe855ea1	-0.2604876
26	0xbeb71329	-0.35756806
27	0x3db01660	0.08598018
28	0xbea44234	-0.3208176
29	0xbede95fd	-0.43473807
30	0x3da72615	0.081615604
31	0xbd446e13	-0.047956537
32	0xbea05869	-0.31317452
33	0x3e93c1a5	0.28858677
34	0x3e0d0b62	0.13773873
35	0x3e8ccb8e	0.2749905
36	0x3eb17aa0	0.34663868
37	0xbe9b44c1	-0.30325893
38	0x3f365219	0.7121902
39	0xbd07520d	-0.033037234
40	0x3cf1a3f7	0.02949713
41	0xbc2e5a3d	-0.010641632
42	0x3c574b04	0.013140444
43	0xbceb5c2e	-0.028730478
44	0x3d91fa5b	0.0712783
45	0xbed8e140	-0.42359352
46	0xbea4e1cf	-0.32203528
47	0xbe4da3d2	-0.20082024
48	0x3e941ca4	0.289281
49	0xbdd64509	-0.10462386
50	0xbe9a5827	-0.3014538
51	0xbdda8b11	-0.10671056
52	0x3ea42e4d	0.32066575
53	0xbdcf07cb	-0.10108908
54	0xbef4c8e2	-0.4780951
55	0xbef0a53c	-0.47001064
56	0xbd95288c	-0.07283124
57	0x3d96104b	0.073273264
58	0x3d128390	0.03577
59	0xbeec9d77	-0.46213886
60	0x3e323e20	0.17406511
61	0x3de56f03	0.112028144
62	0xbefba88a	-0.49152023
63	0x3d7d29dc	0.0618075
64	0x3e6b4c85	0.22978409
65	0x3dfc4f69	0.12319834
66	0x3ca19aca	0.01972713
67	0x3e3fec2e	0.18742439
68	0xbcb401eb	-0.02197357
69	0xbf19ba8e	-0.60050285
70	0xbf1fc385	-0.62407714
71	0xbdbbbbea	-0.09166701
72	0xbc912228	-0.017716482
73	0xbd9d68cd	-0.07686005
74	0x3d87fb92	0.0663978
75	0xbbe6b390	-0.0070404485
76	0xbd809aca	-0.06279524
77	0x3a038389	0.00050168537
78	0x3ec4b773	0.3842121
79	0xbf38116c	-0.71901584
80	0x3e92b86f	0.28656337
81	0xbf0b3134	-0.54371953
82	0xbe1ba9a7	-0.15201436
83	0x3ec346dc	0.3814
84	0xbe818368	-0.25295568
85	0x3dfe3e46	0.124142215
86	0x3e1142b9	0.14185609
87	0xbc7d54e5	-0.015462135
88	0xbc40d70c	-0.011770021
89	0xbd16e1ad	-0.036836315
90	0xbeb4619f	-0.3523073
91	0xbd805cb8	-0.06267685
92	0x3ca4382e	0.02004632
93	0xbe0918a8	-0.13388312
94	0x3c4e2639	0.012582355
95	0xbdc9460f	-0.09827816
96	0x3ed26c71	0.4109836
97	0x3e29aa89	0.1656896
98	0xbf1bb1fc	-0.6081846
99	0xbee92b85	-0.45541015
100	0xbddf0895	-0.10890309
101	0xbe29a37c	-0.1656627
102	0x3e2f3030	0.17108226
103	0xbe99ab14	-0.30013335
104	0x3e071852	0.13192871
105	0x3eb7c2de	0.3589086
106	0xbeb1c3e5	-0.34719768
107	0x3e494f07	0.19659053
108	0xbd3fb5b2	-0.046804138
109	0xbe9bea28	-0.30452085
110	0xbeb02a11	-0.34407094
111	0xbe4f5f6a	-0.20251241
112	0xbdfdc991	-0.12391961
113	0xbdcbfff3	-0.09960928
114	0x3ee41e02	0.44554144
115	0xbc9f5fbd	-0.019454831
116	0xbd7f6cff	-0.062359806
117	0xbf0c814e	-0.54884803
118	0x3e6970dc	0.22796959
119	0x3e68a961	0.22720863
120	0xbf2126fb	-0.62950104
121	0x3db69454	0.0891501
122	0x3e82b6da	0.2553013
123	0xbe4be09c	-0.199099
124	0xbed0cd6f	-0.40781733
125	0xbe616b67	-0.22013627
126	0xbefe27cd	-0.4963974
127	0xbf02968e	-0.5101098
128	0xbe3e3e5e	-0.18578479
129	0x3e79e53d	0.24403854
130	0x3e80a6ec	0.2512735
131	0x3d934cf6	0.071924135
132	0xbe2d5ff3	-0.16931133
133	0xbdae4ba0	-0.08510518
134	0x3e3d9d0f	0.18516944
135	0x3e0f3b87	0.13987552
136	0x3db6a06c	0.08917317
137	0x3ef011ff	0.4688873
138	0x3d8136ac	0.06309256
139	0xbe166256	-0.1468595
140	0xbec8b2ac	-0.39198816
141	0x3e3eb0f1	0.18622185
142	0xbe087b30	-0.13328242
143	0xbea18be9	-0.31552055
144	0xbc88fbb3	-0.016721582
145	0xbe12f95c	-0.14352936
146	0x3ea05348	0.3131354
147	0x3e19a7dc	0.1500544
148	0xbec5f13e	-0.38660616
149	0x3e655b8e	0.22398207
150	0x3d86531a	0.06558819
151	0xbef19ed2	-0.47191483
152	0x3dbe9412	0.09305586
153	0x3eeab13b	0.4583834
154	0xbe780a9e	-0.242228
155	0xbea7a66e	-0.32744163
156	0x3dec01bd	0.11523769
157	0xbeeb56c4	-0.45964634
158	0x3cb26c48	0.021780148
159	0xbe1619a9	-0.14658226
160	0xbd925279	-0.07144637
161	0x3e867b3a	0.2626589
162	0xbf0dca7a	-0.5538708
163	0xbf22daed	-0.63615304
164	0xbf1e20c1	-0.6176873
165	0xbda96ab2	-0.08272304
166	0x3dbd4c7d	0.092431046
167	0xbc06e1d0	-0.008232549
168	0x3dfebab1	0.12437952
169	0x3e8c0713	0.27349147
170	0x3de30ff1	0.11087025
171	0xbe577f67	-0.21044694
172	0x3e31c5f7	0.17360674
173	0xbdbcbe6b	-0.09216007
174	0x3c42df96	0.011894127
175	0xbec9202a	-0.39282352
176	0xbea4e8bf	-0.3220882
177	0xbe5fc07c	-0.2185077
178	0xbe2759e3	-0.16342883
179	0x3e98e551	0.29862455
180	0xbd8ae467	-0.067818455
181	0x3dbad576	0.09122746
182	0x3e60ff4c	0.21972388
183	0x3dd78b99	0.10524673
184	0xbe74e43b	-0.23915188
185	0xbf2ac6a0	-0.6670933
186	0xbd54e3b8	-0.051974982
187	0x3dc8ba3d	0.09801147
188	0x3eb17d66	0.34665984
189	0x3e51554b	0.20442693
190	0xbe646c1f	-0.2230687
191	0xbe9daf56	-0.30797833
192	0x3d3ff30a	0.04686264
193	0x3edfb85b	0.4369534
194	0xbe65f659	-0.22457255
195	0xbf00a9b4	-0.50258946
196	0x3d6ff3de	0.05858218
197	0x3e387528	0.18013442
198	0x3e1ffae3	0.1562305
199	0x3e031e11	0.12804438
200	0xbee9744b	-0.45596537
201	0x3e1c0221	0.15235187
202	0x3e63fba0	0.22263956
203	0xbf208a93	-0.6271145
204	0xbb747a20	-0.0037304237
205	0xbd40b2e5	-0.047045607
206	0xbf02ba13	-0.51065177
207	0xbf2846f3	-0.6573326
208	0xbd83fc48	-0.06444603
209	0xbc361108	-0.011112459
210	0xbdddec7c	-0.108361214
211	0x3e8a9d18	0.27072978
212	0xbc7ca45b	-0.015420045
213	0x3d6c2758	0.05765471
214	0x3ecb18c5	0.39667335
215	0xbe1c91b4	-0.15289956
216	0x3b4d22e9	0.0031301326
217	0xbd5b6334	-0.053561404
218	0xbeaf6791	-0.34258702
219	0xbd795e35	-0.06088086
220	0xbb236ae4	-0.0024935538
221	0x3eaddbb2	0.33956677
222	0xbf09dd9e	-0.53853786
223	0xbe93061c	-0.287156
224	0x3ec6d260	0.38832378
225	0x3e2ada12	0.1668475
226	0x3e6e4962	0.23270181
227	0xbc787a18	-0.015165828
228	0x3e187378	0.14887798
229	0x3e8042c3	0.25050935
230	0xbe1f6097	-0.1556419
231	0xbf2b8d5d	-0.6701258
232	0xbf480505	-0.7813266
233	0xbf1be69c	-0.60898757
234	0x3e39bcdd	0.18138452
235	0xbdba250b	-0.09089097
236	0xbef90a8f	-0.48640868
237	0x3e5d0c43	0.21586709
238	0xbd1f1240	-0.038835764
239	0xbef7338b	-0.48281512
240	0x3e6dce1b	0.23223154
241	0xbe6fc12c	-0.23413533
242	0xbec7cfdf	-0.3902578
243	0xbc4086a4	-0.011750851
244	0x3e296e8f	0.16546081
245	0x3de2d9a8	0.11076671
246	0xbf0f4028	-0.5595727
247	0x3e800d7a	0.25010282
248	0x3e34d788	0.17660344
249	0xbf120d59	-0.57051617
250	0xbbfbe856	-0.0076876087
251	0x3d5e3a6a	0.054254927
252	0xbef14419	-0.47122267
253	0x3d1d7e4b	0.03845052
254	0x3ebeece8	0.3729012
255	0xbcfc109f	-0.030769644

b0 f4 [32]
0	0x3ba8e5fe	0.0051543703
1	0x3c971fd2	0.01844779
2	0xbd8d297f	-0.068926804
3	0x3cbf2eca	0.02333774
4	0xbd10a27b	-0.035311203
5	0xbd34c59a	-0.04413376
6	0x3bcefd81	0.006316841
7	0x3d2b88c4	0.041878477
8	0xbc204681	-0.009782434
9	0x3d92f57c	0.07175729
10	0xbc227459	-0.009915435
11	0xbd486154	-0.048920944
12	0xbc65640e	-0.014000906
13	0xbd6c5cb7	-0.057705607
14	0xba565cfa	-0.0008177307
15	0x3c2fe549	0.010735818
16	0xbcf2bee2	-0.029632036
17	0xbc084939	-0.008318239
18	0xbd833e99	-0.06408424
19	0xbbe0de77	-0.0068624574
20	0x3b5ff5d1	0.0034173618
21	0xbd262224	-0.040559903
22	0xbccf9e49	-0.025344031
23	0x3c96ae0f	0.018393544
24	0xbc866901	-0.016407492
25	0xbd9e0767	-0.07716256
26	0x3b08ae82	0.0020855968
27	0xbc92cdeb	-0.017920455
28	0xbc7f2a1a	-0.015574003
29	0xbca29eab	-0.01985105
30	0xbd1baf56	-0.03800901
31	0xbdda07c0	-0.106460094

conv1 f4 [32, 32, 3, 3]
0	0xbd51de16	-0.05123719
1	0xbe15f74a	-0.14645115
2	0xbd7c6715	-0.061621744
3	0xbc32b6fb	-0.010907884
4	0xbc49545c	-0.012288179
5	0xbdbefcbe	-0.093255505
6	0xbdd2aa21	-0.10286356
7	0x3d580968	0.052743345
8	0xbb5acb2e	-0.0033385265
9	0x3dcff805	0.10154728
10	0x3c6d6c2b	0.014491121
11	0xbcbeeaae	-0.023305263
12	0xbc4f6ee8	-0.012660719
13	0x3df84b8a	0.12123783
14	0xbd0ce561	-0.03439844
15	0xbc7823a5	-0.015145217
16	0xbde862e7	-0.11346989
17	0x3d0b8904	0.034066215
18	0xbe015fc7	-0.12634192
19	0xbe69deab	-0.22838847
20	0x3e1757c2	0.1477957
21	0xbdfc26a5	-0.12312058
22	0xbb3650ee	-0.0027819234
23	0x3da2a0df	0.0794084
24	0x3d200334	0.039065555
25	0x3dc84895	0.09779469
26	0x3dcd2373	0.10016527
27	0x3dae3340	0.08505869
28	0xbd4ba153	-0.049714398
29	0xbd470922	-0.048592694
30	0x3e44dd09	0.19224943
31	0x3cbd0cc1	0.02307737
32	0x3dc7b051	0.097504266
33	0x3dbc5ef8	0.09197801
34	0xbd63cdc2	-0.055616148
35	0x3dd0fc9d	0.10204432
36	0x3d4c3af0	0.049860895
37	0xbd72ac0f	-0.05924612
38	0x3e3b49da	0.18289891
39	0xbd5eb992	-0.054376192
40	0xbd74e20f	-0.0597859
41	0xbd9ad198	-0.07559508
42	0x3d9f95d1	0.07792247
43	0x3dcb9689	0.09940822
44	0xbdd568b3	-0.104203604
45	0xbd9d4910	-0.07679951
46	0xbd9329ab	-0.07185682
47	0xbe9edfe8	-0.31030202
48	0x3d7cde57	0.061735477
49	0xbd813432	-0.063087836
50	0x3c535c68	0.012900449
51	0xbc06ecc4	-0.00823516
52	0x3db1ae19	0.086757846
53	0xbd8e0565	-0.06934623
54	0xbe55188d	-0.20810147
55	0xbec193b5	-0.37808004
56	0xbefd3a24	-0.4945842
57	0x3c91c685	0.017794857
58	0x3d20bcc4	0.03924252
59	0xbe6f4fe3	-0.23370318
60	0xbe263f94	-0.1623519
61	0x3d81a1fd	0.06329725
62	0xbe220f26	-0.15826091
63	0xbe19076f	-0.14944242
64	0xbd8da04e	-0.06915341
65	0x3d16581c	0.03670512
66	0x3d8a2394	0.06745067
67	0x3b90670a	0.0044068145
68	0x3de10b59	0.109884925
69	0xbe237f5b	-0.15966551
70	0xbe1c4069	-0.15258946
71	0x3c132852	0.008981781
72	0x3d94a8ce	0.072587594
73	0xbe237c66	-0.15965423
74	0xbdc6a739	-0.09699864
75	0x3e24da42	0.16098884
76	0xbd30f5b5	-0.043203074
77	0xbde56691	-0.112012036
78	0x3ec455e4	0.3834678
79	0x3e942b48	0.2893927
80	0x3e729143	0.23688225
81	0xbd61078e	-0.054938845
82	0x3dadb5e2	0.08481957
83	0x3dafeeee	0.08590494
84	0xbd3d41ca	-0.04620532
85	0x3cb26559	0.021776842
86	0xbc57f3f7	-0.013180724
87	0x3ca689bd	0.02032935
88	0x3d537384	0.051623836
89	0xbe39a738	-0.18130195
90	0x3cb3da0e	0.021954563
91	0xbd92d368	-0.07169229
92	0xbde42a4f	-0.11140882
93	0x3e1f82d6	0.15577254
94	0x3d494668	0.04913941
95	0xbd829a50	-0.06377089
96	0xbbc73343	-0.006079109
97	0x3c63a0ac	0.013893288
98	0xbdeda368	-0.11603433
99	0xbe2fd068	-0.17169344
100	0xbe31d1de	-0.17365214
101	0xbe6ba462	-0.23011926
102	0x3d581e9f	0.052763578
103	0xbd938bd6	-0.07204406
104	0xbe0249b5	-0.1272343
105	0x3e32aa66	0.17447814
106	0x3d09be85	0.03362896
107	0xbdc99812	-0.09843458
108	0x3dcab15f	0.09897112
109	0x3c8b2197	0.01698379
110	0xbda1675f	-0.078810446
111	0x3e11dcd1	0.14244391
112	0x3cd5a6d2	0.026080523
113	0x3df0b39b	0.11753007
114	0x3e1c96e2	0.15291932
115	0x3d247dda	0.040159084
116	0x3c897e39	0.01678382
117	0xbeab55a0	-0.33463764
118	0xbdf54d8d	-0.11977682
119	0xbe1b3624	-0.15157372
120	0xbe84a10e	-0.25904125
121	0x3d53af1d	0.051680673
122	0xbe187e3f	-0.14891909
123	0xbea47c22	-0.32125956
124	0xbe5ed5f0	-0.21761298
125	0xbdfeba2c	-0.12437853
126	0xbeb82177	-0.35963032
127	0xbda93010	-0.0826112
128	0xbe27ddfd	-0.16393276
129	0x3d962ad9	0.07332391
130	0x3ce31951	0.027722033
131	0x3d08454c	0.03326921
132	0x3e57191f	0.21005677
133	0xbcdf8146	-0.027283322
134	0x3b1697b7	0.0022978613
135	0x3da4f364	0.080542356
136	0x3cdbfb65	0.026853273
137	0x3e3cf97d	0.18454547
138	0x3c14409f	0.00904861
139	0xbd15ad3a	-0.036542155
140	0x3e2246b2	0.1584728
141	0xbd8c6f4a	-0.06857164
142	0xbdd99c0f	-0.10625469
143	0xbd601e76	-0.05471655
144	0x3cc64ec5	0.024207482
145	0xbe098735	-0.13430484
146	0xbcbaee76	-0.022818785
147	0x3b420297	0.0029603594
148	0xbd99256a	-0.07477839
149	0xbd69210b	-0.056916278
150	0x3e7b69f8	0.24552143
151	0x3e277227	0.1635214
152	0xbdadf4ae	-0.084939346
153	0x3d3848ba	0.044991232
154	0xbba4ed37	-0.005033161
155	0xbc2e0d39	-0.01062327
156	0x3db08290	0.08618653
157	0xbde69cd2	-0.1126038
158	0xbd3c40a5	-0.045960087
159	0x3ddb4be1	0.10707832
160	0xbe4abe3b	-0.1979913
161	0xbd7b9e10	-0.061430037
162	0xbe2dfcd7	-0.16990982
163	0xbe28619b	-0.16443484
164	0xbd0f1b5d	-0.034938205
165	0x3ccd370a	0.025050659
166	0x3e18261a	0.14858285
167	0x3d93cf5d	0.07217286
168	0xbd59ae79	-0.053144906
169	0xbe46cd9c	-0.19414371
170	0x3d7896e0	0.06069076
171	0xbea007d5	-0.31255975
172	0xbb8e02f0	-0.0043338463
173	0xbebfdc8c	-0.3747295
174	0x3c50ca77	0.012743584
175	0xbc2529d9	-0.010080778
176	0xbe1eabf5	-0.15495284
177	0xbe6cbfb0	-0.23119998
178	0xbe824a78	-0.2544744
179	0xbe5e0ca6	-0.21684512
180	0x3c705428	0.014668502
181	0x3dc23316	0.094824
182	0x3ed30a5e	0.41218847
183	0xbbfecb29	-0.0077756834
184	0xbdd4d2a5	-0.1039174
185	0x3df602d7	0.120122604
186	0x3cff1c02	0.031141285
187	0x3ddfa8b6	0.10920851
188	0x3e6f984c	0.2339794
189	0x3d233305	0.039843578
190	0x3d98d9c8	0.074634135
191	0xbd06d31f	-0.032916185
192	0xbd394fe2	-0.045242198
193	0xbc1d4827	-0.009599722
194	0x3c02bcd8	0.007979594
195	0x3e2d816a	0.16943899
196	0x3da66eb7	0.08126586
197	0x3e7b1542	0.24519828
198	0xbe20768a	-0.15670219
199	0xbe558716	-0.20852312
200	0xbe9f8c44	-0.31161702
201	0x3abfc33e	0.001463033
202	0xbd9235fa	-0.071392015
203	0xbea1182f	-0.31463763
204	0x3d13b914	0.036065176
205	0x3cbe7274	0.023247935
206	0xbebb8c03	-0.36630258
207	0x3d3334b6	0.04375144
208	0xbd02e222	-0.03195394
209	0x3d5034b6	0.05083152
210	0x3d7d19a3	0.061792027
211	0x3dc39a7b	0.09550949
212	0x3d887c9e	0.06664394
213	0x3e2e2315	0.1700557
214	0x3c4489b2	0.01199572
215	0xbdc0124c	-0.0937849
216	0x3e06d2c0	0.13166332
217	0x3df62b7a	0.12020011
218	0xbe971638	-0.2950914
219	0xbd2aa1e6	-0.041658305
220	0x3e64141c	0.22273296
221	0xbdc99bc9	-0.09844167
222	0x3d55b210	0.052171767
223	0x3e042af1	0.12907006
224	0xbd98d1b4	-0.07461873
225	0xbea6a5af	-0.32548282
226	0xbe2682eb	-0.16260879
227	0xbdd10a9e	-0.10207103
228	0xbd578bc7	-0.052623536
229	0xbe4d79c3	-0.2006598
230	0xbd92eb2a	-0.0717376
231	0xbea1b7f8	-0.3158567
232	0xbebeaa55	-0.37239328
233	0xbed29752	-0.41131073
234	0x3d35d030	0.044387996
235	0xbe939369	-0.28823403
236	0xbeda3d28	-0.42624784
237	0x3dd520f0	0.10406673
238	0xbcb69122	-0.022286002
239	0xbe50c54f	-0.20387767
240	0x3e5060a3	0.20349364
241	0x3e09e788	0.13467228
242	0xbe67b07b	-0.22625916
243	0xbb807152	-0.003919759
244	0xbd5f2e76	-0.054487668
245	0xbe70df74	-0.2352274
246	0xbc8381bd	-0.016053075
247	0xbba2067a	-0.0049446197
248	0xbca43828	-0.020046309
249	0x3cc04789	0.02347161
250	0x3de1810b	0.11010941
251	0x3d662df0	0.056196153
252	0x3d47b071	0.048752252
253	0x3dab5907	0.0836659
254	0x3e8b7530	0.27237844
255	0x3dbf351a	0.093363

b1 f4 [32]
0	0x3e3bb34f	0.1833012
1	0x3c822ed9	0.01589148
2	0xbc21c46d	-0.009873492
3	0xbd68f78b	-0.0568767
4	0x3c99db35	0.018781284
5	0x3a8fc36f	0.0010968278
6	0x3d98e736	0.07465975
7	0xbcd012c1	-0.025399568
8	0xbc54c761	-0.012986989
9	0xbd2f16f5	-0.042746503
10	0x3b8108f6	0.003937836
11	0x3d97dc79	0.07415099
12	0x3c910023	0.01770026
13	0x3ab249cb	0.0013602314
14	0x3b822c44	0.003972562
15	0xbb1edd7f	-0.0024240909
16	0x3b8856f4	0.0041607562
17	0xbcbff6f6	-0.02343319
18	0x3cdb19ea	0.026745755
19	0xbc30f84c	-0.010801386
20	0x3bdd7ae7	0.006759036
21	0x3d0af851	0.03392822
22	0x3bd75b80	0.006572187
23	0x3c1dd7bd	0.009633956
24	0x3d0b1f2a	0.033965267
25	0xbc8a3104	-0.016869076
26	0x3d8f6637	0.07001918
27	0x3cdc06c1	0.02685869
28	0x3b441903	0.0029922135
29	0x3bb17a5a	0.005416197
30	0xbaf8ecf5	-0.0018991517
31	0x3cf269b2	0.029591415

conv2 f4 [32, 32, 3, 3]
0	0x3d8593de	0.06522344
1	0x3d5f5bf2	0.054531045
2	0xbbd45c44	-0.0064807255
3	0x3ddf98fb	0.109178506
4	0xbcb253b4	-0.021768428
5	0x3dfa16a4	0.122113496
6	0x3d163d57	0.036679592
7	0x3d379fc7	0.04483011
8	0xbc675e79	-0.014121645
9	0x3d306246	0.04306247
10	0x3d1e4e34	0.0386488
11	0x3c5ee694	0.013604779
12	0x3d845cc6	0.06463008
13	0x3d1a1176	0.03761431
14	0xbd8be45a	-0.06830664
15	0xbcbf92ea	-0.023385484
16	0x3cbfa622	0.023394648
17	0x3d8f435d	0.069952704
18	0x3c15df72	0.009147512
19	0x3bd982b3	0.006637895
20	0xb98d77cc	-0.0002698287
21	0x3cb99aeb	0.022656878
22	0x3d513fb5	0.051086146
23	0xbb9d1eac	-0.004794916
24	0x3d70fbdb	0.058833938
25	0xbbc834da	-0.006109816
26	0xbcf92e82	-0.030417684
27	0xbbc2d380	-0.005945623
28	0x3cb40dc1	0.021979215
29	0x3b805e90	0.0039175227
30	0xbaad77e2	-0.001323458
31	0xbd801321	-0.062536485
32	0xbd5ca954	-0.05387242
33	0xbba184c4	-0.004929157
34	0xbbca406f	-0.006172232
35	0xbca23a84	-0.019803293
36	0x3d3f99a9	0.0467774
37	0xbd6ad0cf	-0.05732804
38	0xbd8c55a4	-0.06852272
39	0xbd618aeb	-0.055064123
40	0xbd090d5d	-0.03346001
41	0x3d87065f	0.06593012
42	0x3dd4d22c	0.103916496
43	0x3d051907	0.03249457
44	0x3cf71ebe	0.030166026
45	0x3d028666	0.031866454
46	0x3d3fd1dc	0.046830997
47	0xbc4ebf53	-0.012618857
48	0xbd8db18b	-0.06918629
49	0x3cca088f	0.024662284
50	0xbc1101c6	-0.0088505205
51	0x3dbe4fe3	0.09292581
52	0xbd1c45bb	-0.038152438
53	0x3c649789	0.013952144
54	0x3da105cd	0.078624345
55	0xbd81c8ae	-0.06337105
56	0x3d754d40	0.059888124
57	0xbd4c0514	-0.04980953
58	0x3dc74510	0.097299695
59	0xbd252878	-0.040321797
60	0xbbcb9455	-0.006212751
61	0x3cd6a893	0.02620343
62	0x3d3620e8	0.044464976
63	0x3d8cd293	0.06876101
64	0x3cdcc832	0.02695093
65	0x3d2f1437	0.042743888
66	0x3c774129	0.015091219
67	0x3d08c482	0.03339053
68	0xbce1fd17	-0.027586503
69	0x3d04f901	0.03246403
70	0xbd061466	-0.032734297
71	0x3d806e3f	0.06271028
72	0x3cd1ae28	0.02559574
73	0x3af416ed	0.0018622555
74	0xbc56419d	-0.013077167
75	0x3bc13772	0.005896502
76	0x3b9c4a95	0.004769633
77	0x3d7580c2	0.059937246
78	0x3cc371b0	0.023857921
79	0xbd247348	-0.040149003
80	0xbd182a20	-0.03714955
81	0xbd0e24be	-0.03470301
82	0x3d1d5fdf	0.038421508
83	0x3cb2d2b8	0.021828994
84	0x3d731bd6	0.05935272
85	0x3d91edd5	0.07125441
86	0xbd8e5079	-0.06948943
87	0x3dc47b0e	0.09593783
88	0x3c25158b	0.010075937
89	0x3d8f8c65	0.070092
90	0xbce8c083	-0.02841211
91	0x3dafaa70	0.0857743
92	0xbd9f8029	-0.077881165
93	0xbcc414ee	-0.023935761
94	0xbd5fd0a8	-0.05464235
95	0x3d5117ff	0.051048275
96	0x3d7f88d9	0.062386367
97	0xbb9b8d5c	-0.004747076
98	0xbd153875	-0.036430795
99	0x3d3f53dd	0.046710838
100	0xbd72a784	-0.059241787
101	0x3cdeeef5	0.027213553
102	0xbd80460e	-0.06263362
103	0xbc46d9c9	-0.012136885
104	0x3d908f66	0.07058601
105	0xbd407624	-0.046987668
106	0xbc92ff10	-0.017943889
107	0x3d199d19	0.037503336
108	0x3d7098f7	0.05873963
109	0x3ce3b20c	0.02779486
110	0xbd4d58c1	-0.05013347
111	0x3b7c6350	0.0038511343
112	0x3d549d4e	0.05190783
113	0xbc76cb25	-0.015063082
114	0xbdbf9c58	-0.09355992
115	0xbdb4a5b5	-0.088206686
116	0xbb7907f9	-0.0037999137
117	0x3cdbbdef	0.026823966
118	0xbcd7fd12	-0.02636579
119	0x3c30bc2f	0.010787054
120	0xbd40df8c	-0.04708819
121	0x3dc1b659	0.09458608
122	0x3c9ea178	0.019364104
123	0xbceee3f8	-0.029161438
124	0x3da991d6	0.08279769
125	0xbd55001d	-0.05200206
126	0xbcf9e358	-0.030503914
127	0x3cd46464	0.025926776
128	0xbc66c2f9	-0.014084571
129	0xbd556542	-0.05209852
130	0x3c8c7c66	0.017149162
131	0x3b0cbaa1	0.0021473544
132	0x3c8ff492	0.017572675
133	0x3c73f65e	0.0148902815
134	0x3bfc232c	0.0076946225
135	0x3ced9698	0.029002473
136	0x3c0fb9b3	0.0087723015
137	0x3d207613	0.039175104
138	0x3c9f3c63	0.019437974
139	0xbd5f542d	-0.054523636
140	0x3cdf021b	0.027222684
141	0xbc92c8da	-0.01791804
142	0x3d3de094	0.046356753
143	0xbd3bf7a4	-0.045890465
144	0x3c37dc69	0.0112219835
145	0xbccef046	-0.025261056
146	0xbba03a8e	-0.0048897928
147	0x3c92d9cb	0.017926117
148	0xbd6efbbb	-0.058345538
149	0x3cff104c	0.0311357
150	0xbd17e62c	-0.037084743
151	0x3d4e7922	0.05040849
152	0x3d11e942	0.035622843
153	0x3c5d9dcf	0.013526394
154	0x3addce41	0.001692243
155	0x3ca3ee41	0.02001107
156	0x3da53426	0.08066587
157	0xbbba77df	-0.0056905593
158	0x3b0f67b0	0.002188187
159	0x3c0b1f0d	0.00849129
160	0x3d7628f3	0.060097646
161	0xbb36e192	-0.0027905446
162	0xbc9ef917	-0.019405885
163	0x3d6edebe	0.058317892
164	0xbd6f2765	-0.05838718
165	0x3cfa3b4c	0.030545853
166	0xbd7a910a	-0.061173476
167	0x3d02bc71	0.031917993
168	0x3d6d4c88	0.057934314
169	0x3cdaa6d3	0.026690876
170	0xbd5e0591	-0.054204527
171	0x3b4100a8	0.0029449854
172	0xbcdb2f52	-0.026755963
173	0xbd162cb0	-0.03666371
174	0xbc84cb29	-0.016210156
175	0xbc983e9e	-0.018584546
176	0x3d2cf66d	0.042227197
177	0x3d30eee0	0.04319656
178	0xbceb47c4	-0.028720744
179	0x3d25f086	0.040512584
180	0x3dc96194	0.09833065
181	0xbd14b5cc	-0.036306188
182	0xbdc4b68c	-0.096051306
183	0xbbc425d8	-0.0059859566
184	0xbd6f31e6	-0.058397196
185	0xbd714bb6	-0.058910094
186	0xbd49728e	-0.049181513
187	0x3b1197ca	0.0022215717
188	0xbd58b914	-0.05291088
189	0x3d0a219c	0.03372346
190	0xbd316d25	-0.04331698
191	0xb9a55cce	-0.00031540397
192	0x3dcf633e	0.10126351
193	0xbcf93782	-0.030421976
194	0x3caacfb8	0.020851001
195	0xbc77ef90	-0.0151328
196	0xbbb7ff84	-0.0056151766
197	0xbcc6b9e2	-0.024258558
198	0xbc788572	-0.015168535
199	0x3c4a10e9	0.012333133
200	0x3b581fa2	0.003297784
201	0x3dd255bf	0.10270261
202	0xbc8cf5ca	-0.017207045
203	0x3d21a9e6	0.03946867
204	0xbd179442	-0.037006624
205	0x3d00f502	0.031483658
206	0xbc93af89	-0.018028038
207	0xbcbd1045	-0.023079047
208	0xbd329897	-0.043602552
209	0x3c5026ea	0.01270459
210	0x3d801701	0.06254388
211	0xbd12003f	-0.035644766
212	0xbd88df71	-0.06683243
213	0xbcaca834	-0.0210763
214	0x3cc0b77b	0.02352499
215	0x3c87dda1	0.016585173
216	0x3d24aa69	0.04020158
217	0xbd1c5b67	-0.038173106
218	0xbd1846d5	-0.037176926
219	0x3bc172df	0.0059035863
220	0x3d149ed8	0.036284298
221	0x3d3fc4b0	0.046818435
222	0x3d890803	0.06690981
223	0xbb53dc85	-0.0032327485
224	0x3b4348ff	0.0029798148
225	0x3c53d16f	0.012928351
226	0x3d3039d7	0.04302391
227	0xbd33c90c	-0.043892905
228	0x3b714700	0.0036816
229	0x3d422a17	0.04740342
230	0xbd22ac50	-0.03971511
231	0xbd682514	-0.056675985
232	0x3d8964f3	0.06708708
233	0xbd32f7b4	-0.04369326
234	0x3d1b4652	0.03790886
235	0xbccdf864	-0.025142856
236	0xbc5520f6	-0.013008347
237	0x3bea0604	0.0071418304
238	0xbc42e0c1	-0.011894406
239	0xbc6bba71	-0.014387713
240	0x3c55dd28	0.013053216
241	0x3c0422e8	0.008064963
242	0x3d0efcbc	0.034908995
243	0xbd88751d	-0.066629626
244	0xbd724cad	-0.059155155
245	0x3d132688	0.03592542
246	0xbe0baa54	-0.13639194
247	0xbcd00394	-0.025392331
248	0xbdee26cf	-0.11628496
249	0xbe0fbd21	-0.1403699
250	0x3cc4a150	0.024002701
251	0xbd6b3aec	-0.05742924
252	0x3cbb8c4b	0.022894045
253	0x3b3e3213	0.0029021546
254	0xbc30f3ff	-0.010800361
255	0xbce95e5d	-0.028487379

b2 f4 [32]
0	0x3cb38790	0.021915227
1	0x3d5a75e1	0.053335074
2	0xbc73f20e	-0.014889253
3	0x3b91849b	0.0044408566
4	0x3da076a7	0.07835131
5	0x3d5271cf	0.051378068
6	0x3e26e1b3	0.16297035
7	0xbc7a0208	-0.015259273
8	0x3d254235	0.040346343
9	0xbe95b7ce	-0.29241794
10	0x3d86c6e5	0.06580905
11	0x3dd35cae	0.103204116
12	0xbd9b17a7	-0.07572871
13	0xbe9e4054	-0.30908453
14	0x3d31a13a	0.04336665
15	0x3dbc81ab	0.0920442
16	0x3c91570a	0.017741699
17	0x3d36381b	0.0444871
18	0x3c25f6b1	0.010129617
19	0x3c9ab856	0.018886726
20	0x3da65d0d	0.08123217
21	0x3cf5f76a	0.030025203
22	0x3a1c832e	0.0005970475
23	0x3ddd230e	0.10797702
24	0xbc9a8963	-0.01886434
25	0x3d3223d9	0.04349122
26	0x3c0e744c	0.0086947195
27	0x3e7e9714	0.24862319
28	0x3d25d67f	0.040487763
29	0x3d77b1ef	0.060472425
30	0x3df1023d	0.11768005
31	0xbb4327f8	-0.0029778462

conv3 f4 [32, 32, 3, 3]
0	0xbd15af89	-0.036544356
1	0xbcdf8687	-0.027285827
2	0xbd871087	-0.06594949
3	0xbd995220	-0.07486367
4	0x3dd7652e	0.10517345
5	0xbca835f9	-0.020533549
6	0xbd39aeff	-0.045332905
7	0xbc8bca5f	-0.017064271
8	0xbd6c986c	-0.05776255
9	0x3e9a847d	0.30179206
10	0x3e60367e	0.21895787
11	0x3eb3790a	0.35053283
12	0x3e13c581	0.1443081
13	0xbc758a92	-0.014986651
14	0x3e190f25	0.14947183
15	0x3eb667fe	0.35626215
16	0x3ddc58e0	0.10759139
17	0x3ebb16bc	0.36540782
18	0xbd388256	-0.045046173
19	0x3cd5ecb8	0.026113853
20	0xbcaf37cc	-0.02138891
21	0xbd61f936	-0.055169307
22	0x3ce17c97	0.02752523
23	0x3da637f2	0.081161395
24	0xbd0d6c42	-0.03452707
25	0x3d2cf0b0	0.042221725
26	0x3c4c9876	0.012487521
27	0xbc99b72d	-0.018764103
28	0xbc25341c	-0.010083225
29	0xbd4c4ebc	-0.049879774
30	0xbc4db04d	-0.01255424
31	0x3d8762d8	0.0661065
32	0xbd8209c2	-0.063495174
33	0x3d434981	0.04767752
34	0xbd82d984	-0.06389144
35	0x3c5c3534	0.013440419
36	0xbde55ece	-0.11199723
37	0xbbccf78f	-0.006255097
38	0xbdc9852d	-0.098398544
39	0xbcc1efaf	-0.02367386
40	0x3d8f979e	0.070113406
41	0xbd36c90e	-0.044625334
42	0xbe1a84cc	-0.1508972
43	0xbd3da556	-0.046300255
44	0xbd485bf3	-0.048915815
45	0xbdfce388	-0.12348086
46	0xbc2f6625	-0.0107055055
47	0xbd6ba603	-0.057531368
48	0x3c10b4bf	0.008832156
49	0x3d58cd7f	0.05293035
50	0x3d26763d	0.040640105
51	0xbd87d39b	-0.066321574
52	0xbc431643	-0.011907163
53	0xbe0d97b4	-0.13827401
54	0x3d43db37	0.04781648
55	0xbba092d9	-0.004900318
56	0x3d2fdaac	0.04293315
57	0xbcc797fc	-0.024364464
58	0xbb880204	-0.004150631
59	0x3cc030fb	0.023460856
60	0xbbda1f38	-0.0066565536
61	0x3d4b41bb	0.049623232
62	0xbda68f69	-0.08132822
63	0x3d01b34a	0.031665124
64	0x3c4eb8cc	0.012617301
65	0x3cc3f99d	0.023922736
66	0x3ccc4241	0.024933936
67	0xbc95ca14	-0.018284835
68	0xbb31797a	-0.0027080462
69	0xbd0c3705	-0.03423216
70	0xbcdc0b13	-0.02686075
71	0x3d5d5818	0.05403909
72	0xbb8495f7	-0.0040461975
73	0xbcf9eace	-0.030507471
74	0x3c23f8c7	0.010008044
75	0x3d1045b6	0.03522273
76	0xbd7f8210	-0.062379897
77	0xbd65fa56	-0.056146942
78	0xbc8329a4	-0.016011067
79	0xbdbf21a1	-0.09332586
80	0x3caf8c0c	0.021429084
81	0xbd5a0d19	-0.053235147
82	0x3d878810	0.06617749
83	0xbbac9a0d	-0.0052673877
84	0x3d3c2732	0.045935817
85	0xbce8d097	-0.028419776
86	0x3c4705f0	0.012147412
87	0x3d47e7b0	0.04880494
88	0xbca34183	-0.0199287
89	0xba22eb8f	-0.00062149105
90	0x3ce31451	0.027719649
91	0x3d12c77c	0.035834774
92	0x3da9b899	0.08287162
93	0x3ca56786	0.020190965
94	0xbe52b074	-0.20575124
95	0xbbaedfee	-0.005336753
96	0x3da5060f	0.08057796
97	0xbde058a1	-0.109544046
98	0x3de338e2	0.11094834
99	0xbcd54215	-0.026032487
100	0x3d9633a9	0.07334072
101	0xbcdb9287	-0.026803268
102	0x3af85fd7	0.0018949461
103	0x3d5fa979	0.05460498
104	0xbd16082e	-0.036628895
105	0xbb8fce45	-0.004388603
106	0x3d314874	0.043281987
107	0x3d68bd37	0.056821074
108	0xbcf7eede	-0.030265268
109	0x3d1dd672	0.03853459
110	0xbd467c1f	-0.048458215
111	0x3cb8a23f	0.022538302
112	0xbc8a58ce	-0.016888048
113	0x3c5fed8c	0.013667475
114	0x3d28ccc8	0.04121092
115	0x3b8ec1c7	0.004356596
116	0x3d9dcd0d	0.07705126
117	0x3d3e50f2	0.046463914
118	0xbb5a7094	-0.0033331262
119	0xbcec26ea	-0.02882715
120	0x3c7e8bc6	0.015536254
121	0x3d63c170	0.0556044
122	0x3c7a6ab1	0.015284226
123	0x3d2ef36b	0.04271261
124	0xbd8c10c1	-0.06839133
125	0x3d8e7f4c	0.06957874
126	0x3d09b137	0.03361627
127	0x3d51fa89	0.05126432
128	0xbb747af8	-0.003730474
129	0xbdc4a7a5	-0.09602288
130	0x3d6c53c6	0.05769708
131	0x3d771483	0.060322296
132	0x3d48861c	0.04895602
133	0xbd884a73	-0.06654825
134	0xbd2d2fb2	-0.042281814
135	0xbca6b5a1	-0.02035028
136	0xbc09b369	-0.008404591
137	0xbb758d45	-0.0037468236
138	0x3ce02085	0.027359257
139	0x3c0ee1db	0.00872084
140	0xbbf0db44	-0.0073503572
141	0x3b643d16	0.003482645
142	0xbce58dac	-0.028021656
143	0x3c4cdd52	0.012503939
144	0x3d4f7b9f	0.050655004
145	0xbd56993c	-0.05239223
146	0xbd57354d	-0.052541066
147	0xbd53c897	-0.05170497
148	0x3d4cc221	0.049989823
149	0x3d608631	0.054815475
150	0xbd9512b4	-0.07278958
151	0xbc240c14	-0.010012645
152	0x3d8218a6	0.063523576
153	0x3c6d9f09	0.014503249
154	0x3cc42b06	0.023946296
155	0x3d3265f1	0.04355425
156	0x3de16e95	0.1100742
157	0x3d7af063	0.061264407
158	0xbd39eedd	-0.045393813
159	0x3cb461f0	0.022019356
160	0x3db7381e	0.089462504
161	0x3dd75812	0.10514845
162	0x3b2a6059	0.002599737
163	0xbd533e69	-0.05157319
164	0x3cf68d47	0.030096663
165	0xbd607092	-0.054794855
166	0x3b28070f	0.0025638973
167	0xbcdb326c	-0.026757441
168	0xbd43262e	-0.047643833
169	0x3c81160c	0.015757583
170	0x3c9fbe69	0.019499974
171	0xbb5b50bf	-0.0033464876
172	0x3cc36275	0.023850659
173	0x3ced68d4	0.02898065
174	0x3ce4a49f	0.027910529
175	0xbd35494c	-0.044259354
176	0xbdb762ef	-0.08954417
177	0x3ca0bf4f	0.019622473
178	0x3cb50e93	0.022101676
179	0x3c30679c	0.01076689
180	0xbd86eb81	-0.065878876
181	0xbcace379	-0.021104561
182	0xbd236b22	-0.03989709
183	0xbd931e1b	-0.071834765
184	0xbc9503a4	-0.018190213
185	0x3d21a344	0.039462343
186	0xbd830403	-0.063972495
187	0x3cb51724	0.02210576
188	0xbe271fcb	-0.16320722
189	0x3da91af1	0.08257092
190	0x3d2eb1bf	0.04264998
191	0xbd7a69d0	-0.061136067
192	0xbd773de5	-0.06036176
193	0xbcc0b170	-0.023522109
194	0x3d8a5076	0.06753628
195	0x3c9bbdbf	0.019011376
196	0xbc768320	-0.015045911
197	0x3d24724f	0.040148076
198	0x39e69d56	0.00043986243
199	0xbc81b0e5	-0.01583142
200	0xbd263d72	-0.040585943
201	0xbd4e5512	-0.050374098
202	0xbd30579c	-0.0430523
203	0x3d121779	0.035666917
204	0x3d8f1832	0.06987037
205	0xbd79f09d	-0.061020482
206	0xbd2b1e32	-0.041776843
207	0x3ddc38ad	0.107529975
208	0x3b81c0ca	0.00395975
209	0x3e00094a	0.12503543
210	0x3d802cff	0.06258582
211	0x3c0848d6	0.008318147
212	0x3d4f072d	0.050543953
213	0xbd8977b6	-0.06712286
214	0x3dbaab87	0.091147475
215	0xbad157cc	-0.00159716
216	0xbc24d7b0	-0.0100611895
217	0xbc4110b1	-0.011783765
218	0xbda6b633	-0.081402205
219	0xbc13e035	-0.009025623
220	0xbcd45104	-0.025917538
221	0xbb8c7e0b	-0.0042874864
222	0xbc3ef4aa	-0.011655012
223	0xbde9a70c	-0.11408815
224	0xbd0fc525	-0.03510012
225	0x3df7702b	0.12081941
226	0x3d8108ae	0.06300484
227	0x3d9141db	0.07092639
228	0x3b0fd006	0.002194406
229	0xbd2e162f	-0.042501625
230	0x3d48c28e	0.049013667
231	0x3dd8e89f	0.10591244
232	0x3aef00fc	0.0018234546
233	0x3e00554c	0.12532538
234	0xbc41c7cc	-0.01182742
235	0xbcbc8a7d	-0.023015255
236	0xbd1e954f	-0.03871661
237	0x3d4a2ba9	0.049358044
238	0xbd3b160f	-0.045675334
239	0xbd227b06	-0.039668106
240	0xbdc2220f	-0.094791524
241	0x3c2ce3e3	0.010552379
242	0x3c7474dc	0.01492044
243	0xbd379505	-0.04481985
244	0x3d1fccf6	0.039013825
245	0xbc15fe23	-0.009154829
246	0xbb5bced9	-0.003354004
247	0xbd427719	-0.04747686
248	0x3be0eb66	0.006863999
249	0x3d707a58	0.058710426
250	0xbcf9540c	-0.030435584
251	0x3da5e20a	0.08099754
252	0x3d8e384e	0.06944333
253	0xbd7f33a0	-0.062305093
254	0xbbd44d20	-0.0064789206
255	0x3cad2050	0.021133572

b3 f4 [32]
0	0x3e0f6a41	0.14005376
1	0x3e14c4ef	0.14528249
2	0x3e25a442	0.1617594
3	0x3e35d5cd	0.1775734
4	0x3e2dce72	0.16973284
5	0x3e33db77	0.17564188
6	0x3db6342a	0.08896668
7	0x3e32aa89	0.17447866
8	0x3e24e526	0.16103038
9	0x3d917d39	0.071039625
10	0x3e3dcb2e	0.18534538
11	0x3e217859	0.15768565
12	0x3e1f8e22	0.15581563
13	0x3e1e6e04	0.15471655
14	0x3df6be09	0.12047965
15	0x3dfe6e43	0.124233745
16	0x3df6d066	0.120514676
17	0x3e068ad9	0.13138904
18	0x3dcb10d4	0.09915319
19	0x3e292fa8	0.16522086
20	0x3e1f67cf	0.15566944
21	0x3e05dbb7	0.13072096
22	0x3e1138aa	0.14181772
23	0x3daaa3a8	0.08331996
24	0x3dd9e829	0.10639984
25	0x3e0c7ad2	0.13718727
26	0x3e5cbe92	0.21557072
27	0x3dea1a87	0.11430841
28	0x3e2c7714	0.168423
29	0x3df094a3	0.117471
30	0x3dda59e2	0.10661675
31	0x3df6aa9f	0.12044262

w4 f4 [5, 32]
0	0xbfd447a3	-1.6584362
1	0xbff37df0	-1.9022808
2	0x3ea2ea22	0.31819254
3	0xbfe5ae12	-1.7943747
4	0x3f2d58d9	0.67713696
5	0x3f8b8b78	1.0901937
6	0xbdd18155	-0.10229746
7	0xbfd8c388	-1.6934671
8	0x3ff7e087	1.9365395
9	0xbf976410	-1.1827412
10	0xbd1788eb	-0.03699581
11	0xbfc5efc5	-1.5463797
12	0x400eea93	2.2330673
13	0xbef4ae40	-0.47789192
14	0x400c2d9a	2.1902833
15	0xbfdf92d0	-1.7466679
16	0x3f45452f	0.7705869
17	0x3f78ce5b	0.97189873
18	0xbff331bb	-1.8999552
19	0x400de520	2.2171097
20	0x3f4f2227	0.8091149
21	0xbfe651ba	-1.7993691
22	0xbf049a45	-0.51797897
23	0xbfc5d6cc	-1.5456176
24	0x3f0b58cd	0.54432374
25	0xbe9a5733	-0.30144653
26	0xbf9e9bdc	-1.2391315
27	0x400ba016	2.1816459
28	0xbdcbd16c	-0.099520534
29	0xbfca3236	-1.5796573
30	0x3dd6a48a	0.10480602
31	0xbf4c10fb	-0.7971341
32	0xbf9051d7	-1.1274976
33	0x4005b3ce	2.0890994
34	0x3f5c9c85	0.8617633
35	0x3f8feb8e	1.124376
36	0xbf988421	-1.1915323
37	0xbfa51af0	-1.2898846
38	0xbf8ff3fd	-1.1246334
39	0x3fea402c	1.8300834
40	0xbfbf7c20	-1.4959755
41	0xbf61e6e2	-0.88242924
42	0xbff4c965	-1.9123961
43	0xbfc86575	-1.5655962
44	0xbf40c2c2	-0.75297177
45	0xbf3387b2	-0.7012893
46	0x3e152391	0.14564349
47	0xbfda929c	-1.7075992
48	0x400c890c	2.1958647
49	0xbfbb7116	-1.4643886
50	0x3ef89f07	0.48558828
51	0xbf9f37db	-1.2438921
52	0x3fd2912c	1.6450553
53	0xbfba54bc	-1.4557109
54	0x4012611e	2.2871776
55	0x3f7ca8f0	0.9869528
56	0xbfb4ffa0	-1.414051
57	0xbf490a7d	-0.7853163
58	0x400881d8	2.132925
59	0xbfa0ab1c	-1.2552218
60	0x400b04d6	2.1721702
61	0xbcf4c2ec	-0.029878102
62	0xbf42542e	-0.759097
63	0xbf7ded4a	-0.991902
64	0x3ff68bdc	1.9261432
65	0x3ecd0513	0.40042934
66	0xc003c9ba	-2.0591874
67	0xbfb8e357	-1.4444379
68	0xbfdf4d49	-1.744546
69	0x3fef334d	1.8687531
70	0x400044a8	2.0041904
71	0x3fa2f0ff	1.2729796
72	0xbfceb1ed	-1.6148049
73	0x400d479c	2.2074957
74	0x3f3b8cbc	0.7326162
75	0x3e65aa1a	0.2242817
76	0xbf90c211	-1.1309224
77	0xbfd93ffe	-1.6972654
78	0xbfbffbc8	-1.4998713
79	0xbf61afa4	-0.8815863
80	0xbfc6f155	-1.5542399
81	0xbf999ed0	-1.2001591
82	0x40002ed6	2.0028586
83	0x3ed607ec	0.4180292
84	0x3fc36f18	1.5268278
85	0x3e90171d	0.28142634
86	0xbeb2cb2d	-0.34920636
87	0xbf142e49	-0.57883126
88	0x3fbdb1a5	1.4819838
89	0xbf8ea480	-1.1143951
90	0xbfd6d17d	-1.6782681
91	0xbf8df837	-1.1091374
92	0xbfd9f44b	-1.7027677
93	0xbf82e6bd	-1.0226666
94	0x400f39fc	2.237914
95	0xbf99c278	-1.2012472
96	0xbfb3ec9e	-1.4056585
97	0x3f71a63d	0.94394284
98	0x3fbbb9be	1.4666059
99	0xbf13ab06	-0.57682836
100	0xbfc48983	-1.5354465
101	0xbf3f26e7	-0.74668735
102	0x3e5e59dc	0.21713966
103	0xbfcef762	-1.6169245
104	0x3f89326d	1.0718514
105	0xbf6631ab	-0.8991954
106	0xbf1c6fe3	-0.61108226
107	0x400063cf	2.0060918
108	0xbfc5ea3c	-1.5462108
109	0xbfbdd740	-1.4831314
110	0xbfbc678e	-1.4719102
111	0x3fd2038e	1.6407335
112	0xbf458fc5	-0.771725
113	0x3ff31b5e	1.8992727
114	0x3f3cc9c4	0.7374537
115	0xbfd7023a	-1.6797554
116	0xbfdbe10f	-1.7178057
117	0xbf58f11b	-0.847429
118	0xbfcf8526	-1.6212509
119	0x3ff4b1e5	1.9116789
120	0x3fa06303	1.2530216
121	0x400a81eb	2.1641796
122	0xbfbf9bb4	-1.4969392
123	0xbd7265a7	-0.059178974
124	0xbec2a7a7	-0.38018534
125	0x40046d2d	2.0691636
126	0xbfae040e	-1.3594987
127	0xbf30ff81	-0.6913987
128	0x3fa1c626	1.2638595
129	0xbf71ee77	-0.94504493
130	0xbe47c727	-0.19509564
131	0x400104fe	2.0159297
132	0x400306d0	2.0472908
133	0xbfaffd7e	-1.3749235
134	0xbfc8fafc	-1.5701594
135	0x3f1b6da2	0.6071416
136	0x3ef1ce37	0.47227642
137	0xbee66e85	-0.45006195
138	0x400fe6c3	2.2484596
139	0xbeec016d	-0.46094838
140	0xbd9af13a	-0.075655416
141	0x400ca84e	2.1977725
142	0xbfac05b7	-1.3439244
143	0x3e9e5fbb	0.30932412
144	0xbfcf1f5a	-1.6181443
145	0xbf9612ce	-1.1724489
146	0xbf91684a	-1.1359951
147	0xbf658771	-0.8965979
148	0xbfc90e86	-1.5707557
149	0x400225d6	2.0335593
150	0xbfa36973	-1.2766556
151	0xbfb3558c	-1.4010482
152	0xbfdd9d6c	-1.7313666
153	0xbeed7056	-0.46374768
154	0x3f25f384	0.648247
155	0xbfa5b6ca	-1.2946408
156	0xbfbcf610	-1.4762592
157	0xbec428af	-0.3831229
158	0xbe6fcadd	-0.2341723
159	0x400c0698	2.1879025

b4 f4 [5]
0	0x3de4534f	0.11148702
1	0x3aa85e83	0.001284555
2	0xbd9de04b	-0.07708796
3	0x3ced1a10	0.028943092
4	0xbdeed14f	-0.11661016

exp_avg f4 [32, 1, 3, 3]
0	0xbb4b1f86	-0.0030994131
1	0xb9f5653f	-0.00046805476
2	0x397df9f7	0.0002422108
3	0x3a8c40c4	0.0010700454
4	0x39a34b06	0.0003114568
5	0x3afd05e1	0.001930412
6	0xb91fddd3	-0.00015246058
7	0x398a46cf	0.00026374168
8	0x3a8157ba	0.0009868063
9	0x3ada1f57	0.001664142
10	0x3a1a2827	0.0005880617
11	0x3ae9756b	0.0017811483
12	0x385aba67	5.214885e-05
13	0x386e32b8	5.6790857e-05
14	0x3a3868c5	0.0007034655
15	0xbaff9a7c	-0.0019500996
16	0xb93f055d	-0.00018217177
17	0x3a0d76e3	0.00053964386
18	0xbaca2e19	-0.0015425115
19	0xb73634fd	-1.0860383e-05
20	0xba96daf2	-0.0011509343
21	0xba80b1e5	-0.0009818642
22	0x3a9a46b9	0.0011770345
23	0xba55b627	-0.0008152448
24	0xbb039a21	-0.0020080882
25	0x39e63192	0.0004390595
26	0x3a327f70	0.0006809151
27	0xba90d2bb	-0.0011049131
28	0xba081b9d	-0.0005192103
29	0xb9604ab3	-0.00021390132
30	0xb9bfe4be	-0.00036600785
31	0xba603b1b	-0.0008553729
32	0xba8329e6	-0.0010006994
33	0xbb1384f1	-0.002250966
34	0xba2a0d96	-0.000648701
35	0xb987bad3	-0.000258884
36	0xb8babc78	-8.904276e-05
37	0xbac2e919	-0.0014870494
38	0xba5ff59c	-0.00085433736
39	0xbab804ac	-0.0014039478
40	0xbb3f5f4a	-0.0029201084
41	0xbb255b2c	-0.0025231345
42	0xbb47ffe6	-0.0030517518
43	0xbb8259d2	-0.0039779926
44	0xbb0fef19	-0.0021962582
45	0x3ac9e32b	0.0015402784
46	0x39771e2a	0.00023566993
47	0x398ea232	0.00027205196
48	0x3ab800e9	0.0014038357
49	0x39c9047d	0.00038341052
50	0x38af5742	8.360903e-05
51	0x3990e381	0.00027635324
52	0x3a0c426c	0.0005350474
53	0xb84f9497	-4.949103e-05
54	0x3a01bc9e	0.00049490656
55	0xba0943a8	-0.0005236217
56	0x399992ac	0.00029291713
57	0xbac8acf7	-0.0015310337
58	0xbac83c2d	-0.0015276723
59	0xba9c0859	-0.0011904343
60	0xbb4477d8	-0.002997866
61	0xba250289	-0.0006294628
62	0x37d174d3	2.4969142e-05
63	0x3b377e45	0.0027998846
64	0x3b38d3c6	0.0028202399
65	0x3b4d02be	0.0031282152
66	0x3b20a576	0.0024512685
67	0x3b0f93b2	0.0021908102
68	0x3b1d9bf8	0.0024049263
69	0x3abe012f	0.0014496202
70	0x3aa3d524	0.0012499434
71	0x3af351eb	0.0018563842
72	0x39500df0	0.00019841618
73	0x3ac3d9e9	0.0014942262
74	0xb950e42d	-0.00019921428
75	0x3ad8453c	0.0016500126
76	0x3ad10402	0.0015946629
77	0x39fda954	0.0004838208
78	0x3aa76fb3	0.0012774378
79	0x3a04b485	0.00050623
80	0xba2cd216	-0.00065925845
81	0x39942ac7	0.0002826063
82	0xba24938c	-0.000627809
83	0xb8d6ae2d	-0.00010236758
84	0x3af35954	0.001856605
85	0x3aa01c43	0.0012215454
86	0x3ac426fd	0.0014965233
87	0x39967b1b	0.0002870195
88	0x3a39ede4	0.00070926384
89	0x3a361c30	0.0006946949
90	0xb88bbaad	-6.6628076e-05
91	0xbb20e826	-0.0024552434
92	0x3952d65c	0.00020107016
93	0x39141318	0.00014121493
94	0xbb6faebc	-0.0036572656
95	0xbb0a8ecb	-0.002114224
96	0xbb144af7	-0.002262769
97	0xbb882504	-0.004154803
98	0xbae35d74	-0.0017346577
99	0x3a89e33e	0.0010519994
100	0x38aea4e4	8.32768e-05
101	0xbadf4359	-0.0017033621
102	0x3adbec1b	0.0016778739
103	0x3a3419f8	0.0006870325
104	0xbb02c52b	-0.0019953947
105	0x3ae16a07	0.0017197736
106	0x3a81c9c7	0.0009902053
107	0xbaa7092a	-0.001274382
108	0x3aa56898	0.0012619672
109	0x3a720004	0.000923157
110	0x3a0fc9cd	0.0005485088
111	0x3b0c6aa9	0.002142588
112	0x3a3f336e	0.00072937354
113	0x3a2d6431	0.0006614356
114	0x3ac57ee0	0.0015067719
115	0xb911236a	-0.0001384147
116	0xba92612b	-0.0011167874
117	0x3a9736dd	0.0011536736
118	0xba82a304	-0.0009966795
119	0x3b3a6447	0.0028441118
120	0xb9d302cb	-0.00040247137
121	0xbaa5f33a	-0.0012660988
122	0x3b197099	0.002341306
123	0xb9d734cf	-0.0004104734
124	0x39ddafee	0.00042283483
125	0x3bb3d4f0	0.0054880306
126	0x3a0c5313	0.0005352955
127	0x3a85c48b	0.0010205669
128	0xb99be27b	-0.00029732645
129	0x3a93ecc9	0.0011285777
130	0x3af79d63	0.0018891509
131	0x3b0865d4	0.0020812647
132	0x3aa25e58	0.0012387736
133	0x3b30c9db	0.0026975784
134	0x3a298465	0.00064665667
135	0xbaf05d4b	-0.001833835
136	0xbb88772b	-0.0041645966
137	0xbb2296b2	-0.002480906
138	0xbb290c71	-0.002579477
139	0xbb697ef6	-0.0035628653
140	0xbad04bc1	-0.0015891717
141	0xba721232	-0.00092342787
142	0xbb04d4f2	-0.0020268527
143	0xbb0fb638	-0.002192868
144	0xbb5ebe9d	-0.0033988126
145	0xbaac4759	-0.0013143822
146	0xbb40989e	-0.0029387842
147	0xba9d6d9a	-0.0012010813
148	0xba8bfc39	-0.0010680027
149	0xbb0dafa0	-0.0021619573
150	0xb8540b0e	-5.0555034e-05
151	0xbb04cc9b	-0.0020263556
152	0xbb4a26da	-0.0030845911
153	0xbaf58a3f	-0.0018733217
154	0xbab71fbb	-0.0013971248
155	0x38bb40dc	8.928936e-05
156	0x3928f491	0.00016112837
157	0xba770416	-0.0009422911
158	0xb917375d	-0.00014421107
159	0x3ae36bb8	0.0017350828
160	0xba49e8c3	-0.00077022257
161	0xb9ac3e12	-0.00032852642
162	0xba670c88	-0.0008813818
163	0xb9e4514d	-0.00043548123
164	0xba004582	-0.000489317
165	0xbb1987c4	-0.002342687
166	0xb9d2a986	-0.00040180626
167	0x3a025b67	0.00049727265
168	0xbbb251e5	-0.0054418915
169	0xbb301d63	-0.0026872985
170	0xba5bf341	-0.00083904347
171	0xbb043678	-0.0020174067
172	0xbaf50bc9	-0.0018695529
173	0x3824fa1b	3.9333576e-05
174	0xba7781ac	-0.0009441625
175	0xb98fc707	-0.00027423372
176	0xba4558be	-0.0007528177
177	0x3a2a6815	0.0006500495
178	0xb8e7e42e	-0.0001105744
179	0xbad33d80	-0.0016116351
180	0xb9e45b3d	-0.00043555527
181	0xb99636c2	-0.00028651027
182	0xba1b091d	-0.0005914139
183	0x392dea6b	0.00016585893
184	0x397a83b5	0.00023890923
185	0x3a6d1220	0.00090435334
186	0x39b8b62b	0.0003523094
187	0xb9f79774	-0.00047224353
188	0x3a823b7c	0.0009935941
189	0x3b85d5fa	0.004084346
190	0x3b7a6b47	0.0038210915
191	0x3b0cec37	0.00215031
192	0x3aedc36a	0.0018139903
193	0x3a937f87	0.0011253216
194	0x3af68a1d	0.0018809472
195	0x3aedff60	0.0018157773
196	0x3b3aa2ea	0.0028478452
197	0x3b96c5eb	0.0046012304
198	0xbb1e9bd6	-0.0024201772
199	0xbb197abd	-0.0023419105
200	0xbaaae0d3	-0.0013036974
201	0xbb498dea	-0.0030754753
202	0xbace1740	-0.0015723482
203	0xb9c99a7c	-0.00038452807
204	0xbb0a6fe4	-0.002112382
205	0xb88f7775	-6.841022e-05
206	0xb988edf9	-0.00026117245
207	0x37cd62fb	2.4483996e-05
208	0xba5e9aa4	-0.0008491671
209	0x3ae86ef6	0.0017733264
210	0xb99f9687	-0.00030438995
211	0x38fa14a1	0.000119247714
212	0x3affd488	0.0019518295
213	0xba8a4251	-0.0010548328
214	0xba25b35c	-0.0006320977
215	0x3a2167f9	0.0006157156
216	0x3b9cb2ca	0.0047820555
217	0x3b113636	0.0022157556
218	0x3ab9e7a3	0.0014183413
219	0x3ae908df	0.0017779133
220	0x3b24fd2f	0.0025175323
221	0x3b4cfeea	0.003127987
222	0x3aad8397	0.0013238069
223	0x3afedff4	0.0019445405
224	0x3ab8959a	0.0014082671
225	0x3a905195	0.0011010641
226	0x3a8a3fdf	0.00105476
227	0x3b00ca83	0.0019651956
228	0xba47f567	-0.00076278154
229	0x393b7183	0.00017875996
230	0x3b2c54e3	0.0026295714
231	0xba1c7b5e	-0.0005969311
232	0x3aa3d2a1	0.0012498685
233	0x384ca968	4.8795162e-05
234	0x3a1da9d8	0.00060143834
235	0x3a9388a5	0.0011255933
236	0x39c23171	0.000370394
237	0x3a26bad1	0.0006360235
238	0x3aea9ad9	0.0017898931
239	0x396c183a	0.00022515739
240	0xba6ffa14	-0.0009154391
241	0x392d2882	0.00016513656
242	0x396db21c	0.00022668432
243	0xb9fd2a12	-0.00048287265
244	0x3a96d70d	0.0011508182
245	0x3aca35cb	0.0015427409
246	0x3b003c27	0.0019567104
247	0x3aef450e	0.0018254833
248	0x3b5f23d7	0.0034048462
249	0x3ab33712	0.0013673028
250	0xba0448b7	-0.0005046236
251	0x3a7d6905	0.0009666833
252	0x3a83eac4	0.0010064472
253	0x3ab093f5	0.0013471829
254	0xba91f560	-0.001113575
255	0x3b1dbab7	0.002406759

exp_avg_sq f4 [32, 1, 3, 3]
0	0x38a9b897	8.0929305e-05
1	0x38c8fddd	9.584029e-05
2	0x38dbb84f	0.00010477064
3	0x37ba0281	2.2174094e-05
4	0x38182c59	3.6280926e-05
5	0x38934a2e	7.023323e-05
6	0x37d0e32d	2.490132e-05
7	0x3821ea5e	3.8603663e-05
8	0x384fd290	4.9548747e-05
9	0x389f5d8e	7.599137e-05
10	0x386923e4	5.5584955e-05
11	0x38601e26	5.343384e-05
12	0x38c6f669	9.487273e-05
13	0x38b12c39	8.448255e-05
14	0x38bdb788	9.046408e-05
15	0x38ed2721	0.00011308329
16	0x38e05c96	0.00010698398
17	0x38f25c79	0.000115566836
18	0x38239ac9	3.9006383e-05
19	0x380699a7	3.209119e-05
20	0x389b340e	7.400672e-05
21	0x3895f604	7.150698e-05
22	0x388b8409	6.65263e-05
23	0x38a328ad	7.780022e-05
24	0x3816cc54	3.5953082e-05
25	0x37bb35cf	2.2317194e-05
26	0x382b8907	4.0897194e-05
27	0x389ecbe3	7.572004e-05
28	0x38568d9a	5.1153453e-05
29	0x382b953b	4.090856e-05
30	0x38b06733	8.411556e-05
31	0x388bba72	6.662765e-05
32	0x3882f800	6.245077e-05
33	0x389d55f4	7.5023534e-05
34	0x38a9d232	8.0977e-05
35	0x38ac82a0	8.22593e-05
36	0x388feeec	6.863274e-05
37	0x3844d1c6	4.692541e-05
38	0x378d47e0	1.684198e-05
39	0x389c22b3	7.445123e-05
40	0x389ebbff	7.569044e-05
41	0x384b111e	4.8414913e-05
42	0x38d315b3	0.00010065306
43	0x38b93a8a	8.832391e-05
44	0x38ab0a93	8.155885e-05
45	0x37a05af9	1.9115849e-05
46	0x37358ea7	1.08216545e-05
47	0x36e2e3c3	6.76184e-06
48	0x388a8192	6.604487e-05
49	0x381a2d84	3.675885e-05
50	0x37a610fa	1.9796647e-05
51	0x38b09f4b	8.4220046e-05
52	0x38db7216	0.00010463984
53	0x3896691e	7.172137e-05
54	0x3793805a	1.7583534e-05
55	0x3788bd59	1.6300635e-05
56	0x37c23d28	2.315508e-05
57	0x38ccac28	9.7595446e-05
58	0x383f1c70	4.5564433e-05
59	0x372e37e2	1.0384219e-05
60	0x397e4635	0.00024249482
61	0x38c6978f	9.469606e-05
62	0x377b039b	1.4961605e-05
63	0x388e3090	6.780133e-05
64	0x388b4e35	6.642604e-05
65	0x38b73037	8.735101e-05
66	0x384af105	4.838502e-05
67	0x3844062c	4.673579e-05
68	0x389ea100	7.564016e-05
69	0x3785f41e	1.5968511e-05
70	0x37688819	1.3859965e-05
71	0x384747e6	4.7512258e-05
72	0x38e998dd	0.00011138779
73	0x38adf0b1	8.294115e-05
74	0x38c491b1	9.3731454e-05
75	0x38d5cf23	0.00010195214
76	0x3869e54a	5.576507e-05
77	0x389dcd38	7.524568e-05
78	0x38ae8191	8.3211e-05
79	0x382c94ac	4.1146457e-05
80	0x388d6a4f	6.7432054e-05
81	0x37bf2670	2.2786873e-05
82	0x385aaa30	5.213375e-05
83	0x388260f5	6.216943e-05
84	0x38336646	4.2772175e-05
85	0x38948c4c	7.083322e-05
86	0x38b2e878	8.531002e-05
87	0x3861a21d	5.379516e-05
88	0x388427e6	6.301682e-05
89	0x38942b74	7.065284e-05
90	0x3890685b	6.885893e-05
91	0x38daac3b	0.000104271305
92	0x38c983e9	9.608997e-05
93	0x38cc9002	9.7543016e-05
94	0x3913e8d5	0.00014105749
95	0x38722b31	5.773752e-05
96	0x3920d9e4	0.0001533996
97	0x39081054	0.00012976053
98	0x384898a4	4.7825873e-05
99	0x38cfd116	9.9094745e-05
100	0x37fd3736	3.018566e-05
101	0x385b3cbd	5.2270236e-05
102	0x38d30349	0.00010061876
103	0x3874c2c6	5.835553e-05
104	0x38a85789	8.027169e-05
105	0x3902f596	0.00012489254
106	0x38e3f0c9	0.00010869053
107	0x38d50650	0.00010157807
108	0x385fee8a	5.33895e-05
109	0x3746a3fe	1.1839902e-05
110	0x373ae482	1.1139668e-05
111	0x38995c9e	7.31286e-05
112	0x37e089b2	2.6767e-05
113	0x37ce194d	2.4568895e-05
114	0x38d5ee0c	0.00010200971
115	0x389eace2	7.566229e-05
116	0x38779233	5.9025548e-05
117	0x387cb8e2	6.0253667e-05
118	0x39173603	0.00014420603
119	0x3984e8b2	0.00025350373
120	0x37e078dd	2.6759162e-05
121	0x38e16115	0.00010746919
122	0x3956ba78	0.00020478095
123	0x38061647	3.1968837e-05
124	0x38b5abc7	8.6627486e-05
125	0x392b762e	0.00016351856
126	0x37a76763	1.9956095e-05
127	0x377c9320	1.5054626e-05
128	0x38465687	4.7287464e-05
129	0x38a1ad95	7.7094104e-05
130	0x388ba509	6.658777e-05
131	0x38c06db7	9.1757094e-05
132	0x3867d09c	5.5268974e-05
133	0x389e7a3f	7.556797e-05
134	0x38e85000	0.00011077523
135	0x38c4386d	9.3565184e-05
136	0x38b09ebe	8.421902e-05
137	0x389c8383	7.4631556e-05
138	0x3900eb8f	0.00012294784
139	0x38be899e	9.085539e-05
140	0x388754b1	6.453077e-05
141	0x390867db	0.0001300866
142	0x389766ed	7.2194125e-05
143	0x381cfd70	3.742933e-05
144	0x38a116f7	7.681356e-05
145	0x38872110	6.44346e-05
146	0x387cde4a	6.0288505e-05
147	0x3898280b	7.2553834e-05
148	0x38529192	5.0203475e-05
149	0x3860adda	5.3567674e-05
150	0x38828233	6.2231346e-05
151	0x37f91d4e	2.969676e-05
152	0x385dcd12	5.2881493e-05
153	0x38bf8896	9.133031e-05
154	0x387ab5b6	5.9773876e-05
155	0x38745fb6	5.826327e-05
156	0x38c2ecb0	9.294727e-05
157	0x384b28a5	4.8436825e-05
158	0x3893aac5	7.0413145e-05
159	0x38f6ac28	0.00011762261
160	0x38e4624b	0.00010890196
161	0x3920563c	0.00015290914
162	0x376364cb	1.3553722e-05
163	0x376cf0e6	1.4122785e-05
164	0x37653aad	1.3663125e-05
165	0x3888b947	6.519496e-05
166	0x387f0459	6.0800787e-05
167	0x38891d91	6.538176e-05
168	0x39194f08	0.00014620658
169	0x3911e859	0.00013914834
170	0x39173577	0.000144204
171	0x3873eb39	5.8154783e-05
172	0x38ba2a85	8.877091e-05
173	0x38352945	4.3192198e-05
174	0x3871f69d	5.7688554e-05
175	0x3778fa4e	1.48402305e-05
176	0x381fb1ed	3.807426e-05
177	0x3803e1ba	3.1443058e-05
178	0x385f0aba	5.3177333e-05
179	0x39276367	0.00015963391
180	0x38f40f32	0.00011637657
181	0x38f603e6	0.0001173092
182	0x38c5ff69	9.441266e-05
183	0x390fc93f	0.00013712513
184	0x38933fa9	7.021364e-05
185	0x384db69e	4.9045884e-05
186	0x38ed08bb	0.00011302667
187	0x38e30815	0.00010825709
188	0x38b736bf	8.736317e-05
189	0x38d6d5c4	0.00010244132
190	0x38cc8572	9.752334e-05
191	0x38238c1b	3.899271e-05
192	0x38e2c823	0.00010813798
193	0x390aca4b	0.00013236066
194	0x38d6f940	0.000102507416
195	0x3870732f	5.7327732e-05
196	0x38e11810	0.00010733318
197	0x38e36f3c	0.000108449225
198	0x390d978e	0.00013503266
199	0x38dbcb44	0.00010480595
200	0x381b4369	3.701766e-05
201	0x38fda35f	0.0001209441
202	0x38a807b0	8.012296e-05
203	0x378e4a97	1.6962453e-05
204	0x38dc0641	0.00010491582
205	0x38bab8ae	8.9035704e-05
206	0x37b614b3	2.170573e-05
207	0x380d34d5	3.3666223e-05
208	0x3886d571	6.4293745e-05
209	0x389a90ab	7.370239e-05
210	0x389240f8	6.973924e-05
211	0x3898f5e4	7.2937255e-05
212	0x38a1ca33	7.714741e-05
213	0x38f55278	0.000116978714
214	0x38b66cb2	8.698682e-05
215	0x38d34c09	0.00010075427
216	0x38b9e44c	8.864011e-05
217	0x38ac95d7	8.229509e-05
218	0x38c904a1	9.585289e-05
219	0x38b4e5f3	8.6259e-05
220	0x39095831	0.00013098192
221	0x390bc628	0.00013329892
222	0x37c3bf5e	2.3334924e-05
223	0x388fed9a	6.863028e-05
224	0x3905ee80	0.00012772717
225	0x394c5b93	0.0001948907
226	0x39444c93	0.00018720543
227	0x392c1ce4	0.00016413961
228	0x3918c0a1	0.0001456761
229	0x38ec2eb5	0.00011262057
230	0x38e078b6	0.000107036365
231	0x3823bb00	3.9036386e-05
232	0x37c18329	2.3068469e-05
233	0x37b07f42	2.1040094e-05
234	0x38d30ed5	0.00010064027
235	0x383fc790	4.5723806e-05
236	0x377c8dab	1.5053355e-05
237	0x38d9bdbd	0.00010382708
238	0x3828bbaf	4.0229115e-05
239	0x37913e56	1.7314374e-05
240	0x38e0d2ba	0.00010720403
241	0x38412f85	4.605904e-05
242	0x37715763	1.4385066e-05
243	0x38d68cfb	0.00010230575
244	0x38e23c1d	0.00010787717
245	0x38eecede	0.000113872564
246	0x384a0429	4.8164427e-05
247	0x38a5b47a	7.9014295e-05
248	0x38e283d4	0.00010801075
249	0x380e8837	3.39823e-05
250	0x38a6efc7	7.960159e-05
251	0x38d39cab	0.00010090446
252	0x383287cb	4.2564974e-05
253	0x38933772	7.019834e-05
254	0x388e44fb	6.783936e-05
255	0x3890d577	6.906216e-05

exp_avg f4 [32]
0	0xb035cc09	-6.613737e-10
1	0xb155d405	-3.1116099e-09
2	0x2f36e3e7	1.6633771e-10
3	0xb10698e4	-1.9586475e-09
4	0xb185a601	-3.889682e-09
5	0xae9c19dd	-7.098653e-11
6	0xb0bb6160	-1.3633716e-09
7	0x30aa2780	1.2380355e-09
8	0x3141915b	2.8167821e-09
9	0x315bfff4	3.2014187e-09
10	0x2f62e8d2	2.0637295e-10
11	0x306e6586	8.672817e-10
12	0x30c8945d	1.4594083e-09
13	0xafdc12b2	-4.003105e-10
14	0xaf95b533	-2.7231692e-10
15	0x313a1438	2.7078055e-09
16	0x3092ce84	1.0681593e-09
17	0x305afeb0	7.966987e-10
18	0x3145f08a	2.8804004e-09
19	0xb033d402	-6.54211e-10
20	0xb105c88b	-1.9468043e-09
21	0xb0d260da	-1.5307038e-09
22	0x30207f7d	5.838883e-10
23	0xb0b725b8	-1.3325723e-09
24	0x3167405d	3.365151e-09
25	0x3045e87b	7.1998557e-10
26	0xb08554a9	-9.701085e-10
27	0x30843b57	9.62113e-10
28	0x30d896ed	1.5758964e-09
29	0xb1921a22	-4.25213e-09
30	0x30e49c49	1.6633602e-09
31	0xb09676fe	-1.0947756e-09
