CS330/XCS330-PS3/src/submission/logs/maml/omniglot.way_5.support_1.query_15.inner_steps_1.inner_lr_0.04.learn_inner_lrs_False.outer_lr_0.001.batch_size_16/state8400.pt (torch, 353132 bytes, 30 tensors)

conv0 f4 [32, 1, 3, 3]
0	0x3e8d31ea	0.27577144
1	0xbed3fa9f	-0.41402146
2	0x3d22fb58	0.03979048
3	0x3d1b3f47	0.037902143
4	0xbd93c081	-0.072144516
5	0x3d563020	0.05229199
6	0x3e986516	0.29764622
7	0x3e05c579	0.13063611
8	0x3d4129e0	0.047159076
9	0x3dd039ee	0.10167299
10	0x3e3e26ac	0.1856944
11	0x3e828309	0.25490597
12	0xbe48522d	-0.19562598
13	0xbe35f361	-0.17768623
14	0xbe858c29	-0.26083496
15	0xbebbab32	-0.3665405
16	0xbd2ae9c0	-0.041726828
17	0xbd9a7dfc	-0.07543561
18	0x3eb4dd08	0.35324883
19	0x3de5f305	0.11227993
20	0x3e193093	0.14959936
21	0xbc68df8b	-0.014213453
22	0xbceef803	-0.029170996
23	0xbe22e53b	-0.15907757
24	0xbd4f5efd	-0.050627697
25	0xbef885cf	-0.48539588
26	0xbf03630b	-0.51323
27	0x3e185b80	0.14878654
28	0x3cd294f3	0.02570579
29	0xbe871202	-0.26380926
30	0x3df423b2	0.11920871
31	0xbf0574e7	-0.52131504
32	0xbdd9b0b2	-0.10629405
33	0xbec4c4a7	-0.38431284
34	0x3d21baaa	0.039484657
35	0x3e86a61e	0.26298612
36	0xbcdf73b0	-0.027276844
37	0x3d5a9257	0.053362217
38	0x3dc40fb4	0.09573308
39	0x3d2cd33f	0.042193647
40	0xbe6a1397	-0.22859035
41	0x3d93e801	0.072219856
42	0x3ec2884f	0.3799462
43	0xbf31d0be	-0.6945914
44	0x3e3a39a6	0.18186054
45	0x3de14474	0.109993845
46	0x3deed329	0.11661369
47	0xbeb09c6a	-0.34494334
48	0xbdf60ef8	-0.12014574
49	0x3e26b09b	0.16278307
50	0xbe81ddfd	-0.25364676
51	0xbeac8ef4	-0.33702815
52	0xbea776fa	-0.3270796
53	0xbbd493f6	-0.006487365
54	0xbe878f38	-0.26476455
55	0xbedd1a9a	-0.43184358
56	0xbe86faa3	-0.26363096
57	0xbe5a4be2	-0.2131801
58	0x3bee7d06	0.0072780875
59	0xbe247847	-0.16061507
60	0x3ecd3cb5	0.40085378
61	0xbda19f55	-0.07891718
62	0xbc75bdca	-0.0149988625
63	0xbd774bbf	-0.06037497
64	0xbe4dda9f	-0.20102929
65	0xbdade519	-0.084909625
66	0xbdafae98	-0.08578223
67	0xbceaf805	-0.028682718
68	0xbe13b723	-0.1442533
69	0xbe4da1c5	-0.20081241
70	0x3ed4e4c7	0.41580793
71	0xbe894d03	-0.26816568
72	0xbcbb4645	-0.022860656
73	0xbef4c553	-0.47806796
74	0xbe9005d9	-0.2812946
75	0x3ea6542b	0.3248609
76	0x3dc1e8ab	0.09468206
77	0xbe133eb8	-0.14379394
78	0xbe7e315f	-0.24823521
79	0x3d16c372	0.036807485
80	0x3e1178aa	0.14206186
81	0xbe5cfc37	-0.21580587
82	0xbeb04636	-0.34428567
83	0xbe772f23	-0.24139075
84	0xbe50f606	-0.2040635
85	0xbe18ae5b	-0.14910261
86	0x3d351848	0.04421261
87	0x3e92eb74	0.2869526
88	0x3dfe3c67	0.124138646
89	0x3e8e3160	0.27772045
90	0xbdb8b30b	-0.09018525
91	0xbd641150	-0.055680573
92	0xbec304df	-0.38089654
93	0x3d6c70bc	0.0577247
94	0xbd6d537b	-0.05794094
95	0x3ed8f53c	0.423746
96	0xbd5fce9e	-0.054640405
97	0xbbe610b7	-0.0070210355
98	0xbefb3a39	-0.49067858
99	0xbe9731f1	-0.2953029
100	0x3e08ac9b	0.13347094
101	0x3cf20fbe	0.029548522
102	0xbeb5ff25	-0.35546222
103	0x3d1d053b	0.038335066
104	0x3e4cdfba	0.2000722
105	0x3e09f083	0.13470654
106	0xbee48b35	-0.44637457
107	0xbe9ccede	-0.30626577
108	0x3e4ca080	0.19983101
109	0xbe15bd21	-0.14622928
110	0xbedc5437	-0.43033
111	0xbde6884b	-0.112564646
112	0x3d3a9130	0.045548618
113	0xbcda86c5	-0.026675591
114	0xbf071c5b	-0.5277764
115	0x3cbcfe3d	0.023070449
116	0x3ea55264	0.32289422
117	0xbf0cf701	-0.550644
118	0x3e452c24	0.1925512
119	0x3e5ec650	0.21755338
120	0xbd13f1f7	-0.036119428
121	0x3dd3f1f5	0.10348884
122	0x3d5a3e8b	0.053282302
123	0xbceacdfa	-0.02866267
124	0x3c139f9c	0.009010222
125	0xbede070e	-0.43364757
126	0x3c5dc9c6	0.013536876
127	0xbccb4409	-0.024812715
128	0xbe0c106f	-0.13678144
129	0xbcd95e2a	-0.026534159
130	0xbcd8b509	-0.026453512
131	0x3dd447f5	0.10365287
132	0xbede8e54	-0.43467963
133	0xbf023016	-0.50854623
134	0x3ec26c5c	0.37973297
135	0x3e3bd580	0.18343163
136	0x3d84feb4	0.06493893
137	0xbcfb1d32	-0.03065357
138	0x3dbd137e	0.092322335
139	0x3de2daae	0.11076866
140	0xbc1288c6	-0.008943742
141	0xbeddcfc9	-0.4332259
142	0xbee0cb98	-0.4390533
143	0xbeaf8e56	-0.3428828
144	0xbebc7249	-0.36805943
145	0xbe383850	-0.17990232
146	0x3e59aaef	0.21256612
147	0xbde3df75	-0.111266054
148	0x3e457bb7	0.19285475
149	0x3ccf47e2	0.025302831
150	0x3ea7d9d0	0.32783365
151	0xbd6f7781	-0.058463577
152	0xbecd0f41	-0.400507
153	0xbe80b2f5	-0.25136533
154	0x3e22f9c7	0.15915595
155	0x3e2e797e	0.17038533
156	0xbec40f92	-0.3829313
157	0x3de5fee2	0.11230256
158	0x3e8e3fa1	0.2778292
159	0xbef6d6c6	-0.48210734
160	0xbef9d17d	-0.4879264
161	0xbe5c0208	-0.2148515
162	0x3e41c64a	0.18923298
163	0x3d0d75da	0.03453622
164	0xbf067c66	-0.52533567
165	0x3e10eb65	0.14152296
166	0x3df3ff50	0.11913931
167	0xbf18b661	-0.5965329
168	0x3da1242b	0.078682266
169	0xbce814f3	-0.028330302
170	0xbf0843ee	-0.5322865
171	0xbf04ca8a	-0.5187155
172	0xbf24883a	-0.64270365
173	0xbf12713a	-0.5720402
174	0xbc41a6d4	-0.01181956
175	0x3e0f3b0a	0.13987365
176	0x3d6b90f2	0.057511277
177	0x3c8a4778	0.016879782
178	0x3e73431a	0.23756066
179	0x3e0cceb1	0.13750722
180	0xbe621cec	-0.22081345
181	0xbe4e057c	-0.2011928
182	0xbd2409a1	-0.040048245
183	0xbebc1b84	-0.36739743
184	0xbc128736	-0.00894337
185	0x3df21f41	0.118223675
186	0xbedbea0e	-0.42952007
187	0x3e148b7f	0.14506339
188	0x3e70616e	0.23474666
189	0x3e130de1	0.14360763
190	0xba19d1e6	-0.0005867764
191	0xbedb9411	-0.42886403
192	0x3dd75efe	0.10516165
193	0x3d976bfb	0.073936425
194	0xbed54d14	-0.41660368
195	0xbed7b3b6	-0.42129296
196	0xbea10f36	-0.31456918
197	0xbe650fda	-0.22369328
198	0xbe73388b	-0.23752038
199	0xbed96005	-0.4245607
200	0xbee3c0f6	-0.44483155
201	0xbeb6318c	-0.35584676
202	0x3cf47ed6	0.029845636
203	0x3d042d6f	0.03226989
204	0xbea76f30	-0.32702017
205	0x3db4024f	0.08789503
206	0x3e1b15c1	0.15145017
207	0x3eb529a3	0.3538333
208	0x3c866307	0.016404642
209	0xbc4488cf	-0.011995508
210	0xbf43eec8	-0.76536226
211	0xbc428fea	-0.011875132
212	0xbc73b7cd	-0.0148753645
213	0x3ea4fc9a	0.3222397
214	0xbc879367	-0.01654978
215	0xbc2722d9	-0.010201179
216	0x3dfeeeb3	0.12447872
217	0x3e330127	0.17480908
218	0xbd55ebd2	-0.05222685
219	0xbedf9a17	-0.4367225
220	0xbeda4ef3	-0.42638358
221	0xbed9b667	-0.42521974
222	0x3e084ff5	0.13311751
223	0xbd38f8ed	-0.04515927
224	0x3dda6372	0.10663499
225	0xbe98a204	-0.29811108
226	0xbee4620d	-0.44606057
227	0xbe29d291	-0.16584231
228	0x3e1c462c	0.15261143
229	0x3cfebb16	0.031095069
230	0xbe18ca00	-0.14920807
231	0x3e8bc277	0.27296802
232	0xbdba219e	-0.09088443
233	0xbe819238	-0.2530687
234	0xbedaa316	-0.4270255
235	0x3c5cbdc3	0.013472977
236	0xbd488d1c	-0.048962697
237	0xbecfeaf6	-0.40608948
238	0xbd16cfd7	-0.036819305
239	0x3d0eb687	0.03484204
240	0xbdf9b17b	-0.12192055
241	0x3dab1c4e	0.08355008
242	0x3e9d893b	0.3076876
243	0xbc87bd85	-0.016569862
244	0xbdfc2ba6	-0.12313013
245	0x3f5098a0	0.8148289
246	0x3dd498a5	0.10380677
247	0xbd09ff5b	-0.03369079
248	0x3dd51296	0.104039356
249	0xbcb991f3	-0.022652602
250	0x3ddbadb4	0.107264906
251	0xbd0c8ff4	-0.034316972
252	0xbeb8b138	-0.36072707
253	0xbe132284	-0.14368635
254	0x3d86be9f	0.06579327
255	0xbe5a956a	-0.2134606

b0 f4 [32]
0	0xbd2a7f05	-0.04162504
1	0xbda256b9	-0.07926697
2	0x3cf60957	0.03003375
3	0xbc5b5bae	-0.013388557
4	0xbd671255	-0.056413967
5	0x3d287c7e	0.04113435
6	0xbc0a12d9	-0.008427345
7	0x3dbd22c2	0.09235145
8	0x3dd8830f	0.105718724
9	0x3b9c5832	0.004771256
10	0xbd90309f	-0.07040524
11	0x3d22ec36	0.03977605
12	0x3d0d3278	0.03447196
13	0xbce1751e	-0.027521666
14	0x3d888ded	0.06667695
15	0x3bc6b071	0.006063514
16	0x3c6140e9	0.013748386
17	0x3d5c0dab	0.053723972
18	0xbd9de95c	-0.077105254
19	0x3dc4fc8c	0.09618482
20	0x3dd6b143	0.10483029
21	0xbd9b0539	-0.075693555
22	0xbd4049b5	-0.046945293
23	0xbdcf85c4	-0.10132936
24	0x3d3eb184	0.04655601
25	0xbdab852a	-0.083750084
26	0x3cd5db85	0.026105652
27	0xbd8a2904	-0.06746104
28	0x3d31ddf5	0.043424565
29	0x3db5a725	0.08869771
30	0xbd2015bf	-0.03908324
31	0x3dafde1d	0.085872866

conv1 f4 [32, 32, 3, 3]
0	0xbe227969	-0.15866627
1	0x3bd65e02	0.0065419683
2	0xbd262966	-0.040566824
3	0xbe5be7b6	-0.2147511
4	0xbdf22127	-0.118227296
5	0xbdf7ca76	-0.12099163
6	0xbd93ebc1	-0.07222701
7	0xbd2f2944	-0.042763963
8	0xbb2e3047	-0.0026579069
9	0x3d76976b	0.060202997
10	0x3d42e0a3	0.04757751
11	0xbd8db434	-0.06919137
12	0xbd539d78	-0.051663846
13	0x3dbb17da	0.09135409
14	0x3d1d6df9	0.038434956
15	0xbd24e520	-0.040257573
16	0xbdf84f6f	-0.12124526
17	0x3b8a571d	0.0042218105
18	0x3e2880aa	0.16455331
19	0xbcd42a98	-0.025899217
20	0x3dd8d835	0.10588113
21	0x3d76ea47	0.060282018
22	0x3d8c6831	0.068558104
23	0x3e1e44ed	0.1545598
24	0xbcddbc56	-0.027067345
25	0xbdc5587e	-0.09636019
26	0xbe1a8efa	-0.15093604
27	0xbd49d0b4	-0.0492713
28	0xbcad9c72	-0.021192763
29	0xbe1c8932	-0.15286711
30	0x3de4cc71	0.111718066
31	0x3d20d6af	0.03926724
32	0x3b5634ba	0.0032685236
33	0x3d2a3dd4	0.04156287
34	0xbd1605c8	-0.036626607
35	0x3cccdb48	0.025006905
36	0xbd53aac0	-0.05167651
37	0xbcbf45be	-0.023348685
38	0x3deea531	0.116526015
39	0xbe198fa4	-0.14996201
40	0xbdec1bd1	-0.11528743
41	0x3cbee0d3	0.023300564
42	0xbdc348fb	-0.09535404
43	0xbe202007	-0.15637217
44	0x3c509c28	0.012732543
45	0x3c4929c6	0.012278026
46	0x3cfcb12a	0.030846197
47	0xbddf8375	-0.10913745
48	0x3dfa16b0	0.122113585
49	0x3e380cd2	0.1797364
50	0x3c096c49	0.008387634
51	0x3e17e23a	0.14832392
52	0xbd32a304	-0.043612495
53	0xbca2db43	-0.019879943
54	0x3e176383	0.14784054
55	0xbb0eccc1	-0.0021789523
56	0x3b6fee99	0.003661072
57	0x3da98281	0.08276845
58	0x3e0e3cc3	0.13890366
59	0x3dd2d986	0.102953956
60	0xbcb21fdb	-0.021743705
61	0xbac8849d	-0.0015298311
62	0xbdd59c20	-0.10430169
63	0x3d08553a	0.033284403
64	0x3e0c2e28	0.13689482
65	0x3d263b46	0.04058387
66	0x3d86cc8e	0.065819845
67	0x3e1e0432	0.15431288
68	0x3d93347d	0.07187746
69	0x3d82603d	0.06366012
70	0xbdad385b	-0.084580146
71	0xbe01cf5b	-0.12676756
72	0xbe19dff2	-0.15026835
73	0xbde58218	-0.11206454
74	0xbe57faf0	-0.21091819
75	0xbdd158e6	-0.10222034
76	0xbd28efe5	-0.041244406
77	0xbdda472e	-0.10658108
78	0x3ce54d61	0.027990999
79	0xbc47a4da	-0.0121853
80	0x3d6e4d0d	0.05817895
81	0xbcb8c73c	-0.02255594
82	0xbd8eb7c6	-0.06968646
83	0xbeb3cd51	-0.3511758
84	0x3c8f3233	0.017479992
85	0xbde41d88	-0.11138445
86	0x380e8c8a	3.3986325e-05
87	0x3dda1424	0.10648373
88	0x3cea341c	0.0285893
89	0xbab94cc6	-0.001413726
90	0xbe15d96f	-0.14633726
91	0xbdc70190	-0.09717095
92	0xbde67ae0	-0.11253905
93	0x3e3e63b1	0.18592717
94	0x3ce3c5f5	0.027804354
95	0xbd61066f	-0.054937776
96	0x3cdfdb58	0.027326271
97	0xbdcdf04f	-0.10055601
98	0xbdf15ea8	-0.11785632
99	0x3cd3d59e	0.025858697
100	0x3db420a9	0.08795292
101	0xbbaa921c	-0.005205406
102	0xbc2fb784	-0.010724906
103	0x3d7ac632	0.06122417
104	0xbcaccc6b	-0.021093568
105	0xbd80dfce	-0.06292687
106	0xbe17a9b0	-0.14810824
107	0xbd8df3bf	-0.069312565
108	0xbdf2c1ae	-0.11853348
109	0xbd927855	-0.07151858
110	0xbe2daa3c	-0.1695947
111	0xbcce55e0	-0.025187433
112	0xbd4f3c6d	-0.050594736
113	0x3dd1ae1a	0.10238285
114	0xbe00093c	-0.12503523
115	0xbd99acb2	-0.07503642
116	0xbe06a4f4	-0.13148862
117	0xbd96204a	-0.073303774
118	0xbdb421f1	-0.08795536
119	0xbd9b8857	-0.07594364
120	0x3bc12d10	0.0058952644
121	0xbd2df623	-0.042471062
122	0x3d0d91f4	0.03456302
123	0xbc9e0b62	-0.019292537
124	0xbe9a1546	-0.30094355
125	0xbd771e89	-0.060331855
126	0xbd37d048	-0.044876367
127	0xbe8ad35a	-0.27114373
128	0x3c92c05d	0.017913992
129	0xbd438d6d	-0.047742296
130	0xbe6efc8e	-0.2333853
131	0xbd0a4294	-0.0337549
132	0xbe018db3	-0.1265171
133	0xbd9230d4	-0.071382195
134	0xbd6f67fd	-0.05844878
135	0xbca073cd	-0.019586468
136	0x3d027eed	0.031859327
137	0x3d999a24	0.07500103
138	0x3d8f3492	0.06992449
139	0x3cd82676	0.026385527
140	0xbd7ef729	-0.06224743
141	0xbdaa99c6	-0.08330111
142	0xbdd25d4f	-0.102717035
143	0xbdabe9f9	-0.08394236
144	0xbde9d7ef	-0.11418139
145	0xbdb4f0df	-0.08835005
146	0xbd085137	-0.033280578
147	0xbdb8b6a8	-0.09019214
148	0x3ce954fc	0.028482907
149	0x3d9262d8	0.07147759
150	0xbd952915	-0.072832264
151	0xbe5c29ae	-0.21500275
152	0xbd604d47	-0.054761197
153	0x3dbd77ce	0.092513666
154	0x3dcc294a	0.09968813
155	0x3d771417	0.060321894
156	0x3cc4bf98	0.02401714
157	0xbd7208d1	-0.05909044
158	0x3e1d2c8e	0.15349028
159	0x39978d10	0.00028906064
160	0xbe02c2f0	-0.12769675
161	0xbe2dbcc0	-0.16966534
162	0xbbe82546	-0.0070845215
163	0x3d369bea	0.044582285
164	0xbde54872	-0.111954585
165	0x3d529804	0.051414505
166	0x3e0396a7	0.12850438
167	0x3db02eca	0.08602674
168	0x3dd0e789	0.10200412
169	0xbd57a061	-0.052643184
170	0x3d6f83f5	0.058475453
171	0x3dc65701	0.096845634
172	0xbd61fe9c	-0.055174455
173	0xbdba8da8	-0.0910905
174	0x3e841944	0.25800526
175	0xbd2765af	-0.040868457
176	0xbdb748d6	-0.08949439
177	0x3dd71c58	0.10503453
178	0x3da011bd	0.07815883
179	0xbd359a1f	-0.044336434
180	0xbd1ab786	-0.037772678
181	0xbe2c5903	-0.1683083
182	0xbd992b46	-0.07478957
183	0xba98c3ed	-0.001165507
184	0x3d71880d	0.05896764
185	0xbdb9c857	-0.09071415
186	0xbc226e47	-0.0099139875
187	0x3ca66ea0	0.020316422
188	0xbdcde804	-0.10054019
189	0xbb96745c	-0.004591508
190	0xbd040619	-0.032232378
191	0xbcee556a	-0.029093463
192	0x3dbb4472	0.09143914
193	0x3e372482	0.1788502
194	0x3e0ae039	0.13562097
195	0x3e1df856	0.15426764
196	0xbd2c92e4	-0.042132273
197	0xbdc0fef8	-0.094236314
198	0x3d89dddc	0.067317694
199	0x3d9f1e99	0.07769508
200	0xbc515327	-0.012776173
201	0x3ddac1d7	0.10681503
202	0x3e801ac5	0.25020424
203	0x3de47905	0.11155895
204	0x3de7e35a	0.11322661
205	0xbde32099	-0.11090202
206	0xbe4591a3	-0.19293837
207	0xbc32e269	-0.010918238
208	0xbcdd314c	-0.027001046
209	0xbc88b594	-0.016688146
210	0x3d609a1d	0.054834474
211	0xbd096192	-0.033540316
212	0xbda6a706	-0.08137326
213	0xbdeb6224	-0.11493328
214	0xbd4825b4	-0.04886408
215	0xbd218e96	-0.03944262
216	0xbc979c89	-0.018507259
217	0xbc2dad16	-0.010600349
218	0xbde43057	-0.111420326
219	0x3e067c71	0.13133408
220	0x3e129e9f	0.14318322
221	0xbca625cb	-0.020281693
222	0x3db8c575	0.09022037
223	0xbd2ed354	-0.042682007
224	0xbe0afd88	-0.13573277
225	0x3d5720c5	0.052521486
226	0x3da5c39b	0.080939494
227	0xbd9fdcd0	-0.078057885
228	0x3dc6baa8	0.097035706
229	0x3c711da0	0.014716536
230	0x3d90c194	0.07068172
231	0x3c908bcf	0.017644791
232	0x3d074c99	0.033032034
233	0xbe298e9c	-0.16558307
234	0xbc406875	-0.0117436545
235	0xbdd5f695	-0.104474224
236	0x3d152838	0.03641531
237	0x3da67875	0.08128444
238	0xbd31ebe5	-0.043437857
239	0xbded2152	-0.11578621
240	0xbe03af84	-0.12859923
241	0xbdcea854	-0.100907
242	0xbdafcc42	-0.08583881
243	0x3c2b8519	0.010468745
244	0x3d8d9ebd	0.069150425
245	0x3dccf9c4	0.100085765
246	0x3d3d8f13	0.046279024
247	0xbdca8a03	-0.09889605
248	0x3ca8b731	0.020595165
249	0xbd3d1a30	-0.046167552
250	0xbe2a78e9	-0.16647686
251	0xbbe7d645	-0.0070751035
252	0x3c1b8f9c	0.009494688
253	0xbdc29a2f	-0.095020644
254	0x3de314e2	0.110879675
255	0x3e0db70b	0.13839357

b1 f4 [32]
0	0x3d83f664	0.0644348
1	0x3d85e560	0.065378904
2	0x3dfd19f1	0.123584636
3	0xbcbcdaf6	-0.023053627
4	0x3dae03b8	0.08496803
5	0xbd1b3538	-0.03789255
6	0x3d62750b	0.055287402
7	0x3d9d95fe	0.07694624
8	0xbd086429	-0.033298645
9	0x3dc0fe2e	0.09423481
10	0x3cbe5b02	0.023236755
11	0xbb8c99a8	-0.004290778
12	0xbd04fcef	-0.03246778
13	0xbcbec07e	-0.023285147
14	0xbe413fa4	-0.18871933
15	0xbd2dc9e3	-0.042428862
16	0x3ee359d8	0.44404483
17	0x3d116a42	0.035501726
18	0x3e73571c	0.23763698
19	0xbb4eab78	-0.0031535309
20	0x3d379205	0.04481699
21	0x3d2c7955	0.0421079
22	0x3d9872db	0.07443782
23	0x3d6a18aa	0.057152428
24	0xbca30616	-0.019900363
25	0xbc50605a	-0.0127182845
26	0x3c290647	0.010316438
27	0xbd82c3f1	-0.06385029
28	0x3d35b86e	0.04436534
29	0xbd0e2c60	-0.034710288
30	0x3df8db4b	0.12151202
31	0x3d89a680	0.067212105

conv2 f4 [32, 32, 3, 3]
0	0x3d897fb7	0.06713813
1	0x3e0ddea3	0.1385446
2	0x3d42e02e	0.047577076
3	0x3ba43c36	0.0050120605
4	0xbd26a427	-0.04068389
5	0x3d6486d7	0.055792656
6	0xbe7ef86c	-0.24899453
7	0x3c5021e2	0.012703391
8	0xbda35574	-0.07975283
9	0xbc9ac54b	-0.018892905
10	0xbe15c4ba	-0.14625826
11	0xbdf1aa9e	-0.11800121
12	0x3d4c8a25	0.049936432
13	0x3cd8ef97	0.026481433
14	0xbb2149fe	-0.0024610753
15	0x3d394fa6	0.045241974
16	0x3dd58854	0.10426393
17	0xbbfc0063	-0.007690476
18	0x3e22057e	0.15822408
19	0x3e17a8a8	0.14810431
20	0x3d755de4	0.059903994
21	0x3ba1f56a	0.0049425857
22	0x3db748c8	0.08949429
23	0x3d473634	0.048635677
24	0x3b8b5942	0.0042525837
25	0x3dd8c0ad	0.10583625
26	0xbcf581c9	-0.029969113
27	0x3e2ea421	0.17054798
28	0x3e41420d	0.18872853
29	0x3ceb8977	0.028752072
30	0x3d9bee4b	0.0761381
31	0x3c09c102	0.008407833
32	0xbc9bb755	-0.019008318
33	0xbd9851f8	-0.07437509
34	0x3dc94669	0.09827883
35	0x3b4eace6	0.003153616
36	0xbd3ca3b5	-0.04605456
37	0x3cd8ff38	0.026488885
38	0xbd2eb0b5	-0.04264899
39	0xbccf48b6	-0.025303226
40	0x3befe7a4	0.007321315
41	0x3c832e91	0.016013416
42	0x3cde6718	0.027148768
43	0xbd09dbac	-0.03365676
44	0x3d9b6c3a	0.07589002
45	0x3bd8e674	0.006619269
46	0xbcf3d566	-0.029764842
47	0x3dd27002	0.1027527
48	0x3cafd279	0.021462666
49	0x3c7ac192	0.01530494
50	0x3da834b3	0.082131766
51	0xbda2ef97	-0.079558544
52	0xbdbcc419	-0.0921709
53	0xbcd70fcd	-0.026252652
54	0x3d9139b0	0.07091081
55	0x3ddbd8b4	0.10734692
56	0xbd18087d	-0.03711747
57	0x3d319a69	0.043360148
58	0x3d53566d	0.051596094
59	0xbd568fd2	-0.05238325
60	0xbbd26417	-0.006420623
61	0xbdfd273b	-0.12360998
62	0xbc80051a	-0.015627433
63	0x3d0cf02f	0.034408744
64	0x3d0ab451	0.03386337
65	0xbce3d528	-0.027811602
66	0xbd1c8605	-0.03821375
67	0xbbd88f6e	-0.006608895
68	0x3d2ae20f	0.041719493
69	0xbdc361c2	-0.0954013
70	0xbd9605ce	-0.07325326
71	0xbd852ecd	-0.06503067
72	0xbd843c0f	-0.06456768
73	0xbde2363b	-0.110455
74	0xbd995ef3	-0.07488813
75	0x3d7dddb4	0.06197901
76	0xbc10b3ad	-0.008831901
77	0xbda73450	-0.08164275
78	0xbc199096	-0.009372851
79	0x3da895d9	0.08231706
80	0xbdb3ca58	-0.087788284
81	0x3a412b95	0.000736886
82	0xbd108592	-0.035283633
83	0xbde1d494	-0.11026874
84	0x3c1b0cba	0.0094634835
85	0xbdba8ac5	-0.091084994
86	0x3d6acfb1	0.057326976
87	0x3df7b686	0.120953605
88	0x3ccb8aa0	0.024846375
89	0xba47d7f9	-0.000762343
90	0xbe1911a7	-0.1494814
91	0xbda03557	-0.07822674
92	0xbdc5b961	-0.09654499
93	0xbd7c6e24	-0.061628476
94	0x3c1eed34	0.009700108
95	0xbd67c573	-0.056584787
96	0x3da171cd	0.07883034
97	0xbcaef3cc	-0.021356486
98	0xbd7500b2	-0.059815116
99	0xbb3a0e90	-0.0028390028
100	0xbcf30279	-0.029664265
101	0xbd354a96	-0.044260584
102	0x3baa6fb8	0.005201306
103	0xbc4486e8	-0.011995055
104	0x3d0cb350	0.034350693
105	0x3c680f71	0.014163838
106	0x3d4ff602	0.05077172
107	0x3d8876fb	0.06663319
108	0xbdf06ffc	-0.11740109
109	0xbd2234df	-0.039601203
110	0x3dc1fd16	0.094721004
111	0x3d480f77	0.048842873
112	0xbc6a5a51	-0.01430376
113	0x3d78fa7e	0.060785763
114	0x3d532841	0.05155206
115	0x3bb94447	0.0056538912
116	0x3e1e381e	0.15451095
117	0xbd56282c	-0.052284405
118	0x3cec273f	0.028827308
119	0xbd43a071	-0.04776043
120	0xbc547067	-0.012966252
121	0x3d2d8b24	0.042369023
122	0xbd78676e	-0.060645513
123	0xbdb3c89d	-0.08778498
124	0xbdc51e6f	-0.09624945
125	0xbd96ef4e	-0.073698625
126	0x3d413efe	0.047179215
127	0x3d10dc3d	0.035366286
128	0x3ca2c532	0.01986942
129	0x3c99fda9	0.018797712
130	0xbca35395	-0.019937316
131	0x3c5145e4	0.012773011
132	0xbcf0c74b	-0.029391905
133	0x3d0c9704	0.034323707
134	0x3d67b2e0	0.056567073
135	0xbd760a0d	-0.06006818
136	0x3cb046a8	0.021518067
137	0x3b7fe9da	0.0039049299
138	0x3c98a926	0.018635344
139	0xbda0f210	-0.0785867
140	0x3c56ecf3	0.0131180165
141	0xbdf2e538	-0.11860126
142	0x3cf5945d	0.029977972
143	0x3d91be4e	0.07116376
144	0xbd152c34	-0.03641911
145	0x3d18de05	0.03732111
146	0x3d49004f	0.04907256
147	0x3b75b768	0.0037493352
148	0x3c2b73be	0.010464607
149	0xbd022213	-0.031770777
150	0xbd7bc21c	-0.061464414
151	0x3dc2938a	0.09500797
152	0xbd17c0a8	-0.037048966
153	0x3d1f460f	0.038885172
154	0x3dac795e	0.084215865
155	0xbdb714af	-0.08939492
156	0x3d79c787	0.0609813
157	0x3c404dfa	0.011737341
158	0xbca467b3	-0.020068979
159	0xbd5d905f	-0.05409276
160	0xbd18ff0c	-0.037352607
161	0xbde6208c	-0.112366766
162	0xbd0201f2	-0.031740136
163	0x3bfc0c1c	0.0076918732
164	0x3d86a5d4	0.06574598
165	0xbd9528e9	-0.072831936
166	0x3cb2eba4	0.021840878
167	0x3d78dac4	0.060755506
168	0x3d44f8af	0.048088726
169	0xbced7090	-0.028984338
170	0x3de41b49	0.11138017
171	0xbdd8815e	-0.1057155
172	0xbb4be591	-0.0031112174
173	0xbe152ed7	-0.14568649
174	0x3c2f2678	0.010690324
175	0xbb3ac50b	-0.0028498794
176	0x3b614fdd	0.0034379878
177	0x3bcfb467	0.0063386443
178	0x3d2a985b	0.041649204
179	0xbc8dd95d	-0.017315561
180	0x3dee301b	0.11630269
181	0x3e25dc99	0.16197433
182	0x3d81d20d	0.06338892
183	0x3ddc25f4	0.107494265
184	0xbc8529bd	-0.016255254
185	0xbe02df91	-0.12780596
186	0xbd8f861e	-0.07008003
187	0x3c9cdf08	0.019149318
188	0xbd9965e9	-0.07490141
189	0xbdc4bcb8	-0.09606308
190	0xbde050a3	-0.1095288
191	0xbe16e898	-0.14737165
192	0x3d564275	0.052309472
193	0x3d7b74e5	0.061390776
194	0x3cd3063f	0.025759814
195	0x3cd90864	0.026493259
196	0x3d9e2b6f	0.07723128
197	0x3cdbfb98	0.026853368
198	0x3cb9eed7	0.022696896
199	0x3d446a91	0.047953192
200	0x3cbfe70d	0.023425603
201	0x3dcced09	0.10006148
202	0x3ba9d1a6	0.0051824627
203	0xbd9c431b	-0.07629987
204	0xbd3d0d53	-0.046155285
205	0xbd0538ea	-0.03252498
206	0xbdd890c6	-0.10574488
207	0x3d445913	0.04793651
208	0x3d1d0788	0.03833726
209	0x3d12a880	0.035805225
210	0xbd95b0e5	-0.073091306
211	0xbd2e0d20	-0.042492986
212	0x3d5006fe	0.05078792
213	0x3e232c3c	0.15934843
214	0x3dcfbcf0	0.10143459
215	0xbd41c730	-0.0473091
216	0xbd6da8e5	-0.0580224
217	0x3c89d9f1	0.016827555
218	0xbdc4fb8f	-0.096182935
219	0x3cc35417	0.023843808
220	0x3bc7d700	0.006098628
221	0x3cd4e75d	0.025989229
222	0xbd1775c6	-0.036977552
223	0xbd5bca62	-0.053659804
224	0xbd86c3d0	-0.06580317
225	0x3d2633ad	0.040576626
226	0x3d84b51f	0.064798586
227	0xbd537c7d	-0.051632393
228	0x3dcefc26	0.10106687
229	0x3d324f86	0.04353287
230	0xbd1967b4	-0.037452415
231	0x3dad6607	0.08466726
232	0xbd726eb8	-0.05918762
233	0x3d575c76	0.052578412
234	0xbd0d9fe5	-0.034576315
235	0xbbc967ff	-0.0061464305
236	0x3e15462b	0.14577548
237	0x3da3e249	0.08002145
238	0xbd560fc3	-0.052261125
239	0x3cc5106b	0.02405568
240	0x3d50127b	0.050798874
241	0xbd3e0f0b	-0.046401065
242	0x3e018209	0.1264726
243	0xbcba28c3	-0.022724515
244	0xbe21858c	-0.157736
245	0xbd52762f	-0.05138224
246	0x3db7def9	0.089780755
247	0x3b65a6f9	0.003504215
248	0xbcf324df	-0.029680667
249	0x3de1f6d8	0.1103341
250	0xbd4d2e96	-0.050093256
251	0x3d59cda8	0.053174645
252	0x3db99d97	0.09063261
253	0xbc8fa1a6	-0.017533135
254	0xbdceb2b6	-0.1009268
255	0x3dc2ab6e	0.09505354

b2 f4 [32]
0	0x3af0fd23	0.0018385987
1	0x3ce0501d	0.027381951
2	0x3ce2fc64	0.02770824
3	0xbe21a2be	-0.15784737
4	0xbd40fa83	-0.047113907
5	0xbc1873be	-0.009304939
6	0x3e4113fd	0.18855281
7	0xbd93c459	-0.07215185
8	0x3d5c79d8	0.053827137
9	0xbe5f7118	-0.21820486
10	0x3befe49e	0.0073209545
11	0xbdbde9b0	-0.09273088
12	0xbbfc3db1	-0.007697784
13	0xbd5b0879	-0.053474877
14	0x3d0c5041	0.034256224
15	0xbdcb4a24	-0.099262506
16	0x39763bd5	0.00023482677
17	0x3e23f30e	0.16010687
18	0xbe5b03a2	-0.21388105
19	0xbdf77188	-0.12082201
20	0xbdda8822	-0.106704965
21	0x3de5d62c	0.11222491
22	0xbd1cbf9f	-0.03826868
23	0x3c838804	0.016056068
24	0xbd63d9f1	-0.055627767
25	0xbb0b51fa	-0.0021258579
26	0x3c1b8bfc	0.009493824
27	0x3a0f187b	0.0005458665
28	0xbd06bcd5	-0.032894928
29	0xbcd6f86a	-0.0262415
30	0xbc085f61	-0.008323521
31	0xbc8d4064	-0.017242618

conv3 f4 [32, 32, 3, 3]
0	0x3cc25265	0.02372093
1	0x3c2cedab	0.010554711
2	0xbd404a14	-0.046945646
3	0x3d47461d	0.04865085
4	0xbd08d5c9	-0.033407006
5	0xbc9ce959	-0.019154238
6	0xbd3f0a2f	-0.04664057
7	0x3bff003c	0.0077820104
8	0xbc17c89d	-0.0092641385
9	0x3d395cfb	0.04525469
10	0xbbb9adbf	-0.005666464
11	0xbd780a52	-0.060556717
12	0x3d72ca68	0.05927506
13	0x3d7d5e16	0.061857305
14	0x3c7ee51c	0.015557554
15	0x3e05ee0e	0.13079092
16	0x3d994be4	0.07485178
17	0x3d8c1adf	0.06841063
18	0x3d1bf9a0	0.038079858
19	0xbc9cc52e	-0.019136991
20	0x3dd0a738	0.101881444
21	0x3cb5f1fc	0.022210114
22	0x3caac6cb	0.020846745
23	0x3cb97bd5	0.022642056
24	0x3c4adc5c	0.012381639
25	0x3d067abf	0.032831904
26	0xbcda7b1f	-0.026670037
27	0x3dfd9cce	0.12383424
28	0x3d15f0ae	0.036606483
29	0x3ded1cc0	0.11577749
30	0x3d9222bc	0.07135531
31	0x3a8a1320	0.0010534264
32	0x3c28f530	0.0103123635
33	0x3d33942d	0.043842483
34	0x3de67260	0.11252284
35	0x3d89f70f	0.06736576
36	0x3baf1cf7	0.005344029
37	0xbddfd91c	-0.10930082
38	0xbda2a13e	-0.07940911
39	0xbe022cb7	-0.1271237
40	0xbdf16b0d	-0.117879964
41	0xbc98611f	-0.018600998
42	0xbd8203aa	-0.06348355
43	0xbe0db03a	-0.13836756
44	0xbdcc270a	-0.099683836
45	0xbc3a2f7a	-0.011363858
46	0xbc38358d	-0.011243236
47	0x3d25b2c2	0.04045368
48	0xbc78424f	-0.015152528
49	0x3cc1d97f	0.02366328
50	0xbd345b11	-0.04403216
51	0x3cd88fc1	0.026435735
52	0xbc891d2b	-0.016737541
53	0x3a15de15	0.0005716992
54	0x3e479d85	0.19493683
55	0x3de1f738	0.11033481
56	0x3e2098c3	0.15683274
57	0x3d099711	0.033591334
58	0xbd327358	-0.04356703
59	0x3d936705	0.07197384
60	0x3e6f43dd	0.23365732
61	0x3e160686	0.14650926
62	0x3e1444ff	0.14479445
63	0xbd904bdb	-0.07045718
64	0xbcc35d38	-0.023848161
65	0x3ceb809f	0.028747855
66	0xbd300018	-0.04296884
67	0xbd5aebd9	-0.053447578
68	0xbc0010ad	-0.007816476
69	0x3d8d9f66	0.069151685
70	0x3baf88c0	0.005356878
71	0x3c824530	0.015902132
72	0x3d1be2b2	0.03805799
73	0x3d356838	0.044288844
74	0x3cd59c89	0.026075618
75	0xbc425a34	-0.011862326
76	0x3c8c3f14	0.017119922
77	0x3d8a01eb	0.06738647
78	0x3dd5c2e2	0.104375616
79	0x3cf2321f	0.029564915
80	0x3cf7462b	0.030184826
81	0x3eb84b2a	0.35994846
82	0x3de9cbbb	0.11415812
83	0x3eabf55d	0.33585635
84	0x3e3c5afb	0.18394081
85	0x3dac38b1	0.084092505
86	0x3db81509	0.08988387
87	0x3e873410	0.26406908
88	0x3e6cdcfd	0.23131175
89	0x3e90360e	0.2816624
90	0xbc95f20a	-0.01830389
91	0xbae8571f	-0.001772616
92	0xbc7b940d	-0.015355122
93	0x3d5f61ac	0.054536507
94	0x3d32e2d4	0.04367335
95	0xbc3099f3	-0.010778892
96	0xbd24156d	-0.040059496
97	0x3c2331b7	0.009960583
98	0xbdcc61de	-0.09979604
99	0xbe05bd75	-0.13060553
100	0xbd825089	-0.06363017
101	0xbdb623fd	-0.08893583
102	0xbcad8226	-0.021180224
103	0xbccbed40	-0.024893403
104	0xbc2cfb13	-0.010557908
105	0xbe0ae39d	-0.1356339
106	0xbc2b43a8	-0.010453142
107	0xbde07d26	-0.1096137
108	0xbca4b038	-0.020103559
109	0x3b5d3f6c	0.0033759726
110	0xbd562f47	-0.05229118
111	0xbdd36889	-0.10322673
112	0xbd820dac	-0.06350264
113	0x3d02b11a	0.03190718
114	0xbd9ef237	-0.077610426
115	0xbc100818	-0.008790992
116	0x3ccd976d	0.02509662
117	0x3c4af9e5	0.012388681
118	0x3d833a64	0.064076215
119	0x3d4faccd	0.050701905
120	0x3cb73a98	0.022366807
121	0x3dc8548f	0.09781753
122	0xbb42994f	-0.002969343
123	0xbd142d11	-0.03617579
124	0x3d56547e	0.05232667
125	0x3b093263	0.0020934574
126	0xbb85753d	-0.004072814
127	0x3c3cb84c	0.011518549
128	0x3de00652	0.109387055
129	0xbd673d11	-0.05645472
130	0xbc502664	-0.012704466
131	0x3d18bb99	0.037288282
132	0x3b7a0e8a	0.0038155639
133	0xbb422c85	-0.0029628586
134	0x3da30f00	0.079618454
135	0x3d864cd0	0.065576196
136	0x3d2b03ff	0.041751858
137	0xbb7a0683	-0.0038150854
138	0x3dac6bb6	0.08418982
139	0x3cd5d2ba	0.026101459
140	0x3cc75df3	0.02433679
141	0x3d9127f7	0.07087701
142	0x3c0b2d89	0.008494743
143	0xbd52da4c	-0.051477715
144	0x3d18ba73	0.037287187
145	0xbe150f2d	-0.1455657
146	0xbd506eaa	-0.050886787
147	0xbce7dd52	-0.028303776
148	0xbd87efd2	-0.06637539
149	0xbd559401	-0.0521431
150	0x3d95fdaa	0.07323773
151	0x3aa2f019	0.0012431174
152	0x3d012f80	0.03153944
153	0xbe0323e8	-0.12806666
154	0xbcb44a64	-0.022008128
155	0xbdeee653	-0.116650246
156	0x3c698d3d	0.014254865
157	0x3cdad0fd	0.026710982
158	0xbced2b34	-0.028951265
159	0xbe1a4f6c	-0.1506936
160	0xbc774c30	-0.015093848
161	0xbde2699e	-0.11055301
162	0xbe9a56b4	-0.30144274
163	0xbdea42b6	-0.11438505
164	0xbe9e90e2	-0.30969912
165	0xbe2812d6	-0.16413435
166	0xbc7f3eef	-0.015578969
167	0xbe47caa2	-0.19510892
168	0xbe93ad2c	-0.28843057
169	0xbdd6361b	-0.104595385
170	0xbe7fe30f	-0.2498896
171	0x3e47ba1b	0.19504587
172	0x3df007f9	0.11720271
173	0x3e36a41a	0.17836037
174	0x3e3a7415	0.18208344
175	0x3d89b467	0.06723862
176	0x3e277cfb	0.1635627
177	0x3e5f4297	0.21802746
178	0x3df93254	0.121678025
179	0x3e6bddd0	0.23033834
180	0xb974efef	-0.00023359036
181	0x3ce9d110	0.028542072
182	0xbd3c9178	-0.046037167
183	0x3c49bbc4	0.012312833
184	0xbd9a96e5	-0.07548312
185	0xbc73fde6	-0.014892077
186	0x3cafd02d	0.02146157
187	0xbc6701b9	-0.014099532
188	0xbcafc642	-0.021456841
189	0x3c8ad65b	0.016947916
190	0x3d099dbf	0.033597704
191	0x3d7b348a	0.061329402
192	0x3d8a290b	0.067461096
193	0x3d4527fc	0.048133835
194	0x3d9e3136	0.0772423
195	0x3d6a1b58	0.057154983
196	0x3d8aa69e	0.06770061
197	0x3d111d9d	0.035428632
198	0xbdd5d93f	-0.10441827
199	0xbdc31658	-0.09525746
200	0xbd593b91	-0.053035323
201	0xbc2286ca	-0.0099198315
202	0x3bbce9de	0.005765184
203	0xbdb1ad84	-0.086756736
204	0xbd99d469	-0.07511217
205	0xbda085b1	-0.078379996
206	0xbcee4cdf	-0.02908939
207	0x3ca54985	0.020176658
208	0x3c982db1	0.018576475
209	0x3d2d86fd	0.042365063
210	0xbcddbb01	-0.02706671
211	0xbd6a4ca7	-0.057202008
212	0xbb9d263e	-0.0047958186
213	0x3d6c6ef0	0.057722986
214	0x3d2126d3	0.039343666
215	0xbc2b3daf	-0.010451718
216	0x3cbb0489	0.022829311
217	0xbcfd3a84	-0.030911691
218	0x3bfc13f3	0.007692808
219	0xbde474bf	-0.1115508
220	0x3bd4db31	0.006495856
221	0xbccf6e9c	-0.025321297
222	0xbc9669a4	-0.01836092
223	0x3d26a7d0	0.040687382
224	0x3c105b76	0.0088108685
225	0xbda23226	-0.07919721
226	0xbcfd4041	-0.030914428
227	0xbd8f0e78	-0.069851816
228	0xbcb4168e	-0.021983411
229	0xbd7ebc1e	-0.06219112
230	0x3b4ca538	0.0031226408
231	0xbd96d0fa	-0.07364078
232	0xbda3c053	-0.07995667
233	0xbdbb3ba8	-0.09142238
234	0x3b985574	0.0046488587
235	0x3b19224d	0.0023366392
236	0x3e1fcf09	0.15606321
237	0x3d11be4c	0.035581872
238	0x3c80dfd1	0.015731724
239	0x3d1d35a9	0.038381252
240	0xbd7f8377	-0.062381234
241	0xbb85023f	-0.0040591056
242	0xbd1eb433	-0.03874607
243	0xbdee5b30	-0.116384864
244	0xbe0ddb46	-0.13853177
245	0xbe30039a	-0.17188874
246	0xbdd6a599	-0.10480804
247	0x3daee6ba	0.08540101
248	0xbe01af5f	-0.12664555
249	0xbe258dd3	-0.16167383
250	0xbdbcef40	-0.09225321
251	0xbdf45ac9	-0.119313784
252	0x3d0d7c28	0.034542233
253	0x3d9c8148	0.07641846
254	0xbcb408b0	-0.021976799
255	0x3dd7f2a1	0.10544325

b3 f4 [32]
0	0x3ea8c8bc	0.32965648
1	0x3ecaeb77	0.3963277
2	0x3f174d4f	0.5910234
3	0x3f88cd4c	1.0687652
4	0x3ef0192e	0.4689421
5	0x3ef33d02	0.47507483
6	0x3eb5787f	0.35443494
7	0x3f16df9f	0.5893497
8	0x3efa9e04	0.4894868
9	0x3f60e877	0.87854713
10	0x3f3802b4	0.71879125
11	0x3efd0e3f	0.4942493
12	0x3ed686a7	0.41899607
13	0x3ee60835	0.44928136
14	0x3f529d40	0.82271194
15	0x3eee67df	0.46563622
16	0x3f20bd76	0.62789094
17	0x3efe38e3	0.49652776
18	0x3e96a56d	0.29423085
19	0x3f5071fb	0.8142392
20	0x3ee82aa7	0.4534504
21	0x3ef607be	0.48052782
22	0x3eda9544	0.42692006
23	0x3f26ba2b	0.6512782
24	0x3f2337d8	0.63757086
25	0x3f359fb8	0.70946836
26	0x3e6c689d	0.23086782
27	0x3f85a8c9	1.0442134
28	0x3f0d10e0	0.55103874
29	0x3f34c5ca	0.706143
30	0x3f34787e	0.70496356
31	0x3f2f2878	0.68421125

w4 f4 [5, 32]
0	0x400ec9da	2.23107
1	0xc002e360	-2.0451279
2	0x3f55252d	0.8325985
3	0xbfd03444	-1.626595
4	0xbff4af15	-1.9115931
5	0xbf901d65	-1.125897
6	0xc0156210	-2.3341103
7	0xbef4a86d	-0.4778475
8	0xc00fbaa0	-2.2457657
9	0xbfc4773c	-1.5348887
10	0xbf646112	-0.8921062
11	0xc0112a69	-2.2682135
12	0x402722e4	2.6115046
13	0xbfe98901	-1.8244935
14	0xbf0ef284	-0.558388
15	0x3f237cb7	0.63862175
16	0x40357473	2.8352325
17	0xbebbd887	-0.36688635
18	0x3ffccaa8	1.9749346
19	0xbfd02959	-1.6262618
20	0x40258c84	2.5867014
21	0xbf71a64c	-0.94394374
22	0xbf29a410	-0.66265965
23	0xbfd3ad41	-1.6537248
24	0x403d0ab9	2.9537795
25	0x3d7337eb	0.0593795
26	0x3fafb7ff	1.3728026
27	0x403a685a	2.912619
28	0xc01a930b	-2.4152248
29	0xbfb5831a	-1.4180634
30	0xbfe26f70	-1.7690258
31	0x3e1cfc0a	0.1533052
32	0x3eef5c04	0.4674989
33	0xc004ea93	-2.0768173
34	0xbfb29989	-1.3953105
35	0x404b167a	3.1732469
36	0x3fa659eb	1.2996191
37	0xc0102082	-2.2519841
38	0x3e09b187	0.13446628
39	0x40402f09	3.0028708
40	0xbf42f287	-0.7615132
41	0xbfcca110	-1.5986652
42	0xbfd46031	-1.6591855
43	0x402e7e02	2.726441
44	0x3f86254e	1.0480134
45	0xc008bd2d	-2.1365464
46	0xbf728c69	-0.947455
47	0xbfe3a8ed	-1.7785927
48	0xc005ce4d	-2.0907166
49	0xc01bb1c7	-2.4327257
50	0xc022c3c8	-2.5431995
51	0xbe1dc8ef	-0.15408681
52	0xbfd7b9fb	-1.6853632
53	0xbfeeb577	-1.8649129
54	0x3ffdbc08	1.9823008
55	0x403b28f7	2.9243753
56	0xbfdf9cd7	-1.7469739
57	0xbe3a4384	-0.18189818
58	0x3fdd1bfe	1.7274168
59	0xbfb8460a	-1.4396374
60	0x3f50a1f4	0.8149712
61	0xbfce5609	-1.6120006
62	0x3ea5bb14	0.32369292
63	0x40303925	2.7534878
64	0x3f3cfc72	0.738227
65	0x402f0f3b	2.7353046
66	0xbffa9153	-1.95756
67	0xbf47a61b	-0.7798783
68	0x4025a3da	2.5881257
69	0x40315fa3	2.7714622
70	0x4006bfc5	2.1054547
71	0xbfa2365b	-1.2672838
72	0xbdfc8cb0	-0.123315215
73	0x3d1a8e05	0.037733097
74	0x40407de1	3.007683
75	0xbf957d67	-1.1678895
76	0xbfba6e42	-1.4564898
77	0x3f842506	1.0323799
78	0xbf879a9c	-1.0594058
79	0xbf97089c	-1.1799502
80	0xbfba4de6	-1.4555023
81	0xbf1404b5	-0.5781968
82	0x3f771709	0.96519524
83	0xbfb55559	-1.4166671
84	0xbf62ae92	-0.88547623
85	0xbfe20f5d	-1.7660939
86	0xbffdbf35	-1.9823977
87	0xbdd6af64	-0.10482672
88	0xbece09a5	-0.40241733
89	0xbfcae023	-1.5849651
90	0x3e3aba8b	0.18235223
91	0xbfe46899	-1.7844421
92	0xbf77a313	-0.96733207
93	0x4037443e	2.8635402
94	0xbec61ef2	-0.38695484
95	0xbfcf450e	-1.6192949
96	0xc0163ec9	-2.347582
97	0x3ec66046	0.38745326
98	0xbf3308cc	-0.699353
99	0xbffb4a20	-1.9631996
100	0xbfc0a051	-1.5048925
101	0xbc998a31	-0.018742653
102	0xc011f8ac	-2.2808027
103	0x3d7a95bb	0.06117795
104	0x4039c43d	2.9026024
105	0xbfdce2b2	-1.7256682
106	0xbfe1377c	-1.7595057
107	0xbf084057	-0.53223175
108	0xbfd04a5b	-1.6272691
109	0x4020402d	2.503917
110	0x4042cc02	3.0437016
111	0x403d4a3f	2.9576566
112	0x3f3441af	0.70412725
113	0x3f04f9d7	0.51943725
114	0xc00cc5b7	-2.1995676
115	0x40307409	2.7570822
116	0xc0007462	-2.0071034
117	0x402d28f0	2.7056236
118	0x3fcfeb8e	1.624376
119	0xbfd07638	-1.6286077
120	0xbeb94ae8	-0.3618996
121	0xbf95da63	-1.1707271
122	0x3db78994	0.08961788
123	0xbfbb7d27	-1.4647568
124	0x3f0573e8	0.52129984
125	0xbff8dc43	-1.9442219
126	0xbff35cd0	-1.9012699
127	0xc014b53e	-2.3235621
128	0xc0008044	-2.0078287
129	0xbf41e93c	-0.7574651
130	0x402fa47e	2.7444148
131	0xbf7cd538	-0.98762846
132	0xbffe483e	-1.9865797
133	0xbfd14dc3	-1.6351856
134	0x3fc515fe	1.5397336
135	0xbfdf695a	-1.7454026
136	0x3f2e1c36	0.68011796
137	0x4041cb84	3.0280466
138	0xbfe11c22	-1.758671
139	0xbda2fbac	-0.07958159
140	0xbf7805c7	-0.96883816
141	0xbff90c32	-1.9456847
142	0xbfdc960b	-1.723329
143	0xbfd0ebc2	-1.6321948
144	0xbf9b1159	-1.2114669
145	0x403e15cf	2.970081
146	0x3e42bf0a	0.19018188
147	0xbfe557f1	-1.7917463
148	0x3faefbbb	1.3670572
149	0x3f9b94fa	1.2154839
150	0xbfca3ab8	-1.579917
151	0xbff2c57f	-1.8966521
152	0xc00230d9	-2.0342314
153	0x4035f6d8	2.8431911
154	0xc04f5b7b	-3.2399585
155	0xbf8dfe71	-1.1093274
156	0x402e9ae4	2.7282038
157	0xbf972993	-1.1809562
158	0x4042cac1	3.043625
159	0x3f3bc23e	0.73343265

b4 f4 [5]
0	0x3e72c42e	0.23707649
1	0x3b632eaa	0.0034665265
2	0xbe847a2e	-0.25874466
3	0x3e0e0031	0.1386726
4	0x3e1986ae	0.14992782

exp_avg f4 [32, 1, 3, 3]
0	0x3afb5fed	0.0019178368
1	0xb9c5f099	-0.00037754027
2	0xbba4ce89	-0.0050295037
3	0xbb9a9c65	-0.0047183507
4	0xbb5ff8dc	-0.0034175431
5	0xbbcb65d4	-0.006207207
6	0x3aec93b9	0.0018049396
7	0xbb81cf3f	-0.0039614732
8	0xbc028029	-0.007965126
9	0x3bc3c4fd	0.0059744106
10	0x3bd17797	0.00639243
11	0x3b866369	0.004101206
12	0x3b841a90	0.004031487
13	0x3b621dbc	0.0034502586
14	0x3b286cf1	0.00256997
15	0x3b479290	0.0030452348
16	0x3adcd4e7	0.0016848118
17	0x3ac97fbb	0.001537315
18	0xba335e63	-0.0006842373
19	0x3b84a48f	0.004047937
20	0x3ba4e295	0.0050318935
21	0x3b355cb9	0.0027673675
22	0x3b250521	0.002518006
23	0x3af1dd23	0.0018452745
24	0x3a5ab427	0.0008342885
25	0x39ad7006	0.00033080595
26	0x3a6e3a74	0.00090876897
27	0xbb9060a2	-0.004406051
28	0xbb182952	-0.0023217988
29	0xbb411204	-0.00294602
30	0xbbc0bd88	-0.005881969
31	0xbb19e6ef	-0.0023483594
32	0xbbf6c231	-0.0075304736
33	0xbba53eca	-0.0050428854
34	0xbc117fd6	-0.008880576
35	0xbc4bcad5	-0.012438496
36	0x3a9371b1	0.0011249093
37	0xba87e631	-0.0010368285
38	0x3aafc5cb	0.0013410387
39	0xbb0be39d	-0.0021345385
40	0xbb1005eb	-0.0021976184
41	0x3a33ad8a	0.00068541674
42	0xbbaf3321	-0.005346671
43	0xbaf70fe7	-0.0018849344
44	0x3a8814a6	0.001038213
45	0x3a925258	0.0011163456
46	0x3a727b53	0.0009249944
47	0xba49e735	-0.0007701994
48	0xb930e9c4	-0.00016871752
49	0x39fa41fe	0.00047732884
50	0xba99e1ff	-0.0011740326
51	0x3873f582	5.816436e-05
52	0x3b4951a3	0.0030718825
53	0xba31fdf7	-0.0006789858
54	0x3a975e95	0.0011548573
55	0x3b512484	0.0031912634
56	0x3b5c3099	0.0033598302
57	0x3adebf63	0.0016994294
58	0x3b3abb03	0.0028492815
59	0x3b267708	0.0025400538
60	0x3c1b8aa6	0.009493506
61	0x3c296823	0.01033977
62	0x3c03c79d	0.008043197
63	0xba9a1177	-0.0011754473
64	0xba8f717c	-0.0010943855
65	0xba3369ec	-0.00068440917
66	0x3a56aed7	0.00081895053
67	0xbacd6875	-0.0015671389
68	0xb9e6af19	-0.00043999476
69	0x3bb551d8	0.005533438
70	0x3b5199bb	0.00319825
71	0x3b573e69	0.0032843596
72	0xb8d1f43a	-0.00010011387
73	0xbabdd383	-0.0014482591
74	0xba9daaa8	-0.0012029009
75	0xb8d86ed9	-0.000103203296
76	0xbb729e78	-0.0037020724
77	0xba7cfab4	-0.0009650395
78	0x3b8457a1	0.0040387665
79	0xba9c701b	-0.0011935266
80	0xb95946f6	-0.00020721168
81	0xbaeaa2cb	-0.0017901299
82	0xb9e4b64e	-0.00043623376
83	0xbb6b5e4b	-0.0035914357
84	0xbb75bfb9	-0.0037498309
85	0xbad3e1bf	-0.00161653
86	0xbb9e62df	-0.0048335637
87	0xbb3cd52b	-0.0028813581
88	0xbb2eda6e	-0.0026680487
89	0xbb7f38d8	-0.0038943794
90	0xba5dd72f	-0.0008462546
91	0xba22d931	-0.00062121736
92	0x398a7ad5	0.00026412928
93	0xbb260df8	-0.0025337916
94	0xba9ece8b	-0.0012115998
95	0xbb15fef9	-0.0022887571
96	0xbbc4c732	-0.0060051912
97	0xbb63326e	-0.003466751
98	0xbaa79950	-0.001278678
99	0xbb2572f3	-0.0025245517
100	0xbb0eca4d	-0.002178806
101	0x39a5bc7b	0.0003161168
102	0xba8a01cc	-0.00105291
103	0xbb4a5f6b	-0.0030879627
104	0xbaff1a01	-0.0019462706
105	0xbaa1c15e	-0.0012340953
106	0xb99ca3b1	-0.00029876598
107	0x3a8ffd6f	0.0010985563
108	0x3b9a4836	0.0047083152
109	0x3b08c4d3	0.002086927
110	0x3a89a084	0.0010500108
111	0x3ac15055	0.0014748672
112	0x3a69308b	0.0008895478
113	0x3995b195	0.00028551804
114	0x3a856a22	0.0010178725
115	0xbb207841	-0.002448574
116	0x3a4a6bba	0.0007721741
117	0x3b180f93	0.0023202642
118	0x3b1f694f	0.0024324243
119	0x3b8770e9	0.004133333
120	0x3b1edcec	0.0024240566
121	0x3b3c79cb	0.0028759118
122	0x3b6df1a2	0.0036307354
123	0xb981913a	-0.00024713
124	0xb9194314	-0.00014616206
125	0x3b0104c6	0.0019686683
126	0x3b245dd8	0.002508035
127	0x3b143848	0.0022616554
128	0x3b6706e9	0.0035251922
129	0x3b9861de	0.0046503386
130	0x3b94050c	0.004517203
131	0x3bc558d2	0.006022551
132	0x3abdbf83	0.0014476631
133	0x3ac2228c	0.0014811321
134	0x3b4ca6c7	0.0031227337
135	0x3ad27f86	0.0016059733
136	0x392f28ce	0.00016704501
137	0x3a06bb5c	0.0005139613
138	0xba431048	-0.0007441086
139	0xbadb630f	-0.0016737896
140	0xba7c8afc	-0.00096337474
141	0x3a2ea9f8	0.00066629006
142	0xb9fe6587	-0.000485223
143	0x3a59ca6b	0.00083080557
144	0xbb1c4889	-0.0023846945
145	0xbb8a673f	-0.0042237337
146	0xbb8ee6da	-0.0043610157
147	0xbc0b6a88	-0.008509286
148	0xbc1e5a3e	-0.00966507
149	0xbbcd0d18	-0.0062576644
150	0xbbe3702c	-0.006940862
151	0xbbf63288	-0.007513348
152	0xbb9a2ef3	-0.004705304
153	0xbae07516	-0.0017124738
154	0xbb7d9246	-0.0038691922
155	0xbb26e030	-0.0025463216
156	0xbb29432e	-0.0025827396
157	0xbb875d4f	-0.0041309963
158	0xbb900945	-0.0043956363
159	0xba878b81	-0.0010341258
160	0xba728603	-0.00092515367
161	0xba9be9b9	-0.0011895216
162	0xbbc923cc	-0.0061383005
163	0xbb388218	-0.0028153714
164	0xbac7bfe4	-0.0015239683
165	0xbba3d084	-0.0049992222
166	0xbb8d833c	-0.004318623
167	0xba9eb912	-0.0012109599
168	0xbbb12791	-0.005406328
169	0xbb7cf451	-0.0038597772
170	0xbac67cdc	-0.0015143412
171	0x3ac9f279	0.0015407345
172	0x3b1e97f6	0.0024199462
173	0x3b192fc3	0.0023374415
174	0x3b7b1a00	0.0038315058
175	0x3b9e3a3c	0.0048287194
176	0x3baaf3e8	0.005217064
177	0x3b98fcc3	0.0046688034
178	0x3bc5f88d	0.0060415925
179	0x3be3f172	0.0069562728
180	0xbb133728	-0.0022463296
181	0x3994060c	0.00028233265
182	0xbb2855fd	-0.0025686019
183	0xba0d48cf	-0.00053895725
184	0x39205c0c	0.00015293079
185	0xbb7796cf	-0.0037779098
186	0xbb5da203	-0.003381849
187	0xbb9190d5	-0.004442314
188	0xbbddb995	-0.006766508
189	0xba67f94b	-0.0008849098
190	0x39b3c158	0.00034285593
191	0xba317a48	-0.00067702355
192	0xbafb4257	-0.0019169551
193	0x39d5ae11	0.00040756215
194	0xba08d74e	-0.0005220071
195	0xba9efc8a	-0.0012129706
196	0x3b41add5	0.0029553075
197	0xb9f38e10	-0.00046454417
198	0xb9d0b26e	-0.00039805792
199	0xb8b8fdfc	-8.821112e-05
200	0x38a5cf71	7.906452e-05
201	0xba64b10e	-0.0008723893
202	0x3a52e73c	0.0008045321
203	0xbae31f8e	-0.001732813
204	0x3a3a3256	0.00071028376
205	0x3af269f3	0.001849471
206	0xbb79c991	-0.0038114528
207	0x3bf0ce57	0.0073488164
208	0x3c4a3986	0.012342816
209	0x3c065a90	0.008200303
210	0x3b8bd385	0.0042671585
211	0x3c3a2277	0.011360756
212	0x3c0a789a	0.008451605
213	0xba164c7b	-0.00057334424
214	0x3ba20e62	0.004945562
215	0x3c0499ed	0.008093339
216	0xba392380	-0.000706248
217	0xbb2a8c5e	-0.0026023607
218	0xbb6370de	-0.0034704725
219	0x3a763345	0.0009391795
220	0xb84d7348	-4.8983173e-05
221	0xbaab8f0b	-0.0013088895
222	0x3b22646e	0.00247791
223	0xba4d89ee	-0.00078406825
224	0xbb2a6104	-0.0025997767
225	0x3aa6f900	0.0012739003
226	0x3a9bba7c	0.0011881138
227	0x38fb933c	0.00011996037
228	0x394cad9c	0.0001951963
229	0xbb21e82f	-0.0024705043
230	0xbb111aec	-0.002214129
231	0x3a35f677	0.0006941328
232	0xb922c5e1	-0.0001552324
233	0xba85c814	-0.0010206723
234	0x373beab9	1.1200719e-05
235	0x3b02af2f	0.0019940843
236	0x3afc3f1b	0.0019244881
237	0x383816eb	4.3890363e-05
238	0x3b53a237	0.0032292733
239	0x3b1a99b9	0.002359016
240	0x38068c28	3.207862e-05
241	0x3ae7b5ec	0.0017678118
242	0x395eb14a	0.00021237615
243	0x3a917455	0.0011097292
244	0x39fb42e9	0.00047924303
245	0xb7ba83e3	-2.2234342e-05
246	0xbb099ff4	-0.002099988
247	0xbaa637f2	-0.0012681468
248	0xbae08b90	-0.0017131437
249	0x38f28cad	0.00011565662
250	0x3b1b070b	0.002365532
251	0x3a0dc701	0.0005408377
252	0xbb11ccec	-0.0022247387
253	0xbb562a71	-0.0032679106
254	0xbbf38eb4	-0.007432783
255	0xbb7a2417	-0.0038168484

exp_avg_sq f4 [32, 1, 3, 3]
0	0x394f9379	0.00019795996
1	0x393d3f9b	0.0001804814
2	0x399113ab	0.0002767121
3	0x391f5f7e	0.00015198995
4	0x3947cb46	0.00019053844
5	0x399aade3	0.00029502725
6	0x38b7d84a	8.766407e-05
7	0x39611df3	0.00021468829
8	0x39b9edbc	0.00035463076
9	0x3959efbe	0.00020784044
10	0x39857663	0.00025455942
11	0x396a0397	0.00022317316
12	0x38ac9cd6	8.230812e-05
13	0x38feaa29	0.000121433586
14	0x38c9927a	9.61171e-05
15	0x3858e302	5.170983e-05
16	0x38e7c8d6	0.00011052347
17	0x3880aa59	6.135245e-05
18	0x399f2dea	0.00030361052
19	0x3998df31	0.0002915799
20	0x398cca75	0.00026853723
21	0x396c1f95	0.00022518479
22	0x3908fea9	0.00013064839
23	0x38f6fb0a	0.00011776954
24	0x393f3ff1	0.00018239
25	0x38803e55	6.115126e-05
26	0x38797336	5.9473525e-05
27	0x39e1e8c5	0.0004308877
28	0x39524d5c	0.00020055979
29	0x38e2f896	0.000108228225
30	0x398137be	0.00024646329
31	0x38d94085	0.00010359384
32	0x39411197	0.00018412467
33	0x38db062d	0.00010443884
34	0x398e2b40	0.00027116574
35	0x3a0f2748	0.00054608705
36	0x39ecba41	0.00045152198
37	0x39f31ed1	0.00046371532
38	0x39ff4cc7	0.00048694594
39	0x39b267c8	0.0003402813
40	0x397ba582	0.00023998882
41	0x39b68519	0.0003481291
42	0x3970e1a3	0.0002297224
43	0x39239e4b	0.0001560386
44	0x399826ae	0.00029020518
45	0x39f4247f	0.00046566498
46	0x398c9801	0.00026816133
47	0x3765cb09	1.36967365e-05
48	0x390df945	0.00013539668
49	0x393f7d7d	0.00018261927
50	0x38762453	5.86848e-05
51	0x372d705b	1.0337763e-05
52	0x388d0b64	6.7255256e-05
53	0x390b2331	0.00013269183
54	0x38e5c1a8	0.00010955642
55	0x38065536	3.202745e-05
56	0x38143204	3.533253e-05
57	0x3974b6ba	0.00023337724
58	0x38ff4127	0.00012171483
59	0x39048f78	0.00012641947
60	0x3a2aa077	0.00065088965
61	0x39e034f3	0.0004276406
62	0x39cf11a8	0.00039495272
63	0x3916d2b9	0.00014383615
64	0x3998d359	0.00029149165
65	0x38edfa26	0.000113476344
66	0x3942b38e	0.00018568171
67	0x39dd9d4d	0.00042269603
68	0x392c2553	0.00016417103
69	0x3998bd78	0.00029132864
70	0x3a3d6b2b	0.0007225747
71	0x39751369	0.00023372252
72	0x3952aab8	0.00020090758
73	0x38158174	3.564493e-05
74	0x38101a5b	3.435682e-05
75	0x3974cd2d	0.00023346087
76	0x391bfb4a	0.00014875564
77	0x39106a2c	0.00013772462
78	0x393c8469	0.00017978404
79	0x39230286	0.00015545831
80	0x39424e0a	0.00018530354
81	0x38b0a1d7	8.422479e-05
82	0x38b307c1	8.5368294e-05
83	0x392c10c9	0.00016409451
84	0x39187ee3	0.00014543119
85	0x392b3811	0.00016328717
86	0x39826b78	0.00024875603
87	0x398418ba	0.00025195425
88	0x398a33c7	0.00026359988
89	0x399862a2	0.00029065186
90	0x38d27e12	0.00010037063
91	0x38844525	6.30713e-05
92	0x38aeb71e	8.331075e-05
93	0x39aa6ef9	0.00032507608
94	0x397bc893	0.00024011945
95	0x398579a3	0.00025458363
96	0x3973bc67	0.00023244471
97	0x390e4e55	0.00013571356
98	0x384e874e	4.924024e-05
99	0x3856550c	5.1100782e-05
100	0x398c3113	0.00026739444
101	0x3a03d97d	0.00050296617
102	0x38b97cfe	8.844769e-05
103	0x397a6d43	0.00023882561
104	0x39baebeb	0.00035652457
105	0x3987ce6b	0.00025903
106	0x38609853	5.3547625e-05
107	0x38d108b7	9.96752e-05
108	0x39ac262f	0.00032834845
109	0x39659eed	0.00021898346
110	0x3855a9e4	5.094138e-05
111	0x392af66d	0.00016304264
112	0x3994e005	0.00028395667
113	0x392be36c	0.00016392552
114	0x38266450	3.9670907e-05
115	0x3971b141	0.00023049583
116	0x3983c45f	0.00025132575
117	0x38babab8	8.90395e-05
118	0x397fc8e2	0.0002439353
119	0x398831e5	0.00025977116
120	0x3991ba6a	0.00027795444
121	0x39ce9206	0.00039400178
122	0x39a8c627	0.00032191092
123	0x398667c9	0.00025635798
124	0x3974fd5f	0.00023364041
125	0x38e2d079	0.00010815351
126	0x399ac9d4	0.00029523543
127	0x3941db70	0.00018487661
128	0x395c73a0	0.00021023909
129	0x393e6316	0.00018156724
130	0x3946fc57	0.00018976755
131	0x39b4c47b	0.00034478665
132	0x3849a7aa	4.8078284e-05
133	0x3887045e	6.438115e-05
134	0x398a638b	0.00026395576
135	0x39bb8214	0.00035764335
136	0x3999f6b5	0.00029366245
137	0x398642e7	0.00025608318
138	0x396ca1af	0.00022566946
139	0x3952d821	0.00020107675
140	0x39402c35	0.00018327015
141	0x3850fdfb	4.9827602e-05
142	0x3826718f	3.9683244e-05
143	0x38406548	4.5870693e-05
144	0x38ba6dd8	8.889631e-05
145	0x3932274b	0.0001699004
146	0x395a9e1f	0.00020849005
147	0x3974492b	0.0002329691
148	0x3995ae89	0.00028549533
149	0x395c2533	0.00020994693
150	0x39895e15	0.00026200773
151	0x395e74ff	0.00021215154
152	0x38e8b75d	0.00011096776
153	0x392988ca	0.00016168054
154	0x39a37c5d	0.0003118244
155	0x3a0525e3	0.0005079193
156	0x38e8b34a	0.00011096017
157	0x394cbca4	0.0001952523
158	0x39d6f67a	0.000410009
159	0x37d1cc4e	2.5009878e-05
160	0x38997152	7.316716e-05
161	0x3978b5eb	0.00023718893
162	0x3a2e89b3	0.0006658092
163	0x39c25a78	0.00037069968
164	0x388a7af0	6.603252e-05
165	0x3a28a855	0.0006433775
166	0x39a90d2b	0.00032244003
167	0x3880a91d	6.1350154e-05
168	0x3a18c669	0.0005827905
169	0x39a69f0f	0.00031780495
170	0x38801585	6.107524e-05
171	0x388a5808	6.59675e-05
172	0x386a0700	5.5796467e-05
173	0x386a73b9	5.5897723e-05
174	0x39966149	0.00028682713
175	0x399d2370	0.00029971777
176	0x39a9868f	0.00032334446
177	0x3a0f7c72	0.0005473561
178	0x3a2165da	0.00061568397
179	0x3a29c4e9	0.000647618
180	0x38098b76	3.279323e-05
181	0x38d5b968	0.00010191166
182	0x3965b43f	0.00021906289
183	0x38007236	3.0623945e-05
184	0x38e8ffdf	0.00011110282
185	0x397bafcb	0.00024002713
186	0x38571688	5.128098e-05
187	0x392349a0	0.00015572319
188	0x3998e720	0.000291639
189	0x3a07d05d	0.000518089
190	0x392ab407	0.00016279529
191	0x376f6d0b	1.4270899e-05
192	0x3977a26c	0.00023616262
193	0x38ea419c	0.0001117021
194	0x378a8f87	1.6517717e-05
195	0x380477ff	3.1583008e-05
196	0x385fb775	5.33382e-05
197	0x3754fade	1.2694594e-05
198	0x37421f81	1.1570636e-05
199	0x372c3f36	1.0266716e-05
200	0x371ff8db	9.53508e-06
201	0x3770c987	1.43520365e-05
202	0x3871e202	5.7669364e-05
203	0x392e74e9	0.00016637486
204	0x394cc344	0.00019527698
205	0x39b70276	0.00034906314
206	0x3a1deae9	0.0006024079
207	0x393eaf03	0.00018185009
208	0x39bbd852	0.0003582859
209	0x39ae30a5	0.0003322411
210	0x3905cf46	0.00012761084
211	0x39b49dad	0.00034449753
212	0x39bbb5fe	0.00035803014
213	0x399f4b42	0.00030382915
214	0x39cb4e5e	0.00038777565
215	0x39c7b92f	0.0003809421
216	0x399eea3c	0.00030310627
217	0x39862791	0.0002558795
218	0x397b402e	0.00023961134
219	0x385c2397	5.2485233e-05
220	0x3822f2a2	3.884978e-05
221	0x38268d7f	3.9709263e-05
222	0x399f2047	0.00030350892
223	0x398f4454	0.00027325994
224	0x39a5ab88	0.00031599053
225	0x3960800a	0.00021410003
226	0x3809b500	3.2831915e-05
227	0x3835eb38	4.3372827e-05
228	0x39ade70b	0.00033169272
229	0x391c970b	0.00014933587
230	0x38f08516	0.00011468881
231	0x39ee460f	0.00045447095
232	0x39560bf6	0.00020413086
233	0x390944c2	0.00013090952
234	0x37f7d1f5	2.9542463e-05
235	0x38f125c9	0.000114988135
236	0x3937e165	0.00017536206
237	0x37f85307	2.9602566e-05
238	0x38f93f4b	0.000118850345
239	0x39371652	0.00017460555
240	0x38c24a06	9.264429e-05
241	0x39546ccd	0.00020258427
242	0x396a80ab	0.00022363912
243	0x391f4a6a	0.00015191143
244	0x388598a2	6.370364e-05
245	0x37625370	1.34900765e-05
246	0x396d1309	0.00022609172
247	0x390cffd1	0.0001344674
248	0x38a83808	8.021301e-05
249	0x396b3fe5	0.00022435149
250	0x396e3628	0.00022717624
251	0x392e7488	0.00016637344
252	0x380be650	3.3354678e-05
253	0x38c23bda	9.261789e-05
254	0x398e745e	0.0002717105
255	0x38d9d8fa	0.000103877814

exp_avg f4 [32]
0	0xb27939f3	-1.4506884e-08
1	0x31244dab	2.390929e-09
2	0x30e91502	1.6958952e-09
3	0xb2598b0d	-1.2662679e-08
4	0x310d4711	2.0558597e-09
5	0xb214602b	-8.6366e-09
6	0x31c935a0	5.8559664e-09
7	0x3108677e	1.9849433e-09
8	0xb089382a	-9.984025e-10
9	0x31442a5a	2.8545828e-09
10	0xb1b0eff1	-5.1495523e-09
11	0xb1b6533d	-5.3063602e-09
12	0xb11c5092	-2.2746787e-09
13	0x318018f7	3.7281285e-09
14	0x31a60965	4.832304e-09
15	0x31cbc15e	5.930061e-09
16	0xb12ef8a3	-2.5461666e-09
17	0xaf5b5aed	-1.9950237e-10
18	0x320d3ae2	8.220669e-09
19	0xb1a235f3	-4.720954e-09
20	0xb1546f56	-3.0913347e-09
21	0xb14ba173	-2.9632161e-09
22	0x3155962c	3.1080942e-09
23	0x3107e218	1.9773605e-09
24	0x304e6d08	7.5097306e-10
25	0xb138d2c8	-2.689534e-09
26	0x3183b499	3.8331334e-09
27	0xb0147047	-5.400164e-10
28	0xb238ae19	-1.0749795e-08
29	0xb14263ae	-2.8287377e-09
30	0xb2016b34	-7.533163e-09
31	0x30affe3f	1.2805187e-09
