CS330/XCS330-PS3/src/submission/logs/maml/omniglot.way_5.support_1.query_15.inner_steps_1.inner_lr_0.04.learn_inner_lrs_False.outer_lr_0.001.batch_size_16/state10500.pt (torch, 353186 bytes, 30 tensors)

conv0 f4 [32, 1, 3, 3]
0.32915068 -0.4849589 0.026249502 -0.0011662418 -0.09913386 0.052572094 0.3090037 0.12901385
0.055053964 0.10262067 0.20265493 0.2733976 -0.19420518 -0.21117629 -0.27730742 -0.4231432
-0.055708665 -0.08167019 0.37872398 0.13086084 0.14362097 -0.022121307 -0.037372675 -0.15569715
-0.057141293 -0.5356854 -0.56730855 0.16463174 0.017113762 -0.26245856 0.16038375 -0.5811623
-0.13250464 -0.43093884 0.029734021 0.3099568 -0.029238641 0.06730175 0.10253663 0.042233232
-0.2418369 0.085188515 0.42059147 -0.7780288 0.18463326 0.1115502 0.12496236 -0.34635532
-0.1377776 0.18229768 -0.2895481 -0.3680856 -0.3982528 -0.009258051 -0.2728943 -0.46987328
-0.2737955 -0.25680587 0.0059066704 -0.17796728 0.43408898 -0.083188385 -0.0144380955 -0.083127804
-0.21908018 -0.07648578 -0.0913372 -0.030531889 -0.13676776 -0.21718048 0.46867773 -0.29761457
-0.029593078 -0.50114 -0.29112697 0.3496835 0.11478494 -0.18678564 -0.26522294 0.030090407
0.17248699 -0.25475478 -0.39224404 -0.27195597 -0.18830071 -0.17537215 0.054499567 0.3047077
0.10448834 0.29513457 -0.080560245 -0.041396506 -0.40260997 0.05157897 -0.08376391 0.4721046
-0.059783068 -0.012736303 -0.546277 -0.30531514 0.15692711 0.02931062 -0.39389125 0.065734215
0.22711931 0.15501048 -0.52300334 -0.3507468 0.21575907 -0.15834543 -0.47245988 -0.124048114
0.05537962 -0.010989581 -0.55521023 0.027096465 0.3595137 -0.58327127 0.20428318 0.24458645
-0.051842656 0.114839114 0.029864496 -0.04559101 0.010197006 -0.50168854 0.010047439 -0.061341
-0.13503854 -0.051286925 -0.01067958 0.11256646 -0.4884296 -0.54875857 0.42287633 0.20154248
0.08450989 -0.010058235 0.10082779 0.1401389 -0.024252411 -0.50057757 -0.5236664 -0.4060702
-0.40881887 -0.20958377 0.19492663 -0.11181667 0.21614051 0.017116038 0.35184735 -0.06654619
-0.4366071 -0.27489734 0.1686082 0.20157303 -0.44058046 0.117234364 0.2939537 -0.5174429
-0.51716036 -0.21887745 0.20703502 0.03505979 -0.59744656 0.14931747 0.13759172 -0.68240756
0.09414661 -0.031229317 -0.60663813 -0.5697497 -0.71869427 -0.6591705 -0.012800911 0.16082467
0.05157021 0.019476408 0.26083452 0.16412766 -0.26780632 -0.1986282 -0.024607692 -0.4103359
0.014941324 0.11961107 -0.51176876 0.15385832 0.23741043 0.14826666 0.008608372 -0.46054468
0.096033074 0.08542094 -0.46082464 -0.4528326 -0.35734025 -0.26608387 -0.29573807 -0.4497879
-0.46813473 -0.43070424 0.04477418 0.0326828 -0.3719026 0.07609922 0.15881953 0.3976056
0.012193664 -0.006050086 -0.8610557 -0.0135897305 -0.013733862 0.3573895 -0.014931705 -0.0063553215
0.13965423 0.2126231 -0.052483648 -0.48550433 -0.5188194 -0.47726396 0.14303224 -0.013071063
0.11400911 -0.31610495 -0.49583542 -0.26249775 0.18543953 0.053697508 -0.16684772 0.3023184
-0.09439545 -0.25206694 -0.47514918 0.0063533806 -0.04606162 -0.43935508 -0.027529657 0.02604532
-0.13087313 0.07623147 0.34433874 -0.035721373 -0.14817214 0.93841445 0.10178283 -0.040342733
0.10702644 -0.02548162 0.11125105 -0.03397186 -0.41432044 -0.14716928 0.043109965 -0.27992883
00000000: 7086 a83e 884c f8be 3209 d73c 95dc 98ba
00000010: b106 cbbd d655 573d bc35 9e3e 351c 043e
00000020: 4480 613d c92a d23d c684 4f3e c5fa 8b3e
00000030: b9dd 46be 993e 58be 3dfb 8dbe 3aa6 d8be
00000040: c52e 64bd b342 a7bd 1ce8 c13e 6200 063e
00000050: 6011 133e be37 b5bc 1714 19bd 136f 1fbe
00000060: fd0c 6abd ae22 09bf 223b 11bf 3995 283e
00000070: 2932 8c3c f860 86be a33b 243e 0dc7 14bf
00000080: 4caf 07be 04a4 dcbe c394 f33c a8b2 9e3e
00000090: e085 efbc 80d5 893d bafe d13d c1fc 2c3d
000000a0: 18a4 77be 5177 ae3d c457 d73e e52c 47bf
000000b0: 8010 3d3e 6e74 e43d 44ec ff3d 7c55 b1be
000000c0: 9215 0dbe 3eac 3a3e a63f 94be b775 bcbe
000000d0: cae7 cbbe 15af 17bc cdb8 8bbe 3b93 f0be
000000e0: ec2e 8cbe 0f7c 83be be8c c13b 0e3d 36be
000000f0: e940 de3e ac5e aabd c38d 6cbc e93e aabd
00000100: 8e56 60be 94a4 9cbd ff0e bbbd 031e fabc
00000110: d90c 0cbe 8f64 5ebe 87f6 ef3e f060 98be
00000120: 2f6d f2bc b64a 00bf 980e 95be b709 b33e
00000130: 5e14 eb3d bc44 3fbe 4dcb 87be 2880 f63c
00000140: 6ea0 303e 386f 82be 36d4 c8be d03d 8bbe
00000150: e7d1 40be c294 33be f03a 5f3d a602 9c3e
00000160: fcfd d53d e11b 973e c5fc a4bd 628f 29bd
00000170: e522 cebe 7844 533d 6a8c abbd b2b7 f13e
00000180: 17df 74bd edab 50bc cfd8 0bbf 4452 9cbe
00000190: 80b1 203e d31c f03c 1dac c9be a99f 863d
000001a0: f791 683e 11bb 1e3e 8ce3 05bf 1695 b3be
000001b0: f2ef 5c3e 4e25 22be 43e6 f1be f00c febd
000001c0: bed5 623d a50d 34bc 4222 0ebf 68f9 dd3c
000001d0: 2e12 b83e 4451 15bf 9c2f 513e df74 7a3e
000001e0: f758 54bd c530 eb3d 63a6 f43c a4bd 3abd
000001f0: 5811 273c a96e 00bf 039e 243c b340 7bbd
00000200: 8b47 0abe 3d12 52bd 68f9 2ebc 3f89 e63d
00000210: 7213 fabe 717b 0cbf 3f83 d83e 2761 4e3e
00000220: 8513 ad3d 4ccb 24bc cd7e ce3d 9280 0f3e
00000230: feac c6bc da25 00bf 000f 06bf 6fe8 cfbe
00000240: b550 d1be 219d 56be d99a 473e 2300 e5bd
00000250: f053 5d3e ef36 8c3c 5625 b43e 5e49 88bd
00000260: f78a dfbe 58bf 8cbe a1a7 2c3e 2969 4e3e
00000270: c393 e1be 9218 f03d 1981 963e 2377 04bf
00000280: 9f64 04bf 6921 60be fd00 543e db9a 0f3d
00000290: 42f2 18bf aee6 183e d8e4 0c3e 43b2 2ebf
000002a0: f0cf c03d a0d4 ffbc a34c 1bbf 1edb 11bf
000002b0: 59fc 37bf 66bf 28bf eaba 51bc 39af 243e
000002c0: 493b 533d fd8c 9f3c 1a8c 853e 1511 283e
000002d0: e91d 89be 3165 4bbe 1296 c9bc 8c17 d2be
000002e0: 74cc 743c a6f6 f43d 4703 03bf 098d 1d3e
000002f0: b81b 733e 37d3 173e 210a 0d3c 83cc ebbe
00000300: fdac c43d 2cf1 ae3d 35f1 ebbe add9 e7be
00000310: 4df5 b6be 253c 88be fb6a 97be 9a4a e6be
00000320: 5baf efbe 4485 dcbe 2165 373d 66de 053d
00000330: 056a bebe e8d9 9b3d 96a1 223e f692 cb3e
00000340: efc7 473c cd3f c6bb 256e 5cbf 76a7 5ebc
00000350: fe03 61bc c2fb b63e 1ca4 74bc 4d40 d0bb
00000360: 8501 0f3e dfb9 593e 18f9 56bd 0694 f8be
00000370: 59d1 04bf f15b f4be 0b77 123e 0328 56bc
00000380: 9c7d e93d 82d8 a1be 24de fdbe 1b66 86be
00000390: dce3 3d3e ebf1 5b3d 21da 2abe 7ac9 9a3e
000003a0: 6752 c1bd eb0e 81be c146 f3be 0530 d03b
000003b0: 1cab 3cbd 26f3 e0be e085 e1bc ff5c d53c
000003c0: 9b03 06be 3f1f 9c3d 2b4d b03e 9350 12bd
000003d0: 70ba 17be ee3b 703f 8473 d03d 6c3e 25bd
000003e0: ae30 db3d d5be d0bc 97d7 e33d 1426 0bbd
000003f0: cf21 d4be 8bb3 16be 1394 303d d552 8fbe

b0 f4 [32]
-0.016960444 -0.13136257 0.08070214 -0.016043792 -0.029658109 0.0921345 -0.020402674 0.11012166
0.11696717 0.027108094 -0.07824074 0.04711666 0.035047255 -0.027708039 0.1400805 0.07516198
0.009752779 0.037067268 -0.10301921 0.09076027 0.14667495 -0.045278884 -0.05690902 -0.0855561
0.053587258 -0.009478518 0.046689257 -0.066142574 0.05114233 0.08046326 -0.04302618 0.13182937
00000000: a1f0 8abc e983 06be 2a47 a53d 456e 83bc
00000010: 90f5 f2bc 03b1 bc3d 8223 a7bc 7787 e13d
00000020: 7c8c ef3d cb11 de3c ae3c a0bd 66fd 403d
00000030: b68d 0f3d f8fb e2bc 4371 0f3e 86ee 993d
00000040: 1fca 1f3c d9d3 173d bcfb d2bd 85e0 b93d
00000050: f531 163e 5a76 39bd 6f19 69bd 0938 afbd
00000060: 507e 5b3d c94b 1bbc 3c3d 3f3d c275 87bd
00000070: 9f7a 513d ecc9 a43d 383c 30bd 47fe 063e

conv1 f4 [32, 32, 3, 3]
-0.18720078 -0.019129895 -0.019397926 -0.22646445 -0.12355425 -0.0792129 -0.062048014 -0.023641419
0.029480657 0.08200067 0.046276137 -0.088941604 -0.059832513 0.08257382 0.032705925 -0.05996959
-0.15384932 -0.033340216 0.14281614 -0.026667355 0.103450574 0.02828673 0.05854862 0.14051004
-0.06681639 -0.13814197 -0.20384587 -0.09050344 -0.07266857 -0.12696394 0.06347612 0.10950798
0.06498155 -0.03892295 -0.09997897 -0.018975355 -0.071243815 -0.035540808 0.14415751 -0.1699495
-0.1258486 0.029400492 -0.14133424 -0.25164178 0.0010067279 -0.012881457 0.015533256 -0.111765265
0.14104263 0.18081272 0.014619147 0.17993268 -0.025093235 0.0016392965 0.16180007 -0.007760078
-0.007194665 0.11856906 0.13185887 0.07398015 -0.00033797117 0.00872574 -0.12775335 0.05258983
0.16586548 0.0142405005 0.1015297 0.18172166 0.10071778 0.10181659 -0.08096478 -0.18297745
-0.18077636 -0.17003816 -0.17740634 -0.10051837 0.07526591 -0.06339823 0.066746294 -0.013142132
0.110329606 -0.07706966 -0.19368269 -0.41263402 0.015010367 -0.13012843 0.009515162 0.11737968
0.031992503 0.014633349 -0.12378065 -0.11054884 -0.14212345 0.196098 -0.0040345173 -0.06395099
-0.004395327 -0.029033603 -0.120095745 0.07396922 0.15517294 0.0028016863 0.0072062546 0.06889227
-0.0007473672 -0.037444416 -0.12445843 -0.03271483 -0.1933487 -0.13780841 -0.14431533 -0.0037113132
0.0015869195 0.09858559 -0.16107734 -0.13190405 -0.17248338 -0.08464063 -0.045795534 -0.073403485
0.007975676 0.010708059 0.0384091 -0.10094425 -0.32109356 -0.078739606 -0.028172264 -0.3477597
0.059442073 0.024364542 -0.30545473 -0.008183911 -0.16706261 -0.121085465 -0.074939504 -0.0369596
0.01950611 0.059638698 0.0439232 -0.002213528 -0.08904733 -0.13437852 -0.17303956 -0.1388335
-0.12608229 -0.0953479 -0.04934189 -0.07762433 0.021387447 0.050021272 -0.102744125 -0.23105437
-0.089357294 0.12832974 0.11163764 0.06888032 0.065807045 -0.096695125 0.17880225 -0.022679837
-0.14535674 -0.13183992 -0.02135604 0.056983113 -0.0712146 0.07157775 0.16092074 0.16698422
0.09092039 -0.09325531 0.051999092 0.09729964 -0.0811298 -0.12329335 0.27800125 -0.056757983
-0.11423043 0.13216832 0.08774904 -0.041332398 0.008058345 -0.21155795 -0.07134002 0.052620143
0.087552376 -0.04631632 -0.060762733 -0.072138466 -0.08474224 -0.019092474 -0.04571622 -0.037516173
0.108634144 0.17929071 0.14318262 0.17583185 -0.028525839 -0.081163466 0.08491179 0.07846089
-0.023564914 0.13967276 0.26887825 0.116289265 0.12393618 -0.11919111 -0.18612072 -0.030336361
-0.036623728 -0.017226761 0.045000684 -0.07286554 -0.08942514 -0.10474871 -0.030746082 -0.063450985
-0.040128816 -0.045102865 -0.15691736 0.13928913 0.17034136 -0.012450121 0.06298985 -0.07031059
-0.1578101 0.054309662 0.073601775 -0.08881777 0.14941761 0.04035922 0.080452144 0.024200799
0.048562407 -0.2111102 0.0045911265 -0.12301929 0.031216929 0.11858109 -0.009044559 -0.09460279
-0.13071428 -0.14037965 -0.07161339 0.03759946 0.06501845 0.11555579 0.057985947 -0.12013513
0.029352972 -0.031352807 -0.25871298 0.0034800072 0.051657148 -0.11832386 0.1258186 0.23302647
00000000: 90b1 3fbe 4cb6 9cbc 66e8 9ebc 4ce6 67be
00000010: 030a fdbd 5f3a a2bd 0f26 7ebd a6ab c1bc
00000020: 6b81 f13c f8ef a73d 0c8c 3d3d 0427 b6bd
00000030: f012 75bd 771c a93d a6f6 053d aca2 75bd
00000040: ad8a 1dbe c08f 08bd 653e 123e 7f75 dabc
00000050: e5dd d33d 93b9 e73c aed0 6f3d dde1 0f3e
00000060: 08d7 88bd 1775 0dbe f9bc 50be de59 b9bd
00000070: 42d3 94bd d602 02be c5ff 813d b845 e03d
00000080: 0c15 853d ac6d 1fbd c6c1 ccbd 3472 9bbc
00000090: 47e8 91bd 3d93 11bd 079e 133e 3e07 2ebe
000000a0: 75de 00be 4dd9 f03c ecb9 10be 31d7 80be
000000b0: 2ff4 833a bf0c 53bc 337f 7e3c 30e5 e4bd
000000c0: 7b6d 103e f826 393e 2685 6f3c 4640 383e
000000d0: 5490 cdbc aadd d63a ebae 253e 4148 febb
000000e0: 39c1 ebbb 56d4 f23d 0306 073e e882 973d
000000f0: b931 b1b9 68f6 0e3c c6d1 02be 6f68 573d
00000100: a4d8 293e fd50 693c ceee cf3d 3e15 3a3e
00000110: 2045 ce3d 3785 d03d ddd0 a5bd 715e 3bbe
00000120: 701d 39be 7c1e 2ebe 02aa 35be 93dc cdbd
00000130: 0325 9a3d eed6 81bd 48b2 883d 1952 57bc
00000140: 7df4 e13d b3d6 9dbd c154 46be c444 d3be
00000150: 0bee 753c 6340 05be 7be5 1b3c c264 f03d
00000160: 920a 033d b7c0 6f3c b680 fdbd 6e67 e2bd
00000170: cf88 11be eacd 483e fc33 84bb bdf8 82bd
00000180: ad06 90bb e1d7 edbc c2f4 f5bd 2d7d 973d
00000190: a8e5 1e3e 7f9c 373b 7222 ec3b 6417 8d3d
000001a0: f7ea 43ba 515f 19bd 10e4 febd fcff 05bd
000001b0: 34fd 45be a61d 0dbe 66c7 13be 8139 73bb
000001c0: 2f00 d03a 3ee7 c93d 75f1 24be db11 07be
000001d0: 7c9f 30be 1158 adbd 1994 3bbd 9154 96bd
000001e0: 69ac 023c db70 2f3c dc52 1d3d dcbb cebd
000001f0: 6066 a4be 3b42 a1bd 85c9 e6bc 8f0d b2be
00000200: 8879 733d 2698 c73c 9064 9cbe d015 06bc
00000210: 7612 2bbe a8fb f7bd e279 99bd f362 17bd
00000220: 47cb 9f3c b547 743d d0e8 333d d610 11bb
00000230: 725e b6bd 869a 09be 4831 31be 5e2a 0ebe
00000240: b71b 01be c345 c3bd b91a 4abd 81f9 9ebd
00000250: ba34 af3c 1be3 4c3d 836b d2bd 8499 6cbe
00000260: f500 b7bd df68 033e 46a2 e43d 2011 8d3d
00000270: d8c5 863d 1808 c6bd f017 373e 11cb b9bc
00000280: 66d8 14be 0b01 07be ddf2 aebc 2067 693d
00000290: f6d8 91bd 5b97 923d 68c8 243e e9fd 2a3e
000002a0: 7834 ba3d a4fc bebd 00fd 543d 0945 c73d
000002b0: 6127 a6bd 3981 fcbd 2e56 8e3e 0f7b 68bd
000002c0: a5f1 e9bd 2257 073e c5b5 b33d 294c 29bd
000002d0: 2607 043c a6a2 58be b71a 92bd 3888 573d
000002e0: a94e b33d 2eb6 3dbd 58e2 78bd 55bd 93bd
000002f0: 578d adbd d267 9cbc ee40 3bbd 8faa 19bd
00000300: 947b de3d fc97 373e 779e 123e 440d 343e
00000310: 05af e9bc 0839 a6bd 3ce6 ad3d 1ab0 a03d
00000320: 350b c1bc 6006 0f3e 69aa 893e 1129 ee3d
00000330: 40d2 fd3d 781a f4bd 6e96 3ebe f683 f8bc
00000340: c302 16bd 231f 8dbc a352 383d 873a 95bd
00000350: 8724 b7bd 7e86 d6bd 35df fbbc 97f2 81bd
00000360: 1d5e 24bd c8bd 38bd f2ae 20be cfa1 0e3e
00000370: f76d 2e3e 98fb 4bbc d300 813d 00ff 8fbd
00000380: f998 21be cf73 5e3d 87bc 963d 17e6 b5bd
00000390: ee00 193e b64f 253d 18c4 a43d c140 c63c
000003a0: 60e9 463d 462d 58be 2971 963b 8af1 fbbd
000003b0: a5ba ff3c a4da f23d a12f 14bc 1cbf c1bd
000003c0: f7d9 05be afbf 0fbe 0baa 92bd e401 1a3d
000003d0: 6528 853d 84a8 ec3d ac82 6d3d 6809 f6bd
000003e0: a575 f03c cd6b 00bd 0776 84be d510 643b
000003f0: 7296 533d c853 f2bd 97d6 003e 7e9e 6e3e

b1 f4 [32]
0.07832984 0.08612712 0.13505058 -0.025127292 0.071833976 -0.02713154 0.05635304 0.090333775
-0.06820797 0.112052254 0.021514043 -0.030716617 -0.053602032 -0.037897892 -0.21013883 -0.062299304
0.4553505 0.037167978 0.21288712 0.013609139 0.041987147 0.060796253 0.08657491 0.047550224
-0.005339242 -0.018575555 -0.008157919 -0.08932615 0.05301417 -0.022890473 0.13968787 0.07900076
00000000: 656b a03d 6a63 b03d b34a 0a3e c0d7 cdbc
00000010: b11d 933d f742 debc 72d2 663d ea00 b93d
00000020: 9fb0 8bbd a77b e53d 383e b03c 6aa1 fbbc
00000030: ce8d 5bbd d23a 1bbd a22e 57be 8e2d 7fbd
00000040: b323 e93e 733d 183d 15ff 593e def8 5e3c
00000050: b7fa 2b3d 7e05 793d 304e b13d 06c4 423d
00000060: cff4 aebb c32b 98bc cba8 05bc a1f0 b6bd
00000070: 6325 593d cd84 bbbc 560a 0f3e 27cb a13d

conv2 f4 [32, 32, 3, 3]
0.060393047 0.17722528 0.0497078 -0.0040616593 -0.0095152045 0.0577221 -0.25450006 0.04822894
-0.061904144 -0.03269253 -0.17850128 -0.13185135 0.044251762 0.004938025 0.016926432 0.08354014
0.12519631 0.045005552 0.17049536 0.20591363 0.05777444 0.00086218124 0.124970466 0.027343355
0.008901794 0.14663929 -0.031106567 0.13497739 0.18888283 -0.005457077 0.012776342 0.0011031716
-0.052530907 -0.07342729 0.14939933 0.0043428214 -0.060213283 -0.021254014 -0.08531678 -0.026967686
-0.013464391 0.0032584365 0.07325126 -0.024381582 0.07807255 0.011344908 -0.01511198 0.059112288
0.036752276 0.030533198 0.046241727 -0.032453135 -0.091651425 -0.0871257 0.10047076 0.08581067
-0.06335756 0.09087136 0.068177 -0.038415078 0.034769524 -0.099410355 -0.033194248 0.08993084
0.052116152 0.00663588 0.010806864 0.009330824 0.07538919 -0.06435849 -0.055693693 -0.05067097
0.0039223777 -0.05326836 0.002328843 0.12576823 0.04296494 -0.007955697 0.050221197 0.10866285
-0.05739187 0.00768648 -0.059060827 -0.1502675 0.011708938 -0.10703027 0.03193418 0.12888099
0.023261044 -0.022070952 -0.21600716 -0.105817325 -0.1175008 -0.0703001 0.011806703 -0.048287928
0.051254284 -0.0048216614 -0.044413306 -0.03515595 0.0055451365 0.026616832 -0.0022691044 0.0427729
0.091216646 0.07538119 0.14860019 0.17070684 -0.16220823 -0.015999252 0.10467742 0.06642713
0.03886118 0.10531567 0.122741766 0.08198756 0.21319212 0.005383163 0.10804659 -0.009186724
0.08317043 0.10131142 -0.010177051 -0.0143191675 -0.046610188 -0.044627573 0.012098608 0.03714852
-0.0023819047 -0.0014620256 0.007371908 0.023680564 -0.061906602 0.054638308 0.043832436 -0.115672916
0.0063460506 -0.100492716 -0.059982616 -0.09382108 -0.08022544 -0.14454986 0.059551746 0.024586776
-0.06092378 0.043696098 0.057734758 -0.043545365 -0.016914314 -0.062129453 -0.07247912 0.09582714
-0.058796167 0.06608266 0.062339116 -0.1124859 0.06478286 -0.020687897 -0.047716446 0.001998619
-0.02261361 -0.105557986 -0.044725228 -0.021577548 0.06222139 -0.0729108 0.0024314155 0.07127832
0.04639861 -0.027357502 0.10853502 -0.1964422 -0.022281565 -0.23840727 -0.069346055 -0.024245791
-0.091073625 -0.038842846 0.04312576 -0.058088824 0.16025318 0.16752133 0.02244067 0.14387137
-0.018799843 -0.174346 -0.042930815 0.02012967 -0.12556967 -0.037876274 -0.06960811 0.0065181428
0.12711649 0.12783736 0.19704384 0.057063732 0.0707659 0.118709646 0.00094743195 -0.031928066
-0.07703356 0.06372494 -0.079181865 -0.15460734 -0.03016881 -0.06410169 -0.1536853 0.068951644
0.037481032 0.043461982 -0.036792807 -0.03657663 0.07877725 0.17320637 0.087604776 -0.07564696
-0.09234739 -0.037476815 -0.17387055 0.011821195 -0.031020377 -0.02425625 -0.101398386 -0.12907569
-0.10042423 0.0475615 0.082879715 -0.069775745 0.09996942 0.053620648 -0.058272064 0.09026041
-0.0365263 0.04153914 0.0755874 0.03949546 0.18710536 0.13898984 -0.023022065 0.067059934
0.14234433 0.014529386 0.20237307 -0.06572083 -0.17336866 -0.046801552 0.08658946 -0.0052876147
0.016181977 0.10150082 -0.05813953 0.11145636 0.042698525 -0.023892902 -0.12687959 0.08746983
00000000: b35e 773d 8b7a 353e 689a 4b3d ab17 85bb
00000010: a9e5 1bbc 026e 6c3d d54d 82be b68b 453d
00000020: 338f 7dbd 9ae8 05bd 0ac9 36be 0a04 07be
00000030: 5641 353d 28cf a13b 4da9 8a3c 1817 ab3d
00000040: 7633 003e be57 383d 5696 2e3e 06db 523e
00000050: e4a4 6c3d 0104 623a 84f0 ff3d 2cff df3c
00000060: d5d8 113c 9c28 163e 33d3 febc 8337 0a3e
00000070: 806a 413e 48d1 b2bb dd53 513c 4c98 903a
00000080: a62a 57bd 0c61 96bd 23fc 183e 3a4e 8e3b
00000090: 34a2 76bd e61c aebc 90ba aebd 56eb dcbc
000000a0: c099 5cbc 7e8b 553b c204 963d e2bb c7bc
000000b0: 80e4 9f3d fedf 393c 3d98 77bc ba1f 723d
000000c0: 8e89 163d c220 fa3c f767 3d3d 94ed 04bd
000000d0: beb3 bbbd f66e b2bd 9dc3 cd3d 81bd af3d
000000e0: 9cc1 81bd c31a ba3d 62a0 8b3d 2159 1dbd
000000f0: 7d6a 0e3d a897 cbbd b1f6 07bd a92d b83d
00000100: bf77 553d cc71 d93b 460f 313c 50e0 183c
00000110: a665 9a3d 62ce 83bd 121f 64bd 5d8c 4fbd
00000120: 4a87 803b ed2f 5abd 819f 183b 63c9 003e
00000130: 01fc 2f3d 9d58 02bc beb4 4d3d a18a de3d
00000140: bd13 6bbd dede fb3b c4e9 71bd b9df 19be
00000150: d8d6 3f3c b032 dbbd 6acd 023d 61f9 033e
00000160: f28d be3c 24ce b4bc fb30 5dbe c1b6 d8bd
00000170: 42a4 f0bd 80f9 8fbd e770 413c 90c9 45bd
00000180: 03f0 513d 07ff 9dbb baea 35bd afff 0fbd
00000190: fab3 b53b 8b0b da3c 41b5 14bb a332 2f3d
000001a0: cbcf ba3d 7461 9a3d a62a 183e c6cd 2e3e
000001b0: ea19 26be dd10 83bc 1d61 d63d f20a 883d
000001c0: e72c 1f3d beaf d73d 0960 fb3d 18e9 a73d
000001d0: 094f 5a3e 3f65 b03b 8847 dd3d ea83 16bc
000001e0: 4255 aa3d 5d7c cf3d a5bd 26bc f19a 6abc
000001f0: 53ea 3ebd 67cb 36bd 3d39 463c 0c29 183d
00000200: bb19 1cbb 70a1 bfba 0c90 f13b befd c13c
00000210: c791 7dbd 6bcc 5f3d a489 333d ece5 ecbd
00000220: 88f2 cf3b 20cf cdbd 55b0 75bd 4425 c0bd
00000230: 3c4d a4bd e104 14be 88ec 733d 356a c93c
00000240: 378b 79bd aefa 323d 487b 6c3d a05c 32bd
00000250: e38f 8abc 747b 7ebd ef6f 94bd 0541 c43d
00000260: 40d4 70bd 5856 873d 4d57 7f3d 025f e6bd
00000270: e0ac 843d aa79 a9bc 5272 43bd 43fb 023b
00000280: 2d40 b9bc c92e d8bd cd31 37bd 66c3 b0bc
00000290: dbdb 7e3d 4252 95bd 6258 1f3b 5efa 913d
000002a0: 780c 3e3d d71c e0bc 9c47 de3d 2528 49be
000002b0: d487 b6bc 0921 74be 4e05 8ebd 1c9f c6bc
000002c0: cf84 babd ad19 1fbd a3a4 303d 8cee 6dbd
000002d0: 6919 243e b68a 2b3e 7fd5 b73c 0453 133e
000002e0: 2102 9abc c287 32be 39d8 2fbd fae6 a43c
000002f0: 5695 00be 2724 1bbd b28e 8ebd 2596 d53b
00000300: d32a 023e cce7 023e dcc5 493e a9bb 693d
00000310: b6ed 903d 0b1e f33d 155d 783a 01c7 02bd
00000320: c5c3 9dbd 3982 823d 1a2a a2bd 6351 1ebe
00000330: 9524 f7bc bf47 83bd ae5f 1dbe 8536 8d3d
00000340: b685 193d 3105 323d 0eb4 16bd 60d1 15bd
00000350: f855 a13d 035d 313e 226a b33d cbec 9abd
00000360: a120 bdbd 4a81 19bd 1f0b 32be afad 413c
00000370: 721e febc 0bb5 c6bc f5a9 cfbd 6b2c 04be
00000380: 38ab cdbd d9cf 423d d7bc a93d 96e6 8ebd
00000390: c4bc cc3d 53a1 5b3d b0ae 6ebd 73da b83d
000003a0: 9a9c 15bd f224 2a3d 91cd 9a3d fec5 213d
000003b0: 8c98 3f3e 5a53 0e3e c598 bcbc b856 893d
000003c0: b6c2 113e a90c 6e3c e33a 4f3e a498 86bd
000003d0: 8e87 31be fcb2 3fbd d155 b13d ba43 adbb
000003e0: 1190 843c a9df cf3d b723 6ebd 3b43 e43d
000003f0: a6e4 2e3d 0cbb c3bc b9ec 01be 6223 b33d

b2 f4 [32]
-0.006752995 0.029398045 0.02547096 -0.2189108 -0.07954602 -0.010184978 0.21848415 -0.07808382
0.05962526 -0.23396537 0.0019837536 -0.07388748 -0.0095075285 -0.06504614 0.04452662 -0.12101566
0.010016827 0.20586391 -0.34071392 -0.16475819 -0.11612531 0.11377247 -0.040957145 0.022671616
-0.056085333 0.029129334 0.0057474966 -0.0067866473 -0.041409876 -0.047477346 -0.026505973 -0.016145814
00000000: 3a48 ddbb 2bd4 f03c 7aa8 d03c 272a 60be
00000010: 06e9 a2bd e5de 26bc 4fba 5f3e 69ea 9fbd
00000020: 9e39 743d 9e94 6fbe dd01 023b 5252 97bd
00000030: 77c5 1bbc e936 85bd 8c61 363d 0fd7 f7bd
00000040: 9e1d 243c fdcd 523e 0e72 aebe 5fb6 28be
00000050: 1bd3 edbd 8a01 e93d aec2 27bd d3b9 b93c
00000060: bcb9 65bd a4a0 ee3c 7f55 bc3b 8662 debb
00000070: 679d 29bd 9b77 42bd 0e23 d9bc 3a44 84bc

conv3 f4 [32, 32, 3, 3]
0.026355427 0.020845948 -0.029320857 0.043244563 -0.03712411 -0.0171826 -0.02373155 0.029061029
0.015472254 0.07738423 0.038423732 -0.046230845 0.09397082 0.08855502 0.013335022 0.1645387
0.09614797 0.04924688 -0.00016604053 -0.05583807 0.07164295 0.015379141 0.011155075 0.023303194
0.03184154 0.051215753 0.0039740168 0.13216269 0.04253979 0.10281273 0.06601884 -0.0108976895
-0.0088138115 0.047519222 0.11288154 0.060293525 0.025509706 -0.051035818 -0.038718242 -0.09467906
-0.060320236 0.024228983 -0.027429504 -0.072133936 -0.046815436 -0.035673283 -0.019048091 -0.0020554517
-0.045712523 0.004894499 -0.08476472 0.0015116207 -0.037575275 -0.050075304 0.20888925 0.1257836
0.16602321 0.028917927 -0.048753183 0.065588534 0.23417392 0.1524568 0.14773095 -0.040523622
0.033685997 0.07470477 -0.039314818 -0.021353623 0.0026305572 0.056718964 0.036005177 0.029966587
0.0804636 0.09272383 0.0674537 0.030076787 0.05315244 0.10053748 0.10946053 0.03372722
0.03875733 0.39274153 0.12607446 0.35939905 0.1822312 0.06196487 0.09811944 0.29688862
0.242727 0.3176903 -0.031866886 -0.0016215503 -0.046193864 0.09083177 0.0925366 0.0072021773
0.037421588 0.10741111 -0.041158035 -0.120024696 -0.039721113 -0.07040149 -0.020377884 -0.012014848
0.0010948591 -0.13980685 -0.0058391723 -0.10086892 -0.050135963 -0.0044716103 -0.035296462 -0.119810544
-0.06156393 0.05054464 -0.09191776 -0.009357255 0.034588076 0.021576092 0.063824736 0.047535587
0.016062688 0.084962904 -0.009695105 -0.026851842 0.056645557 0.015329683 0.024360225 0.060578555
0.16015409 -0.034238793 0.01760295 0.06482738 0.017864414 0.019856105 0.08857899 0.05566276
0.027588608 -0.013042072 0.070115335 -0.0052012824 -0.007502744 0.11343189 0.022173006 -0.04903097
0.022397831 -0.18173648 -0.10123724 -0.024076937 -0.08077874 -0.07662845 0.10403463 0.016320465
0.03089148 -0.13200235 -0.01278224 -0.12442732 0.0073954114 0.033775847 -0.040463556 -0.16030921
-0.010856662 -0.12216422 -0.34969816 -0.16008273 -0.37098268 -0.20156348 -0.049109936 -0.24227309
-0.3516583 -0.16260684 -0.3182248 0.22795042 0.13973154 0.22455391 0.19098511 0.06367055
0.18827973 0.25573367 0.1541072 0.2861397 -0.012260218 0.02422731 -0.092937484 0.036011435
-0.037949424 -0.02073386 0.06892672 0.030731127 -0.015969263 0.087800205 0.106177755 0.114837974
0.13147177 0.10270987 0.11251107 0.10885673 0.10993215 0.06239528 -0.09445143 -0.06405202
-0.04714097 -0.018020548 0.013291398 -0.10097329 -0.10345066 -0.08523172 -0.06995426 0.024252655
0.036095023 0.06395103 -0.009176806 -0.029253975 0.03023184 0.08224962 0.066266075 0.02033834
0.066233076 0.017137893 0.026519645 -0.049437914 0.05570656 0.0044953446 0.028969593 0.07471683
0.03446331 -0.07985826 -0.026171647 -0.084669754 -0.028419647 -0.060595956 -0.01381021 -0.09850755
-0.09489748 -0.12017991 -0.052961674 -0.04075461 0.12152603 0.004118742 -0.008322016 0.024034938
-0.09947948 -0.033359203 -0.06404652 -0.12850682 -0.13770081 -0.18410484 -0.101739556 0.09688349
-0.121903926 -0.16881318 -0.09287013 -0.12864567 0.027406812 0.088834964 -0.050931666 0.08891848
00000000: 56e7 d73c 1fc5 aa3c 4b32 f0bc 3621 313d
00000010: 730f 18bd 86c2 8cbc ab68 c2bc 6511 ee3c
00000020: 567f 7d3c a07b 9e3d 3462 1d3d 8e5c 3dbd
00000030: c673 c03d 565c b53d 237b 5a3c d57c 283e
00000040: 3ae9 c43d 19b7 493d 2a1b 2eb9 76b6 64bd
00000050: 8ab9 923d cbf8 7b3c c7c3 363c 57e6 be3c
00000060: 466c 023d 9cc7 513d 7838 823b a855 073e
00000070: 343e 2e3d 7b8f d23d e334 873d 398c 32bc
00000080: ce67 10bc 84a3 423d 702e e73d 58f6 763d
00000090: bbf9 d03c ef0a 51bd 0597 1ebd 18e7 c1bd
000000a0: 5a12 77bd dc7b c63c d7b3 e0bc f5ba 93bd
000000b0: 8bc1 3fbd 261e 12bd be0a 9cbc c2b4 06bb
000000c0: 0e3d 3bbd 0962 a03b 2099 adbd 9321 c63a
000000d0: 88e8 19bd c31b 4dbd 10e7 553e 6bcd 003e
000000e0: fd01 2a3e 4ae5 ec3c 6bb1 47bd 4853 863d
000000f0: 4acb 6f3e a31d 1c3e c846 173e 19fc 25bd
00000100: 54fa 093d d1fe 983d 9308 21bd cbed aebc
00000110: 6d65 2c3b 2552 683d 2a7a 133d 7d7c f53c
00000120: 1aca a43d fee5 bd3d 2a25 8a3d 9863 f63c
00000130: 5fb6 593d 98e6 cd3d d82c e03d 8e25 0a3d
00000140: 02c0 1e3d 6b15 c93e aa19 013e 2703 b83e
00000150: d19a 3a3e e0ce 7d3d d8f2 c83d c901 983e
00000160: 6d8d 783e 4ea8 a23e da86 02bd 338a d4ba
00000170: c735 3dbd 0206 ba3d d483 bd3d 3e00 ec3b
00000180: 6147 193d 5bfa db3d 5495 28bd 82cf f5bd
00000190: 9bb2 22bd a82e 90bd 85ef a6bc edd9 44bc
000001a0: 6081 8f3a 8729 0fbe 8756 bfbb 5d94 cebd
000001b0: 5e5b 4dbd 9686 92bb 0693 10bd 3b5f f5bd
000001c0: 762a 7cbd e507 4f3d 613f bcbd 2c4f 19bc
000001d0: 3aac 0d3d 58c0 b03c 8bb6 823d adb4 423d
000001e0: e695 833c 0801 ae3d 38d8 1ebc 65f8 dbbc
000001f0: 2c05 683d 5a29 7b3c 188f c73c 3821 783d
00000200: 6fff 233e fa3d 0cbd 1034 903c 38c4 843d
00000210: 6458 923c 45a9 a23c e768 b53d a2fe 633d
00000220: 8101 e23c 6aae 55bc a198 8f3d 856f aabb
00000230: 94d9 f5bb fb4e e83d 2aa4 b53c b3d4 48bd
00000240: a87b b73c 2119 3abe 7855 cfbd ff3c c5bc
00000250: 536f a5bd 60ef 9cbd 1c10 d53d 7fb2 853c
00000260: 2110 fd3c a02b 07be 9a6c 51bc c0d3 febd
00000270: 3555 f23b 8b58 0a3d 1dbd 25bd 1928 24be
00000280: 24e0 31bc 3c31 fabd a30b b3be baec 23be
00000290: 71f1 bdbe a866 4ebe 8027 49bd 7016 78be
000002a0: 8f0c b4be 6882 26be 5cee a2be d66b 693e
000002b0: c915 0f3e 76f1 653e 9a91 433e b565 823d
000002c0: 67cc 403e 86ef 823e 47ce 1d3e e780 923e
000002d0: 15df 48bc 5a78 c63c 0256 bebd ba80 133d
000002e0: db70 1bbd 0eda a9bc 7429 8d3d d8bf fb3c
000002f0: f9d1 82bc 98d0 b33d b973 d93d 2c30 eb3d
00000300: 89a0 063e 8d59 d23d 346c e63d 47f0 de3d
00000310: 1b24 e13d 3192 7f3d c06f c1bd b52d 83bd
00000320: e416 41bd d49f 93bc 2ac4 593c 16cb cebd
00000330: f1dd d3bd f88d aebd 2e44 8fbd 81ad c63c
00000340: 60d8 133d c2f8 823d 505a 16bc 08a6 efbc
00000350: c4a8 f73c 7d72 a83d 82b6 873d 979c a63c
00000360: 35a5 873d c464 8c3c ba3f d93c 697f 4abd
00000370: 902c 643d af4d 933b a451 ed3c 2305 993d
00000380: 6629 0d3d ba8c a3bd ec65 d6bc 5667 adbd
00000390: 52d0 e8bc 7733 78bd 3844 62bc 54be c9bd
000003a0: 9c59 c2bd e220 f6bd 57ee 58bd 4eee 26bd
000003b0: a4e2 f83d 83f6 863b 1159 08bc ebe4 c43c
000003c0: e6bb cbbd a9a3 08bd d22a 83bd 4b97 03be
000003d0: 7101 0dbe fb85 3cbe d45c d0bd da6a c63d
000003e0: c4a8 f9bd 5ddd 2cbe b232 bebd b1bb 03be
000003f0: 4084 e03c 1bef b53d b99d 50bd e41a b63d

b3 f4 [32]
0.35366496 0.39678472 0.612416 1.175173 0.45246047 0.4814904 0.34050852 0.60131514
0.517948 0.9239875 0.7591731 0.52194333 0.39776295 0.480931 0.92617244 0.49489626
0.6747929 0.5604547 0.2923499 0.8930034 0.4668445 0.5121886 0.42478842 0.74507487
0.65663946 0.75465834 0.23176543 1.1429938 0.60970277 0.76021606 0.7559672 0.730191
00000000: 9313 b53e 5e27 cb3e 4cc7 1c3f 126c 963f
00000010: e6a8 e73e e985 f63e 2257 ae3e caef 193f
00000020: 3d98 043f 728a 6c3f 2b59 423f 149e 053f
00000030: 96a7 cb3e 973c f63e a319 6d3f 0b63 fd3e
00000040: 3abf 2c3f f679 0f3f e3ae 953e df9b 643f
00000050: 3e06 ef3e cb1e 033f de7d d93e 3abd 3e3f
00000060: 8619 283f 4a31 413f eb53 6d3e 9f4d 923f
00000070: 7b15 1c3f 859d 423f 1187 413f cced 3a3f

w4 f4 [5, 32]
2.499847 -2.243824 0.79006976 -1.6980356 -2.09934 -1.1934514 -2.5503285 -0.5459712
-2.496793 -1.6215689 -0.9893919 -2.4084895 2.8140862 -1.9697232 -0.6661941 0.58673775
3.0547817 -0.3992206 2.184288 -1.7623557 2.823003 -1.0144321 -0.7162421 -1.8262427
3.237743 0.008384209 1.4441706 3.1660542 -2.7069433 -1.5409669 -1.8472056 0.15650138
0.48719895 -2.296343 -1.4722396 3.459426 1.3662306 -2.4812665 0.16967697 3.2305663
-0.7845955 -1.7289743 -1.8269228 2.945205 1.0494425 -2.3065906 -1.020644 -1.8952681
-2.2320652 -2.7606626 -2.8606033 -0.20641749 -1.7635467 -1.9708786 2.0873046 3.3113363
-1.8900257 -0.28541067 1.8412259 -1.5520866 0.84060484 -1.7516862 0.25370494 3.0022311
0.7622928 3.022411 -1.9927405 -0.873977 2.8233416 3.0448766 2.270441 -1.265102
-0.1687179 -0.00474189 3.3750143 -1.1212333 -1.5274526 0.9811016 -1.1142743 -1.1985508
-1.4710184 -0.54892945 1.0585374 -1.4055697 -0.93023485 -1.8492956 -2.0039642 -0.23635224
-0.4791604 -1.5940603 0.20446439 -1.8563944 -0.9995217 3.2127433 -0.40308976 -1.7078106
-2.6674793 0.37592477 -0.77135044 -2.0945244 -1.6281983 -0.052595887 -2.565101 -0.020570647
3.1936116 -1.8844224 -1.9154567 -0.62010384 -1.709654 2.8811564 3.3098953 3.1888475
0.7089405 0.50088 -2.3835313 2.9691613 -2.1304429 2.9459684 1.6552744 -1.743444
-0.41414264 -1.3045094 0.28367954 -1.534089 0.53838146 -2.1214771 -2.0593712 -2.5005155
-2.1398087 -0.8195744 2.917815 -1.068575 -2.1563182 -1.7661452 1.664501 -1.9241939
0.5922107 3.3268695 -1.927934 -0.2316132 -1.0721607 -2.1213424 -1.8587196 -1.7779409
-1.3635397 3.1790266 0.24067791 -1.9401684 1.3011212 1.1715412 -1.6685373 -1.9967465
-2.1610827 3.06026 -3.8645608 -1.1948899 2.9037848 -1.3016702 3.2671933 0.6783745
00000000: 7efd 1f40 d09a 0fc0 0342 4a3f 3b59 d9bf
00000010: 965b 06c0 04c3 98bf 9538 23c0 c5c4 0bbf
00000020: 75cb 1fc0 928f cfbf ca48 7dbf b124 1ac0
00000030: fd19 3440 e41f fcbf b28b 2abf 7234 163f
00000040: 8b81 4340 a466 ccbe 60cb 0b40 df94 e1bf
00000050: 15ac 3440 e9d8 81bf a45b 37bf 52c2 e9bf
00000060: 2e37 4f40 ec5d 093c 95da b83f a2a0 4a40
00000070: 8f3e 2dc0 673e c5bf 3c71 ecbf e641 203e
00000080: 2472 f93e 49f7 12c0 5972 bcbf 3c67 5d40
00000090: a5e0 ae3f 12cd 1ec0 cdbf 2d3e 99c1 4e40
000000a0: 40db 48bf 084f ddbf 9bd8 e9bf 3d7e 3c40
000000b0: 2254 863f 2e9f 13c0 76a4 82bf 2598 f2bf
000000c0: 28da 0ec0 b2ae 30c0 2014 37c0 1b5f 53be
000000d0: e6bb e1bf c045 fcbf 6696 0540 efec 5340
000000e0: 5dec f1bf 5921 92be 4aad eb3f c6aa c6bf
000000f0: e131 573f 4137 e0bf 9de5 813e 8e24 4040
00000100: 9f25 433f 2f6f 4140 1f12 ffbf f5bc 5fbf
00000110: a1b1 3440 42df 4240 e84e 1140 ddee a1bf
00000120: 63c4 2cbe db61 9bbb 3c00 5840 9384 8fbf
00000130: 9183 c3bf 7929 7b3f 8aa0 8ebf 1d6a 99bf
00000140: 554a bcbf a486 0cbf 277e 873f b5e9 b3bf
00000150: df23 6ebf b8b5 ecbf f340 00c0 5206 72be
00000160: 8354 f5be 2b0a ccbf 1d5f 513e 559e edbf
00000170: a7e0 7fbf 969d 4d40 c861 cebe 8a99 dabf
00000180: fbb7 2ac0 3679 c03e 3977 45bf b00c 06c0
00000190: cd68 d0bf c96e 57bd 9d2a 24c0 c683 a8bc
000001a0: 2264 4c40 c134 f1bf af2d f5bf 20bf 1ebf
000001b0: f1d5 dabf de64 3840 53d5 5340 1416 4c40
000001c0: 207d 353f ac39 003f c78b 18c0 bd06 3e40
000001d0: 2d59 08c0 bf8a 3c40 08e0 d33f 2c29 dfbf
000001e0: 810a d4be 2afa a6bf 723e 913e 075d c4bf
000001f0: 5ed3 093f 48c6 07c0 bdcc 03c0 7208 20c0
00000200: a0f2 08c0 a1cf 51bf 7bbd 3a40 11c7 88bf
00000210: 1e01 0ac0 0c11 e2bf 5e0e d53f fc4b f6bf
00000220: 1f9b 173f 6eeb 5440 8bc6 f6bf 032c 6dbe
00000230: 903c 89bf 13c4 07c0 86ea edbf 9193 e3bf
00000240: 7888 aebf 2c75 4b40 4574 763e 7057 f8bf
00000250: 248b a63f 10f5 953f a192 d5bf 6495 ffbf
00000260: 2e4f 0ac0 4ddb 4340 f754 77c0 27f2 98bf
00000270: 9cd7 3940 219d a6bf b219 5140 f4a9 2d3f

b4 f4 [5]
0.24150757 0.014228334 -0.28195462 0.16484728 0.13629697
00000000: c34d 773e f51d 693c 5b5c 90be bacd 283e
00000010: 6f91 0b3e

exp_avg f4 [32, 1, 3, 3]
-0.0005147002 0.0012187945 0.0017678791 -0.0028058537 -0.0010136068 8.835203e-05 0.00018615824 0.00024381545
0.0030685642 -0.0013420511 -0.0029758946 -0.0018659083 -0.0019185009 -0.00017919471 -0.00054484187 -0.0011448725
-0.0005942863 0.0006765248 0.00013545969 -0.0021318153 -0.0041503995 0.00031347258 -0.0012696023 -0.0009261649
0.003484286 -0.0006259241 -0.00048781498 -0.007912255 -0.0063641253 -0.0010567028 -0.0032047222 -0.0016957505
-0.0001115017 0.00043274157 -5.700869e-06 0.0018525916 -0.0013288643 0.0022322256 -3.0780297e-06 0.0038697023
0.003908176 0.0021730505 0.0046348944 0.0028649173 -0.00058817654 -0.006581391 -0.003671197 -0.00038334634
-0.003821553 0.00023854228 0.0006258878 -0.0005609952 0.00039665776 -0.0016563704 -0.0026715936 -0.000941143
-0.001281562 -0.0024880965 -0.00022736094 0.0011890713 -0.004766201 0.00015369453 0.0021226238 0.0005627013
-0.0024654693 -0.00080495107 -0.0010041109 -0.0014103643 -0.0010490872 -0.0031852254 -0.004906058 -0.0028303906
0.0007730784 -0.0004856666 0.00037670435 -0.0010383633 -0.00039801653 0.0008645067 0.0006958368 0.0016120785
0.0031449741 0.0024355368 0.0017241397 -0.00033509635 0.0044939485 0.0044033513 0.0016806367 0.0052972278
0.0026044482 0.0007025198 0.002721281 -0.00022725975 -0.00044939786 -0.001147605 -0.0008983295 -0.0015775502
-0.0030325737 -0.0026019015 -0.00061466795 -0.0012958188 -0.000132622 0.0023959845 0.0011064345 0.0009943935
-0.0006253529 0.0035796259 0.0016291139 -0.0004710601 0.0021245203 0.0022292752 0.0015243927 0.0014258132
0.0015396437 0.0024167101 0.0019896755 0.0042074868 0.0030767543 0.0010556097 0.00093656755 -0.000117311654
0.0012816148 -0.00039429517 -0.002286042 0.004559024 0.00012736328 -0.00064030825 0.003941769 0.0026634696
0.002189424 0.0025377038 0.00071749795 0.0013547437 0.000726202 0.0005361945 0.0008526263 -0.0012548678
-0.00090734015 -0.0012474966 -0.002225724 -0.00058015797 0.0012385409 -0.0003527225 3.0134132e-05 0.00035547672
-0.0010232667 0.0012256983 -0.0003621913 -0.0043725404 -0.0017234859 -0.0032307757 -0.0026085044 -0.00087308127
-0.0013797084 -0.0004938027 0.0017728072 0.00017172952 0.00060041074 0.00054778537 0.0006790466 -0.00081873225
0.0014122985 0.0026125521 -0.001385548 -0.0027196077 -0.0005975505 -0.0011635111 -0.002574506 -0.00068138505
-0.0014552446 -0.0013533693 -1.8852816e-05 0.0023143536 0.00029511758 0.000552511 0.001767543 0.0018493151
0.0016088148 0.0019160078 0.0035040306 0.00318609 0.0015368828 0.0004093844 0.0028219493 0.001606214
0.0017122899 0.0021544378 0.0020896827 0.003365753 0.0017036325 -0.004762342 -0.0009462991 -0.00024230058
-0.003854584 -1.4127673e-05 0.0002866836 -0.0014125324 0.00011468146 -0.0010594262 -0.0009207511 -0.0010576715
-0.0006402604 -0.00058342697 -0.0022537848 -0.002087081 0.0020283165 0.0006591279 -0.0034815606 0.0055390075
0.004693923 0.004377465 0.0037817212 0.0009897993 0.0009638891 0.0016489896 0.00077529973 0.0009480113
-0.003093583 -0.0007561405 0.00066474284 0.00036965558 -0.0006479492 -7.216561e-05 -0.000108764856 -0.0037384452
-0.003009382 -0.0027671193 -0.0004785307 -0.00019114769 -0.0017878566 0.00037379938 0.00042993543 0.0009911672
0.0060098795 0.0052753217 0.00012567172 0.0010290598 0.0016990517 8.9312394e-05 0.002997629 0.0020108977
-0.00084508286 0.0021395728 -0.0002445361 0.0011379768 -0.00013031313 -0.0010533015 0.0040713972 0.0020937733
0.002649805 0.0032671012 0.0021471297 0.0017930348 -0.0003471167 -0.0008750319 -0.0016441897 0.0038525863
00000000: f2ec 06ba f5bf 9f3a 2eb8 e73a 6ae2 37bb
00000010: 00db 84ba a349 b938 7933 4339 b6a8 7f39
00000020: f719 493b c3e7 afba 3a07 43bb 7e91 f4ba
00000030: 3576 fbba 37e6 3bb9 b8d3 0eba 8c0f 96ba
00000040: e1c9 1bba d058 313a 2f0a 0e39 edb5 0bbb
00000050: 1300 88bb 9459 a439 c968 a6ba e0c9 72ba
00000060: 9e58 643b 0e15 24ba 6bc1 ffb9 67a2 01bc
00000070: 278a d0bb 1081 8aba 5106 52bb f243 deba
00000080: 05d6 e9b8 97e1 e239 184a bfb6 a9d2 f23a
00000090: 492d aeba 884a 123b 2690 4eb6 d59a 7d3b
000000a0: 2810 803b bd69 0e3b 50e0 973b 56c1 3b3b
000000b0: dc2f 1aba b6a8 d7bb 7798 70bb e0fb c8b9
000000c0: 0573 7abb 3521 7a39 9f12 243a c00f 13ba
000000d0: 81f6 cf39 911a d9ba e715 2fbb 0ab7 76ba
000000e0: 16fa a7ba 550f 23bb bd67 6eb9 9dda 9b3a
000000f0: cb2d 9cbb 1029 2139 b81b 0b3b 3f82 133a
00000100: b693 21bb 5a03 53ba 5f9c 83ba f9db b8ba
00000110: 8681 89ba 37bf 50bb ffc2 a0bb 137e 39bb
00000120: 6aa8 4a3a 11a1 feb9 6780 c539 b119 88ba
00000130: e0ac d0b9 10a0 623a d168 363a 614c d33a
00000140: e91b 4e3b 879d 1f3b 87fc e13a dfaf afb9
00000150: f941 933b fd49 903b cf48 dc3a 5e94 ad3b
00000160: 64af 2a3b 4e29 383a 8557 323b 934c 6eb9
00000170: 299d ebb9 3c6b 96ba df7d 6bba cdc5 ceba
00000180: 25be 46bb aa84 2abb ab21 21ba 77d8 a9ba
00000190: 7210 0bb9 f305 1d3b c805 913a 4f56 823a
000001a0: b9ee 23ba 2898 6a3b fe87 d53a 9ef8 f6b9
000001b0: 893b 0b3b 0819 123b 22ce c73a 5ae2 ba3a
000001c0: dfcd c93a ab61 1e3b 3765 023b f5de 893b
000001d0: 5fa3 493b 625c 8a3a fc83 753a 3705 f6b8
000001e0: dbfb a73a 67b9 ceb9 6cd1 15bb dd63 953b
000001f0: d28c 0539 5cda 27ba f429 813b 9b8d 2e3b
00000200: 707c 0f3b 9b4f 263b 7916 3c3a a891 b13a
00000210: 975e 3e3a 678f 0c3a c882 5f3a 607a a4ba
00000220: 91da 6dba 0a83 a3ba 74dd 11bb be15 18ba
00000230: 8956 a23a 9ded b8b9 8ec8 fc37 475f ba39
00000240: 221f 86ba 9ca7 a03a 7ee4 bdb9 8747 8fbb
00000250: 97e6 e1ba 6cbb 53bb 71f3 2abb 7edf 64ba
00000260: 55d7 b4ba 8a72 01ba 8a5d e83a 4b12 3439
00000270: e264 1d3a 4199 0f3a 0c02 323a 31a0 56ba
00000280: e01c b93a 5a37 2b3b 479b b5ba 723b 32bb
00000290: efa4 1cba f480 98ba 0bb9 28bb fa9e 32ba
000002a0: e8bd beba 8a63 b1ba 1d26 9eb7 69ac 173b
000002b0: 03ba 9a39 63d6 103a e7ac e73a b864 f23a
000002c0: dede d23a 8e22 fb3a e1a3 653b b8cd 503b
000002d0: 3b71 c93a a5a2 d639 74f0 383b 9987 d23a
000002e0: ea6e e03a 7831 0d3b 0ff3 083b f793 5c3b
000002f0: 6c4c df3a 6c0d 9cbb 0f11 78ba 1112 7eb9
00000300: 309d 7cbb e505 6db7 054e 9639 b924 b9ba
00000310: 2481 f038 72dc 8aba 8f5e 71ba 91a1 8aba
00000320: 26d7 27ba 1ff1 18ba 3cb4 13bb 69c7 08bb
00000330: 81ed 043b 53c9 2c3a e52a 64bb 9080 b53b
00000340: 7bcf 993b d770 8f3b c1d6 773b 27bc 813a
00000350: 81ad 7c3a e922 d83a 7c3d 4b3a f683 783a
00000360: b6bd 4abb bb37 46ba 2342 2e3a 55ce c139
00000370: 22db 29ba 9e57 97b8 b018 e4b8 b400 75bb
00000380: 0d39 45bb 8f58 35bb 4ee3 fab9 d16e 48b9
00000390: 8356 eaba 81fa c339 f568 e139 0dea 813a
000003a0: 86ee c43b 9bdc ac3b bfc6 0339 84e1 863a
000003b0: b7b2 de3a 3a4d bb38 df73 443b 44c9 033b
000003c0: 8d88 5dba 1338 0c3b 1435 80b9 2a28 953a
000003d0: aaa4 08b9 ef0e 8aba 5b69 853b b037 093b
000003e0: 5aa8 2d3b dd1c 563b dcb6 0c3b 4404 eb3a
000003f0: 37fd b5b9 6662 65ba da81 d7ba ac7b 7c3b

exp_avg_sq f4 [32, 1, 3, 3]
0.00018886746 0.00016403964 0.00023028615 0.00015850482 0.00018956492 0.00027084415 0.00011701171 0.00023966977
0.00033794285 0.00018225695 0.00022590601 0.00020836899 6.67803e-05 0.00010012553 8.1770006e-05 4.0543782e-05
8.8627516e-05 5.2805473e-05 0.00025338164 0.0002302303 0.00022128833 0.00019808639 9.760331e-05 9.1457485e-05
0.0001652818 4.446667e-05 4.622113e-05 0.00037988697 0.00018371735 0.00010757162 0.00023161476 9.783057e-05
0.00016803802 0.00010513688 0.0002560519 0.0004552031 0.000362008 0.0004274723 0.00046733237 0.00027567593
0.00020907893 0.0003141923 0.00021071847 0.00012095375 0.0002523698 0.00041607852 0.00023690415 2.4860223e-05
0.00011567069 0.00014781779 4.593862e-05 9.491342e-06 5.6819492e-05 0.00010727546 0.00011594484 2.8664357e-05
3.1757067e-05 0.00023863451 0.00011091399 0.0001091042 0.00063613546 0.0004085516 0.00035393017 0.00013799751
0.0002754615 0.00010965319 0.00018476738 0.00038772944 0.00014937266 0.00026117943 0.0006596908 0.00021086665
0.00019518285 2.8758901e-05 2.8932289e-05 0.0002660452 0.00014470956 0.0001228873 0.0001914502 0.0001420443
0.00016784538 6.663633e-05 6.819771e-05 0.00015213592 0.000121269724 0.00012918877 0.0002262375 0.000226426
0.00022288479 0.00027093227 0.00012552596 7.464817e-05 9.8566845e-05 0.00033283254 0.0002150574 0.0002615877
0.00023666184 0.00012560196 3.7177957e-05 4.4313016e-05 0.00024055816 0.00043157866 7.993252e-05 0.00020095626
0.00030001992 0.00026864416 4.412867e-05 7.931379e-05 0.00028006287 0.00018117685 4.6086152e-05 0.0001424739
0.00024044134 0.00014448531 3.917132e-05 0.00019840056 0.00022930208 8.0984835e-05 0.00023316243 0.00024352042
0.00026014703 0.0003824314 0.00030291657 0.00021419367 0.0002384233 9.616561e-05 0.00029435198 0.00018360993
0.00025976586 0.0001850404 0.00020217751 0.00040682958 5.6689285e-05 6.7346016e-05 0.00031361595 0.00034496022
0.00029503077 0.00026176102 0.0002180172 0.00020294236 0.00018719946 3.873167e-05 4.0975567e-05 4.387387e-05
6.746058e-05 0.00014628927 0.00019135175 0.00021820588 0.00026322884 0.00019844656 0.00026792978 0.00019592098
9.1670314e-05 0.00014648067 0.00026542228 0.0004392812 0.00010985542 0.00018348017 0.00036083462 2.1794074e-05
6.5655295e-05 0.00021559231 0.00058751024 0.0003367234 6.347735e-05 0.0005564216 0.00029850364 5.570528e-05
0.00050831726 0.00029111427 5.4840202e-05 5.7951736e-05 4.9572718e-05 4.722725e-05 0.000253315 0.00025704797
0.00028752076 0.00050663576 0.000544715 0.0005682364 3.1180687e-05 0.00011836448 0.0002028937 3.1363485e-05
0.00013199696 0.00022987464 4.3791242e-05 0.00016739222 0.00027135244 0.00043405994 0.00014188263 1.026131e-05
0.00019667076 9.008227e-05 1.3135437e-05 1.7775365e-05 3.9578415e-05 9.207747e-06 9.703195e-06 7.750345e-06
7.0442284e-06 1.0640331e-05 5.1162053e-05 0.00014996885 0.00019268857 0.00032420462 0.00054607604 0.000184178
0.00032707548 0.00031816337 0.000119474884 0.00029689318 0.00029859346 0.0002977446 0.0003474811 0.0003688568
0.00025680315 0.00021655095 0.00020486831 4.2845146e-05 3.238107e-05 3.022719e-05 0.00026915406 0.00023892913
0.00025562197 0.00018216467 2.4159583e-05 2.4464845e-05 0.00028873462 0.000117995565 9.598714e-05 0.00042350672
0.00020173927 0.00014258863 3.060969e-05 0.000116056755 0.00019093658 3.0482186e-05 0.000109159366 0.00019361501
9.23339e-05 0.00018459397 0.00025174933 0.00012562286 4.527934e-05 8.794587e-06 0.00019879901 0.000115122726
7.254005e-05 0.0001709166 0.00015888011 0.00012031085 2.7023127e-05 7.755048e-05 0.00023474367 0.000101502774
00000000: b90a 4639 0e02 2c39 f878 7139 5034 2639
00000010: f2c5 4639 1600 8e39 2f64 f538 dd4f 7b39
00000020: ec2d b139 3a1c 3f39 2fe1 6c39 a07d 5a39
00000030: 670c 8c38 7cfa d138 f07b ab38 8e0d 2a38
00000040: 89dd b938 727b 5d38 4fd8 8439 fa69 7139
00000050: a209 6839 69b5 4f39 61b0 cc38 ddcc bf38
00000060: 7f4f 2d39 b981 3a38 8fdd 4138 912b c739
00000070: 40a4 4039 1398 e138 9ddd 7239 632a cd38
00000080: 5d33 3039 ef7c dc38 b43e 8639 53a8 ee39
00000090: e4cb bd39 5c1e e039 4a04 f539 9988 9039
000000a0: 333c 5b39 2dba a439 4ff4 5c39 8da8 fd38
000000b0: 8050 8439 1d25 da39 7969 7839 ec8a d037
000000c0: 3b94 f238 89ff 1a39 38ae 4038 013d 1f37
000000d0: 7751 6e38 13f9 e038 6927 f338 3d74 f037
000000e0: e432 0538 f739 7a39 7f9a e838 dfce e438
000000f0: 54c2 263a de32 d639 b48f b939 6db3 1039
00000100: d16b 9039 9cf5 e538 1ebe 4139 2a48 cb39
00000110: eba0 1c39 e9ee 8839 1aef 2c3a 161c 5d39
00000120: ffa9 4c39 453f f137 9eb3 f237 fb7b 8b39
00000130: 2dbd 1739 4fdb 0039 06c0 4839 baf1 1439
00000140: a7ff 2f39 1bbf 8b38 5e05 8f38 ad86 1f39
00000150: 3052 fe38 d976 0739 2b3a 6d39 c46c 6d39
00000160: 2eb6 6939 ea0b 8e39 9e9f 0339 6e8c 9c38
00000170: acb5 ce38 0780 ae39 0881 6139 b525 8939
00000180: 6e28 7839 05b4 0339 87ef 1b38 bddc 3938
00000190: 573e 7c39 8245 e239 72a1 a738 c9b7 5239
000001a0: fe4b 9d39 cfd8 8c39 cc16 3938 4455 a638
000001b0: 67d5 9239 4afa 3d39 a14c 4138 0c65 1539
000001c0: fb1e 7c39 fb80 1739 e24b 2438 bf09 5039
000001d0: cf70 7039 67d6 a938 107d 7439 8459 7f39
000001e0: 5864 8839 1381 c839 c6d0 9e39 2d99 6039
000001f0: 4401 7a39 85ac c938 4153 9a39 6a87 4039
00000200: 2f31 8839 6707 4239 9dff 5339 be4b d539
00000210: a8c5 6d38 1e3c 8d38 d26c a439 c7db b439
00000220: 5cae 9a39 f83c 8939 8c9b 6439 edcc 5439
00000230: f94a 4439 d073 2238 2edd 2b38 3605 3838
00000240: a079 8d38 3a65 1939 98a5 4839 32ce 6439
00000250: fa01 8a39 1816 5039 ed78 8c39 2370 4d39
00000260: 203f c038 9b98 1939 6028 8b39 534f e639
00000270: 2e62 e638 9564 4039 672e bd39 6bd2 b637
00000280: 6bb0 8938 9f10 6239 2503 1a3a 408a b039
00000290: 251f 8538 d2dc 113a 7b80 9c39 17a5 6938
000002a0: 9840 053a b2a0 9839 3804 6638 3411 7338
000002b0: 4dec 4f38 e015 4638 5dcf 8439 65c4 8639
000002c0: 62be 9639 c0cf 043a 34cb 0e3a b3f5 143a
000002d0: 02c8 0238 723a f838 ddbf 5439 498c 0338
000002e0: aa68 0a39 810a 7139 7dac 3738 0286 2f39
000002f0: 4f44 8e39 8a92 e339 54c6 1439 fe27 2c37
00000300: 6839 4e39 8dea bc38 4660 5c37 4e1c 9537
00000310: 0001 2638 f97a 1a37 e8ca 2237 7a07 0237
00000320: 765d ec36 e083 3237 d696 5638 f540 1d39
00000330: 720c 4a39 02fa a939 8b26 0f3a e81f 4139
00000340: 547b ab39 2acf a639 978e fa38 54a8 9b39
00000350: 898c 9c39 9b1a 9c39 202e b639 1f63 c139
00000360: 89a3 8639 f411 6339 ebd1 5639 a0b4 3338
00000370: e9d0 0738 6590 fd37 3f1d 8d39 0d89 7a39
00000380: 0005 8639 7503 3f39 4faa ca37 db39 cd37
00000390: 4e61 9739 6374 f738 b44c c938 1c0a de39
000003a0: f989 5339 d883 1539 e862 0038 7f63 f338
000003b0: 2636 4839 ffb3 ff37 7dec e438 2205 4b39
000003c0: 63a3 c138 918f 4139 39fd 8339 a1b9 0339
000003d0: 52ea 3d38 778c 1337 b474 5039 0b6e f138
000003e0: a520 9838 1338 3339 0e99 2639 654f fc38
000003f0: b9af e237 99a2 a238 8625 7639 e3dd d438

exp_avg f4 [32]
-9.90622e-09 -2.811145e-09 -3.2426745e-10 -2.0801652e-09 -6.1957977e-09 -1.9223327e-09 5.904277e-09 -6.2062337e-09
5.7860796e-11 2.1820759e-09 -6.426715e-09 -2.389319e-09 -2.5755285e-09 1.0345456e-09 5.7467897e-10 7.451546e-11
2.6581086e-09 -1.2886076e-09 4.400497e-09 2.423651e-09 3.9938053e-09 4.254679e-09 -1.6037707e-09 2.522045e-09
7.074553e-09 2.3565633e-10 -1.998473e-09 -4.595279e-09 3.757093e-09 3.7832746e-09 -1.9276636e-09 6.9294224e-09
00000000: 0430 2ab2 302e 41b1 9644 b2af a7f2 0eb1
00000010: d0e2 d4b1 091a 04b1 92de ca31 9c3e d5b1
00000020: 7779 7e2e 7cf3 1531 fcd1 dcb1 5831 24b1
00000030: 2dfd 30b1 d62f 8e30 70f7 1d30 7adc a32e
00000040: f1a9 3631 d91a b1b0 2e33 9731 528d 2631
00000050: e239 8931 8d30 9231 aa6b dcb0 4950 2d31
00000060: 6d14 f331 ae8d 812f 8255 09b1 80e4 9db1
00000070: bd17 8131 09fe 8131 d177 04b1 d817 ee31

exp_avg_sq f4 [32]
1.190207e-15 2.248214e-16 1.7930801e-16 5.6488405e-16 3.4621932e-16 6.533395e-16 3.922093e-16 9.071525e-16
2.1743844e-16 2.230238e-16 5.9460564e-16 6.2899613e-16 3.3949554e-16 3.1850472e-16 4.7347543e-16 2.8508506e-16
2.4979632e-16 2.3546984e-16 4.1633414e-16 4.2581262e-16 2.6490963e-16 6.749234e-16 5.676494e-16 4.642333e-16
5.192459e-16 2.4408858e-16 1.7469237e-16 6.25912e-16 2.5662645e-16 5.5006267e-16 4.945196e-16 3.937612e-16
00000000: e386 ab26 c899 8125 62ba 4e25 16d1 2226
00000010: f494 c725 f24f 3c26 e017 e225 05bc 8226
00000020: 80b0 7a25 8190 8025 2762 2b26 b94b 3526
00000030: b3b4 c325 009b b725 5278 0826 2157 a425
00000040: 6eff 8f25 37bd 8725 1300 f025 da76 f525
00000050: c3b5 9825 8f88 4226 229d 2326 5fce 0526
00000060: 96a9 1526 1eb5 8c25 1668 4925 2768 3426
00000070: 61ef 9325 768b 1e26 1b89 0e26 e6fc e225
