CS330/XCS330-PS3/src/submission/logs/maml/omniglot.way_5.support_1.query_15.inner_steps_1.inner_lr_0.04.learn_inner_lrs_False.outer_lr_0.001.batch_size_16/state7500.pt (torch, 353132 bytes, 30 tensors)

conv0 f4 [32, 1, 3, 3]
0	0x3e8764eb	0.26444182
1	0xbec03bb3	-0.37545547
2	0x3cfea26a	0.031083304
3	0x3cfbda0a	0.030743618
4	0xbd9188cd	-0.07106171
5	0x3ce89444	0.028391011
6	0x3ea2e8d8	0.3181827
7	0x3dfd3d29	0.12365181
8	0x3d14cecb	0.036330026
9	0x3ddb610b	0.10711869
10	0x3e3c147a	0.18367186
11	0x3e8182e9	0.2529519
12	0xbe33cc1b	-0.17558329
13	0xbe26d049	-0.16290392
14	0xbe837259	-0.25673178
15	0xbeae23d2	-0.34011704
16	0xbcd8f624	-0.026484556
17	0xbd8ef28c	-0.06979856
18	0x3eb2d9b7	0.34931728
19	0x3de163aa	0.110053375
20	0x3e1b6bb6	0.15177807
21	0x3aa72274	0.0012751357
22	0xbcaa2546	-0.020769726
23	0xbe2fd983	-0.17172818
24	0xbd13060a	-0.03589443
25	0xbee20f64	-0.44152367
26	0xbef02a49	-0.4690726
27	0x3e0912a3	0.13386016
28	0x3c893d71	0.01675293
29	0xbe838c91	-0.2569318
30	0x3ddcaea7	0.107755
31	0xbef9cbae	-0.48788208
32	0xbde328cc	-0.11091766
33	0xbebbbd55	-0.36667886
34	0x3d03bc14	0.032161787
35	0x3e81c444	0.2534505
36	0xbc9cebae	-0.01915535
37	0x3d4d15ce	0.050069623
38	0x3db8ca95	0.090230145
39	0x3d48d7ab	0.049033802
40	0xbe59ae6b	-0.21257941
41	0x3d87f8f2	0.066392794
42	0x3ebae379	0.36501673
43	0xbf255a83	-0.64591235
44	0x3e3f9725	0.18710001
45	0x3dce942c	0.10086855
46	0x3dd8e3c7	0.1059032
47	0xbea4dc9d	-0.32199565
48	0xbdef36aa	-0.11680348
49	0x3e1759fe	0.14780423
50	0xbe724c43	-0.23661904
51	0xbea3bc86	-0.3197977
52	0xbea47f0b	-0.32128176
53	0xbc9596cc	-0.018260382
54	0xbe888274	-0.26662028
55	0xbecac671	-0.39604524
56	0xbe814cfb	-0.25254044
57	0xbe55d1fa	-0.20880881
58	0xbbe77bed	-0.0070643337
59	0xbe248d16	-0.16069445
60	0x3ec48076	0.38379258
61	0xbd9cbe55	-0.076534905
62	0xbca7c6c1	-0.020480515
63	0xbd799fbe	-0.060943358
64	0xbe3fbbc0	-0.18723965
65	0xbd8d8e1c	-0.06911871
66	0xbd9b516e	-0.07583891
67	0xbcb784a9	-0.022402124
68	0xbe038eae	-0.12847397
69	0xbe4cdae2	-0.20005372
70	0x3eca9743	0.3956853
71	0xbe8462a5	-0.2585651
72	0xbc2feaab	-0.010737102
73	0xbeec0c3c	-0.46103084
74	0xbe848200	-0.25880432
75	0x3ea70a65	0.32625118
76	0x3dd27f7d	0.10278223
77	0xbde64cd8	-0.112451255
78	0xbe735a45	-0.23764904
79	0x3d3c34a6	0.045948647
80	0x3e0fd754	0.14046985
81	0xbe4cefe8	-0.20013392
82	0xbea37d6f	-0.31931636
83	0xbe722f31	-0.23650815
84	0xbe470c6d	-0.19438334
85	0xbe0cf4f9	-0.13765325
86	0x3d159086	0.03651478
87	0x3e8b6194	0.27222884
88	0x3e0da9a2	0.13834241
89	0x3e8b0a0f	0.27156112
90	0xbdd1ad4a	-0.102381304
91	0xbd93cfe5	-0.07217387
92	0xbec969b3	-0.39338455
93	0x3d8206d3	0.06348958
94	0xbce0594d	-0.027386332
95	0x3ec834b6	0.39102715
96	0xbd54162b	-0.051778954
97	0xbc366216	-0.011131784
98	0xbee98459	-0.45608786
99	0xbe840a9a	-0.25789338
100	0x3e109ee6	0.14123115
101	0x3cb99a94	0.022656716
102	0xbeaa2b2e	-0.33236068
103	0x3cfa99bb	0.030590883
104	0x3e3eda5a	0.18637982
105	0x3e04a859	0.12954845
106	0xbed96434	-0.4245926
107	0xbe982d91	-0.29722264
108	0x3e47f19e	0.19525763
109	0xbe0aff48	-0.13573945
110	0xbece899b	-0.4033936
111	0xbdce752a	-0.10080941
112	0x3d53e677	0.05173346
113	0xbcbb1ddd	-0.022841388
114	0xbeff1a39	-0.49824694
115	0x3d142ac8	0.036173612
116	0x3ea39544	0.31949818
117	0xbf055f04	-0.5209811
118	0x3e416201	0.18885042
119	0x3e559ebc	0.20861334
120	0xbce34107	-0.027740968
121	0x3dc7863e	0.097424015
122	0x3d8e697f	0.069537155
123	0xbcae2fb3	-0.02126298
124	0x3c5a05a9	0.013307014
125	0xbed1f64b	-0.4100822
126	0x3c3192ad	0.010838193
127	0xbcb9154b	-0.022593161
128	0xbe0c6006	-0.13708505
129	0xbc9a010c	-0.018799327
130	0xbcca9a4b	-0.024731776
131	0x3dd460f6	0.10370056
132	0xbed155ca	-0.40885764
133	0xbef539ed	-0.47895756
134	0x3ebc05c6	0.36723155
135	0x3e33be84	0.17553145
136	0x3d8c382b	0.06846651
137	0xbcad7277	-0.021172745
138	0x3dc4a615	0.0960199
139	0x3db6b641	0.08921481
140	0xbc369ef9	-0.0111463005
141	0xbec8ebd4	-0.39242423
142	0xbed815ad	-0.42204037
143	0xbea30625	-0.31840625
144	0xbeb36061	-0.3503447
145	0xbe2e4503	-0.17018513
146	0x3e568699	0.20949782
147	0xbdde9ce1	-0.10869766
148	0x3e422d66	0.1896263
149	0x3d1aec3f	0.037822958
150	0x3e9c8f26	0.30577964
151	0xbd408efd	-0.047011364
152	0xbec70b0a	-0.3887561
153	0xbe7ca29d	-0.24671407
154	0x3e1ae847	0.1512767
155	0x3e2789ee	0.1636121
156	0xbec2c4b2	-0.38040692
157	0x3dcc88d0	0.099870324
158	0x3e887caa	0.2665761
159	0xbee7660c	-0.45195043
160	0xbeecb681	-0.4623299
161	0xbe565660	-0.20931387
162	0x3e300f45	0.17193325
163	0x3d1ad471	0.037800256
164	0xbf01b0b8	-0.50660276
165	0x3e00907f	0.12555121
166	0x3de7b24d	0.11313305
167	0xbf0fdd0c	-0.56196666
168	0x3d8b61eb	0.06805786
169	0xbcba79f6	-0.022763234
170	0xbf007b34	-0.50187993
171	0xbefc77aa	-0.49310046
172	0xbf1bbe84	-0.6083758
173	0xbf0aa45f	-0.5415706
174	0xbb3fec7b	-0.002928524
175	0x3e0850ce	0.13312075
176	0x3d67188e	0.0564199
177	0x3cca2831	0.024677368
178	0x3e636df8	0.22209918
179	0x3e0a4658	0.13503397
180	0xbe57c9ca	-0.2107307
181	0xbe39d527	-0.18147717
182	0xbd4482bb	-0.047976237
183	0xbebbfb34	-0.3671509
184	0xbbbb6650	-0.0057189837
185	0x3df78e46	0.120876834
186	0xbed9a07a	-0.42505246
187	0x3df9b734	0.12193146
188	0x3e5d5b2c	0.2161681
189	0x3e12579b	0.14291231
190	0x3bf40bce	0.0074476963
191	0xbecacc5e	-0.39609045
192	0x3dd1ef1b	0.10250684
193	0x3d82cfe9	0.06387312
194	0xbece88b6	-0.40338677
195	0xbecb9cc8	-0.39768052
196	0xbea38af4	-0.3194195
197	0xbe401ad4	-0.18760234
198	0xbe6d7f59	-0.2319311
199	0xbec14a2a	-0.37751895
200	0xbed0a9c1	-0.40754512
201	0xbeaedd27	-0.341531
202	0x3ca7ea54	0.020497479
203	0x3d0284b0	0.031864822
204	0xbeabeb6e	-0.33578056
205	0x3d97a0c1	0.07403708
206	0x3e0b918e	0.13629743
207	0x3eacaee7	0.3372719
208	0x3c1f8648	0.009736605
209	0xbc39f7e7	-0.011350608
210	0xbf3b4563	-0.7315275
211	0xbc8fe743	-0.017566329
212	0xbc5c5493	-0.013447898
213	0x3e9b0104	0.30274212
214	0xbca69b68	-0.020337775
215	0xbc684195	-0.014175792
216	0x3dfc56b2	0.12321223
217	0x3e28ecc1	0.16496564
218	0xbd391f1c	-0.045195684
219	0xbed22408	-0.41043115
220	0xbec2cffe	-0.3804931
221	0xbecd5204	-0.40101635
222	0x3e035b5c	0.1282782
223	0xbd63958d	-0.055562545
224	0x3deab260	0.114598036
225	0xbe98267b	-0.29716858
226	0xbed0d375	-0.4078633
227	0xbe0a54d6	-0.13508925
228	0x3e1588fa	0.14603034
229	0x3cef4215	0.029206315
230	0xbe0b6101	-0.13611223
231	0x3e80deea	0.2517007
232	0xbdca4901	-0.09877206
233	0xbe820714	-0.25396025
234	0xbed259d6	-0.41084164
235	0x3c32aec2	0.010905923
236	0xbd406bd8	-0.046977848
237	0xbec520ea	-0.38501674
238	0xbd3cd9fc	-0.046106324
239	0x3d1c25a7	0.038121846
240	0xbe03a469	-0.12855686
241	0x3d9c592f	0.07634198
242	0x3e94c49d	0.29056254
243	0xbcb765b3	-0.022387361
244	0xbe02fe68	-0.12792361
245	0x3f41a9d4	0.7564976
246	0x3dc61f66	0.096739575
247	0xbd35a1df	-0.044343825
248	0x3dc5a0e8	0.09649831
249	0xbcc59384	-0.024118192
250	0x3dd786af	0.10523736
251	0xbced0ff1	-0.028938266
252	0xbeacf9dc	-0.33784378
253	0xbe1ca620	-0.15297747
254	0x3d8793bb	0.06619974
255	0xbe4cb537	-0.19991003

b0 f4 [32]
0	0xbd4c1ff7	-0.04983517
1	0xbdbad318	-0.09122294
2	0x3c1b781f	0.009489088
3	0xbcd337e8	-0.025783494
4	0xbd7cb780	-0.061698437
5	0x3cb1e495	0.021715442
6	0xbc715ac4	-0.014731113
7	0x3dd51113	0.10403647
8	0x3db7061e	0.08936714
9	0x3c61eb89	0.013789066
10	0xbd9eda9d	-0.07756541
11	0x3d4c4b13	0.049876284
12	0x3d214e9b	0.039381605
13	0xbd1ff359	-0.039050434
14	0x3d539bad	0.051662136
15	0xbc88f3fd	-0.016717905
16	0x3c8c155d	0.01710003
17	0x3d67c4ff	0.056584354
18	0xbd838fc8	-0.064239085
19	0x3dcb3a25	0.099231996
20	0x3db119c5	0.08647493
21	0xbd84c59a	-0.06483002
22	0xbd8d5ba4	-0.06902245
23	0xbdadd323	-0.08487537
24	0x3d13bb47	0.036067273
25	0xbdb8d40e	-0.09024821
26	0x3b68c753	0.0035519197
27	0xbd759968	-0.059960753
28	0x3c5bef41	0.013423742
29	0x3d264038	0.040588588
30	0xbd9a1f15	-0.0752546
31	0x3db76883	0.08955481

conv1 f4 [32, 32, 3, 3]
0	0xbe153632	-0.14571455
1	0x3c8e9d23	0.017408913
2	0xbd25a341	-0.040438894
3	0xbe580e22	-0.21099141
4	0xbe106ccb	-0.14104001
5	0xbe18b225	-0.14911707
6	0xbda26f2b	-0.0793136
7	0xbd6c741d	-0.05772792
8	0xbcb70ddb	-0.022345474
9	0x3d4d39be	0.050103895
10	0x3d3ed69b	0.046591382
11	0xbd8305ae	-0.06397568
12	0xbd693f86	-0.056945346
13	0x3db9e514	0.09076896
14	0x3d2d7593	0.042348456
15	0xbd452506	-0.04813101
16	0xbdba08f7	-0.09083741
17	0x3d190e8e	0.037367396
18	0x3e1cd85e	0.15316913
19	0xbd1794a1	-0.037006978
20	0x3dbce61f	0.092235796
21	0x3d6ac376	0.057315312
22	0x3d891485	0.06693367
23	0x3e1aca19	0.15116157
24	0xbd0505d2	-0.032476254
25	0xbda0cfdc	-0.07852146
26	0xbdfd49a5	-0.12367562
27	0xbcf2c3c0	-0.029634356
28	0xb99b1259	-0.00029577574
29	0xbe149003	-0.14508061
30	0x3ddac7e2	0.10682656
31	0x3cb1c938	0.021702394
32	0xbc0c4d8e	-0.008563412
33	0x3d390f88	0.045180827
34	0xbd256a85	-0.040384788
35	0x3cacd1b8	0.021096095
36	0xbd4dd440	-0.050251245
37	0xbce3ab62	-0.027791683
38	0x3dbeb973	0.093127154
39	0xbe0741d1	-0.132087
40	0xbdfdf5cb	-0.12400397
41	0x3b19a406	0.0023443713
42	0xbd864417	-0.06555956
43	0xbe01f50e	-0.12691137
44	0x3c9724f9	0.018450247
45	0x3c75837a	0.01498496
46	0x3d1cc96c	0.03827803
47	0xbdc0c066	-0.09411697
48	0x3dd32bbb	0.10311075
49	0x3e263b96	0.16233668
50	0x3c87ec6f	0.016592233
51	0x3dfd751c	0.123758525
52	0xbd4c389b	-0.04985867
53	0xbc7f867e	-0.01559603
54	0x3e0a1801	0.1348572
55	0x3c306e90	0.010768548
56	0x3cabbb85	0.02096344
57	0x3d85ebe6	0.06539135
58	0x3e05e120	0.1307416
59	0x3df34dbf	0.11880063
60	0xbcfc6dcd	-0.030814076
61	0xbb0dec34	-0.002165568
62	0xbdc49989	-0.09599597
63	0x3ccb5ece	0.02482548
64	0x3e07d8c1	0.13266279
65	0x3d5d22a3	0.05398811
66	0x3d21a301	0.039462093
67	0x3e14fa69	0.14548649
68	0x3da5ae46	0.08089881
69	0x3d657fcd	0.056030083
70	0xbd96f3d3	-0.073707245
71	0xbdd55a55	-0.1041762
72	0xbdff56a0	-0.12467694
73	0xbd9c3d4d	-0.0762888
74	0xbe571a65	-0.21006162
75	0xbde19ff0	-0.11016834
76	0xbd1fa7c1	-0.038978342
77	0xbde38625	-0.111095704
78	0xbb85d635	-0.0040843734
79	0xbd78e658	-0.060766548
80	0x3c3cc9bc	0.011522707
81	0xbc965c78	-0.01835464
82	0xbc96df04	-0.018416889
83	0xbea20244	-0.31642354
84	0xbae96d94	-0.0017809146
85	0xbdff9f1b	-0.12481519
86	0xbc9acd17	-0.018896623
87	0x3dc584bc	0.09644458
88	0x3c89a424	0.016801901
89	0xbccf5b85	-0.025312195
90	0xbe129398	-0.14314115
91	0xbda6ae1b	-0.08138677
92	0xbda962f3	-0.08270826
93	0x3e287ccc	0.16453856
94	0x3d2f2881	0.042763237
95	0xbd14cb83	-0.036326896
96	0x3d397556	0.045277916
97	0xbdc7535b	-0.09732696
98	0xbdd82106	-0.10553174
99	0x3c8a62fe	0.016892906
100	0x3d9e49a0	0.077288866
101	0x3b50a35e	0.0031835656
102	0xb9827a9e	-0.0002488689
103	0x3d4b10f5	0.04957672
104	0xbcb36ac7	-0.021901501
105	0xbd824106	-0.063600585
106	0xbe0ed66e	-0.13948986
107	0xbd8c3872	-0.068467036
108	0xbde21d25	-0.11040715
109	0xbd5cdc0e	-0.053920798
110	0xbe28a74a	-0.16470066
111	0xbcc90d3f	-0.024542449
112	0xbd86eebb	-0.06588503
113	0x3dc3072a	0.09522851
114	0xbe057ba7	-0.13035451
115	0xbdb009f7	-0.08595651
116	0xbe0ec9ce	-0.1394417
117	0xbd5e942e	-0.054340534
118	0xbdae86ee	-0.085218295
119	0xbd974709	-0.07386596
120	0x3b68f563	0.0035546653
121	0xbd6a5674	-0.057211354
122	0x3cd073a8	0.025445774
123	0xbc697022	-0.014247926
124	0xbe828a3e	-0.25496095
125	0xbd6f29d1	-0.05838949
126	0xbd1fa8e2	-0.03897942
127	0xbe7226de	-0.23647639
128	0x3c42d546	0.011891669
129	0xbd92557d	-0.07145212
130	0xbe4ffe4c	-0.2031185
131	0xbd33b499	-0.043873403
132	0xbdf0f281	-0.11765004
133	0xbd96e48c	-0.073678106
134	0xbd4d9faa	-0.050201096
135	0xbcfe4711	-0.031039746
136	0x3cc088d3	0.023502743
137	0x3d8eb62e	0.06968342
138	0x3d7063f1	0.05868906
139	0x3d00c6fd	0.03143977
140	0xbd4b6cd7	-0.049664345
141	0xbda61ca4	-0.081109315
142	0xbd828fc0	-0.063750744
143	0xbd51b12c	-0.051194355
144	0xbde6adb8	-0.11263603
145	0xbdac855f	-0.08423876
146	0xbd0e415d	-0.034730304
147	0xbdbe600f	-0.092956655
148	0x3c34bc7c	0.011031266
149	0x3d792456	0.06082567
150	0xbd8722d8	-0.06598443
151	0xbe2ff0e5	-0.17181738
152	0xbd346930	-0.044045627
153	0x3dbe3475	0.09287349
154	0x3dd144c7	0.10218196
155	0x3d4b9e8b	0.049711745
156	0x3c73497e	0.014849065
157	0xbd1d2f54	-0.038375214
158	0x3e14aa34	0.14518052
159	0xbb02c8b7	-0.001995606
160	0xbdf20934	-0.118181616
161	0xbe3afd3b	-0.18260662
162	0xbbc99894	-0.006152222
163	0x3d149686	0.036276363
164	0xbde9af30	-0.114103675
165	0x3d051a85	0.032495994
166	0x3d96be7b	0.0736055
167	0x3d73cc76	0.05952116
168	0x3dc763d1	0.09735835
169	0xbd20a5ee	-0.039220743
170	0x3da5f22b	0.081028305
171	0x3dc13def	0.09435641
172	0xbd25e384	-0.04050018
173	0xbd89a406	-0.06720738
174	0x3e664ab0	0.22489429
175	0xbd1c6935	-0.03818627
176	0xbd970aed	-0.07375131
177	0x3d935719	0.07194347
178	0x3d3fbc03	0.04681016
179	0xbda366d1	-0.07978595
180	0xbd353c73	-0.044247102
181	0xbe1ee143	-0.15515618
182	0xbdb13f7b	-0.08654686
183	0xbc47a56e	-0.012185438
184	0x3d82ab75	0.06380359
185	0xbde253dd	-0.11051152
186	0x3b98a05c	0.004657788
187	0x3ca2fde0	0.019896448
188	0xbdf14737	-0.11781161
189	0xbaf52ab6	-0.0018704745
190	0xbcd155fa	-0.025553692
191	0xbc9cef52	-0.019157086
192	0x3d86c865	0.06581191
193	0x3e2c9cd7	0.16856705
194	0x3e0f2149	0.13977541
195	0x3e06be9a	0.13158646
196	0xbd338903	-0.043831836
197	0xbdb5a985	-0.08870224
198	0x3d703844	0.05864741
199	0x3da5c7d8	0.08094758
200	0x3b2216b8	0.002473278
201	0x3dbc614f	0.09198248
202	0x3e810b82	0.25204092
203	0x3df903dd	0.1215894
204	0x3ddadee5	0.10687045
205	0xbdebad2d	-0.1150764
206	0xbe44c269	-0.19214787
207	0xbca5fd4d	-0.020262385
208	0xbcd24f4a	-0.025672574
209	0xbc893bca	-0.016752142
210	0x3d3502cb	0.044192117
211	0xbd2bc1c6	-0.041932844
212	0xbdc1c89c	-0.09462091
213	0xbe04a2d7	-0.12952743
214	0xbd314b67	-0.0432848
215	0xbd061a30	-0.032739818
216	0xbcc0509f	-0.023475943
217	0x3c264522	0.0101483185
218	0xbdba354b	-0.09092196
219	0x3ddbaa8c	0.107258886
220	0x3de09b86	0.10967164
221	0xbd2b3c81	-0.041805748
222	0x3da2b73b	0.07945105
223	0xbd210c44	-0.039318338
224	0xbe0af794	-0.13571006
225	0x3d38694c	0.045022294
226	0x3dbec80e	0.09315501
227	0xbd80cbc0	-0.06288862
228	0x3db0b952	0.08629097
229	0x3ab37cf1	0.0013693852
230	0x3dadc14f	0.08484136
231	0x3c8f7b21	0.017514767
232	0x3d0b7287	0.03404477
233	0xbe037eaa	-0.12841287
234	0xbc044c7c	-0.008074876
235	0xbdac9f45	-0.08428816
236	0x3ca0415b	0.019562414
237	0x3d5c9f21	0.053862695
238	0xbd250e4f	-0.04029685
239	0xbe0e4188	-0.13892186
240	0xbe00af27	-0.12566815
241	0xbdc53b68	-0.096304715
242	0xbdd1ba86	-0.10240655
243	0xbb9cb5ac	-0.004782399
244	0x3d71712d	0.058945823
245	0x3da5c22e	0.080936775
246	0x3d1a0b0b	0.037608188
247	0xbdcab6aa	-0.09898122
248	0x3bfd426f	0.0077288668
249	0xbd488e64	-0.04896392
250	0xbe055906	-0.13022241
251	0xbc811894	-0.01575879
252	0x3c889411	0.016672166
253	0xbda480a9	-0.080323525
254	0x3dc816ca	0.09769972
255	0x3dddbc48	0.108269274

b1 f4 [32]
0	0x3d810ee2	0.06301667
1	0x3d83b59f	0.06431126
2	0x3df82e18	0.12118167
3	0xbcac72e4	-0.021050878
4	0x3db6fb6c	0.08934674
5	0xbd2023f5	-0.03909679
6	0x3d44853a	0.047978617
7	0x3d86a05e	0.06573556
8	0xbc9c8021	-0.019104065
9	0x3dbcce79	0.09219069
10	0x3c33c867	0.010973073
11	0x3bb281b9	0.005447593
12	0xbcd7d344	-0.026345856
13	0xbcab88a4	-0.020939179
14	0xbe32ad4b	-0.17448919
15	0xbcff418c	-0.031159185
16	0x3ee24e40	0.44200325
17	0x3ce0a567	0.02742262
18	0x3e6e9e21	0.23302509
19	0xbb564036	-0.0032692081
20	0x3d270f95	0.040786345
21	0x3c978180	0.018494368
22	0x3da7cfe5	0.081939496
23	0x3d665949	0.056237493
24	0xbcce82d9	-0.025208877
25	0xbbafadf7	-0.0053613144
26	0x3cb8db46	0.022565495
27	0xbd61cc89	-0.0551267
28	0x3d329c7b	0.043606263
29	0xbd298f1c	-0.041396245
30	0x3de9cb92	0.11415781
31	0x3d6c05ee	0.057622842

conv2 f4 [32, 32, 3, 3]
0	0x3d84060d	0.064464666
1	0x3de754d0	0.112954736
2	0x3d1d970e	0.038474135
3	0x3c655965	0.013998364
4	0xbd66e9e4	-0.0563754
5	0x3d6320fa	0.05545137
6	0xbe72d20f	-0.23712943
7	0x3b4d59a0	0.0031333938
8	0xbda6b4b6	-0.081399366
9	0xbbf821e3	-0.007572399
10	0xbdfa1a1a	-0.1221201
11	0xbdb77b3f	-0.08959054
12	0x3d496559	0.04916892
13	0x3d17ac0c	0.03702931
14	0x3ab7de3b	0.0014028022
15	0x3ce2d7d2	0.027690802
16	0x3dc57223	0.096409105
17	0xbc9e3cf0	-0.019316167
18	0x3e1fa915	0.15591843
19	0x3e05794a	0.1303455
20	0x3d9ee6e1	0.077588804
21	0x3c618eea	0.0137669835
22	0x3dac8952	0.08424629
23	0x3da1ff42	0.07910015
24	0x3c803626	0.01565082
25	0x3dd54c49	0.10414941
26	0x38ea9606	0.000111859335
27	0x3e319821	0.17343189
28	0x3e3a92a9	0.18220009
29	0x3cdf1549	0.02723183
30	0x3dafd04a	0.0858465
31	0x3bc2fbe8	0.0059504397
32	0xbcb549f0	-0.022129983
33	0xbd890d31	-0.06691969
34	0x3dacbbd7	0.08434265
35	0xbb27c85a	-0.0025601597
36	0xbd1f803b	-0.03894065
37	0x3d2a2c0c	0.041545913
38	0xbcf37134	-0.029717065
39	0xbca7c28f	-0.020478515
40	0x3c9a3726	0.018825125
41	0x3c8a9ade	0.01691955
42	0x3cb57e8a	0.022155065
43	0xbcd69d07	-0.026197923
44	0x3d93f81c	0.072250575
45	0xbc160345	-0.009156053
46	0xbd72f366	-0.059314154
47	0x3ddbd560	0.107340574
48	0x3c1c2947	0.009531326
49	0x3a18a330	0.00058226567
50	0x3db13c2b	0.08654054
51	0xbdab3417	-0.08359545
52	0xbdc412ac	-0.09573874
53	0xbc3f0d9f	-0.011660962
54	0x3d5e43be	0.054263823
55	0x3dd17469	0.102272816
56	0xbc3a1ac9	-0.011358925
57	0x3cbafcfd	0.022825712
58	0x3d3b8c59	0.045788143
59	0xbd0c5816	-0.034263693
60	0x39f0df08	0.00045942538
61	0xbdd9b2ba	-0.106297925
62	0x3c8779dd	0.016537601
63	0x3bb9ce87	0.005670372
64	0xbbc1892e	-0.0059062457
65	0xbd677c17	-0.056514826
66	0xbd51f374	-0.051257566
67	0xbcfefbb5	-0.031125883
68	0x3cf77423	0.030206745
69	0xbda66c27	-0.08126097
70	0xbd8cdd43	-0.0687814
71	0xbd4a230a	-0.049349822
72	0xbd8ef454	-0.06980196
73	0xbddfeb05	-0.10933498
74	0xbda89079	-0.08230681
75	0x3d52123a	0.051286913
76	0xbc51498e	-0.012773884
77	0xbdaa3365	-0.08310584
78	0xbc20059e	-0.009766964
79	0x3db1b62e	0.08677326
80	0xbda5e80c	-0.081009
81	0xbc45b76d	-0.012067658
82	0xbd12feaa	-0.035887398
83	0xbdeaa2ce	-0.11456834
84	0x39bf2095	0.00036454634
85	0xbdc7a6e1	-0.097486265
86	0x3d46d3cb	0.048541825
87	0x3ddc7c6e	0.107659206
88	0x3c6ead00	0.014567614
89	0xbc8e02bd	-0.01733529
90	0xbe0848e3	-0.13309054
91	0xbd83fdd4	-0.06444898
92	0xbd95a1de	-0.07306264
93	0xbd6dd4ce	-0.058064274
94	0x3ca3978f	0.01996973
95	0xbd16c80f	-0.036811884
96	0x3da67183	0.081271194
97	0xbc7eff89	-0.015563854
98	0xbd55c8ca	-0.05219344
99	0xbb5c7e80	-0.0033644736
100	0xbd2eb1c1	-0.042649988
101	0xbd7f9986	-0.06240227
102	0x3b56e3e6	0.0032789647
103	0xbcdde2bc	-0.027085654
104	0x3c7d03d4	0.015442807
105	0xba772e55	-0.0009429206
106	0x3cae421c	0.021271758
107	0x3d0ff239	0.03514311
108	0xbdf4ea65	-0.1195877
109	0xbd5b128c	-0.053484485
110	0x3dc5cc8d	0.096581556
111	0x3d33476e	0.043769293
112	0xbd1bcbda	-0.038036205
113	0x3d44e766	0.04807224
114	0x3d51b051	0.05119354
115	0xbce70e3f	-0.028205035
116	0x3e0d44fc	0.13795847
117	0xbd2688b1	-0.040657703
118	0x3d240f28	0.040053517
119	0xbcb2ed4a	-0.021841664
120	0xba009afd	-0.00049059076
121	0x3d4b60a4	0.04965271
122	0xbd0db61b	-0.034597497
123	0xbd9368ad	-0.071977
124	0xbda95d20	-0.08269715
125	0xbd209ad4	-0.039210156
126	0x3d8de2a6	0.069279954
127	0x3d762451	0.060093228
128	0x3d828b9d	0.06374285
129	0x3d0695a9	0.03285757
130	0xbbe91a8f	-0.0071137617
131	0x3ce90d5b	0.028448751
132	0xbc57b887	-0.013166553
133	0x3d398060	0.045288444
134	0x3da9210c	0.08258256
135	0xbd7c9b51	-0.06167156
136	0x3c8fd38e	0.017556932
137	0x3caa50ea	0.020790536
138	0x3d6b4226	0.05743613
139	0xbd7ea9b1	-0.06217355
140	0x3d3121ef	0.043245252
141	0xbdc23305	-0.094823875
142	0x3cf41ad5	0.02979795
143	0x3dd15732	0.10221709
144	0xbce2f453	-0.027704393
145	0x3cef52be	0.02921426
146	0x3d3a42e6	0.045473956
147	0x3c16d8a2	0.009206923
148	0xba885cbd	-0.0010403615
149	0xbd080d70	-0.03321594
150	0xbd6fd913	-0.058556627
151	0x3db19613	0.086712025
152	0xbcce5244	-0.025185712
153	0x3ce28957	0.02765338
154	0x3db32d2d	0.08748851
155	0xbda99180	-0.08279705
156	0x3d7d29da	0.06180749
157	0x3cafd484	0.02146364
158	0xbbdad84e	-0.0066786176
159	0xbd88cf69	-0.06680185
160	0xbce51c6b	-0.027967652
161	0xbdcfc07a	-0.10144134
162	0xbcca4238	-0.024689779
163	0x3ca04987	0.01956631
164	0x3d8e5031	0.06948889
165	0xbd8bcecc	-0.06826553
166	0x3d013100	0.03154087
167	0x3d80cc4a	0.06288965
168	0x3d395395	0.045245726
169	0xbd01eb64	-0.031718627
170	0x3de56ca1	0.1120236
171	0xbdbe8d55	-0.09304301
172	0xbc8928f3	-0.016743159
173	0xbe04cc60	-0.12968588
174	0x3cd5e7b3	0.02611146
175	0xbc80030e	-0.015626457
176	0x3cb9e4d5	0.022692123
177	0x3c1ee31c	0.009697702
178	0x3ce67cdb	0.028135708
179	0xb9e658bb	-0.00043935128
180	0x3de89871	0.11357201
181	0x3e2e57cc	0.1702568
182	0x3d9bc876	0.07606594
183	0x3ddce270	0.10785377
184	0xbbc967ac	-0.006146392
185	0xbde5617a	-0.11200233
186	0xbd53ce00	-0.05171013
187	0x3d2fc282	0.042910106
188	0xbd4bafc8	-0.049728185
189	0xbdc855e7	-0.097820096
190	0xbde6671c	-0.11250135
191	0xbe401853	-0.18759279
192	0x3d03b0e6	0.032151125
193	0x3ccf60a1	0.025314631
194	0xbd2de1d1	-0.042451683
195	0x3b290112	0.0025787991
196	0x3d5c77c3	0.05382515
197	0xbb858c6c	-0.0040755775
198	0x3c980e68	0.018561557
199	0x3d585d18	0.052823156
200	0x3cbc7ee3	0.023009723
201	0x3dc804be	0.097665295
202	0x3bd664e2	0.006542788
203	0xbd9505c3	-0.072764896
204	0xbd1b003c	-0.03784202
205	0xbce63e85	-0.028105984
206	0xbdc3815c	-0.09546158
207	0x3d531b7e	0.05153989
208	0x3d3b5eaa	0.045744576
209	0x3d19e889	0.03757528
210	0xbdab06b1	-0.08350886
211	0xbd4cbdd7	-0.049985733
212	0x3d3baad0	0.045817196
213	0x3e1bdfdd	0.15222116
214	0x3dbdc911	0.09266866
215	0xbd2551ba	-0.040361144
216	0xbd66e154	-0.056367233
217	0x3c97bac8	0.018521681
218	0xbddbb58f	-0.10727989
219	0x3cafeb7d	0.021474594
220	0xbaae9fd7	-0.0013322782
221	0x3c90727c	0.017632715
222	0xbcc884e1	-0.024477424
223	0xbd475919	-0.048668955
224	0xbd8a0b07	-0.067403845
225	0x3d0c938d	0.034320403
226	0x3d5873d0	0.052844822
227	0xbd1f958c	-0.03896098
228	0x3dd2e206	0.10297017
229	0x3d28645e	0.041111343
230	0xbc5e8fdd	-0.013584104
231	0x3dc10827	0.09425383
232	0xbd6512e0	-0.055926204
233	0x3d9eeb0b	0.07759675
234	0xbd0f5a98	-0.034998506
235	0x3bcdcbcc	0.006280398
236	0x3e02f1ee	0.12787601
237	0x3dc60f2c	0.096708626
238	0xbce0d6c8	-0.027446166
239	0x3c94559b	0.018107226
240	0x3d8e3cd8	0.06945199
241	0xbc4e75ae	-0.012601299
242	0x3dfab979	0.12242407
243	0xbcd46742	-0.025928143
244	0xbe136669	-0.14394535
245	0xbd58d6a1	-0.05293906
246	0x3dc288ef	0.09498774
247	0x3c889db5	0.016676763
248	0xbce7b08d	-0.028282428
249	0x3dd4c9b0	0.10390031
250	0xbd655b5e	-0.055995338
251	0x3d306319	0.043063257
252	0x3db27883	0.08714392
253	0xbc6c9a6c	-0.014441114
254	0xbdaca5fc	-0.084300965
255	0x3dae07e3	0.08497598

b2 f4 [32]
0	0x3bc29bf0	0.0059389994
1	0x3cd580b2	0.026062343
2	0x3cdb911c	0.026802592
3	0xbddb508c	-0.107087225
4	0xbd317075	-0.043320138
5	0xbb234d9e	-0.002491809
6	0x3e14bd61	0.14525367
7	0xbd8effb9	-0.06982369
8	0x3d603b1c	0.05474387
9	0xbe272705	-0.16323479
10	0x3c022384	0.007943038
11	0xbdd5c40d	-0.10437784
12	0xbc5b4850	-0.01338394
13	0xbd3c6342	-0.045993097
14	0x3d339784	0.04384567
15	0xbdbb1eb0	-0.091367126
16	0x3beff97b	0.0073234416
17	0x3dec83a9	0.1154855
18	0xbe4ab97f	-0.19797324
19	0xbdeee485	-0.116646804
20	0xbdd2b4a7	-0.10288363
21	0x3deb76c5	0.11497263
22	0xbcd0bcb4	-0.025480606
23	0x3ca30604	0.01990033
24	0xbd5ae6d2	-0.053442784
25	0x3bb13ca0	0.0054088384
26	0x3c1fc969	0.00975261
27	0x3cbfc016	0.023407023
28	0xbcf2aeb3	-0.029624319
29	0xbced998d	-0.029003883
30	0xbb412d38	-0.0029476415
31	0xbc77a9bb	-0.0151161505

conv3 f4 [32, 32, 3, 3]
0	0x3c78c9b6	0.01518481
1	0x3c4993ef	0.0123033365
2	0xbd231241	-0.03981233
3	0x3d34ef65	0.044173617
4	0xbceb0cbb	-0.028692594
5	0xbc6454c7	-0.013936228
6	0xbd58df2c	-0.05294721
7	0x3c2f1a37	0.010687402
8	0xbb54b07b	-0.0032453823
9	0x3cd5e696	0.026110929
10	0x3bffcbd1	0.007806279
11	0xbd25c37b	-0.040469628
12	0x3d234830	0.039863765
13	0x3d9b5497	0.075844936
14	0x3cf17b2b	0.029477676
15	0x3de77d55	0.11303202
16	0x3dab6866	0.08369522
17	0x3d8e3472	0.06943597
18	0x3d203716	0.039115034
19	0xbc9e6d03	-0.01933909
20	0x3dfa2402	0.12213899
21	0x3c084926	0.008318221
22	0x3c15ee8c	0.009151112
23	0x3cba5d06	0.022749435
24	0xbc181248	-0.009281702
25	0x3c9ebbb2	0.01937661
26	0xbd01ccc5	-0.031689424
27	0x3e01fee3	0.12694888
28	0x3d21b62e	0.03948038
29	0x3ded5b3a	0.11589666
30	0x3d93e55c	0.07221481
31	0x3af32a23	0.0018551986
32	0x3b3d77b7	0.0028910467
33	0x3d2181f8	0.03943059
34	0x3de183b0	0.110114455
35	0x3d6d1c87	0.057888534
36	0xb8c57981	-9.416324e-05
37	0xbdd18dca	-0.10232122
38	0xbdb2c606	-0.08729176
39	0xbe03abd3	-0.12858514
40	0xbdd8befd	-0.10583303
41	0xbc918499	-0.017763423
42	0xbd910903	-0.07081797
43	0xbe0a1ab9	-0.13486756
44	0xbdd6b9b4	-0.10484639
45	0xbb902384	-0.004398765
46	0x3bae9152	0.005327382
47	0x3d800683	0.06251242
48	0xbc72ba2b	-0.014814894
49	0x3cf09f4f	0.02937284
50	0xbd12192c	-0.035668537
51	0x3cb828b4	0.022480346
52	0xbc63093c	-0.013857182
53	0x3c4469a6	0.011988079
54	0x3e42c259	0.1901945
55	0x3dd92a9b	0.106038295
56	0x3e1f9935	0.15585788
57	0x3cd2c8b1	0.025730463
58	0xbd5d831e	-0.05408012
59	0x3d8670c6	0.065644786
60	0x3e5e0579	0.21681775
61	0x3e025a72	0.12729815
62	0x3e046213	0.12928037
63	0xbd96fe6c	-0.07372746
64	0x3a89ddcf	0.0010518375
65	0x3d847a03	0.064685844
66	0xbd2de5f0	-0.042455614
67	0xbcfd24f8	-0.030901417
68	0x3ce32804	0.027729042
69	0x3d548607	0.05188563
70	0x3b5cfa74	0.0033718618
71	0x3ca28c03	0.019842153
72	0x3d19a258	0.03750834
73	0x3d33c9bc	0.04389356
74	0x3caa7523	0.020807808
75	0xbc6bea87	-0.014399177
76	0x3c9367ba	0.017993797
77	0x3d83a1a3	0.06427314
78	0x3dd82ddd	0.10555623
79	0x3cf97d15	0.030455152
80	0x3cab11f9	0.020882593
81	0x3eb5ddc1	0.35520747
82	0x3def60e7	0.116884045
83	0x3ea9dae7	0.33174822
84	0x3e3d6e5e	0.18499133
85	0x3dc06a81	0.09395314
86	0x3dae4193	0.08508601
87	0x3e7ffeb2	0.24999502
88	0x3e67b117	0.22626148
89	0x3e877182	0.26453787
90	0x3b50eb9d	0.0031878718
91	0x3cc08736	0.023501974
92	0xbc51067a	-0.012757892
93	0x3d9b0f69	0.07571299
94	0x3d8a331b	0.06748029
95	0xbc1c543e	-0.009541569
96	0xbcd2e9e3	-0.025746292
97	0x3d23bc2f	0.039974388
98	0xbdac451e	-0.084116206
99	0xbded0fec	-0.115753025
100	0xbd7a82ad	-0.06115978
101	0xbdbb8323	-0.09155872
102	0xbc769b35	-0.015051653
103	0xbcf5098d	-0.02991178
104	0xbc94424e	-0.018098023
105	0xbe0b2c5f	-0.13591145
106	0xbc9049c3	-0.017613297
107	0xbdf64dcd	-0.12026558
108	0xbc7b74f6	-0.01534771
109	0xb91bb872	-0.00014850663
110	0xbd83bfac	-0.06433043
111	0xbdca9899	-0.09892387
112	0xbd8a42f7	-0.06751054
113	0x3caac282	0.020844702
114	0xbd8fed25	-0.070276536
115	0xbc0bca0a	-0.008532057
116	0x3c892518	0.01674132
117	0xbb6478f8	-0.0034862142
118	0x3d5f0976	0.054452382
119	0x3d172048	0.03689602
120	0x3c50350a	0.012707958
121	0x3dbe3799	0.09287948
122	0xbcab5dd1	-0.020918759
123	0xbd19ef3c	-0.037581667
124	0x3d600199	0.054689024
125	0xbc0dd4c4	-0.008656684
126	0xbbbeab6c	-0.005818775
127	0x3c9b8d12	0.018988166
128	0x3dd72748	0.10505539
129	0xbd75a793	-0.059974264
130	0xbbb6e176	-0.0055810763
131	0x3cb945c1	0.022616269
132	0x3c0472ba	0.008083994
133	0x3baeb978	0.005332168
134	0x3d8ffc4d	0.070305444
135	0x3d42ce54	0.04756005
136	0x3c832b95	0.016011992
137	0xbc896979	-0.016773926
138	0x3d970bf3	0.07375326
139	0x3c24761b	0.010037924
140	0x3c9985bd	0.01874053
141	0x3d6620bf	0.056183573
142	0xbbfeae07	-0.0077722105
143	0xbd685577	-0.05672213
144	0x3d40a659	0.04703364
145	0xbdf56a33	-0.119831465
146	0xbcc62f47	-0.024192465
147	0xbca93ae9	-0.020657973
148	0xbd1f256b	-0.038854044
149	0xbcde2092	-0.02711514
150	0x3d83a63c	0.06428191
151	0x3c974ddf	0.018469749
152	0x3d420e08	0.047376662
153	0xbdeacadc	-0.114644736
154	0xbc4f04f3	-0.012635457
155	0xbdd737d8	-0.10508698
156	0x3cb342a6	0.021882366
157	0x3cda489b	0.02664595
158	0xbce350d6	-0.027748507
159	0xbe18c87c	-0.14920229
160	0xbc7d1e4f	-0.015449121
161	0xbde3fc40	-0.11132097
162	0xbe880d3e	-0.26572603
163	0xbdad4628	-0.08460647
164	0xbe914753	-0.2837473
165	0xbe154757	-0.14577995
166	0xbb824e9e	-0.003976657
167	0xbe3ea383	-0.18617062
168	0xbe88f4e8	-0.2674935
169	0xbdb37040	-0.08761644
170	0xbe715962	-0.23569253
171	0x3e47f969	0.19528736
172	0x3df195cc	0.117961496
173	0x3e2ed436	0.1707314
174	0x3e3c5140	0.1839037
175	0x3d927ba6	0.0715249
176	0x3e1f03dd	0.15528817
177	0x3e511237	0.20417105
178	0x3de11565	0.10990409
179	0x3e564466	0.2092453
180	0xbb3914d1	-0.0028241167
181	0x3cbbd954	0.022930779
182	0xbd256e6a	-0.040388502
183	0x3cbeaf99	0.02327709
184	0xbd8606b2	-0.06544246
185	0x3c475a6a	0.0121675525
186	0x3cbd9214	0.023140945
187	0xbb86e70c	-0.0041168984
188	0x3b2f73df	0.0026771945
189	0x3cb8631f	0.022508202
190	0x3d13c16d	0.036073137
191	0x3d835515	0.064127125
192	0x3d95ed3c	0.073206395
193	0x3d462299	0.04837284
194	0x3d97fabf	0.07420873
195	0x3d76d2e4	0.060259715
196	0x3d82a7c6	0.063796565
197	0x3cdffe8c	0.027343057
198	0xbdbb070c	-0.091322035
199	0xbdaedfc1	-0.085387714
200	0xbd857b6e	-0.06517683
201	0x3b9e5ee9	0.0048330915
202	0x3c684d11	0.01417853
203	0xbdcf6081	-0.101258285
204	0xbd8006ee	-0.06251322
205	0xbd8e961d	-0.069622256
206	0xbd158d71	-0.036511842
207	0x3d57dcf3	0.052700948
208	0x3d81e146	0.063417956
209	0x3d8a26df	0.06745695
210	0x3a78e57f	0.0009494647
211	0xbc9fe50f	-0.019518403
212	0x3c36bbce	0.011153175
213	0x3d9f4ee3	0.07778718
214	0x3d8d0bf4	0.068870455
215	0x3add3145	0.0016875645
216	0x3d201693	0.03908403
217	0xbbb9511d	-0.0056554214
218	0x3cf1878e	0.029483583
219	0xbda9c121	-0.082887895
220	0x3d5c77e4	0.053825274
221	0x3c1c8d64	0.0095551945
222	0x3ae1b0c1	0.0017218814
223	0x3d98bb8c	0.07457647
224	0x3cd393a3	0.025827235
225	0xbd8d84cb	-0.06910094
226	0xbcb42386	-0.021989595
227	0xbd7d2ba4	-0.061809197
228	0xbcb967fd	-0.022632593
229	0xbd87a786	-0.066237494
230	0xb982784b	-0.00024885157
231	0xbd9c4fe6	-0.07632427
232	0xbdb2226c	-0.08697972
233	0xbdcaf5a1	-0.09910131
234	0x3b2b87d8	0.0026173498
235	0xbbad04a5	-0.0052800947
236	0x3e0f7a92	0.140116
237	0x3d2e2088	0.042511493
238	0x3c9b5f63	0.018966382
239	0x3d0ac61e	0.033880346
240	0xbd346038	-0.044037074
241	0x3c1d1b72	0.009589063
242	0xbd0a49c0	-0.03376174
243	0xbdc19d38	-0.09453815
244	0xbdf59654	-0.119915634
245	0xbe1a6fa3	-0.15081649
246	0xbdc74d25	-0.09731511
247	0x3db97d35	0.090570845
248	0xbdf831ef	-0.12118899
249	0xbe1f3a4b	-0.15549581
250	0xbdaeef98	-0.08541793
251	0xbde37554	-0.11106363
252	0x3cbc3297	0.022973342
253	0x3dbbfc12	0.09178938
254	0xbc29e9a9	-0.01037065
255	0x3dd0c88d	0.10194502

b3 f4 [32]
0	0x3ea39631	0.31950524
1	0x3ec81ad9	0.39082983
2	0x3f119681	0.56870276
3	0x3f82efca	1.0229428
4	0x3eeda553	0.46415195
5	0x3eee7ad7	0.46578094
6	0x3eb68943	0.35651597
7	0x3f12cf5a	0.57347643
8	0x3ef30cf2	0.47470814
9	0x3f575370	0.8411169
10	0x3f31f725	0.6951774
11	0x3ef4608e	0.47729915
12	0x3ed8d282	0.42348105
13	0x3edb04bb	0.42777047
14	0x3f47446d	0.77838784
15	0x3ee528bd	0.44757643
16	0x3f19d792	0.6009456
17	0x3eee72fa	0.46572095
18	0x3e946fca	0.28991538
19	0x3f433c8f	0.7626428
20	0x3ee3b5d7	0.4447467
21	0x3ee9cf61	0.4566603
22	0x3ed6fa03	0.4198762
23	0x3f1d5a55	0.6146596
24	0x3f1b19e1	0.60586363
25	0x3f35a513	0.7095501
26	0x3e67e727	0.22646771
27	0x3f809d98	1.0048094
28	0x3f078482	0.52936566
29	0x3f2eaa0d	0.68228227
30	0x3f2b95c8	0.67025423
31	0x3f27e280	0.65579987

w4 f4 [5, 32]
0	0x4007228a	2.111483
1	0xbffa015a	-1.9531662
2	0x3f5c9ba0	0.86174965
3	0xbfc8a8c5	-1.5676504
4	0xbfe795e4	-1.8092618
5	0xbf89d102	-1.0766909
6	0xc00d9aab	-2.2125652
7	0xbed9b685	-0.42522064
8	0xc006412b	-2.0977275
9	0xbfbea46a	-1.4893925
10	0xbf523ff4	-0.82128835
11	0xc00c0447	-2.187761
12	0x40214d91	2.5203593
13	0xbfdfbcfe	-1.7479551
14	0xbf02a4d9	-0.5103279
15	0x3f29e502	0.66365063
16	0x402eb345	2.7296917
17	0xbeb300fe	-0.34961694
18	0x3ff06f24	1.8783917
19	0xbfc7b510	-1.5602131
20	0x401eab7e	2.479217
21	0xbf682e14	-0.9069531
22	0xbf219da5	-0.6313117
23	0xbfc923a3	-1.5714
24	0x40344826	2.8169036
25	0x3defe12a	0.117128685
26	0x3fae6e70	1.3627453
27	0x40338211	2.8048136
28	0xc011b9f0	-2.2769737
29	0xbfabe22e	-1.34284
30	0xbfdc89c5	-1.7229544
31	0x3e1d8654	0.15383273
32	0x3eeacb4e	0.45858234
33	0xbffcaed5	-1.9740855
34	0xbfab51e2	-1.3384364
35	0x40418699	3.0238402
36	0x3fa21dcf	1.2665347
37	0xc0098394	-2.148656
38	0x3e011c86	0.12608537
39	0x40388c69	2.88357
40	0xbf3a8798	-0.7286315
41	0xbfc4e53e	-1.5382459
42	0xbfcafe7f	-1.5858916
43	0x40267e8f	2.6014745
44	0x3f85845d	1.0431019
45	0xc00292dc	-2.0402136
46	0xbf5f6788	-0.8726735
47	0xbfd96811	-1.6984884
48	0xc0011de7	-2.01745
49	0xc0120e6e	-2.2821307
50	0xc019713e	-2.3975368
51	0xbdfc6a98	-0.12325019
52	0xbfd1f922	-1.6404154
53	0xbfe54785	-1.7912451
54	0x3ff66e95	1.9252497
55	0x40302d9a	2.7527833
56	0xbfd4fa93	-1.6638969
57	0xbe0f45b5	-0.13991435
58	0x3fd5ca6b	1.6702398
59	0xbfb17ea0	-1.3866768
60	0x3f51c1f1	0.81936556
61	0xbfc68a65	-1.5510985
62	0x3eaf40b3	0.3422905
63	0x40286f3e	2.6317897
64	0x3f3c2b11	0.73503214
65	0x4026efc2	2.6083837
66	0xbff33355	-1.900004
67	0xbf3f721f	-0.7478351
68	0x401e6a94	2.475255
69	0x40290346	2.6408248
70	0x40018b47	2.0241258
71	0xbfa18889	-1.2619792
72	0xbdea09bb	-0.11427637
73	0x3d907f4f	0.07055532
74	0x4033eb50	2.8112373
75	0xbf8fa1b0	-1.1221218
76	0xbfb47400	-1.40979
77	0x3f863723	1.0485576
78	0xbf836e80	-1.0268097
79	0xbf94dd68	-1.1630068
80	0xbfb44493	-1.4083427
81	0xbf0994fe	-0.5374297
82	0x3f6edfd1	0.93310267
83	0xbfae5520	-1.3619728
84	0xbf56c96d	-0.839011
85	0xbfdddac6	-1.7332389
86	0xbff7bfc8	-1.9355402
87	0xbd423d8b	-0.047421973
88	0xbeb4f7e9	-0.3534539
89	0xbfca0c81	-1.5785066
90	0x3e131c5c	0.14366287
91	0xbfe30520	-1.7735939
92	0xbf6fd1d1	-0.9367953
93	0x402b988f	2.6811864
94	0xbe971af6	-0.29512757
95	0xbfc63e4c	-1.5487761
96	0xc00c647f	-2.1936338
97	0x3eca76c1	0.39543727
98	0xbf2947a2	-0.6612493
99	0xbfed467f	-1.8537139
100	0xbfb77dcc	-1.4335265
101	0x3b1e871a	0.0024189414
102	0xc0094a32	-2.1451535
103	0x3e0d5a72	0.13804033
104	0x40304774	2.7543612
105	0xbfcd62da	-1.6045792
106	0xbfd6c4c2	-1.6778796
107	0xbef807d4	-0.48443472
108	0xbfc6b658	-1.5524397
109	0x4015a6f2	2.3383145
110	0x403a11cd	2.9073365
111	0x40361286	2.8448806
112	0x3f34cb3f	0.7062263
113	0x3f07940d	0.5296028
114	0xc006afd5	-2.104482
115	0x4027eb49	2.6237357
116	0xbff572c2	-1.9175646
117	0x40276512	2.6155438
118	0x3fccf8f7	1.6013478
119	0xbfc5c130	-1.5449581
120	0xbea88a7d	-0.32918158
121	0xbf8af1d8	-1.0855055
122	0x3d4f9422	0.05067838
123	0xbfb12b4f	-1.3841342
124	0x3f065ea4	0.5248816
125	0xbfecf936	-1.8513553
126	0xbfe81c9a	-1.8133729
127	0xc00cf96c	-2.2027235
128	0xbffc131e	-1.9693334
129	0xbf40823b	-0.75198716
130	0x40262bb1	2.5964167
131	0xbf7a7ae7	-0.97843784
132	0xbff71dc4	-1.9305959
133	0xbfcc0a0b	-1.5940565
134	0x3fba09bd	1.4534222
135	0xbfdb11db	-1.7114824
136	0x3f334b16	0.7003645
137	0x40359704	2.8373423
138	0xbfd7b20c	-1.685121
139	0xbda0f1fd	-0.078586556
140	0xbf77d04d	-0.96802217
141	0xbff37a55	-1.9021708
142	0xbfd91899	-1.6960632
143	0xbfcc80d3	-1.5976814
144	0xbf99872d	-1.1994377
145	0x4033f53f	2.8118436
146	0x3e0a9fa7	0.13537465
147	0xbfe1aac4	-1.7630239
148	0x3faa8597	1.3322018
149	0x3f97b2e0	1.1851463
150	0xbfc9435a	-1.5723679
151	0xbfefcd9f	-1.8734626
152	0xc00034b4	-2.0032167
153	0x402d2211	2.7052042
154	0xc0405694	-3.0052843
155	0xbf8ca3e5	-1.0987517
156	0x40269127	2.6026094
157	0xbf907de1	-1.1288415
158	0x40367a11	2.8512003
159	0x3f341ecc	0.7035949

b4 f4 [5]
0	0x3e763ea8	0.24047339
1	0xbb087ba0	-0.002082564
2	0xbe76651a	-0.24062005
3	0x3e1837cb	0.14865033
4	0x3df894b4	0.12137738

exp_avg f4 [32, 1, 3, 3]
0	0x3a9ab02c	0.0011801771
1	0xbafe5691	-0.0019404461
2	0xbbb42185	-0.00549716
3	0x3b132542	0.0022452627
4	0xba4d7429	-0.00078374386
5	0xbbfd202c	-0.0077247825
6	0xba2a1774	-0.000648848
7	0xbb844bfb	-0.004037378
8	0xbbeb6eb2	-0.007184827
9	0x3ab6c875	0.0013945239
10	0x3a8c6fea	0.0010714505
11	0x3a8015aa	0.0009772081
12	0xb9a02ec5	-0.00030552424
13	0xba71cc9f	-0.00092239113
14	0x3b04288b	0.0020165767
15	0x3a460bea	0.0007554876
16	0xb95c56db	-0.00021013191
17	0x3b1ee50d	0.0024245412
18	0xbbfb7ae5	-0.0076745623
19	0xbb696175	-0.0035611067
20	0x3a0a86c4	0.0005284364
21	0xbc47eb49	-0.012202092
22	0xbb942446	-0.0045209257
23	0xba127d1b	-0.00055881
24	0xbbe1c288	-0.006889645
25	0xbb277ddc	-0.0025557196
26	0xbb1d3cad	-0.0023992464
27	0xbadfc02d	-0.0017070823
28	0xb9dfcef2	-0.0004268806
29	0x38db34ba	0.00010452555
30	0xbaca7b10	-0.0015448052
31	0x3911b00c	0.0001389386
32	0x38a2c28d	7.761e-05
33	0x3aae6803	0.0013306144
34	0x3b098787	0.0020985322
35	0x3a2cdec9	0.0006594477
36	0x3b121943	0.002229289
37	0x3c0cac67	0.008586026
38	0x3bb08c6b	0.005387833
39	0x397c031d	0.00024033753
40	0x3b7a349c	0.003817833
41	0x3b567633	0.003272426
42	0x39759b39	0.00023422846
43	0x3b26a20d	0.002542618
44	0x3b84709c	0.0040417444
45	0x3b495bcf	0.0030724888
46	0x3b99448b	0.0046773604
47	0x39a36775	0.00031166864
48	0x3a861976	0.0010230977
49	0x3b67040b	0.0035250213
50	0x3b359429	0.0027706719
51	0xb82301e0	-3.8863975e-05
52	0x3b18f19b	0.0023337367
53	0x3b94f88a	0.0045462297
54	0xb9acd18a	-0.00032962515
55	0xb9da0797	-0.00041585855
56	0xb9b4a0f1	-0.00034452186
57	0xb89f530d	-7.59718e-05
58	0xbb17121f	-0.0023051572
59	0xba478568	-0.00076111266
60	0xbb31267f	-0.0027031002
61	0xbb4587cb	-0.0030140753
62	0xbab05abb	-0.0013454774
63	0xbabbf860	-0.0014340989
64	0x3aa83176	0.0012832123
65	0xbbbcfeca	-0.005767678
66	0xbaebe125	-0.0017996175
67	0xbb95067f	-0.0045478935
68	0xbc0e5750	-0.008687809
69	0xbbc8c4db	-0.0061269826
70	0xbc3e26c2	-0.01160592
71	0xbb9cef59	-0.0047892747
72	0x3851f1f7	5.005483e-05
73	0xb8ffb094	-0.00012192238
74	0xb92963eb	-0.00016154318
75	0xbb08b32e	-0.0020858753
76	0xba98cc0d	-0.0011657492
77	0xba9f1cb4	-0.0012139292
78	0xba7d08f0	-0.0009652516
79	0x3ac251e4	0.0014825431
80	0x39de64a4	0.00042418123
81	0xbb58a913	-0.003305976
82	0xbb4668e7	-0.003027493
83	0xbb15adb9	-0.0022839142
84	0xbb16597f	-0.0022941527
85	0xbb998a42	-0.004685671
86	0xbb3dc406	-0.002895595
87	0xbb835ed4	-0.004009107
88	0xbb875c16	-0.0041308505
89	0xbbd07bd7	-0.006362419
90	0x3bb1f2e6	0.005430567
91	0x3b7807cf	0.003784645
92	0x3b569df8	0.0032747965
93	0x3c0975ba	0.008389885
94	0x3be822bb	0.0070842183
95	0x3be646fa	0.007027504
96	0x3bb351cf	0.005472399
97	0x3b690aaf	0.0035559346
98	0x3b35dc48	0.0027749706
99	0xbb482a28	-0.0030542705
100	0xbbdd5500	-0.0067545176
101	0xbc53358f	-0.012891187
102	0xbb43f314	-0.0029899525
103	0xbbe7c6b2	-0.007073247
104	0xbc2c59a3	-0.010519418
105	0xbba5163c	-0.005038051
106	0xbb5565c5	-0.003256188
107	0xbb3ac09c	-0.0028496152
108	0xbadaa3d2	-0.0016680902
109	0xba7e370a	-0.00096975325
110	0xbb0187a1	-0.001976468
111	0xbb58274e	-0.0032982412
112	0xbb625d64	-0.0034540528
113	0xbb864b13	-0.004098305
114	0xbacf740a	-0.0015827429
115	0xbb3878db	-0.0028148207
116	0xbbc43ab2	-0.0059884423
117	0x3afb74a0	0.0019184537
118	0x3a63571c	0.0008672343
119	0x3b8db31e	0.004324331
120	0x3b7272c1	0.0036994668
121	0x3b53e9d5	0.003233542
122	0x3b81e1ae	0.0039636707
123	0x3b70ad4e	0.0036724391
124	0x3ab81623	0.0014044683
125	0x3aa1eb88	0.0012353519
126	0x3be6ebf9	0.007047173
127	0x3b804d97	0.0039154994
128	0x3b31bfcf	0.0027122383
129	0x3bfc51e0	0.00770019
130	0x3bd396d1	0.0064571877
131	0x3bec00f9	0.0072022644
132	0x3b568c68	0.0032737497
133	0x3b83c942	0.0040217945
134	0x3bebe959	0.007199448
135	0xbbfd3895	-0.0077276924
136	0xbbae168c	-0.0053127464
137	0xbb6a49f5	-0.0035749648
138	0xbc1f7053	-0.00973137
139	0xbbd28a01	-0.0064251428
140	0xbb80f582	-0.003935517
141	0xbb1fa0f8	-0.002435742
142	0xbb572dfc	-0.0032833805
143	0xbaa4e35c	-0.0012579965
144	0x3b154523	0.0022776804
145	0x3b843c52	0.004035511
146	0x3be56109	0.007000093
147	0x3a5d1ad5	0.0008434479
148	0x3b05b534	0.0020402195
149	0x3b94f2a0	0.0045455247
150	0x3b13f84a	0.0022578412
151	0x3b8f223a	0.004368094
152	0x3b9a2131	0.0047036638
153	0xbbcd26a1	-0.0062607084
154	0xbc1d5c32	-0.009604501
155	0xbc6306de	-0.013856618
156	0xbb4265fe	-0.0029662843
157	0xbbbd242d	-0.0057721348
158	0xbc2ff19d	-0.010738757
159	0xbb55f16b	-0.0032645117
160	0xbb2d110e	-0.002640787
161	0xbbc3c290	-0.0059741214
162	0xbbd965f0	-0.0066344664
163	0xbb4eba16	-0.0031544021
164	0xbaea8a1f	-0.0017893946
165	0xbbd69faa	-0.006549795
166	0xbaeba2bf	-0.0017977579
167	0xba98f138	-0.0011668568
168	0xbb7351a5	-0.0037127521
169	0xbb4be60a	-0.0031112456
170	0xbac409d6	-0.0014956545
171	0xbb1c5199	-0.0023852347
172	0xba84b8f7	-0.0010125925
173	0x394a10c6	0.0001927047
174	0xbbbfaa46	-0.0058491556
175	0xbbaf7286	-0.0053542284
176	0xbbb84c17	-0.005624305
177	0xbb85aead	-0.004079661
178	0xbb7dd700	-0.0038732886
179	0xbb32d0a3	-0.0027285002
180	0xb9f5c927	-0.00046879912
181	0xbb2bebac	-0.0026233
182	0x3b118c30	0.0022208802
183	0xb9685be6	-0.00022159479
184	0xbb6146c7	-0.0034374462
185	0x38d95262	0.00010362711
186	0x3ab3618e	0.001368569
187	0xb8585cbc	-5.158478e-05
188	0xb9404602	-0.00018336627
189	0x3c15db47	0.009146518
190	0x3b955462	0.0045571784
191	0x3a3b461b	0.00071439304
192	0x3c0144a6	0.007889902
193	0x3ba3020c	0.0049746092
194	0x3ac5ca81	0.0015090258
195	0x3aed90c7	0.0018124812
196	0x3b3f2a1d	0.0029169389
197	0x3a0a4774	0.00052749296
198	0xbaee9e10	-0.0018205065
199	0xb9c2ae1b	-0.00037132282
200	0xba36cb2a	-0.0006973023
201	0xb9fd889d	-0.00048357705
202	0xbb5561df	-0.0032559556
203	0xbbc6128d	-0.006044692
204	0xba9db9d5	-0.0012033532
205	0xbb8180c4	-0.0039521176
206	0xbc0d266d	-0.008615118
207	0x3c05b14b	0.008159946
208	0x3c19e64e	0.009393288
209	0x3bb1bba4	0.00542398
210	0x3ba8873a	0.0051430734
211	0x3b8031ff	0.00391221
212	0x3b80e815	0.0039339163
213	0x3a4d7cdb	0.00078387343
214	0xba67ab75	-0.00088375
215	0x3b0744ad	0.00206403
216	0xbba5c75d	-0.0050591663
217	0xbbcfac4e	-0.006337679
218	0xbbe14c69	-0.006875564
219	0xbacbde85	-0.0015553987
220	0xba943524	-0.0011307341
221	0xbb25522c	-0.002522598
222	0xbb1af589	-0.0023644886
223	0xbb58d27b	-0.003308444
224	0xbba5639d	-0.005047275
225	0x3b29084f	0.0025792306
226	0x3a8bdb1f	0.0010670162
227	0xb9edadfd	-0.00045333794
228	0x3a98778b	0.0011632306
229	0xbb16e6f1	-0.0023025835
230	0xbb01885b	-0.0019765112
231	0x3b351e53	0.0027636483
232	0xba317eeb	-0.00067709264
233	0x3ab28e63	0.0013622757
234	0x3965bf7d	0.00021910477
235	0x39e44c12	0.00043544226
236	0x38c211dd	9.253968e-05
237	0x39ae8504	0.0003328697
238	0xba728ab5	-0.00092522363
239	0x3a7cfecc	0.0009651005
240	0x39ab99f9	0.0003273038
241	0xba7784f8	-0.0009442116
242	0xb7fba9af	-3.0000547e-05
243	0xbaf675e9	-0.001880345
244	0x39bb6aae	0.00035746902
245	0x3916dd56	0.00014387569
246	0xbb5dcc66	-0.0033843755
247	0xbacdb0b7	-0.0015692924
248	0xbab8d78d	-0.0014102325
249	0xba7a403a	-0.00095463137
250	0x3a265810	0.000634552
251	0xb926785a	-0.00015875828
252	0xba0d2028	-0.0005383515
253	0xba1cbc4f	-0.0005978988
254	0xbb2edf73	-0.002668348
255	0xb988b3c3	-0.00026073874

exp_avg_sq f4 [32, 1, 3, 3]
0	0x395b8889	0.00020936331
1	0x394191ff	0.00018460302
2	0x399033dc	0.0002750446
3	0x391bb25a	0.00014848393
4	0x39408955	0.00018361707
5	0x399ef0a6	0.00030315405
6	0x389f2335	7.5882686e-05
7	0x395d5397	0.00021107342
8	0x39b4b39a	0.0003446609
9	0x39800933	0.00024420916
10	0x39904929	0.0002752033
11	0x3980cfbc	0.00024568837
12	0x38cd1bd8	9.780348e-05
13	0x390ab491	0.00013227972
14	0x38df8561	0.000106583124
15	0x387db0b5	6.048447e-05
16	0x38f67fff	0.00011754035
17	0x389b94a8	7.418665e-05
18	0x39b8bc5a	0.00035235548
19	0x39b1a1d7	0.0003388065
20	0x399911b6	0.0002919563
21	0x3988ea47	0.00026114492
22	0x392564b2	0.00015773138
23	0x39083f3c	0.00012993527
24	0x3941eb2c	0.00018493523
25	0x38954983	7.118566e-05
26	0x388d5b09	6.7403605e-05
27	0x39fa5cc1	0.00047752823
28	0x396a76a2	0.00022360173
29	0x38f91145	0.00011876462
30	0x3990c855	0.0002761508
31	0x38ede918	0.00011344458
32	0x395a04c4	0.00020791875
33	0x38efec08	0.00011440372
34	0x399dc0a1	0.00030088893
35	0x3a2275b7	0.00061973504
36	0x39fdb7a5	0.00048392746
37	0x39f5e2ab	0.00046898922
38	0x3a004c7c	0.00048942096
39	0x39b86bd2	0.00035175547
40	0x397cd667	0.00024112464
41	0x39bcf8c6	0.00036043505
42	0x397fc6f3	0.0002439281
43	0x39321a35	0.00016985166
44	0x39a4843e	0.00031379046
45	0x3a08fb55	0.00052254397
46	0x3999c4c3	0.00029329033
47	0x379bd751	1.8577704e-05
48	0x391ebfd1	0.00015139511
49	0x3947f583	0.00019069579
50	0x38881c73	6.4902844e-05
51	0x374e8979	1.2310565e-05
52	0x388c51f8	6.690988e-05
53	0x391b56f3	0.00014814343
54	0x38e3eda7	0.0001086847
55	0x38189e3b	3.6386988e-05
56	0x3814561d	3.536615e-05
57	0x397a2308	0.00023854908
58	0x38f85fd2	0.000118434094
59	0x38f58d4f	0.00011708831
60	0x3a313928	0.0006760531
61	0x39fadc44	0.00047847826
62	0x39ecd45d	0.0004517165
63	0x391facb5	0.0001522776
64	0x399d919f	0.0003005387
65	0x39017fae	0.00012349963
66	0x394bac22	0.00019423713
67	0x39e2e71f	0.00043278278
68	0x393bf894	0.00017926312
69	0x399e2966	0.00030166953
70	0x3a4c2123	0.000778692
71	0x397911d6	0.00023753135
72	0x3975da46	0.00023446334
73	0x383f7bfe	4.5653425e-05
74	0x38381e86	4.3897446e-05
75	0x398b4642	0.00026564492
76	0x392b6e9e	0.00016349039
77	0x39140143	0.0001411485
78	0x39657590	0.00021882937
79	0x393ae824	0.00017824821
80	0x39593fe4	0.00020718534
81	0x38c67f5e	9.4651e-05
82	0x38c6ff5d	9.488941e-05
83	0x393bcd73	0.00017910246
84	0x392889f2	0.00016073117
85	0x39378a2a	0.0001750371
86	0x3990a59b	0.00027589206
87	0x398e31b5	0.00027121385
88	0x39951463	0.00028434684
89	0x399fab29	0.00030454368
90	0x38bfb2ac	9.14087e-05
91	0x389bccf9	7.429155e-05
92	0x38a9ee04	8.102882e-05
93	0x39b886d2	0.00035195664
94	0x39917ee9	0.0002775111
95	0x3989d9fd	0.0002629309
96	0x398c71ac	0.00026787573
97	0x392a75e8	0.00016256387
98	0x38631038	5.4136122e-05
99	0x3872fbf0	5.793193e-05
100	0x399b31f7	0.0002960113
101	0x3a0f379d	0.0005463304
102	0x38c69593	9.469236e-05
103	0x397d957b	0.00024183646
104	0x39c3abcb	0.00037321294
105	0x398830b9	0.00025976243
106	0x385977db	5.1848456e-05
107	0x38d8a9c0	0.00010331301
108	0x39c25338	0.00037064566
109	0x398637fe	0.0002560019
110	0x388047aa	6.116864e-05
111	0x393cf722	0.00018021141
112	0x39ade177	0.00033165116
113	0x394d0f89	0.00019556111
114	0x384bdb8d	4.8603444e-05
115	0x39915461	0.00027719422
116	0x399f4134	0.00030375423
117	0x38d5d1c9	0.00010195707
118	0x39876944	0.00025827636
119	0x399c08f1	0.000297613
120	0x39979760	0.00028913748
121	0x39d32e98	0.0004027977
122	0x39a95317	0.000322961
123	0x3989889a	0.00026232452
124	0x39839289	0.00025095444
125	0x38f71a3c	0.00011782764
126	0x399f0ba3	0.00030335513
127	0x394e4d7c	0.00019674556
128	0x395572bd	0.00020356006
129	0x3955008a	0.00020313464
130	0x3957576e	0.00020536568
131	0x39ad56fc	0.0003306194
132	0x384ee49d	4.932714e-05
133	0x388707a0	6.438722e-05
134	0x396ee46b	0.00022782541
135	0x39c4f9d4	0.0003757017
136	0x399fd2c0	0.00030483864
137	0x39883f6c	0.00025987194
138	0x3982e33b	0.00024964832
139	0x3951dc3b	0.00020013835
140	0x393c6608	0.00017967087
141	0x388f3053	6.8277724e-05
142	0x3824ba4d	3.9274153e-05
143	0x38478c02	4.757569e-05
144	0x38ed344d	0.000113107824
145	0x395bbc5b	0.00020955635
146	0x39790c3b	0.00023751047
147	0x398e73bc	0.0002717058
148	0x39b48397	0.00034430317
149	0x397e497e	0.00024250706
150	0x399f41d1	0.0003037588
151	0x398be76a	0.00026684563
152	0x391c4822	0.00014904191
153	0x39388e1b	0.00017600546
154	0x39b54a4c	0.00034578366
155	0x3a151b4a	0.00056879653
156	0x38f6a45e	0.0001176081
157	0x396bfb32	0.00022504924
158	0x39f2ee42	0.00046335353
159	0x37e86f4a	2.7708378e-05
160	0x38ab6783	8.173196e-05
161	0x398fcc3d	0.00027427255
162	0x3a4c0d4e	0.0007783965
163	0x39e2704b	0.00043189744
164	0x38a2e8a0	7.768092e-05
165	0x3a42fba0	0.0007438008
166	0x39d087ac	0.00039773935
167	0x3898ba8e	7.282673e-05
168	0x3a32f625	0.00068268395
169	0x39cfb3db	0.0003961612
170	0x3893e9e2	7.05307e-05
171	0x389e092b	7.535735e-05
172	0x38826eb3	6.2195024e-05
173	0x388503a8	6.342615e-05
174	0x39a5e46e	0.00031641446
175	0x39a7d23d	0.00032009362
176	0x39b8c459	0.00035241505
177	0x3a2163e3	0.0006156547
178	0x3a31e4e1	0.000678612
179	0x3a38b12c	0.00070454436
180	0x3815f5b2	3.575319e-05
181	0x38d74b6b	0.000102660466
182	0x3979b905	0.00023815416
183	0x38114b89	3.464104e-05
184	0x38f72ddd	0.000117864205
185	0x398a3f54	0.00026368594
186	0x388524a1	6.348757e-05
187	0x3933d823	0.00017151287
188	0x39b49729	0.00034444898
189	0x3a116b37	0.00055472873
190	0x3939fe18	0.00017737632
191	0x378ad7d4	1.6551385e-05
192	0x3981dd39	0.0002476962
193	0x38ff2600	0.000121664256
194	0x37895075	1.6369138e-05
195	0x37e98dfe	2.7841885e-05
196	0x38810301	6.151759e-05
197	0x376f9624	1.4280467e-05
198	0x375b3451	1.3065598e-05
199	0x3734427b	1.0744315e-05
200	0x3750b1b9	1.2439145e-05
201	0x37815a0f	1.5419935e-05
202	0x388100a2	6.151317e-05
203	0x393a9e8e	0.00017797409
204	0x39613884	0.00021478726
205	0x39c495ff	0.0003749579
206	0x3a28f5ac	0.00064452994
207	0x394935bb	0.0001918887
208	0x39cac75e	0.00038676983
209	0x39bce857	0.0003603126
210	0x39129dd8	0.00013982446
211	0x39c05a3a	0.00036688318
212	0x39d04f31	0.00039731854
213	0x39abee98	0.00032793428
214	0x39dd2bc6	0.00042185019
215	0x39cdde9c	0.00039266504
216	0x39b48191	0.0003442881
217	0x39982402	0.00029018527
218	0x39904837	0.00027519625
219	0x38754435	5.8476075e-05
220	0x383d990a	4.520364e-05
221	0x38341ede	4.294409e-05
222	0x39ab85e6	0.00032715424
223	0x3999f7c3	0.0002936703
224	0x39b0922f	0.0003367825
225	0x39831411	0.00025001218
226	0x382f454e	4.1787796e-05
227	0x388c0e50	6.678386e-05
228	0x39b82089	0.00035119455
229	0x393e1ad2	0.00018129803
230	0x390e8776	0.00013592638
231	0x39f82919	0.00047332866
232	0x39523493	0.00020046746
233	0x38dd0f14	0.0001054091
234	0x381fa3b6	3.806102e-05
235	0x38f66279	0.00011748536
236	0x3941cb78	0.00018481712
237	0x3820a960	3.8304715e-05
238	0x3904af78	0.00012653868
239	0x394a1880	0.00019273348
240	0x38e2607a	0.0001079449
241	0x3966e3d8	0.00022019388
242	0x398a727e	0.00026406714
243	0x393aa737	0.00017800635
244	0x38971600	7.204339e-05
245	0x379e498a	1.8869312e-05
246	0x39768665	0.00023510454
247	0x390bf021	0.00013345528
248	0x38a27303	7.7461846e-05
249	0x39871232	0.00025762763
250	0x3988b5ae	0.00026075303
251	0x3946f60b	0.0001897441
252	0x38165e6e	3.585073e-05
253	0x38cee4eb	9.865485e-05
254	0x399994ed	0.00029293392
255	0x38d60647	0.000102054844

exp_avg f4 [32]
0	0xb2a9d93b	-1.9772974e-08
1	0xb123bcb0	-2.3826878e-09
2	0x32185be1	8.868455e-09
3	0xb197de6b	-4.4199644e-09
4	0xb1758233	-3.5726202e-09
5	0xb149c72e	-2.936257e-09
6	0xb15fa0b4	-3.254212e-09
7	0x319fac6b	4.6471107e-09
8	0xb0ea9bcf	-1.7070024e-09
9	0x2f3657c1	1.658398e-10
10	0x2f4d0ed2	1.8649907e-10
11	0x317dd254	3.6935903e-09
12	0xb123085f	-2.372438e-09
13	0x311776f5	2.2041011e-09
14	0x315949a7	3.1619523e-09
15	0xb0a02d38	-1.1654384e-09
16	0x3180dea4	3.7506016e-09
17	0xb09a9e02	-1.1249883e-09
18	0x31f8cdb1	7.2411344e-09
19	0xb04df2be	-7.4923523e-10
20	0xb10a057e	-2.0084765e-09
21	0x312d9de4	2.5264564e-09
22	0xb0467317	-7.2195533e-10
23	0xb0e4a616	-1.6636388e-09
24	0xb178c59b	-3.6201075e-09
25	0x313e489b	2.768991e-09
26	0xb0d6cdc3	-1.562903e-09
27	0x3115a183	2.1774162e-09
28	0x31ec4a42	6.876946e-09
29	0x31b817c1	5.3578053e-09
30	0x3146a105	2.8904321e-09
31	0xb1666ad9	-3.353014e-09
