CS330/XCS330-PS3/src/submission/logs/maml/omniglot.way_5.support_1.query_15.inner_steps_1.inner_lr_0.04.learn_inner_lrs_False.outer_lr_0.001.batch_size_16/state12700.pt (torch, 353186 bytes, 30 tensors)

conv0 f4 [32, 1, 3, 3]
000000 69 df bf 3e 5d f0 0b bf 4b 58 b7 3c 4d 35 43 bc
       0.37475136 -0.5466364 0.022380969 -0.011914563
000010 b4 ba dd bd 85 89 63 3d 70 e9 a9 3e 6c 42 fb 3d
       -0.108266264 0.05555107 0.3318591 0.12268528
000020 2a 8f 59 3d 1e 4f b1 3d 37 46 56 3e 89 06 9e 3e
       0.053115048 0.086576685 0.20925222 0.3086436
000030 e0 dd 3a be bb 8f 73 be 50 9b 93 be ae 0c fa be
       -0.18248701 -0.23785298 -0.28829432 -0.488378
000040 14 ab c4 bd 4a 8b ae bd 46 a5 d2 3e 3b d0 06 3e
       -0.09602943 -0.08522661 0.4114172 0.13165371
000050 de b3 04 3e b4 01 b1 bc dd 82 0e bd 9b 45 20 be
       0.12959239 -0.021607257 -0.03479277 -0.15651552
000060 5d 85 80 bd e0 5d 0d bf da 2e 1e bf 03 a4 39 3e
       -0.06275437 -0.55221367 -0.6179024 0.18128972
000070 a3 ef 8d 3c 1d 98 94 be ac 0f 29 3e f7 67 22 bf
       0.017326182 -0.29022303 0.16509885 -0.6343989
000080 18 19 0c be fd a9 f3 be 83 59 18 3d 2b f4 b3 3e
       -0.13681448 -0.47590628 0.03719474 0.35147223
000090 a1 34 05 bd 2a db a6 3d c7 5a f4 3d 05 19 c4 3c
       -0.032520894 0.08147271 0.11931377 0.023937711
0000a0 67 a8 84 be a4 15 e4 3d fb e8 e1 3e ec c5 5c bf
       -0.2590973 0.1113694 0.44123062 -0.86239505
0000b0 cc fa 37 3e 9d a3 dd 3d 01 2e 02 3e 88 a1 ba be
       0.17966765 0.108222224 0.12712862 -0.36451364
0000c0 fe e9 1e be 81 cd 5e 3e 8d be ad be 6f 94 c0 be
       -0.15518948 0.21758081 -0.3393444 -0.37613246
0000d0 f8 46 d9 be 46 cc 4d bc 6f bf 93 be d3 f6 02 bf
       -0.42436957 -0.01256091 -0.2885699 -0.51157874
0000e0 33 cc 95 be bd 97 91 be 9c 7e c3 3b 77 92 41 be
       -0.29257354 -0.2843608 0.0059660207 -0.18903528
0000f0 f0 c2 ed 3e f8 f1 a7 bd cb 75 c4 bc 82 a9 a4 bd
       0.46437788 -0.08200449 -0.02398195 -0.080401435
000100 96 29 73 be 22 bf ca bd d9 34 d2 bd a2 35 bc bc
       -0.23746333 -0.09899737 -0.10263986 -0.022974793
000110 f6 53 22 be 55 8c 79 be be e8 01 3f 96 40 ad be
       -0.15852341 -0.24369939 0.5074576 -0.33838338
000120 45 bb 43 bd a7 03 0d bf 09 56 98 be 94 55 b8 3e
       -0.047786016 -0.550837 -0.2975314 0.3600279
000130 0d 14 07 3e 00 1d 57 be 7a 33 93 be 47 f6 75 3c
       0.13191243 -0.21007156 -0.2875021 0.01501233
000140 73 13 50 3e 3e dd 93 be 58 86 e6 be a8 f4 9b be
       0.2031992 -0.28879732 -0.4502437 -0.30460095
000150 42 8e 44 be bb 0f 41 be 40 6f 99 3d 1a 8f a8 3e
       -0.19194892 -0.18853657 0.074919224 0.32921678
000160 7d 91 69 3d 73 25 9d 3e 9f 8a 8e bd bf 80 77 bd
       0.057023514 0.30692634 -0.069600336 -0.060425516
000170 c1 b2 e0 be 43 bf 35 3d dc d5 a6 bd 44 f4 03 3f
       -0.43886378 0.044371855 -0.08146259 0.51544595
000180 61 0e 88 bd 24 01 c5 bb 64 6e 17 bf 8b cd a8 be
       -0.066433676 -0.006012099 -0.5915282 -0.32969317
000190 2b 93 20 3e 08 2b c1 3c 44 27 e3 be 46 43 84 3d
       0.1568114 0.02358009 -0.44365895 0.06458144
0001a0 45 30 84 3e d9 6b 2e 3e 01 e6 16 bf 4f ee c7 be
       0.25818077 0.17033328 -0.5894471 -0.39049003
0001b0 81 cd 78 3e 17 07 36 be 12 b0 01 bf 58 49 15 be
       0.24297144 -0.17776142 -0.50659287 -0.1457876
0001c0 29 8f 84 3d dc b6 8e bc e0 5b 17 bf 9d e8 1b 3d
       0.06472618 -0.017421179 -0.59124565 0.038063634
0001d0 f8 f2 c0 3e 33 36 1d bf d0 8b 71 3e ee 5f 8f 3e
       0.3768537 -0.61410826 0.2358849 0.28002876
0001e0 15 a1 1e bd cd 4f 0b 3e f5 3e 9a 3c 85 aa 2b bd
       -0.03872784 0.1360466 0.018828848 -0.041910667
0001f0 25 77 25 3c 87 ba 0d bf 79 bd 29 3c 55 73 96 bd
       0.010099207 -0.55362743 0.010360115 -0.073462166
000200 91 3e 04 be 67 ee 9b bd ee 3b 2c bc 92 c7 ea 3d
       -0.12914492 -0.07613831 -0.010512335 0.11463846
000210 71 70 0f bf 25 14 24 bf 28 7c df 3e 01 a8 41 3e
       -0.56030947 -0.6409324 0.4364941 0.18911745
000220 02 d3 c1 3d 4d e4 1b 3c 84 38 cb 3d 5e 13 2a 3e
       0.09464075 0.00951488 0.09922889 0.1660895
000230 e9 39 da bc ae 7d 0f bf ce e3 19 bf f9 78 f8 be
       -0.026638942 -0.56051147 -0.6011323 -0.48529795
000240 50 29 ef be 21 b0 7b be ce e4 26 3e ac 02 d3 bd
       -0.46711206 -0.24578907 0.1629822 -0.10303244
000250 e9 e8 68 3e 3a a0 19 3c d4 29 c2 3e 8a 38 96 bd
       0.22745098 0.00937658 0.37922537 -0.07335003
000260 06 e2 ef be 25 b7 93 be 99 f0 34 3e 2b a3 51 3e
       -0.4685213 -0.28850666 0.17669906 0.204724
000270 50 82 f6 be 3a 86 fd 3d 7e a1 98 3e f1 83 19 bf
       -0.48146296 0.12379117 0.2981071 -0.5996695
000280 f6 f4 13 bf f2 dc 6f be a4 13 61 3e 88 27 31 3d
       -0.57795656 -0.23424128 0.21980149 0.04325059
000290 8f 71 2a bf 40 2a 26 3e 08 6d 0e 3e 03 f6 41 bf
       -0.66579527 0.16227055 0.1390878 -0.7576601
0002a0 cc 9c d0 3d df f5 eb bc ce 69 28 bf 2a 2d 22 bf
       0.10186157 -0.028803764 -0.65786445 -0.63350165
0002b0 e8 15 47 bf 4c 11 39 bf 74 fb 8f bc 7b bf 2f 3e
       -0.777678 -0.7229202 -0.017575957 0.17162888
0002c0 c3 0b 7c 3d 2c 72 ca 3c 5e f6 90 3e 18 b0 33 3e
       0.061534654 0.024712645 0.28312963 0.17547643
0002d0 ed 54 9c be 40 01 4b be 31 e4 a7 bc 27 37 ea be
       -0.30533543 -0.19824696 -0.020494552 -0.45745203
0002e0 39 7a c8 3c c1 be f2 3d 6f 16 16 bf 07 dc 29 3e
       0.024472343 0.1185279 -0.5862798 0.1658784
0002f0 dd 0e 77 3e 84 32 21 3e fe 52 a7 bb ca ea fe be
       0.24126764 0.15741926 -0.005106329 -0.49788505
000300 47 4e 9b 3d 2c 5c c6 3d 3b 10 fc be cf 58 e9 be
       0.075832896 0.09685549 -0.49231133 -0.45575568
000310 d7 8d c8 be 4d 6d b4 be d7 52 a7 be 55 e9 00 bf
       -0.39170715 -0.3523964 -0.3268039 -0.50356036
000320 07 cf 03 bf 6c 29 ed be 40 7c 8a 3d 4e 4d 15 3d
       -0.51487774 -0.46320665 0.0676198 0.036450677
000330 de 36 cd be c4 6b bb 3d 1d 8b 27 3e 30 ff d6 3e
       -0.40080923 0.09151414 0.16361661 0.41991568
000340 0f 22 3f 3c f6 4b 16 bc 3d 68 76 bf ff e5 8e bc
       0.011665835 -0.009173384 -0.96252805 -0.017443655
000350 68 03 89 bc c7 47 c0 3e 02 3c d0 bc cf be 23 bc
       -0.016725257 0.37554762 -0.025419239 -0.009994223
000360 1f 41 1f 3e 53 a6 69 3e ea 24 8a bd 50 22 0b bf
       0.15552185 0.22817354 -0.06745322 -0.5434923
000370 ea 78 16 bf db 96 07 bf 5b 75 0d 3e 45 c9 6f bc
       -0.5877825 -0.5296456 0.13814299 -0.014635389
000380 2b aa cb 3d a5 48 b3 be 85 81 07 bf 2e d4 97 be
       0.09944566 -0.3501636 -0.52932006 -0.29654068
000390 16 59 47 3e d1 13 64 3d 5a 15 51 be 11 9d 99 3e
       0.19467577 0.05568296 -0.20418301 0.30002645
0003a0 b9 48 d5 bd 8c a2 90 be 13 ca 04 bf e4 59 cb 3c
       -0.10414261 -0.28249013 -0.5187084 0.024823137
0003b0 79 30 23 bd fd 31 e6 be 6b 68 2d bc bb 86 96 3b
       -0.03984115 -0.44960013 -0.010583977 0.004593698
0003c0 38 3e 0c be ac 37 aa 3d 64 81 c5 3e 1b e6 e2 bc
       -0.1369561 0.083114 0.3857528 -0.027697613
0003d0 dd 57 20 be ae 12 87 3f 15 9b f1 3d 15 01 a0 bd
       -0.15658517 1.0552576 0.11797158 -0.078127064
0003e0 88 1e 9f 3d e1 5e 2e bc e8 d2 ce 3d 58 08 a0 bd
       0.07769495 -0.010642738 0.10098821 -0.078140914
0003f0 af c3 e6 be 81 e3 0a be 0a 11 11 3d a9 c2 a6 be
       -0.4507117 -0.13563348 0.03541664 -0.3257039

b0 f4 [32]
000000 31 3c cb bc 0d 48 0e be 9b 37 f8 3d 2f 45 21 3d
       -0.024808975 -0.13894673 0.12119981 0.03937262
000010 05 dc 5c 3c c2 cb 8c 3d 51 99 28 bd 2b da c9 3d
       0.013480191 0.06874801 -0.04116184 0.09856065
000020 8c 4c 0e 3e 5f 2b bb 3d bd af 07 be f9 6d 9e 3d
       0.13896388 0.09139132 -0.13250633 0.07735819
000030 77 91 96 bb d7 6d ac bc 14 1f 46 3e 7c 62 0a 3e
       -0.0045949775 -0.02104847 0.19347793 0.13514131
000040 dd 0e 4e 3d 4d 5e f2 3c 9c 7d b5 bd d2 f8 8f 3d
       0.050307143 0.029585982 -0.08861849 0.070298806
000050 27 2b 35 3e 61 8e 37 3d 78 5e f6 bd 7e cc aa bd
       0.17692243 0.044813517 -0.12029737 -0.08339785
000060 35 99 ab 3d 1f dd d0 3c d1 47 ce 3c ac f9 89 bd
       0.08378831 0.025496064 0.02518073 -0.06737074
000070 5d c0 64 3d fa 71 e7 3d 3c 48 b2 bd db d3 0f 3e
       0.055847514 0.11301036 -0.08705184 0.1404566

conv1 f4 [32, 32, 3, 3]
000000 a5 54 2a be 96 92 8f bc 53 ec 52 bd 16 d7 5b be
       -0.16633852 -0.017525952 -0.051494908 -0.21468768
000010 5c 05 d3 bd f8 ee 8f bd 5a 49 80 bd 43 c3 98 bb
       -0.103037566 -0.070280015 -0.06263991 -0.004661949
000020 8e 6b 54 3d 12 05 d6 3d fe 7a 77 3d d7 b5 a3 bd
       0.051860385 0.10450186 0.06042003 -0.079936676
000030 58 d6 87 bd fe 7e 8c 3d 7f 0c bf 3c 92 f1 f2 bd
       -0.0663268 0.06860159 0.023321388 -0.11862482
000040 8b 28 71 be d6 01 a8 bd 9c 53 11 3e 95 7d 99 bc
       -0.23550622 -0.08203475 0.1419205 -0.01873664
000050 21 29 db 3d 5d a8 c6 bb 59 c7 5f 3d 69 4d e1 3d
       0.10701204 -0.006062551 0.054633472 0.11001093
000060 50 61 1b be ab a7 1c be 09 6a 66 be 51 34 8c bd
       -0.1517384 -0.15298335 -0.22501387 -0.06845916
000070 3d a2 f7 bd 33 71 00 be 02 21 87 3d 17 d8 4f 3e
       -0.12091491 -0.12543182 0.065980926 0.20297275
000080 69 b5 33 3e 2b 6a 44 bd 2c 09 d3 bd 9d 3f 21 3c
       0.17549671 -0.047952812 -0.10304484 0.009841827
000090 3e d6 9a bd 36 80 b5 bc 8e dd 32 3e 9b 7e 26 be
       -0.07560395 -0.022155862 0.17467329 -0.16259234
0000a0 a4 ca da bd 09 d8 10 3d 1f 93 32 be a1 dd 75 be
       -0.10683182 0.035362277 -0.17438935 -0.24010326
0000b0 cc 4f 87 bc a6 70 07 bd f3 9e 3a bd 14 fa e6 bd
       -0.016517542 -0.033066414 -0.045561742 -0.11278167
0000c0 1d 6c 11 3e e1 ea 47 3e ab 9a 7c 3d 8c b8 51 3e
       0.14201398 0.19523193 0.06167094 0.20480555
0000d0 b2 ff 84 bc 8b df 1a 3d a3 ad 1b 3e b7 89 c7 3b
       -0.016235206 0.037810843 0.15202956 0.006089415
0000e0 a9 6e 62 3b fc 89 e5 3d 8a 46 99 3d 18 89 24 3d
       0.0034550822 0.11207959 0.074841574 0.040169805
0000f0 34 71 9b bc 54 68 b7 bb ce 95 0d be 4c f8 bc 3d
       -0.018974878 -0.0055971537 -0.13826677 0.09227046
000100 60 75 40 3e 0f 5c 0b bb 4e 29 15 3e 85 50 41 3e
       0.18794775 -0.0021264588 0.14566538 0.18878372
000110 c2 78 02 3e 44 3e 02 3e b0 a4 a5 bd b2 32 32 be
       0.12741378 0.12719065 -0.08088052 -0.17402151
000120 b0 66 38 be 79 63 61 be 6a 9f 60 be 43 5d 02 be
       -0.18007922 -0.22010602 -0.21935812 -0.12730889
000130 8b 49 e4 3d da 30 06 bd 78 21 c1 3d 61 6d 99 3c
       0.1114684 -0.032761432 0.09430212 0.018728914
000140 d7 0f 08 3e f0 4d 46 bd 0f d8 76 be 5e 2f d8 be
       0.13287292 -0.04841417 -0.24105857 -0.42223638
000150 52 d9 b8 3b c7 d7 3a be f9 11 32 bb fb 40 da 3d
       0.005641141 -0.18246375 -0.0027171357 0.10656925
000160 42 34 2f 3d d7 a9 03 3d 9c 99 25 be 0c 8a fd bd
       0.042774446 0.032144394 -0.16171879 -0.12379846
000170 9c 45 34 be 34 29 2c 3e 86 4c 2e bd 0b 19 55 bd
       -0.17604679 0.16812593 -0.042553447 -0.052025836
000180 4c 19 40 bb 93 81 1e 3c f2 41 d1 bd 46 d0 81 3d
       -0.0029311953 0.009674448 -0.10217656 0.06338553
000190 1a 00 2a 3e ff 24 4d 3d 01 8b 5a 3d 44 2f d0 3c
       0.16601601 0.05008411 0.05335522 0.025413163
0001a0 d1 3d 5b 3d 52 d3 e4 bc 8e fa f6 bd a1 f2 1a 3c
       0.05352575 -0.027932797 -0.12059508 0.009457261
0001b0 76 9d 40 be 13 0a 8b be 44 b9 09 be 0e 4e a8 3c
       -0.18810067 -0.27156124 -0.1344958 0.020545032
0001c0 7f e1 ea 3d 30 7d d6 3d fe 81 0f be 59 91 0b be
       0.11468791 0.10473096 -0.14014432 -0.13629664
0001d0 70 5f 24 be 4b f5 21 be 60 15 c0 bc 2d 16 93 bd
       -0.16052032 -0.15816228 -0.023447692 -0.07181964
0001e0 90 1a 09 3d 80 a0 2b 3d 39 09 2d 3d 96 23 cb bd
       0.033472598 0.04190111 0.042245124 -0.09918897
0001f0 78 ad aa be 6b e2 d2 bd b9 5b 45 bd fd 7a e3 be
       -0.3333547 -0.10297092 -0.048183177 -0.4442977
000200 00 3c b6 3d d5 5b bc 3b ac 6f af be ba d0 70 bc
       0.08898163 0.005748252 -0.34264886 -0.014698202
000210 87 4b 6c be 35 66 0d be 72 01 0e be b6 a8 fb bb
       -0.23075686 -0.1380852 -0.13867739 -0.007680024
000220 39 d0 34 3d f5 eb 98 3d 26 86 f9 3c 2f ba b1 bc
       0.04414389 0.0746688 0.030459475 -0.021695225
000230 35 75 93 bd ec 2e 27 be 45 ea 72 be bd b7 01 be
       -0.0720009 -0.16326493 -0.23722179 -0.12667747
000240 23 ad 3c be 0d cd cb bc 68 e7 04 bd 35 51 58 bd
       -0.18425421 -0.02487805 -0.03244725 -0.05281182
000250 8b 49 e4 3d 7a ff 3b 3d 78 32 04 be 29 0c 70 be
       0.1114684 0.04589794 -0.12909877 -0.23442139
000260 8a b3 aa bd 39 ae d2 3d 95 25 e4 3d 25 76 f2 3d
       -0.083350256 0.102871366 0.11139981 0.118389405
000270 de 43 43 3d 69 5b 27 be 0a e9 41 3e fb af 9a bd
       0.047672145 -0.16343464 0.18936554 -0.07553097
000280 02 92 2e be bb 45 15 be 1c 0f 45 3c 03 70 a8 3c
       -0.17047885 -0.14577381 0.012027528 0.020561224
000290 e1 be 4e bd 87 91 05 3e 1c 9d 49 3e 56 19 66 3e
       -0.050475005 0.13043796 0.19688839 0.22470602
0002a0 f2 9f 14 3d 7b eb bb bd ff 7c af 3d a9 a7 ff 3d
       0.03628535 -0.09175774 0.08568763 0.124831505
0002b0 1b 6b b7 bd fb 5a 04 be 46 b3 95 3e 50 af 94 bd
       -0.089559756 -0.12925331 0.29238337 -0.07260001
0002c0 f7 2d 13 be 72 50 06 3e df 1f ef 3d bd 03 9a bc
       -0.14373003 0.13116625 0.11676001 -0.01880061
0002d0 fa 33 73 3d 55 0f 86 be 28 10 5f bd d5 35 c7 3d
       0.05937574 -0.26183572 -0.054458767 0.097270645
0002e0 f5 92 f5 3d 98 c3 f7 bb d3 50 b7 bd 2c 45 ce bd
       0.119909205 -0.0075611584 -0.08950963 -0.10071787
0002f0 7f db 93 bd b1 a2 13 bd 27 19 95 bd 87 44 31 bd
       -0.072196 -0.036043826 -0.07280188 -0.043278243
000300 1b 6b e6 3d 31 dc 3d 3e a2 c5 45 3e a7 3e 48 3e
       0.112508975 0.18541028 0.19313672 0.1955515
000310 83 d1 c9 bc 8a 17 0d bd 49 e5 c9 3d 4f d0 8e 3d
       -0.024636036 -0.034446277 0.09858186 0.069733255
000320 37 f8 65 bc 4c 71 28 3e fa 42 91 3e 42 f7 15 3e
       -0.01403623 0.1644947 0.28371412 0.14645103
000330 82 d3 16 3e 4e 17 a5 bd 5e 8f 13 be 2e ba f6 bc
       0.14729121 -0.08061086 -0.14410159 -0.030118074
000340 0d 64 18 bd fc 69 04 bd 7f 10 31 3d c9 8f aa bd
       -0.03720479 -0.032327637 0.043228623 -0.08328206
000350 46 e9 f0 bd f9 f2 00 be a1 09 d2 bc 1a b5 81 bd
       -0.117632434 -0.12592687 -0.025639357 -0.063333705
000360 6e 04 62 bd 66 55 c5 bd a7 2f 33 be bc a7 28 3e
       -0.055180006 -0.09635429 -0.17498647 0.16470236
000370 00 0f 5d 3e 79 aa 97 3c 7e 48 cf 3c 00 f9 c4 bd
       0.21587753 0.018513905 0.025303122 -0.096178055
000380 69 c8 07 be 9b 42 69 3d fb 3c f4 3d 67 e9 de bd
       -0.13260044 0.056948286 0.119256936 -0.10884362
000390 e9 cd 28 3e 64 97 f8 3d 87 9c af 3d 60 9c 0c bd
       0.16484798 0.121382505 0.08574777 -0.03432882
0003a0 78 cb 86 3c 56 ab 80 be da 13 a5 3c 0f ab 1e be
       0.016454443 -0.2513072 0.020151068 -0.15494941
0003b0 31 90 1c 3d 50 a1 10 3e 68 49 98 bb 97 92 a8 bd
       0.03822345 0.14124036 -0.0046474226 -0.08231085
0003c0 eb 19 ff bd 23 b3 08 be 56 6b 57 bd 5b b2 2f 3d
       -0.12456115 -0.13349585 -0.052592598 0.042894702
0003d0 9f e6 ae 3d 9d 19 fb 3d 20 0e 5d 3d 48 c6 09 be
       0.08540081 0.12260745 0.05396855 -0.13454545
0003e0 53 92 f8 3c 14 a4 cf bc 6f 46 b3 be 8b 4b fc bb
       0.03034321 -0.025346793 -0.35014674 -0.007699435
0003f0 a0 63 40 3d 6b 34 2d be f8 97 0f 3e 6d 5b 7f 3e
       0.04697001 -0.16914527 0.14022815 0.2493722

b1 f4 [32]
000000 af b5 b2 3d b7 23 c8 3d 5b 90 0c 3e 73 d1 d0 bc
       0.0872606 0.09772437 0.13726942 -0.025490498
000010 3e b7 8a 3d 47 56 a4 bc 6f 88 2a 3d c5 83 cf 3d
       0.06773232 -0.020060671 0.04163402 0.10132555
000020 a7 81 ba bd 25 ac 03 3e 1c 06 b3 3c 3f a3 4e bd
       -0.091067605 0.12858637 0.0218535 -0.050448652
000030 55 60 8b bd be 6c 6c bd d8 41 61 be 0f b7 b4 bd
       -0.06805483 -0.057720892 -0.21997774 -0.08823978
000040 11 71 eb 3e e3 22 26 3d 9f ba 72 3e 4f 51 bb 3c
       0.459847 0.040560614 0.23704003 0.02286592
000050 06 38 28 3d 6f 8f 7d 3d 3a 83 bd 3d 42 08 0f 3d
       0.041069053 0.061904367 0.09253545 0.034919985
000060 d3 8e b8 3c 45 f2 f3 bc 15 39 1c bd cd de ca bd
       0.022529041 -0.029778609 -0.038140375 -0.09905777
000070 ab 05 5a 3d df 0c 34 bb 13 07 14 3e a1 2f b0 3d
       0.05322806 -0.0027473492 0.14455824 0.086028345

conv2 f4 [32, 32, 3, 3]
000000 27 c5 2a 3d d9 5f 06 3e 01 f8 56 3d 9e 7e 0a bd
       0.041691925 0.131225 0.05248261 -0.033812158
000010 96 30 6f bd 33 90 4b 3d 82 49 88 be 50 e5 c8 3c
       -0.058395945 0.049698066 -0.26618582 0.024523407
000020 e0 1a 4b bd 9b 80 a1 bd ac 61 55 be 86 85 03 be
       -0.049586177 -0.07885858 -0.2083804 -0.12843904
000030 e5 9b 49 3c 28 0a bb bc d8 51 89 3c f1 da b4 3d
       0.012305235 -0.022831991 0.016762659 0.08830822
000040 50 4a 0c 3e 98 1e a6 3d e0 eb 5d 3e 57 e6 5f 3e
       0.13700223 0.08111304 0.2167201 0.21865211
000050 a4 b9 d3 3d 0e 39 c2 3c 75 2e e4 3d 83 00 44 3d
       0.103381425 0.023708846 0.111416735 0.04785205
000060 75 73 97 3c aa 91 f9 3d 4d 20 ba bc a3 ff 09 3e
       0.018487671 0.12185986 -0.02272048 0.13476424
000070 e8 55 50 3e 39 ca 2e 3d 3c f1 2c 3b 57 57 86 3c
       0.2034527 0.042673323 0.0026388904 0.016399069
000080 f5 2b 43 3a f1 cf a8 bd c9 93 25 3e eb 8c 18 3d
       0.000744521 -0.08242787 0.16169657 0.037243765
000090 e0 88 c5 bd 8c 3c 1c bd 57 78 ae bd 3f b5 dd bc
       -0.096452475 -0.03814368 -0.08519047 -0.027063964
0000a0 0f 28 11 3c 5b 53 3b 3d 9a 27 d5 3d d5 56 98 3c
       0.008859648 0.04573379 0.10407944 0.018596092
0000b0 ba 46 ff 3d 5b 4d 40 3d c9 56 c8 3c f0 9f 18 3e
       0.12464662 0.046948772 0.024455445 0.14904761
0000c0 4a 72 e5 3c b0 02 43 3d 18 e5 ec 3d 42 a5 3e bd
       0.028008599 0.047609985 0.11567134 -0.04654432
0000d0 f3 3d c4 bd 77 76 8d bd 3a 9e c0 3d 5f b1 75 bb
       -0.095821284 -0.06907361 0.09405179 -0.0037489755
0000e0 ba b2 95 bd c8 9f 0c 3e 8e 55 13 3d a1 9a af bc
       -0.0730948 0.13732827 0.035970263 -0.021436037
0000f0 aa 6c f1 3d 99 b2 95 bd ff 86 5b 3c b3 aa a2 3d
       0.11788304 -0.073094554 0.013398885 0.079427145
000100 92 3d fb 3c 61 be 43 3d 20 d9 12 bc ce f4 c9 bc
       0.030669007 0.04778898 -0.008962899 -0.024652865
000110 85 ce c0 3d 18 fb bd bd 95 48 bd bd b4 54 59 bd
       0.094143905 -0.09276408 -0.092423595 -0.053059295
000120 49 e8 0c bd 27 83 e7 bd 06 a7 10 3c 1f 5e c7 3d
       -0.034401212 -0.11304312 0.008828884 0.09734749
000130 10 c8 14 3c 4c 4a 3a 3c ff 60 0f 3c 97 ab 4b 3d
       0.009080902 0.011370253 0.008751153 0.049724188
000140 1d 9e c8 bd f7 c6 8a 3b b3 fb 67 bd 08 a8 4b be
       -0.09795783 0.0042351442 -0.056636523 -0.19888318
000150 7c 46 3d 3d 6f af b5 bd e9 1a d7 ba 76 b1 11 3e
       0.046209797 -0.08871352 -0.0016411218 0.14227852
000160 74 42 04 bc 5c f3 83 bd 50 fa 96 be 74 a4 27 be
       -0.008072484 -0.064429015 -0.29487848 -0.16371328
000170 6d 04 39 be 5a e4 d9 bd a4 fb 13 bd 9b 05 a8 bd
       -0.18068095 -0.10639258 -0.036128655 -0.08204194
000180 e0 cd 0b 3d 02 d9 21 bd bf 89 3e bd 58 e0 66 bd
       0.034131885 -0.039513595 -0.046518084 -0.056366295
000190 25 4e 3a 3c ee e0 47 3d 91 f5 7f 3c e2 3e 83 3d
       0.01137117 0.048798494 0.015622512 0.06408478
0001a0 45 68 ea 3d 0d 01 0e 3e b8 db 49 3e 23 5c 61 3e
       0.11445669 0.13867588 0.19712722 0.22007804
0001b0 77 a1 44 be ac b5 8b bd 71 6d c8 3d e9 a4 e6 3d
       -0.19202219 -0.068217605 0.09786499 0.11261923
0001c0 66 7d cc 3c 18 98 f0 3d 3c 67 52 3e e3 8e 89 3d
       0.024962138 0.117477596 0.20547193 0.067167066
0001d0 8f ee 5c 3e 5a a8 a3 bc 5e 1c 33 3d e3 76 68 3c
       0.21575378 -0.019977737 0.043728225 0.014188501
0001e0 eb 17 90 3d 67 d6 11 3d e8 c7 36 bc 36 00 6f bb
       0.07035812 0.03560486 -0.01115606 -0.0036468632
0001f0 9a 83 05 be 3f 23 8e bd d8 a5 11 bd e9 59 6e 3d
       -0.13038483 -0.069403164 -0.03555855 0.058191214
000200 38 2c ad 3b 81 76 7a bd c4 b0 11 3d fb 6e 3d 3d
       0.0052848123 -0.06114817 0.035568967 0.046248417
000210 59 ef ce bd 2a 81 94 3d fb 1f 15 3d e3 0b 2b be
       -0.10104246 0.072511986 0.036407452 -0.16703753
000220 4b 0c 06 bd 3f 05 09 be 13 bc d8 bd d3 66 f9 bd
       -0.032726567 -0.13380907 -0.10582747 -0.12177815
000230 c2 c3 97 bd 31 4b 33 be 61 8c 70 3d e8 36 1d 3d
       -0.07410385 -0.17509152 0.058727626 0.03838244
000240 62 61 a8 bd 87 2a 47 3d 24 45 9b 3d 1c 75 e0 bd
       -0.08221699 0.04862454 0.07581547 -0.10959837
000250 f0 e0 86 bd 47 9c d9 bd ee 50 01 be dc 51 63 3d
       -0.06585872 -0.10625511 -0.12628528 0.05549799
000260 8b f1 ef bd ab 0b e2 3d 59 0d af 3d 1a f2 c0 bd
       -0.117159925 0.11037382 0.08547468 -0.09421177
000270 36 a3 78 3d 96 9f 2a bd af bd 85 bd 11 1c b8 3c
       0.060702525 -0.0416561 -0.0653032 0.02247432
000280 b4 13 04 bd 4d f1 df bd 5b 48 af bd 5e bb 7b bd
       -0.032245353 -0.10934696 -0.085587226 -0.061457984
000290 d2 14 35 3d 53 80 bd bd 57 cf dd bc ba 00 8d 3d
       0.04420931 -0.092529915 -0.027076406 0.06884904
0002a0 11 99 0d 3d 68 e9 1b bd ef 8d e8 3d 70 66 11 be
       0.034569804 -0.03806439 0.11355197 -0.14199233
0002b0 a2 78 c9 3b 6d d1 5e be 55 af 13 3c 6d c3 a7 3c
       0.0061484138 -0.21759577 0.00901397 0.020478928
0002c0 07 bc 2b bd 18 69 10 3d 57 d3 b9 3d 8e e2 ae b9
       -0.041927364 0.035256475 0.09073513 -0.00033356663
0002d0 bf f7 d4 3d f3 47 08 3e 4c f4 d4 bc d8 a6 c0 3d
       0.10398816 0.13308696 -0.025995396 0.09406823
0002e0 00 21 90 bd 2c ad 83 be dc 36 be bd 03 97 20 bd
       -0.07037544 -0.25718057 -0.09287807 -0.039206516
0002f0 30 9c 5a be 38 69 bb 39 df 34 b0 bd ac 16 ac bc
       -0.21348643 0.00035745814 -0.08603834 -0.021006905
000300 ee a9 56 3e 97 bd 21 3e 53 90 5e 3e 7e d7 d0 3d
       0.2096326 0.15794979 0.21734743 0.10197352
000310 c6 4d 87 3d 15 85 ff 3d e7 75 fe 3a be 93 3c bd
       0.06606631 0.12476555 0.00194138 -0.046039335
000320 15 5f d8 bd c7 39 c1 3d 2f 2d f7 bd c3 79 51 be
       -0.105650105 0.09434848 -0.12069165 -0.20456605
000330 ba 57 53 3d b3 e2 8b bd 2f e2 34 be d3 da 85 3c
       0.051597334 -0.06830349 -0.17664407 0.016339695
000340 64 61 17 bc 92 aa 39 3d 13 10 ae bd a2 d9 ac bd
       -0.009239528 0.045328684 -0.0849916 -0.08439948
000350 6b 71 9a 3d c8 83 1c 3e 67 9a 90 3d 37 0d a5 bd
       0.07541164 0.15284646 0.070607 -0.08059161
000360 be 7f dc bd 56 f7 83 bd 75 92 78 be 56 87 15 3d
       -0.107665524 -0.0644366 -0.24274619 0.03650602
000370 bd ff 82 bd 1f ea 90 bd eb 8a 1f be 92 c2 68 be
       -0.063964345 -0.07075905 -0.15580337 -0.22730473
000380 d9 aa 2f be 0b 65 47 3d 18 73 69 3d 7f 64 74 bd
       -0.17155017 0.048680346 0.056994528 -0.059666153
000390 3d b9 be 3d 37 3c 9b 3c e3 ce 7f bd 6d 98 bb 3d
       0.09312675 0.018949611 -0.062453162 0.09159932
0003a0 e0 77 62 bd 46 be 25 3d da dd d0 3d 7d e3 0f 3d
       -0.055290103 0.040464662 0.10198565 0.03512906
0003b0 f5 ba 5c 3e 2a a8 27 3e 29 2c 41 bc f9 fa ff 3d
       0.21555693 0.16372743 -0.011790314 0.12499041
0003c0 5d d9 40 3e f0 15 82 3d 0a f2 97 3e 7f b9 c0 bd
       0.18832918 0.063518405 0.2967685 -0.094103806
0003d0 76 a0 76 be e4 cc 8e bd 08 ab 6b 3d 76 bf 2f bd
       -0.24084648 -0.069726735 0.057536155 -0.0429072
0003e0 a6 b9 70 3c 9d cb d7 3d 5e f5 9f bd 93 45 01 3e
       0.0146927 0.10536883 -0.07810472 0.12624197
0003f0 07 e8 3d bd 84 a1 80 bd 04 82 f9 bd c4 18 9a 3d
       -0.046363857 -0.06280807 -0.12183002 0.07524255

b2 f4 [32]
000000 86 97 81 bc 19 14 96 3c 26 ef ac 3c 01 b8 ba be
       -0.015819322 0.01832013 0.021110129 -0.3646851
000010 7b 3e ed bd 91 bd 05 bd d9 8a 80 3e 28 33 a5 bd
       -0.11584183 -0.032651488 0.25105932 -0.08066398
000020 a4 35 6b 3d 1e 71 96 be 88 7d c5 bb 84 21 ae bd
       0.057424203 -0.29383177 -0.0060269274 -0.08502486
000030 8d f9 c5 bb 1f 97 a8 bd c7 48 3d 3d b1 7c 10 be
       -0.0060417117 -0.08231949 0.046211984 -0.14110066
000040 d0 8e c9 3c 1d 4f 87 3e ca 02 c2 be 8f 2e 77 be
       0.024604231 0.26427546 -0.37892753 -0.24138854
000050 3a a4 f6 bd 52 9a f3 3d 67 25 34 bd ef 55 df 3c
       -0.120430425 0.11894669 -0.043980982 0.027262656
000060 b5 80 7c bd 4d 75 86 3d 09 3f 30 3b b4 27 a7 3c
       -0.061646182 0.06565342 0.002689304 0.020404674
000070 73 56 3c bd cf e6 81 bd 07 53 cd bc 63 fd 8b bc
       -0.045980882 -0.06342851 -0.025064005 -0.017088598

conv3 f4 [32, 32, 3, 3]
000000 91 ef 51 3d 8a eb 92 3b a8 0b 21 bd d0 3c 5e 3d
       0.05125386 0.004483645 -0.039317757 0.054257214
000010 c2 7b 85 bd f4 fc 13 bd 22 9f 8e bc b9 16 40 3a
       -0.065177456 -0.036129907 -0.017409865 0.00073276047
000020 1b 78 f8 bb b5 3d a9 3d 73 54 91 3c f9 ab 41 bd
       -0.007582677 0.08263723 0.017740464 -0.047283147
000030 75 fc e0 3d 88 90 95 3d ca c2 29 3c 43 21 40 3e
       0.10985652 0.07302958 0.010361383 0.18762688
000040 ee 90 ab 3d 77 f5 1d 3d 47 1d e6 3c d9 f2 a2 bc
       0.083772525 0.03856417 0.028090132 -0.01989119
000050 04 94 ae 3d 17 e5 af 3d 0c 06 8a 3d 3a 54 71 3d
       0.085243255 0.08588617 0.067394346 0.058918215
000060 af 7d d4 3d ff 6b db 3d 9d 18 2c 3d cd a4 04 3e
       0.10375535 0.10713958 0.04201566 0.12953492
000070 c3 5d 30 3d 83 11 e6 3d a0 e5 39 3d 50 33 dd bc
       0.04305817 0.11233809 0.045385003 -0.027002007
000080 a9 07 e3 bb f0 d6 b1 3c c3 ed c1 3d 61 73 7a 3d
       -0.0069284034 0.021708935 0.094691776 0.06114519
000090 55 4a a0 bb 5e 8e f0 bd fd d3 9b bd 27 c6 bf bd
       -0.0048916736 -0.117459044 -0.07608793 -0.093639664
0000a0 3b a3 bd bd 19 06 f6 3b 40 15 bb 3c 93 7c 5e bd
       -0.09259649 0.007508051 0.022837281 -0.054318022
0000b0 6e 77 10 bc 2e 95 64 bd 96 cc 55 bc 4c b3 eb bb
       -0.008817537 -0.05580633 -0.013049265 -0.0071930047
0000c0 59 b3 93 bd d6 14 ce 3a 74 c8 ad bd be 0a 0b bd
       -0.07211942 0.0015722762 -0.08485499 -0.03394579
0000d0 db 87 3f bd a8 f6 6e bd 30 e9 5e 3e 93 59 0c 3e
       -0.04676042 -0.0583407 0.21768641 0.13706045
0000e0 fe 8d 3e 3e 2c df ad 3c e6 78 5f bd 55 93 9f 3d
       0.18608853 0.02122458 -0.054558657 0.07791773
0000f0 1f 6c 64 3e b8 38 1d 3e 8f ac 2a 3e 05 9e 08 bd
       0.2230687 0.15353668 0.16667388 -0.033353824
000100 07 71 b7 3b 1c e3 2f 3d 91 34 8c bc d5 73 07 bd
       0.0055981907 0.042941198 -0.01711491 -0.03306945
000110 e9 d6 a0 bc 7b 89 ad 3d db 12 34 3d 84 66 9b 3c
       -0.019633727 0.08473488 0.043963294 0.018969782
000120 1d 28 b1 3d b7 25 9d 3d e7 be 81 3d 7a f0 39 3d
       0.08650229 0.07673209 0.0633524 0.045395352
000130 ca 9d 47 3d ee c7 f8 3d f6 17 0c 3e 25 d6 56 3d
       0.048734464 0.121475086 0.13681015 0.052450318
000140 e4 8b c1 3d 39 45 d4 3e a4 06 f5 3d 58 f8 be 3e
       0.0945051 0.41459063 0.11964157 0.37298846
000150 21 f8 2f 3e 15 4e e9 3c 8e ba d0 3d 00 51 9c 3e
       0.17184497 0.028479615 0.101918325 0.30530548
000160 2d 39 6c 3e cb b0 b2 3e 08 f3 7b bd e3 d2 8b bc
       0.23068686 0.34900507 -0.06151107 -0.017068332
000170 ba 22 8b bd b3 e9 53 3d f8 34 8a 3d af f8 a1 bc
       -0.06793733 0.051736545 0.06748384 -0.019771902
000180 ab f6 bf 3b b1 e8 c5 3d 6c ad 57 bd 44 d7 db bd
       0.0058582625 0.09663523 -0.052655622 -0.10734418
000190 d7 36 c2 bc 3d a0 2e bd 9b 35 93 bc d8 77 3c bb
       -0.02370779 -0.042633284 -0.017969897 -0.0028757956
0001a0 2f 3f cd 3c ec f0 16 be 3d ba 84 bb dd e6 aa bd
       0.025054542 -0.14740342 -0.0040505216 -0.08344815
0001b0 c7 ad 52 bd 8a 60 ed 3c 18 7f 6f 3c e4 30 05 be
       -0.05143526 0.028976697 0.014617704 -0.13006932
0001c0 93 5f 43 bd 4c c4 8c 3d 0e cb c5 bd 99 5a 9b bb
       -0.04769857 0.06873378 -0.0965787 -0.0047410247
0001d0 4c 8a 20 3d 8e ca 3c 3d af 92 b4 3d ea 3d bf 3d
       0.03919439 0.04609161 0.0881704 0.09337981
0001e0 28 cd ae 3c 42 ad b6 3d 87 49 aa 3c d7 e6 c9 bc
       0.02133806 0.08919765 0.020787014 -0.024646206
0001f0 8e a3 76 3d 94 95 34 3d c6 c4 94 3d 2f 78 d7 3d
       0.06021457 0.04408796 0.07264094 0.1052097
000200 4d 4c 72 3e 95 2b 14 bc d2 26 1a 3d 4e d0 ea 3d
       0.23661919 -0.009043594 0.03763468 0.11465512
000210 db b1 26 3d 21 a2 39 3d e0 90 16 3e d3 d7 81 3d
       0.04069696 0.045320634 0.14703703 0.06339993
000220 df ed 3e 3d 85 db 03 3d 5a be 7a 3d e4 43 ef bb
       0.04661357 0.032191772 0.06121669 -0.0073017944
000230 a6 42 a7 3c 00 6f 00 3e 1f 39 f1 3c 2e 17 57 bc
       0.020417523 0.12542343 0.029446183 -0.013128085
000240 07 1e 85 bc cc 32 62 be df cd eb bd bd 0d a0 bd
       -0.01624967 -0.2208969 -0.11513876 -0.0781512
000250 45 1e 0a be dd 90 d3 bd e5 81 3e 3d dd 84 39 bd
       -0.1348811 -0.10330365 0.046510596 -0.045292724
000260 48 0b 42 bc a8 7b 11 be c1 84 67 bc 42 a7 06 be
       -0.01184351 -0.14207327 -0.014130772 -0.13149741
000270 15 b0 8b bc 32 ca c6 3c 5e 68 56 bd 4c d1 4f be
       -0.017051736 0.024266336 -0.052345626 -0.20294684
000280 11 2a 13 bd df ca 16 be 07 3c cc be b6 3b 4a be
       -0.03592879 -0.14725827 -0.39889547 -0.1974934
000290 b8 06 d0 be c2 11 75 be 54 d9 93 bd 2b 04 86 be
       -0.40630126 -0.23932555 -0.072191864 -0.26175055
0002a0 5c 78 d4 be 4c b0 58 be ab 7b b7 be 0f 69 80 3e
       -0.41498077 -0.21161002 -0.3583654 0.25080153
0002b0 b5 80 10 3e e5 4a 82 3e 0b d2 35 3e 2d 31 e7 3c
       0.14111598 0.25447765 0.17755906 0.028221691
0002c0 c2 29 43 3e dc 6d 82 3e 9a 77 0a 3e 14 ee 9c 3e
       0.19058898 0.2547444 0.13522187 0.3065039
0002d0 7e b7 82 3c 9b c5 44 3d 05 5c e3 bd 97 21 71 3d
       0.015956637 0.048040014 -0.11101536 0.058869924
0002e0 62 43 0f bc 58 55 d0 bc 7c cf ab 3d 15 e3 25 3d
       -0.008744093 -0.02543132 0.08389184 0.040499765
0002f0 7e d1 c8 bc ba 37 f5 3d 93 eb f8 3d ce 6a 05 3e
       -0.024513956 0.119735196 0.12154307 0.13029024
000300 fb 98 19 3e 44 7a d5 3d 63 e6 f5 3d 1a dc fb 3d
       0.14999764 0.10423711 0.120068334 0.122978404
000310 54 67 e9 3d 2d 45 9f 3d d9 e8 c4 bd 71 be b8 bd
       0.113966614 0.07776866 -0.09614725 -0.09020699
000320 64 ea 42 bd d5 83 4b bd 46 1c 07 bd 2d 5e f9 bd
       -0.047586814 -0.04968627 -0.032985948 -0.12176166
000330 8f 0f 19 be 35 e3 12 be ad 3f db bd 62 94 68 3d
       -0.14947341 -0.14344485 -0.107055046 0.056782134
000340 b2 84 fe 3c 38 fc af 3d 31 bd d3 3c a2 8a f6 bc
       0.031069133 0.08593029 0.02584705 -0.030095402
000350 aa ea 3f 3d 07 0c de 3d 6b a8 7c 3d e2 59 0f 3d
       0.046854652 0.10842138 0.061684053 0.03499783
000360 76 b1 5d 3d 4d db 35 bd 3b ea 34 3c 13 3a 51 bd
       0.054124318 -0.044398595 0.011042173 -0.051080775
000370 2e 9e e9 ba 92 b0 c0 3a f6 9f 5f 3d 0d 87 22 3d
       -0.001782363 0.001470106 0.05459591 0.039679576
000380 03 95 5f 3d 0b 79 b5 bd be 75 21 bd 81 b8 c0 bd
       0.054585468 -0.08860978 -0.03941893 -0.09410191
000390 2e ae 13 bd a8 b6 8b bd e3 77 91 bc 3c 07 fe bd
       -0.036054783 -0.06821948 -0.017757362 -0.124037236
0003a0 e3 2c f5 bd e9 ee 0b be 2f e7 67 bd 07 09 2a bd
       -0.11971452 -0.13665356 -0.05661696 -0.041512515
0003b0 ec 3e e0 3d 24 ea 07 bb 4e eb 5a bc 6c 80 66 3c
       0.109495014 -0.0020738924 -0.013361765 0.014068704
0003c0 e1 49 ab bd ad a5 b0 bc 08 91 7c bd d9 2e 13 be
       -0.08363701 -0.021563375 -0.06166175 -0.1437334
0003d0 b2 73 0d be f7 de 45 be 17 52 ed bd b5 89 c1 3d
       -0.13813666 -0.19323336 -0.11587923 0.09450094
0003e0 f5 6b 02 be 77 86 4e be 94 e1 e9 bd 05 70 1b be
       -0.12736495 -0.20168482 -0.11419979 -0.15179451
0003f0 83 71 4b 3d 45 0d f6 3d a6 3d 08 bd 15 0e d9 3d
       0.0496688 0.1201425 -0.033261918 0.10598389

b3 f4 [32]
000000 02 cf bc 3e 5b 5c c8 3e 03 50 20 3f bb f1 a4 3f
       0.36876684 0.39132962 0.6262209 1.288627
000010 fb 89 e6 3e 5e 76 f4 3e 2f 1f a4 3e 30 fc 20 3f
       0.45027146 0.47746557 0.3205504 0.6288481
000020 91 7f 0b 3f c0 de 79 3f 7d 8a 4f 3f a2 91 0a 3f
       0.54491526 0.97605515 0.8107069 0.5412847
000030 c1 e3 ae 3e cc d5 01 3f a8 73 83 3f eb 27 00 3f
       0.34158137 0.50716853 1.026967 0.5006091
000040 49 69 32 3f 8c 58 1a 3f 0c dd 90 3e d0 6d 66 3f
       0.696919 0.6029136 0.28293645 0.9001131
000050 fc c2 e9 3e 79 da 09 3f e4 f5 dd 3e 2b 3d 4c 3f
       0.45656574 0.5384899 0.43351662 0.79780835
000060 56 32 29 3f de 2b 50 3f e2 65 5e 3e 48 54 9e 3f
       0.6609243 0.81316936 0.21718553 1.2369471
000070 26 67 28 3f ad 7e 54 3f 6f 9c 48 3f 13 c0 43 3f
       0.6578239 0.8300579 0.783637 0.76464957

w4 f4 [5, 32]
000000 28 6a 2e 40 fc bb 19 c0 91 f4 3c 3f 36 6e dd bf
       2.7252293 -2.4020987 0.7381068 -1.7299259
000010 92 41 0f c0 c8 34 9e bf 61 17 2e c0 9f a5 14 bf
       -2.238377 -1.2359858 -2.720177 -0.5806522
000020 35 93 29 c0 26 89 d5 bf e1 77 89 bf a0 d9 1e c0
       -2.6496098 -1.6682479 -1.0739709 -2.4820328
000030 35 ac 3e 40 dd cd 06 c0 80 51 36 bf 5d 98 0f 3f
       2.9792607 -2.106315 -0.7121811 0.5609186
000040 3d 9f 4d 40 53 ab cd be 1d 89 17 40 fa d5 ed bf
       3.2128441 -0.40169773 2.3677437 -1.8580925
000050 00 31 3f 40 49 3d 86 bf 65 4a 43 bf 60 0d f9 bf
       2.9873657 -1.0487453 -0.7628539 -1.9457207
000060 e0 e5 5c 40 25 81 4e bd 38 5d bf 3f fc fd 56 40
       3.4515305 -0.05041613 1.4950323 3.359252
000070 1b 3f 3d c0 91 17 d2 bf 09 01 f0 bf 74 38 16 3e
       -2.9569767 -1.6413442 -1.8750316 0.14669973
000080 39 ab fb 3e a6 86 1d c0 4e 8a bf bf 6a c5 6c 40
       0.4915407 -2.4613433 -1.4964082 3.6995492
000090 ae d9 b7 3f 47 77 28 c0 7d 6e 5e 3e 6a 5e 5b 40
       1.4363306 -2.63228 0.21721835 3.4276376
0000a0 a5 6c 3b bf 67 c0 e8 bf d1 21 f9 bf a2 48 48 40
       -0.73212653 -1.8183717 -1.9463445 3.1294332
0000b0 c2 d5 88 3f 4f 81 1a c0 15 e1 85 bf 9c 7b fb bf
       1.0690234 -2.4141424 -1.0459315 -1.9647098
0000c0 ac 86 12 c0 1a ae 43 c0 3c 39 49 c0 98 2c 70 be
       -2.2894697 -3.0575013 -3.1441183 -0.23454511
0000d0 e0 4a e4 bf 7e 4a 02 c0 74 5c 0e 40 95 8f 68 40
       -1.783535 -2.0357966 2.224393 3.6337636
0000e0 b9 e0 00 c0 2c c5 9f be 21 b0 f2 3f c9 25 d0 bf
       -2.013716 -0.31205118 1.896 -1.6261531
0000f0 7b 25 57 3f 45 77 ec bf 22 d5 52 3e 75 15 4b 40
       0.84041566 -1.8473898 0.20589116 3.1731846
000100 3b a4 44 3f c4 a1 4f 40 e8 58 05 c0 03 e2 79 bf
       0.76813096 3.2442484 -2.0835514 -0.9761049
000110 d0 35 3f 40 2a c8 4e 40 23 57 17 40 51 69 a5 bf
       2.9876595 3.230967 2.3646934 -1.2922765
000120 9b f3 94 be c9 ab c9 bd bf bd 69 40 14 b2 91 bf
       -0.29092106 -0.098472185 3.6522062 -1.138247
000130 2c 16 d1 bf a7 96 6c 3f b3 c5 96 bf c8 07 9e bf
       -1.6334891 0.9241738 -1.1779083 -1.2346125
000140 77 2f c3 bf f3 35 0c bf 66 01 8a 3f 7e 63 b3 bf
       -1.524886 -0.5476982 1.0781677 -1.4014738
000150 6a 6d 78 bf c7 b4 fa bf ff 4e 06 c0 93 a6 d4 be
       -0.9704195 -1.9586419 -2.0985715 -0.41533336
000160 a1 27 17 bf e4 ec d4 bf 2c 1b 94 3e 8d 2f f7 bf
       -0.59044844 -1.6634793 0.2892698 -1.9311386
000170 8d 21 82 bf 6f 26 5d 40 1c e0 fd be 68 55 dc bf
       -1.0166489 3.4554708 -0.49585044 -1.7213564
000180 e5 20 3e c0 fe bb b1 3e 2d 74 4d bf 04 52 0f c0
       -2.9707577 0.3471374 -0.80255395 -2.2393808
000190 d4 a2 de bf ed af ae bd c5 a1 34 c0 85 d2 f1 bd
       -1.7393441 -0.08529649 -2.8223736 -0.118077315
0001a0 c1 da 59 40 e3 09 fd bf 48 1d 03 c0 2e 0f 38 bf
       3.4039767 -1.9768642 -2.0486622 -0.7189816
0001b0 27 57 e3 bf 35 69 4b 40 10 24 5e 40 a3 e9 54 40
       -1.7760972 3.1782963 3.470951 3.32676
0001c0 94 16 31 3f 36 42 08 3f b6 e3 1e c0 d3 81 45 40
       0.69175076 0.5322603 -2.4826484 3.0860488
0001d0 7a d6 0e c0 80 5d 47 40 f9 55 d7 3f 43 84 ed bf
       -2.2318406 3.1150818 1.6823112 -1.8555988
0001e0 1a 16 cf be 2f f0 b1 bf 3f d1 ca 3e d4 cd ca bf
       -0.4044655 -1.3901423 0.39612767 -1.5844064
0001f0 4e 4a 13 3f c1 97 0f c0 48 9f 09 c0 ac 0b 2e c0
       0.57535255 -2.2436373 -2.1503468 -2.7194624
000200 fe 26 0c c0 5e 79 5a bf 6c b0 46 40 4f c0 8b bf
       -2.18988 -0.8534144 3.104518 -1.0918063
000210 f5 b2 12 c0 45 9f ed bf 1e 79 e8 3f ff 4c 02 c0
       -2.2921727 -1.856423 1.8161962 -2.0359495
000220 0c a5 10 3f 90 1e 66 40 bd c8 03 c0 d7 66 97 be
       0.5650184 3.5956154 -2.059127 -0.29570648
000230 38 8c 8c bf d5 6a 0f c0 1c 96 f7 bf 55 96 e9 bf
       -1.0980291 -2.2408955 -1.9342685 -1.8249003
000240 de 08 b6 bf 02 49 56 40 cc 21 af 3e 3b be fe bf
       -1.4221456 3.348206 0.34205472 -1.9901804
000250 31 c6 a0 3f 19 02 99 3f 56 bb d8 bf 2f 1f fd bf
       1.2560483 1.1953765 -1.693217 -1.9775141
000260 f6 8d 0c c0 4d cf 50 40 c4 2c 8d c0 d0 3c 9e bf
       -2.1961646 3.2626526 -4.4117146 -1.2362309
000270 17 9a 43 40 7d 87 b1 bf 41 dd 5f 40 69 e5 2a 3f
       3.05628 -1.3869473 3.4978793 0.667563

b4 f4 [5]
000000 e7 d2 7d 3e ca 3c 6f 3d 0c 55 b6 be 94 1c 3e 3e
       0.24787484 0.058407582 -0.3561176 0.18565589
000010 22 44 29 3e
       0.16529897

exp_avg f4 [32, 1, 3, 3]
000000 41 5f 85 ba f9 d2 fc ba 28 f6 9e bb cd 80 b6 ba
       -0.0010175483 -0.0019288949 -0.0048511215 -0.0013923884
000010 42 80 10 bb 9d 4b 37 bb 0f 85 cc ba 59 3f 8c ba
       -0.0022049104 -0.0027968653 -0.0015603619 -0.0010700031
000020 a9 72 5e bb e4 d1 91 3b 2f b7 86 3b a0 02 03 3b
       -0.0033942854 0.0044500697 0.0041111927 0.0019990578
000030 54 db 8f 3b 8d 07 e5 3a 71 eb 81 b9 ea c1 eb 3a
       0.0043901596 0.0017473564 -0.00024780215 0.0017986868
000040 e0 cf a9 3a bb 20 87 ba f3 79 a4 bb 4f da 7e bb
       0.0012955628 -0.0010309437 -0.0050194203 -0.0038887446
000050 37 53 e7 ba f7 19 84 bb d3 c2 3c bb 65 da d3 ba
       -0.0017648701 -0.0040314156 -0.0028802648 -0.0016163109
000060 3a 62 3b ba 29 83 12 bb 2d 3d b8 ba 9a 1b c9 3b
       -0.0007148121 -0.002235601 -0.0014056318 0.0061373236
000070 5c 61 50 3b 7b 63 55 3b b7 76 b1 3b ed 5b ae 3b
       0.0031796312 0.0032560516 0.0054157632 0.005321017
000080 6f 23 ad 3b db 22 bf 3b 4e 5a 01 3c 4c de 54 3c
       0.005283765 0.0058330125 0.0078950655 0.012992453
000090 5a 42 c9 b8 b6 98 41 3a 4d 8f 58 bb 40 b3 7d bb
       -9.596786e-05 0.00073851214 -0.0033044398 -0.0038711578
0000a0 06 b6 11 bb b9 d1 16 bb 70 82 27 bb 29 ef cf ba
       -0.0022233739 -0.0023013188 -0.0025559925 -0.0015864122
0000b0 e0 b2 a1 ba 0d 47 16 bb a1 0e 8d 3a 7d 11 06 3a
       -0.0012336634 -0.0022930533 0.0010761806 0.00051143003
0000c0 2d 4b 86 ba 35 ed 4b 3a 3f 20 b2 3a 9a ca e8 b7
       -0.0010245793 0.0007779182 0.0013589932 -2.7750899e-05
0000d0 6c 22 1d ba b0 f2 81 ba 78 d6 06 ba 6d 20 5a ba
       -0.0005994204 -0.0009914245 -0.00051436527 -0.0008320872
0000e0 b4 0e 8b b9 35 8d a0 bb a7 82 19 bb df 65 04 bb
       -0.000265231 -0.0048996457 -0.0023423822 -0.0020202321
0000f0 c0 ab f1 bb d5 14 ce bb 64 0a ce bb 14 17 b9 ba
       -0.0073752105 -0.0062891045 -0.0062878598 -0.0014121258
000100 4e f5 52 bb 9f 5a 0b bb a4 27 34 ba ce c8 95 bb
       -0.003218967 -0.0021263731 -0.0006872362 -0.004571057
000110 44 00 f8 39 8b b9 10 3a 2c 80 6e ba 16 17 37 3b
       0.00047302444 0.0005520812 -0.00090980786 0.0027937344
000120 99 cc 51 3b bb 5d d2 39 14 33 fe 3a 85 40 5c 3b
       0.003201282 0.00040124156 0.0019393885 0.0033607793
000130 65 29 8d 3b e0 a4 65 3b 5a c3 23 39 9b 7d c6 39
       0.004307913 0.00350409 0.00015617665 0.00037859086
000140 19 28 5b ba 6a 61 f7 ba a9 fe f1 ba 34 73 30 bb
       -0.0008360162 -0.0018873636 -0.0018462735 -0.0026924135
000150 fc a6 fa 39 d8 fa 7f ba c4 40 45 bb d0 be ce b9
       0.0004780813 -0.00097648567 -0.0030098418 -0.00039433548
000160 51 3f d0 ba d3 4a b7 bb aa b6 40 bb d3 70 85 ba
       -0.001588801 -0.0055936365 -0.0029405751 -0.0010180719
000170 ad 99 a0 3a b4 ed cf bb 91 08 b6 bb df 40 c1 ba
       0.001225283 -0.006345475 -0.0055552204 -0.0014744065
000180 f1 c0 37 38 e4 a4 f9 b9 1f 9c a2 ba 6a ac f6 b9
       4.381029e-05 -0.00047615834 -0.0012406147 -0.00047049235
000190 20 c4 92 ba 7f 8c e7 ba 54 1c 0e bb 00 b9 76 bb
       -0.0011197366 -0.0017665772 -0.0021684365 -0.003764689
0001a0 01 f8 f7 ba 0e 5a 7b bb be 1c 60 ba b9 1a 16 3a
       -0.0018918515 -0.0038353237 -0.0008549205 0.0005726028
0001b0 81 ae e7 bb 6d 73 e9 bb d9 c6 3e ba 10 5e 66 b9
       -0.007070363 -0.0071243555 -0.00072775554 -0.0002196955
0001c0 b3 2b 6b bb 34 f1 99 39 87 86 3b ba bd 2a bf ba
       -0.00358842 0.00029362144 -0.000715353 -0.001458488
0001d0 d0 39 03 ba d1 e6 ea 39 76 44 8d ba 1a a0 50 b9
       -0.0005005868 0.0004480393 -0.0010777849 -0.00019896068
0001e0 17 d3 07 bb 08 67 16 bb 03 af 96 ba 9b a5 de ba
       -0.0020725185 -0.0022949595 -0.0011496249 -0.001698661
0001f0 08 53 d2 ba c3 80 f4 ba 1f 4a fb ba db 39 8f ba
       -0.0016046474 -0.0018654097 -0.001917187 -0.0010927276
000200 84 f6 04 ba 02 19 1c ba 48 cc 13 bb 12 2c 17 bb
       -0.0005072134 -0.0005954654 -0.002255218 -0.002306704
000210 cd 35 12 ba 12 98 9f ba 09 fb 1e 38 a0 b3 e1 3a
       -0.0005577475 -0.0012176058 3.790393e-05 0.001721967
000220 d6 3b da 3a 1a 7f 94 3a 4b 28 76 3b 15 38 a0 3b
       0.0016649913 0.0011329383 0.0037560638 0.004889498
000230 48 c8 b2 3b e8 1f 9e 3a 18 12 a7 3a 81 04 31 3a
       0.0054560043 0.0012063952 0.0012746481 0.00067526853
000240 4a 55 5b 3a 7b 0e 97 39 23 c4 0e ba 06 cb 2a 39
       0.0008366896 0.00028811753 -0.0005446097 0.00016288096
000250 59 e9 20 39 10 2c 8a 3a f7 2e 20 3b 4a 02 fb 3a
       0.00015345718 0.0010541696 0.0024442056 0.0019150462
000260 6d 2a 2a 3a e3 b5 5f 3a 93 b3 59 b8 4d 14 e5 3a
       0.0006491307 0.0008533878 -5.1904073e-05 0.0017477364
000270 48 3a ae 3b 07 1c 49 3b a9 8d 2c 3b 45 ac 88 3a
       0.0053170063 0.0030686872 0.0026329553 0.0010427317
000280 b5 f4 0d bb ae 17 e0 ba bb ba 0d b9 91 b9 3c 3b
       -0.002166075 -0.0017096901 -0.0001351637 0.002879713
000290 6c 2d 5c 3a 21 4f 88 b9 5c 64 2d 3b b7 c8 80 b8
       0.00083991024 -0.00025998897 0.0026457524 -6.140902e-05
0002a0 fd 8a 02 bb a3 02 8c 3a d0 02 93 b9 72 46 81 3a
       -0.001991927 0.0010681938 -0.0002804012 0.0009862913
0002b0 bb cc 1c 3b 08 43 11 3a a3 4b a9 3b 3d 7b 8c 3b
       0.002392574 0.00055412995 0.0051664873 0.004287152
0002c0 16 e6 9c 3b 30 a4 52 3b 5a 15 13 3b ea 05 9c 3b
       0.0047881706 0.003214132 0.0022443146 0.004761447
0002d0 14 1e 8a 3a 1b e0 eb 39 20 c6 50 3b 22 f5 20 3b
       0.0010537528 0.00044989664 0.0031856373 0.0024560173
0002e0 91 26 fe 3a e7 25 c6 3b fc 5a 40 3b e6 85 93 3b
       0.0019390156 0.006046999 0.0029351106 0.004502046
0002f0 43 99 fc 3b 9d 88 88 ba 57 83 5e 3a 0d 6d 33 b9
       0.0077087 -0.001041669 0.0008488199 -0.00017111395
000300 df 2a 44 3a 5a ec a5 39 61 29 0d ba 2a ae 48 3a
       0.0007483195 0.00031647348 -0.0005384889 0.0007655347
000310 c0 92 13 3a 2f 10 93 b9 17 1f 44 3a 8d a1 00 38
       0.00056294724 -0.00028050083 0.00074814394 3.0668034e-05
000320 31 bb 1a 39 eb fc 15 39 f2 0c d8 38 95 34 0b 3b
       0.00014756319 0.00014303967 0.00010302094 0.0021241058
000330 22 04 50 3a 43 6e 19 3b 56 60 f1 3a c5 5c be b9
       0.0007935186 0.0023411668 0.0018415551 -0.00036308743
000340 1f d0 8b bb ce f8 02 bc 79 de a9 39 53 9c 01 bb
       -0.0042667533 -0.00799389 0.00032399947 -0.0019777014
000350 14 74 af bb 35 f2 a6 39 3a 4a fc ba 95 94 b6 bb
       -0.0053544138 0.00031842446 -0.0019248195 -0.0055719116
000360 a6 68 56 3b 78 0f 5a 3b 4e cd 5f 3b 57 70 ac 3a
       0.0032716184 0.003327338 0.003414947 0.0013156038
000370 61 d9 e6 3a 05 18 c0 3a fb 89 ce 3b 71 7a a7 3b
       0.0017612391 0.0014655596 0.0063030696 0.0051110317
000380 94 4b a5 3b 6d f0 89 3b b6 31 39 3a e0 9b 71 3a
       0.00504441 0.004209569 0.00070645974 0.00092166476
000390 02 6e 3f 3c 7a 1f 05 3c 55 0e f7 3b be 6e 30 3c
       0.011683943 0.00812518 0.0075395503 0.0107685905
0003a0 77 73 f1 3b 94 89 c1 3b 70 c0 40 ba c5 b7 02 3b
       0.007368501 0.005906293 -0.0007352894 0.001994596
0003b0 85 44 8c 3a 25 e2 38 ba 13 58 89 3a 6d 36 18 3b
       0.0010701573 -0.0007052741 0.0010478519 0.00232258
0003c0 bb bc d1 ba 70 1e a5 39 f5 04 18 b9 15 bc eb 3a
       -0.0016001681 0.0003149393 -0.00014497696 0.001798513
0003d0 43 0c ce 3a 1d 1d ce 36 1a 58 36 3b f0 04 76 3b
       0.0015720207 6.1426676e-06 0.0027823509 0.0037539564
0003e0 55 c9 6a 3b b7 d1 45 3b 6e 86 41 3b 59 f5 6a 3b
       0.003582557 0.0030184814 0.002952959 0.0035851805
0003f0 11 bc d4 3a 8b 79 3e 3b db 8b 7f 3b 71 b9 5d 3b
       0.0016230365 0.0029064144 0.0038993272 0.0033832456
