CS330/XCS330-PS3/src/submission/logs/maml/omniglot.way_5.support_1.query_15.inner_steps_1.inner_lr_0.04.learn_inner_lrs_False.outer_lr_0.001.batch_size_16/state6400.pt (torch, 353132 bytes, 30 tensors)

conv0 f4 [32, 1, 3, 3]
0	0x3e7ab4e5	0.24483068
1	0xbeadf323	-0.3397456
2	0x3cfae31a	0.030625869
3	0x3bbffeca	0.0058592306
4	0xbd4dfe6a	-0.050291456
5	0x3cf1264e	0.02943721
6	0x3e9829d4	0.29719412
7	0x3e0e20dd	0.13879724
8	0x3d48cb01	0.049021725
9	0x3de44eba	0.111478284
10	0x3e2cd6c0	0.16878796
11	0x3e735e9c	0.2376656
12	0xbe31cf5d	-0.17364259
13	0xbe1a0d88	-0.15044224
14	0xbe80505a	-0.25061303
15	0xbe9bb1e2	-0.3040915
16	0xbcdaf6bd	-0.026728982
17	0xbd50db68	-0.050990492
18	0x3ea013e0	0.31265163
19	0x3db5f861	0.08885265
20	0x3e204bca	0.15653911
21	0xbcd11be1	-0.025525989
22	0xbc9072d5	-0.017632881
23	0xbe348c81	-0.17631723
24	0xbd645137	-0.055741515
25	0xbed73d5a	-0.42038995
26	0xbee647c0	-0.44976616
27	0x3e0df5e5	0.13863333
28	0x3c4fa6f8	0.012674086
29	0xbe78d2ed	-0.24299212
30	0x3dc5be7e	0.09655474
31	0xbee8cb41	-0.4546757
32	0xbdb12170	-0.08648956
33	0xbea91abf	-0.33028218
34	0x3cd944f0	0.02652213
35	0x3e716216	0.23572573
36	0x3b013331	0.001971435
37	0x3d28d338	0.04121706
38	0x3dbe9e1d	0.093075015
39	0x3d1ccce8	0.03828135
40	0xbe566690	-0.20937562
41	0x3d8ac74e	0.067762956
42	0x3eb102ef	0.3457255
43	0xbf177f38	-0.59178495
44	0x3e497dd3	0.19676904
45	0x3dcffa74	0.10155192
46	0x3dd41596	0.1035568
47	0xbe9ec8dc	-0.3101262
48	0xbdef20e0	-0.11676192
49	0x3e02e93f	0.12784289
50	0xbe4df07a	-0.20111266
51	0xbe9a8421	-0.3017893
52	0xbe92e43a	-0.28689748
53	0xbc9625e0	-0.018328607
54	0xbe80b6fb	-0.25139603
55	0xbeb989de	-0.36237997
56	0xbe65a3ef	-0.22425817
57	0xbe3afc1d	-0.18260236
58	0xbc5d892f	-0.013521477
59	0xbe2312b6	-0.15925106
60	0x3ebf475c	0.3735913
61	0xbd8ddc97	-0.0692684
62	0xbc07d082	-0.008289458
63	0xbda08cb0	-0.07839334
64	0xbe3e6658	-0.18593729
65	0xbd6efcdd	-0.058346618
66	0xbd9cf76a	-0.07664378
67	0xbce675bd	-0.028132314
68	0xbe0baf8f	-0.13641189
69	0xbe422352	-0.18958786
70	0x3ebceee0	0.36900997
71	0xbe78a645	-0.24282177
72	0xbc702774	-0.014657844
73	0xbee61018	-0.44934154
74	0xbe726a34	-0.23673326
75	0x3ea2ba80	0.31782913
76	0x3da8551e	0.0821936
77	0xbdbb7e08	-0.09154898
78	0xbe6bece5	-0.23039587
79	0x3d565d1f	0.0523349
80	0x3dfdfaf5	0.12401382
81	0xbe2ee2ce	-0.17078707
82	0xbe976509	-0.2956927
83	0xbe60f0ac	-0.21966809
84	0xbe463f39	-0.19360055
85	0xbe14fb88	-0.14549077
86	0x3ceec201	0.029145243
87	0x3e8758b5	0.26434866
88	0x3e15b41b	0.14619486
89	0x3e7f3428	0.2492224
90	0xbdeccedc	-0.11562893
91	0xbd9ff5e1	-0.078105696
92	0xbeb66210	-0.3562169
93	0x3da5b496	0.08091085
94	0x3c01d8c0	0.007925212
95	0x3eb60de2	0.35557467
96	0xbd394e54	-0.045240715
97	0xbbfbd57c	-0.0076853614
98	0xbee1477d	-0.43999854
99	0xbe7a4b4d	-0.24442787
100	0x3e0bfe3d	0.13671203
101	0x3cadde5c	0.021224193
102	0xbe94167f	-0.28923413
103	0x3ced74ad	0.0289863
104	0x3e3f9dfd	0.18712611
105	0x3df39170	0.118929744
106	0xbec53ecd	-0.38524476
107	0xbe88de69	-0.26732185
108	0x3e2e9d77	0.17052256
109	0xbe057875	-0.13034232
110	0xbebde378	-0.37087607
111	0xbdc053b5	-0.09390966
112	0x3d1f8c21	0.038951997
113	0xbcbeaa6b	-0.023274621
114	0xbef80c84	-0.4844705
115	0x3d0e20dc	0.034699306
116	0x3e9baa0d	0.30403176
117	0xbef51ca2	-0.47873408
118	0x3e40d4c2	0.1883116
119	0x3e44bcf3	0.19212703
120	0xbcf15d65	-0.02946348
121	0x3db29d45	0.08721403
122	0x3d933052	0.07186951
123	0xbcdfd8e7	-0.027325107
124	0x3c87b5ab	0.016566118
125	0xbec7f5ae	-0.39054626
126	0x3c3e540b	0.011616717
127	0xbc5944f5	-0.01326107
128	0xbdeff674	-0.11716929
129	0xbbd75cb7	-0.006572332
130	0xbce85f2a	-0.02836569
131	0x3de11f06	0.109922454
132	0xbeb2b86d	-0.3490633
133	0xbee9739b	-0.45596012
134	0x3eba8eab	0.36436972
135	0x3e22f24e	0.15912744
136	0x3d779871	0.060448114
137	0xbd2c58da	-0.042076923
138	0x3ddc9c36	0.10771982
139	0x3da4d23a	0.0804791
140	0x3be10455	0.0068669715
141	0xbeae72c1	-0.34071925
142	0xbec98da5	-0.3936588
143	0xbe8ef052	-0.27917725
144	0xbeac1389	-0.33608654
145	0xbe0e5f62	-0.13903573
146	0x3e5538a2	0.20822385
147	0xbdb9c7e3	-0.090713285
148	0x3e31e4d2	0.17372444
149	0x3d2fb18e	0.04289394
150	0x3e9b686f	0.30353114
151	0xbd12a1bd	-0.035798777
152	0xbebb13c0	-0.36538506
153	0xbe7cb392	-0.24677876
154	0x3e163f97	0.14672695
155	0x3e1c9bf7	0.15293871
156	0xbeb92a82	-0.36165243
157	0x3dc7d9e4	0.09758356
158	0x3e7f0d50	0.24907422
159	0xbeccc818	-0.3999641
160	0xbedf681d	-0.4363412
161	0xbe5155b2	-0.20442846
162	0x3e246e62	0.16057733
163	0x3d2e7908	0.042595893
164	0xbef34fdb	-0.47521862
165	0x3de95df5	0.11394874
166	0x3dda6853	0.106644295
167	0xbf01f4ce	-0.5076417
168	0x3d92d276	0.071690485
169	0xbc626b9a	-0.0138195995
170	0xbee93b87	-0.45553228
171	0xbeedfd61	-0.46482375
172	0xbf1314b6	-0.5745348
173	0xbf0301d3	-0.5117466
174	0x3b419e4f	0.0029543822
175	0x3df10f16	0.117704555
176	0x3d5186d8	0.051153988
177	0x3c887f5d	0.016662294
178	0x3e4eb50e	0.20186254
179	0x3dfbea0f	0.123005025
180	0xbe42f715	-0.19039567
181	0xbe443af1	-0.1916311
182	0xbd525535	-0.05135079
183	0xbead3357	-0.33828232
184	0x3b8c82c2	0.0042880485
185	0x3dfcfd73	0.12353029
186	0xbec7fcad	-0.39059964
187	0x3df92923	0.12166049
188	0x3e519265	0.20466001
189	0x3e09742d	0.13423224
190	0xbbed6fc6	-0.0072459904
191	0xbec41e4c	-0.38304365
192	0x3dc0cf86	0.09414582
193	0x3d8c6c29	0.068565674
194	0xbec9d63a	-0.39421254
195	0xbec889bd	-0.39167586
196	0xbe892582	-0.2678643
197	0xbe2e7432	-0.17036512
198	0xbe5ea92f	-0.21744226
199	0xbeb7c967	-0.35895845
200	0xbebf9bd6	-0.3742358
201	0xbea814d6	-0.32828397
202	0x3c1c531c	0.009541299
203	0x3c8532a2	0.016259495
204	0xbe9c7f1e	-0.30565733
205	0x3db89ca0	0.09014249
206	0x3e08ca36	0.13358387
207	0x3e9dd622	0.30827433
208	0x3c802bf5	0.01564596
209	0xbbce73b1	-0.0063004126
210	0xbf2b209a	-0.6684662
211	0xbbe4068f	-0.0069587897
212	0x3b0bea8d	0.002134952
213	0x3e941657	0.28923294
214	0xbc1b1366	-0.009465074
215	0xbbfce315	-0.0077175
216	0x3dfdcf9c	0.12393114
217	0x3e20ef7f	0.1571636
218	0xbd104d88	-0.03523019
219	0xbebd8b76	-0.37020463
220	0xbea848fd	-0.32868186
221	0xbeb7cde4	-0.3589927
222	0x3e0099a1	0.12558605
223	0xbd7d8255	-0.061891872
224	0x3dec1d2e	0.11529003
225	0xbe9477a9	-0.28997543
226	0xbeb53201	-0.35389712
227	0xbdd7c931	-0.10536421
228	0x3e1401e3	0.14453845
229	0x3d1c310f	0.038132723
230	0xbddaf380	-0.10690975
231	0x3e7e1247	0.2481166
232	0xbda260cf	-0.07928621
233	0xbe6b8973	-0.23001651
234	0xbec63800	-0.387146
235	0x3bb4f58d	0.005522436
236	0xbd173c2e	-0.036922626
237	0xbeaedecd	-0.34154359
238	0xbd543906	-0.051812194
239	0x3d3d8dd5	0.04627784
240	0xbe07ec19	-0.13273658
241	0x3dc13db3	0.09435596
242	0x3e8c0268	0.27345586
243	0xbc3f956d	-0.011693341
244	0xbe056282	-0.13025859
245	0x3f2d01b9	0.67580754
246	0x3dec293d	0.11531303
247	0xbd30a31c	-0.043124303
248	0x3de5226e	0.111882076
249	0x3ab5a718	0.0013859002
250	0x3de30fd1	0.11087001
251	0xb7277d2f	-9.983122e-06
252	0xbe9a818f	-0.3017697
253	0xbe13b46a	-0.14424291
254	0x3d808a21	0.06276346
255	0xbe31c070	-0.17358565

b0 f4 [32]
0	0xbd96eb62	-0.073691145
1	0xbda168c2	-0.07881309
2	0xbba566b1	-0.005047642
3	0xbcb513f8	-0.022104248
4	0xbda7f922	-0.08201815
5	0x3d5878fc	0.052849755
6	0x3bbbd238	0.005731847
7	0x3db9a311	0.090643056
8	0x3d96bbd5	0.07360045
9	0xbc5f574e	-0.013631655
10	0xbda8a1c9	-0.08233983
11	0x3d19dc3d	0.03756355
12	0x3d632502	0.055455215
13	0xbcdd701f	-0.027031003
14	0x3d2de0ae	0.0424506
15	0xbd178325	-0.036990304
16	0x3c68a6e1	0.014199943
17	0x3d18f4ab	0.03734271
18	0xbdacb2ee	-0.08432566
19	0x3ddd11fc	0.10794446
20	0x3d846ab5	0.06465665
21	0xbd9ddc47	-0.0770803
22	0xbd43a214	-0.04776199
23	0xbcc257a7	-0.023723437
24	0x3d68c6f3	0.056830358
25	0xbdb6ec1c	-0.08931753
26	0x3c8a8294	0.016907968
27	0xbd470f2f	-0.048598465
28	0x3cb76bbc	0.022390239
29	0x3d4b6780	0.049659252
30	0xbdf15bc0	-0.11785078
31	0x3dc1fa19	0.094715305

conv1 f4 [32, 32, 3, 3]
0	0xbdef8ce0	-0.11696792
1	0x3caa7c3f	0.020811198
2	0xbd0a64d0	-0.03378755
3	0xbe50418e	-0.20337507
4	0xbe1749e1	-0.14774276
5	0xbe22728e	-0.15864012
6	0xbdb8ce82	-0.09023763
7	0xbd8c6ec0	-0.068570614
8	0xbd0471f0	-0.03233522
9	0x3d28125f	0.041033145
10	0x3d3672f2	0.044543214
11	0xbd6f49bb	-0.058419924
12	0xbd95a7a8	-0.073073685
13	0x3db94b29	0.09047539
14	0x3d3d13cd	0.04616146
15	0xbd3694c9	-0.044575486
16	0xbdaa6385	-0.08319763
17	0x3d7b8c19	0.061412904
18	0x3e11d32f	0.14240716
19	0xbd285bf5	-0.041103322
20	0x3dbc6803	0.09199526
21	0x3d436a1a	0.04770861
22	0x3d830cdb	0.06398936
23	0x3e1c8ed0	0.15288854
24	0xbcb3be05	-0.021941194
25	0xbda46409	-0.08026893
26	0xbdc3c5a0	-0.09559178
27	0xbd10f0ef	-0.035386022
28	0xbb2501e8	-0.0025178138
29	0xbdffb3cd	-0.12485466
30	0x3dce43d2	0.100715294
31	0xbc68c5e8	-0.014207341
32	0x38d41d9b	0.00010114462
33	0x3d72f45e	0.059315078
34	0xbd1753e9	-0.036945257
35	0x3d3f68d9	0.04673085
36	0xbd0b29ec	-0.033975527
37	0xbca13353	-0.019677794
38	0x3d98891e	0.07448028
39	0xbdfbd8f9	-0.122972436
40	0xbdd0db85	-0.1019812
41	0xbc1bd208	-0.009510525
42	0xbd6908bd	-0.0568931
43	0xbdac3fb6	-0.084105894
44	0x3c9abbcd	0.018888379
45	0x3c9cde66	0.019149017
46	0x3d2cc512	0.04218013
47	0xbda153e4	-0.07877329
48	0x3db8753e	0.09006737
49	0x3e0dc0f8	0.13843143
50	0x3d2ad8ec	0.04171078
51	0x3de929df	0.113849394
52	0xbd43ea92	-0.047831126
53	0x3b5d8a97	0.003380453
54	0x3dee0670	0.116223216
55	0x3baca74c	0.005268967
56	0x3d0a1ff0	0.033721864
57	0x3cd34de8	0.025793985
58	0x3dccdb02	0.1000271
59	0x3dfed85b	0.1244361
60	0xbd753c1f	-0.05987179
61	0xbbeb82ea	-0.007187237
62	0xbdae80cb	-0.08520659
63	0x3ab59b0e	0.0013855414
64	0x3df68cfd	0.1203861
65	0x3d845bc7	0.06462818
66	0x3c2df94f	0.010618522
67	0x3dfc4407	0.12317663
68	0x3db40e31	0.08791769
69	0x3d5caa99	0.053873632
70	0xbdab145c	-0.083534926
71	0xbda572bc	-0.080785245
72	0xbdcfc2b5	-0.10144559
73	0xbd9f262e	-0.07770954
74	0xbe49ac72	-0.19694689
75	0xbdd55ec5	-0.104184665
76	0xbd5a6b50	-0.053324997
77	0xbdb405f4	-0.08790198
78	0xbc9fdd30	-0.01951465
79	0xbda67042	-0.0812688
80	0x3bfc1280	0.007692635
81	0xbc323d25	-0.010878836
82	0x3c9aa6d1	0.018878372
83	0xbe7301b3	-0.23731117
84	0xbc8f9c08	-0.017530456
85	0xbe05b6d3	-0.13058023
86	0xbc8e71cf	-0.017388253
87	0x3da7a4d7	0.081857376
88	0x3c31cabb	0.010851557
89	0xbd0211cd	-0.031755257
90	0xbe0ad22d	-0.13556738
91	0xbd40ea67	-0.047098543
92	0xbd5bcc14	-0.05366142
93	0x3e15e046	0.14636335
94	0x3d0f0790	0.03491932
95	0xbc861eaf	-0.016372053
96	0x3d3eddab	0.046598118
97	0xbdb3d846	-0.08781485
98	0xbda92d8d	-0.08260641
99	0x3cd51a4b	0.026013514
100	0x3dac30c2	0.08407737
101	0x3d17f268	0.03709641
102	0xbb14e596	-0.0022719852
103	0x3d693b7c	0.056941494
104	0x3bb0e715	0.005398641
105	0xbd8a1b7a	-0.06743522
106	0xbdfdc953	-0.12391915
107	0xbd41b67a	-0.047293164
108	0xbdd7b3df	-0.105323546
109	0xbd4276c4	-0.047476545
110	0xbdf966f2	-0.121778384
111	0xbc566cd3	-0.013087469
112	0xbd9b3a2c	-0.07579455
113	0x3dec013e	0.115236744
114	0xbdfe0849	-0.12403924
115	0xbdb2bda8	-0.0872758
116	0xbde11fa1	-0.10992361
117	0xbd0b8ef1	-0.034071866
118	0xbd954560	-0.07288623
119	0xbd7142fc	-0.058901772
120	0x3c37f998	0.011228941
121	0xbd27b28f	-0.04094177
122	0x3d11375f	0.035453197
123	0xba16b7c3	-0.00057494285
124	0xbe4f779e	-0.20260474
125	0xbd084934	-0.033272937
126	0xbd0b1a16	-0.033960424
127	0xbe5183c7	-0.20460425
128	0x3bf472ee	0.0074599897
129	0xbd941a93	-0.07231631
130	0xbe3e13e0	-0.18562269
131	0xbd820794	-0.06349102
132	0xbdf0df47	-0.11761337
133	0xbd31cfad	-0.043410946
134	0xbd1d7457	-0.03844103
135	0xbd64cea4	-0.05586113
136	0x3c58eb3d	0.013239679
137	0x3d8c7bff	0.06859588
138	0x3d25e4a3	0.040501248
139	0x3c8eb276	0.017419081
140	0xbd2719d9	-0.040796135
141	0xbd8c4fbc	-0.068511456
142	0xbd4410ec	-0.0478677
143	0xbc9d4229	-0.019196587
144	0xbdc5e735	-0.0966324
145	0xbd8b08b2	-0.06788768
146	0xbc15cb08	-0.009142645
147	0xbdb6e3ec	-0.089301914
148	0x3cdadf4b	0.026717803
149	0x3d839b81	0.064261444
150	0xbd99d4f3	-0.0751132
151	0xbe01870f	-0.12649177
152	0xbcba39cf	-0.022732643
153	0x3dd462da	0.10370417
154	0x3de5adc6	0.11214785
155	0x3d58fc3e	0.052974932
156	0xbacf9903	-0.0015838448
157	0xbd0cf57d	-0.034413803
158	0x3e15bb09	0.1462213
159	0xb9ac6e75	-0.00032888693
160	0xbdd39440	-0.10331011
161	0xbe358060	-0.17724752
162	0xbc288c54	-0.010287363
163	0x3c8056c0	0.015666366
164	0xbdc7269b	-0.0972416
165	0x3c6ede1f	0.014579325
166	0x3d007379	0.031360123
167	0x3d82fc81	0.063958175
168	0x3dbf4b8f	0.093405835
169	0xbd07df30	-0.033171833
170	0x3ddfbc65	0.10924605
171	0x3d94a862	0.07258679
172	0xbd23ae62	-0.039961226
173	0xbd1448c8	-0.036202222
174	0x3e3fb8a4	0.18722779
175	0xbd75da38	-0.060022563
176	0xbd7c4e78	-0.06159827
177	0x3d1b005f	0.03784215
178	0x3ca33a5e	0.019925293
179	0xbdbaef42	-0.09127666
180	0xbd88a972	-0.06672944
181	0xbe189daa	-0.14903894
182	0xbdc8c2a0	-0.09802747
183	0xbcf8195e	-0.030285534
184	0x3d5f1019	0.05445871
185	0xbe0e5bc7	-0.13902198
186	0x3bcc8694	0.006241629
187	0x3c970943	0.018437034
188	0xbdf1d835	-0.11808816
189	0xbc0f9cfd	-0.008765456
190	0xbd0025ed	-0.03128617
191	0xbbd957d8	-0.0066327862
192	0x3d31fb03	0.043452274
193	0x3e09e9ee	0.13468143
194	0x3e1c38aa	0.1525599
195	0x3df505c6	0.11963992
196	0xbd45f543	-0.048329603
197	0xbd992ae0	-0.07478881
198	0x3d28eafd	0.041239727
199	0x3d9e980a	0.07743843
200	0x3cc154db	0.023600033
201	0x3d8c63db	0.068549834
202	0x3e6f253d	0.23354049
203	0x3e040aa4	0.12894684
204	0x3dce19fd	0.100635506
205	0xbde631cf	-0.11239969
206	0xbe2c7e36	-0.1684502
207	0xbc5e9d04	-0.01358724
208	0xbc4c90fc	-0.012485739
209	0xbb785bca	-0.0037896507
210	0x3d012baa	0.031535782
211	0xbd2d6388	-0.04233125
212	0xbdbb3a7b	-0.09142014
213	0xbe0869e7	-0.13321649
214	0xbd147e34	-0.03625317
215	0xbcbeab41	-0.02327502
216	0xbd08c0fe	-0.033387177
217	0xb851d562	-5.002821e-05
218	0xbd9e8c3d	-0.07741592
219	0x3d81b8b5	0.06334058
220	0x3d9c3cf4	0.076288134
221	0xbd4daebe	-0.050215475
222	0x3d698a86	0.057016872
223	0xbd522329	-0.051303063
224	0xbe00d1e1	-0.12580062
225	0x3d10e564	0.035375014
226	0x3da82914	0.0821096
227	0xbd57aedf	-0.052657004
228	0x3d834937	0.06410449
229	0xbca222d8	-0.019792005
230	0x3dc72f9d	0.097258784
231	0xbafb96b8	-0.0019194698
232	0x3d1ac6eb	0.03778736
233	0xbdc26dc5	-0.09493593
234	0xbca5d77a	-0.020244349
235	0xbd939eb7	-0.07208007
236	0x3bcb66b5	0.006207312
237	0x3cd62ef9	0.026145445
238	0xbd23800d	-0.03991704
239	0xbe1ebf6c	-0.15502709
240	0xbe09e9a4	-0.13468033
241	0xbdccb1f8	-0.09994882
242	0xbdcf5062	-0.10122754
243	0xbc0a1ede	-0.008430211
244	0x3d7d663b	0.061865073
245	0x3d83ffa7	0.06445246
246	0x3d1abfeb	0.037780683
247	0xbda452cc	-0.08023605
248	0x3a2f1c9a	0.0006679982
249	0xbd26e1e6	-0.040742777
250	0xbdb63d8b	-0.08898457
251	0xbc9cfe65	-0.019164274
252	0x3c430569	0.011903145
253	0xbd8bda17	-0.06828707
254	0x3d8f2cb9	0.06990952
255	0x3dbbcfca	0.09170492

b1 f4 [32]
0	0x3d8bdeee	0.0682963
1	0x3d699e48	0.057035714
2	0x3dde5ab1	0.10857142
3	0xbcb4c1cd	-0.022065068
4	0x3db92861	0.09040905
5	0xbd2effcc	-0.042724416
6	0x3cd39abf	0.025830625
7	0x3d5ec8fa	0.054390885
8	0xbc0dad74	-0.0086473115
9	0x3daae6f0	0.08344829
10	0x3c8eadca	0.017416853
11	0x3c1f81fc	0.0097355805
12	0xbc1e47e6	-0.009660697
13	0xbcda566c	-0.026652537
14	0xbe187dd4	-0.1489175
15	0xbcaa118a	-0.020760316
16	0x3ed991d6	0.42494076
17	0x3cc8293c	0.024433725
18	0x3e6a0d7b	0.22856705
19	0x3a75d08c	0.0009377084
20	0x3d37d2f8	0.04487893
21	0xbc0d72af	-0.0086333
22	0x3da36d33	0.079798125
23	0x3d4078e3	0.046990287
24	0xbcf02967	-0.029316617
25	0xbb7010b3	-0.0036631047
26	0x3cdf7bc9	0.027280705
27	0xbd0fbd6e	-0.035092764
28	0x3ce7c007	0.028289808
29	0xbd43df2d	-0.04782026
30	0x3dc9d061	0.09854198
31	0x3d51643d	0.051120985

conv2 f4 [32, 32, 3, 3]
0	0x3d6efcdf	0.058346625
1	0x3dc7b73f	0.09751748
2	0x3d09472d	0.033515144
3	0x3cdbc019	0.026824998
4	0xbd646067	-0.055756
5	0x3d70b6de	0.058768146
6	0xbe632cb6	-0.22185025
7	0x3b2c5ebe	0.0026301588
8	0xbdae36be	-0.08506535
9	0xbbc314d1	-0.0059534092
10	0xbddc7def	-0.107662074
11	0xbd9ff023	-0.07809474
12	0x3d23de26	0.04000678
13	0x3d21afa5	0.03947415
14	0xbbcab024	-0.0061855484
15	0x3aed3551	0.0018097555
16	0x3da13594	0.07871547
17	0xbd38a70f	-0.045081194
18	0x3e125b1d	0.1429257
19	0x3dcead98	0.10091704
20	0x3d6cdb13	0.057826113
21	0x3c7a00c8	0.015258975
22	0x3d89c40d	0.06726847
23	0x3d856275	0.0651292
24	0x3cd236f8	0.025660977
25	0x3dc371c2	0.09543182
26	0xbc273cc4	-0.010207359
27	0x3e3b6b40	0.18302631
28	0x3e29c439	0.16578759
29	0x3c1110ac	0.008854073
30	0x3de937dd	0.11387608
31	0x3c65678f	0.014001741
32	0xbc9eedba	-0.019400466
33	0xbd1b34d6	-0.037892185
34	0x3dcf063b	0.1010861
35	0x39d26e02	0.00040136283
36	0xbd11ae40	-0.03556657
37	0x3d293fc8	0.041320592
38	0xbd0579dd	-0.03258692
39	0xbd01ea97	-0.031717863
40	0x3c987185	0.018608818
41	0x3c52397d	0.012831089
42	0x3bea1502	0.0071436176
43	0xbcf0103f	-0.029304622
44	0x3d675cd7	0.056485023
45	0xbc3236ff	-0.01087737
46	0xbda06a49	-0.07832772
47	0x3df29902	0.1184559
48	0xbb8d1181	-0.004305065
49	0xbbbcfed5	-0.005767683
50	0x3dbaaf64	0.09115484
51	0xbd893e68	-0.06701356
52	0xbdb28540	-0.08716822
53	0xbace791e	-0.0015752648
54	0x3cb4fac9	0.02209224
55	0x3db179d7	0.08665817
56	0xbc2715fc	-0.010198113
57	0x3c725193	0.014789957
58	0x3d5987cc	0.05310802
59	0xbc3bb6b9	-0.011457139
60	0x3ba485ed	0.005020848
61	0xbdb6be7b	-0.0892305
62	0x3d0785b6	0.0330865
63	0xbca12826	-0.019672465
64	0xbcadf1a2	-0.021233384
65	0xbd958e20	-0.07302499
66	0xbd475452	-0.0486644
67	0xbd08040b	-0.03320698
68	0x3cdb521c	0.026772551
69	0xbd72506e	-0.059158735
70	0xbd6e879c	-0.058234796
71	0xbd38edfa	-0.045148827
72	0xbd24cb1b	-0.04023276
73	0xbda41184	-0.08011153
74	0xbd67ecba	-0.056622244
75	0x3d67c1e5	0.056581397
76	0x3b5e809f	0.0033951176
77	0xbd879775	-0.06620685
78	0x3c8e8281	0.017396213
79	0x3ddf8c68	0.10915452
80	0xbd6c7a3c	-0.05773376
81	0xbcdfd325	-0.027322361
82	0xbcfbeca7	-0.030752493
83	0xbdc13811	-0.09434522
84	0xbcab235d	-0.020890886
85	0xbdc57071	-0.09640587
86	0x3d5f98e7	0.05458918
87	0x3dbde27d	0.09271715
88	0x3c68443c	0.014176425
89	0xbc82dd4a	-0.01597466
90	0xbddfbb98	-0.109244525
91	0xbd15b94c	-0.036553666
92	0xbd37ae6b	-0.044844072
93	0xbd3d6238	-0.046236247
94	0x3d018d51	0.03162891
95	0xbc811f36	-0.015761953
96	0x3d951e57	0.072811775
97	0xbc8d02f9	-0.017213332
98	0xbd3f48b2	-0.046700187
99	0x3becc065	0.0072250837
100	0xbcdae0de	-0.026718553
101	0xbd519ed1	-0.05117685
102	0x3d0a81bb	0.033815127
103	0x3c0248ce	0.007951928
104	0x3d31967f	0.043356415
105	0x3ca8f242	0.02062333
106	0x3d1b56a9	0.037924442
107	0x3d521987	0.051293876
108	0xbdd1860f	-0.10230648
109	0xbd324133	-0.04351921
110	0x3dfed61f	0.12443184
111	0x3d535d47	0.051602628
112	0xbcc49714	-0.02399782
113	0x3d952794	0.072829396
114	0x3d764e2f	0.060133155
115	0xbcd66d84	-0.026175268
116	0x3e1d6853	0.15371828
117	0xbd94a7dc	-0.07258579
118	0x3cf655c8	0.0300702
119	0xbc70dc12	-0.014700906
120	0x3cd41d1e	0.02589279
121	0x3d81fc94	0.063470036
122	0xbb9ef3cf	-0.0048508416
123	0xbd12cd59	-0.035840366
124	0xbd5a0e1f	-0.053236123
125	0xbbc6521d	-0.006052269
126	0x3d96d983	0.07365706
127	0x3d32779c	0.0435711
128	0x3d392ef6	0.0452108
129	0x3c87d741	0.016582133
130	0xbd08b576	-0.03337618
131	0xbc5c16a6	-0.013433134
132	0xbc071ccb	-0.008246611
133	0x3cf32963	0.02968282
134	0x3d8b29ee	0.06795107
135	0xbd79c4f1	-0.060978834
136	0x3c8b3de0	0.016997278
137	0x3d70ccea	0.05878917
138	0x3d6282a0	0.055300355
139	0xbd3dc28b	-0.04632811
140	0x3dad870c	0.08473024
141	0xbdc3239c	-0.09528276
142	0x3d57fe95	0.052733023
143	0x3e0831e8	0.13300288
144	0xbd36bf00	-0.044615746
145	0x3c8bf944	0.017086633
146	0x3d09a759	0.03360686
147	0x3c4cc34e	0.012497736
148	0xbbd53323	-0.00650634
149	0xbd0f3327	-0.034960892
150	0xbd43d8a3	-0.047814023
151	0x3dae66b6	0.08515684
152	0xbca6e65e	-0.02037352
153	0x3ba2f57b	0.004973111
154	0x3da3b494	0.07993427
155	0xbda6726c	-0.08127293
156	0x3d557aa0	0.052118897
157	0x3cc90c8b	0.024542114
158	0x3b83a627	0.0040176096
159	0xbdaf738b	-0.0856696
160	0xbcf3c859	-0.02975862
161	0xbdba1999	-0.090869136
162	0xbc090945	-0.008364026
163	0x3c6d8793	0.014497655
164	0x3d3f8ec9	0.04676703
165	0xbd9dd474	-0.07706538
166	0x3c69d51e	0.0142720025
167	0x3d224d6e	0.039624624
168	0x3ced0231	0.028931709
169	0xbd76382f	-0.060112175
170	0x3db09f91	0.08624185
171	0xbd8ed919	-0.06975002
172	0xbc3c5964	-0.011495922
173	0xbde883ff	-0.11353301
174	0x3d5353a9	0.051593456
175	0xbc92cdda	-0.017920423
176	0x3cedc913	0.029026544
177	0x3c51db99	0.012808704
178	0x3c8f69b0	0.01750645
179	0xbb9de9ec	-0.0048191454
180	0x3db599a3	0.088671945
181	0x3e1c0fdd	0.15240426
182	0x3d978cac	0.07399878
183	0x3ddcbc92	0.107781544
184	0xbabe5dd1	-0.0014523809
185	0xbdcdbc63	-0.100456975
186	0xbd114fdf	-0.03547656
187	0x3d83460c	0.06409845
188	0xbd14c9b8	-0.036325186
189	0xbd980135	-0.07422105
190	0xbdbc8eca	-0.09206922
191	0xbe191a7c	-0.14951509
192	0x3c8025e9	0.015643077
193	0x3c1b1a4c	0.009466719
194	0xbd66ab24	-0.056315556
195	0xbce93b9f	-0.028470812
196	0x3d26981c	0.040672407
197	0x3be33001	0.0069332127
198	0x3be9382a	0.007117291
199	0x3d650b69	0.055919085
200	0x3d3dd93f	0.04634976
201	0x3dc02c88	0.09383494
202	0x3cfc2dd8	0.030783579
203	0xbcda9c4a	-0.026685853
204	0xbcf9e62e	-0.030505266
205	0xbc0225b7	-0.007943562
206	0xbd7b8c28	-0.06141296
207	0x3d666efe	0.056258194
208	0x3d240111	0.04004008
209	0x3ceab196	0.028649133
210	0xbdabc332	-0.0838684
211	0xbd4fc9c7	-0.05072954
212	0x3d39b813	0.045341562
213	0x3e1d3199	0.15350951
214	0x3dcb45e5	0.09925441
215	0xbcc69765	-0.024242112
216	0xbd4517fe	-0.048118584
217	0x3d078c5f	0.033092853
218	0xbdc174d1	-0.09446109
219	0x3cfb7ba0	0.030698597
220	0x3c09f1ad	0.008419436
221	0x3c94bfee	0.018157925
222	0xbbb478fc	-0.0055075865
223	0xbd2cab1b	-0.042155366
224	0xbd68d239	-0.05684111
225	0x3c91fbb0	0.01782021
226	0x3d08d927	0.033410218
227	0xbd3fda52	-0.046839066
228	0x3dcc24c8	0.09967953
229	0x3d0d68a3	0.034523617
230	0xbc672048	-0.014106818
231	0x3dcb14d5	0.09916083
232	0xbd6372fc	-0.05552958
233	0x3d9dfdd3	0.07714429
234	0xbcee8c40	-0.02911961
235	0x3cbfaf48	0.02339901
236	0x3e0bfc42	0.13670447
237	0x3dcb63b3	0.099311255
238	0x3a804d6b	0.0009788697
239	0x3d15207c	0.036407933
240	0x3dc131d0	0.09433329
241	0x3c34e7b0	0.011041567
242	0x3e0acbab	0.13554256
243	0xbcdf76b1	-0.027278276
244	0xbe05ae07	-0.13054667
245	0xbd807a7c	-0.06273362
246	0x3daaf9da	0.08348437
247	0xbbedb631	-0.007254385
248	0xbd355b50	-0.044276536
249	0x3da92dd3	0.082606934
250	0xbda66245	-0.08124212
251	0x3d05e5e9	0.032689963
252	0x3dbc40be	0.09192036
253	0xbc2523d0	-0.010079339
254	0xbd43a8bd	-0.047768343
255	0x3da2740d	0.07932291

b2 f4 [32]
0	0x3ca076a8	0.01958783
1	0x3cb9f8a0	0.022701561
2	0x3cae4a8e	0.021275785
3	0xbd457e2d	-0.048216034
4	0xbd038d21	-0.032117013
5	0xbc16994c	-0.009191822
6	0x3d89a03c	0.067200154
7	0xbd857c06	-0.06517796
8	0x3d58ff0b	0.052977603
9	0xbdb36e1a	-0.087612346
10	0x3bc2454a	0.00592867
11	0xbdc06ba3	-0.0939553
12	0xbc926892	-0.017872129
13	0xbd28aa47	-0.041178014
14	0x3cef3dca	0.029204268
15	0xbdac5786	-0.08415131
16	0x3cc13cb0	0.023588508
17	0x3d9bf7ce	0.07615624
18	0xbe26dcde	-0.16295192
19	0xbd9c26a3	-0.07624557
20	0xbdc03c57	-0.09386509
21	0x3dfc473a	0.12318273
22	0xbc85d172	-0.016335223
23	0x3ccc843b	0.024965396
24	0xbd4b81d4	-0.04968436
25	0xbb3b573c	-0.0028585931
26	0x3c1854f7	0.009297601
27	0x3d2dbfac	0.04241912
28	0xbcc1f189	-0.023674743
29	0xbcca446b	-0.024690827
30	0xbbd70c2f	-0.0065627317
31	0xbc2787ae	-0.01022522

conv3 f4 [32, 32, 3, 3]
0	0x3c7e4d02	0.01552129
1	0x3c4a73d1	0.012356714
2	0xbd61a0da	-0.05508504
3	0x3d323bc6	0.043514036
4	0xbd12d393	-0.035846304
5	0xbce27477	-0.027643425
6	0xbd5316e5	-0.051535506
7	0x390109f9	0.00012306114
8	0xbc3d45d3	-0.011552292
9	0x3c1d4da3	0.00960103
10	0xbc3deaa1	-0.011591584
11	0xbd9f6bc9	-0.0778423
12	0x3c472ba9	0.0121564055
13	0x3d6d1193	0.05787809
14	0x3b29223f	0.0025807766
15	0x3dbb1e9a	0.09136696
16	0x3d970b23	0.07375171
17	0x3d863b1e	0.065542445
18	0x3d1db041	0.038498167
19	0xbb9607f3	-0.0045785843
20	0x3e0e11d9	0.13873996
21	0xba8f3a35	-0.0010927381
22	0x3c92145a	0.01783197
23	0x3c8fd01d	0.01755529
24	0xbcbbc93a	-0.0229231
25	0x3cc66f1d	0.024222905
26	0xbd55663f	-0.052099463
27	0x3ddc2fe2	0.107513204
28	0x3ce98cf7	0.0285096
29	0x3de14346	0.109991595
30	0x3d87100c	0.065948576
31	0x39cc1678	0.00038926653
32	0xbb8d1ce3	-0.004306422
33	0x3cd9d869	0.02659245
34	0x3dcf3ee4	0.10119417
35	0x3d24fef2	0.040282197
36	0x3c90b755	0.017665545
37	0xbdbb4360	-0.0914371
38	0xbd8c0c9c	-0.068383425
39	0xbde448ab	-0.11146673
40	0xbdb55e6d	-0.08855901
41	0x3c403741	0.011731924
42	0xbd2f809b	-0.042847257
43	0xbddec6bc	-0.10877749
44	0xbd8afe6f	-0.067868106
45	0xbd0e2053	-0.034698796
46	0xbce2254c	-0.027605675
47	0x3d6049ae	0.054757766
48	0xbd648b02	-0.05579663
49	0xbc170666	-0.009217834
50	0xbd71165f	-0.058859225
51	0xbc589819	-0.013219857
52	0xbd3eb2b9	-0.046557162
53	0xbb1b2ac2	-0.0023676609
54	0x3e423b41	0.18967916
55	0x3def2338	0.11676639
56	0x3e387117	0.1801189
57	0x3d22ee7f	0.03977823
58	0xbd0c44e7	-0.034245398
59	0x3db804e4	0.08985308
60	0x3e658f85	0.2241803
61	0x3e08918c	0.13336772
62	0x3e0b7cd4	0.13621837
63	0xbdc3ff15	-0.095701374
64	0xbcb6ada8	-0.022299603
65	0x3d2537d8	0.04033646
66	0xbd44174a	-0.047873773
67	0xbd12d0c2	-0.03584362
68	0x3cfc381e	0.030788478
69	0x3cf81b9c	0.030286603
70	0xbc979c8c	-0.018507265
71	0x3bb51027	0.005525607
72	0x3c9c6f15	0.019095937
73	0x3ca5d0ad	0.020241106
74	0xbaac2948	-0.0013134861
75	0xbd15b3ae	-0.03654831
76	0xbc40b6dd	-0.011762348
77	0x3d25a037	0.040435996
78	0x3dc9379f	0.09825062
79	0x3c8b0727	0.016971184
80	0x3c111d00	0.008857012
81	0x3ea6c309	0.32570675
82	0x3de76ba1	0.112998255
83	0x3ea77f1e	0.3271417
84	0x3e38f716	0.18063006
85	0x3deb273e	0.11482094
86	0x3db53fce	0.088500604
87	0x3e64269d	0.22280355
88	0x3e6675fa	0.22505942
89	0x3e7df720	0.24801302
90	0xbd2fdc33	-0.042934608
91	0xbc939303	-0.018014437
92	0xbd0bc535	-0.03412362
93	0x3c9709ac	0.01843723
94	0x3bacff28	0.0052794404
95	0xbd3fe308	-0.046847373
96	0xbdc74ffb	-0.09732052
97	0xbccc35c8	-0.024927989
98	0xbe005c05	-0.12535103
99	0xbdf63435	-0.120216765
100	0xbd7cdbbf	-0.061733004
101	0xbdb48b49	-0.08815629
102	0xbc84e413	-0.016222036
103	0xbcdc39e3	-0.026883071
104	0xbc9aca1f	-0.018895207
105	0xbe102a14	-0.14078552
106	0xbc740027	-0.014892614
107	0xbe0213eb	-0.1270291
108	0x3aab77d3	0.0013081975
109	0x3bbd8d26	0.0057846485
110	0xbd861412	-0.06546797
111	0xbdb810ba	-0.08987565
112	0xbd85af7f	-0.06527614
113	0x3ca934c4	0.020655043
114	0xbd594fb6	-0.053054534
115	0x3b8ffbe5	0.004394042
116	0x3cc2ae25	0.02376468
117	0x3aaed3a3	0.0013338219
118	0x3d7f77bf	0.06237006
119	0x3d3c35bd	0.045949686
120	0x3c8dbea0	0.017302811
121	0x3dcb6d51	0.0993296
122	0xbca575cd	-0.020197773
123	0xbd2ede97	-0.042692747
124	0x3d5108bf	0.05103373
125	0xbc4fae4c	-0.012675833
126	0x3943d397	0.00018675473
127	0x3bca95e3	0.0061824187
128	0x3dab4afc	0.083639115
129	0xbd64c126	-0.055848263
130	0xbc188811	-0.0093097845
131	0x3bcb0588	0.0061957277
132	0x3cf403f6	0.029787045
133	0x3c831d24	0.016005106
134	0x3d95cd4e	0.073145494
135	0x3d365707	0.04451659
136	0x3c65cebd	0.014026341
137	0xbcc8d931	-0.024517627
138	0x3d9187dd	0.07105992
139	0x3c1767f9	0.009241098
140	0x3c8489a2	0.01617891
141	0x3d10768e	0.035269313
142	0xbcc150d0	-0.023598105
143	0xbd8ff689	-0.07029445
144	0x3d2a7f59	0.041625354
145	0xbdefd608	-0.11710745
146	0xbc80e702	-0.015735153
147	0xbca321b0	-0.019913524
148	0xbcd90558	-0.026491806
149	0xbc45f3a6	-0.012082016
150	0x3d729017	0.059219446
151	0x3cc9a061	0.024612607
152	0x3d618ddc	0.05506693
153	0xbdec7f1b	-0.11547681
154	0xbbc70244	-0.006073268
155	0xbdbe4fe5	-0.092925824
156	0x3d0072a2	0.031359322
157	0x3d1e0a86	0.038584255
158	0xbc96fe7e	-0.018431898
159	0xbe18d193	-0.14923696
160	0xbbaec872	-0.0053339535
161	0xbdddedfe	-0.10836409
162	0xbe728b1e	-0.23685881
163	0xbd46333a	-0.048388697
164	0xbe78576f	-0.24252103
165	0xbdf6f17e	-0.1205778
166	0x3cb6c860	0.022312343
167	0xbe1f3ddb	-0.1555094
168	0xbe6fdfc5	-0.23425205
169	0xbd559d82	-0.052152164
170	0xbe4c5bfc	-0.19956964
171	0x3e23ac13	0.1598361
172	0x3dc91fc5	0.09820513
173	0x3e19fbea	0.15037504
174	0x3e311dcf	0.17296527
175	0x3d9f1b0a	0.07768829
176	0x3e185c1f	0.14878891
177	0x3e34f7a8	0.17672598
178	0x3dd115d1	0.10209239
179	0x3e3f3d23	0.18675666
180	0xbcdfbf89	-0.02731301
181	0xbaa4d58f	-0.0012575852
182	0xbd1ff459	-0.039051387
183	0x3ba13fb9	0.0049209264
184	0xbdcea76a	-0.100905254
185	0x3b4bcddd	0.0031098046
186	0xbccd8950	-0.02508989
187	0xbd84739b	-0.064673625
188	0xbd285ab2	-0.04110212
189	0x3bc95374	0.0061439816
190	0x3c8f42eb	0.017487964
191	0x3d519cad	0.05117481
192	0x3d8404d4	0.064462334
193	0x3d16d302	0.036822326
194	0x3d8434f3	0.06455412
195	0x3d63dfe6	0.055633448
196	0x3d716334	0.058932498
197	0x3cd34194	0.025788106
198	0xbdae4e2f	-0.08511006
199	0xbda50cdf	-0.080590956
200	0xbd55c351	-0.05218822
201	0x3c7ff0f0	0.015621409
202	0x3ccacfca	0.024757285
203	0xbdaf5153	-0.08560433
204	0xbd3c3c01	-0.04595566
205	0xbd6fb020	-0.058517575
206	0xbc102c6f	-0.008799656
207	0x3cdf6030	0.027267545
208	0x3d02ddda	0.031949855
209	0x3d26ee90	0.040754855
210	0xbcf09690	-0.029368669
211	0xbd59cf9b	-0.053176504
212	0xbca62225	-0.020279953
213	0x3d7b4f58	0.061354965
214	0x3d4deb0f	0.050272997
215	0xbc880cd2	-0.016607676
216	0x3d67eab0	0.0566203
217	0x3b847233	0.004041934
218	0x3cf6f2e3	0.030145114
219	0xbda73ddf	-0.08166098
220	0x3d8d0558	0.06885785
221	0x3c3913f9	0.011296266
222	0xbc9eb844	-0.019374974
223	0x3d9aa508	0.075510085
224	0x3c657cd4	0.014006812
225	0xbd931a99	-0.071828075
226	0xbc526ca3	-0.012843284
227	0xbd2c29f0	-0.042032182
228	0xbc6dc1ed	-0.014511568
229	0xbd5578a2	-0.052116998
230	0x3ca6bb25	0.02035291
231	0xbd8d8baf	-0.06911408
232	0xbd98435e	-0.07434724
233	0xbdafe342	-0.08588268
234	0x3d060572	0.032720037
235	0x3c62e092	0.013847487
236	0x3e18679f	0.14883278
237	0x3d8e06d6	0.069348976
238	0x3d1b9566	0.037984274
239	0x3d39eb14	0.045390204
240	0xba520c12	-0.0008012663
241	0x3d39dd60	0.045377135
242	0xbbb83ed5	-0.0056227245
243	0xbdb39109	-0.08767898
244	0xbdd0744a	-0.101784304
245	0xbe094404	-0.13404852
246	0xbdc2dccc	-0.0951477
247	0x3dd0841e	0.10181449
248	0xbdeef1d9	-0.116672225
249	0xbe165548	-0.1468097
250	0xbd904990	-0.07045281
251	0xbdd62051	-0.104553826
252	0xbc31133b	-0.010807808
253	0x3d80d0dd	0.062898375
254	0xbc225e62	-0.009910198
255	0x3d914cff	0.07094764

b3 f4 [32]
0	0x3e958525	0.29203144
1	0x3ec6f7ef	0.38861033
2	0x3f09cf44	0.5383189
3	0x3f70c6f2	0.94053566
4	0x3ee4bf99	0.44677427
5	0x3ee94059	0.45556906
6	0x3eb3fd47	0.35154173
7	0x3f0b5671	0.54428774
8	0x3ee22a05	0.44172683
9	0x3f494b1f	0.7863025
10	0x3f290d37	0.6603579
11	0x3ee323ce	0.44363254
12	0x3ed324f7	0.4123914
13	0x3ecd7753	0.401301
14	0x3f366925	0.7125419
15	0x3edbaa86	0.42903537
16	0x3f0d21b1	0.55129534
17	0x3edd9ebe	0.43285173
18	0x3e8c5729	0.27410248
19	0x3f2e1bb9	0.6801105
20	0x3ed91ea8	0.424062
21	0x3edbf755	0.42962137
22	0x3ece8fa3	0.4034396
23	0x3f0bb18e	0.545678
24	0x3f101a4a	0.56290114
25	0x3f2fba6d	0.6864384
26	0x3e5e1f19	0.2169155
27	0x3f6c57d9	0.92321545
28	0x3efbed1b	0.49204335
29	0x3f257368	0.6462922
30	0x3f1f5709	0.6224218
31	0x3f1e5d54	0.6186116

w4 f4 [5, 32]
0	0x3ff4be09	1.9120494
1	0xbfed409f	-1.8535346
2	0x3f5c4017	0.86035293
3	0xbfbb1c74	-1.4618058
4	0xbfd8fd0d	-1.6952225
5	0xbf8435ca	-1.0328915
6	0xc003cfac	-2.0595503
7	0xbeaf25a1	-0.34208396
8	0xbff5f964	-1.9216733
9	0xbfb4511a	-1.408725
10	0xbf455741	-0.77086264
11	0xc004d325	-2.0753872
12	0x4015bd5e	2.339683
13	0xbfd3ccc6	-1.6546867
14	0xbeea26c0	-0.4573269
15	0x3f2c4115	0.6728681
16	0x4021d105	2.5283825
17	0xbe9c4bea	-0.30526668
18	0x3fdbf2a9	1.7183429
19	0xbfbd9f55	-1.4814249
20	0x401171f5	2.2725804
21	0xbf5da036	-0.8657259
22	0xbf1d02e1	-0.6133252
23	0xbfbb573a	-1.4635994
24	0x40243718	2.5658627
25	0x3e303bda	0.17210332
26	0x3fa5458f	1.2911853
27	0x40257864	2.585473
28	0xc005f0dc	-2.092826
29	0xbfa2f835	-1.2731997
30	0xbfd1f78f	-1.6403674
31	0x3e1be759	0.15224971
32	0x3ee14e12	0.44004875
33	0xbfee9f5b	-1.8642381
34	0xbfa3f1ab	-1.2808126
35	0x403224a0	2.7834854
36	0x3f990da3	1.1957287
37	0xc00228fc	-2.0337515
38	0x3dc7301a	0.097259715
39	0x402b73b5	2.6789372
40	0xbf29ac03	-0.66278094
41	0xbfb7b601	-1.4352418
42	0xbfc16166	-1.5107849
43	0x4018ed13	2.3894699
44	0x3f83a845	1.0285727
45	0xbff703f2	-1.9298079
46	0xbf47f3f4	-0.7810662
47	0xbfcc852c	-1.5978141
48	0xbff62ff6	-1.9233387
49	0xc006cb1f	-2.1061475
50	0xc00d6296	-2.2091422
51	0xbdb742c4	-0.089482814
52	0xbfc98a3b	-1.574531
53	0xbfd9971b	-1.6999239
54	0x3fead708	1.8346872
55	0x401ec341	2.4806674
56	0xbfc5719c	-1.5425296
57	0xbdc30bfa	-0.09523769
58	0x3fc6763a	1.550483
59	0xbfa68d51	-1.3011876
60	0x3f4d8b2b	0.8029048
61	0xbfbd8851	-1.4807225
62	0x3ebb7482	0.36612326
63	0x401dda36	2.4664435
64	0x3f3d26d9	0.738874
65	0x401c17db	2.438956
66	0xbfe98464	-1.8243527
67	0xbf380a26	-0.71890485
68	0x4014c9d4	2.3248186
69	0x401daffd	2.4638665
70	0x3ff4625e	1.9092519
71	0xbf9e928b	-1.2388471
72	0xbdca6658	-0.09882802
73	0x3db1858e	0.08668052
74	0x4024d59e	2.5755382
75	0xbf86bc47	-1.0526208
76	0xbfa88f29	-1.3168689
77	0x3f873ec3	1.0566028
78	0xbf78ae98	-0.9714141
79	0xbf8cd867	-1.1003541
80	0xbfa8652c	-1.3155875
81	0xbf015cf3	-0.50532454
82	0x3f629844	0.8851359
83	0xbf9fc483	-1.2481846
84	0xbf401273	-0.7502815
85	0xbfd55ca6	-1.6668899
86	0xbfefbc41	-1.8729326
87	0x3cb69aff	0.022290705
88	0xbe8584d7	-0.2607791
89	0xbfc441e8	-1.5332613
90	0x3e21db76	0.15806374
91	0xbfd9c1a7	-1.7012223
92	0xbf5ca6a9	-0.86191803
93	0x401ccc87	2.4499834
94	0xbe6e4578	-0.23268688
95	0xbfbd7eed	-1.480436
96	0xc0008651	-2.008198
97	0x3ece2a2a	0.40266544
98	0xbf1b81f5	-0.60745174
99	0xbfde0b10	-1.7347126
100	0xbfaaf2f3	-1.3355392
101	0x3d0b315a	0.033982612
102	0xbffd2220	-1.9776039
103	0x3e52b857	0.20578133
104	0x40210836	2.5161262
105	0xbfbfcb3c	-1.4983897
106	0xbfcb1570	-1.5865917
107	0xbedf2e4b	-0.43590006
108	0xbfbb7e7f	-1.4647979
109	0x4005e0da	2.0918489
110	0x402a64d0	2.662403
111	0x40289d01	2.6345828
112	0x3f2e5d79	0.6811138
113	0x3f084157	0.532247
114	0xbffe58a2	-1.9870799
115	0x4017d2a4	2.3722315
116	0xbfe85dc1	-1.8153611
117	0x401b9863	2.431176
118	0x3fc649e4	1.54913
119	0xbfb796f0	-1.4342937
120	0xbe978837	-0.2959611
121	0xbf817eae	-1.0116785
122	0x3ba60a0f	0.005067117
123	0xbfa95f28	-1.3232164
124	0x3f04b9ab	0.51845807
125	0xbfdfbc16	-1.7479274
126	0xbfd85941	-1.6902238
127	0xc004789f	-2.0698621
128	0xbfecfe10	-1.8515034
129	0xbf34121b	-0.70340127
130	0x401c87be	2.445785
131	0xbf64dae0	-0.89396477
132	0xbfe73891	-1.8064138
133	0xbfc06ca0	-1.503315
134	0x3fb133e8	1.3843966
135	0xbfcc5305	-1.5962836
136	0x3f440dbf	0.76583475
137	0x40277f8b	2.6171596
138	0xbfc8cc33	-1.5687317
139	0x3b789bc2	0.0037934636
140	0xbf66cef6	-0.9015955
141	0xbfe3b22f	-1.7788752
142	0xbfc946b5	-1.5724703
143	0xbfbe14b6	-1.485007
144	0xbf8df70c	-1.1091018
145	0x40283fab	2.628886
146	0x3dd25d70	0.10271728
147	0xbfd1cc3f	-1.6390456
148	0x3fab861b	1.3400301
149	0x3f9ac386	1.2090919
150	0xbfbd814a	-1.4805081
151	0xbfdf3eda	-1.7441056
152	0xbff15646	-1.8854454
153	0x40225777	2.5365884
154	0xc02bd985	-2.6851513
155	0xbf833992	-1.0251944
156	0x401bdf5d	2.435508
157	0xbf84f6c1	-1.0387803
158	0x4028d741	2.638138
159	0x3f3d8cef	0.7404317

b4 f4 [5]
0	0x3e5d5a98	0.2161659
1	0xbc9b0e54	-0.01892773
2	0xbe4e4173	-0.20142154
3	0x3e12bb6b	0.14329307
4	0x3e0369c9	0.12833323

exp_avg f4 [32, 1, 3, 3]
0	0xbace1a65	-0.0015724419
1	0x3a286e9a	0.00064251723
2	0xb67cb017	-3.7653424e-06
3	0xbb4bb99a	-0.003108597
4	0xbb3c32fc	-0.0028716912
5	0xbb28e28c	-0.0025769798
6	0x388dfcc7	6.7704874e-05
7	0x3a087877	0.0005205939
8	0x3a4c8b78	0.0007802765
9	0x3b0613b3	0.002045852
10	0x3a73958f	0.00092920003
11	0xba740c46	-0.000930969
12	0x3a176657	0.00057754427
13	0x3b116443	0.0022185005
14	0xbaf44a8f	-0.0018637943
15	0x3a768353	0.0009403724
16	0x3ae326f4	0.0017330335
17	0xbab8537d	-0.0014062967
18	0x3ad402fa	0.0016175203
19	0xba267bb2	-0.00063508295
20	0xbb7079a5	-0.00366936
21	0xba1138cd	-0.0005539775
22	0xbaddf48b	-0.0016933841
23	0xbb689ca4	-0.0035493756
24	0xbb023479	-0.0019867702
25	0x3ab11b89	0.0013512234
26	0x3a58168e	0.0008243107
27	0x3a04cef8	0.0005066241
28	0x3a7749e9	0.0009433316
29	0x38a665b7	7.934443e-05
30	0xbadacfc0	-0.0016693994
31	0xba7ca352	-0.0009637374
32	0xb9c01517	-0.00036636807
33	0x3a422fcd	0.00074076356
34	0xbb09aeb8	-0.0021008682
35	0xbae3188f	-0.0017326045
36	0x3c53f5ad	0.012936992
37	0x3c2e63ba	0.010643894
38	0x3c3188ff	0.010835885
39	0x3bbc63f0	0.005749218
40	0x3bc74566	0.006081271
41	0x3b9c28c9	0.004765604
42	0x3aba80c6	0.0014229051
43	0x3b0f4291	0.0021859745
44	0xbab0c762	-0.0013487155
45	0x3a00a4f5	0.0004907393
46	0x3afe2205	0.0019388801
47	0xb986fd67	-0.0002574727
48	0xba8b6409	-0.0010634671
49	0xba48a6a8	-0.0007654228
50	0xb9f4cfa9	-0.00046694026
51	0xb9c98570	-0.00038437126
52	0x3b4871b6	0.0030585355
53	0xbb0949e8	-0.0020948593
54	0xbbb213ad	-0.0054344744
55	0x3a6c9c9c	0.0009026022
56	0xb8e1fe60	-0.00010776217
57	0xbc001375	-0.007817139
58	0xbab2b898	-0.0013635335
59	0xbaae994e	-0.0013320835
60	0xbc011024	-0.007877383
61	0x384134de	4.6064022e-05
62	0x39c1d846	0.00036972965
63	0x39c6108a	0.00037777825
64	0x3a1f7763	0.00060831587
65	0x3b842b64	0.004033493
66	0x38026d19	3.109602e-05
67	0x3b4fcd7a	0.0031708167
68	0x3b63fe9c	0.003478921
69	0x3ae5c23f	0.0017529203
70	0x3b98ee6f	0.0046670954
71	0x3b536798	0.0032257792
72	0x3a1f4880	0.0006076172
73	0xb9216366	-0.00015391185
74	0x3a6f6fb9	0.00091337744
75	0x3a03d8eb	0.0005029577
76	0x3a0cc4d6	0.0005369907
77	0x3ad5fa40	0.0016325191
78	0xba02dee9	-0.00049923226
79	0xba61583d	-0.00085962174
80	0xba573b4c	-0.0008210435
81	0xba4a9822	-0.0007728358
82	0xba3fea23	-0.0007320961
83	0x3a570f49	0.0008203877
84	0xb8c47d3c	-9.369335e-05
85	0xbb31301e	-0.0027036737
86	0xba45f1bc	-0.0007550975
87	0xbacec2ae	-0.0015774572
88	0xbb84596f	-0.0040389816
89	0x3a24f686	0.00062928384
90	0x3afd772b	0.0019337883
91	0xb9f2a07f	-0.00046277416
92	0x3a7246fa	0.0009242144
93	0xb92459c6	-0.00015673702
94	0x3b906ef7	0.0044077593
95	0x3bbfff18	0.005859267
96	0xbaaccc05	-0.0013183361
97	0x3a721fcb	0.0009236305
98	0x3b7ac5a5	0.0038264778
99	0xb9ba9771	-0.00035589517
100	0xb994603c	-0.0002830046
101	0xbb9b40d2	-0.004737952
102	0xb905a8cd	-0.00012746752
103	0xbb0e0640	-0.0021671206
104	0xbbb7a89e	-0.0056048175
105	0xbb271ace	-0.0025498155
106	0xbab91c04	-0.0014122729
107	0xbb2ba5b4	-0.0026191296
108	0x3b67e93c	0.0035386821
109	0x3ab8550d	0.0014063433
110	0x3affa99b	0.0019505502
111	0x3b8a679e	0.004223778
112	0x3b7291cb	0.003701317
113	0x3b4d3cbc	0.0031316718
114	0x3b540964	0.003235423
115	0x3beb88c3	0.007187934
116	0x3bae0ee3	0.005311833
117	0xb9f6cbe9	-0.000470727
118	0xb8115d70	-3.4657714e-05
119	0x389952fb	7.311065e-05
120	0xbbf09e2e	-0.0073430752
121	0xbba928bb	-0.005162326
122	0xbb936a11	-0.004498728
123	0x3ae92bd6	0.0017789553
124	0x3b565993	0.00327072
125	0xba18f73c	-0.00058351806
126	0xbb14ad0e	-0.0022686156
127	0xbb1b799a	-0.0023723603
128	0xba8518e8	-0.0010154517
129	0x39d33146	0.00040281768
130	0x3a7f2819	0.0009733453
131	0x3af745da	0.0018865422
132	0xb854ccbd	-5.0735416e-05
133	0xbaa489d1	-0.001255328
134	0xbb3e7ede	-0.0029067318
135	0x3bcaabdd	0.0061850385
136	0x3b1b3c05	0.0023686897
137	0xba9e2ca4	-0.0012067747
138	0x3bd5c293	0.006523439
139	0x3b09d215	0.002102976
140	0x39fc11a2	0.00048078323
141	0x3b3c8fc5	0.0028772217
142	0x3acae794	0.0015480393
143	0x3b31870f	0.0027088558
144	0x3b088e98	0.0020836946
145	0x3b8b23cd	0.004246211
146	0x3b078ed8	0.0020684507
147	0x3aa75546	0.0012766502
148	0x3b4dcdd2	0.0031403196
149	0x3a5e2cec	0.0008475322
150	0x3af010f9	0.0018315605
151	0x3b5646ae	0.0032695937
152	0x3a9391d4	0.001125867
153	0x39a5e378	0.0003164073
154	0xba9d6664	-0.0012008664
155	0xbb49f324	-0.003081509
156	0x3ada5cb9	0.0016659714
157	0xbb372b31	-0.0027949328
158	0xbb84213a	-0.004032281
159	0xbab6f5f1	-0.0013958794
160	0xbb1f0d5e	-0.0024269442
161	0xbb69db6e	-0.0035683769
162	0xbc768355	-0.01504596
163	0xbc4cfd52	-0.012511568
164	0xbb9cc67a	-0.0047844024
165	0xbc6115c4	-0.0137380995
166	0xbc486ec2	-0.012233438
167	0xbb7c09c4	-0.003845797
168	0xbc4dfe3b	-0.01257282
169	0xbc25ae62	-0.010112377
170	0xbb564923	-0.0032697401
171	0xb93053f2	-0.0001681594
172	0x3939650d	0.00017680619
173	0x3a5a982a	0.0008338714
174	0x3b0e6ecc	0.002173352
175	0xb9346705	-0.00017204515
176	0x39d5ce55	0.00040780255
177	0x3a808ab0	0.0009806957
178	0xb9da460a	-0.00041632383
179	0x3aef944b	0.0018278448
180	0xba845859	-0.001009713
181	0xba71f8c7	-0.0009230491
182	0xbb4523f0	-0.0030081235
183	0xbad2d7c2	-0.0016086029
184	0xbaca13f4	-0.0015417323
185	0xbb81e82d	-0.003964445
186	0xbab5c44a	-0.0013867703
187	0xbb239d3f	-0.0024965552
188	0xbb98631b	-0.004650486
189	0x3a60b823	0.00085723604
190	0x3b3b5ee7	0.0028590502
191	0xb9252d6c	-0.00015752547
192	0xba8ff70d	-0.0010983661
193	0x3a2f0b30	0.0006677387
194	0x39a3f28f	0.00031270503
195	0xb852af9a	-5.0231443e-05
196	0x39f8d4ee	0.0004746089
197	0xb9990d67	-0.0002919242
198	0xba89e617	-0.0010520843
199	0x39d79f47	0.00041126666
200	0x3a9c6367	0.001193148
201	0x3909f342	0.00013155959
202	0x3a72cbd5	0.0009261941
203	0x3833b8d2	4.2849053e-05
204	0x3a4ae049	0.00077391096
205	0x3af361b7	0.001856855
206	0x3a41c343	0.0007391462
207	0xbb33acef	-0.002741631
208	0xbbd52d08	-0.0065056123
209	0xbc0f85ce	-0.008759929
210	0xba2f9893	-0.00066984555
211	0xba1e2f7f	-0.0006034299
212	0xbbf45c82	-0.007457317
213	0x3a18093e	0.0005799717
214	0xbb020b0e	-0.0019843015
215	0xbba4905e	-0.0050220927
216	0x3a52ba4e	0.0008038626
217	0xb8c123f3	-9.209653e-05
218	0xbb2daa09	-0.0026499054
219	0x382161c3	3.847644e-05
220	0x3a2a4959	0.0006495915
221	0xb984df4e	-0.00025343377
222	0xbb554a7d	-0.003254562
223	0xba387305	-0.0007036182
224	0x3afe9ac5	0.0019424787
225	0xbade66e3	-0.0016967918
226	0xbab47d45	-0.0013770243
227	0xbb673b5e	-0.0035283188
228	0xbac0c4c1	-0.0014707075
229	0xbacff59b	-0.0015866043
230	0x397706d3	0.00023558298
231	0xbbb8a07e	-0.0056343665
232	0xbb1173f6	-0.0022194362
233	0x39bfaef7	0.00036560718
234	0xbab50b6e	-0.001381261
235	0xbb031418	-0.002000099
236	0xbbc71955	-0.006076018
237	0xbb089c76	-0.002084521
238	0xbb47dba4	-0.0030495906
239	0xbba67eab	-0.005081018
240	0xba9a34e7	-0.0011765034
241	0xbb603471	-0.0034210945
242	0xbba420ec	-0.0050088074
243	0x3b0b23cf	0.002123106
244	0x3a82d4da	0.0009981648
245	0x39a9d06f	0.00032389487
246	0x3927a320	0.0001598713
247	0xba8b6e5c	-0.0010637748
248	0xbb51da43	-0.0032020963
249	0x3afbf03d	0.0019221377
250	0xba5a3ec2	-0.00083253917
251	0xbafeb417	-0.0019432333
252	0xbae20a81	-0.0017245562
253	0xbb6c5cb3	-0.0036065995
254	0xbbc619b9	-0.006045547
255	0xbb8c8ea0	-0.004289463

exp_avg_sq f4 [32, 1, 3, 3]
0	0x394faa71	0.00019804553
1	0x3937fcb2	0.00017546376
2	0x3958b2db	0.00020665994
3	0x391cb557	0.00014944874
4	0x394d015a	0.00019550827
5	0x398264d2	0.0002487065
6	0x3899f9e3	7.3421535e-05
7	0x3956e9db	0.00020495748
8	0x39968ebe	0.0002871658
9	0x3985e6a2	0.00025539572
10	0x39924ae0	0.00027903076
11	0x39835dcb	0.00025056148
12	0x38e25cd0	0.000107938075
13	0x3910131e	0.00013740032
14	0x38f8836a	0.00011850039
15	0x388fcc6f	6.85685e-05
16	0x38ff9b96	0.00012188328
17	0x38cf4311	9.883021e-05
18	0x39a2402c	0.0003094686
19	0x39984b9f	0.0002904804
20	0x3984bf98	0.0002531975
21	0x3976aaf3	0.00023524072
22	0x39127661	0.00013967745
23	0x38eb634f	0.00011224171
24	0x392c7d70	0.00016449927
25	0x3883489a	6.26009e-05
26	0x3874e67c	5.838879e-05
27	0x39f445a1	0.00046591184
28	0x3956e8d2	0.00020495363
29	0x38dc6310	0.00010508869
30	0x3993d42d	0.00028196108
31	0x38dbaea0	0.0001047526
32	0x39443b96	0.00018714214
33	0x38ee166d	0.000113529015
34	0x398fa876	0.000274006
35	0x3a109bfa	0.00055164064
36	0x3a06d12e	0.00051428645
37	0x39de2312	0.0004236927
38	0x39e822e0	0.00044276472
39	0x39bcaf07	0.0003598856
40	0x3969524e	0.00022251272
41	0x39aa912d	0.0003253309
42	0x398680ff	0.0002565458
43	0x3936abfc	0.00017420942
44	0x3998bb34	0.00029131176
45	0x3a091c08	0.0005230312
46	0x3996d148	0.00028766156
47	0x37df3064	2.6606205e-05
48	0x392c1f75	0.00016414917
49	0x394f7bc0	0.00019787159
50	0x38972026	7.206229e-05
51	0x37749125	1.4577327e-05
52	0x38993b3e	7.306643e-05
53	0x39137610	0.00014062994
54	0x39170496	0.0001440219
55	0x382e7f2a	4.1603264e-05
56	0x3824f8ab	3.9332237e-05
57	0x39889347	0.00026049672
58	0x3907494f	0.00012901913
59	0x39046bba	0.00012628632
60	0x3a2b4bc5	0.0006534423
61	0x39fcb3d1	0.0004819916
62	0x39e050a6	0.00042784697
63	0x3915d8ac	0.00014290464
64	0x399dca7d	0.0003009624
65	0x38d7beed	0.000102875616
66	0x39454f2b	0.00018816876
67	0x39d7846d	0.0004110666
68	0x390c1f90	0.00013363198
69	0x39b33043	0.00034177498
70	0x3a44f119	0.0007512733
71	0x398fc45c	0.00027421385
72	0x3966f48e	0.00022025613
73	0x385db544	5.2859323e-05
74	0x384d6b14	4.8975533e-05
75	0x39816a7e	0.0002468414
76	0x393364a0	0.00017108256
77	0x391e744a	0.00015111375
78	0x3977eaf4	0.00023643282
79	0x3952eaa1	0.00020114567
80	0x3974376b	0.00023290298
81	0x38e337e5	0.00010834615
82	0x38e564a1	0.000109383145
83	0x39461595	0.00018890791
84	0x393ce0d8	0.00018012838
85	0x394bda58	0.00019440928
86	0x39960a42	0.00028617872
87	0x39962d8a	0.0002864416
88	0x39a1a579	0.000308316
89	0x39a52856	0.00031501305
90	0x38b02622	8.399437e-05
91	0x38e7865d	0.000110399655
92	0x38b3cbc1	8.573337e-05
93	0x39bac5a2	0.00035623932
94	0x39af4291	0.00033428197
95	0x3991815a	0.0002775293
96	0x399c6562	0.00029830175
97	0x394c412a	0.00019479232
98	0x387869dd	5.92264e-05
99	0x38840c35	6.296524e-05
100	0x399d34c9	0.00029984702
101	0x39faaa7f	0.00047810745
102	0x38d025e9	9.925274e-05
103	0x3969dd8e	0.00022303147
104	0x39af8c98	0.00033483352
105	0x397736ad	0.00023576124
106	0x384ff3b5	4.9579616e-05
107	0x38b48c80	8.609239e-05
108	0x39cdd494	0.0003925903
109	0x3980e587	0.00024585074
110	0x387a6584	5.969919e-05
111	0x394f84bd	0.00019790507
112	0x39b1aa31	0.00033886873
113	0x395852f3	0.00020630266
114	0x385d25fe	5.272589e-05
115	0x398ff75c	0.00027459383
116	0x39ac6723	0.0003288324
117	0x38d5bc6a	0.00010191726
118	0x3982da37	0.00024958115
119	0x3995edec	0.0002859676
120	0x39981e04	0.00029014063
121	0x39d11a63	0.00039883246
122	0x39a6f127	0.0003184166
123	0x399206bf	0.00027852316
124	0x3987f9f4	0.00025935436
125	0x39053c5c	0.00012706354
126	0x39af9fb3	0.00033497586
127	0x396e9e80	0.00022756495
128	0x396a8abd	0.00022367663
129	0x396c3bd5	0.00022529003
130	0x3968e76b	0.00022211454
131	0x39b8df33	0.0003526151
132	0x3886771b	6.411803e-05
133	0x38af55d5	8.360638e-05
134	0x397c26b4	0.00024047011
135	0x39cc13c2	0.00038924633
136	0x3992028b	0.00027849185
137	0x3969eef1	0.00022309624
138	0x3998704c	0.00029075367
139	0x39451951	0.00018796815
140	0x3927cd73	0.00016002897
141	0x38f5a44b	0.00011713112
142	0x383f702d	4.564242e-05
143	0x38446ae5	4.6829595e-05
144	0x3909321f	0.0001308401
145	0x397de458	0.00024213025
146	0x39791a5b	0.00023756309
147	0x3996d208	0.00028766715
148	0x39bf2e80	0.00036465004
149	0x3985448b	0.00025418805
150	0x39a79bd2	0.00031968817
151	0x399ee9c8	0.0003031029
152	0x393374bc	0.00017114257
153	0x39618efd	0.0002151094
154	0x39cd5556	0.00039164227
155	0x3a1d7f4b	0.0006008043
156	0x39060d8b	0.00012784281
157	0x3981e16b	0.00024772747
158	0x3a00eeb3	0.00049183815
159	0x38094429	3.2726824e-05
160	0x38d20943	0.000100153055
161	0x399660a5	0.00028682235
162	0x3a55d3a1	0.00081568403
163	0x39f125b3	0.0004599519
164	0x38b2f4c9	8.533296e-05
165	0x3a4ddbcb	0.0007852881
166	0x39ddb834	0.00042289647
167	0x38a30121	7.772656e-05
168	0x3a41ed1e	0.0007397699
169	0x39e2d9c0	0.00043268315
170	0x38a06979	7.64904e-05
171	0x38ab7da2	8.177316e-05
172	0x3891576d	6.930423e-05
173	0x389f4c9d	7.595981e-05
174	0x39be8f00	0.00036346167
175	0x39bde26a	0.0003621758
176	0x39d18b63	0.00039967438
177	0x3a30ed6e	0.0006749247
178	0x3a412aa1	0.0007368718
179	0x3a4befea	0.00077795854
180	0x38111c33	3.4596957e-05
181	0x38b7ded8	8.767628e-05
182	0x39585f6b	0.00020634911
183	0x3819d828	3.6679354e-05
184	0x38df2309	0.000106399944
185	0x398128dd	0.00024635243
186	0x38d600e8	0.00010204484
187	0x3953f5dd	0.0002021412
188	0x39b8e172	0.00035263185
189	0x3a109979	0.0005516033
190	0x394aca9a	0.00019339696
191	0x3796ea98	1.7990635e-05
192	0x39849a9e	0.000252922
193	0x3906475b	0.00012805818
194	0x378b2f81	1.6592212e-05
195	0x380af60f	3.3130924e-05
196	0x3883a188	6.276654e-05
197	0x37927b79	1.7462053e-05
198	0x37812725	1.5396226e-05
199	0x37823d3e	1.5525726e-05
200	0x37a789a7	1.997205e-05
201	0x37a8fd41	2.0145091e-05
202	0x389acb68	7.3811796e-05
203	0x394e3500	0.00019665435
204	0x397e5cf1	0.00024257951
205	0x39d6eb9d	0.00040992806
206	0x3a2d4e18	0.0006611063
207	0x393a39bc	0.0001775985
208	0x39c454b2	0.00037447136
209	0x39c9440d	0.0003838841
210	0x390c1eae	0.0001336287
211	0x39bb36ee	0.00035708345
212	0x39cd639e	0.00039174868
213	0x39afdf93	0.00033545177
214	0x39f34647	0.00046400932
215	0x39cea31e	0.00039412914
216	0x39c769d9	0.000380351
217	0x39ab30b5	0.0003265195
218	0x39a04928	0.00030572084
219	0x388cffd1	6.72337e-05
220	0x385f0738	5.3174066e-05
221	0x385306c4	5.031262e-05
222	0x39c3eec9	0.00037371207
223	0x39b2196c	0.00033969746
224	0x39c0a81e	0.0003674635
225	0x39922471	0.0002787444
226	0x385f7979	5.3280473e-05
227	0x38af4609	8.357695e-05
228	0x39ce5dab	0.0003936117
229	0x394e7ad5	0.0001969145
230	0x3917556a	0.00014432301
231	0x3a0ec18d	0.00054457114
232	0x39675985	0.00022063225
233	0x38e56652	0.000109386296
234	0x382fdcbc	4.1928826e-05
235	0x390613d3	0.00012786621
236	0x394d6016	0.00019586118
237	0x38334f1f	4.2750613e-05
238	0x39126a6a	0.00013963287
239	0x395a48c8	0.00020817213
240	0x38fbaa2a	0.00012000308
241	0x39786ea9	0.00023692347
242	0x398538ec	0.00025410147
243	0x396998c5	0.00022277523
244	0x38d77775	0.000102742495
245	0x37cd3d2d	2.4466392e-05
246	0x3970d0ad	0.00022965921
247	0x391d9dd1	0.00015031478
248	0x3892075b	6.9631926e-05
249	0x3986f443	0.0002574046
250	0x398eb111	0.00027216275
251	0x39416d01	0.00018446521
252	0x38267bf3	3.969292e-05
253	0x38e86255	0.00011080938
254	0x39a232a4	0.00030936778
255	0x38dc0b6e	0.000104925464

exp_avg f4 [32]
0	0xb1bec2a1	-5.5518545e-09
1	0x31f0b144	7.005072e-09
2	0xb0bcebac	-1.3745782e-09
3	0x320fe73a	8.37627e-09
4	0xb24b1b69	-1.18223875e-08
5	0x31a3dc56	4.7689737e-09
6	0x3186526c	3.9092836e-09
7	0xb1f27479	-7.0563684e-09
8	0xb0bfe38b	-1.3961751e-09
9	0x30c7fbae	1.4550687e-09
10	0xb1e0dfee	-6.544716e-09
11	0xb1508b61	-3.0347211e-09
12	0x31dc7375	6.4159686e-09
13	0x31ae3111	5.0696447e-09
14	0xb0efdeed	-1.7452898e-09
15	0x3141bcef	2.8192593e-09
16	0xb1ae9d20	-5.0819295e-09
17	0xb09a2954	-1.1216721e-09
18	0x318adbcb	4.041316e-09
19	0xb1b2f302	-5.2081086e-09
20	0x3158f116	3.1569178e-09
21	0x3111403d	2.1136792e-09
22	0xb01a07ec	-5.603613e-10
23	0x3157e5f2	3.1417327e-09
24	0x311a29a6	2.2433624e-09
25	0x2f08c3c2	1.2438675e-10
26	0x30f941d3	1.8135843e-09
27	0xaf18d306	-1.389929e-10
28	0x31ab75d4	4.9901505e-09
29	0xb1b7d355	-5.3500266e-09
30	0xafff3bd6	-4.6426746e-10
31	0x30fbcdf3	1.8321188e-09
