CS330/XCS330-PS3/src/submission/logs/maml/omniglot.way_5.support_1.query_15.inner_steps_1.inner_lr_0.04.learn_inner_lrs_False.outer_lr_0.001.batch_size_16/state5600.pt (torch, 353132 bytes, 30 tensors)

conv0 f4 [32, 1, 3, 3]
000000 04 39 72 3e 3f 81 9d be 3f 9f f6 3c 6b 01 be 3c
       0.23654562 -0.3076267 0.030105231 0.023194036
000010 e6 3b 3a bd ae 5c 2b 3d 2f e6 99 3e e9 3d 04 3e
       -0.04546728 0.041836433 0.3005843 0.12914242
000020 cb 9e 48 3d de 94 f3 3d 6a 32 23 3e 7f 6f 6d 3e
       0.04897956 0.118936285 0.159372 0.23187064
000030 f0 f6 2e be a3 ea 13 be bc a3 7a be e1 a6 8d be
       -0.17086387 -0.14444976 -0.24476522 -0.2766638
000040 5e b9 88 bc c5 bc 3c bd 45 3f 9e 3e 07 54 b6 3d
       -0.016689952 -0.046078462 0.30907646 0.08902746
000050 e9 bd 1b 3e 05 de fd bc 16 7f 34 bc 01 52 2b be
       0.15209164 -0.030989656 -0.011016628 -0.16730501
000060 f5 83 47 bd 36 b1 ca be ed 0a da be 89 47 01 3e
       -0.04870983 -0.39588326 -0.4258646 0.12624945
000070 b7 8f 81 3c 39 cb 65 be 37 a6 bc 3d 1f 33 de be
       0.015815599 -0.22440805 0.092113905 -0.43398377
000080 4e e1 b3 bd f4 59 a6 be a0 d2 61 3c 45 d0 61 3e
       -0.08783208 -0.32490504 0.013783127 0.22052105
000090 73 e4 ed 3b cc 25 ee 3c 43 b1 c5 3d 7c 94 24 3d
       0.0072598993 0.029070757 0.096529506 0.04018067
0000a0 e4 92 4d be 0e 5d 8a 3d f4 f6 ac 3e a2 9f 10 bf
       -0.20075566 0.0675603 0.3378216 -0.5649358
0000b0 f9 39 42 3e b6 aa d4 3d 78 23 d6 3d 6c 1f 91 be
       0.18967427 0.10384123 0.10455984 -0.28344285
0000c0 3b 42 db bd 01 c6 d2 3d e4 28 3d be 63 6a 91 be
       -0.10705992 0.102916725 -0.1847263 -0.2840148
0000d0 82 80 91 be de c1 8b bc 35 4a 86 be 97 a5 b1 be
       -0.28418356 -0.017060217 -0.2622849 -0.34696648
0000e0 d0 1f 58 be 0b 87 37 be 26 36 b9 bc eb 82 1c be
       -0.21105886 -0.17922609 -0.022608828 -0.15284316
0000f0 c8 35 b6 3e cb ac 81 bd ee 30 8a bb e6 11 89 bd
       0.35587907 -0.06331786 -0.0042172587 -0.06692867
000100 25 04 38 be b3 1b 70 bd 61 99 89 bd 36 53 9b bc
       -0.17970331 -0.058620166 -0.06718708 -0.018960577
000110 dc b6 1c be 59 23 2b be 33 76 b7 3e 51 d9 6e be
       -0.1530413 -0.16712703 0.35832366 -0.23325087
000120 28 98 54 bc ff 1e df be 8a d4 61 be dc 94 a1 3e
       -0.01297573 -0.43578336 -0.22053733 0.31558883
000130 06 43 ac 3d 3c f8 7f bd d8 1d 5e be c2 04 72 3d
       0.08411221 -0.062492594 -0.21691072 0.05908657
000140 4c 3f f8 3d 97 d6 23 be 23 9e 92 be ca 9e 5a be
       0.12121448 -0.15999828 -0.28636274 -0.21349636
000150 16 9d 3e be cb cb 0e be 47 2b b8 3c 8b 8d 82 3e
       -0.18614611 -0.13944928 0.022481574 0.25498614
000160 66 21 15 3e dd db 7c 3e 5e 3f 00 be 55 c4 9a bd
       0.14563522 0.24693246 -0.12524173 -0.075569786
000170 0c 69 b2 be ea 17 ad 3d 62 08 d0 3c d0 24 a7 3e
       -0.3484577 0.08451827 0.025394622 0.32645273
000180 bd 68 31 bd 6d dd 3a bb a1 6d e0 be a7 9f 71 be
       -0.043312777 -0.0028513328 -0.4383364 -0.23596059
000190 41 d7 10 3e dc 3a 83 3c b8 c4 87 be c1 a1 80 3c
       0.14144613 0.016019277 -0.26517272 0.01570213
0001a0 2f 0f 27 3e 1d 8f f1 3d f1 00 b9 be 1c d1 85 be
       0.16314386 0.11794875 -0.3613353 -0.261361
0001b0 12 ef 24 3e 1a 5d fa bd 4c 7c c2 be f4 d8 c2 bd
       0.16106823 -0.12224789 -0.37985456 -0.09514037
0001c0 41 44 fc 3c 00 81 01 bd 2c d3 e8 be de 09 0a 3d
       0.030794265 -0.031617165 -0.4547361 0.033700816
0001d0 22 a5 94 3e 47 fc ee be 33 a3 36 3e f9 16 3e 3e
       0.29032236 -0.46676847 0.17835693 0.18563451
0001e0 19 83 38 bd 6a e2 a1 3d be 3d b2 3d 11 cc 98 bc
       -0.0450469 0.07904513 0.08703183 -0.018651994
0001f0 50 d6 cb ba 91 4b b9 be 1b 29 2c 3c be 95 10 bb
       -0.0015551541 -0.36190465 0.010507847 -0.002206191
000200 6f cc f0 bd 4f 9b e4 bb 12 f8 ca bc 68 6b d9 3d
       -0.117577426 -0.006976522 -0.024776492 0.10616189
000210 9f 97 9d be 5e 27 df be be 2a b9 3e 66 e8 22 3e
       -0.3077974 -0.43584722 0.36165422 0.15908965
000220 4c fa 70 3d 4d a0 3c bd 49 c4 f1 3d 74 4d 5c 3d
       0.05883245 -0.046051312 0.118050165 0.053784803
000230 09 dc 64 3c 03 82 98 be dc 6b c3 be e9 b2 8c be
       0.013968476 -0.2978669 -0.38168228 -0.27480248
000240 91 df 9f be 9a 10 01 be 82 a0 4e 3e aa d6 d2 bd
       -0.31225255 -0.12603989 0.20178416 -0.1029485
000250 3b 30 25 3e f6 99 26 3d bb 7d 98 3e cf 92 0a bd
       0.1613168 0.040674172 0.29783425 -0.033831414
000260 8b a1 b6 be f7 8b 7e be e7 76 0e 3e 35 40 0e 3e
       -0.35670123 -0.2485808 0.13912545 0.1389168
000270 a5 ca b1 be b5 63 c4 3d 81 d6 79 3e 2a 16 ba be
       -0.34724918 0.0958933 0.24398233 -0.36345035
000280 34 e2 d5 be 6e 62 4f be 06 0a 17 3e 6e f2 3a 3d
       -0.41774142 -0.20252392 0.14749917 0.045641355
000290 c2 f8 e3 be 6a 65 db 3d 5c 30 d3 3d d5 f9 fe be
       -0.44525725 0.107127026 0.10311958 -0.49799982
0002a0 58 d9 82 3d 45 4f 75 bc 4b 35 de be d0 7f e5 be
       0.06389111 -0.014972513 -0.43400034 -0.44824076
0002b0 be fb 0b bf 55 b7 fc be 9a 6b 9c 3a 75 59 e6 3d
       -0.54681003 -0.4935862 0.0011933923 0.11247531
0002c0 e7 18 51 3d 37 95 51 3c f6 9e 43 3e 83 4d fa 3d
       0.05104914 0.012791923 0.19103608 0.122218154
0002d0 8d d5 38 be aa 40 3f be fe f4 69 bd b0 fc 9d be
       -0.18050213 -0.18677011 -0.05711841 -0.30856848
0002e0 b6 37 d0 bb 75 4a f3 3d 15 33 ba be bd 56 02 3e
       -0.0063542975 0.11879436 -0.36367097 0.127284
0002f0 e2 c3 57 3e 67 80 07 3e d6 06 13 3b 1c c9 b8 be
       0.21070817 0.13232575 0.0022434494 -0.36090934
000300 a2 69 c0 3d e2 34 57 3d 35 32 be be 74 26 bf be
       0.09395148 0.052540667 -0.3714768 -0.37334025
000310 e0 8a 8e be 99 d7 24 be f9 48 58 be 4f 60 ae be
       -0.27840328 -0.16097869 -0.21121587 -0.34057853
000320 6a 5b af be 90 e7 93 be 94 59 3e 3c b5 ca a4 3c
       -0.3424943 -0.28887606 0.011618037 0.02011619
000330 86 51 9f be 24 89 b0 3d e4 52 ff 3d 6c 2b 94 3e
       -0.31116885 0.086199075 0.12466982 0.28939378
000340 55 28 16 3c 9c b4 8c bb 0c ae 21 bf 0b 95 19 bc
       0.009164889 -0.0042939913 -0.631562 -0.0093739135
000350 99 67 1f 3a 85 e8 91 3e af 2a 0c bb 5c b5 a2 bb
       0.0006080806 0.2849771 -0.0021387746 -0.0049654674
000360 8e b4 f3 3d 6b 41 15 3e d4 9b 06 bd 44 ae b2 be
       0.118996724 0.14575736 -0.032863453 -0.3489858
000370 1e 6f 9e be 15 93 b4 be ce e5 d5 3d 29 a9 82 bd
       -0.3094415 -0.35268465 0.104442224 -0.06379921
000380 cf 1d e0 3d 15 83 90 be 31 6e ac be 70 39 ed bd
       0.109431855 -0.28225008 -0.3367782 -0.11583221
000390 ba 87 0d 3e 67 0a d9 3c 40 97 e7 bd b1 7d 74 3e
       0.13821307 0.026494218 -0.113081455 0.23876072
0003a0 4e d1 a2 bd 94 3a 65 be 56 30 b8 be 70 40 d7 3b
       -0.07950078 -0.22385627 -0.35974377 0.006568961
0003b0 1d 07 f9 bc 1d f2 9f be 0a d5 44 bd dd 56 7c 3d
       -0.0303989 -0.31239405 -0.048054732 0.061606277
0003c0 4a 8c 06 be d8 bf cf 3d 8f 63 89 3e fc 13 47 3c
       -0.13139454 0.10144013 0.2683377 0.012150761
0003d0 76 0e d8 bd 87 f0 20 3f 8b 36 00 3e 06 20 7d bd
       -0.10549633 0.62867016 0.12520806 -0.061798118
0003e0 fc f6 f5 3d f3 ca cd bb ae 02 e7 3d f9 5b 92 3c
       0.12009999 -0.006280297 0.11279808 0.017866122
0003f0 4b 56 93 be 87 51 1c be 85 45 84 3d b6 14 2f be
       -0.28776774 -0.15265475 0.06458572 -0.17097744

b0 f4 [32]
000000 8c 49 84 bd e5 ea 18 bd 1c 0a ef 3b 7b fa b4 3c
       -0.064593405 -0.037333388 0.0072949063 0.022092095
000010 0f 39 a2 bd 83 2b 81 3d fa 5e 19 bb 3f 2a 82 3d
       -0.07921039 0.06307127 -0.0023402558 0.06355714
000020 a4 bd 75 3d d6 2b f7 bc 6a ce b2 bd 13 fd dd 3b
       0.05999531 -0.03017227 -0.087307766 0.0067745536
000030 55 aa 81 3d d5 22 16 bc 7e e6 d5 3c 2b 4d 58 bd
       0.063313164 -0.009163578 0.026110884 -0.052807968
000040 f6 ff 69 3b bd 16 47 3d 94 9e 5e bd ec 04 b4 3d
       0.0035705543 0.04860567 -0.05435045 0.08790001
000050 36 c4 93 3d c3 ce 45 bd f0 16 67 bd a6 b7 8e bc
       0.07215159 -0.048292886 -0.05641836 -0.017421555
000060 fc 10 2e 3d f7 db b7 bd d9 58 88 3b 47 ac 2f bd
       0.042496666 -0.08977502 0.004160982 -0.042888906
000070 a8 e0 88 3c 39 b6 30 3d 0d 11 a5 bd 9c 53 7c 3d
       0.016708687 0.04314253 -0.08059893 0.061603174

conv1 f4 [32, 32, 3, 3]
000000 ce 07 bf bd dc 8f 98 3c 71 0f f8 bc 7d e7 35 be
       -0.093276605 0.018623285 -0.0302808 -0.17764087
000010 70 b2 13 be 9f d8 17 be fd bd b9 bd e6 1f 9d bd
       -0.14423537 -0.14828728 -0.090694405 -0.076721
000020 16 d8 25 bd f3 42 0c 3d 90 86 29 3d 28 da 6e bd
       -0.04048928 0.034243535 0.041388094 -0.05831352
000030 04 1d a1 bd 8d 43 ba 3d b5 89 37 3d 33 6f 40 bd
       -0.078668624 0.090949155 0.044809062 -0.046981048
000040 6d c9 a9 bd 87 5e 42 3d 8a 0c 0c 3e 5b 56 3f bd
       -0.08290372 0.04745343 0.13676658 -0.046713214
000050 30 d9 b0 3d 47 e0 29 3d 0e b1 79 3d 69 6c 14 3e
       0.08635175 0.041473653 0.060959868 0.1449448
000060 22 da 83 bc 80 44 82 bd 81 19 c2 bd bb 2f ea bc
       -0.016095225 -0.063607216 -0.09477521 -0.028587213
000070 ae 71 fe bb 45 14 fd bd 10 8a b8 3d 59 5b 12 bd
       -0.0077650165 -0.12357382 0.09010708 -0.035731647
000080 7c 62 b8 bb 98 4d 7c 3d 9c 8f c7 bc 9a 75 de 3c
       -0.0056269746 0.061597437 -0.02436047 0.027155686
000090 fe 23 02 bd cb aa 92 bc 72 11 8b 3d 03 d0 e2 bd
       -0.031772606 -0.017903706 0.06790437 -0.11074831
0000a0 19 9c bc bd ef d6 2f bb 36 d5 d7 bc bc 8b 60 bd
       -0.09209461 -0.0026830991 -0.026346784 -0.05482076
0000b0 1b f1 e2 3c 3b 52 d5 3c bf 69 11 3d 42 41 d1 bd
       0.027702859 0.026040187 0.035501238 -0.10217525
0000c0 70 30 a3 3d 2a cb f9 3d 4b 05 0e 3d 41 df ca 3d
       0.07968223 0.121969536 0.034673017 0.099058636
0000d0 77 3c 5f bd 66 e3 2f b7 0d de e2 3d c0 cc d7 3a
       -0.054501023 -1.0483758e-05 0.11077509 0.0016464218
0000e0 09 10 f2 3c 38 72 77 3c 4d 37 ac 3d cf 00 e3 3d
       0.029548662 0.0151029155 0.08408985 0.110841386
0000f0 ff a2 82 bd 65 73 b6 bc 02 c7 b3 bd 53 d1 41 39
       -0.06378745 -0.022271821 -0.08778192 0.00018483894
000100 d2 85 da 3d 61 cb 7d 3d 83 7e 17 bb 84 2c bc 3d
       0.106700554 0.061961535 -0.0023116178 0.09188178
000110 57 eb 9f 3d bb ce 46 3d cc 99 90 bd cd a4 8f bd
       0.078085594 0.048536997 -0.070605844 -0.07013855
000120 c9 c8 ac bd 60 a9 a0 bd 3e c9 54 be 88 61 c2 bd
       -0.08436734 -0.07844806 -0.20779893 -0.09491259
000130 03 29 4c bd fa 51 a8 bd ff 41 69 bc 41 4a a1 bd
       -0.0498438 -0.08218761 -0.014236926 -0.07875491
000140 1e 83 30 bc dc bf 11 3b a2 2f 30 3d 9c ca 38 be
       -0.010773448 0.0022239601 0.043014176 -0.1804604
000150 9b a7 64 bc d4 ca fa bd db ab f5 bb 4e af aa 3d
       -0.013955976 -0.12245718 -0.0074972934 0.08334218
000160 d7 c9 8e 3b 1d 0f 50 bd ec 3d e3 bd 72 03 8a bc
       0.0043575573 -0.050795663 -0.11095795 -0.016847346
000170 3d 15 41 bd fe 44 17 3e ba 96 d9 3c c4 15 a8 bc
       -0.047139395 0.14772412 0.02656113 -0.020518191
000180 25 50 46 3d b4 96 c8 bd b6 74 a3 bd ff e9 9e 3c
       0.048416276 -0.09794369 -0.07981245 0.019398687
000190 d6 7c 89 3d b7 81 26 3d 3d e9 3a 3c 82 30 2a 3d
       0.06713264 0.04065105 0.011408147 0.041550167
0001a0 97 b0 1d b9 d6 2e 8a bd 81 ae 02 be 75 41 2b bd
       -0.00015038472 -0.067472145 -0.1276188 -0.04181047
0001b0 6c 4a bd bd 18 f0 2d bd fc c6 00 be 72 3c b2 bc
       -0.092427105 -0.0424653 -0.12575907 -0.021757338
0001c0 77 a1 be bd b5 73 ef 3d df a9 08 be 35 58 a0 bd
       -0.09308141 0.11691991 -0.1334605 -0.07829324
0001d0 13 41 0a be 1b 7f 00 bd b3 a9 9f bd 63 d7 51 bd
       -0.13501386 -0.031371217 -0.077960394 -0.0512308
0001e0 59 c3 e3 3c 12 68 02 bd 6b 2c 11 3d 43 b2 90 3c
       0.02780311 -0.03183753 0.03544275 0.017663127
0001f0 38 d6 26 be bc 78 22 bd 78 8e 82 ba f1 91 3a be
       -0.16292655 -0.039665923 -0.0009960672 -0.18219735
000200 5c 89 79 3c 04 54 95 bd d1 71 2d be 95 b3 33 bd
       0.015230503 -0.07291415 -0.16937949 -0.043872435
000210 63 8f df bd e6 4d 8e bc 62 be 1a bd d9 54 73 bd
       -0.10916021 -0.01737113 -0.03777922 -0.05940709
000220 6a 0f 0e 3c f4 b4 82 3d e1 e4 f1 3c d3 47 49 3c
       0.008670667 0.0638217 0.029528083 0.012285191
000230 46 29 41 bd e4 f3 79 bd 41 59 12 bd 7c 17 73 3b
       -0.047158502 -0.061023608 -0.03572965 0.0037092855
000240 e5 be ba bd 42 9a 4c bd a9 b3 33 3b 11 71 97 bd
       -0.091184415 -0.0499518 0.0027420318 -0.073946126
000250 8f b0 33 3d 5f af 81 3d 94 e3 51 bd 93 4d c4 bd
       0.04386955 0.063322775 -0.051242426 -0.095851086
000260 cb 7f 5f bb 1f 29 db 3d 95 01 e5 3d cf fc 81 3d
       -0.003410327 0.107012026 0.111819424 0.063470475
000270 45 3b 83 3c 39 f0 c3 bc 7e e6 16 3e f0 c6 6a bb
       0.016019473 -0.023918258 0.14736363 -0.0035824142
000280 b0 8b d7 bd 4b 73 31 be a0 0a ee bc a3 71 ba bb
       -0.1052469 -0.17329137 -0.0290578 -0.005689816
000290 f9 8a f7 bd f4 58 ff 3b 21 e6 b8 bb 04 3e 1e 3d
       -0.12087054 0.0077925865 -0.005642668 0.03863336
0002a0 a4 16 b3 3d 6d 39 35 bd de 1c dd 3d 63 39 a7 3d
       0.08744553 -0.04424422 0.107965216 0.081652425
0002b0 dc 8e fa bc c0 fa 3d bc e8 eb 3d 3e 7b 2e 8d bd
       -0.030585699 -0.011595428 0.18547022 -0.06893631
0002c0 e5 06 81 bd 1f fe 09 3d 0e be e5 3b 1e 77 e6 bd
       -0.06300143 0.033689614 0.0070111817 -0.112531886
0002d0 5b 92 8a bd c7 aa 0c be b4 56 a7 bd 42 e8 3c bd
       -0.06766196 -0.13737021 -0.08170834 -0.046119936
0002e0 13 7e 2b 3d dd e7 0f be 6b e5 62 bc 84 dd 38 3c
       0.04186828 -0.14053293 -0.013848643 0.011283282
0002f0 07 f4 fa bd 65 c0 e9 bb b8 ff 16 bd 75 18 9a bc
       -0.12253576 -0.007133531 -0.036864966 -0.01881049
000300 fe 39 fb 3c 80 4f e2 3d cd 76 12 3e 6e ee de 3d
       0.030667301 0.1105032 0.14303131 0.108853206
000310 e5 00 6a bd 54 02 91 bd 26 ef 03 3d 07 e8 8b 3d
       -0.05712976 -0.07080522 0.03221049 0.06831365
000320 4e 9f e7 3c ca 63 53 3d 48 7d 51 3e e1 51 e8 3d
       0.028274205 0.05160884 0.20457947 0.11343742
000330 1a 3d a6 3d 73 8d 0e be d9 fc 42 be 58 4c f8 bb
       0.08117123 -0.13921146 -0.19041766 -0.0075774603
000340 f3 48 16 3b 33 96 88 bb ed 64 fc 3c 20 12 13 bd
       0.0022931665 -0.0041682958 0.030809844 -0.035905957
000350 43 56 ba bd f2 ac 02 be 61 a4 06 bd d7 9a 4b bc
       -0.09098484 -0.12761286 -0.032871608 -0.012427053
000360 c3 f3 91 bc df 53 18 3c 7b 80 8a bd 21 29 7f 3d
       -0.01781643 0.00929734 -0.06762787 0.062295083
000370 5d a0 8c 3d 9d d9 63 bd 56 5e 89 3d 19 0d 48 bd
       0.06866524 -0.055627454 0.06707446 -0.048840616
000380 4f 13 0a be bb 1a 04 3d 5b b1 a0 3d 50 86 65 bd
       -0.13483928 0.032252055 0.07846328 -0.056036294
000390 af 45 7b 3d b1 96 d0 bc 02 d7 9e 3d 06 13 58 bc
       0.061345752 -0.02546248 0.07755853 -0.013188129
0003a0 be b7 f5 3c 9b 64 ae bd 18 8b 9e bc 0c 13 8d bd
       0.029994842 -0.08515283 -0.019353434 -0.068883985
0003b0 38 06 64 3c 86 09 40 3c 16 aa 0e bd 3b 1f 11 be
       0.013917498 0.011721021 -0.034830175 -0.1417207
0003c0 f9 51 1b be 65 dd ef bd 97 66 ea bd c5 33 ac bc
       -0.15167989 -0.117121495 -0.11445349 -0.02102078
0003d0 82 78 74 3d 7e 6c 72 3d 9d ef 1b 3d 30 46 86 bd
       0.059685238 0.059185497 0.03807031 -0.06556356
0003e0 ef a7 0f 3c 69 af 04 bd de 3f 6c bd 54 70 3f bb
       0.008768066 -0.032393847 -0.057678096 -0.002921124
0003f0 c1 23 60 3c 92 50 66 bd 7e 33 9e 3d a8 fe b6 3d
       0.013680399 -0.05622918 0.07724665 0.089352906

b1 f4 [32]
000000 72 20 8e 3d dd 8d 77 3d 13 4e a7 3d a1 b8 7c bc
       0.06939782 0.060438026 0.08169188 -0.015424878
000010 98 d4 9d 3d 47 cb 1f bd 7a 0b 5c 3c 78 25 3b 3d
       0.07706565 -0.03901222 0.013430471 0.04569003
000020 8e cf 05 3c ee ab 9e 3d 6d 63 5a 3c 88 01 42 3c
       0.008167161 0.07747637 0.013329369 0.011841185
000030 43 66 e4 bb db d4 b5 bc 48 62 e9 bd 30 12 97 bc
       -0.0069701984 -0.022196224 -0.11395699 -0.01844129
000040 5c 1c d3 3e 4e 95 c8 3c ed 05 5c 3e 47 7a aa ba
       0.41232574 0.024485257 0.21486636 -0.0013006412
000050 16 b0 05 3d 1d 25 16 bc 0d d2 99 3d c1 a3 2c 3d
       0.03263863 -0.009164122 0.07510767 0.042148355
000060 41 bf c7 bc 22 92 a9 3a d3 a1 c9 3c 57 b8 f6 bc
       -0.02438319 0.0012937228 0.024613297 -0.030117197
000070 84 0b d4 3c 9c 56 22 bd d3 25 bb 3d 81 62 42 3d
       0.025884397 -0.03963338 0.09138074 0.047457222

conv2 f4 [32, 32, 3, 3]
000000 55 4b 7d 3d 75 f0 cc 3d 1f 66 ec 3c 2f 09 b0 3c
       0.06183942 0.10006801 0.028857289 0.021488754
000010 89 4b 70 bd 9b 53 44 3d 8f 02 68 be 00 3e b1 bb
       -0.058665786 0.047931295 -0.22657226 -0.0054090023
000020 72 2a c9 bd cc 31 00 3c 90 22 be bd 78 db a5 bd
       -0.09822549 0.0078243725 -0.09283936 -0.08098501
000030 33 f3 fb 3c 39 bd 04 3d fb f4 40 bc 92 19 f5 bb
       0.030755615 0.03240702 -0.011777158 -0.007479855
000040 cd 8a 97 3d 11 25 50 bd 40 24 10 3e 23 02 c2 3d
       0.07399521 -0.0508166 0.14076328 0.09473064
000050 4c 31 46 3d 7a 22 4f 3c 79 9d 80 3d 26 c8 66 3d
       0.048386857 0.012642497 0.062800355 0.05634322
000060 f0 89 e7 3c f7 96 c0 3d 28 d5 73 bc aa d6 3a 3e
       0.028264016 0.09403794 -0.014882363 0.1824595
000070 e7 c6 21 3e dd 11 86 bb 93 69 dc 3d 40 d9 ae 3b
       0.15798531 -0.004091485 0.10762324 0.005335957
000080 c2 db 13 bd 90 f7 0d bd 9c f2 d6 3d 20 24 00 bb
       -0.03609825 -0.034659922 0.10495493 -0.0019552782
000090 b3 78 21 bd 88 b3 35 3d a5 bb 1c bd 63 cd 3c bd
       -0.03942175 0.044360667 -0.03826489 -0.04609431
0000a0 25 1c 84 3c 82 88 b4 3b 4b c8 99 3b fd ce d8 bc
       0.016126702 0.005509437 0.0046930662 -0.026465887
0000b0 09 00 53 3d 23 3b 0a bd 72 47 ce bd 96 bd b8 3d
       0.051513705 -0.033747803 -0.10072221 0.09020536
0000c0 ac ce a4 bc b1 b3 2e bc bc cc 93 3d 08 95 83 bd
       -0.02011808 -0.010662959 0.07216784 -0.0642491
0000d0 80 2d ae bd 6c f1 51 bc 4e ad b1 3c 08 d1 ba 3d
       -0.08504772 -0.012813907 0.021689083 0.09121901
0000e0 e8 6b 8d bc a0 cd f8 bb 04 55 5c 3d 25 85 eb bb
       -0.017263368 -0.007592872 0.053792015 -0.007187503
0000f0 5f ba 96 3b 32 31 88 bd 71 8d 28 3d ce 38 df bb
       0.004599854 -0.06650008 0.041150514 -0.0068121916
000100 b5 6e 34 ba f8 4a 9c bd 25 e3 5d bd 18 eb 02 bd
       -0.0006882952 -0.07631487 -0.0541717 -0.031962484
000110 16 0a cb 3c 61 b9 79 bd 26 e7 63 bd 5e c5 44 bd
       0.024785083 -0.060967807 -0.055640362 -0.048039787
000120 74 1a b5 bc 1b 87 8a bd 44 73 4f bd ec 54 83 3d
       -0.02210734 -0.067640506 -0.050647035 0.06412682
000130 fb 90 bb 3a a6 65 76 bd 21 eb 99 3c d9 e5 ea 3d
       0.0014310175 -0.060155533 0.018788876 0.11469621
000140 50 cb 37 bd 42 cb e6 bc 11 d1 b2 bc 1f a4 9f bd
       -0.04487163 -0.028173093 -0.021828206 -0.077949755
000150 1e 29 d1 bc 3e 5e bf bd df cc 83 3d 1a 1b b6 3d
       -0.025532302 -0.09344147 0.064355604 0.08891888
000160 0d 3e a2 3c b0 63 0c bc e2 80 c6 bd a8 f7 c5 bc
       0.019804979 -0.008568689 -0.09692551 -0.024165943
000170 3c 1a 42 bd 56 86 39 bd 6e db d7 3c 1f b1 68 bc
       -0.0473883 -0.04529413 0.02634975 -0.014202385
000180 c3 2f 93 3d 44 bf 92 bc db 99 41 bd c7 31 8d 3c
       0.07186844 -0.017913468 -0.04726587 0.01723565
000190 2d 30 95 bc 0f ee 88 bd fd 55 03 3d 4a 84 05 3c
       -0.018211449 -0.06686031 0.032064427 0.008149216
0001a0 0e 14 cc 3c 9d e7 ab 3c 74 c3 0e 3d 43 d3 1b 3d
       0.024911907 0.020984465 0.034854367 0.03804327
0001b0 36 09 e8 bd 68 d5 6a bd c0 fc dd 3d 92 82 18 3d
       -0.11329882 -0.057332426 0.10839224 0.037233897
0001c0 be f5 c3 bc 87 81 8d 3d 4a 40 81 3d 4d 3f a5 bc
       -0.02392089 0.06909471 0.0631109 -0.020171786
0001d0 69 92 1e 3e cc 29 b2 bd ef dc 02 3d f4 d1 98 bc
       0.15485539 -0.08699378 0.03194898 -0.018654801
0001e0 59 09 fc 3c 69 da 82 3d 40 11 b5 bb 37 0b d9 bc
       0.030766176 0.06389315 -0.005525738 -0.026494605
0001f0 c9 d3 58 bd 55 41 62 bc 01 e5 a9 3d 6f 54 3a 3d
       -0.05293635 -0.013809522 0.08295632 0.04549068
000200 92 98 f2 3c ce 71 bb 3c f1 a0 13 bd 23 93 26 bd
       0.029613767 0.022881415 -0.036042158 -0.040667664
000210 09 cc f8 3a ea 69 21 3d 9f c2 93 3d 93 89 54 bd
       0.0018981706 0.03940765 0.072148554 -0.051889013
000220 ee 0a df 3a 8c 3a 4d 3d c8 4f 05 3d f1 da 26 bd
       0.0017016807 0.050104663 0.03254679 -0.040736143
000230 76 97 b8 3d a2 d3 c8 bd 91 ad 8c 3d fa 75 0e 3e
       0.09013264 -0.09805991 0.06869043 0.13912192
000240 70 6b e5 bc 37 80 e1 3c 48 56 0e 3d f7 b7 aa 3c
       -0.028005332 0.027526958 0.034750253 0.020839674
000250 67 74 c7 bb f2 6d 2a bd 29 a9 62 bd ea 60 97 3d
       -0.0060868743 -0.04160876 -0.055337105 0.07391532
000260 f4 a6 02 bd 23 32 95 bb 7f 28 8f 3d da 3f a6 bd
       -0.0318975 -0.004553096 0.06990146 -0.081176475
000270 cb cf 46 3d 68 e9 c4 3c 4a 11 ee 3b 42 b3 bc bd
       0.04853801 0.024037078 0.0072652446 -0.09213878
000280 96 ef 08 bd 60 b9 ac bd a0 a1 82 bb 19 21 06 3d
       -0.033431612 -0.08433795 -0.0039865524 0.032746408
000290 31 20 40 3d 70 00 90 bd 47 8e 93 3c 06 3a 1c 3d
       0.0469057 -0.070313334 0.018012179 0.038141273
0002a0 79 75 08 3d c7 f2 59 bd 56 72 af 3d a7 28 7c bd
       0.033315156 -0.053210046 0.0856673 -0.061562207
0002b0 8c ce 0e bb 8b 76 e2 bd 4b da 77 3d 2a 0d 77 bc
       -0.0021790592 -0.110577665 0.060510915 -0.015078822
0002c0 04 aa ef 3c 82 5f d9 3b 5e 94 d1 3b 94 70 8c bc
       0.029255874 0.0066337 0.0063958606 -0.017143525
0002d0 f5 ec b9 3d cd 92 1d 3e f8 75 93 3d 4c 82 d0 3d
       0.09078399 0.15388031 0.07200235 0.10181102
0002e0 77 10 aa 3b 6b 89 c5 bd 6e 8a 01 bd 96 a2 95 3d
       0.005189951 -0.09645351 -0.031626157 0.073064014
0002f0 84 de 07 bd cb 82 a3 bd 92 f3 f3 bd 7b 0c 2e be
       -0.03317119 -0.07983931 -0.11911692 -0.16996948
000300 4a 72 4a 3c 4f ab 8e bc c0 cd ac bd e7 4a 30 bd
       0.01235635 -0.01741567 -0.08437681 -0.043040182
000310 5f c8 82 3c 66 c5 2a bc 98 34 d6 3c 8f fe 99 3d
       0.015964685 -0.01042304 0.026148126 0.07519256
000320 07 8b 4d 3d 14 6c cb 3d f7 d8 3d 3d 55 f8 61 bc
       0.050181415 0.09932724 0.046349492 -0.013792117
000330 f1 e4 82 bc 75 02 5c 3c 84 40 53 bd 4c c7 88 3d
       -0.015978308 0.01342832 -0.0515752 0.06678638
000340 3c 02 67 3d 46 46 16 3d 06 74 94 bd 98 0c 40 bd
       0.056398615 0.03668811 -0.07248692 -0.04688701
000350 e7 0e 33 3d 0b 22 2a 3e 4a 8a d4 3d 4a c3 86 bc
       0.043715384 0.16614549 0.10377939 -0.016450543
000360 3f f8 44 bd c0 3d f4 3c 09 5e ba bd 66 3a e3 3c
       -0.04808831 0.029814601 -0.09099967 0.027737807
000370 95 34 08 3b a7 ca ae 3c f3 3c 6b ba 49 70 50 bd
       0.0020783294 0.021336867 -0.0008973621 -0.050888333
000380 1f 40 5f bd 6d df 74 3c 7c 2d 01 3d c3 aa 58 bd
       -0.05450451 0.014945847 0.031537518 -0.052897226
000390 ed f6 b6 3d a4 5b fa 3c 90 65 9b bc 98 a9 c3 3d
       0.08933816 0.030561276 -0.018969327 0.09553832
0003a0 c9 6c 5c bd fa bb 9b 3d 10 92 fc bc cf a2 ba 3c
       -0.053814683 0.07604213 -0.030831367 0.022782711
0003b0 9c 84 0c 3e a6 cd a8 3d fe 9c 06 bc fc db e7 3c
       0.13722461 0.08242349 -0.008216141 0.028303139
0003c0 a4 51 aa 3d 81 ae f9 3b 13 44 08 3e 09 7c 5e bc
       0.08316353 0.0076196794 0.13307218 -0.013579377
0003d0 8a 1f da bd 83 22 56 bd 76 74 c1 3d 7d 96 f7 bb
       -0.10650547 -0.052279007 0.09446041 -0.0075557814
0003e0 db 3a 32 bd f2 1a 83 3d c5 5f be bd 72 3e 0a 3d
       -0.04351316 0.06401624 -0.0929561 0.03375096
0003f0 76 f4 a1 3d 82 fb 89 bb 7b 55 38 bd 2b b9 8f 3d
       0.07907955 -0.0042108903 -0.045003396 0.0701774

b2 f4 [32]
000000 cb 35 a6 3c c4 1f b2 3c fc 82 5d 3c cf f9 03 bd
       0.020289322 0.021743663 0.013519999 -0.032220658
000010 82 d2 0d bd 80 1e 4c bc 36 04 15 3d e4 aa 81 bd
       -0.034624584 -0.012458444 0.03638097 -0.06331423
000020 a6 e9 61 3d 0f 63 b8 bd c9 1b 76 3b ed ed 6c bd
       0.055154465 -0.09003269 0.0037553182 -0.05784409
000030 84 3a 92 bc f1 2a 29 bd b6 d6 1d 3d 4f b0 a6 bd
       -0.017850168 -0.041300718 0.038534842 -0.08139097
000040 8e 60 28 3c 54 8f 87 3d 7a b8 32 be 1e 47 8c bd
       0.010276927 0.066191345 -0.17453185 -0.06849502
000050 0f 2e a5 bd 06 04 f1 3d e9 bd d2 bb e0 1b cd 3c
       -0.080654256 0.117683455 -0.0064313305 0.025037706
000060 e3 fd 42 bd 20 20 f5 3c d4 24 36 3c a1 87 b8 3b
       -0.047605406 0.029922545 0.011117179 0.0056314026
000070 95 e4 9f bc a8 5d a6 bc 84 f0 43 3b 82 62 0f bc
       -0.019518176 -0.02030833 0.0029897997 -0.008751513

conv3 f4 [32, 32, 3, 3]
000000 8a f0 07 3d e9 eb c9 3c fa bb 6b bd 00 35 73 3d
       0.03318838 0.024648624 -0.057552315 0.059376717
000010 57 53 cd bc 4e 33 d2 bc 5d cd 46 bd 61 ec 7b bb
       -0.025064154 -0.02565923 -0.048535693 -0.0038440453
000020 70 9a a3 bc 8c c5 87 3c 79 72 53 3b c1 ed 89 bd
       -0.019971102 0.01657369 0.0032264276 -0.06734801
000030 d7 d1 2e 3c 92 50 87 3d ac ec 39 3b 0b 9f aa 3d
       0.010670147 0.066071644 0.0028369827 0.08331116
000040 dc 85 9b 3d 01 04 84 3d 0a ea 26 3d 22 96 a7 bb
       0.07593891 0.06446076 0.04075054 -0.005114333
000050 73 67 15 3e c1 1a cf b9 db 71 82 3c e3 3e a4 3c
       0.14590244 -0.0003950205 0.015923431 0.020049518
000060 50 9a b8 bc 75 1a a5 3c 84 55 5b bd 86 14 db 3d
       -0.02253452 0.020154217 -0.05354835 0.10697274
000070 7c e6 eb 3c 22 7f e3 3d 00 b3 94 3d d8 8e d6 3b
       0.028796427 0.11108233 0.07260704 0.00654779
000080 08 cd 44 ba 8d 22 03 3d 93 bb dd 3d f6 43 2d 3d
       -0.00075073587 0.032015372 0.108267926 0.04230114
000090 a1 40 bf 3c 4c 39 ac bd 1b ba 81 bd c8 1c d5 bd
       0.023346247 -0.08409366 -0.06334325 -0.1040588
0000a0 d7 0b 9f bd 5a 9a 98 3c cd 30 35 bd ee e8 d4 bd
       -0.0776593 0.018628288 -0.044235993 -0.1039599
0000b0 2e 65 87 bd 0e 79 a0 bc fd d0 ac bc 4d 91 68 3d
       -0.06611095 -0.019588973 -0.021095747 0.056779195
0000c0 3b c2 39 bd bb 8e 48 bb bf 33 68 bd 74 ce fa bb
       -0.04535125 -0.0030602652 -0.056689974 -0.0076540057
0000d0 e0 1c 28 bd bf 9f 4a 3b 20 30 42 3e c6 71 f0 3d
       -0.041043162 0.003091797 0.1896367 0.117404506
0000e0 bb 2e 37 3e 0c a0 3c 3d 6f b3 d3 bc ad 0f c3 3d
       0.1788892 0.04605107 -0.025842397 0.09524474
0000f0 f8 82 67 3e 3b d3 0b 3e fa c8 0b 3e 1d 46 94 bd
       0.22608554 0.13654797 0.13650885 -0.072399355
000100 76 cd 5b 3c 9a ab 82 3d 4c 7b a1 bc a6 24 08 3b
       0.013415685 0.06380387 -0.019712113 0.0020773797
000110 96 2f 81 3d fe 68 38 3d 1c 6d 10 3c 13 4c e1 3c
       0.063079044 0.045022003 0.008815076 0.027502095
000120 3b c3 71 3c ad 91 bb 3c a9 fc 08 3b 92 3c 0d bd
       0.014756019 0.022896612 0.002090255 -0.034481592
000130 17 06 fa bb 44 0f 32 3d 45 ad cb 3d 1e e5 8c 3c
       -0.0076301205 0.04347159 0.09945158 0.017199095
000140 96 93 64 3b 7f 2a 9c 3e 03 a1 ca 3d 3b f5 9d 3e
       0.0034878007 0.30501172 0.09893992 0.30851158
000150 0c 4d 2f 3e 6a 37 e5 3d d7 aa 98 3d 8c 8c 4e 3e
       0.17119235 0.1119221 0.0745446 0.20170802
000160 54 b7 59 3e b2 c3 66 3e 01 ce 2f bd 97 52 cb bc
       0.2126134 0.2253559 -0.04292107 -0.024819655
000170 2d f6 41 bd 3d 15 76 3c 89 89 84 bb b7 6c 5e bd
       -0.047353912 0.015019712 -0.004044716 -0.054302897
000180 32 f5 c5 bd 9e f5 af bc b8 a4 02 be 38 9c f8 bd
       -0.09665908 -0.021479424 -0.12758148 -0.12139171
000190 7f f8 87 bd d2 d0 c1 bd b3 ff 81 bc 52 44 fb bc
       -0.06639194 -0.094636574 -0.015868997 -0.030672226
0001a0 2b b7 ca bc af ed 0e be f7 85 88 bc 0d 19 09 be
       -0.024745544 -0.13957857 -0.016665442 -0.13388462
0001b0 55 bb 3b 3c 76 b1 51 3c 5b 06 7e bd 74 28 ad bd
       0.011458238 0.012798658 -0.06201778 -0.084549814
0001c0 4c 15 83 bd 32 43 a8 3c ba f6 46 bd 8c 00 bc 3b
       -0.064005464 0.020539854 -0.04857514 0.00573737
0001d0 a2 ae c8 3c ee 90 7d bc 7e 75 5b 3d 2d ed 21 3d
       0.024497334 -0.015476448 0.053578846 0.03953283
0001e0 21 d2 69 3b 09 c6 be 3d bb 31 e2 bc 48 fe 67 bd
       0.0035678225 0.09315116 -0.027611604 -0.056638986
0001f0 8e 60 33 3d eb 32 a9 bc ad 1c 62 3c 40 75 5a 3c
       0.043793254 -0.020654162 0.013800782 0.013333619
000200 52 7b ac 3d d2 ad 3c bd b5 8a 7a ba a5 a0 1e 3c
       0.08421959 -0.046064205 -0.0009557412 0.009681855
000210 ad a8 1b 3d ed 0f d0 3c c3 1a a4 3d ba 6f 1b 3d
       0.03800266 0.025398219 0.08012917 0.037948348
000220 94 32 20 3c 8d 53 0b bd fb b1 92 3d 74 f9 65 3c
       0.009777684 -0.034015227 0.07162853 0.014036525
000230 a6 0a 84 3c 2b 02 ec 3c 59 68 c8 bc c8 60 92 bd
       0.016118359 0.028809628 -0.02446382 -0.07147366
000240 12 d9 25 3d 6a 60 e4 bd d1 b8 30 bc ef e0 97 bc
       0.040490218 -0.11151202 -0.010786251 -0.018539874
000250 1b d8 7f bc 09 0d 1f bb 0f ac 55 3d 27 fd f4 3c
       -0.015615488 -0.0024269244 0.05216604 0.029905869
000260 36 69 6d 3d a2 cc ed bd 0b 52 01 bc f0 80 c1 bd
       0.057961665 -0.11611296 -0.007893096 -0.09448421
000270 b9 6b 06 3d d7 8e 14 3d 72 9d a6 bc 9e ab 1b be
       0.032817576 0.036269035 -0.020338748 -0.15202186
000280 ca 3a 03 bc d0 3c e9 bd 7c cd 65 be f6 71 2f bd
       -0.008009622 -0.11388552 -0.22441667 -0.04283329
000290 7f b6 71 be 24 9e ee bd f4 c5 a9 3c af 7a 1e be
       -0.23604773 -0.11651257 0.020724274 -0.15476488
0002a0 27 be 65 be 0c ef 39 bd 17 c2 44 be 05 ce 14 3e
       -0.22435819 -0.04539399 -0.19214664 0.14531715
0002b0 b4 18 b2 3d ab 9e 0a 3e dd a8 2b 3e f3 6c 9f 3d
       0.08696118 0.1353709 0.16763635 0.07784452
0002c0 a7 8e 0f 3e d2 f7 22 3e 4a 23 b9 3d 45 b6 2a 3e
       0.14019261 0.15914848 0.09039934 0.16671093
0002d0 f8 c3 e2 bc 00 e8 ae 3b 6e 12 0e bd 7a 22 ec 3b
       -0.027681336 0.005337715 -0.034685545 0.0072062584
0002e0 82 77 b8 bd b1 e1 6e 3c 3c 2f d6 bc 60 8c 4c bd
       -0.09007169 0.014580176 -0.02614557 -0.04993856
0002f0 fa f4 df bc 8d 60 58 bc fd 5f 11 3b 5b be 2c 3d
       -0.027338494 -0.013206613 0.0022182458 0.042173725
000300 40 fc 4c 3d 5f b9 cf 3c 1d 55 6a 3d 34 a6 2c 3d
       0.05004525 0.025356947 0.057210077 0.04215069
000310 64 ff 41 3d db 78 8c 3c ab 45 a3 bd c1 8d a9 bd
       0.0473627 0.017147472 -0.079722725 -0.082789905
000320 86 09 77 bd 75 61 83 3c 81 c1 a6 3c 1f 5c bf bd
       -0.060311817 0.016037682 0.020355942 -0.093437426
000330 1c d8 31 bd 40 78 73 bd 58 98 28 bc d5 d0 30 3d
       -0.04341899 -0.05944085 -0.010290228 0.043167908
000340 e4 89 27 3d 2d 0a 3b 3d ae 82 a4 bc 35 0e 4b bd
       0.040902987 0.045664 -0.020081844 -0.049574096
000350 42 e1 87 bc 89 57 83 3d 23 96 52 3d 7b 86 79 bc
       -0.016586903 0.064131804 0.051412713 -0.015229817
000360 57 9b 6c 3d 67 b4 bb 3b 3b 0a e7 3c 39 97 a8 bd
       0.05776533 0.0057282927 0.02820312 -0.082319684
000370 a2 fb 9a 3d bd 57 70 3c bc 57 c1 bc a9 00 aa 3d
       0.075675264 0.014669356 -0.023601405 0.08300907
000380 39 ac 9e 3c 97 84 89 bd cf 96 12 bc 0c 74 23 bd
       0.019369232 -0.06714743 -0.008947088 -0.039905593
000390 a5 73 f6 bb a5 23 3f bd e2 2a d2 3c 0a d6 8a bd
       -0.00752111 -0.046664853 0.025655214 -0.06779106
0003a0 b2 0e 96 bd ba 44 b0 bd 95 3a 3b 3d 7d 75 ba 3c
       -0.07327022 -0.086068586 0.045710165 0.0227611
0003b0 fe 48 1f 3e 9e a2 b0 3d 86 60 4f 3d f0 ee 5c 3d
       0.15555188 0.08624767 0.05062916 0.053938806
0003c0 5a 7e 5d 3c ab 9f 5c 3d 4e c7 f9 39 36 3c b2 bd
       0.013518894 0.05386321 0.00047641475 -0.087028906
0003d0 f8 20 d4 bd b3 61 0b be b4 80 d6 bd d3 b6 ba 3d
       -0.10357851 -0.13611488 -0.10473767 0.09116902
0003e0 ad 56 01 be b1 83 19 be d9 19 95 bd d4 16 dc bd
       -0.1263072 -0.14991643 -0.07280321 -0.107465416
0003f0 ce e7 db bc f2 23 69 3d 5a c6 7c bc 95 cc 81 3d
       -0.026843932 0.056919046 -0.01542815 0.06337849

b3 f4 [32]
000000 f1 df 8e 3e 16 a1 bb 3e 30 ca ff 3e 0c 79 62 3f
       0.2790523 0.36646336 0.49958944 0.8846595
000010 71 30 d7 3e c3 a6 d2 3e ee a8 ad 3e 97 6b 02 3f
       0.42029145 0.41142854 0.33917946 0.5094542
000020 27 74 d5 3e 40 73 3c 3f 0c 44 1d 3f e4 19 d7 3e
       0.4169018 0.7361336 0.61431956 0.4201194
000030 e9 a0 c7 3e 90 8a bf 3e 0d 5e 29 3f a0 df ce 3e
       0.38989952 0.37410402 0.66159135 0.40404987
000040 5e e4 02 3f 13 e7 ce 3e c2 94 83 3e 4d de 1f 3f
       0.5112971 0.4041067 0.2569943 0.6244858
000050 2d b5 c9 3e 57 73 c9 3e f1 df c0 3e 56 1a 02 3f
       0.3939604 0.3934581 0.37670854 0.50821435
000060 ca 20 07 3f 98 c4 24 3f fc 98 5b 3e b4 03 5c 3f
       0.5278441 0.6436248 0.21445078 0.8594315
000070 ef 56 f1 3e 3d e6 19 3f b3 52 17 3f e4 8b 13 3f
       0.47136638 0.6011694 0.59110564 0.5763533

w4 f4 [5, 32]
000000 c6 b6 e5 3f 0a 58 e5 bf 56 b7 61 3f b0 0a b2 bf
       1.7946403 -1.7917492 0.88170373 -1.3909512
000010 44 a5 d0 bf 72 47 7f bf 68 07 fc bf 3a e4 8f be
       -1.6300435 -0.9971839 -1.968976 -0.2810381
000020 05 8e e8 bf 64 dd ad bf b5 c5 3d bf 02 ef fa bf
       -1.8168341 -1.3583188 -0.741298 -1.9604189
000030 cf 41 0c 40 3c a3 c9 bf 2b 10 db be a4 6d 33 3f
       2.1915166 -1.575294 -0.42785773 0.70089173
000040 e6 fa 17 40 0b 57 82 be 09 1b d0 3f 65 ed b2 bf
       2.3746886 -0.25457034 1.625825 -1.3978697
000050 25 94 08 40 7c 13 4f bf 04 97 0e bf a5 b3 b0 bf
       2.134042 -0.80889106 -0.5569918 -1.3804823
000060 67 9a 1a 40 a8 14 44 3e f0 13 a1 3f 0f e0 1a 40
       2.415674 0.19148505 1.258421 2.4199255
000070 2d 01 fa bf 88 d1 9d bf cc 9d c7 bf 38 b0 35 3e
       -1.9531609 -1.2329569 -1.5595031 0.17743003
000080 80 2d f0 3e 19 e1 df bf fc f7 98 bf 99 21 27 40
       0.46909714 -1.7490569 -1.1950679 2.6114256
000090 ad 1e 9a 3f bd 5c f5 bf cf 21 06 3e 04 c1 20 40
       1.2040612 -1.9168926 0.13098834 2.5117807
0000a0 f3 ae 16 bf 39 5e ac bf 92 a0 b7 bf 4e 93 0e 40
       -0.588607 -1.3466254 -1.4345877 2.2277408
0000b0 0d 84 86 3f 30 87 ea bf a0 d9 31 bf 5e 79 bf bf
       1.0509049 -1.8322506 -0.69472694 -1.4958913
0000c0 6a a4 e7 bf 4f ea fb bf 13 07 04 c0 b5 77 c7 bc
       -1.809705 -1.968088 -2.0629318 -0.024349073
0000d0 9b e8 bd bf 87 1b cc bf 55 94 de 3f cd d2 14 40
       -1.483661 -1.5945901 1.7389017 2.3253663
0000e0 1d 9c b9 bf ba a0 28 bd 5b 44 bf 3f 2d c9 9d bf
       -1.4500767 -0.041168906 1.4942735 -1.2327019
0000f0 48 46 52 3f 5b 3b b4 bf b1 60 d6 3e 87 d2 14 40
       0.8213849 -1.4080614 0.41870645 2.3253496
000100 22 91 32 3f 78 a7 11 40 e4 72 e5 bf 2c d3 35 bf
       0.69752705 2.2758465 -1.7925687 -0.7102535
000110 2f 31 0b 40 a5 c9 12 40 81 2a e4 3f f9 60 9c bf
       2.174877 2.2935574 1.7825471 -1.2217094
000120 54 8e e0 bd ef b8 da 3d 2b 62 1a 40 1c 47 83 bf
       -0.10964647 0.106798045 2.4122417 -1.0256076
000130 66 ff a1 bf 8a 90 81 3f 7e 6f 74 bf 99 98 8a bf
       -1.2656066 1.0122235 -0.95482624 -1.0827819
000140 a2 87 a4 bf 11 a9 02 bf c6 50 4d 3f 7f 44 9e bf
       -1.2853892 -0.51039225 0.80201375 -1.2364653
000150 f2 68 3a bf d9 c6 d0 bf c2 af e7 bf 74 3b e1 3c
       -0.72816384 -1.6310683 -1.8100512 0.02749417
000160 e3 ef 64 be 7f 78 bd bf 87 a6 f1 3d b1 d9 d1 bf
       -0.22357135 -1.4802397 0.11799341 -1.6394559
000170 e5 39 59 bf 17 ce 12 40 a5 64 72 be 3b 86 b7 bf
       -0.84853965 2.2938287 -0.23671205 -1.4337839
000180 2b e1 f2 bf 0d eb db 3e a1 fb 0c bf 9e 94 cf bf
       -1.8974966 0.42952767 -0.55071455 -1.6217229
000190 60 8b a1 bf 7d 0c a3 3d 1a 70 ef bf 6a a8 94 3e
       -1.2620659 0.07961366 -1.8706086 0.2903474
0001a0 f7 f9 17 40 ad 3c b8 bf ea 45 c4 bf c5 25 c0 be
       2.3746316 -1.4393517 -1.5333836 -0.37528816
0001b0 c0 7c b1 bf 19 b3 f9 3f ae dc 20 40 33 ea 1e 40
       -1.3866196 1.9507781 2.5134692 2.4830444
0001c0 7a 5a 31 3f fb 40 0e 3f 77 a5 f2 bf 47 e1 0d 40
       0.6927868 0.555679 -1.8956746 2.2168748
0001d0 a6 51 dd bf ad 50 12 40 0c 1f bf 3f 44 c5 ac bf
       -1.7290542 2.286174 1.493135 -1.3497701
0001e0 f4 e1 81 be 61 53 71 bf 20 47 b3 3a ec c1 a1 bf
       -0.253677 -0.9426785 0.0013677813 -1.2637305
0001f0 96 e3 07 3f a4 d3 d7 bf fb 92 cc bf fe 5b f8 bf
       0.53081644 -1.6861463 -1.5982355 -1.9403074
000200 da 2b e3 bf 3e d4 28 bf d5 d3 12 40 33 6d 5a bf
       -1.7747757 -0.65948856 2.2941792 -0.85322875
000210 db 43 dc bf 6c 85 b7 bf 56 c3 ac 3f bb a1 c3 bf
       -1.7208208 -1.4337592 1.3497112 -1.5283731
000220 91 62 4c 3f 66 a1 1d 40 f4 92 be bf 61 dd 33 3d
       0.798379 2.462976 -1.4888597 0.043912295
000230 90 02 5b bf a0 9a d9 bf 1e 43 bf bf bd b0 b4 bf
       -0.85550785 -1.7000313 -1.4942358 -1.4116436
000240 88 34 86 bf 21 13 1f 40 a8 f7 c2 3d 39 98 c7 bf
       -1.0484781 2.4855425 0.09519893 -1.559333
000250 d5 8f aa 3f c1 83 9a 3f 36 a1 b4 bf 06 4b d6 bf
       1.3325144 1.2071458 -1.4111698 -1.6741645
000260 17 17 ea bf c4 d3 18 40 ae c6 1f c0 ca c1 7c bf
       -1.8288296 2.3879251 -2.4965014 -0.987332
000270 87 b5 13 40 17 6e 79 bf 76 cd 1e 40 3b c5 3d 3f
       2.3079545 -0.9743361 2.4812903 0.74129075

b4 f4 [5]
000000 7b 7e 57 3e 5e 72 56 bc ec a9 59 be ae be 20 3e
       0.21044342 -0.013088791 -0.21256226 0.15697739
000010 d7 3a 01 3e
       0.12620102

exp_avg f4 [32, 1, 3, 3]
000000 8f 99 a3 b9 b8 0a 09 bb 66 b6 b0 ba 9f 2b 09 ba
       -0.00031204193 -0.002091093 -0.0013482093 -0.00052326353
000010 18 86 52 bb 6f 53 6b ba ad b8 9f b8 3d 02 9c bb
       -0.0032123383 -0.0008976971 -7.616109e-05 -0.004761009
000020 8b 86 06 ba 1d d6 8e ba 72 20 75 bb 25 21 ea 39
       -0.0005131743 -0.0010897551 -0.0037403372 0.00044656653
000030 ed 57 da ba 89 a1 4b bb 24 16 b6 39 81 ce 21 3a
       -0.0016658284 -0.0031071624 0.0003473024 0.0006172434
000040 16 8c 2f bb 03 c1 89 ba dc ff 71 3b ce bc 24 3b
       -0.0026786379 -0.0010509792 0.0036926186 0.002513695
000050 3a b5 d6 ba d7 0b 37 3b 5f 8e b8 3a 9e 7d 4d 3a
       -0.0016380914 0.002793064 0.0014080516 0.0007838848
000060 0f 5f 22 3b db a5 10 3a 30 03 d8 3a 99 d4 91 3a
       0.0024775898 0.00055178785 0.0016480442 0.0011125981
000070 fb 2d 1d 3a 63 df 26 b7 91 7f 25 3a 5d 81 26 3a
       0.00059959263 -9.946382e-06 0.00063132594 0.0006351674
000080 64 29 08 3b 91 2e 40 3b f8 fd 69 3b 43 1e 85 3b
       0.0020776624 0.002932463 0.0035704356 0.0040624454
000090 1e 79 b3 3b d5 5f 06 3c c0 6e 0e 3b cf 50 26 3a
       0.005477085 0.008201559 0.0021733493 0.0006344439
0000a0 0d f8 14 3b c8 18 14 b9 d5 24 73 3a 7f e0 7c 3a
       0.0022730858 -0.00014123612 0.0009275203 0.00096464896
0000b0 ac cf 0b ba 8b f2 b6 b9 6c 7f 72 3a 5e 9a f5 ba
       -0.0005333375 -0.00034894454 0.0009250555 -0.0018738022
0000c0 27 cd c8 3a 2f 41 2b 3b b4 66 6c 39 ab 7c 3c b9
       0.0015319929 0.0026131382 0.00022544974 -0.0001797552
0000d0 89 89 37 3b 4f 9b 2f 3b 08 be 81 ba 86 b3 bb ba
       0.0028005561 0.0026795452 -0.0009898553 -0.001432047
0000e0 bf 8c b5 ba 2c c1 94 bb d8 3a 5e bb 0f 80 74 bb
       -0.001385115 -0.0045396294 -0.0033909585 -0.0037307774
0000f0 50 26 0e bc bf 80 bb bb 5b a6 5b bb 0f 20 57 bb
       -0.008676127 -0.005722135 -0.0033515904 -0.0032825505
000100 86 eb 02 bb 4d f4 89 3a 8e 5f 52 bb e9 3d 96 b9
       -0.0019976809 0.0010525078 -0.0032100412 -0.00028656356
000110 b8 56 ab 3a 15 9d af 3a ca 97 50 38 de be 21 3b
       0.0013072109 0.0013398255 4.973243e-05 0.0024680416
000120 b9 1d 07 3b 5c 82 bd ba 08 04 a1 b9 13 63 47 3b
       0.0020617081 -0.0014458406 -0.00030711317 0.0030424043
000130 87 9f cb ba 3a d6 5c bb 80 11 7b 3b 4d e3 9c bb
       -0.0015535214 -0.0033697025 0.0038309991 -0.0047878386
000140 27 b1 d3 bb 74 83 bd 3a cb 24 8c b9 73 03 bc bb
       -0.006460327 0.0014458732 -0.00026730294 -0.005737716
000150 79 7f 05 3b 35 79 f9 ba 85 f3 a5 bb d4 77 9a 3a
       0.002037017 -0.0019033315 -0.00506443 0.0011784979
000160 d7 12 55 bb 93 0c 4c bb c4 1d 17 3a ac 7c d9 3a
       -0.003251245 -0.0031135425 0.00057646283 0.0016592941
000170 a4 8f e5 3a 10 f3 8e 3b e7 42 61 3b 77 ca 39 3b
       0.0017514122 0.0043624714 0.0034372152 0.0028349438
000180 0f d5 a1 3a 04 42 55 3b 98 cd ef 3a f1 de 59 3a
       0.0012346822 0.003254057 0.0018295525 0.0008311114
000190 f4 af 8b 3b ca 53 63 3b 23 68 3f 3b a6 f2 49 3b
       0.0042629186 0.0034687393 0.0029206357 0.0030814796
0001a0 e4 51 0c 3b 4f 16 45 3b 17 95 33 3a 4f af 08 3b
       0.0021411115 0.0030073111 0.0006850524 0.0020856445
0001b0 88 11 ef bb 3b c8 93 bb bc ed 48 bb 0f eb 7f bb
       -0.007295791 -0.0045099533 -0.003065928 -0.0039050018
0001c0 8c cb ab bb 0d 67 ed bb 3b 89 43 bb 5e 47 97 bb
       -0.0052427705 -0.0072449506 -0.0029836434 -0.004616662
0001d0 a9 7f 0c bc 79 e9 a3 ba d1 af ab ba 85 02 fa ba
       -0.008575358 -0.0012505493 -0.0013098662 -0.0019074237
0001e0 ed 6b 44 bb eb 13 a4 ba 26 90 1a bb eb 86 2d 3b
       -0.0029971555 -0.0012518143 -0.0023584454 0.0026478122
0001f0 72 c3 90 39 46 05 14 38 63 db 12 ba a4 4f 3d 38
       0.00027611438 3.529086e-05 -0.0005602149 4.5135283e-05
000200 08 25 e7 ba 6b a6 0c 3b 4f 7b 1a 3b 36 45 4b 3a
       -0.0017634938 0.0021461498 0.0023572033 0.00077541487
000210 f7 4c 36 39 e8 e6 e6 b9 9f 93 b0 ba 1a 35 51 38
       0.00017385544 -0.00044041057 -0.0013471729 4.9878938e-05
000220 29 9e ab 3a 54 ae 31 b9 ea 10 68 39 30 61 9a 3a
       0.00130934 -0.00016944978 0.00022131545 0.0011778232
000230 46 b6 d9 3a ef 9e 07 ba 45 25 3f 3a 9a e3 86 3a
       0.0016610108 -0.0005173524 0.00072916254 0.0010291219
000240 37 b6 fe 39 67 93 df 3a 83 64 08 3a c9 11 a2 bb
       0.00048582416 0.0017057479 0.00052029657 -0.004945968
000250 22 cd 23 3a 76 8e 9b 39 f8 c2 61 bb a2 46 6a ba
       0.0006248524 0.00029670045 -0.0034448486 -0.0008936917
000260 92 57 78 ba da 93 16 bb cf 5d 6f 39 59 21 70 ba
       -0.0009473498 -0.002297631 0.00022827763 -0.00091602426
000270 4d 6c ec ba 5c aa 93 ba a0 12 01 b9 0d 7e b9 3a
       -0.0018037647 -0.0011265981 -0.00012309337 0.0014151946
000280 09 28 9a 39 7b 67 81 3b 29 ab f9 bb 9f 7f 3b bb
       0.00029402997 0.0039491034 -0.007619281 -0.0028610004
000290 55 9b df ba 86 bf 0c bc ed 70 93 bb 45 3d e9 ba
       -0.0017059842 -0.008590585 -0.004499546 -0.0017794749
0002a0 99 f0 a0 bb 90 38 95 bb 58 48 ab ba f6 af 1b bb
       -0.004911494 -0.004553862 -0.0013067825 -0.0023756004
0002b0 47 7c b5 ba b2 5d bb b9 df 90 c9 bb 46 c3 88 bb
       -0.0013846242 -0.00035737228 -0.006151303 -0.004173669
0002c0 d4 17 0f bb 42 79 a1 bb 04 c2 ca bb 45 3f 4a bb
       -0.002183427 -0.004927785 -0.0061876792 -0.0030860465
0002d0 1f d6 3a 39 05 1e 80 3a 93 4c c2 3a d0 84 e0 39
       0.00017818109 0.0009774572 0.0014823846 0.00042823562
0002e0 f8 04 d0 39 d4 9b a0 b8 7c 67 07 3a 99 27 30 3b
       0.00039676554 -7.65842e-05 0.00051652617 0.002687907
0002f0 fa 99 e7 39 38 9a 87 3b 36 a9 e2 3a a4 d5 88 3a
       0.00044174475 0.0041382574 0.001729286 0.0010439646
000300 8c 2a 8c 3a bd 83 b3 3a 08 be 08 ba 20 0a 46 3a
       0.0010693832 0.0013695877 -0.0005216305 0.00075546093
000310 e7 ce 9f 3a 85 3a ef 39 1b c9 3b 3a 83 90 29 3a
       0.0012192399 0.00045629233 0.0007163451 0.00064683723
000320 5b 43 9f b9 cc df b8 3a 84 2f 80 ba 10 3f be b9
       -0.00030377027 0.0014104783 -0.0009779786 -0.0003628661
000330 a6 7e 3b bb 0e 8f 33 bb 12 2a a1 b9 f0 8a 31 3b
       -0.0028609424 -0.00273985 -0.00030739658 0.002709087
000340 dd 7a 94 ba 41 65 a9 3b 68 4f b2 3a 18 ba 99 bb
       -0.001132812 0.005169541 0.0013603987 -0.0046913736
000350 7e 14 ea 3a 06 d6 c5 ba 7e 73 bd bb ca 1c 08 bb
       0.001785889 -0.0015093691 -0.00578159 -0.0020769113
000360 d1 95 1a 3a 22 04 90 3a 34 cc e0 3a 96 63 2f 3a
       0.0005896958 0.001098756 0.0017150701 0.00066905597
000370 a6 59 9e 3a 60 61 d2 b7 d3 fe 86 3a 67 93 c7 3a
       0.0012081161 -2.5079295e-05 0.0010299332 0.0015226424
000380 a0 84 b1 3a fa a2 37 bb 06 46 c0 3a 05 c6 1c 3b
       0.0013543554 -0.0028020726 0.0014669306 0.002392174
000390 0f cc 1f bb 33 e9 91 3b b3 c2 f6 3a 0b e9 96 ba
       -0.0024383103 0.0044528483 0.0018826335 -0.0011513544
0003a0 a0 17 7c b9 f9 0d dc ba 5f f6 1f ba c9 28 de b8
       -0.00024041394 -0.0016788832 -0.0006102081 -0.00010593382
0003b0 6b 5d a6 ba ad 4e a3 39 1c 07 10 3b 45 4e 0f bb
       -0.0012692636 0.000311484 0.0021976894 -0.002186672
0003c0 3a 78 6e ba ac 77 24 3b 9a 5f f4 ba 51 1f 7d 3b
       -0.00090968946 0.0025095744 -0.0018644214 0.0038623402
0003d0 4c 96 d6 38 dc d8 ab ba 32 bf 33 3b ee d8 68 ba
       0.0001023231 -0.0013110894 0.0027427194 -0.00088824227
0003e0 cb d7 5f 39 60 e6 28 3b d1 fd 9e 3a 25 f3 7d 3b
       0.00021347326 0.002577208 0.0012130087 0.0038749662
0003f0 56 8c 2c ba 20 6f bd ba 7e d4 78 ba 72 d3 13 ba
       -0.0006582191 -0.0014452673 -0.0009492113 -0.0005639113
